outputs/Optimal_Control/20220401-201009/models/checkpoint.pt (torch, 533487 bytes, 7 tensors)

linear1.weight f4 [256, 2]
0.5134113 -0.6763969 -0.15436351 -0.4294378 0.33121026 0.20799495 -0.005419297 0.101380974
-0.30660012 -0.6261372 0.44283855 0.28901514 -0.12030345 -0.37921196 -0.6936206 0.08635062
0.23637363 -0.7669062 0.33520076 0.51147205 -0.30015847 -0.030482352 0.16870436 0.15379696
0.101458356 -0.58847773 0.49372277 0.4683828 0.106604256 -1.198991 -0.19171795 0.7568347
-0.58778083 0.27051955 0.3403741 0.4482903 -0.23423743 -0.48269606 -0.5371787 -0.37704983
0.5308323 -0.379303 0.30383596 -0.65406024 -0.13684118 -0.059919655 0.41573623 0.48938027
0.40678805 -0.5604343 -0.15817636 -0.38478604 0.55723506 -0.32388833 0.137828 0.4273263
0.015418147 -0.06733464 0.12623115 -0.7542574 0.0028613792 0.6018603 -0.43009079 -0.35246423
0.14590055 0.61052835 -0.63893586 -0.65344524 -0.57089573 0.3797105 0.47734502 0.048862938
0.3343876 -0.72489685 -0.18355432 0.7361995 -0.325234 -0.46109638 -0.21733047 0.7580151
0.51401275 -0.53752226 0.14043154 -0.59422135 0.35297725 -0.075333156 -0.56918645 -0.38693446
0.10789342 0.24971497 0.17466302 0.0839451 -0.015521061 0.27721018 0.21054907 -0.7194591
-0.10503917 0.33996993 0.41458708 0.01873807 0.16211568 -0.6979427 0.00025749207 -0.5796117
-0.31107366 0.29604238 0.12637034 0.3219527 0.42209062 0.35610378 -0.118869424 -0.5497816
0.618676 0.17953509 -0.44449845 0.067655325 -0.59655803 -0.45928127 0.06925965 -0.10514742
0.59921014 -0.70317894 0.29016656 -0.52900803 -0.6207208 0.19958723 0.007851099 0.16634874
0.46421093 0.35163456 0.20267142 0.35765618 -0.32033435 0.06337249 -0.56579715 -0.18969119
0.15950637 -0.66885084 0.45254534 -0.58473027 -0.41252938 -0.6423589 -0.14225733 -0.017792523
0.055299804 0.45077172 0.43510568 -0.55763525 0.4807885 -0.49871403 -0.32997897 0.08403593
-0.5288581 0.2575332 -0.3412481 0.11510247 0.20902017 -0.7751732 0.13261917 -0.56351614
0.16368447 -0.64969826 0.59519905 -0.13382424 0.3365689 0.09592488 -0.58056694 -0.6433621
-0.33306167 -0.0473969 0.4151749 -0.8762501 0.19685677 -0.8394319 0.2446917 0.3032555
-0.60340446 -0.37851822 0.08971757 -0.48992434 0.12547004 0.25548676 -0.64136416 -0.43654305
0.25617284 -0.9335145 -0.07187343 -0.2882987 -0.29413283 0.11297083 -0.3532844 -0.6807992
0.41032523 -0.10018172 0.16489749 -0.1507945 -0.6703706 -0.15698206 -0.10318577 -0.68756133
-0.5205226 0.0018436909 -0.35318637 -0.47262597 -0.41617846 -0.43085214 0.29581118 0.37565845
-0.53009236 -0.6969984 -0.34545588 0.19320393 0.111854464 -0.25352952 0.38831544 -0.4178555
-0.13945077 0.22281791 -0.5193704 -0.29851744 -0.08889598 0.4437099 -0.64795184 -0.42076048
0.22764033 0.18443087 -0.14144745 0.57869303 -0.083740495 0.79088163 -0.14624208 0.58479035
0.0014525363 0.4038842 0.0036068314 0.60499084 0.0025246157 0.5707907 -0.007440865 -0.10305011
0.35379666 0.13236983 0.34754097 0.38768438 0.25131884 -0.044528097 -0.39108485 0.66978335
-0.53792 0.24226129 -0.673749 -0.17283082 -0.51192135 0.02916038 0.087719105 0.14553635
00000000: ec6e 033f 5928 2dbf 7811 1ebe 45df dbbe
00000010: 6494 a93e a1fc 543e 5c94 b1bb d4a0 cf3d
00000020: b1fa 9cbe 874a 20bf bcbb e23e cbf9 933e
00000030: a861 f6bd 1228 c2be 1f91 31bf 98d8 b03d
00000040: ee0b 723e f753 44bf 6f9f ab3e d5ef 023f
00000050: 5fae 99be 20b6 f9bc d6c0 2c3e f37c 1d3e
00000060: 66c9 cf3d 7aa6 16bf 3bc9 fc3e dfcf ef3e
00000070: 5553 da3d 8978 99bf b651 44be ebbf 413f
00000080: ce78 16bf 8a81 8a3e 8445 ae3e 4e86 e53e
00000090: f0db 6fbe f023 f7be 8b84 09bf ad0c c1be
000000a0: a0e4 073f 0134 c2be 6390 9b3e 7e70 27bf
000000b0: 1820 0cbe 506e 75bd 61db d43e 0d90 fa3e
000000c0: 8646 d03e 9f78 0fbf fcf8 21be ad02 c5be
000000d0: f5a6 0e3f b1d4 a5be c922 0d3e 83ca da3e
000000e0: 659c 7c3c bee6 89bd bd42 013e 0317 41bf
000000f0: fa85 3b3b 8413 1a3f dc34 dcbe 3176 b4be
00000100: f466 153e 964b 1c3f 4d91 23bf 3048 27bf
00000110: 3926 12bf 6a69 c23e 9166 f43e 8124 483d
00000120: da34 ab3e d792 39bf aaf5 3bbe 9277 3c3f
00000130: 1285 a6be d314 ecbe e18b 5ebe 470d 423f
00000140: 5796 033f 0f9b 09bf 49cd 0f3e e41e 18bf
00000150: 6fb9 b43e 4548 9abd 34b6 11bf 461c c6be
00000160: 3af7 dc3d 48b5 7f3e ddda 323e 69eb ab3d
00000170: 0c4c 7ebc 7eee 8d3e 2d9a 573e 792e 38bf
00000180: c71e d7bd 8a10 ae3e c244 d43e 9580 993c
00000190: a701 263e 5fac 32bf 0000 8739 6f61 14bf
000001a0: 0c45 9fbe de92 973e 3a67 013e fcd6 a43e
000001b0: 431c d83e 3c53 b63e d071 f3bd 7dbe 0cbf
000001c0: 8d61 1e3f 0cd8 373e 4d95 e3be e08e 8a3d
000001d0: 07b8 18bf ea26 ebbe 01d8 8d3d 8857 d7bd
000001e0: d665 193f 8903 34bf b690 943e 126d 07bf
000001f0: 8fe7 1ebf 9860 4c3e e5a1 003c 5357 2a3e
00000200: 0ead ed3e 7209 b43e 1989 4f3e b61e b73e
00000210: dd02 a4be 70c9 813d 15d8 10bf 683e 42be
00000220: a355 233e cf39 2bbf 06b4 e73e e2b0 15bf
00000230: 0d37 d3be a271 24bf e8ab 11be a0c1 91bc
00000240: 0c82 623d 8dcb e63e 2cc6 de3e 2fc1 0ebf
00000250: e929 f63e 7257 ffbe 01f3 a8be 081b ac3d
00000260: 3f63 07bf 64db 833e 12b8 aebe d8ba eb3d
00000270: 6209 563e c071 46bf 52cd 073e 9842 10bf
00000280: e79c 273e a052 26bf f75e 183f 3909 09be
00000290: c252 ac3e 4374 c43d 09a0 14bf 61b3 24bf
000002a0: 0f87 aabe 4023 42bd ce91 d43e ed51 60bf
000002b0: d294 493e 02e5 56bf 7690 7a3e 4e44 9b3e
000002c0: b778 1abf 24cd c1be d8bd b73d 5dd7 fabe
000002d0: 387b 003e 29cf 823e 7130 24bf 9282 dfbe
000002e0: 1629 833e cefa 6ebf 6032 93bd e39b 93be
000002f0: 9498 96be 405d e73d b1e1 b4be db48 2ebf
00000300: 2616 d23e 132c cdbd e3da 283e e069 1abe
00000310: 689d 2bbf e8bf 20be 1053 d3bd 0504 30bf
00000320: f840 05bf 00a8 f13a d8d4 b4be 08fc f1be
00000330: 5815 d5be a798 dcbe 9074 973e 4e56 c03e
00000340: 22b4 07bf 7d6e 32bf 98df b0be 40d7 453e
00000350: f413 e53d 9fce 81be 48d1 c63e 28f1 d5be
00000360: 2fcc 0ebe 612a 643e 75f5 04bf 47d7 98be
00000370: 180f b6bd f22d e33e 2ce0 25bf eb6d d7be
00000380: 8c1a 693e 72db 3c3e 9ad7 10be 3a25 143f
00000390: 2380 abbd 3877 4a3f 7cc0 15be d2b4 153f
000003a0: 0863 be3a e9c9 ce3e 9760 6c3b aee0 1a3f
000003b0: 0674 253b 571f 123f 80d2 f3bb f00b d3bd
000003c0: d624 b53e f58b 073e e4f0 b13e 917e c63e
000003d0: ddac 803e 1863 36bd 463c c8be ec76 2b3f
000003e0: 20b5 09bf 5813 783e d17a 2cbf 90fa 30be
000003f0: 470d 03bf c0e1 ee3c 13a6 b33d 7b07 153e

linear1.bias f4 [256]
1.2788255 0.13842566 -0.76562345 -1.1868507 0.028814035 1.6567115 -0.093367755 0.59074664
1.1254345 -0.36143166 -0.005230069 -0.49733707 0.3272507 -0.933902 0.07299516 0.9228954
-0.097268164 -1.2600504 -0.33867022 0.5213831 1.3404534 0.2965704 -0.30704063 0.60696757
0.27565175 0.25979754 0.7939266 -1.0386161 0.96493864 0.79666156 -1.2764621 0.17433372
-0.98747754 0.10725961 0.6243977 -0.30521095 0.5237014 1.367964 0.4965552 -0.9317996
1.4780394 -0.008070551 0.3023588 0.23286562 -0.09711817 -1.7323188 -1.2493767 0.7599069
1.329883 0.7147089 0.21446805 -0.25320637 -0.077097654 -0.3908809 1.1630596 0.614653
-1.5905175 -0.6037834 -0.4710183 1.0750812 0.60362625 -0.1486159 0.34434128 -1.0106524
-0.89142036 -0.71347743 -0.4774851 0.40789977 -0.15831833 -0.22315948 -0.60875887 -0.27202156
-1.487926 0.28979796 0.27653325 0.28340918 0.5631735 0.2545126 -1.5091586 0.1654857
-0.17298728 -1.5509515 -0.6799706 -0.38081944 0.1728298 -0.53371036 -0.015160433 -1.4152701
0.1059939 -0.44942746 0.7688546 -0.0009438858 0.7118398 0.4352516 0.52480215 -0.27361447
-0.66696596 -0.11592971 0.58305305 -0.4274314 0.06749918 -0.55469644 -0.0014501844 -0.16752031
0.18720666 0.37700444 -1.0606632 -0.41113958 -0.8248346 -0.41749716 -0.8877665 0.671879
-0.024326766 -0.79124033 1.7956741 1.5256177 -0.9769949 -1.4345571 -0.6149191 -0.5376556
-0.81974936 -0.9953189 -1.261512 -1.3116475 -0.34852627 0.2730917 -0.29953772 -0.5185772
0.54395634 0.72495365 0.61184615 0.829728 -0.6314691 -1.3786674 -0.41815758 0.20942342
-0.52179587 -1.4388806 0.37829593 -1.0870951 -0.6751378 -0.26944387 -0.44931474 -1.5817453
-0.657346 -1.6022321 0.56735045 -0.63067424 0.951366 -0.25193146 -0.3767571 -0.4632687
0.5434878 -0.5208502 -0.8714216 0.22924928 -0.55526775 1.0320942 0.4916257 -0.5078412
-0.25293466 -0.17412785 -0.55986685 -1.0984285 -0.53966415 -1.3725228 -0.031342447 0.045564838
0.28419542 -0.87927 -0.164909 -1.0599666 0.4738886 -0.4300053 0.22455937 1.2357881
-0.042072862 -1.1126606 -0.5351486 0.94640946 -0.8935621 -0.40277854 -0.048684597 -1.4266039
-0.9518021 0.032866497 -0.46023336 -0.3982956 -0.85595006 -1.1671993 -1.3988222 -0.06443674
1.5903233 0.2113607 0.11101192 0.34953848 -0.1373747 1.1165013 0.9176123 -0.5152648
-1.4368755 1.0327852 -0.76271 0.47777808 -0.15742761 -1.3670716 -0.46981436 0.07444515
-0.5733987 -1.1217574 -0.3800405 -1.3189727 -0.80098385 -0.43963203 -1.1696668 1.4308882
-1.1084186 0.66455215 -1.1889242 -0.06274319 -0.20732826 0.48877817 0.13493659 0.4621091
1.3239706 1.1064936 -0.9504148 -0.7578034 -0.6204666 0.581292 0.20366046 0.5030145
-1.4933162 -0.05979657 0.46824124 -0.32619292 -1.2873564 -1.6130981 -0.035436213 -0.23961258
0.51223946 0.3959378 -0.084768735 -1.4943931 1.360433 -0.54991174 -0.37438387 -0.83082134
-1.71807 -1.5314432 -0.3028847 -1.3144326 -0.43075344 0.11563914 -1.0745333 -0.986092
00000000: 8eb0 a33f 75bf 0d3e e6ff 43bf b9ea 97bf
00000010: 690b ec3c 1f0f d43f 9837 bfbd 2c3b 173f
00000020: 3d0e 903f 920d b9be 0061 abbb f7a2 febe
00000030: 678d a73e 3414 6fbf 7d7e 953d df42 6c3f
00000040: 8834 c7bd 5549 a1bf 2f66 adbe 5d79 053f
00000050: fa93 ab3f 13d8 973e 6e34 9dbe 3a62 1b3f
00000060: 3a22 8d3e 2f04 853e c63e 4b3f 5ff1 84bf
00000070: 3806 773f 03f2 4b3f 1c63 a3bf 8a84 323e
00000080: 54cb 7cbf edaa db3d 87d8 1f3f 9c44 9cbe
00000090: 4c11 063f 7219 af3f 7c3c fe3e 6b8a 6ebf
000000a0: 6530 bd3f 583a 04bc c6ce 9a3e 5374 6e3e
000000b0: e4e5 c6bd 9fbc ddbf 93eb 9fbf 4289 423f
000000c0: 9b39 aa3f 2af7 363f 839d 5b3e 44a4 81be
000000d0: 60e5 9dbd 8b21 c8be 23df 943f e659 1d3f
000000e0: 1496 cbbf 8d91 1abf 5029 f1be 439c 893f
000000f0: 4087 1a3f c42e 18be 804d b03e 0f5d 81bf
00000100: 2034 64bf 75a6 36bf ed78 f4be 3dd8 d03e
00000110: 331e 22be eb83 64be 9fd7 1bbf 6946 8bbe
00000120: 5c74 bebf 6660 943e c495 8d3e 021b 913e
00000130: 232c 103f 7a4f 823e 1c2c c1bf 1575 293e
00000140: 9423 31be 9485 c6bf 8e12 2ebf c4fa c2be
00000150: 4cfa 303e 3ea1 08bf 7763 78bc 9227 b5bf
00000160: 5413 d93d 5b1b e6be a8d3 443f 1b6f 77ba
00000170: 223b 363f 4cd9 de3e 6f59 063f 3217 8cbe
00000180: 48be 2abf 8e6c edbd f742 153f 4ad8 dabe
00000190: 033d 8a3d 9600 0ebf 1d14 beba 728a 2bbe
000001a0: 1ab3 3f3e ba06 c13e d0c3 87bf e380 d2be
000001b0: 5c28 53bf 30c2 d5be aa44 63bf 4300 2c3f
000001c0: ed48 c7bc ba8e 4abf a6d8 e53f 7147 c33f
000001d0: 561c 7abf 919f b7bf 576b 1dbf cca3 09bf
000001e0: 18db 51bf 38cd 7ebf 3a79 a1bf 11e4 a7bf
000001f0: 0972 b2be add2 8b3e 025d 99be 7ac1 04bf
00000200: b940 0b3f 9096 393f f3a1 1c3f 0e69 543f
00000210: f5a7 21bf 2c78 b0bf c018 d6be 1873 563e
00000220: 6a94 05bf 3d2d b8bf 01b0 c13e ef25 8bbf
00000230: d5d5 2cbf 8cf4 89be 950c e6be a176 cabf
00000240: d447 28bf f115 cdbf e13d 113f de73 21bf
00000250: b98c 733f 29fd 80be 4ee6 c0be 8e31 edbe
00000260: 0422 0b3f 7056 05bf 7c15 5fbf 53c0 6a3e
00000270: 0726 0ebf aa1b 843f 5db6 fb3e e201 02bf
00000280: a780 81be 924e 32be 6f53 0fbf 4e99 8cbf
00000290: 6e27 0abf d4ae afbf f060 00bd 32a2 3a3d
000002a0: 1082 913e d717 61bf e8dd 28be fcac 87bf
000002b0: 87a1 f23e a829 dcbe e4f2 653e 4e2e 9e3f
000002c0: 9854 2cbd aa6b 8ebf 80ff 08bf e447 723f
000002d0: 7cc0 64bf fd38 cebe 8069 47bd f59a b6bf
000002e0: 4da9 73bf 059f 063d b5a3 ebbe 67ed cbbe
000002f0: 8b1f 5bbf c966 95bf 9b0c b3bf 69f7 83bd
00000300: b78f cb3f f06e 583e 385a e33d b5f6 b23e
00000310: f4ab 0cbe 84e9 8e3f a4e8 6a3f 65e8 03bf
00000320: 89eb b7bf 4e32 843f f640 43bf 549f f43e
00000330: b434 21be 34fc aebf 828b f0be b376 983d
00000340: 42ca 12bf bf95 8fbf ab94 c2be 19d4 a8bf
00000350: 470d 4dbf 7317 e1be a4b7 95bf 5827 b73f
00000360: a9e0 8dbf 1720 2a3f ab2e 98bf 807f 80bd
00000370: dc4d 54be 2241 fa3e d12c 0a3e 9099 ec3e
00000380: de77 a93f 95a1 8d3f 624e 73bf 67ff 41bf
00000390: e6d6 1ebf 8dcf 143f 5e8c 503e 8fc5 003f
000003a0: fc24 bfbf 40ed 74bd 51bd ef3e c202 a7be
000003b0: 18c8 a4bf 007a cebf 9025 11bd 005d 75be
000003c0: 2022 033f 5cb8 ca3e 3b9b adbd 4648 bfbf
000003d0: ab22 ae3f 04c7 0cbf 3eaf bfbe b5b0 54bf
000003e0: b8e9 dbbf 5506 c4bf b413 9bbe 543f a8bf
000003f0: b78b dcbe 37d4 ec3d 4f8a 89bf 8670 7cbf

linear2.weight f4 [256, 256]
0.054326322 -0.062770896 -0.021841085 0.010571007 -0.018943006 -0.06362805 -0.017280087 0.023990938
-0.01232126 -0.038628355 -0.031031042 0.043257 -0.031036139 0.011419336 0.013369616 0.0250315
0.009549253 0.0033341027 -0.044232614 -0.0514925 0.016847057 -0.050346754 -0.036573395 0.0016164044
-0.032205336 0.0093475785 0.05346492 0.024409376 0.005334943 0.05325794 -0.037676647 -0.06810096
0.052492525 -0.06307005 -0.008951141 0.012388018 -0.043568052 0.021025784 -0.051467486 0.020983623
0.027356368 0.011521702 -0.028083416 0.00634885 0.035567723 -0.03858613 -0.024335312 0.0076120878
-0.03570851 -0.036227576 -0.046699822 0.057505824 -0.048510037 -0.03502815 -0.049805075 -0.010543365
-0.03288554 -0.009729691 0.04611992 0.0069713686 -0.028383655 -0.0290477 0.008843701 0.047467455
-0.059201524 0.019140502 0.01588741 -0.04960233 0.024440544 0.015084062 0.013663933 -0.0016024411
-0.019736068 0.03392444 -0.03328913 0.02183319 0.014667979 -0.06265841 -0.001730197 -0.061154466
0.022304876 0.05131733 0.05736269 0.022199482 -0.010284574 -0.052496325 -0.0012631362 0.023723517
-0.037359897 0.04130772 0.0054385117 0.043415632 -0.022561667 0.029605445 -0.060903665 -0.056938216
0.03785694 -0.049888175 -0.060895994 0.050442673 -0.060064185 0.057802692 -0.01949337 0.012765231
-0.034600895 0.018227376 0.03389947 0.008544263 -0.041612785 -0.034723207 0.0013825938 -0.058801606
-0.059168514 0.024270004 0.061550032 0.0163639 -0.04282499 -0.029054165 -0.046475757 -0.05021999
0.0146190375 -0.00037141485 0.021479042 0.06624848 -0.009416468 0.011239287 -0.02088727 0.05017113
0.0067233564 -0.0008880435 -0.030619767 0.04200545 0.02510327 -0.04748817 0.023720518 -0.010536255
0.06198198 0.003496635 -0.022263814 -0.017769437 -0.057816364 -0.058594503 -0.018619 0.050693862
-0.013856269 -0.06301026 -0.0032759295 -0.0150671955 0.0062965704 -0.0012317831 -0.06180364 -0.05450382
-0.03173811 -0.01733141 0.010719361 -0.022488223 -0.032886975 -0.044833284 0.0012397706 -0.05621878
-0.0171791 -0.019442575 -0.017917044 -0.0070184036 -0.018287392 -0.042648412 -0.054198116 0.043045525
-0.013947037 -0.055719174 -0.058586434 0.013968353 -0.042796187 -0.054902047 0.027468273 0.049591184
-0.03956066 -0.06681143 0.052153483 0.052395415 -0.051862534 -0.041798137 0.050832033 0.020045463
0.005661362 -0.0022261129 0.05490033 -0.0055539813 -0.0196247 -0.013421626 -0.0058462922 0.010072485
0.05401236 -0.003956214 -0.0092175715 0.042652674 -0.018011056 -0.0387912 -0.058095343 -0.011424057
-0.02282141 -0.045193706 0.037813284 -0.022097094 0.020079665 0.0860674 0.038025253 -0.028649855
-0.044725887 -0.029374199 0.031269066 0.00905316 0.0108431475 -0.039760306 0.0407651 0.04383502
-0.044387583 0.023861667 -0.034442943 -0.028348155 -0.039737653 0.03442255 -0.060187433 0.015611082
0.023664245 -0.0022367903 0.05509464 0.0760183 -0.036916606 0.059368856 0.020966703 -0.038651537
-0.04403535 0.02507551 -0.03548906 -0.013407945 -0.064619385 -0.020122606 0.041210428 -0.0071008354
-0.006158166 3.5848534e-05 -0.039308667 0.006482379 0.025566693 0.05767589 -0.0018177181 0.061158832
0.00049826916 0.007106183 0.043228097 -0.0012150174 -0.02055695 -0.0016515473 -0.06750982 0.037690893
00000000: 4785 5e3d 078e 80bd 13ec b2bc 0432 2d3c
00000010: 5d2e 9bbc 6c4f 82bd f88e 8dbc a588 c43c
00000020: 1cdf 49bc c438 1ebd d034 febc 412e 313d
00000030: 803f febc 2b18 3b3c 3c0c 5b3c dc0e cd3c
00000040: 7874 1c3c f680 5a3b 422d 35bd cde9 52bd
00000050: d702 8a3c 6638 4ebd fccd 15bd 88dd d33a
00000060: bee9 03bd 9626 193c 08fe 5a3d 2cf6 c73c
00000070: bfd0 ae3b ff24 5a3d d452 1abd 8478 8bbd
00000080: 6702 573d df2a 81bd cea7 12bc 1df7 4a3c
00000090: 6a74 32bd 443e ac3c 92cf 52bd d9e5 ab3c
000000a0: 761a e03c 85c5 3c3c 310f e6bc 040a d03b
000000b0: 76af 113d 7d0c 1ebd d95a c7bc d26e f93b
000000c0: 1643 12bd 5e63 14bd 5048 3fbd 3a8b 6b3d
000000d0: 76b2 46bd ad79 0fbd 6800 4cbd 14be 2cbc
000000e0: fdb2 06bd 4869 1fbc 3ee8 3c3d 1470 e43b
000000f0: d784 e8bc 71f5 edbc 2ce5 103c 3c6d 423d
00000100: 4c7d 72bd 8bcc 9c3c 5026 823c d02b 4bbd
00000110: 8937 c83c 2423 773c b0de 5f3c 0009 d2ba
00000120: 89ad a1bc 5bf4 0a3d 2f5a 08bd 85db b23c
00000130: f751 703c 0d53 80bd c7c7 e2ba 1b7d 7abd
00000140: b7b8 b63c 1f32 523d 24f5 6a3d b0db b53c
00000150: a180 28bc 6306 57bd d18f a5ba d257 c23c
00000160: b106 19bd 4932 293d 8b35 b23b 97d4 313d
00000170: 3fd3 b8bc 1e87 f23c 1f76 79bd 0c38 69bd
00000180: e10f 1b3d 8b57 4cbd 146e 79bd fa9c 4e3d
00000190: dd05 76bd 84c2 6c3d 8fb0 9fbc 4225 513c
000001a0: abb9 0dbd 9451 953c 2cda 0a3d 3dfd 0b3c
000001b0: 2b72 2abd ec39 0ebd 2638 b53a f4d9 70bd
000001c0: af5a 72bd e3d1 c63c e31b 7c3d 960d 863c
000001d0: 4269 2fbd 0003 eebc 5d5d 3ebd 7ab3 4dbd
000001e0: b084 6f3c 75ba c2b9 d1f4 af3c 48ad 873d
000001f0: 8847 1abc fd24 383c c81b abbc 3e80 4d3d
00000200: 9a4f dc3b 97cb 68ba 4ed6 fabc e80d 2c3d
00000210: 5fa5 cd3c f582 42bd 8851 c23c 42a0 2cbc
00000220: d1e0 7d3d cd27 653b 9a62 b6bc 3691 91bc
00000230: dad0 6cbd ca00 70bd e086 98bc 5ea4 4f3d
00000240: 6805 63bc 860b 81bd fab0 56bb 66dc 76bc
00000250: 7653 ce3b c873 a1ba d025 7dbd 663f 5fbd
00000260: d2ff 01bd 9afa 8dbc 42a0 2f3c 3939 b8bc
00000270: 7eb4 06bd 1ba3 37bd cc7f a23a aa45 66bd
00000280: 2fbb 8cbc 0946 9fbc c4c6 92bc a3fa e5bb
00000290: 71cf 95bc 1ab0 2ebd d8fe 5dbd 8150 303d
000002a0: 1d82 64bc ca39 64bd 54f8 6fbd 85db 643c
000002b0: 0e4b 2fbd f8e0 60bd 2505 e13c 2020 4b3d
000002c0: 5c0a 22bd 6ed4 88bd e49e 553d 939c 563d
000002d0: cf6d 54bd 8634 2bbd 4035 503d 6236 a43c
000002e0: f282 b93b fae3 11bb 2bdf 603d 2cfe b5bb
000002f0: fbc3 a0bc 61e6 5bbc 4192 bfbb 1007 253c
00000300: 103c 5d3d 21a3 81bb 4c05 17bc 92b4 2e3d
00000310: ec8b 93bc 85e3 1ebd 62f5 6dbd f82b 3bbc
00000320: f7f3 babc 091d 39bd 1ae2 1a3d f704 b5bc
00000330: 1c7e a43c 1b44 b03d 5ec0 1b3d 1ab3 eabc
00000340: 7e32 37bd 29a2 f0bc fe13 003d b553 143c
00000350: 75a7 313c b4db 22bd 4ef9 263d 5a8c 333d
00000360: c1cf 35bd 8b79 c33c 0b14 0dbd 643a e8bc
00000370: f3c3 22bd a9fe 0c3d 1987 76bd a0c5 7f3c
00000380: 85db c13c 1d97 12bb ebaa 613d 7caf 9b3d
00000390: de35 17bd c22c 733d 5dc2 ab3c 1351 1ebd
000003a0: 695e 34bd 286b cd3c fa5c 11bd ffac 5bbc
000003b0: 2b57 84bd 2ad8 a4bc 44cc 283d 20ae e8bb
000003c0: 71ca c9bb 125c 1638 2002 21bd 236a d43b
000003d0: 3e71 d13c 8e3d 6c3d 8040 eeba af81 7a3d
000003e0: 479e 023a fcda e83b f20f 313d 3841 9fba
000003f0: 0c67 a8bc bb78 d8ba 9742 8abd c461 1a3d

linear2.bias f4 [256]
0.043049924 -0.031144252 0.0013688419 0.01300979 -0.00021266192 -0.039334595 -0.16459799 0.0011330826
0.06052984 0.01074529 -0.26477182 0.019081498 -0.4721454 0.101602554 0.019297542 -0.16778289
0.037065584 0.0036596628 -0.004250116 -0.033626825 -0.08273174 0.032987494 -0.15449011 0.033036366
0.029953774 -0.06092441 -0.0058617666 -0.029300798 -0.050345227 -0.01852557 -0.012906133 0.024818556
-0.045551952 -0.053212635 0.21272402 -0.054071646 -0.035040863 0.05038927 -0.6725052 -0.032200515
0.046127014 -0.2854225 0.7182629 0.02697008 -0.024957646 -0.019612683 0.0047035646 0.08901703
-0.008773995 -0.05955376 0.106197 -0.005595302 -0.038528487 0.04971873 -0.021567008 -0.051167697
0.03689256 -0.02123297 -0.01968865 -0.174775 -0.004504677 -0.015929362 -0.029472163 -0.008145206
0.0049407105 -0.23589873 0.04490632 -0.00043725493 -0.16061488 0.004859714 -0.011608945 0.057015933
0.038811833 -0.053425856 0.03919939 0.07782462 0.11082296 0.053962536 0.017591769 -0.015828086
0.028861525 -0.028978692 -0.005491563 0.05900553 0.031871397 0.029756894 0.021790156 0.14299613
0.0076008053 0.050882272 0.008369514 0.19934674 0.06075606 -0.35410127 0.050224267 -0.035744082
-0.27999514 -0.6888012 0.024379756 0.011319235 -0.08615297 -0.0022593995 -0.0047875135 0.01860036
-0.7833647 0.00028564202 -0.93848205 -0.04588768 -0.038071126 -0.025216758 -0.039013226 0.0026488225
-0.0005576997 0.004101187 0.015572081 0.023290657 0.06243684 -0.01898343 0.6488288 0.01748622
0.03883391 -0.004589286 -0.05367732 0.02959977 -0.05224831 0.08220427 0.025601352 -0.34167778
-0.03372889 0.1097807 0.012597872 0.0074898317 -0.030735377 0.0026482344 0.014650755 -0.0013246024
-0.043722883 0.021781884 -0.09760732 0.022948308 -0.01192167 -0.026999349 0.06301887 0.114275016
-0.044629212 -0.010667317 -0.054063056 -0.05965366 0.04192735 0.056086496 0.006034394 -0.034632646
0.035760365 0.005827275 0.010555498 -0.04169571 -0.043323785 -0.064936295 0.00028604793 0.04579963
-0.0052942946 -0.024738321 -0.027331883 -0.05488614 0.03932411 0.058752246 0.1469911 -0.04815522
0.0068953317 0.014388321 0.035571292 -0.006368973 -0.044830687 0.026364367 -0.03187453 -0.17569976
0.07496734 0.099637516 -0.050116327 -0.20803642 -0.22794628 -0.06539633 -0.009007692 -0.017044717
-0.031740803 0.13867143 0.031682167 -0.012455 0.07768521 -0.36810538 -0.045577023 0.11600748
0.060334675 0.027829563 -0.16986004 0.010988109 0.0016916281 -0.048404656 0.04953266 0.028126499
0.023880446 -0.033522476 0.016326653 0.06645127 0.05574322 -0.0026501557 -0.61368966 0.060405485
-0.02003081 -0.03475635 -0.013682783 -0.04277928 0.010501169 -0.029939774 0.054060638 -0.017439066
-0.032597266 0.022315258 -0.019489713 0.053390197 0.05752909 0.0032481 0.18884714 0.13079353
0.030919595 -0.04423487 -0.0018148057 -0.014824353 -0.056904882 -0.035460114 -0.05777503 -0.038515963
0.24277452 0.51805764 0.00016733984 0.025036035 -0.025743999 0.03710145 -0.2752494 0.01161471
-0.021461207 -0.29982916 0.05072513 0.01770707 0.03492645 -0.00072999194 0.040984146 0.022291949
0.075124905 0.0004728809 -0.6414829 0.054339536 0.04978057 -0.004117644 -0.17122309 0.017078836
00000000: 1e55 303d 3b22 ffbc b66a b33a 0427 553c
00000010: 00fe 5eb9 501d 21bd 608c 28be f183 943a
00000020: 23ee 773d 030d 303c 2c90 87be cd50 9c3c
00000030: 0bbd f1be 0015 d03d e115 9e3c 47cf 2bbe
00000040: 15d2 173d f4d6 6f3b 8f44 8bbb 48bc 09bd
00000050: 426f a9bd e51d 073d a832 1ebe 2451 073d
00000060: 9e61 f53c e08b 79bd 1014 c0bb 3a08 f0bc
00000070: cc36 4ebd f0c2 97bc 3f74 53bc 4950 cb3c
00000080: af94 3abd 7ef5 59bd 53d4 593e 3b7a 5dbd
00000090: 0287 0fbd fb64 4e3d 4d29 2cbf b0e4 03bd
000000a0: aeef 3c3d e622 92be 14e0 373f 5bf0 dc3c
000000b0: fa73 ccbc c7aa a0bc 5c20 9a3b 904e b63d
000000c0: cdc0 0fbc a5ee 73bd d07d d93d cc58 b7bb
000000d0: 0cd0 1dbd dea5 4b3d 4bad b0bc 3895 51bd
000000e0: a71c 173d c4f0 adbc 174a a1bc 38f8 32be
000000f0: f89b 93bb 4b7e 82bc 9b6f f1bc 7873 05bc
00000100: afe5 a13b 708f 71be b0ef 373d 5d3f e5b9
00000110: 3a78 24be 3c3e 9f3b 7233 3ebc 8a89 693d
00000120: 28f9 1e3d 12d5 5abd 8a8f 203d 8462 9f3d
00000130: 26f7 e23d d207 5d3d 9d1c 903c e7a9 81bc
00000140: 016f ec3c b964 edbc 92f2 b3bb c8af 713d
00000150: 958b 023d bbc4 f33c 4581 b23c 946d 123e
00000160: 2d10 f93b ee69 503d 4920 093c 8d21 4c3e
00000170: 59db 783d c34c b5be f6b7 4d3d 6368 12bd
00000180: 865b 8fbe 4755 30bf 0eb8 c73c 5074 393c
00000190: f870 b0bd 6f12 14bb 93e0 9cbb c85f 983c
000001a0: 978a 48bf 39c2 9539 5c40 70bf b8f4 3bbd
000001b0: 78f0 1bbd 6093 cebc 55cc 1fbd de97 2d3b
000001c0: 9832 12ba 4063 863b 0b22 7f3c 0ccc be3c
000001d0: c6bd 7f3d 2383 9bbc a519 263f 433f 8f3c
000001e0: 4e10 1f3d b961 96bb c0dc 5bbd 387b f23c
000001f0: 5302 56bd b65a a83d edb9 d13c 64f0 aebe
00000200: 4e27 0abd b4d4 e03d 4e67 4e3c 436d f53b
00000210: c2c8 fbbc 008e 2d3b b809 703c 489e adba
00000220: c416 33bd ec6f b23c 59e6 c7bd 17fe bb3c
00000230: 1c53 43bc bd2d ddbc 0a10 813d 0509 ea3d
00000240: 1fcd 36bd f8c5 2ebc 3971 5dbd 6557 74bd
00000250: 03bc 2b3d f4ba 653d 2abc c53b f6da 0dbd
00000260: 7679 123d baf2 be3b f8f0 2c3c 1fc9 2abd
00000270: 4874 31bd 52fd 84bd b4f8 9539 6598 3b3d
00000280: c37b adbb 05a8 cabc 1de7 dfbc 4ad0 60bd
00000290: 5112 213d 32a6 703d d684 163e 683e 45bd
000002a0: 3cf2 e13b febc 6b3c 34b3 113d d1b2 d0bb
000002b0: 62a0 37bd 16fa d73c de8e 02bd a3ea 33be
000002c0: 7a88 993d c10e cc3d c746 4dbd 8007 55be
000002d0: c06a 69be 83ee 85bd 0095 13bc 5da1 8bbc
000002e0: a502 02bd e2ff 0d3e 29c5 013d 0e10 4cbc
000002f0: 6c19 9f3d 4f78 bcbe f9ae 3abd 5495 ed3d
00000300: 7e21 773d d3fa e33c caef 2dbe 7807 343c
00000310: 9fb9 dd3a f643 46bd c2e2 4a3d 8b69 e63c
00000320: eda0 c33c dd4e 09bd 79bf 853c 9a17 883d
00000330: 0153 643d 3cae 2dbb c41a 1dbf be6b 773d
00000340: a717 a4bc ad5c 0ebd c02d 60bc 5439 2fbd
00000350: 180d 2c3c 4244 f5bc b06e 5d3d 5fdc 8ebc
00000360: b684 05bd 7dce b63c e4a8 9fbc aeaf 5a3d
00000370: a0a3 6b3d 13de 543b 2561 413e bdee 053e
00000380: 174b fd3c 9f2f 35bd c6de edba d8e1 72bc
00000390: 1815 69bd a03e 11bd 83a5 6cbd eac2 1dbd
000003a0: e299 783e 6d9f 043f f277 2f39 5f18 cd3c
000003b0: 14e5 d2bc b1f7 173d 7ded 8cbe a04b 3e3c
000003c0: 6acf afbc 3583 99be 27c5 4f3d 6b0e 913c
000003d0: 0a0f 0f3d ee5c 3fba fede 273d 9b9d b63c
000003e0: 16db 993d 00ed f739 3938 24bf 2293 5e3d
000003f0: b6e6 4b3d 4ded 86bb 1b55 2fbe eae8 8b3c

linear4.weight f4 [256, 256]
0.04148779 0.06574638 0.05534386 -0.026766786 0.03708701 -0.025603808 0.05061449 0.024501627
-0.0329934 0.06403412 0.03709335 0.02794863 0.015484328 -0.009159029 -0.040930215 -0.030756993
0.05530295 -0.02498445 0.024319394 -0.04718808 -0.15040353 0.040928606 0.031783592 0.029969243
-0.010708627 0.04828309 0.03866968 -0.025939658 -0.016833663 -0.05966021 -0.025502592 0.06942672
0.055508457 0.0043793246 0.031243466 -0.05290433 0.013887897 -0.03851943 -0.008896337 -0.014616877
-0.0088226525 0.036564246 0.045577947 0.06870067 0.026286311 0.019816913 0.0016340703 0.03953579
0.000758405 0.029816229 0.018330859 0.05806351 0.027222633 -0.048899334 0.04326694 0.0045066145
-0.024735266 -0.026185013 -0.014399491 -0.019213952 0.0015618517 -0.015465877 -0.00046748066 0.024045967
0.0113654705 -0.044606797 0.00728754 0.012689933 0.040332668 0.057190917 0.00082028477 -0.023870625
-0.006626617 -0.035695992 0.04053843 0.022989899 -0.01594791 0.046501767 -0.051154148 -0.04479352
-0.06222467 0.022971323 -0.0297665 -0.027790338 0.02188455 0.0058558774 -0.008554261 -0.027876979
0.044601686 0.028221436 -0.047652856 0.028025663 0.0029654603 0.018429928 0.05140345 0.004167592
0.03233169 0.015968416 0.031289466 0.013049595 0.013569815 0.0615991 0.053548492 -0.02997616
-0.06369162 -0.0076753316 0.063677505 0.051659457 0.027015992 0.0043441164 0.03858885 -0.029902082
-0.03612985 0.061193615 -0.008483897 0.0037286058 -0.008654758 -0.056867175 0.025788799 0.035753388
-0.022332981 0.017159982 -0.028772458 -0.047958754 0.024676844 -0.016292194 -0.054123476 -0.045458548
0.030742764 -0.042106397 0.0562718 -0.0320459 0.009337705 0.019142158 0.0130199 -0.04491143
0.052140273 0.043593977 -0.0062272353 0.020753626 0.0005568049 0.019166827 0.073692985 -0.028808378
0.06919097 -0.015732935 0.054311775 0.045321375 0.0370103 0.006120509 -0.053003285 0.04810088
0.026823431 0.022436688 0.056766637 0.033170395 0.028966626 -0.030459829 -0.04344445 0.024227597
0.048520647 0.052224353 -0.02352374 -0.004838854 0.051099945 0.042675536 -0.27544758 -0.0444243
0.029063204 0.04630935 0.043324802 -0.0027446123 0.025433965 -0.05458973 -0.051622286 -0.005773184
0.027803134 0.034706987 0.060750104 0.05293184 0.04542891 -0.03452359 -0.06040039 -0.027145222
0.06288731 -0.035839416 0.01107656 -0.0195057 0.020059798 0.02728548 -0.010006254 -0.032461017
0.03200017 0.03994964 -0.0005447597 0.058744945 -0.0333641 0.008057656 -0.03338754 0.004569605
0.024626853 0.0489158 0.060731404 -0.021224275 0.04767757 -0.010890249 -0.028176928 0.0577355
0.06679122 0.0625916 -0.052748486 -0.034074675 -0.040440537 -0.02058142 0.024209358 -0.08287033
0.014078606 -0.02412372 0.06430761 0.045329668 -0.023912767 0.02605734 0.021225609 0.027476722
0.038219497 0.015456753 0.044940166 -0.016029363 -0.025818348 0.0109630525 0.049534097 -0.00052948296
-0.05465243 0.085201524 -0.0445026 -0.014120316 -0.01886008 0.002122277 -0.07052463 -0.0622638
0.027368547 -0.06347335 0.024714911 0.009002318 -0.029857991 0.036982294 -0.030060135 -0.04873945
0.0033501487 0.010856174 -0.025860587 0.036351997 0.007352649 -0.030240402 -0.024839839 -0.020707615
00000000: 1aef 293d 0aa6 863d 3eb0 623d 0546 dbbc
00000010: 8ce8 173d 14bf d1bc 2451 4f3d a3b7 c83c
00000020: 1624 07bd 5224 833d 32ef 173d 86f4 e43c
00000030: fbb1 7d3c c10f 16bc 71a6 27bd 17f6 fbbc
00000040: 5985 623d 30ac ccbc 7739 c73c 4a48 41bd
00000050: 6203 1abe c1a4 273d 832f 023d 0f82 f53c
00000060: 3d73 2fbc 7dc4 453d 1964 1e3d 687f d4bc
00000070: c0e6 89bc 445e 74bd d0ea d0bc 992f 8e3d
00000080: d65c 633d 7080 8f3b 4cf2 ff3c 36b2 58bd
00000090: 108a 633c 8dc6 1dbd f1c1 11bc a07b 6fbc
000000a0: e38c 10bc 64c4 153d f1af 3a3d f0b2 8c3d
000000b0: 6456 d73c 1457 a23c 4d2e d63a 48f0 213d
000000c0: b3cf 463a 2a41 f43c 992a 963c 01d4 6d3d
000000d0: 0002 df3c ab4a 48bd ad38 313d 39ac 933b
000000e0: 9da1 cabc f481 d6bc d8eb 6bbc 9466 9dbc
000000f0: 0cb7 cc3a 9764 7dbc 3118 f5b9 0cfc c43c
00000100: 3d36 3a3c 9eb5 36bd 51cc ee3b 70e9 4f3c
00000110: de33 253d 0641 6a3d 6108 573a 548c c3bc
00000120: 1824 d9bb f635 12bd a00b 263d 5055 bc3c
00000130: 31a5 82bc a378 3e3d 0387 51bd 6979 37bd
00000140: 4cdf 7ebd 5b2e bc3c e0d8 f3bc 90a8 e3bc
00000150: 3a47 b33c a9e2 bf3b 2c27 0cbc 435e e4bc
00000160: 42b0 363d a430 e73c a42f 43bd 1396 e53c
00000170: 2b58 423b 5cfa 963c 6d8c 523d 4c90 883b
00000180: 3c6e 043d 32d0 823c 6229 003d f8cd 553c
00000190: ee53 5e3c 564f 7c3d aa55 5b3d 9090 f5bc
000001a0: c170 82bd 5981 fbbb 5a69 823d de98 533d
000001b0: a450 dd3c 1759 8e3b 580f 1e3d 36f5 f4bc
000001c0: e5fc 13bd 28a6 7a3d 0b00 0bbc a05b 743b
000001d0: b0cc 0dbc 8eed 68bd 0843 d33c 2572 123d
000001e0: a8f3 b6bc 1793 8c3c 38b4 ebbc 6670 44bd
000001f0: 1827 ca3c 3577 85bc 94b0 5dbd be32 3abd
00000200: 40d8 fb3c c277 2cbd 427d 663d 9042 03bd
00000210: 2cfd 183c 04d0 9c3c 6b51 553c 0cf5 37bd
00000220: 0a91 553d 998f 323d d60d ccbb 8203 aa3c
00000230: 8bf6 113a c003 9d3c 59ec 963d 8cff ebbc
00000240: ffb3 8d3d 5be2 80bc 0676 5e3d e8a2 393d
00000250: 1d98 173d 8d8e c83b f919 59bd 6e05 453d
00000260: d0bc db3c 25cd b73c 2284 683d aedd 073d
00000270: 6b4b ed3c e486 f9bc cff2 31bd f478 c63c
00000280: 96bd 463d 34e9 553d dcb4 c0bc 408f 9ebb
00000290: 2d4e 513d 8bcc 2e3d 7707 8dbe 41f6 35bd
000002a0: f515 ee3c dfae 3d3d 5975 313d f4de 33bb
000002b0: e45a d03c 7b99 5fbd e471 53bd fa2c bdbb
000002c0: 66c3 e33c ea28 0e3d 1ad5 783d 0fcf 583d
000002d0: aa13 3a3d 9c68 0dbd 6666 77bd a85f debc
000002e0: 10cb 803d 5acc 12bd 767a 353c 6bca 9fbc
000002f0: 7254 a43c cd85 df3c 45f1 23bc d8f5 04bd
00000300: 9c12 033d 3ca2 233d 34ce 0eba 8a9e 703d
00000310: cba8 08bd 4204 043c 60c1 08bd a0bc 953b
00000320: 41be c93c ef5b 483d 7ec1 783d 88de adbc
00000330: 8e49 433d 046d 32bc 4dd3 e6bc 0f7c 6c3d
00000340: d6c9 883d 0630 803d cc0e 58bd e391 0bbd
00000350: faa4 25bd 5e9a a8bc b452 c63c ebb7 a9bd
00000360: f4a9 663c 1c9f c5bc b5b3 833d 9aab 393d
00000370: b5e4 c3bc 3476 d53c 54e1 ad3c dd16 e13c
00000380: 0c8c 1c3d 523e 7d3c 2e13 383d 0350 83bc
00000390: 0081 d3bc 609e 333c 44e4 4a3d 00cd 0aba
000003a0: 3adb 5fbd 237e ae3d 5c48 36bd e658 67bc
000003b0: 7480 9abc e615 0b3b 386f 90bd 5408 7fbd
000003c0: 0134 e03c 51fe 81bd ed76 ca3c 757e 133c
000003d0: bf98 f4bc bf7a 173d ac40 f6bc 04a3 47bd
000003e0: 2b8e 5b3b 18de 313c 95d9 d3bc d5e5 143d
000003f0: 7dee f03b b8ba f7bc eb7c cbbc 04a3 a9bc

linear4.bias f4 [256]
-0.6939233 -0.41357654 -0.06174055 0.05508061 -1.0944366 -0.70255977 0.06917949 0.15049373
0.5145306 -0.80492854 -0.8601604 -0.22944908 0.049344964 -0.69235647 -0.20800667 -0.44058645
-0.12704511 -0.068934284 -0.8011962 0.00934557 -0.10786168 -0.72739 -0.4178167 0.6912519
-0.52748424 0.42254442 -0.3191036 0.5780478 0.6256668 0.12651724 0.46061906 -0.6303024
0.022743847 -1.0167452 0.38756946 -0.04763346 0.5523506 0.15515308 -0.9373366 -0.6126974
0.26570848 -0.633546 0.2726519 0.053436566 -0.6699559 -0.4955474 0.3761405 -0.6219107
-0.7018681 -0.63691765 -0.20531899 -0.08162756 -0.24959911 0.6600212 -0.19673795 -0.34691054
-0.02853259 0.2425939 0.9711568 0.28648284 0.5234009 -0.37976757 -0.5887353 0.004650797
-0.7722003 -0.7955101 -0.06992683 0.7196457 -0.74802417 0.9473139 -1.0082026 -0.5213557
0.5315474 -0.06399782 -0.38548082 0.97784054 0.017757967 -0.79771173 -0.0386514 0.57849866
-0.41625625 0.4401986 -0.09027569 0.6793402 -0.5463639 -0.033261746 0.42723384 -0.6171958
-0.622235 0.27538362 -0.59162325 -0.61735606 0.7943292 0.17859966 -0.87297404 0.5087022
0.28397185 -0.05062963 -0.54151124 -0.6507222 -0.03033307 0.11687764 0.42126885 -0.6967764
0.23994437 -0.66913366 0.741374 -0.2804213 -0.73029107 -0.03600848 -0.72039443 -0.22046341
0.47951734 0.038851224 -0.40703067 -0.40892142 0.5456941 0.13892153 -0.6219667 0.121835425
-0.014211864 0.20553806 0.5143672 0.6947288 -0.7027658 -0.86108065 -0.5675253 0.08383579
0.44530135 -0.67412895 -0.5258367 -0.57632816 -0.70091 0.114002116 -0.3595927 0.59658176
0.68886787 -0.027092224 0.2326284 -0.38839194 0.50447047 -0.124792755 0.049719665 0.17710777
0.0059964587 -0.09869132 0.0153184505 -0.56164366 0.5702468 -0.737948 0.8724473 -0.14308667
-0.5668126 0.8421018 -0.93175787 -0.20465647 -0.039971396 0.90647876 0.4138154 0.7091345
-0.3184852 -0.7598571 0.51261765 0.70498186 -0.59266454 0.11807367 -0.5591124 -0.08041185
-0.6303164 0.8217602 0.10116493 -0.16016105 0.62053806 -0.39626828 0.5821532 -0.054817367
0.23919149 -0.6635648 0.88853014 -0.55844605 0.49480757 -0.4524645 -1.0605385 -0.076777846
0.5054044 0.6496404 -0.663232 0.18701494 0.099213906 0.4886833 -0.75249434 0.18987954
0.5072521 -0.4782038 -0.6213376 -0.43715823 0.13441472 -0.60550314 0.521241 -0.64712965
-0.4524716 0.11246186 0.41129562 -0.39716762 0.35087478 -0.83998805 -0.7319303 -0.41335055
-0.037782457 0.21295726 0.03617255 -0.32886124 0.22703435 0.36939228 0.5929509 -0.46599492
-1.0877107 -0.73934317 -0.6176106 -0.428938 0.203044 0.023906013 0.016240193 -0.7232777
-0.86049396 0.36470345 -0.48985282 0.33333102 -0.5421949 -0.66909444 -0.59796894 -0.28364468
-0.4928069 0.7622944 -0.5964251 -0.90232146 -0.6611054 0.4624051 0.23963873 0.646081
-0.21601336 -0.7560241 -0.55497193 0.55740017 0.61051995 0.27974677 -0.03271611 0.48670527
0.011654985 0.7892927 -0.585509 0.29649392 -0.09142915 0.013062744 0.7038639 -0.7652251
00000000: f5a4 31bf 4ec0 d3be a9e3 7cbd 359c 613d
00000010: 8016 8cbf f5da 33bf faad 8d3d 071b 1a3e
00000020: 47b8 033f cc0f 4ebf 7933 5cbf b3f4 6abe
00000030: f21d 4a3d 463e 31bf b3ff 54be 8c94 e1be
00000040: 1d18 02be 6b2d 8dbd 321b 4dbf 291e 193c
00000050: 96e6 dcbd 3b36 3abf 12ec d5be e2f5 303f
00000060: 3509 07bf be57 d83e 8c61 a3be f1fa 133f
00000070: b32b 203f bc8d 013e 43d6 eb3e 805b 21bf
00000080: 4e51 ba3c b524 82bf 816f c63e 4e1b 43bd
00000090: d966 0d3f 73e0 1e3e 4bf5 6fbf bdd9 1cbf
000000a0: f10a 883e 1230 22bf 0899 8b3e 4de0 5a3d
000000b0: 3b82 2bbf 64b8 fdbe 7d95 c03e 8a35 1fbf
000000c0: a1ad 33bf 090d 23bf 243f 52be 5a2c a7bd
000000d0: e996 7fbe 26f7 283f ac75 49be 429e b1be
000000e0: 2ebd e9bc 896a 783e bb9d 783f e1ad 923e
000000f0: 9afd 053f e570 c2be 5bb7 16bf b765 983b
00000100: ebae 45bf 8da6 4bbf cc35 8fbd b33a 383f
00000110: 837e 3fbf 2a83 723f c80c 81bf 9177 05bf
00000120: 7e13 083f 4a11 83bd be5d c5be c253 7a3f
00000130: 2879 913c d636 4cbf ee50 1ebd 7d18 143f
00000140: 8a1f d5be b661 e13e 76e2 b8bd 3de9 2d3f
00000150: 81de 0bbf 783d 08bd 65be da3e 8b00 1ebf
00000160: cb4a 1fbf 15ff 8c3e 9f74 17bf 0c0b 1ebf
00000170: 2959 4b3f d4e2 363e 3a7b 5fbf 4f3a 023f
00000180: c264 913e 0461 4fbd 7ba0 0abf bb95 26bf
00000190: 0f7d f8bc 8b5d ef3d 8db0 d73e f05f 32bf
000001a0: fab3 753e 584c 2bbf b0ca 3d3f 6193 8fbe
000001b0: 5bf4 3abf a17d 13bd c56b 38bf 29c1 61be
000001c0: 4c83 f53e 7622 1f3d 5366 d0be 265e d1be
000001d0: 9cb2 0b3f 7241 0e3e 3639 1fbf da84 f93d
000001e0: e1d8 68bc 9278 523e 92ad 033f bfd9 313f
000001f0: 76e8 33bf c86f 5cbf 5749 11bf 19b2 ab3d
00000200: 8afe e33e b793 2cbf 3c9d 06bf 3e8a 13bf
00000210: d66e 33bf f179 e93d 891c b8be 95b9 183f
00000220: a559 303f 83f0 ddbc 2436 6e3e 4fdb c6be
00000230: fa24 013f 5893 ffbd d9a6 4b3d bd5b 353e
00000240: f17d c43b ad1e cabd 3dfa 7a3c e1c7 0fbf
00000250: b2fb 113f 29ea 3cbf b558 5f3f 5085 12be
00000260: a11a 11bf fc93 573f af87 6ebf 7791 51be
00000270: 0cb9 23bd fe0e 683f 9ddf d33e d789 353f
00000280: 7e10 a3be ff85 42bf e93a 033f b179 343f
00000290: ddb8 17bf 9cd0 f13d fe21 0fbf f8ae a4bd
000002a0: 6a5c 21bf e05e 523f 8f2f cf3d 4201 24be
000002b0: 95db 1e3f ade3 cabe fe07 153f 2d88 60bd
000002c0: 9dee 743e 62df 29bf b676 633f 52f6 0ebf
000002d0: 6b57 fd3e 6da9 e7be babf 87bf b43d 9dbd
000002e0: 2f62 013f d54e 263f 93c9 29bf d880 3f3e
000002f0: a930 cb3d b334 fa3e 78a3 40bf c86f 423e
00000300: 46db 013f 21d7 f4be fb0f 1fbf 34d3 dfbe
00000310: 03a4 093e 4102 1bbf 0d70 053f 4aaa 25bf
00000320: 5caa e7be 6752 e63d 5795 d23e 8e59 cbbe
00000330: dca5 b33e 7509 57bf c95f 3bbf afa2 d3be
00000340: c7c1 1abd 7811 5a3e ab29 143d 8060 a8be
00000350: b17b 683e fc20 bd3e a1cb 173f e396 eebe
00000360: 1b3a 8bbf 9845 3dbf ba1b 1ebf c39d dbbe
00000370: c4ea 4f3e 8bd6 c33c 270a 853c ba28 39bf
00000380: 5549 5cbf 69ba ba3e fdcd fabe 5daa aa3e
00000390: 49cd 0abf c649 2bbf 7e14 19bf e039 91be
000003a0: 3051 fcbe ba25 433f 51af 18bf 8afe 66bf
000003b0: 343e 29bf 5cc0 ec3e db63 753e 9065 253f
000003c0: 9b32 5dbe cc8a 41bf a412 0ebf c7b1 0e3f
000003d0: 094b 1c3f f83a 8f3e 5401 06bd 6f31 f93e
000003e0: 8df4 3e3c 160f 4a3f ebe3 15bf 0dce 973e
000003f0: 353f bbbd 1f05 563c 6d30 343f cbe5 43bf

linear3.weight f4 [1, 256]
-0.361982 -0.21617994 0.07197136 0.34549356 0.76014984 -0.9220812 0.009759421 -0.01613419
-0.41743445 -1.4866886 0.2921626 -0.40638578 0.0074484134 -1.1788839 -0.26223975 -0.43712595
-0.0720172 0.0019261157 -1.8478982 -0.09191323 -0.045504343 -1.147993 -0.20980358 0.70753545
0.06771105 0.8020365 -0.06716196 -0.38703224 0.40672356 0.07955778 0.13297689 -0.71841776
0.004603243 -1.868521 0.3327558 -0.0016229938 -0.046207357 0.23721236 -2.3037696 -0.49628827
0.9699748 -0.33859256 0.37698188 0.22184038 -0.7151989 -0.29377127 -0.07055648 0.09117889
-0.66756094 -0.30218747 -0.0019684478 0.0010270388 0.22548749 0.32618597 -0.3188932 -0.260855
0.09839703 0.5915901 0.95804304 0.117662445 0.1501056 0.01790392 0.015384842 -0.0014512355
0.07146508 0.42562255 -0.00011114338 0.80021787 -0.6307683 0.9774453 -2.3564186 -0.35061947
0.32729444 0.07349851 -0.123592734 0.90817595 0.3367195 -0.7062306 -0.0005487761 -0.166735
0.05158681 -0.16012399 -0.005551935 0.2454958 -0.35359004 0.22546987 1.1751462 0.3489081
-0.49349955 0.8201371 0.14788991 0.13464186 0.41980103 -0.025685135 -1.2636435 0.3932085
0.026353385 0.23153903 -0.34473088 -1.4086041 0.02815849 0.3461996 -0.24971786 -0.33634728
0.7678676 -0.5207288 0.47147816 -0.05336317 0.3172734 -0.0015389975 -1.1879848 0.1338487
0.5921354 -0.003242806 -1.27965295e-05 -0.26659167 0.26368293 0.45409435 -0.35645896 0.26344934
0.00652897 0.46008214 0.3356497 0.71800536 0.042761303 -2.275038 0.45587784 -0.26452383
-0.05483608 -0.40258357 0.027546579 -0.32923785 -0.5101442 -0.13452792 -0.560569 0.36946103
0.6473338 0.32790935 0.6115345 0.020130273 0.91521597 0.00037445076 -0.112704605 0.4855562
0.19458768 0.04701823 0.3425849 -0.6690349 0.37717316 -1.0253233 0.8416364 0.0044319076
-0.11126706 0.27316645 0.1924155 -0.19563334 0.0046921624 0.7726394 0.22783726 0.4250064
-0.010021565 0.13967648 0.1965444 0.9572483 0.14655544 0.4429424 -0.052250475 -0.07733535
-0.027169289 0.9427237 0.52582884 0.17428292 0.37614375 -0.024758115 0.39508682 -0.003215207
-0.015808651 -0.38484973 1.0536919 -0.31020215 0.43876263 -0.2259444 0.38475782 -0.049317647
0.3306531 0.4258151 -0.6302753 0.52190006 0.065573126 0.25579143 0.23678684 0.4791263
0.39634505 0.0025837822 -0.9663096 -0.14072062 -0.3715736 -0.33722523 0.29866013 -0.6835903
-0.5188685 0.22233191 0.22736545 -0.06556438 1.205318 -1.0527146 -1.0824515 -0.6684483
0.07873893 1.002013 0.43804398 -0.18227601 -0.69753397 0.39391407 0.33889025 0.011056328
0.70971406 -0.28424102 -0.17947797 0.035422795 0.70383704 -0.00059317396 0.27385986 -1.6136934
-1.2999521 -0.43244424 -0.14596158 -0.07930345 -0.898644 0.18870978 0.033050075 -0.2202181
0.11760637 0.17922889 0.07081898 0.15855306 0.22526208 0.38284695 -0.14055485 0.15369914
-0.13217072 0.10995983 0.3228506 0.33784893 0.59505826 0.11516685 0.12931804 0.24336398
-0.008336641 0.9124414 -0.04504638 -0.02970853 -0.25354776 0.2514934 0.43327937 -0.95811784
00000000: b455 b9be 465e 5dbe b865 933d 88e4 b03e
00000010: 2e99 423f 830d 6cbf fbe5 1f3c d92b 84bc
00000020: f8b9 d5be d04b bebf 5696 953e cc11 d0be
00000030: d211 f43b abe5 96bf 4a44 86be f9ce dfbe
00000040: c17d 93bd b875 fc3a ee87 ecbf 013d bcbd
00000050: c362 3abd 6ff1 92bf c0d6 56be 0b21 353f
00000060: 17ac 8a3d 4452 4d3f 368c 89bd 1729 c6be
00000070: 123e d03e 30ef a23d 182b 083e 3aea 37bf
00000080: cdd6 963b b22b efbf f85e aa3e a3ba d4ba
00000090: ed43 3dbd cce7 723e f670 13c0 7f19 febe
000000a0: 4550 783f 015c adbe c503 c13e 202a 633e
000000b0: 4617 37bf 3069 96be ea7f 90bd ffbb ba3d
000000c0: 46e5 2abf 51b8 9abe 1301 01bb b49d 863a
000000d0: 31e6 663e d901 a73e f845 a3be c98e 85be
000000e0: 6284 c93d 7372 173f 4f42 753f 02f9 f03d
000000f0: 48b5 193e 3eab 923c b410 7c3c 6237 beba
00000100: 495c 923d 33eb d93e a615 e9b8 14db 4c3f
00000110: 087a 21bf db39 7a3f 90cf 16c0 6584 b3be
00000120: 2393 a73e 6386 963d 301e fdbd 387e 683f
00000130: 8066 ac3e 87cb 34bf bedb 0fba 94bc 2abe
00000140: b14c 533d 8bf7 23be 02ed b5bb 4063 7b3e
00000150: c109 b5be 93e1 663e 316b 963f 15a4 b23e
00000160: f9ab fcbe 81f4 513f 7470 173e 8edf 093e
00000170: 29f0 d63e a269 d2bc 12bf a1bf a052 c93e
00000180: 0ee3 d73c 9118 6d3e 9180 b0be 244d b4bf
00000190: a2ac e63c 1341 b13e 0ab6 7fbe b635 acbe
000001a0: f992 443f 7c4e 05bf 9665 f13e 5793 5abd
000001b0: a971 a23e 30b8 c9ba e30f 98bf a20f 093e
000001c0: 3096 173f 4285 54bb adb0 56b7 b47e 88be
000001d0: 7301 873e 0e7f e83e ca81 b6be d5e2 863e
000001e0: f8f0 d53b e38f eb3e 47da ab3e 33cf 373f
000001f0: 7a26 2f3d 399a 11c0 d268 e93e ab6f 87be
00000200: cc9b 60bd 6f1f cebe 5da9 e13c dd91 a8be
00000210: cf98 02bf b0c1 09be 7381 0fbf ff29 bd3e
00000220: abb7 253f bce3 a73e 868d 1c3f 3ee8 a43c
00000230: 984b 6a3f ee51 c439 acd1 e6bd d29a f83e
00000240: fe41 473e 3096 403d 4a67 af3e df45 2bbf
00000250: d71c c13e cb3d 83bf 7c75 573f 8939 913b
00000260: fcdf e3bd 79dc 8b3e 9208 453e 1b54 48be
00000270: b6c0 993b b2cb 453f 2c4e 693e 709a d93e
00000280: 7d31 24bc 5a07 0f3e ef42 493e 390e 753f
00000290: a112 163e 59c9 e23e 9804 56bd ff61 9ebd
000002a0: 2192 debc 5756 713f b89c 063f 3977 323e
000002b0: ea95 c03e 88d1 cabc d248 ca3e 39b6 52bb
000002c0: 2581 81bc 060b c5be 60df 863f d1d2 9ebe
000002d0: 7fa5 e03e f85d 67be fafe c43e 4d01 4abd
000002e0: 5d4b a93e 7004 da3e b959 21bf 3e9b 053f
000002f0: 344b 863d 18f7 823e 4078 723e 0b50 f53e
00000300: bded ca3e ac54 293b 1160 77bf 1119 10be
00000310: e53e bebe c9a8 acbe fbe9 983e c6ff 2ebf
00000320: 91d4 04bf faaa 633e 7dd2 683e 9e46 86bd
00000330: dc47 9a3f 5abf 86bf c58d 8abf 6e1f 2bbf
00000340: e041 a13d f641 803f 4d47 e03e 90a6 3abe
00000350: 9691 32bf 1baf c93e 0683 ad3e 9a25 353c
00000360: d2af 353f 0a88 91be 13c9 37be 7e17 113d
00000370: aa2e 343f 3b7f 1bba 5c37 8c3e 818d cebf
00000380: d564 a6bf 5569 ddbe f476 15be d969 a2bd
00000390: 880d 66bf 233d 413e 845f 073d db80 61be
000003a0: 9cdb f03d c787 373e 8b09 913d bc5b 223e
000003b0: 1aab 663e 8404 c43e 9ced 0fbe 4f63 1d3e
000003c0: c357 07be 9f32 e13d ad4c a53e 89fa ac3e
000003d0: bd55 183f 99dc eb3d f36b 043e 6834 793e
000003e0: 6896 08bc c295 693f 8e82 38bd 4e5f f3bc
000003f0: 03d1 81be bec3 803e cbd6 dd3e 3647 75bf
