outputs/Optimal_Control/20220331-192145/models/checkpoint.pt (torch, 533487 bytes, 7 tensors)

linear1.weight f4 [256, 2]
000000 1d 6c d6 3e 96 61 3e bf 78 11 1e be 45 df db be
       0.4187936 -0.74367654 -0.15436351 -0.4294378
000010 b4 ae 5d 3e cf 9c 8f 3d c7 15 93 3d bd b6 cb 3d
       0.21648675 0.07012331 0.07181888 0.09946964
000020 b1 fa 9c be 87 4a 20 bf 77 03 e6 3e 0a 51 d0 3e
       -0.30660012 -0.6261372 0.44924518 0.40686828
000030 a8 61 f6 bd 12 28 c2 be 1f 91 31 bf 98 d8 b0 3d
       -0.12030345 -0.37921196 -0.6936206 0.08635062
000040 c4 f7 e2 3d 2b 29 35 bf 1c 55 fb 3e ef 32 18 3f
       0.11082414 -0.7076594 0.4908837 0.5945272
000050 5f ae 99 be 20 b6 f9 bc 8b 9a b9 3d 87 aa 0f be
       -0.30015847 -0.030482352 0.0906268 -0.14029895
000060 5b 30 a4 3d 29 90 6f be af 80 f5 3e 84 54 8f 3e
       0.080170356 -0.23394836 0.4794974 0.27994168
000070 92 e8 00 3e 99 ed bf bf 35 73 1c be 75 e7 3e 3f
       0.12588719 -1.4994384 -0.15278323 0.74571925
000080 ce 78 16 bf 8a 81 8a 3e 1b da 00 3e e8 55 44 3e
       -0.58778083 0.27051955 0.125832 0.19173396
000090 f0 db 6f be f0 23 f7 be 8b 84 09 bf ad 0c c1 be
       -0.23423743 -0.48269606 -0.5371787 -0.37704983
0000a0 ff 5a 1a 3f 23 af 5f be f0 0d 84 3e 9c f1 24 bf
       0.602951 -0.21844153 0.25791883 -0.64431167
0000b0 18 20 0c be 50 6e 75 bd 77 f4 cd 3e 80 c2 16 3f
       -0.13684118 -0.059919655 0.40225574 0.58890533
0000c0 78 43 ce 3e f6 c5 2a bf fc f8 21 be ad 02 c5 be
       0.4028585 -0.66708314 -0.15817636 -0.38478604
0000d0 e9 ff ff 3e d0 bf 41 be 9e d3 0a 3e fc 32 ad 3e
       0.4999993 -0.18920827 0.13557288 0.3382796
0000e0 37 43 a0 3d db 90 97 bd c2 dd cd 3d 0f cc 87 bf
       0.0782532 -0.07400676 0.100520626 -1.0609149
0000f0 ed 39 8e be c7 dd e4 3e dc 34 dc be 31 76 b4 be
       -0.2777857 0.44700453 -0.43009079 -0.35246423
000100 0a 6a 26 bd 01 ac b5 3e 4d 91 23 bf 30 48 27 bf
       -0.04062847 0.3548279 -0.63893586 -0.65344524
000110 39 26 12 bf 6a 69 c2 3e 49 39 a2 3e 25 db 90 3d
       -0.57089573 0.3797105 0.3168433 0.070730485
000120 59 49 b6 3e 71 4a 1e bf 68 53 a2 be 4f 6f 1d 3f
       0.35602835 -0.6183234 -0.3170426 0.6149797
000130 12 85 a6 be d3 14 ec be ff 13 81 be 37 df 3d 3f
       -0.325234 -0.46109638 -0.25210568 0.74168724
000140 75 7f fc 3e 65 63 02 bf 9c 25 90 3d 9d 8f 5d bf
       0.49315992 -0.50932914 0.070384234 -0.8654726
000150 91 9f a1 3e 8b 8d c0 bd 34 b6 11 bf 46 1c c6 be
       0.31567052 -0.09401997 -0.56918645 -0.38693446
000160 d5 b5 bd 3c 63 97 3f 3e 1a 62 4c 3e 40 f2 cd 3c
       0.023157993 0.18710093 0.19959298 0.025139928
000170 f8 bf bc 3d 14 51 68 3e a1 56 97 3e 9a a0 e9 be
       0.09216303 0.22687179 0.2955828 -0.45630342
000180 04 dd 12 be 5c 76 9c 3e aa 94 0c 3e 18 e5 3f be
       -0.14342123 0.3055905 0.13728586 -0.18739736
000190 99 6b 52 3e 22 18 f2 be 00 00 87 39 6f 61 14 bf
       0.20548858 -0.47284037 0.00025749207 -0.5796117
0001a0 0c 45 9f be de 92 97 3e 1d 4b 32 3e d9 78 ba 3e
       -0.31107366 0.29604238 0.17411466 0.36420324
0001b0 7d cf ea 3e c9 15 ef 3e d0 71 f3 bd 7d be 0c bf
       0.45861426 0.46696308 -0.118869424 -0.5497816
0001c0 0e 22 f2 3e a3 d9 7e bd 4d 95 e3 be e0 8e 8a 3d
       0.47291607 -0.062219273 -0.44449845 0.067655325
0001d0 07 b8 18 bf ea 26 eb be 33 52 d6 ba 2a a1 c0 bd
       -0.59655803 -0.45928127 -0.0016351402 -0.094057396
0001e0 a7 18 de 3e c2 6b 43 bf 8d 2d bc 3e 7f 99 b6 be
       0.43378183 -0.763363 0.36753502 -0.35663983
0001f0 8f e7 1e bf 98 60 4c 3e b2 80 26 bd 87 73 0e 3e
       -0.6207208 0.19958723 -0.040650077 0.13911258
000200 75 79 f0 3e a1 40 7e 3e ff 86 97 3d 7d c3 1f 3e
       0.46967664 0.24829341 0.07398795 0.15601917
000210 dd 02 a4 be 70 c9 81 3d 15 d8 10 bf 68 3e 42 be
       -0.32033435 0.06337249 -0.56579715 -0.18969119
000220 33 f9 14 3e 50 91 c6 be 16 00 da 3e d7 e4 2a bf
       0.14548187 -0.3878274 0.4257819 -0.6675543
000230 0d 37 d3 be a2 71 24 bf e8 ab 11 be a0 c1 91 bc
       -0.41252938 -0.6423589 -0.14225733 -0.017792523
000240 49 53 bc 3d 85 94 d8 3e 1c f6 ca 3e c9 ed 1f bf
       0.09195573 0.4230081 0.39640892 -0.62472206
000250 ef 97 fc 3e 8c 2c a4 be 01 f3 a8 be 08 1b ac 3d
       0.49334666 -0.32065237 -0.32997897 0.08403593
000260 3f 63 07 bf 64 db 83 3e 12 b8 ae be d8 ba eb 3d
       -0.5288581 0.2575332 -0.3412481 0.11510247
000270 b5 66 b4 3e 26 3f 0a bf c0 86 6f 3e 9c 8e bf be
       0.3523461 -0.54002607 0.23391247 -0.3741349
000280 1f a2 f7 3d ef 29 03 bf ce a0 04 3f b7 50 91 be
       0.12091469 -0.5123586 0.5180787 -0.28381893
000290 e6 96 a7 3e f8 97 55 3c 09 a0 14 bf 61 b3 24 bf
       0.32732314 0.01303672 -0.58056694 -0.6433621
0002a0 0f 87 aa be 40 23 42 bd c5 d8 e5 3e 07 b7 46 bf
       -0.33306167 -0.0473969 0.44891945 -0.7762303
0002b0 c5 39 05 3e 81 12 87 bf e8 c8 50 3e 2f 57 43 3e
       0.13010319 -1.0552522 0.2038914 0.19076227
0002c0 b7 78 1a bf 24 cd c1 be 4f 90 ea 3d 8c 9c f3 bd
       -0.60340446 -0.37851822 0.11453306 -0.11895093
0002d0 4c 4b ae 3e b7 ab 0b 3f 71 30 24 bf 92 82 df be
       0.34041822 0.5455889 -0.64136416 -0.43654305
0002e0 61 a4 d2 3e 8a 79 38 bf 60 32 93 bd e3 9b 93 be
       0.41141036 -0.72060454 -0.07187343 -0.2882987
0002f0 94 98 96 be 40 5d e7 3d b1 e1 b4 be db 48 2e bf
       -0.29413283 0.11297083 -0.3532844 -0.6807992
000300 10 4e 0c 3f cc 1d f4 ba bc f5 a0 3e e0 cb b5 3b
       0.54806614 -0.0018624603 0.3143748 0.0055479854
000310 68 9d 2b bf e8 bf 20 be 10 53 d3 bd 05 04 30 bf
       -0.6703706 -0.15698206 -0.10318577 -0.68756133
000320 f8 40 05 bf 00 a8 f1 3a d8 d4 b4 be 08 fc f1 be
       -0.5205226 0.0018436909 -0.35318637 -0.47262597
000330 58 15 d5 be a7 98 dc be bc e2 a0 3e d1 45 cd 3e
       -0.41617846 -0.43085214 0.31422985 0.40092328
000340 22 b4 07 bf 7d 6e 32 bf 98 df b0 be 40 d7 45 3e
       -0.53009236 -0.6969984 -0.34545588 0.19320393
000350 34 0c 15 3f eb 22 25 bc 6c c3 a8 3e 70 c0 aa be
       0.58221745 -0.010079126 0.32961595 -0.33349943
000360 f0 70 2e be 70 82 43 3e 75 f5 04 bf 47 d7 98 be
       -0.1703527 0.19092727 -0.5193704 -0.29851744
000370 98 77 22 be bc f0 e1 3e 2c e0 25 bf eb 6d d7 be
       -0.15865934 0.44128978 -0.64795184 -0.42076048
000380 29 d0 bc 3e a2 56 b3 3e 87 4a b5 be 8f 35 c1 3e
       0.36877564 0.35027033 -0.35408422 0.37736174
000390 f9 e6 db bd 7a 9c 47 3f cc e5 26 be b6 1d 10 3f
       -0.10737414 0.7797314 -0.16298598 0.56295335
0003a0 08 ae b3 ba 06 1f 95 3e f4 25 e5 3b 69 79 01 3f
       -0.0013708482 0.29125232 0.0069930498 0.5057588
0003b0 9f b6 87 be c3 1c 89 3e 80 d2 f3 bb f0 0b d3 bd
       -0.26506516 0.26779756 -0.007440865 -0.10305011
0003c0 12 82 e5 3e a1 f9 d2 3d cf f3 e1 3e c3 d3 c9 3e
       0.44825798 0.10301519 0.44131324 0.39419374
0003d0 3c f8 58 3e c7 66 58 be fe 2b c0 be 5c fc 28 3f
       0.21188444 -0.21132956 -0.37533563 0.6601007
0003e0 20 b5 09 bf 58 13 78 3e d1 7a 2c bf 90 fa 30 be
       -0.53792 0.24226129 -0.673749 -0.17283082
0003f0 47 0d 03 bf c0 e1 ee 3c 93 0e 7d 3d b1 2c 09 3e
       -0.51192135 0.02916038 0.061781477 0.13395955

linear1.bias f4 [256]
000000 c5 6a 84 3f ee 01 40 3e 3b 27 5b bf fe 7f a5 bf
       1.0345083 0.18750736 -0.85606736 -1.2929685
000010 70 a9 26 3d 86 ba 98 3f 98 37 bf bd a5 20 1a 3f
       0.040688932 1.1931922 -0.093367755 0.6020606
000020 a3 58 72 3f 5a bb a0 bf 00 61 ab bb bd 21 94 bf
       0.946665 -1.2557175 -0.005230069 -1.1572796
000030 70 07 95 3f 90 3a bb bf 19 a4 1a be 41 eb 67 3f
       1.1642895 -1.4627247 -0.15101661 0.90593344
000040 88 34 c7 bd ef af ca bf 2f 66 ad be 84 15 08 3f
       -0.097268164 -1.5834941 -0.33867022 0.5315783
000050 11 4a 88 3f 97 1b a0 bf 6e 34 9d be 83 63 13 3f
       1.0647603 -1.250842 -0.30704063 0.5757372
000060 e6 71 bd bf 37 d3 9b 3e fa 27 79 3f 67 c6 94 bf
       -1.4800384 0.30434582 0.97326624 -1.1623048
000070 af 8c af bf fd 22 03 3f cb cd 97 bf 4c cb 34 3e
       -1.3714808 0.5122526 -1.1859678 0.17655677
000080 c6 8a e1 be 99 d3 d5 3d 43 04 21 3f 85 97 f9 3e
       -0.44051188 0.1044075 0.6289713 0.48748413
000090 f4 72 53 bf 2f be 3a 3f 4b dc 01 3f da 66 04 bf
       -0.8259728 0.7294645 0.50726765 -0.5171944
0000a0 a9 e6 c6 3f 39 a3 a2 be 95 36 8d 3f 4e b6 7c 3e
       1.5539142 -0.31765154 1.1032282 0.24678919
0000b0 27 42 a8 3f 08 5a ea bf 7d 71 c6 bf a1 59 c1 3f
       1.3145188 -1.8308725 -1.5503384 1.5105478
0000c0 9c 81 52 3f 5d 10 af 3d 96 dd b2 3f 44 a4 81 be
       0.8222902 0.08548043 1.3973873 -0.25320637
0000d0 60 e5 9d bd cf 44 b1 3f e3 12 38 3f 0b b3 1e 3f
       -0.077097654 1.3849124 0.7190382 0.6199195
0000e0 6b 52 8d bf 8d 91 1a bf 50 29 f1 be 0d d5 8c 3f
       -1.1040777 -0.6037834 -0.4710183 1.1002518
0000f0 21 ff 80 3e 3e d5 c2 3f 6d 63 b7 3e ac 96 52 bf
       0.25194648 1.5221326 0.35818043 -0.8226116
000100 67 75 3f bf d2 f2 83 bf ed 78 f4 be f3 78 d1 3e
       -0.74788517 -1.0308478 -0.4774851 0.4091259
000110 2b 79 93 3f c9 06 bf bf 9f d7 1b bf 69 46 8b be
       1.1521353 -1.4923946 -0.60875887 -0.27202156
000120 a2 e2 ca bf 70 9b d2 bf 24 9f 8a 3f c3 56 8a 3e
       -1.5850413 -1.6453686 1.0829816 0.2701932
000130 ce ef 0f 3f ef e1 9b 3e 47 e0 bb bf 79 6c c5 3f
       0.5622529 0.3044581 -1.4677819 1.5423728
000140 3b 46 02 bf 76 9d 8b bf 38 55 55 bf c4 fa c2 be
       -0.50888413 -1.0907428 -0.8333316 -0.38081944
000150 ef 3b 48 3e ae 1c 4d 3f da 26 ca 3e 5c 14 d4 bf
       0.19554113 0.80121887 0.39482766 -1.6568713
000160 96 62 dc 3d 18 92 b2 bf ce fb c8 3f 33 99 86 ba
       0.10760991 -1.3950834 1.5701845 -0.0010269046
000170 13 1b b8 be 0c 8e e6 3e 27 cc 0a 3f 32 17 8c be
       -0.35958156 0.45030248 0.5421776 -0.27361447
000180 c5 d2 72 bf 3a 87 c5 bf 82 a6 19 3f 4a d8 da be
       -0.9485286 -1.5431893 0.60019696 -0.4274314
000190 01 2f 9b 3d 96 00 0e bf b7 61 a2 ba ab 37 81 3f
       0.07577325 -0.55469644 -0.001238874 1.0095114
0001a0 38 90 6e 3e 56 6a be 3e a5 1e b1 bf 54 14 87 3f
       0.23297203 0.37190503 -1.3837477 1.0553079
0001b0 ce d6 20 bf 30 c2 d5 be a9 40 ba be 67 55 2c 3f
       -0.62827766 -0.41749716 -0.36377457 0.67317814
0001c0 15 39 b3 bf 50 71 4d bf b9 3e e1 3f ba 08 82 3f
       -1.4001795 -0.80251026 1.7597266 1.0158913
0001d0 e1 36 94 bf b8 a0 dd bf 28 2f 44 be cc a3 09 bf
       -1.1579248 -1.7314672 -0.19158614 -0.5376556
0001e0 0d 31 bf bf 18 bd ae bf 9d e4 d4 bf 1d 62 4e bf
       -1.4936844 -1.3651457 -1.6632267 -0.8061846
0001f0 09 72 b2 be fb eb 8f 3e 02 5d 99 be 74 d7 a7 bf
       -0.34852627 0.28109726 -0.29953772 -1.3112626
000200 08 1f c7 bf 11 88 40 3f d2 41 1b 3f f6 76 23 3f
       -1.5556345 0.7520762 0.6064731 0.63853395
000210 9a 4b 82 bf 59 01 d3 bf c0 18 d6 be 29 fd 3b 3e
       -1.0179322 -1.6484786 -0.41815758 0.18358292
000220 6a 9e 97 3f 14 22 d6 bf e0 7d 5f 3f 1a a5 08 bf
       1.1845219 -1.672915 0.87301445 -0.53376925
000230 e8 bd 71 bf 8c f4 89 be 95 0c e6 be e8 9d d8 bf
       -0.944304 -0.26944387 -0.44931474 -1.6923189
000240 d4 47 28 bf 5b 2f e5 bf bf 31 1a 3f ea e3 05 3f
       -0.657346 -1.7905077 0.60232157 0.52300894
000250 20 6d b4 3e 4f 75 a0 3f 4e e6 c0 be 8e 31 ed be
       0.35239506 1.25358 -0.3767571 -0.4632687
000260 ef 44 b0 3f 5b 10 ae 3f 26 82 1c bf 5e f6 c2 3d
       1.3771037 1.3598741 -0.6113609 0.09519647
000270 2d 4f 0a 3f 67 05 ea 3f ca 1e 88 3f e2 01 02 bf
       0.5402706 1.8282899 1.0634396 -0.5078412
000280 11 99 2b bf 39 46 3f 3e 6f 53 0f bf 5d 69 c5 bf
       -0.67030436 0.18679132 -0.55986685 -1.5422779
000290 03 e0 89 bf d5 66 bc bf f0 60 00 bd a8 0c 89 3f
       -1.0771488 -1.4718882 -0.031342447 1.0706987
0002a0 b5 1a a8 3e 5a c2 85 bf e8 dd 28 be ab a6 8c bf
       0.32832876 -1.0449936 -0.164909 -1.0988363
0002b0 b5 79 f5 bf a8 29 dc be 23 8a 70 3e 5e 00 99 3f
       -1.9177767 -0.4300053 0.23490195 1.1953237
0002c0 8a ad 8d 3f 84 bd c1 bf 80 ff 08 bf 82 9f c3 3f
       1.1068585 -1.513596 -0.5351486 1.5283053
0002d0 18 0a 9a bf 1d cf 9d 3f 80 69 47 bd 3e c6 d0 bf
       -1.203433 1.2328831 -0.048684597 -1.6310499
0002e0 33 e5 8a bf e6 b9 2f 3e 68 7e 61 3f 95 3d c6 bf
       -1.0851196 0.17160758 0.88083506 -1.5487543
0002f0 a0 58 93 bf 89 22 99 bf bd 78 91 bf 0b 12 09 3f
       -1.1511421 -1.1963664 -1.1364971 0.53543156
000300 d2 1d d0 3f 88 8b 5a 3e 12 06 51 3f 43 77 87 3f
       1.62591 0.2134229 0.8164989 1.0583271
000310 f4 ab 0c be d9 d3 08 3f 2e 25 fb 3e 50 03 a6 3f
       -0.1373747 0.53448254 0.49051803 1.2969761
000320 30 44 bf bf 08 c9 ab 3f f7 89 0f be c5 4a f5 3e
       -1.4942684 1.3420725 -0.14017473 0.47908607
000330 b4 34 21 be 3a af a5 bf 82 8b f0 be 5b 7b a1 3d
       -0.15742761 -1.29441 -0.46981436 0.07884856
000340 42 ca 12 bf 65 c1 d7 be ab 94 c2 be 79 37 8c bf
       -0.5733987 -0.42139736 -0.3800405 -1.0954429
000350 c7 85 b4 bf 1d 6a 2a 3e 1c 36 81 3f 9d 01 a0 3f
       -1.4103326 0.16642042 1.0094638 1.2500492
000360 ad d9 bd bf 1a af 2b 3f c9 05 a5 bf 80 7f 80 bd
       -1.4832054 0.6706406 -1.289239 -0.06274319
000370 b1 77 33 bf 95 d5 00 3f ae f0 15 3e fc 1f f0 3e
       -0.7010451 0.503259 0.14642593 0.46899402
000380 fa b5 bc 3f ec 8e d2 3f 1d b0 9c bf 1f af 08 bf
       1.4743035 1.6449866 -1.2241246 -0.53392214
000390 d8 6b 4f be 29 c5 ba 3f 23 d1 59 3e 07 67 0a 3f
       -0.20255983 1.4591419 0.21271186 0.5406346
0003a0 56 59 cc bf 40 ed 74 bd 04 20 d4 3f 4d c7 28 3f
       -1.5964763 -0.05979657 1.657227 0.6592911
0003b0 4d 95 be bf 9c 19 ed bf 90 25 11 bd 00 5d 75 be
       -1.4889313 -1.852344 -0.035436213 -0.23961258
0003c0 fa 32 9e 3e 35 6c 80 3f aa 38 d2 bf 53 da d9 bf
       0.30898267 1.0033022 -1.6423542 -1.7019752
0003d0 66 ae 89 3f 04 c7 0c bf 3e af bf be 8e a1 d0 be
       1.0756347 -0.54991174 -0.37438387 -0.40748256
0003e0 d2 00 e2 bf da 12 eb bf b4 13 9b be a2 f7 8a bf
       -1.76565 -1.8365128 -0.3028847 -1.0856822
0003f0 b7 8b dc be 6d 25 00 3e af af a5 bf 93 8b 76 bf
       -0.43075344 0.12514277 -1.2944239 -0.96306723

linear2.weight f4 [256, 256]
000000 49 92 52 3d 9e 74 5c bd e5 f6 86 bc b3 19 64 3c
       0.05140904 -0.053822152 -0.01647515 0.013922143
000010 bb 52 21 bc f2 9c 81 bd f8 8e 8d bc 6d 27 06 3d
       -0.009846385 -0.06328763 -0.017280087 0.032752443
000020 eb 42 5e bc 9f af 07 bd d0 34 fe bc 2d 49 46 3d
       -0.013565759 -0.03312647 -0.031031042 0.04840963
000030 f0 bc 00 bd 2a aa 8b 3c dd 66 44 3c 3e 7c 92 3b
       -0.031430185 0.017048914 0.011987415 0.004470377
000040 78 74 1c 3c a9 fa 10 3c 42 2d 35 bd b1 fe 2e bd
       0.009549253 0.008848825 -0.044232614 -0.04272336
000050 45 cc 7f 3c 53 53 31 bd fc cd 15 bd a8 d2 34 bb
       0.0156126665 -0.043292355 -0.036573395 -0.0027591381
000060 2a 0e f1 bc 42 be 95 3c 96 1a 4f 3d 80 2e f2 3c
       -0.0294257 0.018279199 0.050562464 0.029563189
000070 d7 1f 3d 3c 1f 93 6d 3d a4 cf 2d bd e1 3b 72 bd
       0.011543236 0.058001634 -0.04243435 -0.059139136
000080 39 6c 6b 3d d8 7d 5d bd 68 dd 29 b9 a2 31 12 3c
       0.057476256 -0.054075092 -0.00016199576 0.008922966
000090 e3 1a 4b bd 6b a9 7b 3c fd a3 2e bd 98 90 f5 3a
       -0.049586188 0.015360217 -0.04263686 0.0018735109
0000a0 06 76 d9 3c 97 89 a8 bb 55 92 f3 bc b6 6c 78 3c
       0.026545536 -0.005143355 -0.029732862 0.015162637
0000b0 23 e1 11 3d 67 87 09 bd 76 cf 9f bc f4 e3 ce 3b
       0.035615098 -0.033576395 -0.019508105 0.006313795
0000c0 d1 12 c1 bc 5b d6 24 bd f6 b5 41 bd 3a 8b 6b 3d
       -0.023568543 -0.040243488 -0.047292672 0.057505824
0000d0 76 b2 46 bd 10 f8 1e bd 14 10 52 bd aa 6e f0 ba
       -0.048510037 -0.03881079 -0.051284865 -0.0018343527
0000e0 09 42 df bc 48 69 1f bc 3e e8 3c 3d 19 c5 e7 3b
       -0.027253168 -0.009729691 0.04611992 0.0070730564
0000f0 10 4c e7 bc 7d 23 04 bd 4f d6 90 3c 5a fa bf 3c
       -0.028234512 -0.032260407 0.017680315 0.023434807
000100 76 ee 84 bd 83 4d 6b 3c 50 26 82 3c be 17 27 bd
       -0.06490795 0.014361742 0.01588741 -0.040794127
000110 e1 3d ba 3c 2e 39 a2 3c b0 de 5f 3c 00 09 d2 ba
       0.022734584 0.019802656 0.013663933 -0.0016024411
000120 70 56 73 bc 66 6f 18 3d 17 03 27 bd 39 b2 fc 3c
       -0.014852151 0.037215613 -0.04077443 0.030846702
000130 53 f9 bf 3c b6 1a 5c bd 84 2f a8 3b 1a 5f 7e bd
       0.023434317 -0.05373641 0.0051326174 -0.062102415
000140 26 a6 9a 3c cd 28 68 3d d9 fc 59 3d b0 db b5 3c
       0.018878054 0.056679536 0.05321965 0.022199482
000150 4b 4b 9d ba 61 c6 75 bd c1 f8 21 bb f3 fb ee 3c
       -0.0012000588 -0.060003642 -0.002471492 0.029172873
000160 f1 dc e5 bc a3 67 41 3d 75 f8 80 3b f2 d1 31 3d
       -0.028059455 0.047217976 0.0039358684 0.04341311
000170 cb 6e d4 bc f6 53 1d 3d c2 7b 55 bd 0c 38 69 bd
       -0.025931736 0.03841015 -0.052119978 -0.056938216
000180 e8 f9 2f 3d f2 29 3e bd 7c 74 55 bd fa 9c 4e 3d
       0.04296294 -0.04642672 -0.05211304 0.050442673
000190 a7 f9 4f bd 84 c2 6c 3d a5 c6 9f bc 32 a9 0b 3c
       -0.050775196 0.057802692 -0.0195039 0.008524226
0001a0 79 8b d2 bc 1d 8d dd 3c 10 3d 16 3d 51 9f 9d 3b
       -0.025701271 0.027044827 0.036679327 0.0048102518
0001b0 7e 52 4f bd ec 39 0e bd 1f f5 d6 ba e7 e7 4c bd
       -0.05061578 -0.034723207 -0.0016399956 -0.050025847
0001c0 fc 87 5c bd 21 b0 48 3c 9b 6c 54 3d 5b 00 d6 3c
       -0.053840622 0.012249024 0.051861387 0.026123216
0001d0 01 44 2c bd 3a 44 f2 bc b5 2c 61 bd 7a b3 4d bd
       -0.04205704 -0.029573549 -0.054974277 -0.05021999
0001e0 0f 16 a4 3c 0e 44 a8 3b 2f 6e d6 3c b9 ef 42 3d
       0.02003005 0.005135066 0.026175587 0.0475919
0001f0 88 47 1a bc b0 65 a4 3c c8 1b ab bc f2 2d 3a 3d
       -0.009416468 0.02006802 -0.02088727 0.045453973
000200 69 2b 44 3c f7 ea 7b bc 62 e1 b2 bc 08 44 20 3d
       0.01197324 -0.015375844 -0.021835987 0.03912738
000210 45 53 f0 3c f0 05 4e bd 88 51 c2 3c 0f 9e 45 bc
       0.029336581 -0.05029863 0.023720518 -0.01206161
000220 cf e6 6d 3d c4 f9 cb 3b c9 af dd bc cd b9 24 bd
       0.058081444 0.0062248427 -0.02706136 -0.040216256
000230 ef 5c 5f bd ca 00 70 bd e0 86 98 bc de 9b 65 3d
       -0.054531988 -0.058594503 -0.018619 0.05605685
000240 68 05 63 bc 44 c6 6d bd 72 f4 b3 3b 99 08 a7 bc
       -0.013856269 -0.05805041 0.0054917866 -0.020389842
000250 59 8b 8c 3b bd a3 77 bb d0 25 7d bd 66 3f 5f bd
       0.0042890725 -0.0037786805 -0.06180364 -0.05450382
000260 d0 be 0b bd a6 a2 a8 bc 96 dd 83 3c f2 9d 80 bc
       -0.03411752 -0.02058537 0.016096871 -0.015700314
000270 87 bf 17 bd 73 37 1a bd a0 c4 e1 ba aa 45 66 bd
       -0.03704789 -0.037650537 -0.0017224737 -0.05621878
000280 5e 2f 3a bc c5 0f c3 bc c4 c6 92 bc 1d 11 9b bb
       -0.011363832 -0.02381123 -0.017917044 -0.0047322647
000290 ad c8 bb bc 7f c5 17 bd d8 fe 5d bd 7c 6c 19 3d
       -0.022922838 -0.03705358 -0.054198116 0.037456974
0002a0 32 a3 a2 bb e0 e5 51 bd 54 f8 6f bd 71 eb 89 3c
       -0.004963302 -0.051244617 -0.058586434 0.0168359
0002b0 dd e7 1b bd f8 e0 60 bd 14 f1 14 3d a1 d1 40 3d
       -0.03806292 -0.054902047 0.036362723 0.047074918
0002c0 43 58 2f bd df bf 81 bd e4 9e 55 3d 51 21 52 3d
       -0.042808782 -0.06335425 0.052153483 0.051301304
0002d0 39 0b 3e bd 9a 31 3d bd 40 35 50 3d 27 a1 d0 3c
       -0.04639742 -0.04618988 0.050832033 0.025467468
0002e0 61 d6 14 3c 58 66 14 bc 30 50 53 3d ec 71 f3 ba
       0.009084315 -0.009057604 0.051590145 -0.001857338
0002f0 2b 37 81 bc 16 21 2e bc fe cb 35 bb c7 f2 56 3c
       -0.015773376 -0.0106280055 -0.0027739997 0.013119406
000300 ba 70 3c 3d 16 f9 a1 3b 54 c4 31 bc 97 b2 2a 3d
       0.046005942 0.0049430234 -0.010850031 0.041674223
000310 ec 8b 93 bc 4d 22 41 bd 88 74 75 bd c5 ba 71 bc
       -0.018011056 -0.047151852 -0.059925586 -0.014754002
000320 13 8f ea bc eb 3b 4f bd a4 86 02 3d fd db 59 bc
       -0.028632676 -0.05059425 0.031866685 -0.013297078
000330 1c 7e a4 3c c6 da 45 3d 5e c0 1b 3d 7f b4 9f bc
       0.020079665 0.04830434 0.038025253 -0.019495247
000340 7e 32 37 bd e9 08 da bc fe 13 00 3d ce 23 11 bc
       -0.044725887 -0.026615577 0.031269066 -0.008858634
000350 b1 9b 83 3c 0e 7f 12 bd ad 06 37 3d 28 10 4c 3d
       0.01606545 -0.0357657 0.0446841 0.049820095
000360 d6 67 23 bd 85 9d 05 3d 7e 6c ed bc 64 3a e8 bc
       -0.039893948 0.032620925 -0.028982397 -0.028348155
000370 6b b0 15 bd 48 0c 31 3d da 4e 52 bd b2 fa c7 3c
       -0.0365452 0.043224603 -0.05134473 0.024411533
000380 ea dd bb 3c 9c c0 6f bb 12 6f 55 3d 55 61 6b 3d
       0.022932965 -0.003658331 0.052107878 0.05746587
000390 96 b3 71 bd 8f 51 69 3d 84 33 f5 3c f1 cd f1 bc
       -0.059009157 0.056962546 0.029931791 -0.029517146
0003a0 3d 99 1e bd 28 6b cd 3c 21 99 11 bd 4c a3 84 bc
       -0.03872036 0.02507551 -0.035546426 -0.016191147
0003b0 e0 a7 72 bd 14 bd 74 bc 44 cc 28 3d 20 ae e8 bb
       -0.05924213 -0.014937658 0.041210428 -0.0071008354
0003c0 2b 97 0e bc 98 6d 9f ba 81 fb 0d bd c2 56 9b 3b
       -0.008703033 -0.0012163399 -0.03466368 0.004740567
0003d0 44 21 0b 3d 8e 3d 6c 3d 80 40 ee ba 6f 53 1f 3d
       0.03396727 0.05767589 -0.0018177181 0.038897928
0003e0 89 b6 c8 3b 03 d8 47 3c f2 0f 31 3d f4 43 8b 3b
       0.0061252755 0.012197497 0.043228097 0.004250044
0003f0 0c 67 a8 bc ca 9f eb 3b d3 ff 80 bd a0 77 2f 3d
       -0.02055695 0.007190679 -0.062987946 0.042838693

linear2.bias f4 [256]
000000 46 45 41 3d e8 ad bd be c8 ac 00 3b f6 3d c8 3b
       0.047185205 -0.37046742 0.0019634236 0.006110902
000010 00 fe 5e b9 50 1d 21 bd 08 6e 01 3d c2 b4 19 3f
       -0.00021266192 -0.039334595 0.031599075 0.6004144
000020 4a f2 27 3b fb a6 52 3c bc fc 81 bd 00 00 49 3c
       0.0025626593 0.012857194 -0.063470334 0.012268066
000030 c6 44 78 3d 4d d2 ee 3e 23 07 47 3d 50 e4 01 be
       0.060612462 0.46644822 0.04859079 -0.1268475
000040 29 84 1a 3d 33 a9 11 3d 7c 53 25 bb 91 07 0b bd
       0.037723694 0.03556175 -0.0025226763 -0.033942763
000050 a5 9a 31 3e 7f 57 c2 3c e2 1b b8 3b 70 34 35 3e
       0.17344148 0.023723362 0.0056185583 0.17695785
000060 b8 44 30 3d 58 46 1e bd 66 1f c0 bb b9 12 f1 bc
       0.043034285 -0.038641304 -0.005863118 -0.029427873
000070 cc 36 4e bd f0 c2 97 bc e8 02 20 bc d3 b4 bf 3c
       -0.050345227 -0.01852557 -0.009766318 0.023401653
000080 2e 21 2c bd 7e f5 59 bd 46 2b 4b 3f 5c 37 55 bd
       -0.04202383 -0.053212635 0.79362905 -0.052054748
000090 02 87 0f bd 0d 6a 4c 3d 53 c0 a3 3c b0 e4 03 bd
       -0.035040863 0.049905825 0.019989168 -0.032200515
0000a0 7f b1 cc be 44 d2 97 bd d7 6c b7 3b 6b ac e0 3c
       -0.3997917 -0.07413152 0.0055976915 0.027425965
0000b0 f9 35 c8 bc 32 59 a0 bc c6 4f 1f bf ab bc 7c bd
       -0.024439799 -0.019573782 -0.622311 -0.061703365
0000c0 e3 5c 81 bc 09 f6 36 3d a6 8b 09 3f 00 3e 92 bc
       -0.015791362 0.04466823 0.5372871 -0.01785183
0000d0 0c d0 1d bd ac 51 28 bf dc 31 b1 bc f7 30 46 bd
       -0.038528487 -0.6574962 -0.02163022 -0.04838654
0000e0 bc db a8 3e c4 f0 ad bc b4 c6 87 bc 2e 91 f2 3e
       0.32980144 -0.02123297 -0.016574241 0.47376388
0000f0 09 e4 85 bb d7 7e 21 bf 6c af d9 bc 78 73 05 bc
       -0.004086022 -0.6308417 -0.026572905 -0.008145206
000100 71 81 3f bc 65 c5 ab 3e 34 23 ab 3e b5 42 41 bf
       -0.011688576 0.33549038 0.33425295 -0.7549241
000110 38 b4 be bc d5 6a 95 3b d1 56 71 bc 3a 89 5c 3d
       -0.023279294 0.0045598545 -0.014730171 0.053841807
000120 cb 2c ad 3c 12 d5 5a bd 8a 8f 20 3d 1d 5a 17 3d
       0.021139523 -0.053425856 0.03919939 0.036951173
000130 93 7e eb 3e 76 ec 68 3d a6 7d 9f 3c ee 7a 81 bc
       0.45995006 0.05686613 0.019469094 -0.015805688
000140 5d 1e ec 3c b3 9e fe 3d cf f6 b3 bb c8 af 71 3d
       0.028823072 0.12432613 -0.0054920684 0.05900553
000150 bc b8 9c 3e 81 cb f8 3c 30 80 59 bf a5 6d 35 3e
       0.3060969 0.030370476 -0.84961224 0.17717607
000160 c9 90 17 be 8d 25 07 3e ef 28 0f bc 11 73 44 3e
       -0.14801325 0.13197918 -0.008737787 0.1918452
000170 e7 2d d0 3c e1 78 79 be 5a f5 52 3d b7 35 cc bc
       0.025412513 -0.24362518 0.051503517 -0.024927957
000180 24 44 6f be 71 d0 5e bd 98 e3 ca 3c 50 74 39 3c
       -0.23365837 -0.054398004 0.024766728 0.011319235
000190 a1 1c 86 3d a5 cc 54 bd 4e c4 6c bb 7a fb a3 3c
       0.06548429 -0.051952977 -0.003612775 0.020017374
0001a0 4f 2c 35 bd a5 61 27 be 52 da 6a bd 3f 8f 2d bd
       -0.04423171 -0.16345842 -0.057337113 -0.04237294
0001b0 78 f0 1b bd ec 83 d1 be e1 41 1d bd a4 23 2e 3b
       -0.038071126 -0.4092096 -0.038392905 0.0026571536
0001c0 a8 61 3e bf 72 d1 87 3b 57 76 7e 3c 0c cc be 3c
       -0.7436776 0.004144841 0.015531144 0.023290657
0001d0 c6 bd 7f 3d f8 b3 55 bd 5a 48 f5 3d af da e2 3c
       0.06243684 -0.052173585 0.119766906 0.027692167
0001e0 fa 0d 12 3d 9c 31 12 3c c0 dc 5b bd 38 7b f2 3c
       0.03565786 0.008922961 -0.05367732 0.02959977
0001f0 1a 75 52 bd e2 74 bf 3e 42 39 a3 3d 26 2a 53 bf
       -0.051381208 0.37393862 0.079699054 -0.8248619
000200 95 08 0a bd a9 1f 64 3f e0 4c 7d 3c 8a 5d 82 bf
       -0.03369959 0.8911081 0.015460223 -1.0184796
000210 b4 5f 3a bd 00 8e 2d 3b 27 0a d1 3c ed a1 ba 3a
       -0.045501426 0.0026482344 0.025517536 0.0014238931
000220 c4 16 33 bd 99 d6 6f 3e 04 62 d6 be 90 c1 d1 3c
       -0.043722883 0.23421706 -0.41871655 0.025604993
000230 80 b6 4c bc 21 45 b4 bc 58 f9 7a 3d f4 ef 5d 3e
       -0.012494683 -0.02200562 0.06127295 0.21673566
000240 88 85 20 bd de 89 61 bc ec 6e 50 bd a4 54 81 bd
       -0.039189845 -0.01376578 -0.050887033 -0.06314972
000250 67 6c 2e 3d 61 8a 73 3d 64 98 3f 3b f6 da 0d bd
       0.04258385 0.05945814 0.002923512 -0.034632646
000260 20 58 29 bc ba 6f e8 3b f8 f0 2c 3c b0 3c 24 bd
       -0.010335952 0.007093397 0.010555498 -0.04009694
000270 0f 08 26 bd 6e c5 85 bd d5 7b 41 3e 71 a1 47 3e
       -0.04053503 -0.06531797 0.18894894 0.19495179
000280 31 80 ab 3b d3 66 61 bf 88 e7 31 bf 4a d0 60 bd
       0.0052337875 -0.8804752 -0.69493914 -0.05488614
000290 53 4b 42 3d 75 08 11 3f 16 ba cb be 40 44 45 bd
       0.047435116 0.5665353 -0.3979041 -0.04816079
0002a0 29 61 ad 3c 24 4d 7f 3c 01 90 0f 3d 46 b7 30 38
       0.021164494 0.015582357 0.035049442 4.2132357e-05
0002b0 62 a0 37 bd 6a 55 02 3d de 8e 02 bd 27 c2 0c bf
       -0.044830687 0.03181974 -0.03187453 -0.5498375
0002c0 a7 e4 01 3f 84 2d 28 3e d4 4e 4d bd ba e1 5a be
       0.5073952 0.16423613 -0.050124004 -0.2137517
0002d0 e3 7a f8 be bd a6 92 bd 00 95 13 bc 78 4b 6d bc
       -0.48531255 -0.07160709 -0.009007692 -0.014483325
0002e0 df 94 fc bc 38 8c 28 3f 20 f8 16 3e b8 96 8e bc
       -0.030832706 0.65838957 0.1474309 -0.017405853
0002f0 2c 5f 7f 36 93 bf 80 bd c7 62 f4 be df dc 0f 3f
       3.8053358e-06 -0.0628654 -0.4773161 0.561964
000300 7e 21 77 3d f1 ba e3 3c 23 3e d3 3e 78 07 34 3c
       0.060334675 0.027799102 0.41258344 0.010988109
000310 b8 73 28 bf 0b a0 5f bf f7 05 70 3d 65 07 da 3c
       -0.6580157 -0.8735358 0.05859944 0.026614854
000320 b6 08 c6 3c 7c 35 13 bd 57 ab 78 3c 62 2f cd 3d
       0.024174076 -0.03593968 0.015177569 0.10018803
000330 b7 2b 10 3d 80 53 1f 3e 61 b3 24 bd b1 5f 16 bb
       0.03519794 0.15559196 -0.04021013 -0.002294522
000340 d2 6c 71 3c 9b b6 d4 bc 08 22 56 bc 97 b1 1c 3d
       0.014735417 -0.02596598 -0.013069637 0.0382553
000350 18 0d 2c 3c e4 02 c8 be b0 6e 5d 3d c4 7e 27 bd
       0.010501169 -0.39064705 0.054060638 -0.040892377
000360 9b 5b 04 bd e8 d2 d0 3c 01 5b a9 bc d9 9e 1d 3d
       -0.032313924 0.025491193 -0.020673277 0.038481567
000370 27 2b e4 be 20 d1 69 3b 8b b1 4a bc f7 0d f8 3d
       -0.44564173 0.0035677627 -0.012371431 0.121120386
000380 c7 43 d2 3e a3 ba c6 3d 80 7d 27 bc 20 85 fd be
       0.41067335 0.09703567 -0.010222793 -0.4951563
000390 18 15 69 bd a0 3e 11 bd da 68 f5 3c ea c2 1d bd
       -0.056904882 -0.035460114 0.029957224 -0.038515963
0003a0 7e f4 9f 3e de 5c 41 bf 56 f0 ed 3a 14 f7 8d 3a
       0.3124122 -0.7553233 0.0018153291 0.0010831081
0003b0 46 1f e2 bc 29 7d 6d 3f 5f 51 d4 3e a0 4b 3e 3c
       -0.027602803 0.92769104 0.4146833 0.01161471
0003c0 57 29 07 be d1 cd 65 be ad 78 5a 3d 2f b9 91 3c
       -0.13199364 -0.22441794 0.05333774 0.017788498
0003d0 43 07 1c 3d 58 78 37 bb fa c5 c0 3d dc 2f e0 3c
       0.038092863 -0.0027995314 0.09412761 0.027366571
0003e0 21 f7 21 3e 00 ed f7 39 aa 02 2b bf 04 92 16 3e
       0.15816928 0.0004728809 -0.6680094 0.14704138
0003f0 50 56 4d 3d 94 e7 e8 ba 4e 93 37 3e ec a7 94 3c
       0.050131142 -0.0017769211 0.17927286 0.018146478

linear4.weight f4 [256, 256]
000000 b9 d9 cc 3c e5 c6 6c 3d 32 d2 55 3d 4c 69 2a bd
       0.025006162 0.057806868 0.05220241 -0.041604325
000010 8c e8 17 3d 14 bf d1 bc a1 2f 3e 3d 78 f3 96 3c
       0.03708701 -0.025603808 0.04643214 0.018426642
000020 d5 a0 66 bd f9 19 5d 3d 0c de cb 3c c9 ca 91 3c
       -0.056305725 0.053979848 0.024886154 0.01779689
000030 83 29 e9 3c 3f e9 9f bc 2d b3 51 bd b8 97 eb bc
       0.028462177 -0.0195204 -0.051196266 -0.028758869
000040 db 41 36 3d 90 eb 11 bd e8 b7 9f 3c 75 3f 34 bd
       0.0444964 -0.03562504 0.019496873 -0.04400583
000050 3a 85 81 bd 5f bb 07 3d c9 c5 22 3b 02 b7 a8 3c
       -0.06324239 0.033137675 0.0024837127 0.020595077
000060 36 67 be bc 26 06 26 3d 48 66 1e 3d 0d e2 2c bd
       -0.023242574 0.040533207 0.03867176 -0.042207766
000070 c0 e6 89 bc 44 5e 74 bd d0 ea d0 bc 0a c1 4d 3d
       -0.016833663 -0.05966021 -0.025502592 0.050232925
000080 d6 5c 63 3d 70 80 8f 3b a5 09 1f 3d 1a e6 4c bd
       0.055508457 0.0043793246 0.038827557 -0.05002413
000090 10 8a 63 3c 38 c0 49 bd f3 bd 98 3c a0 7b 6f bc
       0.013887897 -0.04925558 0.018645262 -0.014616877
0000a0 ff 1e 53 bd 0c c3 2c bc ff 8c 3f bb 41 97 66 3d
       -0.051543232 -0.01054455 -0.0029228327 0.05629659
0000b0 d5 b3 46 3c 08 40 06 3c 50 ba 88 ba 3b ac e0 3c
       0.012127836 0.008193977 -0.0010431502 0.027425876
0000c0 26 41 4b 3a 6e 20 f1 3c f3 9a e7 ba ab 0d 65 3d
       0.00077535433 0.029434409 -0.001767008 0.055921238
0000d0 00 02 df 3c d1 ff 6f bd 14 84 2c 3d 0c ef 93 3b
       0.027222633 -0.058593575 0.042118147 0.0045145806
0000e0 22 6c 0a bd f4 81 d6 bc d8 eb 6b bc 14 33 a6 bc
       -0.03379453 -0.026185013 -0.014399491 -0.020288028
0000f0 b8 cb 21 bc 95 42 b4 bc 13 cc 6e bb 0c fc c4 3c
       -0.0098752305 -0.022004405 -0.0036437556 0.024045967
000100 69 d9 5f 3b da a0 80 bd 10 da 89 bb 27 a8 94 3a
       0.0034156686 -0.0628068 -0.0042069033 0.0011341617
000110 9f 9a 0f 3d 03 46 6a 3d cc ae 75 bc 54 8c c3 bc
       0.035059568 0.057195675 -0.014995288 -0.023870625
000120 38 f3 57 bc f6 35 12 bd a0 0b 26 3d 73 e3 8d 3c
       -0.013180546 -0.035695992 0.04053843 0.01732037
000130 f6 be 0a bd 35 05 20 3d 8a ba 69 bd a1 79 37 bd
       -0.03387352 0.039067466 -0.057062663 -0.04479373
000140 9a 9e 69 bd bc 86 24 3c e0 d8 f3 bc 90 a8 e3 bc
       -0.05703602 0.010041889 -0.0297665 -0.027790338
000150 69 d4 83 3c 87 1e 21 bc 0f b1 89 bc 26 0f ad bc
       0.016092496 -0.009833938 -0.01680806 -0.021125387
000160 bf 6f 2a 3d c7 2c aa 3c 9b 37 50 bd 07 b5 92 3c
       0.041610476 0.020773305 -0.05083428 0.017908586
000170 af 01 52 3b b3 61 95 3c fe 89 22 3d 3b ee aa bb
       0.003204446 0.018235063 0.03968238 -0.0052163876
000180 c8 39 61 3d 04 43 9f 3c 65 27 b5 3c f8 cd 55 3c
       0.054986745 0.019441135 0.022113511 0.013049595
000190 3a 89 3d 3c 7a e4 4c 3d dc 44 4a 3d 70 66 32 bd
       0.011568362 0.05002258 0.049382076 -0.043554723
0001a0 59 33 79 bd ca f1 1c bc 81 bd 48 3d 9e 96 3e 3d
       -0.060839985 -0.009579131 0.04900885 0.04653036
0001b0 a4 50 dd 3c 8a d6 b1 ba 02 b4 d7 3c 21 f5 f4 bc
       0.027015992 -0.0013567966 0.026330952 -0.029902043
0001c0 4f 90 50 bd 7e 2d 4e 3d a4 e1 0a bc a0 5b 74 3b
       -0.050918873 0.050336353 -0.0084766485 0.0037286058
0001d0 b0 cc 0d bc 1a 93 68 bd fe 9b 8f 3c 28 b7 d6 3c
       -0.008654758 -0.056780912 0.017530438 0.026210383
0001e0 a8 f3 b6 bc 42 a7 a6 3c 38 b4 eb bc 66 70 44 bd
       -0.022332981 0.020343427 -0.028772458 -0.047958754
0001f0 18 27 ca 3c 7b 9c 04 bd b7 c3 5d bd 87 6b 29 bd
       0.024676844 -0.032375794 -0.054141726 -0.04136231
000200 0d ce fb 3c cc 1b 43 bc c6 86 66 3d 9a d5 2c bd
       0.030737901 -0.011908483 0.056280874 -0.042195894
000210 38 6a 37 3c 04 d0 9c 3c 4f 49 75 3b cf 4c 62 bd
       0.011194758 0.019142158 0.0037427729 -0.05524903
000220 0a 91 55 3d c6 09 34 3d df 78 62 bc 7a 11 17 3c
       0.052140273 0.043954633 -0.013822763 0.009220475
000230 1e 5e 04 bc 29 6d de 3b 93 95 68 3d c9 2d 16 bd
       -0.00807908 0.0067879152 0.05678327 -0.036664758
000240 bd f4 75 3d 54 e2 80 bc 06 76 5e 3d 20 c4 3e 3d
       0.060047854 -0.015732922 0.054311775 0.046573758
000250 3f 00 ad 3c f9 79 09 bc 6a 07 59 bd 6e 05 45 3d
       0.021118281 -0.008390897 -0.052985586 0.04810088
000260 37 6c 95 3c 14 23 30 3c 22 84 68 3d b7 d5 ba 3c
       0.018240077 0.010750551 0.056766637 0.022806985
000270 31 75 ba 3c e4 86 f9 bc 6f c7 9f bd e0 50 38 3c
       0.02276096 -0.030459829 -0.07801711 0.011249751
000280 76 13 17 3d 4e 44 f2 3c 8c 91 d7 bc 40 8f 9e bb
       0.036883794 0.029573586 -0.02631452 -0.004838854
000290 cb a1 2f 3d e6 29 1c 3e 7d a5 81 bd 99 f6 35 bd
       0.042878907 0.15250358 -0.063303925 -0.044424627
0002a0 a6 43 d7 3c a0 e2 03 3d e8 70 3e 3d 71 ba 35 bb
       0.026277374 0.03219855 0.046494395 -0.0027729536
0002b0 e4 5a d0 3c 4f e4 7c bd e4 71 53 bd 67 18 ec 3a
       0.025433965 -0.06174117 -0.051622286 0.0018012644
0002c0 7f 2e 9b 3c 07 b8 ba 3c 67 d2 78 3d 6a 3d 58 3d
       0.01894307 0.02279283 0.06074753 0.052792944
0002d0 85 ec 3e 3d b0 33 35 bd 66 66 77 bd a8 5f de bc
       0.04661228 -0.044238746 -0.06040039 -0.027145222
0002e0 c6 92 52 3d c7 20 2d bd 5e c0 35 3c 8d 3d 99 bc
       0.051409505 -0.042267587 0.011093227 -0.018706108
0002f0 e3 99 f7 3b c2 14 30 3d c7 21 ac bb 9a 9e 2b bd
       0.0075561865 0.042988546 -0.00525305 -0.0418993
000300 9c 12 03 3d a1 8d e9 3c e9 21 c1 bc 8a 9e 70 3d
       0.03200017 0.028509917 -0.02357574 0.058744945
000310 32 54 29 bd 88 5b aa bb 11 c4 20 bd ca 74 be bb
       -0.04134006 -0.0051988997 -0.039249483 -0.005812262
000320 ec c8 c9 3c 3e 61 48 3d 7e c1 78 3d 18 54 fc bc
       0.02463194 0.048920862 0.060731404 -0.030801818
000330 2a d8 5a 3d ea 74 c0 bc c1 a8 8f bc da 9f 66 3d
       0.053428806 -0.023493249 -0.017536523 0.05630479
000340 6b 9d 54 3d b5 bd 60 3d e9 b9 62 bd 56 c0 3f bd
       0.051907938 0.05486842 -0.05535308 -0.046814285
000350 fa a4 25 bd 96 3e ef bc b4 52 c6 3c 97 ba 80 bd
       -0.040440537 -0.029204648 0.024209358 -0.06285589
000360 61 ad f2 3a 1c 9f c5 bc 4e 73 42 3d 6f 5a f7 3c
       0.0018514806 -0.02412372 0.047473244 0.03019449
000370 12 22 15 bd 34 76 d5 3c 39 c0 9c 3c 33 68 ca 3c
       -0.036409445 0.02605734 0.019134628 0.02470789
000380 8d 38 e8 3c 6f 66 2e 3c 0a a9 35 3d 4c 94 bd bc
       0.028347278 0.010644539 0.04435066 -0.023142003
000390 00 81 d3 bc 60 9e 33 3c 5d fa 0c 3d 00 cd 0a ba
       -0.025818348 0.0109630525 0.034418453 -0.00052948296
0003a0 aa 1e 52 bd 97 22 3b 3d a0 0f 2e bd db f4 a9 bc
       -0.051298775 0.045687284 -0.04249537 -0.020746639
0003b0 74 80 9a bc 3c fd 90 bb b3 af 76 bd 54 08 7f bd
       -0.01886008 -0.004424719 -0.060226154 -0.0622638
0003c0 58 c8 0f 3c 29 da 72 bd fc 73 e4 3c bf ea 15 3c
       0.008775793 -0.059290085 0.027887337 0.009150206
0003d0 ad 9e f4 bc 5e 88 17 3d 82 9a 32 bd 23 3c 69 bd
       -0.029860819 0.036995284 -0.04360438 -0.056942116
0003e0 af 77 c2 3b 18 de 31 3c 12 75 ec bc c6 2c a9 3c
       0.0059346776 0.010856174 -0.028864417 0.020651232
0003f0 dd e5 f3 3b 60 3e 21 bd 6d 27 a0 bc 23 a6 f3 bc
       0.0074431733 -0.039366126 -0.01955005 -0.029742306

linear4.bias f4 [256]
000000 a6 aa 23 bd cf 2a 09 bf dd 0c 0b bf 45 79 19 3f
       -0.039957665 -0.53580946 -0.543165 0.5995067
000010 59 3d 24 bf 0a 4c 68 be b7 3c b5 be 18 c2 30 bf
       -0.6415611 -0.22685257 -0.35397884 -0.69046164
000020 a5 86 38 bf 43 65 67 bd 52 aa 47 bf 0f 89 e1 3e
       -0.7208045 -0.056493055 -0.77994263 0.4404988
000030 80 e0 a7 bf d9 c4 0b 3f 9f ec 63 bf ef e3 4a bf
       -1.3115387 0.5459724 -0.8903293 -0.7925405
000040 eb 68 85 bd 09 96 2a bf a5 41 f1 be eb d7 03 bf
       -0.06514152 -0.66635185 -0.47120395 -0.5150134
000050 1c 07 ae bd fa 25 c5 be b7 0a ff be 84 b8 36 3e
       -0.0849745 -0.38505536 -0.49812862 0.17843825
000060 18 d3 24 bf 3d ed 63 bf f8 f1 3e bf d8 47 e0 3b
       -0.64384604 -0.8903387 -0.74587965 0.006844502
000070 20 79 c7 3e 3f 08 66 bd 12 d3 76 3e f3 bf 06 bf
       0.389596 -0.056160208 0.24103954 -0.5263664
000080 ad fc 1e 3e e5 0d 21 bd bd b9 4a 3f af 58 ad 3c
       0.15526076 -0.03931989 0.79189664 0.021160452
000090 02 b7 f7 3d f5 2c 99 3e 7a 3d 25 be 1f 51 69 bf
       0.12095453 0.29917112 -0.16136733 -0.91139406
0000a0 24 75 81 3d 23 18 df 3e 2a 08 1b 3f 3b 0a f4 bc
       0.06321171 0.43573102 0.6055933 -0.029790035
0000b0 ec c5 4c bf 37 9f 89 bd f4 e2 34 3f ef f3 84 bd
       -0.79989505 -0.06719821 0.70658803 -0.06491839
0000c0 31 d0 8d bd d8 fa 41 bf a6 57 1d bf 2c 37 37 bf
       -0.06924475 -0.7577338 -0.61461866 -0.7156856
0000d0 6c 22 11 bf b1 99 8b bd 0e 15 92 bd ec 7c 04 bf
       -0.5669315 -0.06816424 -0.07132922 -0.51753116
0000e0 50 3b 25 be a9 d3 0e 3f 7b a6 49 3f 59 89 0e be
       -0.16135907 0.5579172 0.78769654 -0.13919581
0000f0 e4 b2 25 3f 3b b1 11 bf c8 02 67 be cf 3b ff bc
       0.6472609 -0.5691106 -0.22559655 -0.031156449
000100 94 4d ee bd f3 d6 89 bd 7d 17 43 bf fc bd 2b 3c
       -0.116358906 -0.067304514 -0.76207715 0.0104823075
000110 b6 96 90 3e 5e a7 ce be ab 89 65 bf 3f a7 a7 be
       0.28239983 -0.40362066 -0.8966319 -0.32744786
000120 3b 31 ea bd 4d 57 bd 3e 73 ea 7d bf 3a 55 0d 3f
       -0.11435171 0.36980668 -0.99185866 0.5520817
000130 e7 d4 29 3f 8f 8d 0d bf 4f a7 21 3f 8f 42 34 3f
       0.6634049 -0.55294126 0.6314592 0.7041406
000140 36 e6 85 bf 98 24 0c be d9 cd f8 be 6e f9 61 3f
       -1.046088 -0.13685834 -0.4859455 0.88271224
000150 48 f4 be be 70 cd 3a bf 9e c5 18 3f d5 a0 68 bf
       -0.37295747 -0.7296972 0.5967654 -0.9087041
000160 52 14 3a bf 5b 6c 2b 3f 9a c7 c8 3e 64 19 ef 3e
       -0.72687256 0.6696221 0.39214784 0.4669906
000170 07 4f 5e 3f 76 c3 2f be 57 d7 e2 bb 71 4d 94 bd
       0.86839336 -0.17164406 -0.006922643 -0.07241333
000180 15 94 3a bf 34 29 35 3f 61 ce 58 bf 88 e9 35 bf
       -0.72882205 0.70765996 -0.8468991 -0.71059465
000190 f0 e1 ad 3d 33 28 34 3f ee 52 b5 bc 3b 4c b1 bd
       0.0849036 0.7037384 -0.02213427 -0.08657118
0001a0 55 c0 c9 3e 4c b5 57 bf 14 fa db 3c 1a c9 2f bf
       0.3940455 -0.8426101 0.026852645 -0.6866623
0001b0 69 fb 23 bf 29 c9 2e 3e 84 e6 fd bd 7a dc 42 bf
       -0.64055496 0.17068924 -0.12397483 -0.7611767
0001c0 c1 1e 38 3f 90 f6 15 be 28 49 44 bf 85 22 d6 be
       0.71921927 -0.14644837 -0.7667413 -0.4182321
0001d0 c3 c3 ce 3e ac 17 a3 be 58 2d 2e 3d 39 d2 04 bf
       0.4038373 -0.31853998 0.042523712 -0.51883274
0001e0 40 9f d9 3d 9a 57 cf 3e d1 bf 56 be 13 48 51 3f
       0.10626078 0.40496522 -0.2097161 0.817506
0001f0 fb 8e 90 bc 01 8a 9e be 51 ab 1a bf 29 47 35 bf
       -0.017646303 -0.30964664 -0.6041766 -0.70811707
000200 a4 53 97 3d 9e df ed be 36 ad 50 bf d6 f9 5e bf
       0.07389 -0.4645967 -0.815143 -0.8709997
000210 06 78 52 3f d6 f1 d0 be 7a 7b 2e 3f 7b b6 56 3f
       0.8221439 -0.40809506 0.6815716 0.83872193
000220 62 d8 44 3e 2d d8 c8 3e 51 73 72 3e 98 c1 43 bf
       0.19223168 0.3922743 0.23676802 -0.76467276
000230 9a 2a fc 3e 65 33 e1 be a4 8d 01 be 47 34 80 3e
       0.49251252 -0.43984523 -0.12651688 0.25039884
000240 9d 47 1d 3f 8a 96 1c bf 37 40 4f 3f 6f f4 e7 3c
       0.614374 -0.61167204 0.8095736 0.028314797
000250 49 44 19 3d 42 fd 33 bd 94 63 2c 3f 18 5b 92 be
       0.037418637 -0.043942697 0.67339444 -0.28585124
000260 23 2e ad bf de 9a 01 be f7 51 13 3f 09 28 81 39
       -1.3529705 -0.12656733 0.57546943 0.00024634626
000270 23 bc d7 be e7 c9 26 3e d0 99 2e 3f cf 45 65 bc
       -0.42135724 0.16287957 0.6820345 -0.013993694
000280 04 a9 45 bf e6 39 1d bd c2 ca ac 3d 74 2d 34 3f
       -0.7721102 -0.038385294 0.084371105 0.70381856
000290 5b a0 4e bf 86 f2 d2 3e e4 b2 cf be ab 87 45 3e
       -0.80713433 0.41200656 -0.4056617 0.19290034
0002a0 77 ff 53 bf f3 0e a5 3b 02 01 1e 3f 59 20 c8 3e
       -0.82811683 0.0050371825 0.6172029 0.3908718
0002b0 0a 33 14 be 6d d9 a0 be 6f 95 35 bf 5d 6a 93 3d
       -0.14472595 -0.31415883 -0.7093114 0.071980216
0002c0 d9 eb 1a 3e 47 cb 2d bf 3a 2f 1e bf 85 23 1d 3d
       0.15129031 -0.678883 -0.6179081 0.038363952
0002d0 c1 a3 70 be f2 ec 4e bf 18 67 c7 3d 59 dc 41 bf
       -0.23499967 -0.808303 0.097364604 -0.7572685
0002e0 35 53 08 bf 2e ac 0d be 22 c7 d0 be 32 79 15 3f
       -0.53251964 -0.13835213 -0.40776926 0.58388054
0002f0 15 6b ba 3d e2 a8 4b 3e bc 4b f0 3e c1 90 c6 3e
       0.091024555 0.19888642 0.4693278 0.38782313
000300 82 ea 31 3f 5d 57 20 bd 46 9b b1 3e 59 98 c3 bd
       0.69498456 -0.039145816 0.34688777 -0.095505424
000310 60 5d d0 be fb a7 12 bf 82 eb 9a be ee 16 85 bc
       -0.4069624 -0.5728757 -0.30257803 -0.016246285
000320 9a 69 00 bf 44 b6 0c 3f 6b f2 31 bf 93 6d 0c be
       -0.50161135 0.54965615 -0.69510525 -0.13713674
000330 d7 52 0b 3f 6a d8 ee 3e ea a6 fe be dc e1 04 be
       0.5442328 0.46649486 -0.4973672 -0.12976784
000340 42 dd 46 be 51 1d 5c bb e7 7b de 3d ca ae ad bd
       -0.1942034 -0.003358681 0.10863476 -0.08480604
000350 e8 b0 be bc 67 33 59 3f e0 34 5e bf d0 c1 91 be
       -0.023277715 0.8484406 -0.8679943 -0.2846818
000360 27 e4 d5 3d 32 82 e0 3d 1a 76 49 bf f4 71 21 3e
       0.10443907 0.10962333 -0.78695834 0.15766126
000370 22 01 b7 be 33 db 17 bf 3c 5c 30 3f 5e 7b 41 bf
       -0.35743052 -0.59318846 0.6889074 -0.7557887
000380 8c 1c 24 bf 55 81 a9 3d 52 f8 8b bf e9 d8 03 bc
       -0.6410606 0.08276621 -1.0935156 -0.008047321
000390 2b c3 53 3f 97 0a 90 be ec e1 98 bf eb ab a3 bd
       0.8271968 -0.2813308 -1.1943946 -0.07991775
0003a0 51 36 65 ba 13 be 0e 3f eb dd ec be 78 82 36 bf
       -0.00087437505 0.5575878 -0.4626306 -0.7129283
0003b0 0c 32 63 bf ce f2 0b 3f 25 f1 3c bf 03 7c 1e 3f
       -0.8874824 0.54667366 -0.7380546 0.61907977
0003c0 9f 61 18 bf c4 54 24 b9 4c 7e d0 be f1 b1 8a 3e
       -0.5952396 -0.00015671836 -0.40721357 0.27088884
0003d0 6e 0d 55 3f e7 55 37 3f cd 5f 24 3f 14 ad 59 3f
       0.8322362 0.7161545 0.6420868 0.8502972
0003e0 32 a2 2b bf fb 96 2b 3e 63 77 30 bf fe 5f 91 3e
       -0.67044365 0.16756813 -0.6893217 0.2839355
0003f0 45 71 0a 3f c5 a7 15 3d 1b 91 10 bf d4 f2 e3 be
       0.54079086 0.03653695 -0.56471413 -0.445212

linear3.weight f4 [1, 256]
000000 f3 46 b1 3a cb 4b 59 bf f5 99 df bd c0 be ac 3d
       0.0013525173 -0.84881276 -0.10918037 0.0843482
000010 6f 31 de bd 43 f0 f2 ba 99 79 34 3e f4 44 a8 be
       -0.108492725 -0.0018534738 0.17624511 -0.32865107
000020 87 d1 fd be c8 d4 10 b9 58 69 b4 be 12 bb 32 3f
       -0.4957392 -0.00013812177 -0.3523662 0.69816697
000030 f1 6f 7c 3e 8a 03 8e 3e b3 b1 7e 3e 3a 73 ef bf
       0.24652077 0.27737075 0.24872474 -1.8707039
000040 7e 01 98 bb 2c 5a cc bd a8 4b 14 3e 7d e9 1a bf
       -0.0046388498 -0.099781364 0.14481986 -0.60512525
000050 48 04 2f be af e3 69 be c8 e8 8c be ed 2c c3 be
       -0.17091477 -0.2284076 -0.27521348 -0.38120213
000060 30 24 c4 bd 0a 88 81 bf 5b 43 80 bd 1e 6a a6 be
       -0.09577215 -1.0119641 -0.06262847 -0.32502836
000070 d3 d9 9f be 45 29 0e 3b ea b7 95 3f cc 65 8a be
       -0.31220874 0.002169208 1.1696751 -0.2703079
000080 c1 cd 61 be 49 0a 6c 3e 09 4c e4 3e b9 c8 f9 3d
       -0.22051145 0.23050798 0.4458926 0.12196488
000090 46 e2 14 bf 4f ca 1a 3c 13 0b 18 bd ae 97 61 bf
       -0.58157766 0.009447648 -0.037119936 -0.8812207
0000a0 0b 88 f1 3d 0a 7e 8d 3e 87 43 2e 3f 8a 28 45 3c
       0.11793526 0.27635223 0.6807179 0.012033591
0000b0 e9 04 34 be 92 cd cf bc 46 a9 7b 3d ca 7b c2 bc
       -0.17579998 -0.025366578 0.06144073 -0.023740668
0000c0 7c f1 cc be 65 06 8c be 15 3c 9a be 79 7e 35 bf
       -0.40027988 -0.2734863 -0.30123964 -0.70896107
0000d0 72 7a 99 bb f9 95 06 3e 9a d4 d3 3b 78 d4 10 be
       -0.004683786 0.13143148 0.006464553 -0.1414355
0000e0 b5 c5 22 3e 0d f8 7c 3d c6 16 e7 3e 19 fd 57 bd
       0.15895732 0.061759997 0.45134562 -0.052731607
0000f0 85 fe 02 3e eb 12 02 bf dc aa e1 3d 9b 76 28 3b
       0.12792404 -0.50810117 0.11018917 0.002570546
000100 c8 9d 16 bc d6 32 e2 ba 2e f9 be bd 21 70 1e bb
       -0.009192891 -0.0017257582 -0.09324871 -0.002417572
000110 41 75 c5 be b3 ea b9 3e 43 c5 37 be 46 ab f5 bd
       -0.3856602 0.36311874 -0.17946343 -0.119955584
000120 ef 56 36 3d 12 08 e0 bc f1 1f 74 bf 87 c2 51 3f
       0.0445165 -0.027347598 -0.9536124 0.8193745
000130 2e db 99 3e ef 89 ad be b9 51 92 3d 33 cb c9 3d
       0.30050033 -0.33894297 0.071444936 0.0985321
000140 41 f6 8e bf d2 3f 3e be 4f 64 1f 3e bc 77 30 be
       -1.1168901 -0.18579033 0.15565608 -0.17233175
000150 c9 fa eb 3d 68 94 6b 3d e5 14 c0 3e 0a 42 36 bf
       0.11522443 0.057514578 0.3751594 -0.7119452
000160 3b 8a f1 be 31 10 8f 3e 2b ba 3f 3f 27 8c 25 3f
       -0.47175774 0.2794204 0.74893445 0.6466698
000170 fc 64 8d 3e 37 df 13 3d 57 c5 88 3e 4e fc 3d 3e
       0.27616107 0.036101546 0.26713058 0.18553278
000180 d5 f5 9b bd d3 90 44 3e ad 7e fc be 4f e5 87 be
       -0.07615248 0.19195871 -0.49315396 -0.26542136
000190 75 c7 f3 be 09 e6 06 3e ad 89 58 3b 41 35 ee 3d
       -0.4761311 0.13173689 0.0033041046 0.11631251
0001a0 38 dd d4 3e 11 6e 89 bf 98 76 28 bb 0f 2e 93 bd
       0.41575027 -1.0736715 -0.0025705453 -0.07186519
0001b0 2a 35 d0 3d 3b f8 e7 be 20 bf 0f bd 47 77 c6 3d
       0.1016639 -0.45306572 -0.03509438 0.09690719
0001c0 1c 46 1d 3f a6 01 07 be 87 25 e7 be 1d 24 2a bd
       0.61435103 -0.13184223 -0.4514582 -0.041538347
0001d0 83 34 0f bf 9f 41 8d bd eb 70 37 bb d0 d2 6c be
       -0.559395 -0.06897282 -0.0027990888 -0.23127294
0001e0 87 62 48 3e df ea 9f 3f 8c 92 51 3e 2c cf 15 3e
       0.19568835 1.2493552 0.2046606 0.14629811
0001f0 0d 0a a8 39 37 bf 1d bc 25 39 20 bd 59 83 f3 be
       0.00032050945 -0.009628109 -0.039116997 -0.47561148
000200 d6 b2 44 3f 0d 5c 0d be 16 8d 83 be 75 9c da bf
       0.7683538 -0.13804646 -0.25693578 -1.7078997
000210 ac 9c 91 3e 64 84 34 be ae e6 78 3f 88 77 07 3f
       0.28439844 -0.17628628 0.9722699 0.52916765
000220 28 63 31 3f ac 6b 83 3d 15 cb 98 bd 7a 7e 10 3e
       0.69291925 0.06417021 -0.0746061 0.14110747
000230 c1 73 4a 3f 9c 5e fd bd d5 ba 8c bd bb 86 8d 3e
       0.79082876 -0.12371561 -0.06871573 0.27641854
000240 f7 7e ea 3e d2 4c 0a bf 1b 77 75 3e 96 e4 82 bd
       0.4579999 -0.5402347 0.23971216 -0.063912556
000250 ed eb 9a 3e 38 c1 21 3c 97 ea 83 3e 71 11 40 ba
       0.30258122 0.009872727 0.25764915 -0.0007326818
000260 74 97 9a 3e b1 04 92 3e b5 57 50 3e fe a6 3c bd
       0.30193675 0.28519204 0.20345958 -0.046057694
000270 61 8d f8 3c 1e 2c 38 3f 73 e8 1a 3f d2 68 49 bc
       0.030340852 0.7194232 0.6051094 -0.0122930575
000280 3a 57 06 bf c8 00 47 3b 86 7f b7 3c a0 77 8d 3f
       -0.5247685 0.0030365456 0.022399675 1.1052132
000290 22 5b 43 be ed 9f 94 3e b9 35 25 bb 9f 95 41 3f
       -0.19077733 0.29028264 -0.0025209023 0.7561893
0002a0 86 91 23 be 42 13 cf 3e db de 79 3f 71 02 e1 3e
       -0.15973482 0.4044438 0.97605675 0.43947175
0002b0 b4 08 49 3e a6 16 60 3d 15 cb a6 3d 92 0b da bc
       0.19632226 0.0547091 0.081442036 -0.026616845
0002c0 5c a6 4c bc 36 37 1b bf 84 f8 55 bf 5a 9e a8 3d
       -0.012490835 -0.6063112 -0.8358233 0.08233328
0002d0 65 24 18 be 3d 6e 99 bf d2 6f 33 3a 2c e2 cf be
       -0.14857633 -1.1986767 0.00068449706 -0.40602243
0002e0 75 e1 87 3d 04 11 cc 3e f5 70 27 bc 7e ac c6 3e
       0.066347994 0.39856732 -0.010219802 0.38803476
0002f0 b1 5f b6 3e 16 27 23 bd 06 63 1a 3f 49 c5 64 3d
       0.35619882 -0.039832197 0.6030735 0.05585221
000300 01 53 73 3f 14 32 4e 39 aa 59 35 3e ae e2 ef bd
       0.9504853 0.00019664346 0.17709985 -0.117131576
000310 d5 36 f5 bb c7 e2 25 bf e5 c9 8d bd 1b ab be 3e
       -0.007483343 -0.6479916 -0.06923274 0.37239918
000320 20 a1 85 bc 9a 5c 68 3e 5b ec 76 bf 74 1b 32 3c
       -0.016312182 0.22691575 -0.964544 0.010870803
000330 37 3c f0 3d 46 43 06 3e 11 e6 16 bf c0 2c b6 3d
       0.11730235 0.131116 -0.58944803 0.08895254
000340 9f 8a 6c 3d 41 ad 1c 3d 2b d7 e3 bc 01 71 9e 3c
       0.057749387 0.038251165 -0.027812561 0.019340994
000350 7d 65 5c ba 61 d1 95 3f 99 24 7f bf 97 12 2f 3d
       -0.0008407457 1.1704522 -0.9966522 0.042742338
000360 22 6f cc bd 9c 4a 0c 3e d1 19 1f bd dd 11 30 bf
       -0.099821344 0.13700336 -0.03884298 -0.6877726
000370 e9 54 9d 3d c2 c0 3d be ba ec 4f 3e 29 75 30 bf
       0.07682211 -0.18530563 0.20305148 -0.6892877
000380 bf 43 5a be d8 9b d2 be 49 83 45 3e bc c8 54 bc
       -0.21314906 -0.41134524 0.19288363 -0.012987312
000390 33 05 07 3e d4 8d 67 bb e6 04 8f 3e 0d 5a 93 3b
       0.13185577 -0.003533234 0.27933425 0.004496819
0003a0 55 3b de 3e 32 2a 01 3e f8 18 74 3d 2c 8b b3 be
       0.43404642 0.12613752 0.059594125 -0.35067117
0003b0 2f 40 7b bf ee 7f 49 3e f0 5e a6 3d f0 6e a3 3e
       -0.9814481 0.19677708 0.08123577 0.31920576
0003c0 23 73 08 3d 53 2a 28 bd df c2 c4 bd e7 dc e4 3e
       0.033312928 -0.04105599 -0.09607481 0.44699785
0003d0 10 0d 0d 3e e7 b0 9a 3e 88 2c af 3d 66 6c 1c 3f
       0.13774514 0.3021309 0.085534155 0.611029
0003e0 ff 89 e7 be 0c 67 5d be 84 94 7b bd d9 9c b9 bc
       -0.4522247 -0.2162134 -0.061420932 -0.022657799
0003f0 45 8c 84 3d eb 51 10 3e fe 15 17 be 48 ee 83 be
       0.06472067 0.14093749 -0.14754483 -0.25767732
