outputs/Optimal_Control/20220330-152112/models/checkpoint.pt (torch, 533487 bytes, 7 tensors)

linear1.weight f4 [256, 2]
0.44233346 -0.7425448 -0.15436351 -0.4294378 0.31542116 0.15819865 0.026280867 -0.098967545
-0.30660012 -0.6261372 0.41124907 0.3552586 -0.12030345 -0.37921196 -0.6936206 0.08635062
0.24389435 -0.7210435 0.48664296 0.600447 -0.30015847 -0.030482352 0.23810057 0.3091468
0.073653296 -0.2806423 0.51508653 0.3010077 0.09784011 -1.389621 -0.43819755 0.540517
-0.58778083 0.27051955 0.34453362 0.37818405 -0.23423743 -0.48269606 -0.5371787 -0.37704983
0.5500627 -0.28144678 0.30615276 -0.73650414 -0.13684118 -0.059919655 0.279708 0.5388268
0.5127715 -0.46740782 -0.15817636 -0.38478604 0.51007855 -0.20858487 0.12215991 0.33778554
0.08141853 -0.03837177 0.08417147 -1.1982039 -0.11851421 0.64187354 -0.43009079 -0.35246423
0.10111856 0.47734198 -0.63893586 -0.65344524 -0.57089573 0.3797105 0.5011906 0.17202535
0.3455803 -0.57774353 -0.44922343 0.5331014 -0.325234 -0.46109638 -0.29910666 0.7136879
0.43386245 -0.61562884 0.08831243 -0.49770847 0.23057353 -0.21671675 -0.56918645 -0.38693446
0.10063433 0.31760094 0.1395632 -0.06717185 0.02758095 0.22269097 0.25093773 -0.4818019
-0.22927582 0.18201263 0.4318472 0.059984006 0.16287842 -0.49736607 0.00025749207 -0.5796117
-0.31107366 0.29604238 0.08164684 0.28147092 0.43810582 0.4786394 -0.118869424 -0.5497816
0.48883688 0.049846876 -0.44449845 0.067655325 -0.59655803 -0.45928127 0.012035252 -0.09618372
0.49735793 -0.6409887 0.26236007 -0.49633375 -0.6207208 0.19958723 -0.0019477478 0.12991485
0.4634282 0.31410772 0.16869979 0.2547274 -0.32033435 0.06337249 -0.56579715 -0.18969119
0.18183884 -0.5559277 0.4132007 -0.71874213 -0.41252938 -0.6423589 -0.14225733 -0.017792523
-0.0001031919 0.35399392 0.41382512 -0.62315315 0.47006196 -0.35831213 -0.32997897 0.08403593
-0.5288581 0.2575332 -0.3412481 0.11510247 0.28651714 -0.6956458 0.1781782 -0.5528029
0.12502666 -0.40960518 0.44967252 -0.29391533 0.17496908 -0.19719593 -0.58056694 -0.6433621
-0.33306167 -0.0473969 0.4320159 -0.79910946 0.1319686 -0.79603595 0.16559973 0.21181576
-0.60340446 -0.37851822 0.1706952 -0.14143997 0.3572785 0.4964487 -0.64136416 -0.43654305
0.34701937 -0.71128756 -0.07187343 -0.2882987 -0.29413283 0.11297083 -0.3532844 -0.6807992
0.5837324 0.17436215 0.21351714 -0.16118377 -0.6703706 -0.15698206 -0.10318577 -0.68756133
-0.5205226 0.0018436909 -0.35318637 -0.47262597 -0.41617846 -0.43085214 0.3249467 0.5278421
-0.53009236 -0.6969984 -0.34545588 0.19320393 0.56721765 -0.0861581 0.4078751 -0.4557686
-0.077706 0.2783224 -0.5193704 -0.29851744 -0.15686066 0.47072577 -0.64795184 -0.42076048
0.13864031 0.077510975 -0.17355931 0.5633459 -0.08102943 0.81185234 -0.29874521 0.42888814
0.00041569228 0.37172568 0.005926206 0.5485599 -0.020427579 0.43212327 -0.007440865 -0.10305011
0.5235716 0.25942168 0.3865362 0.38368037 0.2701694 -0.117137894 -0.2820535 0.7370543
-0.53792 0.24226129 -0.673749 -0.17283082 -0.51192135 0.02916038 0.2035278 0.34239107
00000000: 8879 e23e 6a17 3ebf 7811 1ebe 45df dbbe
00000010: e27e a13e d4fe 213e f94a d73c 7faf cabd
00000020: b1fa 9cbe 874a 20bf 3d8f d23e 75e4 b53e
00000030: a861 f6bd 1228 c2be 1f91 31bf 98d8 b03d
00000040: 71bf 793e 4f96 38bf 4429 f93e e5b6 193f
00000050: 5fae 99be 20b6 f9bc a3d0 733e 7d48 9e3e
00000060: 8ad7 963d 59b0 8fbe b6dc 033f ae1d 9a3e
00000070: 6560 c83d 1adf b1bf 6e5b e0be 525f 0a3f
00000080: ce78 16bf 8a81 8a3e b666 b03e 57a1 c13e
00000090: f0db 6fbe f023 f7be 8b84 09bf ad0c c1be
000000a0: e9d0 0c3f cb19 90be 0ec0 9c3e 898b 3cbf
000000b0: 1820 0cbe 506e 75bd e335 8f3e 8ef0 093f
000000c0: fe44 033f 1450 efbe fcf8 21be ad02 c5be
000000d0: 8294 023f 4697 55be fa2e fa3d 3af2 ac3e
000000e0: c2be a63d b82b 1dbd 1762 ac3d bf5e 99bf
000000f0: 94b7 f2bd d351 243f dc34 dcbe 3176 b4be
00000100: 3f17 cf3d 2b66 f43e 4d91 23bf 3048 27bf
00000110: 3926 12bf 6a69 c23e 074e 003f 6a27 303e
00000120: e7ef b03e 00e7 13bf 9d00 e6be 5579 083f
00000130: 1285 a6be d314 ecbe 8224 99be 40b4 363f
00000140: 3823 de3e da99 1dbf 26dd b43d a5d3 febe
00000150: 781b 6c3e ffea 5dbe 34b6 11bf 461c c6be
00000160: 5f19 ce3d 979c a23e a8e9 0e3e 6591 89bd
00000170: 72f1 e13c 1a09 643e e97a 803e bdae f6be
00000180: 48c7 6abe 8561 3a3e 141b dd3e cab1 753d
00000190: 9ac9 263e c4a6 febe 0000 8739 6f61 14bf
000001a0: 0c45 9fbe de92 973e 7536 a73d f51c 903e
000001b0: 684f e03e 3910 f53e d071 f3bd 7dbe 0cbf
000001c0: d448 fa3e 3d2c 4c3d 4d95 e3be e08e 8a3d
000001d0: 07b8 18bf ea26 ebbe 812f 453c f8fb c4bd
000001e0: b3a5 fe3e d617 24bf 0f54 863e 751f febe
000001f0: 8fe7 1ebf 9860 4c3e 924b ffba 6608 053e
00000200: 7646 ed3e bad2 a03e a3bf 2c3e a16b 823e
00000210: dd02 a4be 70c9 813d 15d8 10bf 683e 42be
00000220: f633 3a3e 4751 0ebf 0b8f d33e 7cff 37bf
00000230: 0d37 d3be a271 24bf e8ab 11be a0c1 91bc
00000240: bb68 d8b8 b13e b53e e3e0 d33e f786 1fbf
00000250: f6ab f03e b074 b7be 01f3 a8be 081b ac3d
00000260: 3f63 07bf 64db 833e 12b8 aebe d8ba eb3d
00000270: 60b2 923e d815 32bf 5974 363e 7e84 0dbf
00000280: fd06 003e c5b7 d1be 7a3b e63e 127c 96be
00000290: 182b 333e bbed 49be 09a0 14bf 61b3 24bf
000002a0: 0f87 aabe 4023 42bd 3031 dd3e 7092 4cbf
000002b0: c722 073e 03c9 4bbf fa92 293e 3be6 583e
000002c0: b778 1abf 24cd c1be b9ca 2e3e a4d5 10be
000002d0: 35ed b63e 862e fe3e 7130 24bf 9282 dfbe
000002e0: 86ac b13e f116 36bf 6032 93bd e39b 93be
000002f0: 9498 96be 405d e73d b1e1 b4be db48 2ebf
00000300: 7d6f 153f fe8b 323e 3da4 5a3e 5c0d 25be
00000310: 689d 2bbf e8bf 20be 1053 d3bd 0504 30bf
00000320: f840 05bf 00a8 f13a d8d4 b4be 08fc f1be
00000330: 5815 d5be a798 dcbe 6a5f a63e a920 073f
00000340: 22b4 07bf 7d6e 32bf 98df b0be 40d7 453e
00000350: 2d35 113f a873 b0bd 01d5 d03e 805a e9be
00000360: 5324 9fbd 4680 8e3e 75f5 04bf 47d7 98be
00000370: 15a0 20be f802 f13e 2ce0 25bf eb6d d7be
00000380: baf7 0d3e 13be 9e3d 88b9 31be 7037 103f
00000390: c2f2 a5bd 8ed5 4f3f 22f5 98be 3a97 db3e
000003a0: 46f1 d939 d452 be3e 9e30 c23b 6c6e 0c3f
000003b0: bd57 a7bc 433f dd3e 80d2 f3bb f00b d3bd
000003c0: ca08 063f ebd2 843e 13e8 c53e c171 c43e
000003d0: a553 8a3e fee5 efbd 5169 90be 97af 3c3f
000003e0: 20b5 09bf 5813 783e d17a 2cbf 90fa 30be
000003f0: 470d 03bf c0e1 ee3c 9769 503e e24d af3e

linear1.bias f4 [256]
0.39095762 0.17906582 -1.155679 0.116615884 0.08592076 1.5386302 -0.093367755 0.6404489
0.20644096 -1.2840515 -0.005230069 0.5429078 1.1549573 0.00799259 0.13831086 -0.31946626
-0.097268164 -1.3399057 -0.33867022 0.5713588 1.3281933 -1.0394907 -0.30704063 0.74398404
0.7160645 0.28367457 1.209213 -1.2274729 -1.1776617 0.6059784 0.235834 0.22111358
-0.87860364 0.14441703 0.66238064 0.80305094 0.62635326 0.54060656 0.52421755 -0.55682546
0.4632266 0.60723376 0.79851425 0.28036305 1.5111668 -1.7642199 -1.2835326 1.352738
0.46921462 -0.44707206 1.3460836 -0.25320637 -0.077097654 0.8013982 1.1474478 0.66044575
-1.6099676 -0.6037834 -0.4710183 0.992264 0.5252909 0.0732735 0.3932107 -0.91345507
-0.77455574 -1.0027255 -0.4774851 0.44713882 0.3955729 -1.4919157 -0.60875887 -0.27202156
-1.5559033 -0.8575276 0.8752381 0.30143976 0.6004935 0.29232904 -1.5754399 1.0656471
0.7273514 -1.1406387 0.056923877 -0.38081944 0.19568303 -0.09476608 0.8360964 -1.4109371
0.13230273 -1.2647113 0.6961339 -0.00091079605 -0.8318762 0.47875673 0.5742497 -0.27361447
0.5365149 -0.5735409 0.61935145 -0.4274314 0.1095142 -0.55469644 -0.0013433174 0.8161613
0.2229279 0.40161675 -1.2153391 -0.18134348 -0.6809234 -0.41749716 -0.32575092 0.70997584
-0.307094 -0.62651145 1.7317691 0.76129454 -0.9278457 -1.536239 -0.6404126 -0.5376556
-1.1722783 -0.5844734 -1.4082826 -0.9414006 -0.34852627 0.33075732 -0.29953772 -0.54450387
-1.2434505 0.3821567 0.6386521 1.1092004 -1.0053232 -1.5607877 -0.41815758 0.09592327
0.72236186 -1.5724882 1.0584084 -0.66776085 -0.53479445 -0.26944387 -0.44931474 -1.7876401
-0.657346 -1.5881191 0.6038194 -0.5726527 0.4896293 1.3041643 -0.3767571 -0.4632687
1.1220113 0.88911015 -0.5534052 -1.3332621 -0.39838186 1.6223158 -0.75558996 -0.5078412
-0.2660853 -0.5295803 -0.55986685 -1.188992 -0.9988297 -1.6336318 -0.031342447 0.9170932
0.3164156 -1.0221546 -0.164909 -1.7010942 -1.3395926 -0.4300053 0.27102408 0.9710095
1.2037035 -1.0926086 -0.5351486 1.4394726 -1.0988524 0.953054 -0.048684597 -1.2405845
-1.5880882 -0.7188252 -0.7657919 -1.2565786 -1.0353554 -0.25916794 -1.2407675 -0.8225203
1.5629834 0.24787344 1.2351897 -0.46316862 -0.1373747 1.0323473 0.37526593 0.032392334
-1.1350807 1.2259079 0.7471019 0.5073402 -0.15742761 -1.1023282 -0.46981436 0.11835397
-0.5733987 -0.6786389 -0.3800405 -1.0040014 -0.87100315 -1.5419133 -1.0353554 1.4551479
-1.2107913 0.70892894 -1.3998386 -0.06274319 -0.13924138 0.5266791 0.18531619 0.5047862
-0.025763324 1.4937253 -1.1433346 -0.36873594 -0.21083121 1.3011719 0.2561095 0.5560411
-1.2425537 -0.05979657 1.397661 0.53171414 -1.3593665 -1.5430629 -0.035436213 -0.23961258
0.43185705 -0.075994626 -0.8360503 -1.6429553 1.2854692 -0.54991174 -0.37438387 -0.24859123
-1.8317537 -1.66639 -0.3028847 -0.6911696 -0.43075344 0.16365136 -0.9798221 -0.1784051
00000000: 992b c83e 085d 373e 4aed 93bf 4fd4 ee3d
00000010: 39f7 af3d d6f1 c43f 9837 bfbd 76f4 233f
00000020: 4265 533e cd5b a4bf 0061 abbb 01fc 0a3f
00000030: a4d5 933f 5af3 023c 5da1 0d3e 1591 a3be
00000040: 8834 c7bd 0882 abbf 2f66 adbe 9244 123f
00000050: 3d02 aa3f 080e 85bf 6e34 9dbe bd75 3e3f
00000060: 0150 373f cb3d 913e 7ec7 9a3f d51d 9dbf
00000070: 9ebd 96bf 6721 1b3f 787e 713e 996b 623e
00000080: 2bec 60bf 0fe2 133e c791 293f bf94 4d3f
00000090: b058 203f 3165 0a3f 1f33 063f 1d8c 0ebf
000000a0: 092c ed3e ac73 1b3f 6e6b 4c3f bf8b 8f3e
000000b0: ea6d c13f f5d1 e1bf cc4a a4bf 8526 ad3f
000000c0: e63c f03e a1e6 e4be 784c ac3f 44a4 81be
000000d0: 60e5 9dbd 6f28 4d3f 92df 923f f912 293f
000000e0: 6b13 cebf 8d91 1abf 5029 f1be 0305 7e3f
000000f0: 7779 063f 6b10 963d ea52 c93e 31d8 69bf
00000100: 4949 46bf 4f59 80bf ed78 f4be 61ef e43e
00000110: 8888 ca3e 18f7 bebf 9fd7 1bbf 6946 8bbe
00000120: d727 c7bf ee86 5bbf 9b0f 603f 5056 9a3e
00000130: f1b9 193f 27ac 953e 04a8 c9bf 2067 883f
00000140: b433 3a3f 7300 92bf 0329 693d c4fa c2be
00000150: 2261 483e b814 c2bd 6a0a 563f 9699 b4bf
00000160: 5e7a 073e 0fe2 a1bf d535 323f 7dc2 6eba
00000170: d7f5 54bf 9a1f f53e 0702 133f 3217 8cbe
00000180: 0a59 093f 94d3 12bf d18d 1e3f 4ad8 dabe
00000190: fb48 e03d 9600 0ebf 4112 b0ba f2ef 503f
000001a0: 3647 643e b6a0 cd3e 3b90 9bbf 1bb2 39be
000001b0: ff50 2ebf 30c2 d5be d3c8 a6be fac0 353f
000001c0: 6d3b 9dbe 0e63 20bf 9caa dd3f 33e4 423f
000001d0: 4c87 6dbf 7ba3 c4bf 15f2 23bf cca3 09bf
000001e0: 370d 96bf 0ca0 15bf 9b42 b4bf a1ff 70bf
000001f0: 0972 b2be 0659 a93e 025d 99be 9b64 0bbf
00000200: 6329 9fbf 0baa c33e b47e 233f 47fa 8d3f
00000210: 6eae 80bf e4c7 c7bf c018 d6be 6b73 c43d
00000220: b5ec 383f 4b47 c9bf ed79 873f 60f2 2abf
00000230: 4ae8 08bf 8cf4 89be 950c e6be 64d1 e4bf
00000240: d447 28bf 7d47 cbbf e893 1a3f 5e99 12bf
00000250: b1b0 fa3e dbee a63f 4ee6 c0be 8e31 edbe
00000260: 119e 8f3f b99c 633f f7ab 0dbf 55a8 aabf
00000270: b5f8 cbbe 0ba8 cf3f 586e 41bf e201 02bf
00000280: 553c 88be 9392 07bf 6f53 0fbf e430 98bf
00000290: 4eb3 7fbf d91a d1bf f060 00bd 9fc6 6a3f
000002a0: 3a01 a23e f6d5 82bf e8dd 28be 74bd d9bf
000002b0: c577 abbf a829 dcbe abc3 8a3e 1494 783f
000002c0: f512 9a3f 99da 8bbf 80ff 08bf a340 b83f
000002d0: 32a7 8cbf 59fb 733f 8069 47bd 79cb 9ebf
000002e0: 7946 cbbf ee04 38bf f00a 44bf 91d7 a0bf
000002f0: 8786 84bf a9b1 84be 78d1 9ebf b190 52bf
00000300: d70f c83f 89d2 7d3e b21a 9e3f 7024 edbe
00000310: f4ab 0cbe f523 843f db22 c03e d3ad 043d
00000320: 534a 91bf 8dea 9c3f 1242 3f3f 0ce1 013f
00000330: b434 21be 1719 8dbf 828b f0be 9163 f23d
00000340: 42ca 12bf 47bb 2dbf ab94 c2be 1e83 80bf
00000350: 10fa 5ebf 6a5d c5bf 8786 84bf 4942 ba3f
00000360: 36fb 9abf 5e7c 353f e92d b3bf 807f 80bd
00000370: 4b95 0ebe 71d4 063f 87c3 3d3e ab39 013f
00000380: 9b0d d3bc 6432 bf3f ca58 92bf f5ca bcbe
00000390: 23e4 57be cd8c a63f c920 833e b658 0e3f
000003a0: 000c 9fbf 40ed 74bd 8ee6 b23f 6b1e 083f
000003b0: b9ff adbf 1683 c5bf 9025 11bd 005d 75be
000003c0: 5e1c dd3e 12a3 9bbd 6407 56bf 5c4c d2bf
000003d0: 418a a43f 04c7 0cbf 3eaf bfbe b38e 7ebe
000003e0: e876 eabf 444c d5bf b413 9bbe 7ef0 30bf
000003f0: b78b dcbe 3994 273e 9fd5 7abf d4af 36be

linear2.weight f4 [256, 256]
0.056466743 -0.0062156925 -0.024098072 0.009859458 0.04190974 -0.058633987 -0.017280087 0.0792225
0.0027852575 -0.040271647 -0.031031042 0.041257262 0.0031492529 0.009775095 0.047099933 0.012680881
0.009549253 0.0017463511 -0.044232614 0.0037044024 0.019594785 -0.04667759 -0.036573395 0.0031604103
-0.033120926 0.06507147 0.054968927 0.022680253 0.00639919 0.09599922 -0.045731936 -0.011873846
0.050708447 -0.0064313025 0.04623488 0.012412595 -0.040676203 0.039842684 0.0038217008 0.005172658
0.032646038 0.089378215 -0.026472714 0.061843406 0.04035344 -0.040248875 -0.026229 0.018385192
0.022533458 -0.03974172 -0.015348777 0.057505824 -0.048510037 -0.03514776 -0.04850422 0.044572454
-0.03485368 -0.009729691 0.04611992 0.013046344 -0.02873883 -0.026841132 0.06442056 0.028983315
-0.06250566 0.015310051 0.01588741 0.005754038 0.05325588 0.010457875 0.013663933 -0.0016024411
-0.02085045 0.02909929 -0.03244675 0.07748971 0.06984104 -0.00686796 0.009333218 -0.05143308
0.08601495 0.04858114 0.057645813 0.022199482 0.04581583 -0.060998734 0.031029435 0.0223477
0.0199037 0.066315964 0.0067703202 0.043414697 -0.02428618 0.084851 -0.005655348 -0.056938216
0.03846886 -0.053942528 -0.0057228305 0.050442673 -0.0027061026 0.057802692 -0.01949279 0.011602025
0.021178655 0.073539495 0.028683037 0.01027494 -0.051706303 -0.034723207 -0.0017080118 -0.0036509524
-0.061063107 0.013101687 0.069830686 0.054449666 -0.047875494 -0.03464727 -0.054072533 -0.05021999
0.012477424 -0.0021400694 0.018078232 0.051650144 -0.009416468 0.06689713 -0.02088727 0.0464115
0.0029351865 0.00862544 0.024506519 0.045991167 0.051325016 -0.055243947 0.023720518 0.024851471
0.062408186 0.0014779306 -0.019474309 -0.03559937 -0.030316511 -0.058594503 -0.018619 0.049333382
-0.013856269 -0.065000154 0.05193706 -0.019171087 0.0053831725 0.000351877 -0.06180364 -0.05450382
-0.031197893 -0.01012146 0.008255977 -0.027540704 -0.0365713 -0.0061372644 0.00070990337 -0.05621878
0.009595089 -0.023421556 -0.017917044 -0.010437085 -0.029502992 -0.043953456 -0.054198116 0.047303487
0.04196535 -0.055927373 -0.058586434 0.008317824 -0.04862285 -0.054902047 0.08311524 0.054317635
-0.035234164 -0.067369394 0.052153483 0.08081893 -0.053227186 -0.041851588 0.050832033 0.018477924
0.0011293688 -0.006458617 0.05227794 -0.010856813 -0.022227764 -0.016301835 -0.011688435 0.0025210402
0.06667955 0.051638886 -0.0041922205 0.043770984 -0.018011056 -0.02084944 -0.05657352 -0.013875248
-0.031673763 -0.042826217 0.035389755 0.033176087 0.020079665 0.0648224 0.038025253 0.02826509
-0.044725887 -0.03284063 0.031269066 -0.0032398992 0.008447263 -0.04265257 0.038308416 0.06728929
-0.04731989 0.079013795 -0.035879698 -0.028348155 -0.017788993 0.0896493 -0.0036971853 0.07087255
0.02501932 0.0016709096 0.046562303 0.06360566 -0.05392499 0.060667038 0.07691123 0.016796967
-0.046293564 0.02507551 -0.0057398365 0.0160219 -0.06723961 -0.022840522 0.041210428 -0.0071008354
-0.0042055105 0.0015420592 -0.042770613 -0.00039326487 0.05788812 0.05767589 -0.0018177181 0.041801605
-0.00087466737 0.007044935 0.043228097 -0.003061766 -0.02055695 0.05468274 -0.06952889 0.06404747
00000000: ac49 673d 02ad cbbb 5269 c5bc 9089 213c
00000010: 8ca9 2b3d 312a 70bd f88e 8dbc 683f a23d
00000020: de88 363b e2f3 24bd d034 febc 60fd 283d
00000030: b263 4e3b b827 203c dceb 403d 78c3 4f3c
00000040: 7874 1c3c d2e5 e43a 422d 35bd 8fc5 723b
00000050: 3e85 a03c 0031 3fbd fccd 15bd e31e 4f3b
00000060: cfa9 07bd 3144 853d 1927 613d f0cb b93c
00000070: 4cb0 d13b 3d9b c43d 6951 3bbd 858a 42bc
00000080: a9b3 4f3d adbd d2bb c960 3d3d 325e 4b3c
00000090: 179c 26bd 1532 233d 8075 7a3b 667f a93b
000000a0: dab7 053d ed0b b73d 4edd d8bc 834f 7d3d
000000b0: a649 253d 01dc 24bd 33de d6bc 8b9c 963c
000000c0: 1698 b83c 37c8 22bd 7079 7bbc 3a8b 6b3d
000000d0: 76b2 46bd 19f7 0fbd 5cac 46bd 9b91 363d
000000e0: bbc2 0ebd 4869 1fbc 3ee8 3c3d 55c0 553c
000000f0: b26d ebbc efe1 dbbc edee 833d 6b6e ed3c
00000100: f802 80bd 02d7 7a3c 5026 823c 5f8c bc3b
00000110: d622 5a3d 8257 2b3c b0de 5f3c 0009 d2ba
00000120: 90ce aabc a261 ee3c e2e6 04bd edb2 9e3d
00000130: d208 8f3d a00c e1bb 5bea 183c 7eab 52bd
00000140: 9b28 b03d 04fd 463d 041e 6c3d b0db b53c
00000150: 61a9 3b3d cfd9 79bd 7131 fe3c 8612 b73c
00000160: 160d a33c aad0 873d 90d9 dd3b 9cd3 313d
00000170: d0f3 c6bc 5cc6 ad3d 7f50 b9bb 0c38 69bd
00000180: 8691 1d3d d7f2 5cbd 9586 bbbb fa9c 4e3d
00000190: de58 31bb 84c2 6c3d 58af 9fbc 6b16 3e3c
000001a0: dc7e ad3c e09b 963d b0f8 ea3c 3958 283c
000001b0: fdc9 53bd ec39 0ebd 5edf dfba d144 6fbb
000001c0: 4f1d 7abd 75a8 563c 6403 8f3d 9d06 5f3d
000001d0: 1819 44bd 4cea 0dbd 297b 5dbd 7ab3 4dbd
000001e0: 1c6e 4c3c 6840 0cbb cd18 943c 1a8f 533d
000001f0: 8847 1abc 5d01 893d c81b abbc fc19 3e3d
00000200: 425c 403b b851 0d3c e5c1 c83c 3c61 3c3d
00000210: 2e3a 523d 7a47 62bd 8851 c23c 5095 cb3c
00000220: ba9f 7f3d 1fb7 c13a 9688 9fbc a5d0 11bd
00000230: 555a f8bc ca00 70bd e086 98bc cd11 4a3d
00000240: 6805 63bc cd1e 85bd f4bb 543d af0c 9dbc
00000250: 5365 b03b 227c b839 d025 7dbd 663f 5fbd
00000260: b992 ffbc 7bd4 25bc 1444 073c 0b9d e1bc
00000270: cacb 15bd 1b1b c9bb cf18 3a3a aa45 66bd
00000280: b834 1d3c 90de bfbc c4c6 92bc 4f00 2bbc
00000290: 42b0 f1bc 8a08 34bd d8fe 5dbd 4dc1 413d
000002a0: dce3 2b3d 1a14 65bd 54f8 6fbd 7c47 083c
000002b0: c128 47bd f8e0 60bd 5338 aa3d 2b7c 5e3d
000002c0: b351 10bd f7f8 89bd e49e 553d 6584 a53d
000002d0: c004 5abd 926c 2bbd 4035 503d 045f 973c
000002e0: 5407 943a cea2 d3bb 6521 563d c6e0 31bc
000002f0: 0017 b6bc 6d8b 85bc da80 3fbc 0938 253b
00000300: 4a8f 883d 4c83 533d e55e 89bb 3449 333d
00000310: ec8b 93bc 72cc aabc a3b9 67bd 0255 63bc
00000320: 59bc 01bd 8b6a 2fbd d9f4 103d a6e3 073d
00000330: 1c7e a43c 9bc1 843d 5ec0 1b3d 318c e73c
00000340: 7e32 37bd e583 06bd fe13 003d 7d54 54bb
00000350: 6466 0a3c 76b4 2ebd 49e9 1c3d f8ce 893d
00000360: 80d2 41bd fcd1 a13d 97f6 12bd 643a e8bc
00000370: 39ba 91bc 0d9a b73d 7a4c 72bb a125 913d
00000380: 51f5 cc3c 6c02 db3a 1db8 3e3d af43 823d
00000390: 73e0 5cbd 007e 783d a383 9d3d cb99 893c
000003a0: 529e 3dbd 286b cd3c 3d15 bcbb 5c40 833c
000003b0: ecb4 89bd 0c1c bbbc 44cc 283d 20ae e8bb
000003c0: 61ce 89bb ec1e ca3a 3d30 2fbd 1e2f ceb9
000003d0: 181c 6d3d 8e3d 6c3d 8040 eeba 2938 2b3d
000003e0: ef49 65ba 33d9 e63b f20f 313d e9a7 48bb
000003f0: 0c67 a8bc 02fb 5f3d 2a65 8ebd 522b 833d

linear2.bias f4 [256]
0.07311527 -0.03834902 0.0040184697 -0.006308409 -0.00021266192 -0.039334595 0.037585896 0.0027278455
0.0022406941 -0.0051324726 -0.058628857 0.04735684 0.047260564 0.095194295 0.027252296 0.036171116
-0.830762 0.072651334 -0.00079493225 -0.030823108 0.16649139 0.064184114 0.0030533385 0.0802172
0.0541052 0.03530509 -0.0058616316 -0.02778295 -0.050345227 -0.01852557 -0.027009267 0.00034912888
-0.04202383 -0.053212635 1.0094163 -0.052054748 -0.035040863 -0.3183204 0.023263238 -0.032200515
-0.046503484 -0.061198752 0.03347989 0.02804618 0.0016816477 -0.019013634 0.004179091 0.03315314
-0.010901557 0.015287083 0.008340067 -0.017830295 -0.038528487 -0.006651144 -0.021605305 -0.051010333
0.065400474 -0.02123297 -0.016574241 0.015729308 -0.0023110292 -0.01669874 -0.026829658 -0.008145206
0.02690514 -0.036372244 0.033153262 -0.019176908 -0.019256232 0.004515475 0.027703742 0.057015933
0.107437335 -0.053425856 0.03919939 -0.011787493 0.09868342 0.02719379 0.06440032 -0.01583015
0.02956393 -0.03718748 -0.0056368243 0.05582901 0.00034195874 0.040034376 0.022342812 0.012290073
0.007233147 -0.020464996 -0.0106724035 0.097269855 0.027465982 -0.03697291 0.051308192 -0.0025183228
0.061892856 -0.04057854 0.024969721 0.011319235 0.037974082 -0.008436524 0.023910364 0.052058395
-0.06484153 0.0017590864 -0.42810574 -0.063693464 -0.038071126 -0.029886916 -0.0061566853 0.0025377804
-0.0029037334 -0.2939853 0.012377871 0.023290657 0.06243684 -0.018827634 -0.05697187 0.018607333
0.03883391 -0.015078393 -0.05367732 0.02959977 -0.051582098 0.035269547 0.024949318 -0.055063363
-0.03372739 0.10981797 0.012351426 -0.00060467154 -0.33494273 0.0026482344 0.007334079 0.08644632
-0.043722883 0.20132306 0.038682774 0.044261556 0.032617956 -0.022006692 0.10200411 0.06531025
-0.057840955 -0.0069023278 -0.050887033 -0.0631486 0.03930505 -0.7424421 0.0060351356 -0.034632646
-0.012592707 0.45302895 0.010555498 -0.019883187 -0.082774214 -0.062142044 -0.036078855 0.020926906
-0.02095832 -0.01940993 -0.017900195 -0.01106622 0.6068949 0.049597967 -0.0083788 -0.04816361
0.024167223 0.013325192 -0.06873047 0.024831047 -0.044830687 0.031875774 -0.03187453 0.008996264
0.02625521 0.051761135 -0.05012172 -0.00027550253 -0.012094868 -0.14431661 -0.009007692 -0.014483325
0.0044932705 0.088569805 0.01850001 -0.018334754 -0.011958804 -0.043932494 -0.0483251 0.06972251
0.060334675 0.04757517 -0.011548802 0.010988109 -0.009994519 -0.04529733 0.057078872 0.024624825
0.023889357 -0.03285686 0.01632724 0.0804855 0.035309914 -0.0071554487 -0.026009994 0.06804249
-0.04113594 -0.034591835 -0.01342135 0.109090574 0.010501169 -0.053176913 0.054060638 -0.039634697
-0.0319434 0.025491193 -0.020182764 0.03846028 0.011338121 0.0030543744 -0.0011444425 -0.03997543
0.04277168 -0.043106228 -0.037311044 -0.010919521 -0.059810717 -0.035460114 0.0517792 -0.038652778
0.020480337 -0.051205803 -0.024113273 -0.005357294 -0.028432598 0.03652032 -0.023984188 0.008929885
-0.04107837 -0.042742383 0.050809544 0.019869199 0.03492342 0.0006156862 0.058403164 0.20760326
0.07552918 0.0004728809 -0.02907056 0.05178522 0.04978064 -0.021899713 -0.004027307 0.04673246
00000000: 75bd 953d dd13 1dbd 5ead 833b c5b6 cebb
00000010: 00fe 5eb9 501d 21bd abf3 193d a7c5 323b
00000020: 9cd8 123b 4d2e a8bb d024 70bd 3ff9 413d
00000030: 4b94 413d 3af5 c23d 3540 df3c 2a28 143d
00000040: d2ac 54bf 39ca 943d 0063 50ba be80 fcbc
00000050: b87c 2a3e f672 833d 851a 483b ea48 a43d
00000060: 6a9d 5d3d 129c 103d ee12 c0bb 1299 e3bc
00000070: cc36 4ebd f0c2 97bc 8a42 ddbc 490b b739
00000080: 2e21 2cbd 7ef5 59bd 8e34 813f 5c37 55bd
00000090: 0287 0fbd e4fa a2be 8c92 be3c b0e4 03bd
000000a0: 707a 3ebd 8bab 7abd 3622 093d 1ac1 e53c
000000b0: bc6a dc3a 7bc2 9bbc c2f0 883b 96cb 073d
000000c0: 729c 32bc ac76 7a3c c7a4 083c d710 92bc
000000d0: 0cd0 1dbd d7f1 d9bb 9cfd b0bc 36f0 50bd
000000e0: aff0 853d c4f0 adbc b4c6 87bc c0da 803c
000000f0: a374 17bb cccb 88bc dfc9 dbbc 7873 05bc
00000100: 2b68 dc3c 10fb 14bd b7cb 073d e418 9dbc
00000110: 3fbf 9dbc 8df6 933b f5f2 e23c 8a89 693d
00000120: 1b08 dc3d 12d5 5abd 8a8f 203d 5420 41bc
00000130: 881a ca3d 83c5 de3c 51e4 833d 3bae 81bc
00000140: 0e30 f23c e651 18bd 1cb5 b8bb f6ac 643d
00000150: ed48 b339 16fb 233d 4608 b73c 4d5c 493c
00000160: 0904 ed3b 35a6 a7bc 4edb 2ebc 6b35 c73d
00000170: 5700 e13c e870 17bd 8a28 523d 720a 25bb
00000180: 5d83 7d3d af35 26bd 4d8d cc3c 5074 393c
00000190: b68a 1b3d 5939 0abc abdf c33c 2f3b 553d
000001a0: a3cb 84bd 2591 e63a ad30 dbbe b871 82bd
000001b0: 78f0 1bbd 68d5 f4bc 05be c9bb e450 263b
000001c0: 904c 3ebb 3e85 96be 8ecc 4a3c 0ccc be3c
000001d0: c6bd 7f3d 693c 9abc 565b 69bd 686e 983c
000001e0: 4e10 1f3d 5d0b 77bc c0dc 5bbd 387b f23c
000001f0: c047 53bd cd76 103d 8362 cc3c 1f8a 61bd
00000200: bb25 0abd 3ee8 e03d a35d 4a3c d282 1eba
00000210: 9d7d abbe 008e 2d3b b752 f03b c50a b13d
00000220: c416 33bd a227 4e3e d471 1e3d 9b4b 353d
00000230: 689a 053d 6147 b4bc 88e7 d03d 61c1 853d
00000240: a3ea 6cbd ec2c e2bb ec6e 50bd 0e54 81bd
00000250: 55fe 203d af10 3ebf 63c2 c53b f6da 0dbd
00000260: a451 4ebc 69f3 e73e f8f0 2c3c 11e2 a2bc
00000270: 8785 a9bd a888 7ebd 6cc7 13bd e76e ab3c
00000280: c8b0 abbc 9301 9fbc 6ea3 92bc 174f 35bc
00000290: 775d 1b3f 3d27 4b3d 3c47 09bc 3547 45bd
000002a0: 57fa c53c e851 5a3c 90c2 8cbd 7b6a cb3c
000002b0: 62a0 37bd 2c90 023d de8e 02bd 1165 133c
000002c0: 2b15 d73c 7c03 543d 6f4c 4dbd 5371 90b9
000002d0: 8e29 46bc bcc7 13be 0095 13bc 784b 6dbc
000002e0: 493c 933b 1664 b53d 558d 973c c432 96bc
000002f0: dcee 43bc 8ff2 33bd 8af0 45bd adca 8e3d
00000300: 7e21 773d 2ede 423d 3037 3dbc 7807 343c
00000310: 0dc0 23bc b189 39bd 89cb 693d 00ba c93c
00000320: 9db3 c33c ea94 06bd b4c0 853c 95d5 a43d
00000330: 21a1 103d 4178 eabb e912 d5bc dc59 8b3d
00000340: 297e 28bd 2bb0 0dbd 39e5 5bbc e16a df3d
00000350: 180d 2c3c 09d0 59bd b06e 5d3d fe57 22bd
00000360: 15d7 02bd e8d2 d03c 5356 a5bc 8788 1d3d
00000370: 87c3 393c e62b 483b 1e01 96ba 47bd 23bd
00000380: 5b31 2f3d 2890 30bd 77d3 18bd cae7 32bc
00000390: 15fc 74bd a03e 11bd 6d16 543d 6052 1ebd
000003a0: 61c6 a73c 2dbd 51bd 3389 c5bc 3d8c afbb
000003b0: 7beb e8bc 5596 153d 7d7a c4bc a74e 123c
000003c0: cb41 28bd a312 2fbd ab1d 503d bbc4 a23c
000003d0: dc0b 0f3d 0066 213a 2838 6f3d f395 543e
000003e0: 0baf 9a3d 00ed f739 6225 eebc bd1c 543d
000003f0: c9e6 4b3d 0767 b3bc 80f7 83bb 896a 3f3d

linear4.weight f4 [256, 256]
0.009575115 0.05804129 0.052169885 -0.04836465 0.03708701 -0.025603808 0.04405533 0.021255283
-0.056305856 0.041299127 0.02486445 0.014031681 0.026005289 -0.051868703 -0.051063642 -0.024506208
0.0113643315 -0.05006601 0.019496873 -0.044015583 -0.070854984 0.03673952 0.004439009 0.0026212845
-0.026028898 0.022724457 0.03866787 -0.042214546 -0.016833663 -0.05966021 -0.030406414 0.050883736
0.055508457 0.0043793246 -0.13198765 -0.05002413 0.013887897 -0.042328462 0.01894837 -0.014616877
-0.031255584 -0.012619617 -0.0028091827 0.056152914 0.007996496 0.008592085 0.0016256336 0.00407516
0.0007616902 0.02687722 0.018327946 0.055756424 0.027222633 -0.054653283 0.03839336 0.0029076962
-0.037748028 -0.026185013 -0.014399491 -0.028336912 -0.009527893 -0.023333153 -0.0036985716 0.024045967
-0.01680331 -0.06265482 -0.020478902 -0.0021775176 0.037782926 0.057187855 -0.02448155 -0.023870625
-0.04019093 -0.035695992 0.04053843 0.023991378 -0.04883482 0.050941832 -0.060348433 -0.04478825
-0.060212575 0.011886577 -0.0297665 -0.024619877 -0.0042815227 -0.020277223 -0.005410919 -0.020800086
0.045138955 0.009022836 -0.050838705 -0.0015047702 0.008271751 0.013137325 0.039777208 -0.01193813
0.050879713 0.013448028 0.023729887 0.013049595 0.0082174195 0.049608644 0.037206013 -0.045244403
-0.060866024 -0.009148465 0.03951836 0.06520194 0.027015992 -0.0010857718 0.018945284 -0.029998098
-0.04138432 0.062117692 -0.00848829 0.0037286058 -0.008654758 -0.05683215 0.016034497 0.024175266
-0.022332981 0.02033601 -0.028772458 -0.047958754 0.024676844 -0.04700187 -0.05409879 -0.044448256
0.030742267 -0.08028228 0.056263626 -0.045739464 0.023519786 0.019142158 0.0059359125 -0.05653975
0.052140273 0.047720987 -0.018982068 -0.006844323 -0.006623786 0.006768606 0.060190946 -0.05405941
0.057673123 -0.019182364 0.054311775 0.049733654 0.015078293 -0.03594707 -0.0529968 0.04810088
0.013791689 0.041475467 0.056766637 0.016914496 0.026996456 -0.030459829 -0.09416814 0.0011976177
0.03907413 0.038267247 -0.02324962 0.0019424635 0.22819696 0.030858995 -0.06279037 -0.04442566
0.05346669 0.03218253 0.04663181 -0.005588409 0.025433965 -0.055561073 -0.051622286 -0.009163852
0.013731515 0.01250949 0.06074659 0.045098826 0.046836015 -0.030754896 -0.06040039 -0.027145222
0.04357295 -0.042629283 0.011527719 -0.016697966 0.011076437 0.037393965 -0.0044481694 -0.052292768
0.03200017 0.012780956 -0.021426806 0.058744945 -0.041465748 0.00806972 -0.038434286 -0.013597439
0.024623271 0.04891235 0.06250256 -0.03639127 0.05333893 -0.023093026 -0.019135306 0.06407188
0.065355666 0.049736645 -0.052740723 -0.046706043 -0.040440537 -0.043365903 0.024209358 -0.062875755
0.0019448191 -0.02412372 0.047450073 0.028120393 -0.034492612 0.02605734 0.0135485 0.020283978
-0.014205123 0.01264669 0.02784176 -0.03610443 -0.028988706 0.0109630525 0.03837187 -0.00052948296
-0.301667 0.053559523 -0.04249537 -0.024515193 -0.016006375 -0.017210985 -0.07015377 -0.0622638
0.0072784307 -0.064183146 0.027072383 0.009134337 -0.029857839 0.03699245 -0.058962397 -0.06532922
0.0005231366 0.010856174 -0.029359227 0.016277414 0.007391078 -0.056333113 -0.022631537 -0.046380933
00000000: f1e0 1c3c b4bc 6d3d 17b0 553d 031a 46bd
00000010: 8ce8 173d 14bf d1bc 5d73 343d 8f1f ae3c
00000020: f8a0 66bd 4629 293d 88b0 cb3c 23e5 653c
00000030: 0b09 d53c 4774 54bd 1c28 51bd 3ec1 c8bc
00000040: 7631 3a3c 0412 4dbd e8b7 9f3c af49 34bd
00000050: 6b1c 91bd 2e7c 163d 1b75 913b dbc9 2b3b
00000060: 8e3a d5bc a428 ba3c 3362 1e3d 29e9 2cbd
00000070: c0e6 89bc 445e 74bd df16 f9bc 776b 503d
00000080: d65c 633d 7080 8f3b c527 07be 1ae6 4cbd
00000090: 108a 633c 9c60 2dbd 9d39 9b3c a07b 6fbc
000000a0: db05 00bd 83c2 4ebc 441a 38bb 9900 663d
000000b0: bc03 033c d1c5 0c3c 3613 d53a eb88 853b
000000c0: 2aac 473a 9e2d dc3c 7d24 963c d960 643d
000000d0: 0002 df3c 1fdc 5fbd 5b42 1d3d 0c8f 3e3b
000000e0: ad9d 1abd f481 d6bc d8eb 6bbc d022 e8bc
000000f0: e11a 1cbc 2b25 bfbc bc63 72bb 0cfc c43c
00000100: 18a7 89bc 2c51 80bd 5fc3 a7bc afb4 0ebb
00000110: 45c2 1a3d d03d 6a3d 888d c8bc 548c c3bc
00000120: 3f9f 24bd f635 12bd a00b 263d 9189 c43c
00000130: 0507 48bd 62a8 503d eb2f 77bd e273 37bd
00000140: 76a1 76bd ebbf 423c e0d8 f3bc a0af c9bc
00000150: 044c 8cbb 6b1c a6bc 144e b1bb f164 aabc
00000160: a0e3 383d 84d4 133c 3f3c 50bd b63b c5ba
00000170: 3d86 073c ef3d 573c 6ded 223d 2598 43bc
00000180: 3f67 503d 1e55 5c3c 2e65 c23c f8cd 553c
00000190: 5ba2 063c 6f32 4b3d 5565 183d 3252 39bd
000001a0: a74e 79bd 71e3 15bc 01de 213d 9888 853d
000001b0: a450 dd3c 7550 8eba 2433 9b3c 92be f5bc
000001c0: 9b82 29bd 1f6f 7e3d 7812 0bbc a05b 743b
000001d0: b0cc 0dbc d4c8 68bd c75a 833c 350b c63c
000001e0: a8f3 b6bc b497 a63c 38b4 ebbc 6670 44bd
000001f0: 1827 ca3c 0885 40bd b196 5dbd 600f 36bd
00000200: 35d7 fb3c 096b a4bd b074 663d 4e59 3bbd
00000210: 91ac c03c 04d0 9c3c 0b82 c23b 3a96 67bd
00000220: 0a91 553d 1577 433d 4880 9bbc 5846 e0bb
00000230: 580c d9bb 2fcb dd3b c88a 763d 666d 5dbd
00000240: a73a 6c3d 5524 9dbc 0676 5e3d 84b5 4b3d
00000250: f20a 773c 3c3d 13bd 2c13 59bd 6e05 453d
00000260: 89f6 613c 2ee2 293d 2284 683d 4590 8a3c
00000270: ac27 dd3c e486 f9bc 3adb c0bd 62f9 9c3a
00000280: 320c 203d 1ebe 1c3d fd75 bebc 429a fe3a
00000290: 77ac 693e 01cc fc3c 3d98 80bd aef7 35bd
000002a0: e3ff 5a3d d4d1 033d ff00 3f3d f91e b7bb
000002b0: e45a d03c 0294 63bd e471 53bd fb23 16bc
000002c0: 26fa 603c 9bf4 4c3c 6bd1 783d 8cb9 383d
000002d0: 1fd7 3f3d b1f1 fbbc 6666 77bd a85f debc
000002e0: 8d79 323d 0b9c 2ebd c2de 3c3c 2cca 88bc
000002f0: f279 353c 6a2a 193d f3c1 91bb f130 56bd
00000300: 9c12 033d 3767 513c 4587 afbc 8a9e 703d
00000310: fdd7 29bd dc36 043c 456d 1dbd cbc7 5ebc
00000320: beb6 c93c 5158 483d 5801 803d 030f 15bd
00000330: ec79 5a3d 962d bdbc a5c1 9cbc 1e38 833d
00000340: 31d9 853d a7b8 4b3d a806 58bd d64e 3fbd
00000350: faa4 25bd 72a0 31bd b452 c63c 01c5 80bd
00000360: 4de9 fe3a 1c9f c5bc 025b 423d bd5c e63c
00000370: 2048 0dbd 3476 d53c 87fa 5d3c 962a a63c
00000380: 9bbc 68bc 1034 4f3c 6714 e43c 3de2 13bd
00000390: b979 edbc 609e 333c d22b 1d3d 00cd 0aba
000003a0: 1974 9abe 3b61 5b3d a00f 2ebd 16d4 c8bc
000003b0: cd1f 83bc 0dfe 8cbc c8ac 8fbd 5408 7fbd
000003c0: e77f ee3b 7472 83bd e7c6 dd3c 30a8 153c
000003d0: 6d98 f4bc 6585 173d 8e82 71bd 53cb 85bd
000003e0: 1a23 093a 18de 313c c382 f0bc 3658 853c
000003f0: db30 f23b 8dbd 66bd c665 b9bc eff9 3dbd

linear4.bias f4 [256]
0.28357425 -0.11879015 -0.49189222 0.37942448 -0.3850453 -0.33690494 -0.15110764 -0.36994082
-0.8507383 -0.05900989 -0.14853482 -0.19649433 -0.0048462 -0.33780974 -0.0001160412 0.10247048
-0.04381133 0.05673602 -0.66117185 0.2948252 0.057105172 0.06887956 -0.028653976 -0.0939983
-0.2138625 0.39140552 -0.037221473 0.21315742 -0.11614369 -0.43662953 0.12637846 -0.46262667
-0.25994614 0.37682918 0.3675684 -0.6651061 0.117860146 0.42910236 0.020730097 0.32722506
0.4658002 -0.1294409 0.30480766 -0.7361266 0.3545046 0.5254782 0.10465707 -0.10897298
-0.45923948 -0.71203125 0.34940916 -0.027166896 0.07144723 0.11880034 -0.47846985 0.40282455
-0.029402677 0.35965732 0.44100916 -0.42148712 0.3987701 0.5338241 -0.29409558 0.050073646
0.052725095 0.17319812 -0.15088856 -0.41801494 -0.06309797 -0.56287384 -0.75407344 -0.10651067
0.23301402 0.48398045 -0.056028314 0.2589688 0.40132073 0.099374585 -0.030133057 -0.5929549
0.4524741 -0.09772465 0.21212111 0.5102119 0.5118079 -0.22152512 0.40948984 -0.13369732
-0.2929796 0.4045549 -0.89640665 -0.034734476 0.4215103 0.5248645 -0.49377176 -0.66889733
-0.047319744 0.34895247 0.014449137 -0.2946928 -0.048995573 0.4609608 -0.3893296 -0.052788258
0.36396694 -0.37386897 -0.45484325 -0.09104387 -0.31482854 0.66163397 -0.4562964 0.5516239
0.46781737 -0.3324366 -0.8289658 -0.28616914 -0.44128636 -0.3716198 -0.4179413 0.18933812
-0.33723763 0.55101186 0.46740058 0.3663344 -0.3954328 0.057115972 0.46746966 0.14784501
0.28124017 -0.33907637 0.17325856 -0.59961385 0.070777535 0.4773934 0.03350889 0.5362075
0.01805189 0.062228594 0.35276133 0.011811454 0.317828 0.450499 -0.6597097 0.49673426
0.5280775 0.04900793 0.40161255 -0.011823935 -0.69724286 -0.85089236 0.5349634 -0.6460253
-0.4329995 0.5081045 0.0478793 0.3705615 0.3098089 -0.24660847 0.64017916 0.47423935
0.160459 -0.7295156 0.5302644 0.69718707 0.26438186 -0.37048692 -0.07673709 -0.056255702
-0.81077117 0.45714355 0.5351595 0.53142846 0.5383661 -0.60633993 -0.3611925 0.3610364
-0.7498981 -0.52602327 -0.19551048 0.4316919 0.5940789 -0.3674964 -0.51655567 -0.4232799
-0.3285171 -0.5684444 0.13241884 0.5812912 0.4170974 -0.40932906 0.17389135 -0.19968313
0.4398781 0.49302292 -0.53879607 -0.25482252 0.37480137 0.43387714 -0.55459315 -0.13857308
-0.5389944 -0.11965453 0.20377862 -0.3825472 0.3079849 -0.08978169 -0.26482296 -0.110414855
-0.036905423 -0.62184083 -0.18164974 -0.44344828 0.11483757 0.34606144 -0.043229643 0.32788846
0.4647844 -0.015157269 -0.25700578 -0.062321525 0.25949794 -0.47499362 0.37348914 0.028536651
-0.27680665 -0.04958055 -0.3315809 -0.42722696 0.07635545 0.26300472 -0.06458074 -0.0073855603
0.13197489 0.30667853 0.063194476 -0.49412712 -0.48474917 0.54735374 0.5522072 0.12048068
-0.25496456 -0.37452143 -0.5096482 0.1518603 -0.16929354 0.6066397 0.342012 0.40267697
-0.0010999342 0.2848093 0.0010056859 0.37589234 0.32653007 0.57997304 -0.6621227 0.2665759
00000000: a530 913e 4048 f3bd 4cd9 fbbe ed43 c23e
00000010: a824 c5be ce7e acbe f6bb 1abe e268 bdbe
00000020: fcc9 59bf 5bb4 71bd 8319 18be cf35 49be
00000030: dfcc 9ebb 66f5 acbe 255b f3b8 0bdc d13d
00000040: 8273 33bd 0764 683d 8f42 29bf 54f3 963e
00000050: 1de7 693d ba10 8d3d bebb eabc 2e82 c0bd
00000060: c5fe 5abe 4e66 c83e 8b75 18bd f045 5a3e
00000070: bedc edbd e88d dfbe 5b69 013e 67dd ecbe
00000080: a917 85be c1ef c03e ed31 bc3e 6544 2abf
00000090: a960 f13d 4eb3 db3e 2ad2 a93c 0b8a a73e
000000a0: 5d7d ee3e 288c 04be c00f 9c3e cb72 3cbf
000000b0: a081 b53e bd85 063f 7256 d63d 3a2d dfbd
000000c0: 7021 ebbe ae47 36bf c2e5 b23e 1c8d debc
000000d0: ed52 923d 984d f33d 00fa f4be 053f ce3e
000000e0: e2dd f0bc 0125 b83e f4cb e13e 29cd d7be
000000f0: 982b cc3e b2a8 083f b293 96be 061a 4d3d
00000100: 45f6 573d d95a 313e 8882 1abe 0e06 d6be
00000110: 8239 81bd 8018 10bf f50a 41bf 4422 dabd
00000120: 3a9b 6e3e 49cc f73e f27d 65bd 8f97 843e
00000130: e979 cd3e e784 cb3d 9ad9 f6bc e4cb 17bf
00000140: afaa e73e dc23 c8bd 4736 593e 3f9d 023f
00000150: d805 033f 7bd7 62be a7a8 d13e f3e7 08be
00000160: 6c01 96be d221 cf3e e87a 65bf bd45 0ebd
00000170: 33d0 d73e 855d 063f a7cf fcbe db3c 2bbf
00000180: 59d2 41bd e6a9 b23e 13bc 6c3c fae1 96be
00000190: 95af 48bd 0e03 ec3e 3656 c7be 8038 58bd
000001a0: e059 ba3e c16b bfbe 37e1 e8be 3575 babd
000001b0: 3531 a1be d860 293f af9f e9be 3937 0d3f
000001c0: c285 ef3e 2135 aabe 1a37 54bf c384 92be
000001d0: 49f0 e1be f344 bebe 67fc d5be dae1 413e
000001e0: 69aa acbe 1d0f 0d3f 214f ef3e 2f90 bb3e
000001f0: 2b76 cabe 70f2 693d 2f58 ef3e af64 173e
00000200: b6fe 8f3e 6b9b adbe b16a 313e 4b80 19bf
00000210: d0f3 903d e86c f43e 9e40 093d e544 093f
00000220: 8fe1 933c 69e3 7e3d 229d b43e d484 413c
00000230: 5aba a23e cea7 e63e bce2 28bf f453 fe3e
00000240: 1630 073f 8abc 483d 29a0 cd3e 2eb9 41bc
00000250: 827e 32bf 15d4 59bf 5df3 083f ea61 25bf
00000260: 1cb2 ddbe 2313 023f 161d 443d 3dba bd3e
00000270: 469f 9e3e ee86 7cbe c8e2 233f 80cf f23e
00000280: 5d4f 243e 89c1 3abf 68bf 073f da7a 323f
00000290: 0f5d 873e 76b0 bdbe 5628 9dbd 616c 66bd
000002a0: b38e 4fbf b80e ea3e 3700 093f b20b 083f
000002b0: 5cd2 093f 1839 1bbf 39ee b8be c3d9 b83e
000002c0: 52f9 3fbf 76a9 06bf e633 48be b906 dd3e
000002d0: 8e15 183f 7d28 bcbe fe3c 04bf 25b8 d8be
000002e0: 6533 a8be 9285 11bf ce98 073e 80cf 143f
000002f0: ca8d d53e 9493 d1be 9310 323e bc79 4cbe
00000300: b437 e13e 806d fc3e 8aee 09bf 1978 82be
00000310: f7e5 bf3e 2525 de3e d1f9 0dbf 1ae6 0dbe
00000320: 89fb 09bf 6f0d f5bd 58ab 503e 3add c3be
00000330: 32b0 9d3e 76df b7bd e096 87be 2f21 e2bd
00000340: 242a 17bd f630 1fbf 6402 3abe a70b e3be
00000350: f62f eb3d f72e b13e 9111 31bd ffe0 a73e
00000360: 39f8 ed3e 3256 78bc 4396 83be db44 7fbd
00000370: eadc 843e 5d32 f3be f839 bf3e b2c5 e93c
00000380: 9ab9 8dbe fa14 4bbd f9c4 a9be 7ebd dabe
00000390: 3f60 9c3d 8ea8 863e e842 84bd 9202 f2bb
000003a0: 6d24 073e f804 9d3e 1b6c 813d 3bfe fcbe
000003b0: 0b31 f8be 601f 0c3f 735d 0d3f 93be f63d
000003c0: b78a 82be 46c1 bfbe 4e78 02bf 4481 1b3e
000003d0: 495b 2dbe bd4c 1b3f 321c af3e ad2b ce3e
000003e0: ab2b 90ba 86d2 913e 38d1 833a f674 c03e
000003f0: f32e a73e 1d79 143f e080 29bf a37c 883e

linear3.weight f4 [1, 256]
-0.0075887977 -0.005612097 -0.66712123 -0.45202902 -0.048851803 0.037977986 -0.2680934 -0.030508887
-2.4799228 -0.002581226 0.022418477 -0.24635853 0.17399997 -0.044658806 -0.034460682 -0.21286555
0.00030695106 0.9165009 -1.2357883 0.06670185 0.01853801 0.08272836 -0.00056705583 0.2314046
0.40004423 0.46132973 -0.040584724 -0.045492172 -0.09461832 -0.94842386 -0.33154076 0.13818406
0.14413056 0.23836946 0.706462 0.14457604 0.56685686 0.32296285 0.02335572 -0.06597998
0.37529242 -0.04245317 0.09883317 -1.600027 0.5250131 -0.15989351 0.15425815 -0.3763852
-0.6677113 -2.0585434 0.22688341 -0.056586016 0.11162535 0.02008165 -0.13886161 0.23174594
-0.0017883348 0.69453627 0.7395202 -0.78186935 0.33503374 -0.1948716 0.06211214 -0.017478542
0.21902518 -0.14995015 -0.22702055 -0.06255801 -0.0002201148 -0.79957366 -1.6116896 0.14773312
0.017378723 0.21839374 -0.016966632 0.094442636 -0.0363657 0.74618673 0.007036078 -0.4064348
0.48759273 -0.012097068 0.043750998 0.27340955 0.0141170565 0.0047970773 0.31555557 -0.07972405
0.10442066 0.5416183 0.22349948 0.027506962 0.5575794 0.86701363 0.122287974 0.28122914
0.023113217 0.117492765 0.0019243618 0.062128145 0.0032381557 -0.19637755 0.46681237 0.5635944
-0.1356149 -0.14469957 0.18135568 -0.008403182 -0.27328894 0.13025524 -0.012602111 -0.12871674
-0.063549146 -0.44124237 0.11205878 -0.5910872 0.11261678 -0.5229201 -0.11270925 0.1350375
0.009316618 -0.16269292 -0.08380001 0.08295587 -0.5567714 0.18239458 0.8104339 -0.115796596
0.08163596 0.22265282 0.19256832 -0.6716624 -0.06147583 0.29478434 0.020052345 0.93052965
0.093523264 0.147945 0.085191615 -0.06775314 0.015503125 0.14000559 -0.71096385 0.3128968
0.066421464 0.64658844 0.21520242 0.015466924 -2.01003 -2.9681437 0.12553209 0.21431513
-0.14358602 -0.045417 -0.44517115 0.480015 -0.047144014 0.10635098 -0.20995891 0.44981807
0.585252 -2.7812412 0.33793387 -0.23278928 0.10642941 -0.25334102 0.0010994208 0.32872418
-1.8322191 -0.4013343 0.38964364 -0.10073081 -0.21232723 0.077603646 -0.01591349 -0.101036765
-1.0373474 0.06315101 0.09157633 0.17960289 0.72335964 -0.08359486 -0.34014204 0.18786941
-0.34673008 -0.1629077 0.12744029 -0.32292163 0.7508362 -0.2482546 -0.3341165 0.08482487
0.3897228 -0.14420114 -0.75279295 -0.13295801 0.12791029 0.6901741 0.29279065 0.029874805
-0.69002587 -0.26323622 0.102499165 -0.07123592 0.13033132 0.2654492 -0.13435884 -0.11694633
-0.17532015 -1.2780226 -0.056294627 0.14252476 0.9136588 0.31196323 0.0025285077 0.22627407
0.47416547 -0.1789504 -0.0029623506 -0.03413279 -0.40733728 -0.79407024 -0.024513151 -0.21915181
-0.4668988 0.6168056 -0.05709562 -0.29144615 0.786552 0.33681682 -0.24870516 0.00219757
-0.06965456 0.09043585 -0.022793347 -0.05733578 0.16054985 0.9838524 0.4377797 0.046251897
0.32022354 -0.17865548 -1.2001567 -0.21432368 -0.22730225 0.50613254 -0.014706714 0.3872351
-0.0021226231 0.18117957 0.26550898 0.18664794 0.39119226 -0.070215136 -2.068348 0.124345824
00000000: 73ab f8bb afe5 b7bb 75c8 2abf 5970 e7be
00000010: d418 48bd ce8e 1b3d 8a43 89be c6ed f9bc
00000020: 0eb7 1ec0 c929 29bb f4a6 b73c 6945 7cbe
00000030: 0c2d 323e 27ec 36bd a526 0dbd 6df9 59be
00000040: 46ee a039 ce9f 6a3f 502e 9ebf fb9a 883d
00000050: 06dd 973c 7d6d a93d 79a6 14ba 54f5 6c3e
00000060: 99d2 cc3e 6933 ec3e 2b3c 26bd 0056 3abd
00000070: 40c7 c1bd e8cb 72bf b6bf a9be 1f80 0d3e
00000080: f696 133e 2017 743e b2da 343f be0b 143e
00000090: 881d 113f 635b a53e 7f54 bf3c 8320 87bd
000000a0: 5426 c03e 60e3 2dbd 0c69 ca3d afcd ccbf
000000b0: 4267 063f 20bb 23be d9f5 1d3e 90b5 c0be
000000c0: 21ef 2abf 2dbf 03c0 2054 683e bdc6 67bd
000000d0: d59b e43d 4682 a43c bd31 0ebe cf4e 6d3e
000000e0: 8f66 eaba 21cd 313f 3251 3d3f 9728 48bf
000000f0: 8b89 ab3e 6c8c 47be 4d69 7e3d 292f 8fbc
00000100: 2348 603e 888c 19be 1378 68be 6a1e 80bd
00000110: 9ece 66b9 dcb0 4cbf d84b cebf 5a47 173e
00000120: d35d 8e3c 9ca2 5f3e 9bfd 8abc 246b c13d
00000130: 33f4 14bd 1806 3f3f e68e e63b 3918 d0be
00000140: c1a5 f93e c832 46bc 3f34 333d 56fc 8b3e
00000150: 3a4b 673c cd30 9d3b 8090 a13e 5d46 a3bd
00000160: 80da d53d 7fa7 0a3f 0cdd 643e 4856 e13c
00000170: 86bd 0e3f 9bf4 5d3f 1e72 fa3d 44fd 8f3e
00000180: ee57 bd3c 0ca0 f03d de3a fc3a 157a 7e3d
00000190: 3d37 543b 3217 49be 0802 ef3e b947 103f
000001a0: a2de 0abe 202c 14be 4eb5 393e 80ad 09bc
000001b0: 87ec 8bbe a161 053e 1679 4ebc 52ce 03be
000001c0: 0e26 82bd 85ea e1be 137f e53d 7e51 17bf
000001d0: a0a3 e63d 17de 05bf 1bd4 e6bd 4547 0a3e
000001e0: baa4 183c f998 26be 579f abbd c4e4 a93d
000001f0: 9288 0ebf a5c5 3a3e 9978 4f3f c426 edbd
00000200: c130 a73d 1aff 633e a130 453e 11f2 2bbf
00000210: 14ce 7bbd f9ed 963e d144 a43c 3137 6e3f
00000220: 2089 bf3d e57e 173e f178 ae3d 29c2 8abd
00000230: d200 7e3c a05d 0f3e ba01 36bf 0234 a03e
00000240: fa07 883d d286 253f 065e 5c3e fb68 7d3c
00000250: 55a4 00c0 11f6 3dc0 7c8b 003e 6d75 5b3e
00000260: 3708 13be 2d07 3abd 79ed e3be 87c4 f53e
00000270: 151a 41bd 8bce d93d 78ff 56be 8e4e e63e
00000280: 13d3 153f dbff 31c0 ab05 ad3e 5060 6ebe
00000290: aaf7 d93d eab5 81be 711a 903a 894e a83e
000002a0: 2886 eabf b07b cdbe 5f7f c73e f44b cebd
000002b0: 4f6c 59be a9ee 9e3d 025d 82bc 5dec cebd
000002c0: cdc7 84bf 5155 813d 5f8c bb3d d2e9 373e
000002d0: 192e 393f c833 abbd 1927 aebe d760 403e
000002e0: 9b86 b1be 47d1 26be b57f 023e fc55 a5be
000002f0: cd36 403f 7436 7ebe 5111 abbe a9b8 ad3d
00000300: bf89 c73e 77a9 13be 0ab7 40bf 2526 08be
00000310: eafa 023e 40af 303f a8e8 953e 02bc f43c
00000320: 89a5 30bf e6c6 86be 15eb d13d 23e4 91bd
00000330: 9375 053e f5e8 873e 5d95 09be 8f81 efbd
00000340: 2087 33be 3f96 a3bf 3295 66bd 03f2 113e
00000350: 8be5 693f a5b9 9f3e 52b5 253b 64b4 673e
00000360: d1c5 f23e c63e 37be ff23 42bb d3ce 0bbd
00000370: 838e d0be 3048 4bbf cecf c8bc 5569 60be
00000380: 5c0d efbe f9e6 1d3f 19dd 69bd 6e38 95be
00000390: 795b 493f 4173 ac3e 91ac 7ebe 1b05 103b
000003a0: 0da7 8ebd 6e36 b93d 1db9 babc ecd8 6abd
000003b0: 2e67 243e c0dd 7b3f a924 e03e a172 3d3d
000003c0: 57f4 a33e 76f1 36be bc9e 99bf ab77 5bbe
000003d0: ecc1 68be e791 013f 6ef4 70bc ae43 c63e
000003e0: b51b 0bbb 2387 393e cbf0 873e a320 3f3e
000003f0: 5a4a c83e f4cc 8fbd d05f 04c0 06a9 fe3d
