outputs/Optimal_Control/20220331-203105/models/checkpoint.pt (torch, 533487 bytes, 7 tensors)

linear1.weight f4 [256, 2]
000000 73 5f 00 3f a5 50 29 bf 78 11 1e be 45 df db be
       0.50145644 -0.6613868 -0.15436351 -0.4294378
000010 c6 7c 24 3e 60 4b 2b bd be 50 54 3d 28 4f 01 3e
       0.16063222 -0.04181993 0.051834814 0.12627852
000020 b1 fa 9c be 87 4a 20 bf d3 8d c8 3e aa 48 aa 3e
       -0.30660012 -0.6261372 0.39170703 0.33258563
000030 a8 61 f6 bd 12 28 c2 be 1f 91 31 bf 98 d8 b0 3d
       -0.12030345 -0.37921196 -0.6936206 0.08635062
000040 f2 41 82 3e 04 c7 31 bf 45 c5 e9 3e b0 f0 0e 3f
       0.25440937 -0.694443 0.45658317 0.5583601
000050 5f ae 99 be 20 b6 f9 bc 43 7b 3d 3e 4e 19 a0 3e
       -0.30015847 -0.030482352 0.18504052 0.31269306
000060 5d bb d8 3d d0 df 51 be 89 8e dc 3e 39 ee 97 3e
       0.10582612 -0.20495534 0.43077496 0.29673937
000070 8f 8c df 3d eb 40 ac bf 25 f4 ae be 84 ad 1c 3f
       0.10915481 -1.3457311 -0.34170642 0.61202264
000080 ce 78 16 bf 8a 81 8a 3e 24 ae 96 3e 6a 10 c0 3e
       -0.58778083 0.27051955 0.29429734 0.37512523
000090 f0 db 6f be f0 23 f7 be 8b 84 09 bf ad 0c c1 be
       -0.23423743 -0.48269606 -0.5371787 -0.37704983
0000a0 60 a5 07 3f 44 de 9e be 17 e9 a7 3e 7f 7d 25 bf
       0.5298672 -0.3102895 0.3279502 -0.64644617
0000b0 18 20 0c be 50 6e 75 bd 52 98 d8 3e 78 87 0a 3f
       -0.13684118 -0.059919655 0.4230371 0.5411296
0000c0 27 14 f9 3e 7e 19 02 bf fc f8 21 be ad 02 c5 be
       0.48648188 -0.5082015 -0.15817636 -0.38478604
0000d0 22 e4 01 3f a3 99 85 be e3 cc 5b 3d 00 71 86 3e
       0.5073873 -0.26093778 0.053662192 0.26258087
0000e0 94 6b 8f 3d 48 2f f7 bd d7 e2 d7 3d d1 c5 8c bf
       0.07002941 -0.12069565 0.10541313 -1.0997869
0000f0 85 48 c8 3b 4b 24 19 3f dc 34 dc be 31 76 b4 be
       0.0061121606 0.59821004 -0.43009079 -0.35246423
000100 52 df 28 3e b6 e3 12 3f 4d 91 23 bf 30 48 27 bf
       0.1649144 0.5737871 -0.63893586 -0.65344524
000110 39 26 12 bf 6a 69 c2 3e 87 99 d1 3e f7 2a b5 3d
       -0.57089573 0.3797105 0.40937445 0.088460855
000120 ed 04 96 3e 9f c7 42 bf df fe ff be c8 73 ee 3e
       0.29300633 -0.7608585 -0.4999914 0.4657271
000130 12 85 a6 be d3 14 ec be cb da c0 be 6a 85 24 3f
       -0.325234 -0.46109638 -0.37666926 0.64266074
000140 5d fd 0b 3f d0 28 f3 be c9 17 d3 3d b7 b6 85 be
       0.54683477 -0.47492075 0.10307271 -0.26115963
000150 64 9f ad 3e 63 14 7e bd 34 b6 11 bf 46 1c c6 be
       0.33910668 -0.06203116 -0.56918645 -0.38693446
000160 7a 71 c4 3d 03 25 9d 3e f5 7d 49 3e ec 91 09 3d
       0.095919564 0.306923 0.19676955 0.033586428
000170 36 95 56 3e fe 8a e7 3e d9 7d 93 3e 0d f4 f5 be
       0.20955357 0.4522323 0.28806952 -0.48037758
000180 42 1b 56 be 25 cd 6a 3e a2 92 f2 3e 3d 79 8b 3d
       -0.20908836 0.22929819 0.47377497 0.06810234
000190 95 74 41 3e c1 1d f8 be 00 00 87 39 6f 61 14 bf
       0.18892129 -0.484602 0.00025749207 -0.5796117
0001a0 0c 45 9f be de 92 97 3e cf b1 72 3e 48 ef e3 3e
       -0.31107366 0.29604238 0.23700641 0.44518495
0001b0 35 56 fe 3e 1e c4 f1 3e d0 71 f3 bd 7d be 0c bf
       0.49675146 0.47219938 -0.118869424 -0.5497816
0001c0 91 f4 0a 3f a1 19 84 3d 4d 95 e3 be e0 8e 8a 3d
       0.5427943 0.06450201 -0.44449845 0.067655325
0001d0 07 b8 18 bf ea 26 eb be 23 e2 eb 3d bc 55 21 3c
       -0.59655803 -0.45928127 0.115177415 0.009847101
0001e0 7d 28 f2 3e 51 1a 33 bf 28 b6 b1 3e 14 e8 b5 be
       0.47296515 -0.6996203 0.34709287 -0.35528624
0001f0 8f e7 1e bf 98 60 4c 3e 82 1b af bb ad 2d 43 3e
       -0.6207208 0.19958723 -0.0053438554 0.19060393
000200 a8 0c cb 3e a7 f5 94 3e 08 aa 11 3e 62 8c 92 3e
       0.39658093 0.29093668 0.14225018 0.2862273
000210 dd 02 a4 be 70 c9 81 3d 15 d8 10 bf 68 3e 42 be
       -0.32033435 0.06337249 -0.56579715 -0.18969119
000220 eb 2d 32 3e 86 6a 15 bf 1a a2 c6 3e 79 5d 30 bf
       0.17400329 -0.58365667 0.3879555 -0.6889263
000230 0d 37 d3 be a2 71 24 bf e8 ab 11 be a0 c1 91 bc
       -0.41252938 -0.6423589 -0.14225733 -0.017792523
000240 cb 9d 92 3d ab c5 d1 3e 17 08 fd 3e 08 39 10 bf
       0.07159003 0.4097112 0.49420235 -0.5633702
000250 b0 6e cc 3e 41 8c f8 be 01 f3 a8 be 08 1b ac 3d
       0.39928198 -0.48544505 -0.32997897 0.08403593
000260 3f 63 07 bf 64 db 83 3e 12 b8 ae be d8 ba eb 3d
       -0.5288581 0.2575332 -0.3412481 0.11510247
000270 d1 b9 a3 3e 6d a6 2e bf bb 6b 87 3e 30 65 b5 be
       0.31977704 -0.68222696 0.2644938 -0.35428762
000280 ec ba 1c 3e 17 27 e4 be 07 97 ef 3e d3 64 90 be
       0.1530568 -0.44561073 0.46794912 -0.28201923
000290 62 de 61 3e 26 a0 35 3c 09 a0 14 bf 61 b3 24 bf
       0.22057489 0.011085546 -0.58056694 -0.6433621
0002a0 0f 87 aa be 40 23 42 bd a7 32 b0 3e 1c dd 78 bf
       -0.33306167 -0.0473969 0.34413645 -0.97212386
0002b0 0d c3 eb 3d f2 15 51 bf 9f d5 2d 3e e1 4b 34 3e
       0.11511812 -0.8167411 0.16976021 0.1760707
0002c0 b7 78 1a bf 24 cd c1 be 03 92 06 3e 65 4a 21 be
       -0.60340446 -0.37851822 0.13141637 -0.15751036
0002d0 e3 22 df 3e ec ab 16 3f 71 30 24 bf 92 82 df be
       0.43581304 0.5885608 -0.64136416 -0.43654305
0002e0 f1 f3 c3 3e 48 6e 39 bf 60 32 93 bd e3 9b 93 be
       0.3827205 -0.724339 -0.07187343 -0.2882987
0002f0 94 98 96 be 40 5d e7 3d b1 e1 b4 be db 48 2e bf
       -0.29413283 0.11297083 -0.3532844 -0.6807992
000300 3f ed 1e 3f 59 98 05 3e f0 f4 9c 3e b9 be 08 ba
       0.6208076 0.13046397 0.30655622 -0.0005216408
000310 68 9d 2b bf e8 bf 20 be 10 53 d3 bd 05 04 30 bf
       -0.6703706 -0.15698206 -0.10318577 -0.68756133
000320 f8 40 05 bf 00 a8 f1 3a d8 d4 b4 be 08 fc f1 be
       -0.5205226 0.0018436909 -0.35318637 -0.47262597
000330 58 15 d5 be a7 98 dc be 14 22 c0 3e 0f 3e ec 3e
       -0.41617846 -0.43085214 0.37526 0.46141097
000340 22 b4 07 bf 7d 6e 32 bf 98 df b0 be 40 d7 45 3e
       -0.53009236 -0.6969984 -0.34545588 0.19320393
000350 c9 02 17 3f b2 1d ac 3c 38 57 ba 3e 03 7b e6 be
       0.58988625 0.021010254 0.36394668 -0.45015725
000360 61 14 06 be 23 df 88 3e 75 f5 04 bf 47 d7 98 be
       -0.13093711 0.2673274 -0.5193704 -0.29851744
000370 99 7a 95 be 35 1a 9a 3e 2c e0 25 bf eb 6d d7 be
       -0.29195097 0.3009812 -0.64795184 -0.42076048
000380 e7 7e e9 3e 90 8e f4 3e 98 ef 83 be a4 b1 f7 3e
       0.4560463 0.47765017 -0.25768733 0.48377717
000390 df 2f d4 bd bc f4 46 3f af 66 ac be d9 51 cd 3e
       -0.10360693 0.77717185 -0.3367209 0.40101507
0003a0 40 ac 90 3b 30 1f 9a 3e 13 79 ff 3b ca 6b 08 3f
       0.004415065 0.3010192 0.0077964156 0.53289473
0003b0 56 c5 45 be bd f5 b2 3e 80 d2 f3 bb f0 0b d3 bd
       -0.19313559 0.34953108 -0.007440865 -0.10305011
0003c0 df 85 fc 3e db 08 43 3e 46 a3 ce 3e 9e 18 bc 3e
       0.49320886 0.19046347 0.40358943 0.3673753
0003d0 66 7a 81 3e f2 69 c8 bd 58 4e aa be 69 19 38 3f
       0.25288695 -0.097858325 -0.33262897 0.7191377
0003e0 20 b5 09 bf 58 13 78 3e d1 7a 2c bf 90 fa 30 be
       -0.53792 0.24226129 -0.673749 -0.17283082
0003f0 47 0d 03 bf c0 e1 ee 3c d3 cc 13 3e 08 5e 13 3e
       -0.51192135 0.02916038 0.14433603 0.14391339

linear1.bias f4 [256]
000000 a2 64 b3 3f 39 22 08 3e d6 8b 9a 3e 25 cc a1 bf
       1.4015086 0.13294305 0.3018481 -1.2640425
000010 32 f6 c3 3c 93 d0 da 3f 98 37 bf bd 10 c9 1c 3f
       0.023921106 1.7094902 -0.093367755 0.612443
000020 7a c0 9f 3f 62 82 b1 bf 00 61 ab bb 61 6b 00 3f
       1.2480614 -1.3867915 -0.005230069 0.5016385
000030 e9 52 b0 3f 7a 0d cc bf cd 11 37 bd d4 fd b2 bd
       1.3775302 -1.5941613 -0.04469471 -0.0873982
000040 88 34 c7 bd 24 f0 c5 bf 2f 66 ad be b6 51 06 3f
       -0.097268164 -1.546391 -0.33867022 0.5246843
000050 08 f9 bc 3f 87 c8 cb bf 6e 34 9d be 0f f3 80 3f
       1.4763498 -1.5920571 -0.30704063 1.0074176
000060 34 d2 a8 bf ac 0a 87 3e fc 10 85 3f 1b 10 9b bf
       -1.3189149 0.2637533 1.0395808 -1.211429
000070 94 f2 8e bf 2c 42 02 3f f0 fa d3 bf 88 64 36 3e
       -1.1167779 0.5088222 -1.6560955 0.17811787
000080 f8 f4 9c bf fd 20 10 3e c0 65 1d 3f 87 3b 89 3f
       -1.2262259 0.14075084 0.61483383 1.0721291
000090 92 0f 7a bf 3c 26 2e 3f 0b a6 07 3f 7e c1 42 bf
       -0.9768001 0.6802709 0.52987736 -0.76076496
0000a0 5c 99 d9 3f 97 6b 7b 3f f7 8e af 3f c8 ed 70 3e
       1.6999927 0.98211044 1.3715504 0.23528206
0000b0 01 e1 d8 3f 0f fe f0 bf bf 53 c1 bf 2b 2f c1 3f
       1.6943666 -1.8827533 -1.5103682 1.509252
0000c0 66 ac 51 3f 12 91 97 3f 6b 39 c2 3f 44 a4 81 be
       0.81903684 1.1841147 1.5173773 -0.25320637
0000d0 60 e5 9d bd 55 ae ba 3f da a5 cd 3f 71 60 1c 3f
       -0.077097654 1.4584452 1.6066239 0.6108466
0000e0 e1 af d6 bf 8d 91 1a bf 50 29 f1 be cc f9 aa 3f
       -1.6772424 -0.6037834 -0.4710183 1.3357482
0000f0 37 dd 5d bf 8a f7 a1 3f cf b8 b2 3e e9 f3 6c bf
       -0.8666567 1.2653668 0.34906623 -0.9255968
000100 72 f5 0b 3f 17 82 40 3f ed 78 f4 be 52 5b ce 3e
       0.54671395 0.751985 -0.4774851 0.40304047
000110 c1 7a 53 bf 07 0e a5 bf 9f d7 1b bf 69 46 8b be
       -0.8260918 -1.2894906 -0.60875887 -0.27202156
000120 a4 86 d3 bf 1f 99 d8 bf e5 23 3b 3f 8c 4f 84 3e
       -1.6525464 -1.6921729 0.73101646 0.2584194
000130 36 59 1c 3f ef 5e 8c 3e 3b 6d e0 bf de 49 d1 3f
       0.61073625 0.2741618 -1.7533334 1.6350667
000140 e0 14 99 bf dd fb c1 bf 04 6a 91 bf c4 fa c2 be
       -1.1959496 -1.5154988 -1.1360478 -0.38081944
000150 4d 16 50 3e e7 19 86 3e f1 a3 37 3f 59 f7 d7 bf
       0.20321007 0.26191637 0.7173453 -1.687236
000160 19 bf fe 3d 30 21 c1 bf c1 22 c8 3f 83 7e 9b ba
       0.12438793 -1.5088253 1.5635606 -0.0011863265
000170 06 d3 8c 3f 1a 5a e2 3e 63 56 06 3f 32 17 8c be
       1.1001899 0.44209367 0.52475566 -0.27361447
000180 7b af 92 bf ba 5d d0 bf ce 2e 11 3f 4a d8 da be
       -1.1459802 -1.6278603 0.56712043 -0.4274314
000190 16 0d c1 3d 96 00 0e bf b6 e7 89 ba c9 73 95 3f
       0.09426324 -0.55469644 -0.0010521326 1.167596
0001a0 62 47 33 3e 6b 25 c5 3e 69 2d ba bf b9 1e 8b be
       0.17507699 0.3850511 -1.4545108 -0.27171877
0001b0 5e bb 3f be 30 c2 d5 be 4d 02 cf be ab 3f 34 3f
       -0.18723819 -0.41749716 -0.40431443 0.7040965
0001c0 10 94 ba bf 57 09 f8 be e6 87 e6 3f 04 31 4f 3f
       -1.4576435 -0.48444626 1.8010223 0.80934167
0001d0 2a e7 99 bf 89 4e df bf ab 58 4e bf cc a3 09 bf
       -1.2023671 -1.7445842 -0.80604047 -0.5376556
0001e0 0f 39 c8 bf bd a7 bb bf 8c 10 c1 bf b7 d5 79 bf
       -1.5642413 -1.4660565 -1.5083175 -0.9759173
0001f0 09 72 b2 be 05 d2 99 3e 02 5d 99 be 68 e7 a4 bf
       -0.34852627 0.30043045 -0.29953772 -1.288312
000200 0a f5 a6 bf a9 04 6e 3e e4 9d 18 3f 27 6a d8 3f
       -1.304353 0.23243965 0.5961592 1.6907395
000210 c2 ea c9 bf 8b 46 de bf c0 18 d6 be 08 a7 53 3d
       -1.5774767 -1.7365278 -0.41815758 0.051672965
000220 84 54 a1 3f b6 90 d9 bf 48 79 98 3f 07 ad 23 bf
       1.2603917 -1.6997287 1.1912012 -0.63935894
000230 27 27 a8 bf 8c f4 89 be 95 0c e6 be 9f 84 e0 bf
       -1.3136948 -0.26944387 -0.44931474 -1.7540473
000240 d4 47 28 bf 02 de ed bf f3 0e 1a 3f 83 b5 8b bf
       -0.657346 -1.8583376 0.6017906 -1.0914768
000250 ba e2 aa 3f 52 83 e0 3f 4e e6 c0 be 8e 31 ed be
       1.3350441 1.7540076 -0.3767571 -0.4632687
000260 af aa e1 3e e3 7f b1 3f 78 1e b7 bf d0 6a ae bf
       0.44075534 1.3867153 -1.4306173 -1.3626347
000270 81 95 ae 3f f2 c0 f0 3f 98 00 87 3f e2 01 02 bf
       1.3639375 1.8808882 1.0547056 -0.5078412
000280 5f 13 8d bf 06 9b ac 3f 6f 53 0f bf 40 06 c8 bf
       -1.1021537 1.3484809 -0.55986685 -1.5626907
000290 30 65 09 3f 88 1a cd bf f0 60 00 bd 77 ce 82 3f
       0.53670025 -1.6023722 -0.031342447 1.0219258
0002a0 a0 3c a1 3e b2 13 a2 bf e8 dd 28 be 45 ee d7 bf
       0.31491566 -1.266226 -0.164909 -1.6869589
0002b0 16 e4 d6 bf a8 29 dc be e6 c6 80 3e 73 49 c0 3f
       -1.6788356 -0.4300053 0.25151747 1.5022415
0002c0 f1 61 a8 3f e3 b5 a9 bf 80 ff 08 bf 2f e5 bc 3f
       1.3154889 -1.3258632 -0.5351486 1.4757441
0002d0 be 43 98 bf 98 03 94 3f 80 69 47 bd c7 de b1 bf
       -1.1895673 1.1563597 -0.048684597 -1.3896111
0002e0 06 d5 e8 bf ff 56 48 bf 0a f3 b1 3f 5f d1 bd bf
       -1.819001 -0.78257746 1.3902295 -1.482952
0002f0 37 7a 99 bf e6 8d b5 bf 50 64 cb bf a1 62 97 bf
       -1.1990422 -1.4183929 -1.5889988 -1.1826974
000300 e2 39 de 3f 2b db 48 3e ea 98 b1 3f 4c 3e bd 3f
       1.7361414 0.19614856 1.3874791 1.4784636
000310 f4 ab 0c be 82 aa a6 3f 02 75 d0 3f f8 e2 ae 3f
       -0.1373747 1.3020785 1.6285708 1.3663015
000320 03 31 c7 bf 98 d1 b4 3f 36 c3 98 3f fd 6d f7 3e
       -1.5561832 1.4126463 1.1934574 0.48326102
000330 b4 34 21 be 23 c6 c1 bf 82 8b f0 be 46 0e a7 3d
       -0.15742761 -1.5138592 -0.46981436 0.08157019
000340 42 ca 12 bf 16 75 da bf ab 94 c2 be e1 10 92 bf
       -0.5733987 -1.7066982 -0.3800405 -1.1411401
000350 11 67 3f bf e6 1b e1 bf 42 d2 5b 3f 52 7d c1 3f
       -0.7476664 -1.7586639 0.858677 1.511637
000360 46 48 d1 bf af 7e 32 3f 2e fc c7 bf 80 7f 80 bd
       -1.6350181 0.69724554 -1.5623834 -0.06274319
000370 dc 74 85 bf e0 40 03 3f b5 cb 0f 3e 28 5b ec 3e
       -1.0426288 0.51270866 0.14042552 0.46163297
000380 c1 ce c5 3f 4a 58 cb 3f d9 8c 9e bf 0e 58 93 be
       1.5453721 1.5886319 -1.2386733 -0.28778118
000390 e3 24 85 be 69 fd a6 3f 4e b0 51 3e 55 48 06 3f
       -0.26004705 1.3046085 0.20477411 0.5245412
0003a0 d8 91 b0 bf 40 ed 74 bd f9 90 d3 3f d5 3c a4 3f
       -1.3794508 -0.05979657 1.6528617 1.2831064
0003b0 fe ca e1 bf 31 e0 d6 bf 90 25 11 bd 00 5d 75 be
       -1.7640073 -1.6787168 -0.035436213 -0.23961258
0003c0 0f 30 93 bf 97 d0 d6 3f ba 70 d3 bf db eb e7 bf
       -1.1499041 1.6782407 -1.6518776 -1.8118852
0003d0 df 80 9e 3e 04 c7 0c bf 3e af bf be d4 9b 6e be
       0.30957696 -0.54991174 -0.37438387 -0.23301631
0003e0 f3 35 ee bf 33 6b de bf b4 13 9b be 49 a4 d3 bf
       -1.8610214 -1.7376465 -0.3028847 -1.6534511
0003f0 b7 8b dc be 3d 97 e2 3d 00 43 ad bf 8d bd c1 bf
       -0.43075344 0.11064003 -1.3536072 -1.5135971

linear2.weight f4 [256, 256]
000000 86 04 64 3d 01 ef 7c bd 6a 18 82 bc c5 64 6d 3c
       0.055668376 -0.06175137 -0.015880782 0.014489357
000010 a6 16 8c bc e9 cb 72 bd f8 8e 8d bc 11 b1 c8 3c
       -0.017100643 -0.059276495 -0.017280087 0.024498494
000020 e2 47 51 bc ce e8 04 bd d0 34 fe bc f4 d7 48 3d
       -0.012773486 -0.032448582 -0.031031042 0.049034074
000030 0b 52 03 bd 81 a6 90 3c 8f d2 5e 3b e7 e9 af 3c
       -0.032060664 0.01765752 0.0034000014 0.021473838
000040 78 74 1c 3c 99 e9 1b 3c 42 2d 35 bd 8e d1 50 bd
       0.009549253 0.009516143 -0.044232614 -0.050981097
000050 54 c6 ae 3c 4b c8 3f bd fc cd 15 bd ab 3e 2a 3c
       0.021334805 -0.046821874 -0.036573395 0.010390918
000060 5e e0 ed bc ad b2 25 3c f8 c2 70 3d 81 c1 f8 3c
       -0.02903765 0.0101134 0.058779687 0.030365707
000070 db 18 48 3c 2f 61 4b 3d cc 29 06 bd 8e 6b 89 bd
       0.012212957 0.04965323 -0.032754704 -0.067099676
000080 91 54 6f 3d e7 7f 7d bd 44 c2 09 bc 77 b7 92 3c
       0.05843026 -0.061889555 -0.008408133 0.017909748
000090 73 c6 14 bd 36 57 00 3c bb 4b 50 bd 00 c8 29 3c
       -0.03632207 0.007833293 -0.050853472 0.010362625
0000a0 fe ce f5 3c 1b de 8c 3c 13 49 b8 bc ec 32 e7 3b
       0.030005928 0.017195752 -0.022495782 0.007055631
0000b0 33 6e 08 3d 42 7a 07 bd bc 0e 9a bc ab 51 ec 3b
       0.03330822 -0.03307558 -0.018805854 0.007211884
0000c0 32 fc 01 bd 49 3e f6 bc 26 3a 4a bd 3a 8b 6b 3d
       -0.031734653 -0.030058997 -0.04937186 0.057505824
0000d0 76 b2 46 bd 51 29 0a bd 19 a3 3a bd e9 96 25 bc
       -0.048510037 -0.03373081 -0.0455657 -0.010106781
0000e0 21 e2 da bc 48 69 1f bc 3e e8 3c 3d 2a fe 23 3c
       -0.026719155 -0.009729691 0.04611992 0.010009328
0000f0 43 e4 c8 bc 18 e7 ef bc e8 7f 1b 3c c6 c9 02 3d
       -0.024522906 -0.029284999 0.009490944 0.031930707
000100 1d 4d 52 bd a4 0c d4 3c 50 26 82 3c 51 ab 48 bd
       -0.051343072 0.025884934 0.01588741 -0.048991505
000110 e0 b3 cc 3c 3d bf 96 3c b0 de 5f 3c 00 09 d2 ba
       0.024988115 0.018401736 0.013663933 -0.0016024411
000120 64 21 60 bc 5e a0 18 3d 17 9e d9 bc 6a d8 b9 3c
       -0.013679836 0.037262313 -0.02656464 0.022686202
000130 32 9d 78 3c 40 71 7d bd a1 80 d9 3a 3d 04 81 bd
       0.015174197 -0.06187558 0.001659412 -0.062996365
000140 62 2f ee 3c 05 3f 6a 3d 6f 65 85 3d b0 db b5 3c
       0.029075328 0.057189006 0.065134875 0.022199482
000150 23 f7 16 bc 04 8d 4c bd d9 2f 68 bb 70 37 f4 3c
       -0.009214195 -0.04993917 -0.003542891 0.02981159
000160 ba 89 12 bd 02 9f 23 3d d8 76 0c 3c ac d0 31 3d
       -0.035775878 0.039946564 0.008573256 0.043411896
000170 74 db 9f bc e7 84 f7 3c f4 2e 77 bd 0c 38 69 bd
       -0.019513823 0.03021474 -0.060347512 -0.056938216
000180 17 34 32 3d 60 e8 3b bd 4b 3e 77 bd fa 9c 4e 3d
       0.043506708 -0.045875907 -0.06036214 0.050442673
000190 3d 67 6f bd 84 c2 6c 3d 17 d9 9f bc 21 29 87 3c
       -0.058448065 0.057802692 -0.019512696 0.016499104
0001a0 af 28 0a bd 1c a7 9a 3c d7 4c 18 3d c7 af 0c 3c
       -0.033730205 0.018878512 0.037182655 0.00858683
0001b0 6c d3 2a bd ec 39 0e bd 10 72 cb 3a 45 ba 6e bd
       -0.041705534 -0.034723207 0.0015521664 -0.05828311
0001c0 34 f1 59 bd 71 3c ac 3c ea 86 3c 3d a7 ac 93 3c
       -0.053208545 0.021024914 0.0460271 0.018026663
0001d0 e6 0e 22 bd 4f 28 d3 bc b0 e3 3a bd 7a b3 4d bd
       -0.03956499 -0.025776057 -0.045627296 -0.05021999
0001e0 02 97 a8 3c 72 97 bc 3b 9d 07 da 3c 9c 57 65 3d
       0.020579819 0.0057553584 0.026614958 0.055991754
0001f0 88 47 1a bc 1a f1 42 3c c8 1b ab bc 9f 02 6a 3d
       -0.009416468 0.011898303 -0.02088727 0.057131406
000200 be e8 4c 3c c3 9d b1 bc 3f 6b f6 bc 4e 26 2e 3d
       0.012506662 -0.021681672 -0.030080436 0.042517
000210 be 7c be 3c ac ad 32 bd 88 51 c2 3c 40 72 4b bc
       0.023252841 -0.043622658 0.023720518 -0.012417376
000220 25 47 87 3d 44 9b 03 3c dd 2b 8e bc 8b 03 02 bd
       0.066053666 0.008032624 -0.0173549 -0.03174166
000230 6d 88 75 bd ca 00 70 bd e0 86 98 bc 45 9d 68 3d
       -0.05994456 -0.058594503 -0.018619 0.05679061
000240 68 05 63 bc 37 7b 6b bd d4 98 32 bb ae 00 1c bc
       -0.013856269 -0.057490554 -0.0027251737 -0.009521646
000250 18 0f 2e 3c 17 6e 9d ba d0 25 7d bd 66 3f 5f bd
       0.010623716 -0.0012010959 -0.06180364 -0.05450382
000260 93 38 f6 bc bf e0 82 bc 6f 49 88 3c 30 7f 9b bc
       -0.030056274 -0.015976308 0.016636578 -0.018981546
000270 72 09 eb bc 09 fa 3b bd 49 62 6b 3b aa 45 66 bd
       -0.028691027 -0.04589275 0.0035916737 -0.05621878
000280 54 69 96 bc 17 8d 73 bc c4 c6 92 bc eb 41 46 bb
       -0.018360771 -0.014865181 -0.017917044 -0.0030251693
000290 b5 f0 53 bc de db 14 bd d8 fe 5d bd fd 9a 4c 3d
       -0.012935807 -0.036342494 -0.054198116 0.049952496
0002a0 bb a1 56 bc 09 59 4c bd 54 f8 6f bd 38 b4 8d 3c
       -0.013100083 -0.049889598 -0.058586434 0.017297849
0002b0 43 08 1b bd f8 e0 60 bd d9 3d e7 3c be 6b 4f 3d
       -0.037849676 -0.054902047 0.028227733 0.05063986
0002c0 81 e3 27 bd 3b 56 80 bd e4 9e 55 3d 1b 5e 50 3d
       -0.04098845 -0.06266447 0.052153483 0.050870996
0002d0 b5 e2 3a bd fc d3 18 bd 40 35 50 3d 36 6e d6 3c
       -0.04562636 -0.03731154 0.050832033 0.0261756
0002e0 a7 2b 1d 3c 87 0c 99 3b 35 e1 6b 3d fb 6b b1 ba
       0.009592927 0.004670683 0.05758782 -0.0013536209
0002f0 39 e7 6b bc f4 f6 24 bc bd 9d 29 bb 96 ee 9b 3c
       -0.0143983895 -0.010068644 -0.0025881373 0.019034665
000300 60 69 20 3d 14 e9 4c bb f4 0b bd bb fe f2 3e 3d
       0.039162993 -0.0031266855 -0.005769247 0.046618454
000310 ec 8b 93 bc 7e 79 57 bd 77 99 6c bd 99 16 39 bc
       -0.018011056 -0.0526061 -0.057763543 -0.011296892
000320 e4 f8 97 bc e6 f1 65 bd 04 61 20 3d 4b 39 b0 bc
       -0.018551297 -0.056138895 0.03915502 -0.021511694
000330 1c 7e a4 3c f9 be 5d 3d 5e c0 1b 3d 76 97 dd bc
       0.020079665 0.054137204 0.038025253 -0.027049761
000340 7e 32 37 bd f1 db d5 bc fe 13 00 3d ae 0d c0 b9
       -0.044725887 -0.026105853 0.031269066 -0.00036631286
000350 06 bc 87 3c c9 4d 10 bd 06 3c 3a 3d 80 6f 2b 3d
       0.016569149 -0.03523043 0.0454674 0.04185438
000360 c9 29 21 bd 39 94 c7 3c ce 91 e7 bc 64 3a e8 bc
       -0.03934649 0.02436267 -0.028267767 -0.028348155
000370 1d 28 2f bd 64 5b 0f 3d cd c8 72 bd d9 79 84 3c
       -0.042762864 0.034999266 -0.05927353 0.016171383
000380 ab 5c e4 3c 64 67 fb ba 2f ee 68 3d f6 b7 86 3d
       0.027876219 -0.0019180593 0.056867775 0.065780565
000390 87 13 4f bd a9 2f 77 3d 4c 70 b2 3c e8 b1 1a bd
       -0.050555732 0.060348187 0.021782063 -0.03776732
0003a0 36 64 1c bd 28 6b cd 3c 4b fd 1a bd ea df 51 bc
       -0.038181506 0.02507551 -0.037839215 -0.012809733
0003b0 01 9b 70 bd 59 49 6d bc 44 cc 28 3d 20 ae e8 bb
       -0.058741573 -0.0144828195 0.041210428 -0.0071008354
0003c0 04 04 f9 3a 27 b0 63 3b 83 d7 0b bd c4 a8 1e 3c
       0.0018998389 0.0034742446 -0.034141075 0.009683792
0003d0 26 48 d5 3c 8e 3d 6c 3d 80 40 ee ba ac c5 41 3d
       0.02603538 0.05767589 -0.0018177181 0.047307655
0003e0 29 14 db 3b 54 f6 58 3c f2 0f 31 3d 9c d8 9d 3b
       0.006685753 0.013242323 0.043228097 0.0048170816
0003f0 0c 67 a8 bc 2a c5 42 ba ee a4 7e bd 51 1a 1e 3d
       -0.02055695 -0.00074298924 -0.062169008 0.038599316

linear2.bias f4 [256]
000000 d2 af 1d 3d ac 2d 05 bd 5b ad 8e 3b 3b 12 90 39
       0.038497753 -0.03251426 0.0043541617 0.00027479403
000010 00 fe 5e b9 50 1d 21 bd b1 0c 43 bc 01 88 8a 3a
       -0.00021266192 -0.039334595 -0.011904881 0.0010569097
000020 8e 45 5b 3a a8 1d e2 3b bf f3 7b bd d9 b2 75 3c
       0.00083645515 0.006900508 -0.06151175 0.014996254
000030 d1 fa 68 3e 66 bc 5c 3d bf 6d 9b be 20 4b f1 3e
       0.22751929 0.05389061 -0.30357167 0.47127628
000040 6b 22 0c 3e 35 ad e5 3d 39 e2 1c 3b cc 12 fc bc
       0.13685004 0.11214677 0.002393855 -0.030770682
000050 c1 9f a4 3c 98 a9 5d 3e da 26 e4 3b 8a 2c 91 bc
       0.020095708 0.21646726 0.0069626393 -0.017721433
000060 2c b5 4d 3e 40 66 4e bd 7b 18 c0 bb a9 8a f5 bc
       0.20088643 -0.050390482 -0.0058622933 -0.029973345
000070 cc 36 4e bd f0 c2 97 bc 5c 6d 26 3d f0 06 a6 3c
       -0.050345227 -0.01852557 0.040631637 0.02026698
000080 2e 21 2c bd 7e f5 59 bd fd 89 82 3f 5c 37 55 bd
       -0.04202383 -0.053212635 1.0198361 -0.052054748
000090 02 87 0f bd ac 60 42 3d a9 0f a2 3c b0 e4 03 bd
       -0.035040863 0.047455475 0.019782858 -0.032200515
0000a0 4b fc 98 bf 12 a3 f9 3b 19 ad 87 3d 9d b1 e4 3c
       -1.1951994 0.0076183164 0.06624813 0.027916724
0000b0 78 51 cc bc 4e 1c a8 bc 1b 17 66 3b 5e 4d 22 be
       -0.024941191 -0.02052131 0.0035108987 -0.15849826
0000c0 a3 b3 9f 3a df 6a a3 3d fd 9d 38 3f 29 b1 48 bc
       0.0012184273 0.079793684 0.7211607 -0.0122492695
0000d0 0c d0 1d bd 78 f0 e8 bc 76 16 af bc c9 23 52 bd
       -0.038528487 -0.028434977 -0.021373015 -0.05130366
0000e0 47 cb ee 3c c4 f0 ad bc 42 ca a1 bc 13 ae ed 3d
       0.029149665 -0.02123297 -0.019749764 0.11605468
0000f0 85 76 dd bb a5 cf 4a 3e 12 c1 da bc 78 73 05 bc
       -0.0067585134 0.19805773 -0.026703391 -0.008145206
000100 9e fc e2 bc dc 79 14 bd a8 84 51 3f 5f 54 a0 3e
       -0.027708348 -0.036249027 0.8184304 0.3131437
000110 e4 e5 03 3d 17 c3 a4 3b d4 c4 4a bc 8a 89 69 3d
       0.032201663 0.0050281393 -0.012376029 0.057015933
000120 a5 5e ab 3d 12 d5 5a bd 8a 8f 20 3d ee 4e 8e 3d
       0.083676614 -0.053425856 0.03919939 0.069486484
000130 a2 4f 0e 3f b0 c2 63 3f 59 cf 7c 3d ba 7e 9b bc
       0.5559026 0.88968945 0.06172118 -0.018981326
000140 46 4d f3 3c 4b be d4 bc 11 dc b3 bb c8 af 71 3d
       0.029699933 -0.025969645 -0.0054888804 0.05900553
000150 86 8c 2c 3e 55 0f f2 3c 0f 26 c6 3c 6f 9e 9d 3c
       0.1685048 0.029548327 0.02418807 0.019240586
000160 38 41 28 3c b2 53 99 bc 3b c0 da bc c7 1c f4 3e
       0.010269456 -0.018716667 -0.02670299 0.47678205
000170 7e 4b 8c 3c f4 65 dd be 1b e9 40 3d 04 b1 86 bc
       0.017125841 -0.43241847 0.047097307 -0.01644183
000180 90 b4 73 bd 5c 80 37 bd 58 3d 51 3d 50 74 39 3c
       -0.05949837 -0.044800147 0.051083893 0.011319235
000190 1f b3 3b bf f7 75 8f 3b 69 2b e6 b9 b0 dc a8 3c
       -0.7332019 0.004378076 -0.00043901362 0.020613045
0001a0 b3 b3 2d bf d6 e4 b8 be 6b 20 08 bf f2 a2 2c bd
       -0.67852324 -0.36112088 -0.53174466 -0.042147584
0001b0 78 f0 1b bd 66 ed d6 bd 5e dc 23 bd 74 d2 4b 3b
       -0.038071126 -0.10494499 -0.04000508 0.0031100782
0001c0 db 82 17 bb d5 08 f4 bb a2 0d 6f 3c 0c cc be 3c
       -0.0023118767 -0.007447342 0.014590653 0.023290657
0001d0 c6 bd 7f 3d ba 8a 97 bc 2f ed 1f be 69 d4 82 3c
       0.06243684 -0.018498767 -0.15617822 0.015970426
0001e0 4e 10 1f 3d 55 0d 77 bc c0 dc 5b bd 38 7b f2 3c
       0.03883391 -0.015078862 -0.05367732 0.02959977
0001f0 90 47 49 bd 34 73 88 bb 93 68 d6 3c 90 bb 2f bf
       -0.049140513 -0.004164124 0.026172912 -0.6864557
000200 3d 0b 0a bd 49 b9 e0 3d 6c 03 12 3e b2 a5 e2 bc
       -0.033702124 0.1097284 0.14259118 -0.0276669
000210 4a 21 9c bd 00 8e 2d 3b a9 4a e5 3c ef ae c7 be
       -0.07623537 0.0026482344 0.027989702 -0.3900065
000220 3c f0 3f bd 71 21 70 bd af aa 21 3d 1a 28 b0 3c
       -0.046859965 -0.058625642 0.039469417 0.021503497
000230 94 6b 9c 3c 5c 04 b5 bc e8 f4 50 3d e3 97 a4 3d
       0.019094266 -0.022096805 0.05101481 0.080367826
000240 b6 b0 b8 3e 90 48 f2 bb ec 6e 50 bd f4 35 81 bd
       0.3607232 -0.007393904 -0.050887033 -0.06309119
000250 ab 1d 26 3d 78 0d 5a 3d cb b8 c7 3b f6 da 0d bd
       0.040555637 0.0532355 0.006095027 -0.034632646
000260 4a 4b a3 bc 22 6e ad bb f8 f0 2c 3c e7 04 5b bd
       -0.019933362 -0.00529267 0.010555498 -0.053471472
000270 96 7c 1d 3f a8 88 7e bd c3 6c c2 bd 66 17 ac 3e
       0.6151823 -0.062142044 -0.09493401 0.33611602
000280 f5 5c 8d 3b 64 4a 7a bd 04 6f c9 bc 4a d0 60 bd
       0.00431406 -0.0611061 -0.02458907 -0.05488614
000290 fe da 76 3f df e6 38 3e 70 24 2d bd e1 43 45 bd
       0.96427906 0.1805682 -0.042271078 -0.048160437
0002a0 88 19 2c 3d e1 35 73 bf fd f1 9e 3e 54 e2 d8 3a
       0.042016536 -0.9500409 0.31043997 0.0016546943
0002b0 62 a0 37 bd 1e e3 c7 3d de 8e 02 bd 24 e2 61 be
       -0.044830687 0.09760116 -0.03187453 -0.22058922
0002c0 a3 5f e2 3c 5f b6 d2 3e 05 4f 4d bd bf cd c5 bd
       0.027633494 0.41154763 -0.050124187 -0.096583836
0002d0 58 2a e3 be bb 7f 6e 3f 00 95 13 bc 78 4b 6d bc
       -0.44368243 0.9316365 -0.009007692 -0.014483325
0002e0 4e 98 e9 bc 42 7d e8 3e c8 63 04 3d 3b 48 2d 3f
       -0.028515007 0.45408064 0.03232172 0.6768834
0002f0 8e e1 a4 3e 1f 1d df bd 8a df 47 bd 20 7c 11 3f
       0.32203335 -0.10894226 -0.048797168 0.56830025
000300 7e 21 77 3d 40 8c e9 3c 4d 8d 49 bc 78 07 34 3c
       0.060334675 0.02850926 -0.012301755 0.010988109
000310 2b 02 f6 bd f9 45 34 bd 1d 27 9a 3d b0 6d cf 3c
       -0.12012132 -0.044012044 0.075269915 0.025320858
000320 a2 29 dd 3c d4 5f 06 bd 68 c4 9f 3c 88 19 74 3d
       0.026997391 -0.032806233 0.019502833 0.05959466
000330 4a 76 95 3d 39 9f 7e bd c7 3c 20 be 6b 43 48 3c
       0.072979525 -0.062163565 -0.15648185 0.012223105
000340 63 7b af bc a1 50 15 bd 69 44 3b bc 84 b2 9b 3d
       -0.02142114 -0.036453847 -0.0114298845 0.076024085
000350 18 0d 2c 3c 22 74 63 bd b0 6e 5d 3d ee 01 19 bd
       0.010501169 -0.055530675 0.054060638 -0.037355356
000360 d5 8e 01 bd e8 d2 d0 3c 71 3e 96 bc fc 67 1d 3d
       -0.031630356 0.025491193 -0.018340321 0.038429245
000370 bb e8 36 3d 20 d1 69 3b d5 39 4d bd 40 ea fc be
       0.044655543 0.0035677627 -0.05010398 -0.4939747
000380 a9 3e df 3e 29 af 2c bd 1c dd 23 be 77 e6 91 bc
       0.43602493 -0.042159233 -0.16002315 -0.01781009
000390 1d 3f 73 bd a0 3e 11 bd ea b6 c6 3c ea c2 1d bd
       -0.05938636 -0.035460114 0.024257142 -0.038515963
0003a0 a2 13 32 3f 28 dc e0 bd 6c a7 ab bc bb 26 8f 3f
       0.6956121 -0.109794915 -0.020953856 1.1183695
0003b0 38 32 91 3b c6 1f 6b 3f 6e 88 ef bd a0 4b 3e 3c
       0.0044310354 0.9184536 -0.11695944 0.01161471
0003c0 84 7c a3 be 3a c2 7d bd fc c7 5c 3d d6 96 9c 3c
       -0.31930935 -0.061952807 0.053901657 0.019114893
0003d0 3e 07 1c 3d a6 1c da 3e 78 3b ac 3e ca c2 27 3c
       0.038092844 0.42599982 0.3363912 0.010239312
0003e0 85 4d e3 3e 00 ed f7 39 f2 25 b3 be 10 9b 84 3c
       0.4439508 0.0004728809 -0.34989887 0.01618722
0003f0 83 a0 4d 3d 74 e2 9e bc 2d f0 d7 be 66 e2 88 3c
       0.050201904 -0.01939509 -0.42175427 0.016709518

linear4.weight f4 [256, 256]
000000 25 61 d0 3c c6 58 67 3d cf d0 55 3d ee e3 2c bd
       0.025436947 0.056481145 0.05220109 -0.04220956
000010 8c e8 17 3d 14 bf d1 bc bf 3c 05 3d 5d 79 99 3c
       0.03708701 -0.025603808 0.032528635 0.018734628
000020 76 ab 66 bd ae a2 5c 3d c6 47 cc 3c 55 ca 91 3c
       -0.05631586 0.05386608 0.024936568 0.017796675
000030 b0 02 61 3c 15 ce c1 bc cc 19 76 bd 4a e5 24 bd
       0.013733551 -0.023657838 -0.060083196 -0.04025773
000040 60 e0 23 3d 5b 1c 2a bd e8 b7 9f 3c 9a 3f 34 bd
       0.040008903 -0.041530948 0.019496873 -0.044005968
000050 81 51 81 bd 14 bc e5 3c 1a f9 8f 3a 5a 44 a7 3c
       -0.06314374 0.028043784 0.0010984272 0.020418335
000060 40 a3 01 bd a2 ab 1e 3d 25 66 1e 3d 35 ea 2c bd
       -0.031649828 0.0387379 0.03867163 -0.042215545
000070 c0 e6 89 bc 44 5e 74 bd d0 ea d0 bc f2 9e 4c 3d
       -0.016833663 -0.05966021 -0.025502592 0.04995627
000080 d6 5c 63 3d 70 80 8f 3b 59 52 c1 3c 1a e6 4c bd
       0.055508457 0.0043793246 0.023598837 -0.05002413
000090 10 8a 63 3c 08 c6 49 bd 0a 4a 9e 3c a0 7b 6f bc
       0.013887897 -0.049261123 0.019322414 -0.014616877
0000a0 05 32 45 bd 35 0c a7 bc 3c 10 a0 bb a2 95 66 3d
       -0.048143405 -0.020391563 -0.004884748 0.056295045
0000b0 69 a2 46 3c 3f c6 fe 3b 80 e1 d6 3a 2b 3f aa 3c
       0.012123683 0.0077750976 0.0016394109 0.020782074
0000c0 a5 eb 84 3a 3a 42 c9 3c 62 4e d7 bc 9e 0d 65 3d
       0.0010141028 0.024567712 -0.026282493 0.05592119
0000d0 00 02 df 3c 75 e9 8b bd d3 83 2c 3d a8 ee 93 3b
       0.027222633 -0.06831638 0.042117905 0.004514534
0000e0 76 50 01 bd f4 81 d6 bc d8 eb 6b bc 0b 98 d5 bc
       -0.031570874 -0.026185013 -0.014399491 -0.026073476
0000f0 23 9b 37 bc 53 7f 2d bd bd cd 6e bb 0c fc c4 3c
       -0.011206421 -0.042357754 -0.0036438548 0.024045967
000100 6f 6b 6f 3b 22 30 83 bd f9 45 dd bc e0 ac 6e bc
       0.0036532541 -0.06405665 -0.027010905 -0.014567584
000110 06 29 b6 3c ca 45 6a 3d 4a e9 7b bc 54 8c c3 bc
       0.022236358 0.057195462 -0.015375445 -0.023870625
000120 22 3a 8e bc f6 35 12 bd a0 0b 26 3d 5e a0 43 3c
       -0.017361704 -0.035695992 0.04053843 0.01194009
000130 21 59 34 bd f8 52 c1 3c 23 7a 71 bd 85 79 37 bd
       -0.044030312 0.023599133 -0.05895437 -0.044793624
000140 9a 9e 69 bd b0 52 0a 3c e0 d8 f3 bc 90 a8 e3 bc
       -0.05703602 0.008442566 -0.0297665 -0.027790338
000150 7d f1 19 3c fe 68 21 bc 5c fc 0b bc 47 0f ad bc
       0.009395954 -0.009851692 -0.008544054 -0.021125449
000160 96 e4 36 3d 85 06 a8 3c 7d ab 62 bd 92 38 11 3c
       0.04465159 0.020510921 -0.055339325 0.008863585
000170 a0 ea f8 3a 6d 84 91 3b cf 5e 24 3d 51 15 ab bb
       0.0018990822 0.004440835 0.04012948 -0.005221047
000180 b0 0a 31 3d 0c 3f 8d 3c f1 01 90 3c f8 cd 55 3c
       0.043223083 0.017241977 0.01757905 0.013049595
000190 31 dd 3e bc c5 f7 45 3d bd 44 4a 3d a9 4b 31 bd
       -0.011649416 0.048331995 0.04938196 -0.043285046
0001a0 40 cf 51 bd d9 6e cd bc 53 a3 07 3d 93 22 3b 3d
       -0.05122304 -0.02507727 0.033114742 0.04568727
0001b0 a4 50 dd 3c 9f df 06 bc f8 51 d7 3c 8b f5 f4 bc
       0.027015992 -0.008232026 0.026284203 -0.02990224
0001c0 97 2a 40 bd e0 2b 41 3d 49 e2 0a bc a0 5b 74 3b
       -0.046915617 0.047160983 -0.008476802 0.0037286058
0001d0 b0 cc 0d bc 4d 89 68 bd 16 c6 b0 3b 11 99 d6 3c
       -0.008654758 -0.056771565 0.0053947074 0.026196035
0001e0 a8 f3 b6 bc b3 a7 a6 3c 38 b4 eb bc 66 70 44 bd
       -0.022332981 0.020343637 -0.028772458 -0.047958754
0001f0 18 27 ca 3c cf cc 04 bd 5f 9d 5d bd 33 18 7d bd
       0.024676844 -0.032421883 -0.05410516 -0.061790656
000200 1b ce fb 3c ee 43 83 bd 83 2d 46 3d f1 04 32 bd
       0.030737927 -0.06409441 0.048383247 -0.043461744
000210 38 6a 37 3c 04 d0 9c 3c 57 1a 1c bb 94 d7 c1 bd
       0.011194758 0.019142158 -0.002381941 -0.094649464
000220 0a 91 55 3d a3 09 34 3d d4 4c 9d bc 5c de 41 3c
       0.052140273 0.043954503 -0.019201674 0.0118328
000230 3a a2 19 bc ae 58 de 3b 7d eb 66 3d 3e 00 2c bd
       -0.009377057 0.006785474 0.056376923 -0.04199242
000240 d6 cd 42 3d 54 e2 80 bc 06 76 5e 3d 1c c4 3e 3d
       0.04755958 -0.015732922 0.054311775 0.046573743
000250 3f e9 ac 3c 34 e3 08 bc 32 07 59 bd 6e 05 45 3d
       0.021107314 -0.008354951 -0.052985378 0.04810088
000260 0f c2 a9 3b 37 f9 4f 3c 22 84 68 3d a6 92 ae 3c
       0.0051806043 0.012693695 0.056766637 0.021310162
000270 cf 7d c4 bc e4 86 f9 bc c6 11 66 bd 22 a0 cd 3a
       -0.023985771 -0.030459829 -0.056169294 0.0015687982
000280 37 cd fd 3c d3 ae 0f 3d 81 4e c0 bc 40 8f 9e bb
       0.030981643 0.035078835 -0.023474934 -0.004838854
000290 29 8d 33 3c 9a 19 e1 3c 75 42 94 bd 6d f6 35 bd
       0.010958948 0.027478028 -0.07239238 -0.044424463
0002a0 47 b2 8b 3c db 96 eb ba a6 80 1f 3d e3 98 36 bb
       0.017052783 -0.0017974036 0.038941048 -0.0027862124
0002b0 e4 5a d0 3c b8 4a 82 bd e4 71 53 bd 7c a4 e7 bb
       0.025433965 -0.06361908 -0.051622286 -0.0070691686
0002c0 a2 2d 8e 3c 55 72 31 3c b1 d2 78 3d 5e 78 47 3d
       0.017355744 0.010830482 0.060747806 0.048698775
0002d0 1b 4b ea 3c 0c 2e ad bd 66 66 77 bd a8 5f de bc
       0.028600266 -0.08456048 -0.06040039 -0.027145222
0002e0 1b 8b 54 3d 74 c4 53 bd 4a a1 35 3c da 7a 04 bd
       0.051890474 -0.051701024 0.011085818 -0.032343723
0002f0 69 90 7c bb e4 db fe 3c cb 45 3a bc 34 dc 54 bd
       -0.0038538224 0.031110711 -0.011369179 -0.051967815
000300 9c 12 03 3d c4 92 e9 3c 35 f4 b0 bc 8a 9e 70 3d
       0.03200017 0.028512366 -0.021600822 0.058744945
000310 c3 f6 41 bd 5b 18 a6 3b 34 e4 2a bd 39 a4 be bb
       -0.04735447 0.0050688214 -0.041721538 -0.0058179167
000320 90 c8 c9 3c 0a 61 48 3d 7e c1 78 3d 74 c8 0a bd
       0.024631768 0.04892067 0.060731404 -0.033882573
000330 e5 d2 55 3d dd ff 06 bd 66 63 ee bc 22 58 59 3d
       0.052203078 -0.032958854 -0.029100131 0.053062566
000340 96 ea 55 3d 25 c7 49 3d d8 0e 58 bd e0 59 49 bd
       0.05222567 0.049262185 -0.05274853 -0.049157977
000350 fa a4 25 bd 2f 4c f7 bc b4 52 c6 3c 98 ba 80 bd
       -0.040440537 -0.030187694 0.024209358 -0.0628559
000360 e2 9a 02 3b 1c 9f c5 bc dc a3 3d 3d 8f 4f f7 3c
       0.0019928743 -0.02412372 0.046298847 0.030189304
000370 0a 79 44 bd 34 76 d5 3c 58 b4 93 3c 40 42 38 3c
       -0.047966994 0.02605734 0.01803033 0.011246264
000380 74 8a 91 3c f7 73 31 3c 99 df 27 3d 2c 5d cb bc
       0.017766215 0.010830871 0.040984724 -0.024824701
000390 00 81 d3 bc 60 9e 33 3c 5b cb 06 3d 00 cd 0a ba
       -0.025818348 0.0109630525 0.03290878 -0.00052948296
0003a0 61 42 67 bd d6 6f ef 3c a0 0f 2e bd 55 10 71 bd
       -0.05645979 0.029228132 -0.04249537 -0.058853466
0003b0 74 80 9a bc 31 84 f9 bc b1 24 91 bd 54 08 7f bd
       -0.01886008 -0.030458542 -0.070870765 -0.0622638
0003c0 8d b4 1c bc bb ea 74 bd fc 73 e4 3c 72 42 13 3c
       -0.009564531 -0.05979417 0.027887337 0.00898801
0003d0 9f 9e f4 bc 27 a5 eb 3c f1 50 58 bd b9 6a 72 bd
       -0.029860793 0.028765274 -0.052811567 -0.05918381
0003e0 50 1b 03 bc 18 de 31 3c 45 d6 43 bd fd 48 b8 3c
       -0.008002117 0.010856174 -0.047811765 0.022495741
0003f0 c8 2e f4 3b 0f 9c 22 bd 50 ed 14 bd 90 dd f3 bc
       0.007451866 -0.03969961 -0.03635913 -0.029768735

linear4.bias f4 [256]
000000 e5 68 af bd 5f 08 f5 bd 02 0b dc bc f0 26 a1 3e
       -0.08564929 -0.11964487 -0.026860718 0.3147502
000010 a6 a0 35 3f e4 ed 64 be 1d 26 d3 3c c7 2e f9 3d
       0.70948255 -0.22356373 0.02577501 0.12167125
000020 63 9a 42 bf 8e 18 38 bd bd 3a 31 3f 37 1d 2f bf
       -0.76016825 -0.044945292 0.6923025 -0.68403953
000030 72 4d 21 bf b9 d6 1b 3d a5 82 e7 be 93 ff 3a 3f
       -0.630088 0.038046572 -0.4521686 0.73046225
000040 86 af 77 bd 38 83 41 3f 71 4f 94 3d 66 29 61 bb
       -0.060470127 0.7559085 0.07241715 -0.003435695
000050 8f fb 9a be 05 67 19 bf 9d 80 09 3e 02 f3 2f 3f
       -0.3027005 -0.5992282 0.13427968 0.68730175
000060 76 ff 1f be a5 4f f3 3d 3f 58 82 3e 9b dd e1 bc
       -0.15624794 0.11880425 0.2545795 -0.02757149
000070 a0 07 8a 3c 64 45 b9 3b d7 17 f7 3e 62 e7 1d bf
       0.016849339 0.005654024 0.48260376 -0.6168119
000080 87 e5 14 bf ab bf 5f 3e 4e d2 08 3f a4 35 c4 3e
       -0.5816273 0.2185046 0.534459 0.38322175
000090 e7 28 19 bf 58 de cd be 31 fd 53 3f 4a c0 d1 3e
       -0.5982804 -0.40208697 0.82808214 0.40967017
0000a0 dc 85 ac 3e c6 5e 66 3f 34 da ee 3e 21 3f 0e 3f
       0.33695877 0.8998836 0.4665085 0.5556508
0000b0 96 ab 5a 3f d8 60 12 bf 1a 78 49 bf 87 fb 8a 3e
       0.8541807 -0.5717902 -0.78698885 0.27145025
0000c0 08 d6 d6 bd 3f d4 2f bf 26 fd f5 bc b9 8e 17 bf
       -0.10490042 -0.68683237 -0.030027937 -0.5920215
0000d0 0d db 1d bf 5d e9 40 3f 3c 37 cd 3a 5c 87 2a 3f
       -0.6166237 0.75356084 0.001565672 0.6661279
0000e0 d6 c3 16 bf 83 76 8a 3e e4 93 41 3f f9 5f 90 be
       -0.5889257 0.27043542 0.7561629 -0.2819822
0000f0 20 9f 02 3f ec 3f 3b bd 52 47 fe 3e 6a 26 34 bf
       0.51024055 -0.045715258 0.49663788 -0.70371115
000100 2e 90 0d 3f aa e7 fd 3d c4 36 08 3d f2 a4 ce 3e
       0.55298126 0.12397702 0.033255354 0.40360218
000110 03 7d ff bb 08 ff 11 3f ef fe 5a bf 7e 9d 1b bf
       -0.007796885 0.5702977 -0.8554525 -0.6078719
000120 16 99 09 3f 4e aa 58 3f fc 60 21 bf 82 ec c3 3e
       0.53749216 0.84634864 -0.6303861 0.3826638
000130 b0 9b d1 3e 05 09 e1 be 6d 6a 74 bd 19 6a 26 bf
       0.40939093 -0.43952194 -0.059671808 -0.6500564
000140 2f 08 43 bc 67 06 bc 3e 4d e6 ca 3e 95 59 20 3f
       -0.011903807 0.36723635 0.3962883 0.6263669
000150 d8 d1 f6 3c 3f 76 cc bd 00 48 03 3f 7b 02 18 bf
       0.030129358 -0.09983491 0.5128174 -0.59378785
000160 84 06 1e 3d 52 63 6a 3e 3f b2 72 3e 27 ca 7b 3e
       0.038580433 0.2288945 0.23700808 0.24588834
000170 75 bf 1b 3f 33 ad ac be 97 31 9e be ee e7 d8 be
       0.60839015 -0.3372589 -0.3089721 -0.42364448
000180 33 ad 0f 3f 32 d7 47 3f ec 41 28 bf 80 08 89 be
       0.56123656 0.78062737 -0.6572559 -0.26764297
000190 28 04 a4 be 46 2b 09 3f 59 72 06 3e 50 0f a6 be
       -0.3203442 0.53581655 0.13129558 -0.32433558
0001a0 ea 7a 18 3e 15 9d 37 bd 69 0e 0d 3f cd 10 80 be
       0.14890638 -0.04482754 0.55100113 -0.25012818
0001b0 6f 1a f3 3e 9f f8 45 3e ba 97 10 bd 13 08 ee be
       0.47481105 0.19333123 -0.035300948 -0.46490535
0001c0 a7 9f 01 3d ef 7f eb 3e b4 27 05 3f c6 25 48 3f
       0.031646397 0.45996043 0.5201371 0.7818264
0001d0 20 31 18 be 59 04 51 3d d6 57 18 bf be 55 4c 3d
       -0.1486249 0.051029537 -0.59509027 0.049886458
0001e0 1c 67 1e be 98 9a f6 3e 32 04 26 3f bf 2b ab bd
       -0.1546902 0.4816482 0.6485015 -0.08357953
0001f0 b8 80 49 bd 0d 6f 2b bf d6 2f 09 be 16 00 e0 3c
       -0.04919502 -0.66966325 -0.13397154 0.027343791
000200 9b f8 af 3e dc a7 e6 bd fa 1a 74 3e 8c f9 17 3f
       0.34369358 -0.112624854 0.23838416 0.59365153
000210 51 9a 26 bf c7 f7 30 3e 58 9d 03 3e ad e7 00 3f
       -0.6507922 0.1728202 0.1285299 0.5035351
000220 27 01 28 3e 8f 87 40 3e 5d 0c b6 3c cd f7 31 bf
       0.1640669 0.18801711 0.022222692 -0.6951874
000230 74 2c ca 3e d7 3c 86 3d 47 71 3e bf 52 ae 25 3f
       0.3948704 0.06554573 -0.743916 0.64719117
000240 e6 2d 02 3f f1 fa a5 bc bc 6d 1c 3f 32 e0 75 bc
       0.50851285 -0.02026126 0.6110494 -0.015007066
000250 44 fa 12 bf f4 be 5c bd 7a 12 23 3f d9 9e f4 be
       -0.57413125 -0.053893045 0.6370007 -0.4777744
000260 e0 ea 0b 3f 7e a4 36 bf 9a d7 19 be 40 a5 26 be
       0.54655266 -0.71344745 -0.15023652 -0.16273975
000270 5c fe c8 3d 27 38 7a 3e e6 d1 94 3e c4 47 f1 3e
       0.0981414 0.24435483 0.2906639 0.47125065
000280 ad 85 19 3f 4e 3b 92 bb fe 0b 00 3e 59 7f 0b 3f
       0.599696 -0.004462636 0.12504575 0.5449119
000290 ca d5 13 bd 49 be 9a be 97 01 2b bd f2 db b4 be
       -0.036092557 -0.302233 -0.041749563 -0.35324055
0002a0 1a 97 e0 3e 74 3f ed bc 8b dc 1e 3f 50 9c 54 3f
       0.4386528 -0.02896092 0.6205527 0.83051014
0002b0 fe 56 1e 3f 17 fa e6 3d fe e7 c2 3e e0 7b 15 3f
       0.6185149 0.112781696 0.3806762 0.58392143
0002c0 d7 97 cd 3c 12 05 67 bd b5 50 a5 3e 5f ef 14 3f
       0.025096817 -0.05640132 0.32288137 0.5817775
0002d0 ff 4a fd bd 16 ec b5 3e f2 c8 b2 3b 87 f3 0c 3b
       -0.1236782 0.35531682 0.0054560835 0.0021507458
0002e0 fb 26 a5 bd c6 cf 5e bd 9a 1d 4a bd b1 ef 2e 3f
       -0.080640756 -0.054397367 -0.049344636 0.6833449
0002f0 bf 6e ca 3e 27 e8 fb be e8 57 3b bd 59 75 ca 3e
       0.39537618 -0.49200556 -0.04573813 0.39542654
000300 8c f6 3d 3f 6b d1 7c be 68 5d 86 be 9e 29 27 3e
       0.74204326 -0.24689262 -0.26243138 0.1632447
000310 15 b3 25 be cc 12 68 3f 5a 70 c2 3e e1 b6 c6 3e
       -0.16181596 0.9065368 0.37976342 0.388114
000320 12 eb 47 3f 31 4e 08 3f 48 b4 9d 3e a4 d1 c8 bc
       0.78093064 0.5324431 0.30801606 -0.024514027
000330 bd 30 df 3e 74 01 d3 bc e9 11 11 3d 3f 36 0e bf
       0.43591872 -0.025757529 0.03541747 -0.5555152
000340 03 47 83 3e 94 4c 31 bf 66 98 86 3e fb eb 6d bd
       0.25640115 -0.69257474 0.26288146 -0.058086377
000350 61 d1 71 bb 9e 36 1e bf 9c c8 fb bb d4 f9 c0 3e
       -0.0036898481 -0.6180209 -0.0076838266 0.37690604
000360 9b dd 83 3e d2 5e aa 3e c3 19 ec bd e9 a4 87 3e
       0.2575501 0.33275467 -0.11528351 0.26493004
000370 f4 5a 86 3e 4e 1a 7e be 69 f2 24 3f d2 ff 0a 3f
       0.26241267 -0.24814722 0.6443239 0.542966
000380 44 13 1f bd 0c 35 7b 3e 74 e0 ef bd 07 cf 04 3e
       -0.038836733 0.24531955 -0.11712733 0.129696
000390 59 d3 ee 3e 9e 2d 2b 3f f4 47 04 bf 1a 86 18 bf
       0.4664562 0.6686648 -0.5167229 -0.5957962
0003a0 c0 ae 13 3e cd 44 68 3f 4e 42 8b be aa 13 94 3e
       0.1442213 0.9072998 -0.27199024 0.28921252
0003b0 46 4b d2 3e 19 7a 12 3f ce bf 25 3e 08 b7 c6 bc
       0.41073054 0.57217556 0.16186449 -0.024257198
0003c0 e1 66 6a 3d 40 cc fa bd 5e 18 81 3e 78 d4 12 bf
       0.05722702 -0.12245989 0.25213903 -0.5735545
0003d0 7c ef 32 3f f0 c7 56 3f 56 64 d0 3e 25 f6 23 3f
       0.69896674 0.8389883 0.4070155 0.6404746
0003e0 ce 6d 53 3c f3 2a f4 3e 9a ef 90 bd a4 fe 5e 3f
       0.012904597 0.47689018 -0.0707695 0.871073
0003f0 14 fc b5 3d 39 4b 66 3f e7 63 16 bf 7c e7 fe be
       0.08885971 0.8995853 -0.5874619 -0.49785984

linear3.weight f4 [1, 256]
000000 16 a7 f7 ba b3 94 ac bf a3 7b f2 bc d7 05 11 be
       -0.00188944 -1.3482879 -0.02959997 -0.14162384
000010 1f 2e 35 3e e8 d6 8d 3d ce d8 a2 bd d9 0e 33 bd
       0.17693375 0.06925756 -0.079515085 -0.04371533
000020 f8 88 39 3e 4c 33 85 3c cb a3 a1 3d 0e 92 2c be
       0.18118656 0.016259812 0.07892569 -0.1685259
000030 06 42 80 be 59 3e f5 bc 42 cf b2 3d 1f 8c 0a 3f
       -0.25050372 -0.029936956 0.087309375 0.5412006
000040 41 2c 48 bc 6b 1a 89 3e 69 f1 5c bd 59 c0 7f bb
       -0.012217582 0.26777968 -0.053941164 -0.003902456
000050 ea 2d c8 3e fa 05 81 be 12 b2 ff bd a1 6a f5 3d
       0.3909753 -0.25199872 -0.12485136 0.119832285
000060 a8 d1 1e 3e d9 8d 82 3d 00 49 e8 bd 78 4a 16 be
       0.15509665 0.063747115 -0.11342049 -0.14676845
000070 b0 b8 ba 3e 67 84 91 3e b4 9c 73 bd 2b be af 3d
       0.3646903 0.28421327 -0.059475616 0.085811935
000080 9d 30 91 3d 4c 97 1e 3b 19 48 89 bd dc 7d 48 bd
       0.070893504 0.0024199067 -0.06703205 -0.048948154
000090 40 ca 02 bd 89 6a f1 3e 05 18 ba 3e 2f 0e c2 3d
       -0.031931162 0.47151592 0.3634645 0.094753616
0000a0 24 26 dc be da 40 51 3e d6 7d 43 bd 00 95 63 3e
       -0.4299785 0.20434895 -0.04772743 0.22224808
0000b0 6f a1 58 3e 60 3f a8 be 9d b9 95 bf 8c 92 d6 bc
       0.21155332 -0.3286085 -1.169727 -0.026192926
0000c0 53 ce c3 be a1 de 18 be 6b f9 c4 bc 0b 72 6b bd
       -0.3824335 -0.14928676 -0.024044713 -0.057481807
0000d0 92 26 47 be 6e a5 07 3e 4c aa 27 bc 3f aa fb 3e
       -0.19448307 0.132467 -0.010233473 0.49153325
0000e0 1c ba fa bd 18 29 30 be bc 0c e0 3d 66 d1 02 3d
       -0.12242529 -0.17203176 0.10939929 0.03193798
0000f0 8f fa f1 bc 9d d9 8d 3e dd f8 89 3c bc d6 25 bf
       -0.029538421 0.27705088 0.0168423 -0.64780784
000100 be 5c 89 3d 75 b9 68 bf 35 1e 4b 3e 1b 37 e1 3e
       0.06707142 -0.90907985 0.19835742 0.43987355
000110 0a 0d 02 3e d5 7c 6b be 1b 64 88 be 3c b8 40 bf
       0.12700287 -0.22996838 -0.26638874 -0.7528112
000120 42 4e 5b bd 67 b5 41 3e 17 15 ca bc 44 5d 41 bd
       -0.05354143 0.18916856 -0.02466826 -0.047208086
000130 54 81 93 3f 2a e0 fd bd 16 e2 ff 3c 47 7f b3 bd
       1.1523843 -0.123962715 0.031235736 -0.087645106
000140 f6 3b e9 3c ed e3 9b bd 26 bd af 3e f3 d4 58 bd
       0.028470974 -0.07611833 0.34323996 -0.05293746
000150 ac b1 a2 3d 4b 63 d3 3c df 3b 43 3d 3b 2a 0f be
       0.079440445 0.025804183 0.04766452 -0.13980953
000160 5a f6 da bd 82 2b e1 bc 50 0c b6 be 6d 8b 2e bd
       -0.10691519 -0.027486566 -0.3555627 -0.042613436
000170 3b 34 1b be 14 25 36 be 91 b5 68 3d 94 55 25 3e
       -0.15156643 -0.17787582 0.05681378 0.16145927
000180 80 8d 5f 3e 5c c0 58 3e 24 57 4f be 7a 33 6b 3f
       0.21831322 0.2116713 -0.20248085 0.9187542
000190 be af 10 bf 4f d7 32 bd 7a 70 5d 3d ef 74 24 bf
       -0.5651816 -0.043662366 0.054062344 -0.64240927
0001a0 e7 3d 95 3d 9b bc b5 bc 00 0a 01 3e 93 12 a6 3c
       0.072871976 -0.02218466 0.12601471 0.020272529
0001b0 43 e7 0c bd 96 c7 4c 3d 53 8e 27 3a e9 a5 01 be
       -0.034400236 0.049995027 0.00063917524 -0.12660946
0001c0 88 84 ad bd 2a e1 b0 3d c7 18 55 3f db 76 e2 3d
       -0.08472544 0.08636697 0.8324093 0.11057826
0001d0 0b 9a c1 3d 07 da cd be 78 b9 36 be ea dc 3a 3b
       0.094532095 -0.40205404 -0.17844188 0.0028513023
0001e0 cf 4d de bd 47 9e 48 3d f3 0c a0 3e 92 a9 1e 3e
       -0.108546846 0.04897907 0.3125988 0.15494373
0001f0 4a ed ea bd ae 79 94 be fe 07 a5 3d 47 9e e4 39
       -0.114710405 -0.28999084 0.08058165 0.00043605475
000200 67 30 a3 be 2b 4d 30 3e c9 c3 90 3f 3f a4 a3 3e
       -0.31872866 0.17216937 1.1309749 0.31961247
000210 31 47 91 be 56 f1 73 be 42 2e d2 3d 30 64 87 be
       -0.28374627 -0.23822531 0.10262729 -0.26443624
000220 90 5b cc 3e f9 93 a0 3e 81 4b 12 bd 14 f9 1f 3e
       0.39913607 0.31362894 -0.035716537 0.1562236
000230 4e ac 77 be 28 ea 3c 3f 99 f3 27 bf 1c 8d 34 3e
       -0.24186823 0.73794794 -0.65606076 0.17631954
000240 47 38 1f bd c4 bd fd bc ef 44 b1 3d aa 16 10 be
       -0.03887203 -0.030974276 0.08655726 -0.14071146
000250 47 2a 84 bd 91 50 21 bb 14 94 c3 3e c8 96 ab bc
       -0.06453376 -0.0024614672 0.38198912 -0.020945922
000260 12 26 e7 3c ee 4a 1c 3e fc 92 b4 be fe 3c 98 3e
       0.028216396 0.15262958 -0.3526839 0.29734033
000270 e8 ca 3d be 7d e1 ce 3e 44 b4 89 bc d8 f4 a7 3e
       -0.18534434 0.4040641 -0.01680959 0.32803988
000280 c2 5f 49 3e 68 d2 f5 39 fa 40 a8 3e ca f1 99 3d
       0.19665435 0.00046886806 0.32862073 0.07516821
000290 4a 2b ca 3b ae 83 65 3d 34 b0 bf be ce 43 12 3e
       0.0061697112 0.056033783 -0.3743912 0.14283678
0002a0 c4 17 21 3e 1b 62 a3 bc 6e 06 6b 3e 22 7c a2 3d
       0.15731722 -0.019944241 0.22951671 0.07933833
0002b0 44 c6 87 3d 86 fc 0e 3e 22 26 7d be f0 fb 33 3f
       0.06629613 0.13963518 -0.24721578 0.703063
0002c0 fc 68 73 be 19 ae 0d be 3f ba 93 bd 8b a3 88 3e
       -0.23770517 -0.13835944 -0.07213258 0.26687273
0002d0 ae 78 47 3d c9 c5 d2 bd ba bb b3 3a d4 2c ba 3e
       0.048699073 -0.10291631 0.0013712563 0.36362326
0002e0 9a 22 b0 bd 44 b9 87 3c 1b 6f 45 bf 26 45 5d 3d
       -0.0860035 0.016567834 -0.7712266 0.054021023
0002f0 19 13 06 bd 68 65 85 3d 59 f8 8c bb 46 77 06 3d
       -0.032733057 0.06513482 -0.0043020663 0.03282859
000300 47 4e c0 3d 9c 81 89 3d 49 5d 60 bc 50 c8 06 3d
       0.0938993 0.06714174 -0.013694116 0.032905877
000310 6a bf 28 3d 9e 83 ea 3e eb 21 a1 bd 0e 7d fb bc
       0.04119817 0.4580354 -0.078677975 -0.03069928
000320 b7 88 0c 3e 35 55 17 3d d2 6c 06 3e f5 4c 09 3d
       0.13724028 0.036946494 0.13127449 0.033520658
000330 9e 9a 13 bd 7e 4e 74 3e 0e 34 0d bc 22 ea 81 bd
       -0.036036126 0.23858067 -0.008618368 -0.063434854
000340 3f 38 8e 3e 29 c8 cc bd 29 ea 97 b9 27 25 37 3d
       0.27777287 -0.09999115 -0.00028975427 0.044713166
000350 ef 85 2d 3d 9e 4e 31 be 96 d9 5a 3b df 1d 70 bd
       0.042364057 -0.17315146 0.0033393851 -0.058622237
000360 1d a2 1f bf d0 23 78 be c2 3a 37 be 8f 49 5d bd
       -0.6235674 -0.24232411 -0.17893508 -0.05402523
000370 c1 13 c7 3c 9d 36 a6 3b f0 53 48 3e cc 8a ee 3d
       0.024301412 0.0050724284 0.1956327 0.11647567
000380 1c 04 9b be 53 d2 a9 3d a0 e6 8a 3e df 93 bf bd
       -0.30276573 0.08292069 0.27129078 -0.09354376
000390 da c4 a2 3d 69 ab 2c 3f d6 be 11 be 4d 63 96 be
       0.07947703 0.6744905 -0.14232954 -0.29372635
0003a0 d8 44 11 bd eb 08 4f 3e 4d 43 0a 3e 1d 30 9b 3a
       -0.035466045 0.20218246 0.13502236 0.00118399
0003b0 b7 98 8c 3d a4 be 70 bd 26 cf 6e 3e 8e aa e2 3d
       0.068650655 -0.05877556 0.23321208 0.11067687
0003c0 67 98 ab bc 1a 73 03 3b 3b 98 fa be 31 51 86 be
       -0.020946695 0.002005762 -0.48944268 -0.2623382
0003d0 ac 0c a4 3e 8b f1 35 3e 64 58 f5 bc ab ab 18 3e
       0.32040918 0.17767923 -0.029949374 0.14909236
0003e0 5c b6 ec 39 9c 57 bd 3d 0f 52 12 bb 47 b0 29 3e
       0.00045149296 0.09245226 -0.0022326743 0.1657115
0003f0 19 3a 8a 3e aa 20 63 3e 36 1a 9a bd 5d ed a5 bf
       0.2699745 0.22180429 -0.075245306 -1.2963063
