outputs/Optimal_Control/20220325-174951/models/checkpoint.pt (torch, 533487 bytes, 7 tensors)

linear1.weight f4 [256, 2]
000000 92 99 d9 bd 28 d9 f3 3e 1c 8d 1f bf d6 dd a5 3e
       -0.10624994 0.47626615 -0.6232469 0.3239581
000010 c0 b2 c0 bc 20 1f d8 bd 30 63 a7 3e d3 d4 b0 be
       -0.023522735 -0.105528116 0.32692862 -0.34537372
000020 2b 68 19 bf bd c0 d7 be 43 8a f4 3d d1 03 0d bf
       -0.5992457 -0.42139235 0.11940434 -0.5508395
000030 54 93 fa 3e 62 93 8f 3e 64 7e 35 be e9 7e 22 bf
       0.48940527 0.28042132 -0.17723995 -0.634749
000040 8c 45 66 be 34 45 f5 be 39 c0 0b 3f d7 c4 56 be
       -0.22487468 -0.4790436 0.54590183 -0.20973526
000050 79 2d 2a bc 1c 9d 57 3e f9 3c 87 3d 07 39 c7 3d
       -0.010386818 0.21056026 0.066034265 0.09727674
000060 1d 3f 9d be f6 b5 2c bf 18 50 be 3e 2d 43 b4 be
       -0.30712214 -0.6746515 0.37170482 -0.352075
000070 c3 b2 15 3e 4f a9 86 3e 66 ac 0c bf 5e 6e 79 be
       0.14618973 0.26301047 -0.5495056 -0.24358508
000080 7c 76 31 be f6 45 10 bf 89 1a 0f bf 56 b4 20 3f
       -0.17330354 -0.5635675 -0.55899864 0.6277517
000090 2e fe 01 3f e5 06 51 bf 6f 87 25 3f 1d 31 1e 3f
       0.5077847 -0.81651145 0.6465978 0.6179369
0000a0 72 86 e2 be 0c db 1f bf 08 c9 0c be 2d 8c 33 bf
       -0.442432 -0.62443614 -0.13748562 -0.70135766
0000b0 7e 46 26 bf b2 5d ce 3e 48 df 08 3e 46 d5 19 bd
       -0.6495131 0.4030586 0.13366425 -0.03755691
0000c0 00 d8 12 bf c5 b4 0a 3f 64 54 f0 3e f5 08 fa 3d
       -0.5736084 0.5418208 0.46939385 0.1220874
0000d0 bf 12 8f 3e 4c da ae be 32 9b e2 be e5 b7 93 be
       0.2794399 -0.34150922 -0.4425903 -0.28851238
0000e0 1b a8 08 3e b4 f4 0f bf 4f fa e5 3d 83 68 05 bf
       0.13345377 -0.5623276 0.11229383 -0.521126
0000f0 26 0d 7d be d8 c7 b7 bd 50 01 31 3d 1b 33 39 be
       -0.24712047 -0.08973664 0.043214142 -0.18085901
000100 c9 a6 0b bf c1 6d 24 3f 93 df c2 be f0 f6 74 bd
       -0.5455137 0.6422997 -0.380612 -0.05980581
000110 13 5a 29 3f 4b a3 de 3e 15 50 1a 3f ed 57 c0 be
       0.6615307 0.43483958 0.60278445 -0.37567082
000120 14 a3 1e 3f ae 92 ef 3d 63 d6 25 3f cf 2b 0f 3f
       0.6196759 0.11697899 0.64780253 0.5592622
000130 a3 0f ce 3d 74 af 20 bd b7 0b 9e 3e ba 0b 22 bf
       0.10061576 -0.039229825 0.30868313 -0.63299143
000140 04 a3 dd 3e 0e 01 b6 be e9 ed d9 3e 4c 21 10 bf
       0.43288434 -0.3554768 0.42564324 -0.56300807
000150 e5 b9 17 bf 89 32 11 3f 78 a1 be be ac df c2 3e
       -0.5926803 0.56717736 -0.37232566 0.38061273
000160 97 04 9b be eb 0d d5 be 44 2e 71 be 78 f8 af be
       -0.3027694 -0.4161218 -0.23552805 -0.34369254
000170 09 ae 8d be 70 d8 a7 3d fc 1f 4d 3e 26 47 de be
       -0.2767184 0.08195579 0.20031732 -0.43413657
000180 49 a5 dd be 5e 68 56 be f9 9c c5 3e 6f 8a d9 be
       -0.43290165 -0.2093825 0.38596323 -0.4248843
000190 c8 f9 e9 3d 4c 7b ae bd 89 aa 05 3e 8e a6 02 3f
       0.11424595 -0.08519611 0.13053335 0.5103539
0001a0 b0 fb 9e 3e 4d a9 a1 be 04 ff 09 3e f5 db 11 bf
       0.31051397 -0.3157448 0.13476187 -0.5697625
0001b0 75 7d e7 3e 37 0e 2b 3f 07 e9 bd be 34 94 49 be
       0.45212904 0.66818565 -0.37091848 -0.19685441
0001c0 1a 4e ff 3e 28 10 b3 be 0b 9e f4 be 0f 85 1d 3f
       0.49864274 -0.34973264 -0.47776827 0.61531156
0001d0 9e d1 95 be 71 9b 95 3e 8d b5 c6 3e a6 31 cf 3e
       -0.29261488 0.29220155 0.38810387 0.40467566
0001e0 0d c1 a4 be 28 79 46 be ac 2b 68 be 6e d8 00 3f
       -0.32178536 -0.19382155 -0.2267291 0.50330245
0001f0 ec e7 27 be 08 ad 97 bd c3 7c 12 bf 1e 34 0d bf
       -0.16397065 -0.0740605 -0.5722162 -0.5515765
000200 b1 eb 88 ba 99 d0 d9 3e 80 39 05 bf 30 f2 2c bf
       -0.0010446218 0.4254196 -0.52040863 -0.6755705
000210 e9 15 cb 3e 6d 0a 86 3e 65 3b 8d be 61 44 18 3f
       0.39665154 0.2617983 -0.27584377 0.5947934
000220 72 27 ea 3e 55 67 0d bc 95 47 9b 3b 12 89 1a 3f
       0.4573322 -0.008630593 0.004738758 0.603654
000230 df ee b7 be 4f 20 2d bf cf 7f b3 be dc 39 2b 3f
       -0.35924432 -0.67627424 -0.35058448 0.6688516
000240 58 f8 0c bf 37 dd 03 3f e4 72 19 3f a9 24 21 bf
       -0.5506644 0.5150942 0.59940934 -0.62946564
000250 e7 ad c0 be ec 12 35 3e 00 a9 5f bc 11 3a 01 bf
       -0.37632677 0.17683 -0.013651133 -0.5047923
000260 cb a7 08 3e 5a f5 d1 3e cc 01 a7 be c2 4e c5 be
       0.13345258 0.410075 -0.32618558 -0.3853665
000270 33 0c 11 bf 30 3e 50 3e a8 33 cd be 8b e5 a2 be
       -0.5665924 0.20336223 -0.40078473 -0.31815752
000280 5e a7 bd bb 17 51 13 3f da 36 8d 3e 23 0b a6 3e
       -0.005787774 0.5754561 0.2758091 0.32430372
000290 36 0a be 3e 40 d0 be be a2 59 cb be 6c df 04 3e
       0.37117165 -0.37268257 -0.39716822 0.12975854
0002a0 66 a5 4b 3c 50 d2 6a 3e bb 0c 02 3f 5e 1a c7 3e
       0.012429571 0.2293179 0.50800675 0.38887304
0002b0 50 06 9f be 2b 6f 1d 3f 69 ef 30 bf f4 a8 7c be
       -0.31059504 0.61497754 -0.6911531 -0.24673826
0002c0 01 84 be 3e 98 d3 ec be b9 cc 39 be 6a f3 05 3f
       0.37210086 -0.46255183 -0.18144502 0.52324545
0002d0 b4 ee b6 3e 30 2c 41 bf 45 8f 32 bf 5a 6b e7 be
       0.3572899 -0.7545805 -0.6974986 -0.4519909
0002e0 cb b4 f1 3c 45 fe aa 3e 7d 42 2a bf 0f 39 00 3f
       0.029505154 0.33397117 -0.66507703 0.50087065
0002f0 b4 24 1b bf e0 01 e5 bd 1f f6 00 3f 67 75 04 bc
       -0.6060288 -0.11181998 0.5037555 -0.0080846315
000300 90 fc f8 b8 bc 86 ce be 4f ed 02 bf 77 bb 31 bf
       -0.00011872605 -0.4033717 -0.51143354 -0.69426674
000310 5f e7 a1 be 87 f1 d3 be bf 9b b9 be 92 49 ae 3e
       -0.31621835 -0.41395208 -0.36251637 0.34040505
000320 fb f7 e6 3d 70 9a 4b 3d 13 18 24 3f 64 51 27 3f
       0.11277767 0.04970783 0.64099234 0.6535857
000330 0c d4 15 3f 18 5d 34 bf c8 69 31 be 6f 0a 1b bf
       0.5852668 -0.7045455 -0.17325509 -0.60562795
000340 36 42 e0 3e da 9d 29 be 3d 6b a4 be 2c 92 3c be
       0.43800515 -0.16564122 -0.32113066 -0.18415135
000350 52 d3 14 bd d8 08 88 3c 8b f8 ab 3b 13 53 63 3e
       -0.036334343 0.01660578 0.0052481345 0.22199659
000360 36 04 aa be d8 1a bc 3d a4 7a 97 3e f5 74 e1 be
       -0.33206338 0.091848075 0.29585755 -0.44034544
000370 35 ff d3 3e b7 0a 96 3e 07 4e f2 3e ae 83 57 3e
       0.41405645 0.2930505 0.47325155 0.21046326
000380 c6 56 bc 3d 13 46 b7 3d a2 ce b3 be fd 41 0d 3f
       0.09196238 0.089489125 -0.35118586 0.55178815
000390 54 ae f1 3e 9c 29 3e 3e e8 00 0f bf 90 60 1c 3e
       0.47203314 0.1857056 -0.5586076 0.1527121
0003a0 89 60 7c be 93 86 ff 3e 40 f1 ab bd 2b 9d 2a bf
       -0.246462 0.4990736 -0.08395624 -0.6664607
0003b0 56 ec 1e 3f 95 42 26 3f c9 0d 27 3e c7 c7 09 bf
       0.6207937 0.64945346 0.16313852 -0.5382046
0003c0 58 c4 14 3e ba d9 a3 be 8a 0e e6 3e e9 4a a6 be
       0.14528024 -0.3200205 0.44932967 -0.32479027
0003d0 41 5b 17 3f c9 a8 23 3e 4f 50 27 3f 6b 58 5b bd
       0.5912362 0.15982355 0.65356916 -0.05355112
0003e0 4d 1e 83 3e 50 eb dc be e8 4e 03 be b0 24 cf 3d
       0.25609055 -0.4314828 -0.12823069 0.101144195
0003f0 cd 08 ee 3d 70 98 3b 3f 18 15 41 3e 27 aa 11 bf
       0.11622772 0.73279476 0.18855703 -0.56900257

linear1.bias f4 [256]
000000 9a 94 68 3f 9b 26 9b 3e ea c8 21 3f 5e ad 9d be
       0.9085175 0.3030289 0.63197196 -0.3079633
000010 c9 dd d9 be 24 e6 e8 3e dc ad 18 3f dc 81 83 3d
       -0.4255202 0.45488083 0.5964029 0.06421253
000020 24 d7 02 bf 30 ca fa 3e 66 6d 83 bf 7b e1 1b 3d
       -0.5110953 0.48982382 -1.0267761 0.03805683
000030 d4 99 2a be a0 2e 24 bf 4b 77 c2 3e 80 bf ac bc
       -0.16660243 -0.64133644 0.37981638 -0.021087408
000040 37 0e 06 3e 03 be 5c 3e 02 5e 0b bf 6f 0d 56 bc
       0.1309136 0.21556859 -0.5444032 -0.013064726
000050 53 b6 75 3e f1 ea 7d 3e 08 e2 a6 bd 7f 94 1a bf
       0.23995332 0.24796654 -0.08148581 -0.6038284
000060 a6 3a 9c 3e f9 70 53 3f ca f5 63 bf 8d bc 3f 3e
       0.30513495 0.8259426 -0.8904692 0.1872427
000070 2e fd c6 be 25 83 18 3f 02 41 10 bf 13 16 cc be
       -0.38865036 0.5957511 -0.56349194 -0.3986059
000080 a3 79 44 3f 2c 5d f9 3e 62 79 b8 be 8a f9 2f 3f
       0.767481 0.48703897 -0.36030108 0.6874014
000090 19 37 35 bf f5 6d 3b bf db 2c 56 bf f9 d6 7d be
       -0.707872 -0.73214656 -0.83662194 -0.24789037
0000a0 2b f6 c0 be 5e a0 72 bd c1 b6 b5 3d c6 ff 64 be
       -0.3768781 -0.05923497 0.08872748 -0.22363195
0000b0 a8 ee f2 3e 25 34 26 bf af 4a dc be f2 4a fd be
       0.47447705 -0.64923316 -0.4302573 -0.4947124
0000c0 71 99 25 bf 22 d8 ec be 36 20 11 3f 5f 37 10 bf
       -0.6468726 -0.46258646 0.56689775 -0.5633449
0000d0 aa 75 e4 be 9d 7d cc be 6b 74 41 bf fe c9 27 3f
       -0.4462102 -0.39939585 -0.75568265 0.6554259
0000e0 f3 28 c6 3d e7 f0 54 3f 9e 04 50 ba 27 83 44 3f
       0.09675779 0.8318009 -0.00079352583 0.7676262
0000f0 02 66 d9 be 8a 38 3a 3f 68 a8 8a be 71 36 e2 3d
       -0.42460638 0.7274252 -0.2708161 0.1104554
000100 26 6a 65 bf 50 5b f4 bd 73 f3 31 bf 88 86 68 3f
       -0.89615095 -0.11931479 -0.695121 0.9083028
000110 d8 5f 14 3f 32 70 e5 3e 7a 72 08 3f 18 fe 33 3f
       0.57958746 0.4481216 0.5329968 0.7030959
000120 b8 c2 b4 3e 1a 27 48 3f ac e0 15 bf a7 38 50 3e
       0.3530481 0.78184664 -0.5854595 0.20334111
000130 c3 1f 73 be 0f a2 aa 3d a1 e3 ee 3d 06 a4 04 3f
       -0.23742585 0.083316915 0.116645105 0.5181278
000140 a6 19 4e bd 62 4e 69 bf 4b 96 6d be f6 12 e7 be
       -0.05031743 -0.9113523 -0.23201863 -0.45131654
000150 7b d9 fa 3e 67 ab 67 3f f7 6a 4a 3f 51 96 59 3e
       0.4899405 0.90495914 0.79069465 0.21248747
000160 18 05 3d bf 29 d9 6f bf 83 6b cf 3e 54 c3 1a 3f
       -0.738359 -0.93690735 0.40511712 0.604543
000170 35 b7 00 be 87 cb 4c 3e f4 28 28 bf cb 26 6b bf
       -0.12569888 0.19999515 -0.6568749 -0.9185607
000180 ee b7 16 3e 0c 02 28 3f e4 4f 2f 3f 27 14 3d 3e
       0.14718601 0.65628123 0.6848128 0.18464719
000190 f6 67 2f bd 96 c8 54 bf ec 51 73 3e 7c 08 89 be
       -0.042823754 -0.8311857 0.2376172 -0.26764286
0001a0 01 55 ff bd a3 a4 27 bf 9e 91 46 3e 64 a1 2b 3f
       -0.12467385 -0.6548559 0.19391486 0.6704314
0001b0 46 33 39 3e 2e ad 4b 3f 59 ac 10 bf 25 98 6b bf
       0.18085966 0.79561126 -0.5651298 -0.9202903
0001c0 4c aa e3 bd 43 07 43 3f ea d0 b4 be 2c 3d c3 3d
       -0.11116466 0.76182956 -0.3531564 0.09533152
0001d0 00 c2 f5 be 27 c5 e5 be a0 1f a3 be 47 d7 ec 3e
       -0.47999573 -0.44876978 -0.31860065 0.46257994
0001e0 1e 81 c8 be 44 d0 9a 3e ec 62 71 3e e2 69 ed be
       -0.3916101 0.3023702 0.23572892 -0.46369845
0001f0 da 23 27 be fb c7 5b 3e 79 28 36 be 5b bf 9d be
       -0.1632227 0.21463005 -0.17788877 -0.30810055
000200 1d 09 24 3e 6a 12 d5 3e 89 50 a3 be 46 9c 1e 3f
       0.16019101 0.4161561 -0.3189738 0.61957204
000210 6f 96 4a bf b1 e0 b1 3e 6e b2 dd 3e d0 4f c2 3e
       -0.79135793 0.34741738 0.43300194 0.37951517
000220 ca 8b 45 bf a6 6f 21 3d a0 ab a9 be 5e 31 62 bf
       -0.77166426 0.039413117 -0.33138752 -0.8835658
000230 30 12 b7 bd 8e 59 44 3f 0f 83 8b bf a7 3f 77 3d
       -0.08939016 0.7669915 -1.0899371 0.060363438
000240 98 4b fc be 85 d2 05 bf e7 23 33 3f 48 9b d7 3e
       -0.49276423 -0.5227435 0.6997666 0.42110658
000250 93 42 2f 3f d0 77 18 3f 6a 4c ae be b7 37 b5 bd
       0.6846096 0.5955782 -0.34042674 -0.088485174
000260 23 30 ca be 3d 5b fc 3e 45 0e 15 3f 64 e8 57 3e
       -0.3948985 0.4928836 0.582249 0.21084744
000270 38 f5 f2 3e 00 34 51 bf ab 14 00 bf 0d bd 4c 3f
       0.47452712 -0.8171997 -0.50031537 0.7997597
000280 c4 02 30 be 5a 62 2a 3f a2 20 b1 3e b8 81 4b 3e
       -0.17188555 0.6655632 0.3459521 0.19873703
000290 ec e5 93 be c0 6a 02 bc 07 a2 b9 3e 51 3f fd bd
       -0.28886354 -0.0079600215 0.3625643 -0.12365592
0002a0 d6 f8 55 3f 13 5d 01 3f f8 f0 ec be 38 04 65 3e
       0.8358282 0.50532645 -0.46277595 0.2236489
0002b0 de ce e7 3e 01 e3 a8 be 21 26 5c 3e 6a bc 3d 3f
       0.45275015 -0.3298569 0.2149892 0.7411562
0002c0 d4 ee 05 3d fd d0 e9 3e 16 ed be 3e b5 8f 0a 3e
       0.032698467 0.45667258 0.37290257 0.13531382
0002d0 2c db 32 3f cf 21 12 bf 66 0a 3e 3f 19 48 0d bf
       0.6986568 -0.5708284 0.74234617 -0.5518814
0002e0 f0 6a 9c be 0b 3c 08 bf f2 38 b9 be 88 06 16 3f
       -0.30550337 -0.5321662 -0.36176258 0.58603716
0002f0 56 8e 1a 3f c2 9d 6e bf 8b d1 29 bf 95 61 10 bf
       0.6037344 -0.9320947 -0.6633536 -0.563989
000300 df 0a 0d bf da cc d9 3e 36 26 09 3f 40 d3 2c bc
       -0.5509471 0.42539102 0.5357393 -0.010548413
000310 a3 0a 14 bf 7e 88 93 be 5a a0 9d be 8f 39 da 3e
       -0.5782873 -0.28815073 -0.307864 0.4262204
000320 68 1d 33 be 78 ac c2 3e 59 3a 20 3f 77 bb ca be
       -0.17491686 0.38022208 0.6258903 -0.3959615
000330 c1 49 41 3f a1 68 2d 3e 54 a3 41 bf 3c de 4d 3f
       0.75503165 0.16934444 -0.75639844 0.8041723
000340 a9 b2 2d 3f fb 86 34 3f d8 bf 1c bf 9e ca 44 3e
       0.6785074 0.70518464 -0.6123023 0.19217917
000350 39 d9 d9 3e 89 50 9d 3e 8e f6 1a bf 57 9c ee 3e
       0.4254854 0.30725506 -0.6053246 0.46603653
000360 aa c5 7b 3f 05 85 3d bf 66 67 22 3f 44 13 46 be
       0.98348486 -0.74031097 0.63439023 -0.19343287
000370 ce e3 cf 3d ec 1f d4 3e 58 b4 4f 3f 10 9a 76 bf
       0.10150872 0.41430604 0.8113456 -0.9632883
000380 24 3b f9 3e e2 7e 09 bf f4 1e 20 bf 6f 04 46 bf
       0.48677933 -0.5370923 -0.6254723 -0.77350515
000390 6f d6 0e bf 8e 81 81 bf d1 f6 0a bf ed a6 6c bf
       -0.5579595 -1.0117662 -0.5428286 -0.9244221
0003a0 f8 b6 03 3e 06 0d f2 be aa 6a 28 bf a8 d9 b3 be
       0.12862766 -0.4727556 -0.65787756 -0.35126996
0003b0 64 b5 0d be 8c 47 dc 3e 9e 92 09 3e a2 91 c1 be
       -0.13838726 0.43023336 0.13434836 -0.37806422
0003c0 44 b0 15 3f d7 3e fa 3c 0a b8 09 be 7c c7 56 3e
       0.58472085 0.030547542 -0.13449112 0.20974535
0003d0 5a e6 88 bf f8 5b 1f 3f 25 55 4a 3f 6e 03 55 be
       -1.0695298 0.6224971 0.7903617 -0.2080209
0003e0 c0 e5 0e bc a9 aa b4 be 07 aa d7 3e f4 50 51 3e
       -0.008721769 -0.35286453 0.42121908 0.20441037
0003f0 e0 66 ce be 15 bf 57 3f d4 a6 33 3e 83 26 a7 3e
       -0.40312862 0.84275943 0.17544109 0.3264657

linear2.weight f4 [256, 256]
000000 cc be 25 bd fe a1 55 3d df 25 10 3b 67 0c 2c bd
       -0.04046516 0.05215644 0.002199523 -0.042004015
000010 fc ac d9 3c 3c 56 6c bd da 5c 55 bd 87 57 21 3d
       0.026571743 -0.057699427 -0.052090503 0.039390113
000020 60 a7 26 bd c4 47 3d 3c b0 c1 7a 3c 54 23 d1 bc
       -0.040686965 0.011552755 0.015304968 -0.025529541
000030 76 c0 19 bd ed 02 47 3c c5 1b d5 3b 08 4d d5 3c
       -0.03753706 0.012146694 0.0065035545 0.026037708
000040 4f 65 08 3d d9 3b 92 bc fd 33 5c bd 8b 6e b8 3c
       0.03329974 -0.017850803 -0.053760517 0.022513648
000050 62 b3 a8 3c b1 b7 d5 3c e8 a7 cd 3c a4 65 6e 3c
       0.020593349 0.026088567 0.025104478 0.0145506
000060 07 48 85 bc d0 b0 02 bd e0 24 ec bc 33 a0 5f 3c
       -0.016269697 -0.031906903 -0.028826177 0.013649034
000070 12 59 8f bc cc 9c c4 3c e0 4a 65 bd a8 67 71 bd
       -0.017498527 0.024000548 -0.05597961 -0.058936745
000080 14 2e 3e 3c 99 f3 f9 b9 50 7e 5c 3d bc 91 83 bd
       0.011607666 -0.00047674475 0.0538314 -0.06424281
000090 95 bf be bc 03 b0 eb 3b 7a 58 c1 3c 9d bd 37 bd
       -0.023284713 0.007192613 0.02360176 -0.044858564
0000a0 e1 6b 2d bd b6 f6 34 bd f4 69 54 bd 57 79 85 3c
       -0.04233921 -0.044180594 -0.051858857 0.01629321
0000b0 b3 2e 7d bd 18 d1 70 bd 20 d4 f1 3b 13 18 bb bc
       -0.061812114 -0.058793157 0.0073800236 -0.022838628
0000c0 2c f5 24 3d 0e 24 34 3d a3 2b b2 3c b0 d4 56 3c
       0.040272877 0.043979697 0.021749323 0.013112232
0000d0 ff 2b 32 3c b3 2a 79 bd 86 df 32 bd eb 5a 1a 3d
       0.010874747 -0.060831737 -0.0436702 0.037684362
0000e0 a9 55 d5 3c 50 94 55 3d 7f 49 0b bb d5 d0 b8 bc
       0.026041823 0.052143395 -0.0021253524 -0.022560516
0000f0 06 6a 44 bd b8 38 13 3d 7c 39 cf bc d8 59 4a 3d
       -0.047952674 0.035942763 -0.025295965 0.049402088
000100 41 e9 63 3c a4 41 4b bd be 84 db bc e4 8c 00 3d
       0.0139105925 -0.049623147 -0.026796695 0.031384364
000110 de 5c e6 3c b1 1b de bc 4b 6c 89 bc d5 3a fb 3c
       0.028120454 -0.027112814 -0.01677527 0.030667702
000120 76 55 70 bc a1 cb 41 bd 44 78 62 3d 83 58 3b 3c
       -0.014668813 -0.047313336 0.055290475 0.011434677
000130 3d 48 0b bd d1 85 61 bd 24 fd 67 bc bb 1a ff 3c
       -0.03400444 -0.055059258 -0.0141594745 0.031140676
000140 30 21 93 bd 79 d2 1c bd 6a a3 d9 bc a0 c2 95 3b
       -0.071840644 -0.03828666 -0.02656718 0.0045703202
000150 ce ae 86 bd 01 2b 2f bc 20 55 fc 3c 1b 03 3b bc
       -0.0657631 -0.010691405 0.03080231 -0.011414315
000160 ef 4b ab 3c bc 75 a2 bb 42 15 35 3d 21 55 ae 3c
       0.020910231 -0.0049578827 0.044209726 0.021280827
000170 ad 70 ed 3c f8 bb 13 3d a2 86 68 3d 78 79 b2 bc
       0.028984392 0.036067933 0.05676902 -0.021786436
000180 53 27 7c 3b 96 80 4c 3d 98 07 6b bd ee 52 12 3d
       0.0038475587 0.049927317 -0.05738029 0.03572362
000190 26 a5 2e bd fd 79 57 3d 0e c2 00 bd 92 55 2e 3d
       -0.042637967 0.05260657 -0.031435065 0.042562075
0001a0 04 4e bb 3c 58 00 1d bd 71 54 54 bd 52 7a 02 3d
       0.02286435 -0.038330406 -0.051838342 0.031854935
0001b0 53 1d 1b 3d 42 15 8f bd a7 fe b1 3b c0 a2 14 3d
       0.037869763 -0.069864765 0.0054319683 0.036288023
0001c0 2a 3f 01 3d 8a 55 2e 3c e8 e0 5d bc 3d d1 b7 bc
       0.03155438 0.010640511 -0.013542391 -0.02243864
0001d0 57 e5 5f bc 9e 49 18 3d 13 01 51 bc dc d4 47 bd
       -0.013665519 0.03717958 -0.012756604 -0.048786983
0001e0 00 2f 30 bd d6 17 de 3b 5b d7 44 bc e9 21 bb 3c
       -0.043013573 0.006777744 -0.012014235 0.022843318
0001f0 56 fd 83 bd d7 3e 1d 3d 08 cf 0d bc 11 f1 f3 3c
       -0.06444804 0.038390007 -0.008655317 0.029778035
000200 2a 06 30 3c 63 39 53 bc 33 3c 0e bc c9 4c 84 bb
       0.010743657 -0.0128921 -0.008681345 -0.004037474
000210 4f 57 ae bc 19 b0 d2 bc 8c 53 bc 3c 90 fb b4 bc
       -0.021281866 -0.025718736 0.022989057 -0.02209261
000220 bc fb ab bc a6 40 4b bd 9c 53 32 bd 00 60 3f bd
       -0.02099406 -0.0496222 -0.043536767 -0.046722412
000230 e8 2e 37 bd a9 49 50 3c 7e f7 78 bd 76 d7 4f 3d
       -0.044722468 0.012712874 -0.060782902 0.05074259
000240 60 8a 56 bb b7 42 9f 3a 4e 28 48 3d fb 13 8e 3c
       -0.0032736287 0.001215062 0.048866563 0.017343512
000250 34 b7 3a bd 9b dc 59 3c 20 51 2a 3c 69 f8 33 3d
       -0.045584872 0.013297225 0.010395318 0.043938074
000260 a2 72 30 3d 51 2f a6 bc c9 6c 33 bc d7 c7 16 bc
       0.043078072 -0.020286234 -0.010951229 -0.009202919
000270 b5 f6 36 3d f9 94 3e bb cc 99 8f bc 9f 9e 25 3d
       0.044668872 -0.0029080494 -0.01752939 0.040434476
000280 4c 8d 79 bd b4 ed cc 3c b7 4d 1c 3a 71 0b 7a 3d
       -0.060925767 0.02501569 0.0005962508 0.061046068
000290 c0 d2 9e 3a c0 0c 22 bd 54 3a 48 bd ef 81 68 3d
       0.0012117252 -0.03956294 -0.04888375 0.05676454
0002a0 ec 06 37 3d e2 7f 28 bd 3c 19 7a 3d 67 fb 89 bd
       0.044684336 -0.041137584 0.06105922 -0.06737404
0002b0 30 f1 95 bd e6 26 6c 3c 98 06 42 3d e9 7a e0 3c
       -0.073213935 0.014413571 0.04736957 0.027402358
0002c0 5a e5 b7 bc ee a4 d0 3c f4 4f ee bc af 32 4e bd
       -0.02244823 0.02546927 -0.029090859 -0.050341304
0002d0 26 50 4c 3b c8 c0 59 3d 85 5f 89 bc a8 67 5e bd
       0.0031175702 0.053162366 -0.01676918 -0.054298073
0002e0 e8 48 64 3c c1 f8 e2 bc ce d8 69 3d 32 ff 5d 3d
       0.013933398 -0.027706506 0.057091527 0.05419845
0002f0 18 c4 47 3b a8 2d d7 bc 80 8a b3 3a 52 5e 32 3d
       0.0030481871 -0.026266888 0.0013697892 0.043546982
000300 97 d8 b0 3c a5 00 2d 3d 91 02 3b bd 18 e3 0a 3c
       0.021587653 0.042236943 -0.045656744 0.008476995
000310 e6 93 6a bd e7 e9 de 3c ca e8 61 bd 5f 38 3c bd
       -0.057269953 0.027211143 -0.055153646 -0.045952197
000320 28 bd 55 bc 1b e8 ca 3c c4 07 7d bc 1a f6 1a 3d
       -0.013045587 0.02476888 -0.015443746 0.037832357
000330 a5 a0 6e 3d 70 12 69 bc 6e f6 d4 3c 50 12 fa bb
       0.05825867 -0.014225587 0.025996413 -0.0076315776
000340 9e 5a 1a bd 7b 9a 12 3d da 34 2d 3d 61 92 53 3d
       -0.037684076 0.035791855 0.04228673 0.05165327
000350 18 a4 1a 3d a5 8a 4d 3c 76 06 f3 3b ef 7e e1 ba
       0.03775415 0.012545262 0.0074165417 -0.0017203967
000360 a6 98 2f bd 4f cf 47 bd 37 4b 06 bb 69 de d3 bc
       -0.042870186 -0.04878169 -0.002049161 -0.02586289
000370 98 a2 da bc 66 87 2d bd 22 5f 93 bb 7b 3d bd bc
       -0.026688859 -0.042365454 -0.0044974247 -0.023100605
000380 2f 4f 9e 3a a3 db cd bc 82 a1 5d bd 31 1b b0 3c
       0.0012078042 -0.025129145 -0.054109104 0.02149734
000390 ce 8a 6c 3d bd ca 7f bd 9d 63 51 bc 27 d2 1e bd
       0.057749562 -0.062449206 -0.012780097 -0.038774636
0003a0 b7 09 8a bd b0 4b 00 bd 81 92 6d bd 48 62 08 3d
       -0.06740134 -0.03132218 -0.058001045 0.033296853
0003b0 56 cf 0e 3d 3b 27 63 bc 90 d7 fd 3c ee 1b 4b bd
       0.0348657 -0.013864334 0.030986577 -0.049587183
0003c0 d7 3a 12 3c 87 1b b3 bc f6 e2 9d bb 2c 73 71 bd
       0.008925161 -0.021863712 -0.0048183156 -0.058947727
0003d0 58 15 dd bc 57 db 4b 3c b3 f1 ab bc c0 21 b3 bc
       -0.026987717 0.012442431 -0.020989275 -0.02186668
0003e0 00 c7 61 bb 43 ed 1f bd 0a f8 f9 bc 95 f3 96 bd
       -0.0034450889 -0.03904463 -0.030513782 -0.07370678
0003f0 94 f9 0e 3d 09 c6 87 3c 82 4d 51 bd f4 12 cf bc
       0.034905985 0.016573923 -0.051099308 -0.025277592

linear2.bias f4 [256]
000000 64 6b 04 3d f2 d0 03 3e eb b6 94 be a8 ec 28 bc
       0.03232898 0.12872675 -0.29045805 -0.0103103295
000010 75 98 55 3d 80 a6 b3 3b 26 d4 a3 bd 77 85 0d 3d
       0.052147347 0.005482495 -0.079994485 0.03455111
000020 28 f5 5f bd 2f bc 4b bd 0d 40 65 3d 40 65 d0 3c
       -0.05467716 -0.049740013 0.055969287 0.025438905
000030 ff ad 20 3d f8 27 4d bd 45 51 35 3d 8e 84 5a bb
       0.039228436 -0.050086945 0.044266958 -0.003334317
000040 04 bb ac 3a ce 7d 28 be 20 48 ac 3d 90 d5 73 3d
       0.0013178294 -0.1645424 0.08412194 0.05952984
000050 b2 69 49 3d b6 ad 6e 3d b1 78 dc 3c b2 00 77 bd
       0.049173065 0.058271132 0.026913019 -0.060303397
000060 2c 32 7e 3d a6 5f 6d bd 1f 26 f5 3b 9b 6a 7d bc
       0.062059566 -0.057952546 0.007481351 -0.015467311
000070 31 91 53 3d d4 bc 20 bd 39 cb 69 bd 50 aa b1 bb
       0.051652137 -0.03924258 -0.057078574 -0.005421914
000080 15 99 57 3d b2 31 31 3d 1d 0e 11 3e 15 25 c1 3c
       0.052636225 0.043260284 0.1416554 0.023577252
000090 3a 75 0c 3d 9a 8c 09 bc 40 d6 10 bd 3d f3 3b 3d
       0.034291483 -0.008395338 -0.035360575 0.045886267
0000a0 46 23 5b 3c e4 aa 78 bc 20 b0 2b bc 48 4e 6f bc
       0.013375109 -0.015177462 -0.010479003 -0.014606066
0000b0 a4 a3 7f bd e9 ae 5d 3d 03 f9 23 3d c2 7c 75 bc
       -0.06241192 0.054121885 0.040032398 -0.014983358
0000c0 3a d6 66 bd 05 2c f8 bc 1a 3c 98 3d 29 bb 33 3c
       -0.056356646 -0.030294428 0.074333385 0.010969915
0000d0 50 81 6d bd a6 8e 95 bd d0 91 9f bb d2 e4 b6 bb
       -0.05798465 -0.07302599 -0.004869677 -0.0055814767
0000e0 d6 d0 67 be c6 99 66 3d 4b ad a0 be e0 21 ae 3c
       -0.22638258 0.056298994 -0.31382212 0.021256387
0000f0 f3 d4 1d bd bf 28 1a 3d 4f 4d 1a bd df 9d 3c 3d
       -0.038533162 0.037636515 -0.037671383 0.046048995
000100 d1 ef a0 bc c3 93 30 be 39 76 3b 3d 18 1f be 3c
       -0.019645603 -0.17243867 0.045767043 0.023208186
000110 54 7e 9e bc e0 2f 24 3c 83 d1 4f 3d ee 34 6d 3d
       -0.019347347 0.01002118 0.050736915 0.057911806
000120 dd 8c b4 3c 1a 6d 39 bd ab 4a 72 3a 86 dd f5 3c
       0.022039825 -0.045270063 0.0009242694 0.030012857
000130 15 c1 63 3c 19 c9 ae 3c 80 b5 40 bd d4 f9 6c bd
       0.013901015 0.021336125 -0.047048092 -0.057855442
000140 ba ff 31 3d b8 79 b4 bc e8 55 36 bd 08 46 73 bc
       0.04345677 -0.022030696 -0.04451552 -0.01484824
000150 92 90 1b 3d 39 7c 86 bb eb 9b d1 3c af 7f 29 bc
       0.03797967 -0.004104164 0.025587043 -0.010345384
000160 77 f2 a4 bb 51 d7 f5 3c e7 a5 4e bc 1d 1d aa bb
       -0.005033787 0.030009897 -0.012612796 -0.005191459
000170 ab 3c e9 bb 88 68 ae bc 3b 5d 57 3d cb f6 29 bd
       -0.007117828 -0.021290079 0.052579146 -0.041495126
000180 76 a4 32 bd 70 1d b9 bc 1c 59 7a 3c 50 28 57 bd
       -0.043613873 -0.022597045 0.015280034 -0.05252868
000190 89 da 7c 3d 3c 27 ab 3d e0 96 4b 3c dd 71 c1 bc
       0.06173185 0.08357093 0.012426108 -0.023613865
0001a0 b6 b6 24 bb 4e 04 a8 bc a0 91 d3 3d 32 00 07 bd
       -0.0025133318 -0.020509865 0.1033051 -0.03295917
0001b0 dc 65 9c bc f8 92 9c 3c 71 4f 51 3c 24 74 19 3c
       -0.01909154 0.019113049 0.012775288 0.009366069
0001c0 6f 1b 16 3d ff bf 77 3c d7 c5 a2 3c 4e f8 37 3e
       0.036647256 0.015121459 0.019869728 0.17965814
0001d0 0c bb e3 bc e4 b9 72 bd 84 61 9d 3c 60 ef cf 3c
       -0.027799152 -0.05925931 0.019211538 0.025382698
0001e0 da b1 2c bd ae ce 27 3d d3 9a 86 3d b0 0b 06 bc
       -0.0421618 0.04096859 0.06572499 -0.008181497
0001f0 fd 4b 21 3d e8 d4 f8 3c 8e 37 7b bd 8f 14 74 be
       0.03937911 0.03037496 -0.061332278 -0.23835967
000200 aa 58 5e 3d 98 ee 2e bd 50 be 0c 3c b5 3a 81 3d
       0.054283775 -0.04270801 0.008590296 0.063100256
000210 f8 e2 00 3d 04 c1 91 bc a7 03 cc bc 66 7f 2c bd
       0.031466454 -0.017792232 -0.024904085 -0.042113684
000220 f5 fc c5 bc 39 ec 61 3d b7 e5 90 3d b8 d4 2e bd
       -0.02416847 0.05515692 0.07075065 -0.042683333
000230 90 36 5a bc a0 62 e3 3d 25 c3 23 bd d2 8c 0f bd
       -0.013318673 0.111027956 -0.039981026 -0.035046406
000240 00 52 1b bd 8b 5f 59 bd 24 20 28 3d bc 72 9a be
       -0.03792 -0.053069633 0.041046277 -0.3016566
000250 81 2a 9a 3d 99 35 2a 3c e2 b3 26 3d 1b 0a 83 be
       0.07527638 0.010388755 0.040698893 -0.25593647
000260 d8 5e 2e 3d 93 d1 a7 bc a0 6a 21 3c 20 90 88 3c
       0.04257092 -0.020485675 0.009852082 0.016670287
000270 7e 8b 41 3b 3b 7b a1 3c d7 1e 90 3d 07 05 b8 3d
       0.0029532607 0.019712081 0.07037132 0.08985334
000280 0e 53 31 bc 1f de 25 3d 20 11 b7 3b 7c 92 5b 3e
       -0.010823024 0.040495034 0.0055867583 0.21442598
000290 48 ce 75 3d 01 75 fd bc c8 18 7a bd 1e e9 40 3d
       0.06001118 -0.03093958 -0.06105879 0.047097318
0002a0 9e 52 3c 3d 48 ad 1b be 14 11 08 be 3b d5 aa 3b
       0.045977227 -0.1520282 -0.13287765 0.0052134073
0002b0 50 66 e8 bb 56 c4 bd 3c 7c 9b b7 bb 26 14 1f bd
       -0.0070922747 0.02316491 -0.005603252 -0.038837574
0002c0 8f 63 80 bd 18 16 20 3d e1 50 07 3d 2c de 6a 3d
       -0.06268989 0.03908357 0.033036117 0.057340786
0002d0 f2 e5 60 bd 07 97 52 3c 08 93 a7 3d a0 41 cd 3b
       -0.054906793 0.012853391 0.08182341 0.0062639266
0002e0 2b 73 bb bc 60 1a c4 bc 90 55 b2 3b a8 cd fd bc
       -0.022882065 -0.023938358 0.0054423288 -0.030981854
0002f0 b1 bd 60 3d 3b ae 57 3c 04 71 d0 3c 2e 88 ec 3c
       0.054868404 0.013164098 0.025444515 0.02887353
000300 30 0e 9e 3e 8b 0c b7 b8 9c cf 22 be 0f 92 69 3d
       0.308702 -8.728456e-05 -0.15899509 0.057024058
000310 28 44 99 3c 2d f7 67 bd 84 58 73 bd fc 4d 6e 3d
       0.018709257 -0.05663221 -0.059410587 0.05817984
000320 58 7f d4 3c 00 50 31 3a b4 6b e9 3c 5b 78 10 3d
       0.025939628 0.0006763935 0.02849374 0.03527103
000330 ea 87 db bd af e3 19 3d f4 f6 46 bd 7d 45 12 bd
       -0.10719283 0.03757065 -0.048575357 -0.0357108
000340 26 10 64 3e 72 17 50 bd ad a3 0b 3d f6 74 34 bd
       0.22271785 -0.05080361 0.03409164 -0.044056855
000350 4f 3a 1b bc 76 65 53 bb e2 85 b6 3c 80 a2 b7 3d
       -0.009474351 -0.003225652 0.022280637 0.08966541
000360 ce 0f 54 3d 14 17 c9 bc 54 1f ef 3c 00 ad d0 bb
       0.051772885 -0.024547137 0.029189743 -0.0063682795
000370 d7 87 3d 3d 50 06 10 3c 10 90 aa bc dd 66 0f bd
       0.046272125 0.0087905675 -0.020820647 -0.035010207
000380 8c ff 65 bb 80 1a 44 3d 54 b7 0f 3d 54 9a f6 bc
       -0.0035094945 0.047876835 0.035086945 -0.030102886
000390 0c bb b0 3c 2d ec d2 bc 37 6c 41 bc e3 62 05 bd
       0.021573566 -0.025747383 -0.011805586 -0.03256501
0003a0 08 71 18 bd 09 41 c6 3d c2 81 11 bc 43 02 0b 3d
       -0.03721717 0.09680373 -0.008881034 0.033937704
0003b0 34 f0 39 3e e4 bd 5a bc d2 20 82 3d 3a 13 f9 bc
       0.18158036 -0.0133509375 0.06353916 -0.030404676
0003c0 34 84 24 bd c2 84 46 3c a8 15 d7 3d 15 94 72 bd
       -0.04016514 0.012116613 0.105021775 -0.059223253
0003d0 3d e8 93 3b c9 7f a7 3d be ee c4 3c e8 53 48 3d
       0.004513769 0.0817867 0.024039622 0.048908144
0003e0 b9 d4 36 3c 2a 27 bb 3c 5b 24 13 bd ab 53 38 3d
       0.0111591155 0.022845823 -0.035923343 0.045001667
0003f0 12 e6 9c be fb 27 f7 3c c0 d8 52 bc 8f 25 15 bc
       -0.3064428 0.030170431 -0.01286906 -0.009103193

linear4.weight f4 [256, 256]
000000 2a fb 51 3d 05 a0 95 bd 5b 7e 5c bc 6b e5 ca 3d
       0.05126492 -0.07305912 -0.01345786 0.09907039
000010 42 c6 51 3d d0 c4 83 3c ea 1a 50 3b 7c e6 5e 3b
       0.051214464 0.016085058 0.0031754323 0.003401189
000020 0d 84 05 3d bc df bb bc b6 12 1e bd 48 a0 a8 bc
       0.032596637 -0.022933833 -0.038592063 -0.02058424
000030 95 d0 30 3d c5 af 48 3d 2a 2d ea 3c 09 50 43 3c
       0.04316767 0.048995752 0.028585989 0.011920937
000040 d4 03 ed bc ea a9 3d bd 72 71 13 3d 36 99 c4 bc
       -0.02893249 -0.04630462 0.03599686 -0.023998838
000050 0c 4c 0e bd c0 81 4f bb e2 b7 85 3d dd d6 52 3d
       -0.034740493 -0.003166303 0.065292135 0.05147444
000060 7c 59 98 3c 5c 95 15 3c aa 82 2a bd c6 ff 80 3c
       0.018597357 0.009129848 -0.041628517 0.015746962
000070 b1 39 08 3d ca 2d 7a bd 47 76 72 3d c4 ab d3 3c
       0.033258144 -0.061078824 0.05919483 0.02583874
000080 20 14 ae 3c ea 58 fc bc 81 e6 10 3c 98 a2 47 ba
       0.02124983 -0.030804116 0.008844019 -0.0007615476
000090 63 e7 61 3b 31 45 c7 bc eb ba 8d bc 95 e9 be 3c
       0.0034470193 -0.024324985 -0.017301043 0.02330474
0000a0 6c ec b1 bc e0 6c 63 3d 28 b2 37 3d 00 6f 9a 3c
       -0.02171918 0.055523753 0.044847637 0.018851757
0000b0 f2 4d 72 3d 95 d5 1b bd 79 dd b7 3c df ad 18 3d
       0.059156366 -0.038045485 0.022444474 0.03727519
0000c0 c5 80 ad bc f9 78 12 bd 96 24 6e bd cf 16 a2 3d
       -0.021179566 -0.0357599 -0.05814036 0.07914507
0000d0 26 dc 2d 3d 83 96 9c bd 64 85 03 3d e6 c9 75 3d
       0.042446278 -0.07645895 0.032109633 0.060007
0000e0 04 f4 00 bb a6 ef 27 bd 12 8e f0 3c a6 59 01 3d
       -0.0019676695 -0.04100003 0.02936462 0.031579636
0000f0 c8 31 bb 3c 4b ec b5 3d e0 7a 2d 3d 99 e4 1e bd
       0.022850886 0.0888296 0.04235351 -0.038792226
000100 a9 0c 29 bd 89 56 81 bd e0 b1 f6 3b 7d b6 a5 3d
       -0.04127184 -0.063153334 0.0075285286 0.080914475
000110 a2 9d 6e 3d a0 4f 6a 3b a9 66 fb 3c d8 7c 6b bd
       0.0582558 0.0035753027 0.0306886 -0.057492107
000120 9e 34 a8 bb ec 25 3b bd e9 e6 5d 3d d3 94 4b bd
       -0.0051332256 -0.045690462 0.05417529 -0.049702477
000130 92 8d c3 bc 13 32 f3 bb aa df 5f 3d 31 72 32 bb
       -0.023871217 -0.007421741 0.054656662 -0.0027228708
000140 2a 95 13 bd fe 86 3f bd f0 2e 37 3d ee 81 09 3d
       -0.036030926 -0.046759598 0.044722497 0.033571176
000150 f8 f7 47 3d 52 80 3c 3d 34 5b 6c 3d e4 c2 52 3d
       0.048820466 0.046020813 0.057704166 0.051455393
000160 96 5c 79 bc 70 ba 0a 3c b3 13 ab bc 00 1b b8 3b
       -0.015219828 0.008467302 -0.020883417 0.005618453
000170 9e b9 00 bd d6 be 26 3d 0e 31 41 bc 90 ea dc 3c
       -0.03142702 0.04070934 -0.011791481 0.026967317
000180 e0 f1 03 bc 08 3e 4f 3d 0e 3e 66 bd 90 f5 ed bc
       -0.008053273 0.050596267 -0.056211524 -0.029047757
000190 a3 57 2c bd 00 fb de 3c f4 40 df 3c ff 4c b9 bd
       -0.042075764 0.027219296 0.027252652 -0.09047889
0001a0 e8 ff 54 bd d9 8a ba 3c 00 b9 36 3d 48 70 5c bc
       -0.052001864 0.022771286 0.044610023 -0.013454504
0001b0 80 e0 ef 3b 8e d0 5e bd 6d 79 40 bd fd 88 33 3d
       0.0073204637 -0.054398112 -0.0469908 0.043831814
0001c0 fb aa 0f bd e0 78 a6 3d 8f 56 08 bd 2d b6 a1 bd
       -0.03507517 0.08128524 -0.033285674 -0.078960754
0001d0 51 15 45 3d 00 50 9c b8 8a cc ba 3c a8 11 39 bc
       0.048116032 -7.453561e-05 0.02280261 -0.0112957135
0001e0 e6 6c 33 bb a0 ae 13 bd 3b 3e 91 bb 18 81 2e bd
       -0.002737814 -0.036055207 -0.0044324673 -0.042603582
0001f0 db d8 1d bd 90 ff b3 bb 81 0f e6 bc d1 74 47 3c
       -0.038536888 -0.005493112 -0.028083565 0.012173847
000200 60 ab e0 bb fd 4e 14 bd 1c 95 1f bd 9b 6a 65 3d
       -0.006856367 -0.03620814 -0.03896056 0.05600987
000210 17 88 1e bc 02 3d 55 bd 04 4e 7c 3c 6c 39 0c 3d
       -0.009676001 -0.052060135 0.01539946 0.03423445
000220 1f 70 60 3d b7 2b 90 3d 56 27 24 bd 5c 06 e0 bc
       0.054794427 0.07039588 -0.040076576 -0.027346782
000230 d4 d6 95 bc 84 7c a2 bd cc 58 9e bc d8 4b bf bc
       -0.018290915 -0.07933906 -0.019329451 -0.023351595
000240 1c f5 7f 3c 45 78 c0 3d 20 8e 11 3d 61 3f 5e 3c
       0.0156224035 0.093979396 0.03553593 0.013564915
000250 fc 65 2e bc ba ce 8b 3d 38 96 ba 3c 28 35 31 bc
       -0.010644432 0.06826539 0.022776708 -0.010815896
000260 2c c5 cf bc 10 e1 fe bb e0 8c 04 bb fc 30 4f 3d
       -0.025362574 -0.0077782944 -0.002022557 0.050583825
000270 a5 1b 21 bd bd d8 2e 3d e1 d3 cc bc c1 ae d4 bd
       -0.039333005 0.042687166 -0.025003375 -0.10384894
000280 7e 73 03 3d 65 34 58 bb b4 e1 d1 bc 29 24 94 bd
       0.032092564 -0.0032990214 -0.025620319 -0.072334595
000290 ec e8 57 3d dc 49 a9 3c e0 e2 97 bc 0a a2 04 bd
       0.052712366 0.020665102 -0.0185408 -0.032381095
0002a0 d2 7e 63 3c a3 1b e1 3c c9 24 08 bd 4d e6 1b 3c
       0.013885217 0.027478999 -0.033238206 0.009515357
0002b0 08 08 80 3c 85 ce ba 3c ac 22 3a bd 9d 32 0c bd
       0.01562883 0.022803554 -0.045443222 -0.034227956
0002c0 36 1e 5c 3d 7c 10 d7 bc f9 08 ce 3c 99 c2 c1 bc
       0.05373975 -0.026252978 0.025150763 -0.023652362
0002d0 0c f2 d3 3c b0 36 0e bd 2d 21 38 3d 70 76 c6 3a
       0.025872253 -0.034720123 0.044953514 0.0015141498
0002e0 2e 9e 84 bc 56 da 0b 3d dc 32 84 3c 2a 96 42 3d
       -0.016188707 0.03414377 0.016137533 0.04750649
0002f0 ed 93 59 3c 7c cb da bb 0c 3b f6 bc b8 6a 26 3d
       0.013279897 -0.0066770893 -0.030057453 0.04062912
000300 07 6a cd 3b a0 6d eb bc ce c4 4a bc 21 42 82 3b
       0.006268743 -0.028738797 -0.012376023 0.0039751683
000310 58 e8 87 bc bf 71 7e bc f8 86 40 3c 6a 84 aa 3d
       -0.016590282 -0.015530049 0.011750929 0.08326037
000320 c6 87 2a bc 28 75 2f bd 19 47 c4 3c 70 db 93 bc
       -0.0104083475 -0.04283634 0.023959683 -0.018048972
000330 32 bb 3e bd 3f d0 ac bd 6b 0a 01 bd 59 37 8c bc
       -0.046565242 -0.08438157 -0.031504076 -0.017116236
000340 92 62 94 3c 1c 5c 57 bd 5b 19 3a bc 34 c3 43 bd
       0.018113408 -0.052578077 -0.011358584 -0.047793582
000350 d9 b9 91 3d bf 32 0d 3d 6b a2 d2 bc 9e d3 6f bd
       0.07115526 0.034472223 -0.025712213 -0.058551423
000360 74 e8 f2 3c 94 21 e2 3c c4 fa 61 3d c8 9c 33 bd
       0.029651858 0.027603902 0.05517079 -0.04385069
000370 b1 0d 15 3d 98 74 55 3c b8 c0 49 3c 51 31 08 3d
       0.03639001 0.013028286 0.012314014 0.033250157
000380 50 59 08 3d e0 64 b5 bc 24 53 b2 bc 68 a4 8b 3c
       0.0332883 -0.022142828 -0.02176816 0.017046168
000390 63 1c fb 3c 02 73 b6 3c e8 02 24 bc 23 46 63 3d
       0.030653184 0.022271637 -0.0100104585 0.05548681
0003a0 17 ca c0 3c 53 b6 90 3d 4e cf 52 bd b8 08 51 3c
       0.023533864 0.070660256 -0.051467232 0.012758426
0003b0 bf 32 11 3d 9a 47 df 3c 5a 0b 1d 3d 6f b9 58 3c
       0.035448786 0.027255822 0.038340904 0.013227805
0003c0 24 f6 cc 3c c7 5c e5 bb 2a b3 0f 3d c9 08 92 3b
       0.025019713 -0.0069995853 0.035082974 0.0044566137
0003d0 41 64 20 3d cf 8b 77 3d 61 47 73 3d 5b 63 68 3d
       0.03915811 0.060436066 0.059394244 0.056735378
0003e0 0a 96 0a 3d 6f e7 bc bb 7a 04 85 3d ff 8d 81 bc
       0.033834495 -0.0057648937 0.064949945 -0.01581478
0003f0 b3 f4 3c bc fa 06 3d 3d e6 e2 69 3d 1b 68 32 ba
       -0.01153295 0.04614923 0.057101153 -0.0006805674

linear4.bias f4 [256]
000000 dd 2a 90 3b 9e 5c f0 bc 28 34 40 3e cb da 79 bd
       0.004399641 -0.029341038 0.18769896 -0.060999673
000010 d4 79 08 3e 7c b3 b0 3d dc 63 54 be c8 d2 7a 3c
       0.13327724 0.08627984 -0.20741218 0.015309043
000020 68 f6 db bd 65 27 b3 bd 62 7a ba b9 24 a4 4f be
       -0.10740358 -0.08747748 -0.00035567867 -0.20277458
000030 ea 77 3a 3c ff 38 06 be cc e8 a4 bd 62 d9 f9 3d
       0.011381129 -0.1310768 -0.08052215 0.121996656
000040 0e f2 ef be f4 3c 96 3d 1d 86 17 bd 96 6a 72 3d
       -0.4686436 0.07335845 -0.036993135 0.05918368
000050 96 b3 aa bb 84 fb 96 be 38 51 7f bd ff 5b 21 bb
       -0.0052093966 -0.29488766 -0.062333316 -0.0024621484
000060 43 c3 1f 3e 6f 61 82 be c3 53 4c bb 25 fe 59 be
       0.1560183 -0.2546496 -0.0031177856 -0.21288355
000070 e8 61 70 3d a0 de 05 3e e6 da 8c be c0 d2 31 3e
       0.05868712 0.13073206 -0.27510756 0.17365551
000080 76 8c 44 bd ad 69 93 3d 8e 6c 8e 3e e8 31 35 bd
       -0.047985516 0.071978904 0.27817196 -0.044237047
000090 8c ac 37 be 40 d5 d9 bd d6 cc 0c bc 6f a4 93 bb
       -0.17936915 -0.10636377 -0.008593759 -0.004505686
0000a0 42 67 d7 bd 27 6a 57 3d 09 c1 c5 3c ae f3 5f be
       -0.10517742 0.05259147 0.024139898 -0.218703
0000b0 62 19 42 3e 48 90 fd bc 60 f3 61 3d 86 c6 03 ba
       0.18954995 -0.030952588 0.05516374 -0.0005026836
0000c0 15 2f 1f 3e e4 77 39 be db aa f1 3d a3 12 a7 bc
       0.15545304 -0.18112141 0.11800166 -0.020394629
0000d0 14 49 24 3e e9 91 5c be 84 dd e4 3d 8e c0 b0 3b
       0.16043502 -0.21540035 0.11175063 0.005394048
0000e0 d9 22 1e bd 12 58 2c bd 27 56 64 be 91 7a 2e 3e
       -0.038607452 -0.042076178 -0.2229849 0.17038943
0000f0 ec d5 27 bd c4 cd 7e bd b9 90 db bd a4 fc e5 3d
       -0.040975496 -0.062207952 -0.10720963 0.11229828
000100 fd 52 89 3d d6 04 4e be 41 28 d9 3d 43 15 40 3e
       0.06705282 -0.20119032 0.10603381 0.1875811
000110 22 83 89 be 2f fe d3 bb fb cd d7 3d ca 52 e5 3c
       -0.2685786 -0.00646951 0.105373345 0.027993578
000120 c3 c8 8d bc f5 d9 64 be c3 d7 05 bd d8 ae de 3c
       -0.017307645 -0.22348769 -0.03267647 0.027182981
000130 6b 21 67 3d 16 16 89 bd 0e c8 b9 3d 46 43 1b 3e
       0.056428354 -0.06693666 0.090713605 0.15162382
000140 85 27 28 3d 45 b3 22 be 26 01 b6 3c b6 7e 82 3c
       0.041053314 -0.15888698 0.022217344 0.015929561
000150 be 24 1c 3e 44 3c 0a 3e 34 48 8e 3c 5b e1 07 bd
       0.15248391 0.13499552 0.017368414 -0.0331739
000160 cc 37 17 be d3 21 98 bc 28 f7 bb bd f2 3c 25 bd
       -0.14767379 -0.018570816 -0.09178001 -0.040341325
000170 fc 3e ea bd 0e d1 b2 bd 51 fb 7c bd 39 48 f5 3c
       -0.114377946 -0.0873128 -0.06176311 0.029941665
000180 4f 82 ed be b8 69 3e bc 2b f3 15 3e cf a5 4f bd
       -0.4638848 -0.011621885 0.14643542 -0.050695237
000190 db 4b 1c be 93 48 5a be ce a7 a6 3d 25 57 9a 3d
       -0.15263312 -0.21316747 0.08137475 0.07536153
0001a0 c9 53 ed 3c 96 76 46 bd 1d 40 7d be 87 6b 26 b9
       0.028970616 -0.048452936 -0.24731489 -0.0001587105
0001b0 16 9c 58 3c 4b cf 68 be 2c 67 60 3e fa 44 ba bd
       0.013220808 -0.22735326 0.21914357 -0.090951875
0001c0 6b 3c fe bd 20 ec 86 3d 90 55 23 3d 82 95 a2 bb
       -0.124138676 0.06588006 0.03987652 -0.0049616704
0001d0 45 ed a5 3e 65 61 22 bd 20 e7 6b be d2 77 98 bd
       0.32407585 -0.039643664 -0.23037386 -0.07444729
0001e0 c1 1b 29 bd ed 72 d9 be d1 4f 12 3e 7a 51 9a bd
       -0.041286234 -0.42470494 0.1428826 -0.07535072
0001f0 b0 6b 93 bd 53 37 a1 bd ab 0d 14 3c 5c 70 6a 3d
       -0.07198274 -0.078718804 0.009036462 0.05723606
000200 43 db 2a 3e 38 11 92 3e b2 1d b5 bd e5 c9 03 be
       0.16685204 0.28528762 -0.088435546 -0.12869985
000210 ec 83 d4 3d b2 d5 5a 3c 65 69 9a be 45 19 9a bd
       0.103767246 0.013356613 -0.30158535 -0.07524351
000220 df 2d 0f 3d 8a 23 04 3e 0f 9f b3 3d b5 76 e8 bd
       0.034955855 0.12904182 0.087705724 -0.113507666
000230 19 c9 90 3d 80 a5 18 3e 60 69 40 be 8c 04 f6 3c
       0.07069606 0.14906883 -0.18790197 0.030031465
000240 44 c2 47 be 85 4b 2e bd 99 2f 0f bd d5 be 1e 3d
       -0.195077 -0.04255249 -0.034957502 0.03875621
000250 aa 2c 5b 3e e3 6b 52 3d 45 de 82 bc 2a 70 5f bd
       0.21403757 0.05137242 -0.015975127 -0.054550327
000260 2d d9 9d 3c 69 30 10 3e 3e 4c 61 3e 72 04 92 3d
       0.019268597 0.14080967 0.2200174 0.07129754
000270 cb 6f f6 bd 28 c8 4d be 8c b3 36 bd 88 0e 23 be
       -0.120330416 -0.20095885 -0.044604823 -0.15923512
000280 4b 24 91 3d ce b6 04 bd a2 e2 61 bd ed 20 7a bc
       0.070870005 -0.0324009 -0.055147775 -0.015266639
000290 ea 91 bf bd 96 33 0d be b8 07 82 3c 44 7b 56 be
       -0.09354003 -0.1378921 0.015872821 -0.2094546
0002a0 19 a3 57 3d 8d d0 33 3e 86 b7 b7 3c 8c 0c 0a 3d
       0.052645776 0.17560025 0.022426378 0.033703372
0002b0 7a ec a4 bc fb 09 34 3e 8f 6d c3 bc d3 6b 5b 3e
       -0.020132292 0.17581932 -0.023855953 0.2142785
0002c0 ff 85 75 bd 74 ec 7a 3e 17 b5 c9 bd 38 20 86 3d
       -0.05994224 0.24504262 -0.09848993 0.06549114
0002d0 83 ac 8b be 27 b9 64 bd d3 fc ad bd d1 65 3e 3e
       -0.27280053 -0.055840638 -0.08495488 0.18593527
0002e0 f5 a4 9a bc f5 04 8a 3e b3 7c 4b bd f8 27 43 bd
       -0.018877486 0.26956907 -0.04967947 -0.04764554
0002f0 7b 6f 8d 3e 28 ae 2f 3d 81 0a 9e 3c 2b 4b 54 be
       0.27624115 0.042890698 0.019292118 -0.207318
000300 f4 76 88 bd 7c f9 e6 3d e1 1c 82 3d e8 ef 0f 3e
       -0.066633135 0.11278054 0.063531645 0.1405636
000310 fa 2b 41 3e d6 0b 03 bd 32 b2 9b 3c 40 44 08 3e
       0.18864432 -0.03199371 0.019005869 0.13307285
000320 ef 81 f8 3b 12 28 43 3c 36 9b 8b bd 4c d5 92 3c
       0.0075838487 0.011911409 -0.068167135 0.017923974
000330 89 6e d1 be b2 ec 6e bd 64 48 f1 3c 0b 6d 24 bd
       -0.40904644 -0.0583312 0.029453464 -0.040143054
000340 a2 3a 1a 3b d0 77 05 be 92 91 a5 bd 46 33 d6 3d
       0.0023533483 -0.13033986 -0.08084406 0.104589984
000350 30 d3 14 3d 11 e6 37 3e 01 8d e2 bb 3c 02 54 3b
       0.036334217 0.17958857 -0.0069137816 0.0032349965
000360 eb 75 9d 3d c3 4c 99 3b df 6e 86 bc ea 72 62 3e
       0.07688507 0.00467834 -0.01641029 0.22114149
000370 16 04 34 be 76 f9 58 bd 34 a7 2f bd b4 23 f4 bd
       -0.17579684 -0.05297228 -0.042884067 -0.11920872
000380 b1 7c c0 be e4 62 19 bd de f8 48 3e 83 cb d5 bc
       -0.37595132 -0.037447825 0.19626185 -0.026098019
000390 d0 80 53 be 3c 15 02 3e 52 d0 a4 3d 9d a3 04 be
       -0.20654607 0.12703413 0.080475464 -0.12953039
0003a0 11 ce d6 bc 61 77 81 bd 51 af d6 bd 55 66 06 3e
       -0.026221307 -0.06321598 -0.10482658 0.13124974
0003b0 5d 3e d5 3d 52 62 54 3e 99 46 0f be 2e 64 11 be
       0.104122855 0.20740631 -0.13991775 -0.14198372
0003c0 44 2b 46 be e9 ec 2f 3e 30 6e 9f ba 2b ec 15 3e
       -0.19352442 0.17180218 -0.0012163576 0.14640872
0003d0 5d 10 d2 be 71 ca 51 3d 69 6b be bd ad 70 91 be
       -0.4102811 0.051218454 -0.092978306 -0.28406277
0003e0 d6 bc 9c 3d eb 54 0d 38 3e eb 85 3e 6e b9 c5 bc
       0.07653205 3.3696106e-05 0.26156038 -0.024136271
0003f0 7a fe 8c bd 38 e8 82 be 0c bf 81 3d c5 1b 35 bd
       -0.06884475 -0.25567794 0.063352674 -0.044215936

linear3.weight f4 [1, 256]
000000 68 3e 31 bc ce 6f 76 bb 2e 30 e6 3c e8 7b 19 3c
       -0.0108181015 -0.0037603262 0.028099146 0.00936792
000010 76 95 17 3d 45 c7 bd 3d 4d df 80 bd 70 e2 a7 3d
       0.03700777 0.09266523 -0.06292591 0.081974864
000020 37 82 40 bd c5 9f a6 3a 29 86 ef 3d ff 3d 20 bd
       -0.046999183 0.001271241 0.11695511 -0.039121624
000030 a4 7c da 3d 94 42 2a bc 97 1c 91 3b a1 cb e1 3c
       0.106683046 -0.01039185 0.004428457 0.027562918
000040 0e ce 02 be c4 dc bc 3c be 2d 6b 3c 64 ef e8 3d
       -0.12773916 0.023054488 0.0143541675 0.11373785
000050 a5 a9 46 bc 0e 26 01 bd 47 af ee 3c e8 81 f3 3d
       -0.012125407 -0.031530432 0.029136313 0.11890012
000060 89 9c 81 3d bc 23 b8 bd ab b1 a3 3b 3f 91 32 3c
       0.06328685 -0.08991191 0.004995545 0.010898887
000070 40 dc bf 3c 1f 7f e5 3c 52 73 eb bc ea c6 de 3c
       0.023420453 0.028014718 -0.028741512 0.027194459
000080 5b f7 cd bc c0 b7 6b 3d 7c 7f 70 3d c6 08 70 3d
       -0.025142362 0.057548285 0.05871533 0.058602117
000090 d5 69 95 bc b8 6b 1c ba c7 7d 11 bc b8 aa 5a bc
       -0.018238941 -0.0005966979 -0.008880085 -0.013346367
0000a0 ee 9f 06 bc 6c 02 a0 3b c8 f9 91 bb f2 88 9b bd
       -0.008216841 0.004883101 -0.004454825 -0.075944796
0000b0 46 d1 f5 3c 94 90 a7 bb 86 75 0e 3d a7 56 b4 b9
       0.030007016 -0.0051136706 0.034780048 -0.00034396836
0000c0 b7 f7 42 3d ac 0e 09 ba 66 3f 10 3d 77 ad e7 3d
       0.04759952 -0.00052283215 0.03521671 0.11312383
0000d0 69 dc ad 3d 5b 2c 8d bc ce 3e 99 3c 7f 45 c2 3c
       0.084893055 -0.017233064 0.018706705 0.023714779
0000e0 70 ae 2b 3d eb 50 35 bc a2 31 cc bb 62 b2 bf 3c
       0.041914403 -0.011066656 -0.0062315026 0.02340049
0000f0 26 3f 49 3c 4a 46 e2 bc 38 15 2c bc 1c de 41 3d
       0.012283122 -0.027621407 -0.010503106 0.04733096
000100 2a 57 97 3b 45 72 ad bc c2 cc c0 3d 30 de 51 3d
       0.004618545 -0.021172652 0.094140545 0.051237285
000110 13 8e ad bc 2a df b7 3d 89 02 e7 3c a6 1e 4a 3c
       -0.02118591 0.08978112 0.028199451 0.012336409
000120 01 33 0c 3c da 1f e0 bc 20 05 72 bc e2 1b 87 3b
       0.008557082 -0.027358938 -0.01477173 0.004123197
000130 8f 69 a6 3c 90 15 47 bb 51 ee 1b 3d 81 42 99 3d
       0.020314006 -0.0030377842 0.038069073 0.07483388
000140 d4 87 1c 3d 9b 3f 03 bd 4d 7a 8c 3c 9d 69 00 3d
       0.038215473 -0.03204308 0.017148161 0.03135072
000150 98 62 d8 3c 8e b2 de 3c 44 40 7f ba 62 75 c7 3c
       0.0264142 0.02718475 -0.00097370544 0.024347965
000160 81 48 8d bb 71 c9 a9 3c 37 fd b4 bb 07 f6 0c 3d
       -0.0043116217 0.020725938 -0.0055233496 0.034414317
000170 41 9f e2 b9 d5 6a 13 bd 55 2d 0f 3a 5e a4 b2 bc
       -0.00043224733 -0.035990555 0.0005461772 -0.021806892
000180 3c ac 33 be 37 0d 97 bb 73 51 02 3d c6 6e 55 ba
       -0.17546171 -0.0046097296 0.031815957 -0.00081418117
000190 24 23 d9 bc c6 4c 2f bc 3e af b3 3d 76 89 4f 3d
       -0.026506014 -0.010699457 0.08773659 0.050668202
0001a0 7b 6a 3a 3a 44 1b be bb 13 12 48 bc 87 b7 ba 3c
       0.0007111204 -0.00580159 -0.0122113405 0.02279259
0001b0 92 be 99 bc e1 b0 5e bc 83 1f a2 3d 0b 71 ef bc
       -0.018767629 -0.013591976 0.07916167 -0.029228708
0001c0 50 33 89 bb 73 65 ec 3c 3a 7f 3a 3d 6b 39 1f bd
       -0.004187025 0.028856969 0.04553149 -0.038873117
0001d0 a0 44 87 3d 95 e7 89 bb de da 11 bd 37 ae a0 bc
       0.06604886 -0.004208515 -0.03560912 -0.019614322
0001e0 e5 b8 47 3d 16 09 1b be c9 c6 82 3c f7 b0 e7 3b
       0.048760314 -0.15140185 0.015963929 0.0070706564
0001f0 85 79 ff bc 15 2e 68 bc c6 f1 39 3e 4a 88 1e 3e
       -0.031185875 -0.014171143 0.18158635 0.15481678
000200 2f fb c7 3c 65 f2 58 3d bb 6d b3 bb 5a a0 ad bc
       0.024411766 0.05296554 -0.0054757274 -0.021194626
000210 d4 8b e2 3d 47 c6 46 3e 81 a4 83 bd 4a 14 6f bc
       0.11061826 0.19411574 -0.06427861 -0.01459224
000220 6a 3a be 3c 28 cc b5 3c f7 15 13 3e 20 ab a5 3a
       0.023221213 0.022192076 0.14363848 0.00126395
000230 ef 51 1f 3d 43 5b 82 3c 29 94 c8 bc b1 56 05 3e
       0.038896497 0.015912658 -0.02448471 0.13021351
000240 91 54 ae bc a7 80 0a bd 82 01 bb bc fc 36 41 3d
       -0.021280559 -0.0338141 -0.022827867 0.047171578
000250 9d 78 f1 3c be 00 27 3d e5 4d 64 3d 33 19 d4 bc
       0.029476458 0.040772192 0.05573835 -0.025890922
000260 d2 8c 8f bc 99 2e 8b 3c 0f a9 10 3d d4 81 99 3d
       -0.017523203 0.016989993 0.035317477 0.07495466
000270 2f ed 00 bd 53 a2 50 bc db 11 c0 bc 85 26 ec bd
       -0.031476196 -0.012734014 -0.023446014 -0.115307845
000280 41 24 b5 3c 80 3d e5 bc de 46 28 bc 42 ea d1 3d
       0.022112014 -0.027983427 -0.010270802 0.10249759
000290 97 13 2a bc 6d 7a 27 bc a1 e1 dc 3c 67 e6 b4 bb
       -0.010380647 -0.01022206 0.026963057 -0.00552063
0002a0 22 38 fa 3c e6 43 7f 3d b9 f6 5d 3d 81 54 2d 3c
       0.030544344 0.062320612 0.05419037 0.010579229
0002b0 f9 b6 84 bc de 59 9d 3c 57 11 e4 b9 17 fc d1 3c
       -0.01620053 0.019207891 -0.00043500468 0.025632901
0002c0 d7 ac 93 3a d2 30 89 3d 53 b9 8a bc 69 a0 a5 3d
       0.001126672 0.06698765 -0.016934073 0.080872364
0002d0 13 d9 2a bd c5 82 f0 bb 46 fc 74 bc fd fb 84 3c
       -0.041710924 -0.0073398077 -0.014952725 0.016233439
0002e0 ce 7b 49 3e 15 e4 fa 3c aa 5d 17 bd f3 f7 d1 b9
       0.19676134 0.030626336 -0.03695456 -0.00040048323
0002f0 c0 f8 3e 3d 49 2d 56 3a a4 37 de 3c fb 49 51 bc
       0.046623945 0.00081702 0.02712614 -0.012773986
000300 5d 7c 73 bb ce 26 b3 3c 78 be 4e 3d c9 49 da 3c
       -0.0037152984 0.02186909 0.050474614 0.026646512
000310 f3 48 7c 3d 29 9e ae 3a 9a c7 ae 3c 02 f6 b4 3d
       0.061593007 0.0013322282 0.021335412 0.08835985
000320 39 e1 93 bb db af a5 3d 51 fc 47 b9 ae 0a 8c 3d
       -0.0045129326 0.080901824 -0.00019072114 0.068379745
000330 73 0e d9 bd fb a8 94 ba da 9f e6 bd 32 38 9f ba
       -0.10598459 -0.0011341864 -0.11260958 -0.0012147485
000340 16 ac 37 3e 30 c2 9d 3a 16 77 ca 3a a2 f3 b1 3c
       0.1793674 0.0012036022 0.0015446867 0.021722618
000350 31 17 7a 3d 56 c6 ca 3c 22 8a 9a 3c e3 3c f2 3d
       0.061057273 0.024752777 0.018864695 0.118280195
000360 cb db 12 3e f1 69 3a ba ae 9a d6 bc 9a df 4e 3d
       0.14341657 -0.00071111234 -0.026196804 0.05050621
000370 93 3b 90 bc b8 d6 e6 3b 17 ad 11 bc 12 5f 43 bc
       -0.017606532 0.0070446394 -0.0088913655 -0.011924522
000380 9e 08 d8 bd 7d 1f 24 3e 58 69 53 3c 7f 82 0a bc
       -0.105485186 0.16027637 0.012903534 -0.008453964
000390 c0 f2 e2 ba 08 97 23 3d f9 96 82 3d f0 46 65 3b
       -0.0017314777 0.039938956 0.06376452 0.003498491
0003a0 9e 89 2e bc 72 93 d8 3b 13 8b b6 bd 3a f3 95 3d
       -0.010652928 0.0066093737 -0.08913245 0.073217824
0003b0 5a 09 3d 3c 32 97 bc 3c 98 de 8c b7 b3 2f 4a bd
       0.011537874 0.023021314 -1.6792954e-05 -0.049361896
0003c0 93 28 9f bc 51 18 0c 3d 1d 91 80 bc ec 8a af 3c
       -0.019428527 0.034202877 -0.015694195 0.021428548
0003d0 fa 12 66 bd 69 37 ca b9 90 d4 25 bd 65 27 61 bd
       -0.05617044 -0.00038569726 -0.04048592 -0.05496921
0003e0 5e c6 2c 3d ff 3e e0 3d 99 88 bc 3d b7 87 bd 3d
       0.042181365 0.109495156 0.092057414 0.09254401
0003f0 5e 04 9b bc ad 86 d0 bc 5e dd 1c bd 9b 3a 10 bb
       -0.01892298 -0.025454843 -0.03829705 -0.0022007588
