outputs/Optimal_Control/20220401-172154/models/checkpoint.pt (torch, 533487 bytes, 7 tensors)

linear1.weight f4 [256, 2]
0	0x3f0408f3	0.51576155
1	0xbf3bb287	-0.73319286
2	0xbe1e1178	-0.15436351
3	0xbedbdf45	-0.4294378
4	0x3eaab689	0.33342388
5	0x3e3cf488	0.18452656
6	0x3d4a9bbc	0.049464926
7	0x3e39f62a	0.1816031
8	0xbe9cfab1	-0.30660012
9	0xbf204a87	-0.6261372
10	0x3eefbbce	0.4682297
11	0x3ec91540	0.39274025
12	0xbdf661a8	-0.12030345
13	0xbec22812	-0.37921196
14	0xbf31911f	-0.6936206
15	0x3db0d898	0.08635062
16	0x3ea17a23	0.31538495
17	0xbf36ae2b	-0.7135951
18	0x3e795735	0.24349673
19	0x3f043445	0.51642257
20	0xbe99ae5f	-0.30015847
21	0xbcf9b620	-0.030482352
22	0x3e6f46af	0.23366807
23	0x3e4bc088	0.19897664
24	0x3e0ea26d	0.13929148
25	0xbe679d05	-0.22618492
26	0x3ed85d03	0.42258462
27	0x3ea330c2	0.31873137
28	0x3e2c1272	0.16803911
29	0xbf8000cc	-1.0000243
30	0xbec7fd24	-0.39060318
31	0x3f1d9285	0.61551696
32	0xbf1678ce	-0.58778083
33	0x3e8a818a	0.27051955
34	0x3eaacc66	0.3335907
35	0x3eed4d18	0.4634788
36	0xbe6fdbf0	-0.23423743
37	0xbef723f0	-0.48269606
38	0xbf09848b	-0.5371787
39	0xbec10cad	-0.37704983
40	0x3f093c9c	0.5360811
41	0xbebe75b5	-0.37199178
42	0x3e97b1a5	0.2962772
43	0xbf3097af	-0.6898145
44	0xbe0c2018	-0.13684118
45	0xbd756e50	-0.059919655
46	0x3ecddb6c	0.40206468
47	0x3efff5fe	0.49992365
48	0x3ec8f4ba	0.39249212
49	0xbef1cad7	-0.47225067
50	0xbe21f8fc	-0.15817636
51	0xbec502ad	-0.38478604
52	0x3efbe565	0.49198452
53	0xbeb1c21d	-0.3471841
54	0x3e0f6951	0.14005019
55	0x3ecec72f	0.4038634
56	0x3d416f1a	0.047225095
57	0xbcbb4863	-0.022861665
58	0x3de70b6f	0.11281478
59	0xbf98e454	-1.194468
60	0x3b77a541	0.0037787708
61	0x3f273011	0.6530772
62	0xbedc34dc	-0.43009079
63	0xbeb47631	-0.35246423
64	0x3e1549f3	0.1457899
65	0x3f1a60dc	0.60304046
66	0xbf23914d	-0.63893586
67	0xbf274830	-0.65344524
68	0xbf122639	-0.57089573
69	0x3ec2696a	0.3797105
70	0x3eebadcd	0.46031037
71	0x3d3f371d	0.04668342
72	0x3eb402eb	0.35158476
73	0xbf3604fd	-0.7110136
74	0xbe3db455	-0.18525822
75	0x3f32e1b2	0.69875634
76	0xbea68512	-0.325234
77	0xbeec14d3	-0.46109638
78	0xbe7cafb9	-0.24676408
79	0x3f386a11	0.72036844
80	0x3f067e34	0.5253632
81	0xbf0f144b	-0.5589034
82	0x3e3c7476	0.18403801
83	0xbe828fe4	-0.25500405
84	0x3eae4017	0.34033272
85	0xbe158b8a	-0.14604011
86	0xbf11b634	-0.56918645
87	0xbec61c46	-0.38693446
88	0x3d844c44	0.06459859
89	0x3e847b26	0.25875205
90	0x3e136130	0.14392543
91	0x3d730f2f	0.059340652
92	0xbdad310d	-0.08456621
93	0x3e604ecc	0.21905059
94	0x3e8af377	0.27138874
95	0xbf172630	-0.59042645
96	0xbd731097	-0.059341993
97	0x3eb0e05c	0.34546173
98	0x3ecfa086	0.40552157
99	0xbde33521	-0.11094118
100	0x3e9d549f	0.30728623
101	0xbee0b814	-0.4389044
102	0x39870000	0.00025749207
103	0xbf14616f	-0.5796117
104	0xbe9f450c	-0.31107366
105	0x3e9792de	0.29604238
106	0x3cd40c06	0.02588464
107	0x3e49afca	0.19695964
108	0x3ef26fa3	0.47350797
109	0x3ef63379	0.48086146
110	0xbdf371d0	-0.118869424
111	0xbf0cbe7d	-0.5497816
112	0x3f1ba333	0.607959
113	0x3e53a95d	0.20670076
114	0xbee3954d	-0.44449845
115	0x3d8a8ee0	0.067655325
116	0xbf18b807	-0.59655803
117	0xbeeb26ea	-0.45928127
118	0x3dd04ade	0.1017053
119	0xbdde4431	-0.1085285
120	0x3f02c850	0.510869
121	0xbf287582	-0.658043
122	0x3ea1eb18	0.31624675
123	0xbefbd6b2	-0.49187237
124	0xbf1ee78f	-0.6207208
125	0x3e4c6098	0.19958723
126	0x3bd5e099	0.0065270183
127	0x3e1483a5	0.14503343
128	0x3ed5ec5a	0.41781884
129	0x3e7ca32a	0.24671617
130	0x3e4e73b1	0.2016132
131	0x3eb465fe	0.35234064
132	0xbea402dd	-0.32033435
133	0x3d81c970	0.06337249
134	0xbf10d815	-0.56579715
135	0xbe423e68	-0.18969119
136	0x3e8d5d62	0.27610308
137	0xbef78451	-0.48343137
138	0x3ee84892	0.45367867
139	0xbf1d2728	-0.6138787
140	0xbed3370d	-0.41252938
141	0xbf2471a2	-0.6423589
142	0xbe11abe8	-0.14225733
143	0xbc91c1a0	-0.017792523
144	0x3d664d7b	0.056226235
145	0x3ee9cd5d	0.45664492
146	0x3ed0652c	0.40702188
147	0xbf376c7f	-0.71649927
148	0x3e79ec55	0.2440656
149	0xbf1314a6	-0.5745338
150	0xbea8f301	-0.32997897
151	0x3dac1b08	0.08403593
152	0xbf07633f	-0.5288581
153	0x3e83db64	0.2575332
154	0xbeaeb812	-0.3412481
155	0x3debbad8	0.11510247
156	0x3eaa2c4e	0.33236927
157	0xbf00dd8d	-0.5033806
158	0x3e71ef91	0.23626544
159	0xbed8c729	-0.42339447
160	0x3e297a1c	0.16550487
161	0xbecaa5ed	-0.39579716
162	0x3f146dc5	0.57979995
163	0xbe8a4716	-0.2700736
164	0x3e96322b	0.2933515
165	0xbd013810	-0.031547606
166	0xbf14a009	-0.58056694
167	0xbf24b361	-0.6433621
168	0xbeaa870f	-0.33306167
169	0xbd422340	-0.0473969
170	0x3ee6ea98	0.45100856
171	0xbf176794	-0.5914242
172	0x3e6ebb08	0.23313534
173	0xbf1a9035	-0.6037629
174	0x3e6fe6d4	0.23427898
175	0x3e9ac95d	0.30231753
176	0xbf1a78b7	-0.60340446
177	0xbec1cd24	-0.37851822
178	0x3dc508f7	0.096208505
179	0xbf7370ab	-0.9509379
180	0x3eb38ab7	0.3506677
181	0x3f08612b	0.53273267
182	0xbf243071	-0.64136416
183	0xbedf8292	-0.43654305
184	0x3e99884d	0.29986802
185	0xbf2c9143	-0.6740915
186	0xbd933260	-0.07187343
187	0xbe939be3	-0.2882987
188	0xbe969894	-0.29413283
189	0x3de75d40	0.11297083
190	0xbeb4e1b1	-0.3532844
191	0xbf2e48db	-0.6807992
192	0x3f1204d6	0.5703863
193	0x3dc0bbab	0.09410795
194	0x3e79a381	0.24378778
195	0x3c801338	0.015634164
196	0xbf2b9d68	-0.6703706
197	0xbe20bfe8	-0.15698206
198	0xbdd35310	-0.10318577
199	0xbf300405	-0.68756133
200	0xbf0540f8	-0.5205226
201	0x3af1a800	0.0018436909
202	0xbeb4d4d8	-0.35318637
203	0xbef1fc08	-0.47262597
204	0xbed51558	-0.41617846
205	0xbedc98a7	-0.43085214
206	0x3e7a61e0	0.24451399
207	0x3e8786d2	0.26470047
208	0xbf07b422	-0.53009236
209	0xbf326e7d	-0.6969984
210	0xbeb0df98	-0.34545588
211	0x3e45d740	0.19320393
212	0x3ee021e7	0.43775865
213	0xbcad3dca	-0.021147627
214	0x3ebd53cf	0.36978003
215	0xbefc6b9f	-0.49300858
216	0xbd59c41f	-0.05316555
217	0x3e684627	0.22683011
218	0xbf04f575	-0.5193704
219	0xbe98d747	-0.29851744
220	0xbe49d723	-0.19710974
221	0x3edde5ee	0.43339485
222	0xbf25e02c	-0.64795184
223	0xbed76deb	-0.42076048
224	0x3b06f69c	0.0020593768
225	0x3d8ad447	0.0677877
226	0xbe213043	-0.15741067
227	0x3f03e563	0.5152189
228	0xbdd9fbe7	-0.1064375
229	0x3f47629a	0.7788483
230	0xbe0e7418	-0.13911474
231	0x3f0f7310	0.56034946
232	0xb92ae91b	-0.00016299302
233	0x3ed82fc8	0.42223954
234	0x3b9105d5	0.004425744
235	0x3f1c1520	0.60969734
236	0xbb26039b	-0.002533174
237	0x3f165755	0.5872701
238	0xbbf3d280	-0.007440865
239	0xbdd30bf0	-0.10305011
240	0x3edf7949	0.4364722
241	0x3e342a7d	0.17594333
242	0x3e944c56	0.2896449
243	0x3ebfc857	0.37457535
244	0x3e8012dd	0.25014392
245	0xbd84a068	-0.064759076
246	0xbe8551dd	-0.2603902
247	0x3f3aa740	0.72911453
248	0xbf09b520	-0.53792
249	0x3e781358	0.24226129
250	0xbf2c7ad1	-0.673749
251	0xbe30fa90	-0.17283082
252	0xbf030d47	-0.51192135
253	0x3ceee1c0	0.02916038
254	0xbcf722d5	-0.030167976
255	0x3df54a73	0.11977091

linear1.bias f4 [256]
0	0x3f9fd70b	1.2487501
1	0x3e0e6238	0.13904655
2	0xbd58525b	-0.052812915
3	0xbfa45773	-1.2839187
4	0x3d209386	0.03920319
5	0x3fd7d234	1.6861024
6	0xbdbf3798	-0.093367755
7	0x3f1e3431	0.6179839
8	0x3f80fc3a	1.0076973
9	0xbcbe2d88	-0.02321507
10	0xbbab6100	-0.005230069
11	0xbf9fc171	-1.2480909
12	0x3f94fc7f	1.1639556
13	0xbf9bf411	-1.2183858
14	0x3e13a9ac	0.14420193
15	0xbea13f1f	-0.3149347
16	0xbdc73488	-0.097268164
17	0xbfac6c56	-1.3470562
18	0xbead662f	-0.33867022
19	0x3f026ab4	0.50944066
20	0x3fadc11f	1.3574561
21	0xbd3b524c	-0.04573278
22	0xbe9d346e	-0.30704063
23	0x3f60f40e	0.878724
24	0xbf90bf63	-1.1308407
25	0x3e8313de	0.25601095
26	0xbd9a87c4	-0.075454265
27	0xbf9a4412	-1.2052023
28	0xbfba1156	-1.453654
29	0x3e997a4e	0.29976124
30	0xbfc634ab	-1.5484823
31	0x3e2e6257	0.17029701
32	0xbf8384a9	-1.027486
33	0x3de5df12	0.11224188
34	0x3f2372ec	0.6384723
35	0xbf205a94	-0.6263821
36	0x3f5243c4	0.8213465
37	0x3f9e7d5a	1.2382004
38	0x3efb1b0e	0.4904408
39	0xbf484e60	-0.7824459
40	0x3fbf94f8	1.4967337
41	0x3ec37bb0	0.38180304
42	0xbf192c82	-0.5983354
43	0x3e6b84e6	0.22999915
44	0x3f62170a	0.88316405
45	0xbfe3b16d	-1.7788521
46	0xbf1b78eb	-0.6073138
47	0x3d8fc9ba	0.07020898
48	0x3fbe3801	1.4860841
49	0x3f2707dc	0.6524637
50	0x3f81171d	1.0085179
51	0xbe81a444	-0.25320637
52	0xbd9de560	-0.077097654
53	0x3f2184aa	0.63093054
54	0x3fba0aec	1.4534583
55	0x3f1c74e1	0.61115843
56	0xbfc24f65	-1.5180479
57	0xbf1a918d	-0.6037834
58	0xbef12950	-0.4710183
59	0x3f8e3c86	1.111222
60	0xbee0c4f5	-0.43900266
61	0x3f67e623	0.90585536
62	0x3eb6592e	0.35614914
63	0xbf982f2e	-1.1889398
64	0xbe095b81	-0.13413812
65	0xbf8679fc	-1.0505977
66	0xbef478ed	-0.4774851
67	0x3ece95ee	0.40348762
68	0xbec42a1a	-0.3831337
69	0xbf83eb13	-1.0306114
70	0xbf1bd79f	-0.60875887
71	0xbe8b4669	-0.27202156
72	0xbfcf7e4e	-1.621042
73	0xbf62d39c	-0.8860414
74	0x3e0b9c04	0.13633734
75	0x3e8bea90	0.27327394
76	0x3f132cdf	0.5749034
77	0x3e881e31	0.26585534
78	0xbfba3574	-1.4547563
79	0xbd9e92fd	-0.077428795
80	0x3ec4b088	0.38415933
81	0xbe9a6972	-0.30158573
82	0xbf454ea3	-0.77073115
83	0xbec2fac4	-0.38081944
84	0x3e2a45bf	0.16628169
85	0x3d5b131b	0.053485017
86	0xbba87fa5	-0.0051421695
87	0xbfc20554	-1.5157876
88	0x3dc31716	0.09525888
89	0xbf7b62ba	-0.9819752
90	0x3fbb2394	1.4620233
91	0xba6c6f99	-0.0009019315
92	0xbf28a2fc	-0.65873694
93	0x3ee13389	0.4398463
94	0x3ef9e51c	0.4880761
95	0xbe8c1732	-0.27361447
96	0x3ec42301	0.38307956
97	0xbf9dcd91	-1.2328359
98	0x3f1ba72d	0.60801965
99	0xbedad84a	-0.4274314
100	0x3d7b280a	0.06131748
101	0xbf0e0096	-0.55469644
102	0xbaab8826	-0.001308684
103	0x3edb9d6e	0.42893547
104	0x3e41010d	0.18848057
105	0x3ec6cf73	0.38830146
106	0x3eda6e63	0.42662343
107	0x3e72a5db	0.23696081
108	0xbf88e442	-1.0694659
109	0xbed5c230	-0.41749716
110	0x3eb64a3c	0.3560351
111	0x3f2b01b4	0.66799474
112	0xbf8a26e3	-1.0793117
113	0xbf78f62d	-0.97250634
114	0x3fe84bdd	1.8148152
115	0x3fb43319	1.4078094
116	0xbf801a72	-1.000807
117	0xbfc7a775	-1.5597979
118	0xbf693cdb	-0.91108483
119	0xbf09a3cc	-0.5376556
120	0x3eba9b75	0.3644673
121	0xbe9943e8	-0.2993462
122	0xbfc704fa	-1.5548394
123	0xbf9beff4	-1.2182603
124	0xbeb27209	-0.34852627
125	0x3e8eae34	0.2786728
126	0xbe995d02	-0.29953772
127	0x3ed3b565	0.4134933
128	0xbf06dc8b	-0.5268027
129	0x3f0e5f8c	0.5561454
130	0x3f218c60	0.6310482
131	0x3fac52bb	1.3462747
132	0xbee8a6a9	-0.45439652
133	0xbfad4757	-1.3537396
134	0xbed618c0	-0.41815758
135	0xbdb53274	-0.08847514
136	0x3e1dda11	0.15415217
137	0xbfce41cd	-1.6113831
138	0x3f0599d1	0.5218783
139	0xbf86f513	-1.0543541
140	0xbe231022	-0.15924123
141	0xbe89f48c	-0.26944387
142	0xbee60c95	-0.44931474
143	0xbfcac2e8	-1.5840731
144	0xbf2847d4	-0.657346
145	0xbfd90d43	-1.6957172
146	0x3f14b2f4	0.5808556
147	0xbf4f3b62	-0.80949986
148	0x3d4d7302	0.050158508
149	0x3ef77be0	0.48336697
150	0xbec0e64e	-0.3767571
151	0xbeed318e	-0.4632687
152	0x3e02a9ac	0.12760037
153	0xbed306b9	-0.41216066
154	0xbf863a34	-1.0486512
155	0xbef70ca2	-0.48251826
156	0x3f7e620d	0.99368364
157	0x3fb56049	1.4170009
158	0x3f6e7d66	0.9316009
159	0xbf0201e2	-0.5078412
160	0xbebefe75	-0.3730351
161	0x3c312b4b	0.0108135445
162	0xbf0f536f	-0.55986685
163	0xbfbbd153	-1.4673256
164	0xbf479254	-0.77957654
165	0xbf63ed5a	-0.89034045
166	0xbd0060f0	-0.031342447
167	0xbe7c2f42	-0.24627402
168	0x3e92557d	0.28580847
169	0xbf9c0f0c	-1.2192092
170	0xbe28dde8	-0.164909
171	0xbfecd180	-1.8501434
172	0x3e0cf6bb	0.13765995
173	0xbedc29a8	-0.4300053
174	0x3e7f5aa5	0.24936922
175	0x3f912f43	1.1342548
176	0xbf0d4106	-0.5517734
177	0xbfa60462	-1.2970088
178	0xbf08ff80	-0.5351486
179	0x3fb96303	1.4483341
180	0xbf721e60	-0.945776
181	0x3f8314e0	1.0240746
182	0xbd476980	-0.048684597
183	0xbfa2be1f	-1.271427
184	0xbffa5383	-1.9556736
185	0xbf5f7e25	-0.87301856
186	0x3f1a3a4b	0.602452
187	0xbf8d9bf2	-1.1063216
188	0xbf8b62c2	-1.0889513
189	0xbf9cedf9	-1.2260123
190	0xbf92c625	-1.1466719
191	0x3eb32531	0.34989312
192	0x3fcf8704	1.6213078
193	0x3e68116a	0.22662893
194	0xbf416ff8	-0.75561476
195	0x3f8be2dc	1.0928607
196	0xbe0cabf4	-0.1373747
197	0x3f979d12	1.1844809
198	0xbe8d69de	-0.27619833
199	0xbf1cd514	-0.6126263
200	0xbfb04644	-1.3771443
201	0x3fa46060	1.2841911
202	0xbf16032a	-0.5859858
203	0x3ef578bd	0.47943678
204	0xbe2134b4	-0.15742761
205	0xbfb02f2a	-1.3764393
206	0xbef08b82	-0.46981436
207	0x3db860c7	0.09002834
208	0xbf12ca42	-0.5733987
209	0xbfb64d9a	-1.4242432
210	0xbec294ab	-0.3800405
211	0xbfb091fd	-1.3794552
212	0xbe049fb5	-0.12951548
213	0xbfd5012e	-1.6640985
214	0xbee6afd3	-0.45056018
215	0x3fb70fed	1.4301735
216	0xbf8aab51	-1.0833532
217	0x3f2b2963	0.66860026
218	0xbfa16b26	-1.2610824
219	0xbd807f80	-0.06274319
220	0x3ecf0af6	0.4043805
221	0x3efbfe21	0.49217322
222	0x3e09a992	0.13443592
223	0x3ef9c414	0.48782408
224	0x3faff4f1	1.3746625
225	0x3f8573c1	1.042595
226	0xbf88a8cb	-1.0676512
227	0xbeb98f36	-0.36242074
228	0x3e158a6a	0.14603582
229	0x3f93e93f	1.1555556
230	0x3e5cc052	0.2155774
231	0x3fc92d68	1.5716982
232	0xbfbdd0e8	-1.4829378
233	0xbd74ed40	-0.05979657
234	0x3fb79559	1.4342452
235	0x3e032590	0.12807298
236	0xbfe535b3	-1.7907013
237	0xbfb75e02	-1.4325564
238	0xbd112590	-0.035436213
239	0xbe755d00	-0.23961258
240	0xbf38195b	-0.7191369
241	0x3f8df2e1	1.1089746
242	0xbfbddaa2	-1.4832346
243	0xbfbdbdf0	-1.4823589
244	0x3faf2f0c	1.3686233
245	0xbf0cc704	-0.54991174
246	0xbebfaf3e	-0.37438387
247	0xbf25b2d7	-0.6472601
248	0xbfccfea3	-1.6015209
249	0xbfca1574	-1.5787797
250	0xbe9b13b4	-0.3028847
251	0xbf7d3489	-0.9890829
252	0xbedc8bb7	-0.43075344
253	0x3e07340e	0.13203451
254	0xbfa06b5a	-1.2532761
255	0xbf216184	-0.6303942

linear2.weight f4 [256, 256]
0	0x3d7c50dd	0.061600555
1	0xbd3118aa	-0.043236412
2	0xbcdc858e	-0.026919153
3	0xbaa3c8aa	-0.0012495716
4	0x3b229fe3	0.0024814538
5	0xbd805a22	-0.062671915
6	0xbc8d8ef8	-0.017280087
7	0x3d33c3bb	0.043887835
8	0x3afa2ac6	0.0019086234
9	0xbd3faa97	-0.046793547
10	0xbcfe34d0	-0.031031042
11	0x3d14400a	0.036193885
12	0xbc6f2e46	-0.014598435
13	0x3bb6543a	0.00556424
14	0x3dc947f1	0.09828175
15	0xbb3373f0	-0.0027382337
16	0x3c1c7478	0.009549253
17	0xbb94e525	-0.0045439177
18	0xbd352d42	-0.044232614
19	0xbd02ba62	-0.03191603
20	0x3cb1c980	0.021702528
21	0xbd379168	-0.044816405
22	0xbd15cdfc	-0.036573395
23	0xbb6305dd	-0.0034640946
24	0xbd06feae	-0.032957725
25	0x3cf39efb	0.029738894
26	0x3d64d370	0.055865705
27	0x3c48b180	0.012249351
28	0x3b9d722f	0.0048048715
29	0x3e17ec86	0.1483632
30	0xbe1255b8	-0.14290512
31	0xbd472142	-0.0486157
32	0x3d13aeef	0.0360555
33	0xbd3257b4	-0.04354067
34	0x3c356484	0.011071328
35	0x3c315ceb	0.010825376
36	0xbd139cef	-0.036038335
37	0x3cc78999	0.024357604
38	0xbd0196e8	-0.031638056
39	0xbbbdb133	-0.005788946
40	0x3d0f524e	0.0349906
41	0x3d1112d6	0.035418354
42	0xbcd3533b	-0.025796523
43	0x3cd23501	0.02566004
44	0x3d07dce5	0.033169646
45	0xbd31c73c	-0.043402895
46	0xbd171271	-0.03688282
47	0x3c9fe080	0.01951623
48	0xbc42f5f4	-0.01189946
49	0xbd188d4e	-0.037244134
50	0xbce920cc	-0.028458022
51	0x3d6b8b3a	0.057505824
52	0xbd46b276	-0.048510037
53	0xbd2d06a7	-0.042242672
54	0xbd53de0a	-0.051725425
55	0x3c16f4fa	0.00921368
56	0xbd13e0d3	-0.03610308
57	0xbc1f6948	-0.009729691
58	0x3d3ce83e	0.04611992
59	0x3c3b3a50	0.011427477
60	0xbcdf7c7d	-0.02728104
61	0xbcc773b4	-0.024347164
62	0x3ceb3679	0.028712498
63	0x3a07d6c8	0.0005181846
64	0xbd815464	-0.06314924
65	0x3c3a40bd	0.011367974
66	0x3c822650	0.01588741
67	0xbcf4c730	-0.029880136
68	0x3d15f262	0.036608107
69	0x3c8f7788	0.017513052
70	0x3c5fdeb0	0.013663933
71	0xbad20900	-0.0016024411
72	0xbd257c83	-0.040401947
73	0x3d0ee9f9	0.034891102
74	0xbcfea275	-0.031083325
75	0x3d2bffe8	0.041992098
76	0x3d0cb3cb	0.03435115
77	0xbd2cd7c1	-0.042197946
78	0x3b9b1966	0.0047332523
79	0xbd4f3d27	-0.05059543
80	0x3d149d35	0.036282737
81	0x3d4e029b	0.050295454
82	0x3d620a23	0.05518545
83	0x3cb5dbb0	0.022199482
84	0x3c22ae08	0.009929188
85	0xbd44ae20	-0.04801762
86	0x3cb35f27	0.021895958
87	0x3c832fcd	0.016014004
88	0xbc829468	-0.015939906
89	0x3d818db5	0.063258566
90	0x3b0b33cc	0.002124059
91	0x3d31d27b	0.04341362
92	0xbc5b98bf	-0.013403117
93	0x3d49f6f9	0.049307797
94	0xbd28fab4	-0.041254714
95	0xbd69380c	-0.056938216
96	0x3d0ca61b	0.034338098
97	0xbd5e4b0b	-0.054270785
98	0xbd2703a3	-0.040774953
99	0x3d4e9cfa	0.050442673
100	0xbd29a194	-0.04141386
101	0x3d6cc284	0.057802692
102	0xbc9fb320	-0.019494593
103	0x3bef2f78	0.00729936
104	0xbc6bc665	-0.014390563
105	0x3d1df425	0.038562912
106	0x3ced1c98	0.028944299
107	0x3c445ee4	0.011985514
108	0xbd92adce	-0.07162057
109	0xbd0e39ec	-0.034723207
110	0xbc699fde	-0.014259307
111	0xbd2057dc	-0.03914629
112	0xbd8831c8	-0.0665012
113	0xba98eeb7	-0.0011667822
114	0x3d56e6cc	0.0524662
115	0x3d16f99c	0.03685914
116	0xbdb9bb07	-0.09068876
117	0xbe05fadc	-0.13083977
118	0xbdbd3b98	-0.09239882
119	0xbd4db37a	-0.05021999
120	0x3c2782a1	0.010224015
121	0xbbe98633	-0.0071265935
122	0x3c9de20d	0.019272828
123	0x3d23fb41	0.040034536
124	0xbc1a4788	-0.009416468
125	0x3cfb199e	0.030651864
126	0xbcab1bc8	-0.02088727
127	0x3d2f0f3a	0.04273913
128	0x3bf14201	0.0073626046
129	0xbbe417d4	-0.0069608483
130	0xbc2c733a	-0.010525519
131	0x3d4a3fb5	0.049377162
132	0x3d336546	0.043797754
133	0xbe59c4bd	-0.21266456
134	0x3cc25188	0.023720518
135	0x3cf2b564	0.02962751
136	0x3d4b3611	0.04961211
137	0xbd130ff8	-0.0359039
138	0xbce20e53	-0.027594721
139	0xbd3a4499	-0.045475576
140	0xbd340235	-0.043947417
141	0xbd7000ca	-0.058594503
142	0xbc9886e0	-0.018619
143	0x3d241295	0.040056784
144	0xbc630568	-0.013856269
145	0xbd8a5fe5	-0.06756572
146	0x3c885f44	0.016646989
147	0xbcac6ad1	-0.021047028
148	0x3b5bfac4	0.0033566216
149	0x3a82678f	0.0009949076
150	0xbd7d25d0	-0.06180364
151	0xbd5f3f66	-0.05450382
152	0xbcdda4aa	-0.027056057
153	0xbc006bbe	-0.007838188
154	0x3bf20bdf	0.007386669
155	0xbc92fc43	-0.017942553
156	0xbd17ca49	-0.03705815
157	0x3d0fca4b	0.03510503
158	0x3bce301a	0.0062923552
159	0xbd6645aa	-0.05621878
160	0x3b88e7a8	0.004178006
161	0xbcd04584	-0.025423773
162	0xbc92c6c4	-0.017917044
163	0xbd34f5e2	-0.044179805
164	0xbc712019	-0.014717125
165	0xbd55451c	-0.05206786
166	0xbd5dfed8	-0.054198116
167	0x3d4abac4	0.04949452
168	0x3bd3874f	0.006455339
169	0xbd72679c	-0.05918084
170	0xbd6ff854	-0.058586434
171	0x3c3fba12	0.011702077
172	0xbd28a2b9	-0.04117081
173	0xbd60e0f8	-0.054902047
174	0x3d439d17	0.047757234
175	0x3d6b4cf6	0.057446443
176	0xbd1ff92d	-0.039055992
177	0xbd9f339a	-0.07773514
178	0x3d559ee4	0.052153483
179	0x3d87c5aa	0.06629498
180	0xbd81aa6a	-0.06331332
181	0xbd3fed96	-0.04685744
182	0x3d503540	0.050832033
183	0x3c2bf676	0.010495773
184	0x3b3417e9	0.0027480072
185	0x3b2fe8d7	0.0026841664
186	0x3d4b0c11	0.049572054
187	0xbbd690f2	-0.0065480405
188	0xbd36471e	-0.044501416
189	0xbc77cb2e	-0.015124125
190	0xbb968a4f	-0.0045941244
191	0xbd57d8f2	-0.05269713
192	0x3d51c253	0.051210713
193	0x3c877f20	0.01654011
194	0xbcafc3bb	-0.021455636
195	0x3d20d418	0.03926477
196	0xbc938bec	-0.018011056
197	0xbd24f27f	-0.040270325
198	0xbd887b65	-0.06664161
199	0xbc46a26a	-0.0121236835
200	0xbe44a0e2	-0.19201997
201	0xbe1bbeda	-0.15209523
202	0x3d0f4b7f	0.034984108
203	0xbb04a82b	-0.0020241837
204	0x3ca47e1c	0.020079665
205	0x3d487c63	0.04894675
206	0x3d1bc05e	0.038025253
207	0xbc04e702	-0.008111717
208	0xbd37327e	-0.044725887
209	0xbcfe658c	-0.03105428
210	0x3d0013fe	0.031269066
211	0xbc93cb88	-0.018041387
212	0x3bddfa68	0.0067742355
213	0xbd43ae96	-0.04777392
214	0x3ce9b862	0.028530303
215	0x3d8bfb46	0.06835036
216	0xbd49f21d	-0.049303163
217	0x3d326d42	0.043561228
218	0xbd34bfde	-0.04412829
219	0xbce83a64	-0.028348155
220	0xbb0d73f6	-0.002158401
221	0x3d5dc5d3	0.054143738
222	0xbd282364	-0.041049376
223	0x3d13bebf	0.03607058
224	0x3cd3b7be	0.025844451
225	0x3be63ec3	0.0070265247
226	0xbdc4e013	-0.09613051
227	0x3d4d0ad7	0.050059166
228	0xbd873864	-0.066025525
229	0x3d880bb1	0.06642855
230	0x3d28559a	0.04109726
231	0xbc92e079	-0.017929303
232	0xbd44e614	-0.048070982
233	0x3ccd6b28	0.02507551
234	0xbca729df	-0.020405708
235	0x3a216536	0.0006156744
236	0xbd881a8b	-0.06645688
237	0xbcb59166	-0.022164058
238	0x3d28cc44	0.041210428
239	0xbbe8ae20	-0.0071008354
240	0xbc8b05c7	-0.016970528
241	0xb9bf5199	-0.00036491154
242	0xbd290bc5	-0.04127099
243	0xbe0cbb1b	-0.1374325
244	0x3d38a7cd	0.045081902
245	0x3d6c3d8e	0.05767589
246	0xbaee4080	-0.0018177181
247	0x3d066b34	0.03281708
248	0xbba45047	-0.0050144526
249	0xbc910938	-0.017704591
250	0x3d310ff2	0.043228097
251	0xbbed0d07	-0.007234219
252	0xbca8670c	-0.02055695
253	0x3c9c70d8	0.019096777
254	0xbdad0ff4	-0.084503084
255	0x3d526334	0.05136414

linear2.bias f4 [256]
0	0x3dac53da	0.08414431
1	0xbd7713fb	-0.06032179
2	0x3b7b63dd	0.0038359084
3	0x3b5a5f47	0.003332095
4	0xb95efe00	-0.00021266192
5	0xbd211d50	-0.039334595
6	0xbd03cd32	-0.03217811
7	0x3b190c0d	0.002335313
8	0xbac5b9dc	-0.0015085298
9	0x3c22fb72	0.009947645
10	0xbd7512f9	-0.059832547
11	0x3c85f67a	0.01635288
12	0xbedfcf60	-0.43712902
13	0x3dd1b491	0.102395184
14	0x3b8cae08	0.004293207
15	0x3da2fd88	0.079585135
16	0x3d0b6b49	0.034037862
17	0x3d8b0861	0.067887075
18	0xba506300	-0.00079493225
19	0xbd093ad7	-0.03350338
20	0x3de5dc5e	0.11223672
21	0x3cd339d6	0.025784414
22	0xbed307ff	-0.41217038
23	0xbc90d00d	-0.017677331
24	0x3f4933eb	0.78594846
25	0xbd9621b7	-0.07330649
26	0xbc0f07d9	-0.008729898
27	0xbd06a42a	-0.032871403
28	0xbd4e36cc	-0.050345227
29	0xbc97c2f0	-0.01852557
30	0xbc4fa5ea	-0.012673834
31	0x3caba198	0.020951077
32	0xbd2c212e	-0.04202383
33	0xbd59f57e	-0.053212635
34	0x3e210125	0.15723093
35	0xbd6136e5	-0.054983992
36	0xbd0f8702	-0.035040863
37	0x3d42c20f	0.04754835
38	0xbc86c19f	-0.016449748
39	0xbd03e4b0	-0.032200515
40	0xbce0932d	-0.027413929
41	0xbd7f97db	-0.06240068
42	0x3cff49d1	0.031163128
43	0x3cccacd2	0.02498475
44	0xbcea14f9	-0.028574454
45	0xbcb4226b	-0.021989068
46	0xbc4104dd	-0.011780945
47	0xbd0da1f0	-0.034578264
48	0xbde288a5	-0.11061219
49	0x3c990578	0.018679366
50	0x3d977d1d	0.0739691
51	0xbc90b7f2	-0.017665837
52	0xbd1dd00c	-0.038528487
53	0xbea9cb88	-0.33163095
54	0xbcb00e2e	-0.021491136
55	0xbd51559a	-0.051107027
56	0x3d04c383	0.032413017
57	0xbcadf0c4	-0.02123297
58	0xbca1c33d	-0.019746417
59	0x3e502761	0.20327522
60	0xbbc96016	-0.0061454875
61	0xbc88207e	-0.016617056
62	0xbd133db7	-0.035947528
63	0xbc057378	-0.008145206
64	0xbc6b57bf	-0.014364182
65	0xbd128e77	-0.035780396
66	0x3dabcd5e	0.0838878
67	0x3cad4e9e	0.021155652
68	0xbe0311fd	-0.1279983
69	0x3b94452a	0.0045248466
70	0xbc67eee6	-0.014156079
71	0x3d69898a	0.057015933
72	0x3c9709ca	0.018437285
73	0xbd5ad512	-0.053425856
74	0x3d208f8a	0.03919939
75	0x3c3c6599	0.011498832
76	0x3e05a32f	0.13050531
77	0x3d4aa48b	0.049473327
78	0x3d170d64	0.036878005
79	0xbc819d25	-0.015822003
80	0x3cefc400	0.029268265
81	0x3f0626a6	0.5240272
82	0x3d1db7d9	0.03850541
83	0x3d66baa3	0.056330334
84	0x3d42b685	0.047537345
85	0x3cde4112	0.027130637
86	0x3cbe99dd	0.023266727
87	0x3e1b96fa	0.15194312
88	0x3bee7f03	0.0072783246
89	0x3d001013	0.03126533
90	0xbc14a16f	-0.009071692
91	0x3d97b778	0.07408041
92	0x3d060dbb	0.03272794
93	0xbc84b9ae	-0.01620182
94	0x3d42ee87	0.04759076
95	0xbd1801e7	-0.03711119
96	0xbed111a5	-0.40833774
97	0xbf1b1954	-0.6058552
98	0x3cc7cf4c	0.024390839
99	0x3c397450	0.011319235
100	0xbe0b4c9f	-0.13603447
101	0x3bf8c2b9	0.007591572
102	0xbb64290a	-0.00348145
103	0x3c8e565f	0.01737517
104	0xbedd00a8	-0.43164563
105	0x3b9951e3	0.004678951
106	0xbf692162	-0.91066563
107	0xbd4b37a8	-0.049613625
108	0xbd1bf078	-0.038071126
109	0xbd3f4572	-0.046697088
110	0xbd298bab	-0.041392963
111	0x3b06e5d7	0.0020583773
112	0xbb4f11e5	-0.003159636
113	0x3a5b5dcb	0.0008368163
114	0x3c7fe8e8	0.015619494
115	0x3cbecc0c	0.023290657
116	0x3d7fbdc6	0.06243684
117	0xbc99ad7d	-0.018759483
118	0xbdf1148a	-0.11771496
119	0x3c88f76d	0.016719544
120	0x3d1f104e	0.03883391
121	0xbc77295f	-0.015085547
122	0xbd5bdcc0	-0.05367732
123	0x3cf27b38	0.02959977
124	0xbd564928	-0.05231586
125	0x3d02bca3	0.03191818
126	0x3ccdd41b	0.025125554
127	0xbf884ca3	-1.0648388
128	0xbd09d0be	-0.033646338
129	0x3e8795b6	0.26481408
130	0x3c81981b	0.0158196
131	0x3c7bc193	0.015365976
132	0xbd0bd103	-0.034134876
133	0x3b2d8e00	0.0026482344
134	0x3c8e9041	0.01740277
135	0xba863b45	-0.0010241052
136	0xbd3316c4	-0.043722883
137	0x3ce04914	0.027378596
138	0x3d7ad874	0.061241582
139	0x3caf7dcf	0.021422295
140	0xbc5cf4ef	-0.013486131
141	0xbcd11e8e	-0.025527265
142	0x3d707f31	0.05871505
143	0x3db331c6	0.08749728
144	0x3e2146aa	0.15749612
145	0xbc135e27	-0.008994616
146	0xbd506eec	-0.050887033
147	0xbd815650	-0.06315291
148	0x3d1ed8dd	0.038781036
149	0x3d63d9a7	0.05562749
150	0x3bc6acdb	0.0060630864
151	0xbd1a6f87	-0.037704017
152	0xbf097335	-0.53691417
153	0x3af1c195	0.0018444533
154	0x3c2cf0f8	0.010555498
155	0xbd3bdabc	-0.0458629
156	0xbd31a67d	-0.043371666
157	0xbd7e88a8	-0.062142044
158	0xbc51b802	-0.012800219
159	0x3d282b65	0.04105701
160	0x3d310614	0.043218687
161	0xbca19f05	-0.019729147
162	0xbcd0db70	-0.025495261
163	0xbd60d04a	-0.05488614
164	0x3d19ba2b	0.03753106
165	0x3d69c738	0.057074755
166	0xbc406423	-0.011742624
167	0xbd454e75	-0.048170526
168	0xbbca2598	-0.0061690323
169	0x3c5f6387	0.013634569
170	0x3d36a997	0.044595327
171	0xbbd089b1	-0.0063640703
172	0xbd37a062	-0.044830687
173	0x3d8c2eb9	0.06844849
174	0xbd028ede	-0.03187453
175	0x3b26a1fd	0.0025426142
176	0xbdaedc41	-0.08538104
177	0x3dc5babf	0.096547596
178	0xbd4dd650	-0.050253212
179	0xbe04d10c	-0.1297037
180	0xbeaa82cc	-0.33302915
181	0xbe17e8a4	-0.14834839
182	0xbc139500	-0.009007692
183	0xbc71a5f9	-0.014749044
184	0xbd10a633	-0.03531475
185	0x3db4ce2a	0.08828385
186	0x3c16bff5	0.00920104
187	0xbcacee89	-0.021109836
188	0x3e126ca0	0.1429925
189	0xbe19397f	-0.1496334
190	0xbd424c45	-0.047436018
191	0x3e0ea5f0	0.13930488
192	0x3d77217e	0.060334675
193	0x3ccdf7e2	0.025142614
194	0xbc608cea	-0.0137054715
195	0x3c340778	0.010988109
196	0xbd5b7daa	-0.05358664
197	0xbd419619	-0.047262285
198	0x3da59421	0.08084894
199	0xbd1a4696	-0.037664972
200	0x3c97b3d9	0.018518375
201	0xbd138620	-0.036016583
202	0x3c9fc468	0.019502833
203	0x3d5f335e	0.054492347
204	0x3d04706b	0.032333773
205	0xbc04dd39	-0.008109384
206	0xbe7de2f4	-0.24793607
207	0x3d1f64d7	0.038914528
208	0xbcbc71a4	-0.023003407
209	0xbd1682d2	-0.036745854
210	0xbc4c6168	-0.012474395
211	0x3cff7aa8	0.031186417
212	0x3c2c0d18	0.010501169
213	0xbd8008f5	-0.062517084
214	0x3d5d6eb0	0.054060638
215	0x3cf7a542	0.030230168
216	0xbd109b98	-0.035304636
217	0x3cb74bd6	0.022375029
218	0xbcbb4aad	-0.022862757
219	0x3d0efbaf	0.034907993
220	0x3d0ed55f	0.034871455
221	0x3b69d120	0.0035677627
222	0xbdc13260	-0.094334364
223	0xbe3ae29b	-0.18250506
224	0x3d5e18a3	0.054222714
225	0xbd327a72	-0.043573804
226	0xbc2c0e21	-0.0105014155
227	0x3c8d2daa	0.017233688
228	0xbd691518	-0.056904882
229	0xbd113ea0	-0.035460114
230	0x3abbba67	0.001432252
231	0xbd1dc2ea	-0.038515963
232	0xbe8a65be	-0.27030748
233	0xbe4ae214	-0.19812804
234	0xbcaba76c	-0.020953856
235	0x3c453692	0.012036936
236	0xbcd2e514	-0.025743999
237	0x3dc61012	0.09671034
238	0x3d33f9c8	0.04393938
239	0x3c3e4ba0	0.01161471
240	0xbe3d84dd	-0.18507715
241	0xbd8bd57e	-0.0682783
242	0x3d4fc52d	0.05072515
243	0x3c9974ed	0.018732512
244	0x3d0f0488	0.03491643
245	0xbc388fd2	-0.011264758
246	0x3db0350e	0.086038694
247	0x3d040d52	0.032239266
248	0x3e7844f2	0.2424505
249	0x39f7ed00	0.0004728809
250	0xbe6be237	-0.23035513
251	0x3bde1c82	0.0067783007
252	0x3d4b794f	0.049676236
253	0xbc9bac20	-0.019002974
254	0xbbc33caf	-0.005958162
255	0x3c86fa27	0.016476704

linear4.weight f4 [256, 256]
0	0x3d293b88	0.04131654
1	0x3d970294	0.073735386
2	0x3d55b2af	0.05217236
3	0xbc9e3b27	-0.019315315
4	0x3d17e88c	0.03708701
5	0xbcd1bf14	-0.025603808
6	0x3d6ea4b0	0.058262527
7	0x3cbad937	0.022808654
8	0xbd4455c7	-0.047933366
9	0x3d82d33f	0.06387948
10	0x3cfc46a8	0.03079541
11	0x3cd82636	0.026385408
12	0x3cb27602	0.021784786
13	0x3c14168b	0.009038578
14	0xbcfb3e64	-0.030669399
15	0xbba6e6d3	-0.0050934344
16	0x3d5bcc09	0.05366138
17	0xbbcf72cd	-0.006330824
18	0x3c9fb7e8	0.019496873
19	0xbd3438a8	-0.043999344
20	0xbd59b6ba	-0.053152777
21	0x3d51de33	0.051237296
22	0x3c0dce1f	0.0086551
23	0x3c7a94eb	0.015294294
24	0xbd32fb6e	-0.043696813
25	0x3d7298d3	0.059227776
26	0x3d1e641c	0.03866969
27	0xbd0cfdf2	-0.03442187
28	0xbc89e6c0	-0.016833663
29	0xbd745e44	-0.05966021
30	0xbcd0ead0	-0.025502592
31	0x3d6f0688	0.058355838
32	0x3d635cd6	0.055508457
33	0x3b8f8070	0.0043793246
34	0x3d6eca0d	0.05829816
35	0xbd404122	-0.046937115
36	0x3c638a10	0.013887897
37	0xbd20da8a	-0.039270915
38	0x3a51f2d7	0.0008008903
39	0xbc6f7ba0	-0.014616877
40	0xbc14b4b4	-0.009076286
41	0xbae1f311	-0.0017238577
42	0x3c2c3f70	0.010513172
43	0x3d742449	0.059604917
44	0x3cb6b146	0.022301327
45	0x3c96083c	0.018314473
46	0x3b742df0	0.0037258826
47	0x3d0e0416	0.034671865
48	0x3c07b520	0.00828293
49	0x3d2b174c	0.041770265
50	0x3cf0071d	0.029300267
51	0x3d6a0687	0.05713513
52	0x3cdf0200	0.027222633
53	0xbd5f8271	-0.054567758
54	0x3d219680	0.03945017
55	0x3aca9e18	0.0015458493
56	0xbcc71b23	-0.024304932
57	0xbcd681f4	-0.026185013
58	0xbc6bebd8	-0.014399491
59	0xbc963854	-0.018337406
60	0x3a46d618	0.0007585003
61	0xbc6b0c76	-0.014346233
62	0xbbf65055	-0.0075169005
63	0x3cc4fc0c	0.024045967
64	0x3cc950a3	0.024574583
65	0xbd6789af	-0.05652779
66	0x3cab3483	0.020899063
67	0x3cc6fa8f	0.024289398
68	0x3d4d536b	0.05012838
69	0x3d6a40c1	0.05719066
70	0xbbc8bdd4	-0.006126145
71	0xbcc38c54	-0.023870625
72	0xbb481c15	-0.0030534316
73	0xbd1235f6	-0.035695992
74	0x3d260ba0	0.04053843
75	0x3d0b46a0	0.0340029
76	0xbc280261	-0.010254473
77	0x3d3a534f	0.045489606
78	0xbd092563	-0.03348292
79	0xbd377b60	-0.044795394
80	0xbd699e9a	-0.05703602
81	0x3cf59550	0.029978424
82	0xbcedcabb	-0.029027333
83	0xbce3a890	-0.027790338
84	0x3d2aa1de	0.041658275
85	0x398dcf19	0.00027047916
86	0xbc094507	-0.008378274
87	0xbc019fdb	-0.007911648
88	0x3d2a75bb	0.041616183
89	0x3d3469bc	0.04404615
90	0xbd0efeb1	-0.03491086
91	0x3d29e0de	0.041474216
92	0x3c0a91a4	0.008457575
93	0x3d1a3c99	0.037655447
94	0x3d4e2b31	0.05033416
95	0x3bbf4308	0.005836848
96	0x3a5b28db	0.0008360275
97	0xbcd7d6e9	-0.026347594
98	0x3cfa25b8	0.030535564
99	0x3c55cdf8	0.013049595
100	0x3cc74dfd	0.02432918
101	0x3d90e5b1	0.0707506
102	0x3d4a3e85	0.04937603
103	0xbd1eac0f	-0.038738307
104	0xbd96742c	-0.07346377
105	0xbb89172a	-0.0041836696
106	0x3ca6a00c	0.020339988
107	0x3d5ac9d4	0.053415135
108	0x3cdd50a4	0.027015992
109	0x3c697dab	0.014251153
110	0x3d195c06	0.037441276
111	0xbcdb0b44	-0.02673877
112	0xbd1a1319	-0.03761587
113	0x3d68192d	0.056664634
114	0xbc0afdca	-0.00848336
115	0x3b745ba0	0.0037286058
116	0xbc0dccb0	-0.008654758
117	0xbd68ba77	-0.05681845
118	0x3cd5c278	0.026093706
119	0x3d11585e	0.035484664
120	0xbcb6f3a8	-0.022332981
121	0x3ca68dac	0.020331226
122	0xbcebb438	-0.028772458
123	0xbd447066	-0.047958754
124	0x3ce28d9d	0.027655417
125	0xbc195b8c	-0.009360205
126	0xbd5dc400	-0.054142
127	0xbe36b97a	-0.17844191
128	0x3cfbd18c	0.030739568
129	0xbcc88449	-0.024477141
130	0x3d727e37	0.0592024
131	0xbc1117d6	-0.008855781
132	0x3c378f15	0.011203547
133	0x3c9cd004	0.019142158
134	0x3cdbd7cd	0.0268363
135	0xbd437f1c	-0.047728643
136	0x3d55910a	0.052140273
137	0x3d5ae59c	0.05344163
138	0xbc824346	-0.01590122
139	0x3cde22ea	0.027116258
140	0x3b2a1b9f	0.0025956405
141	0x3c81f424	0.015863486
142	0x3d85c0b6	0.06530897
143	0xbc4f14da	-0.012639249
144	0x3dbcac4e	0.09212552
145	0xbc80e254	-0.015732922
146	0x3d5e7606	0.054311775
147	0x3d34141f	0.0439645
148	0x3cf72d04	0.030172832
149	0x3a43f85a	0.0007475667
150	0xbd5916f3	-0.0530004
151	0x3d383733	0.044974517
152	0x3d779c39	0.06045172
153	0x3cb360bd	0.021896714
154	0x3d688422	0.056766637
155	0x3cf94eba	0.030433048
156	0x3ce4295a	0.02785175
157	0xbcf986e4	-0.030459829
158	0xbd3257fd	-0.043540943
159	0x3d1e9723	0.038718354
160	0x3d88dadf	0.06682371
161	0x3d87777f	0.06614589
162	0xbcbf5ec7	-0.023360623
163	0xbb9e8f40	-0.004838854
164	0x3d52b8a7	0.05144563
165	0x3d790ecf	0.06080514
166	0xbd498674	-0.04920049
167	0xbd35f6a5	-0.04442467
168	0x3d3716e1	0.044699553
169	0x3d30e84c	0.043190286
170	0x3d2936bf	0.041311976
171	0xbb33cb4a	-0.0027434402
172	0x3cd05ae4	0.025433965
173	0xbd3428ce	-0.043984227
174	0xbd5371e4	-0.051622286
175	0x3c95f834	0.018306829
176	0x3cab041e	0.020875987
177	0x3d5efb19	0.054438684
178	0x3d78d63e	0.060751192
179	0x3d6789ce	0.056527905
180	0x3d34787d	0.04406022
181	0xbcc97286	-0.024590742
182	0xbd776666	-0.06040039
183	0xbcde5fa8	-0.027145222
184	0x3d84f447	0.06491905
185	0xbcc82458	-0.024431393
186	0x3c99481b	0.01871114
187	0xbc88ca2c	-0.016697966
188	0x3cee0586	0.029055368
189	0x3d43c31f	0.047793504
190	0xbba95393	-0.0051674335
191	0xbc9fb49d	-0.019495303
192	0x3d03129c	0.03200017
193	0x3d2002c6	0.039065145
194	0xbc918c88	-0.017767206
195	0x3d709e8a	0.058744945
196	0xbcbfe21b	-0.023423245
197	0x3c332c6e	0.010935886
198	0xbc2fae96	-0.010722777
199	0x3b0d7100	0.0021582246
200	0x3cc1794f	0.023617415
201	0x3d485bd9	0.048915718
202	0x3d78c17e	0.060731404
203	0xbb0f9a17	-0.0021911913
204	0x3d753611	0.059866015
205	0xbcbfd9fb	-0.02341937
206	0xbc789f2a	-0.015174666
207	0x3d8942c8	0.06702191
208	0x3d715449	0.05891827
209	0x3da33d78	0.079707086
210	0xbd580b3e	-0.052745096
211	0xbd16e2aa	-0.036837257
212	0xbd25a4fa	-0.040440537
213	0xbc1445ae	-0.009049816
214	0x3cc652b4	0.024209358
215	0xbda021bd	-0.07818935
216	0x3c4356b4	0.011922527
217	0xbcc59f1c	-0.02412372
218	0x3d689445	0.056782026
219	0x3d1da4df	0.03848731
220	0xbc161d50	-0.009162262
221	0x3cd57634	0.02605734
222	0x3cebfd6a	0.02880736
223	0x3d0b9a03	0.034082424
224	0x3d695dea	0.05697433
225	0x3c6e6e5e	0.014552681
226	0x3d8cbd78	0.06872076
227	0x3b3cab0c	0.0028788475
228	0xbcd38100	-0.025818348
229	0x3c339e60	0.0109630525
230	0x3d71b341	0.05900884
231	0xba0acd00	-0.00052948296
232	0xbcbe881e	-0.023258265
233	0x3d829528	0.063761055
234	0xbd2e0fa0	-0.04249537
235	0x3c117dbe	0.008880077
236	0xbc9a8074	-0.01886008
237	0x3ca5d697	0.020243926
238	0xbe7278cd	-0.23678894
239	0xbd7f0854	-0.0622638
240	0x3cc8231a	0.0244308
241	0xbd41fb39	-0.047358725
242	0x3cca735e	0.024713214
243	0x3c43548b	0.011922012
244	0xbcf49b81	-0.029859306
245	0x3d4ba263	0.04971541
246	0xbca2e6a4	-0.019885369
247	0xbd1a62e7	-0.037691977
248	0x3cd33e85	0.025786648
249	0x3c31de18	0.010856174
250	0x3b951c3c	0.004550485
251	0x3d3930ea	0.045212664
252	0x3bf2a2c2	0.007404656
253	0xbced2e48	-0.028952733
254	0x3af18a32	0.0018428026
255	0xbc7fa1d3	-0.015602547

linear4.bias f4 [256]
0	0xbf1817b2	-0.59411156
1	0xbf00a8ad	-0.5025738
2	0xbda53ee9	-0.0806864
3	0x3f1b4f7c	0.6066816
4	0xbefa5df8	-0.48899817
5	0xbf7ed20e	-0.9953927
6	0x3ead21d6	0.33814877
7	0xbd869250	-0.06570876
8	0x3df0524d	0.11734448
9	0xbd69939e	-0.057025544
10	0xbd155843	-0.036461126
11	0xbf0aca76	-0.5421518
12	0x3ee6e404	0.45095837
13	0x3df65fdb	0.12030002
14	0xbeb8b658	-0.36076617
15	0xbe95e4fd	-0.29276267
16	0xbf74f978	-0.9569316
17	0x3e95b7f3	0.29241905
18	0xbee4db71	-0.4469867
19	0xbee14e2d	-0.44004956
20	0xbe55c44a	-0.2087566
21	0xbf4a4d08	-0.7902379
22	0xbeef5e12	-0.46751457
23	0x3f197943	0.59950656
24	0xbf1b9c47	-0.60785335
25	0xbd773919	-0.060357187
26	0xbef41efb	-0.47679886
27	0xbf31715d	-0.69313604
28	0x3f58f250	0.8474474
29	0xbf866454	-1.0499368
30	0xbf15d29a	-0.5852448
31	0xbeb5c1cf	-0.35499427
32	0x3ee81e11	0.4533544
33	0xbeb0783f	-0.3446674
34	0xbd46ad76	-0.04850527
35	0xbee9b641	-0.4564686
36	0xbdcc3b0e	-0.09972201
37	0xbe8945ed	-0.26811162
38	0xbccb125b	-0.024789026
39	0xbebd3865	-0.36957088
40	0x3e888d65	0.26670375
41	0xbf87d33f	-1.0611342
42	0x3f054e66	0.5207275
43	0xbe0b659c	-0.1361298
44	0xbe091908	-0.13388455
45	0xbee3bd32	-0.44480282
46	0x3f66d843	0.9017374
47	0xbcdf9f6f	-0.027297704
48	0x3f1628c9	0.58655983
49	0xbe5f786e	-0.21823284
50	0xbeac9283	-0.3370553
51	0xbf04fdeb	-0.5194995
52	0x3c86562d	0.016398514
53	0x3f210e8c	0.6291282
54	0x3f4c3ee6	0.79783475
55	0x3ccedf4a	0.025252957
56	0x3ecfce20	0.40586948
57	0x3f04bf0b	0.5185401
58	0x3d64676a	0.055762686
59	0xbef51d61	-0.47873977
60	0x3f1fa29f	0.62357515
61	0xbcf98922	-0.030460898
62	0xbbc3264d	-0.0059554935
63	0xbdcbbb95	-0.09947888
64	0x3f1b94fc	0.6077421
65	0xbe303060	-0.17205954
66	0xbe66f9ed	-0.22556277
67	0xbef9eb9a	-0.48812562
68	0xbef2518d	-0.47327843
69	0xbf26232b	-0.6489741
70	0xbeaa3414	-0.33242857
71	0xbf0a4926	-0.54017866
72	0x3ec4edb6	0.3846261
73	0x3de49a7e	0.111622795
74	0xbf011912	-0.5042888
75	0x3f0e421f	0.5556964
76	0x3e88f665	0.26750484
77	0x3ebcf50c	0.36905706
78	0x3e10799c	0.1410889
79	0x3f29c202	0.6631166
80	0xbdaa438f	-0.08313667
81	0x3ee45eb1	0.44603494
82	0x3edc5c64	0.43039238
83	0x3ed591e1	0.4171286
84	0xbddfb817	-0.10923784
85	0xbccbca47	-0.024876727
86	0x3e86c595	0.26322618
87	0x3f58884e	0.84582984
88	0xbe81503e	-0.25256532
89	0x390675e5	0.00012823155
90	0xbea2fa7e	-0.31831735
91	0xbc313d10	-0.010817781
92	0x3ec56067	0.38550112
93	0xbd989065	-0.07449416
94	0x3f6f3a88	0.93448687
95	0xbdd4fe73	-0.10400095
96	0x3e118e88	0.14214528
97	0x3e8ac66b	0.27104506
98	0xbf07625f	-0.5288448
99	0xbe973271	-0.2953067
100	0x3e979650	0.29606867
101	0xbe0285a9	-0.127463
102	0x3d9b27b4	0.07575932
103	0xbe399133	-0.18121795
104	0xbdbcca80	-0.09218311
105	0xbedca710	-0.4309621
106	0x3da7b525	0.081888475
107	0xbf5a387e	-0.8524245
108	0xbee3c358	-0.44484973
109	0x3e8d2dec	0.27574098
110	0xbf26e4ea	-0.65193045
111	0x3edc29b3	0.43000564
112	0xbd85f4d1	-0.06540836
113	0x3d1b3571	0.037892763
114	0xbeace7ec	-0.33770692
115	0xbf095b61	-0.5365506
116	0x3f042196	0.5161375
117	0xbda722c2	-0.081609264
118	0xbf2b172f	-0.6683225
119	0x3f46c3d7	0.7764258
120	0xbf2834b1	-0.657054
121	0x3f049364	0.517874
122	0x3f27f233	0.6560394
123	0x3f07a8f5	0.5299218
124	0xbd07731d	-0.033068765
125	0xbec6895d	-0.38776675
126	0xbdba82b1	-0.09106959
127	0x3c6a5bca	0.014304111
128	0x3ef6ec32	0.48227078
129	0xbed57870	-0.4169345
130	0x3db6c053	0.08923402
131	0xbe449db6	-0.19200787
132	0xbf043182	-0.5163804
133	0x3d90395c	0.070421904
134	0xbe763b1e	-0.24045989
135	0x3f429990	0.7601557
136	0x3e9b0634	0.3027817
137	0x3e589308	0.21149838
138	0x3ed4808c	0.41504323
139	0xbdbd8904	-0.09254649
140	0x3f152dae	0.58272827
141	0xbe92c5b1	-0.28666452
142	0xbe285718	-0.16439474
143	0xbe1a17f5	-0.15048201
144	0x3f2a7322	0.6658193
145	0x3e7d21bc	0.247199
146	0x3eafe25d	0.3435239
147	0xbad23ad8	-0.0016039265
148	0xbf1ade43	-0.60495394
149	0xbd39c46d	-0.04535334
150	0x3f756190	0.95851994
151	0xbf055698	-0.52085257
152	0xbec1b79c	-0.37835395
153	0x3f19b12d	0.60035974
154	0xbcb844bd	-0.022493714
155	0x3e9b6676	0.3035161
156	0x3e452884	0.19253737
157	0xbeb72508	-0.3577044
158	0x3eed1fae	0.46313232
159	0xbf48f409	-0.7849737
160	0xbeda7641	-0.42668346
161	0x3f84ead0	1.0384159
162	0x3e3175bc	0.17330068
163	0x3ecd7963	0.40131673
164	0x3e09dadb	0.13462393
165	0x3e1d6613	0.1537097
166	0xbf1144d7	-0.56745666
167	0x3f40a5af	0.75252813
168	0xbf05b85c	-0.52234435
169	0x3e35e076	0.17761406
170	0xbd97bbd7	-0.074088745
171	0xbdc4673a	-0.095900014
172	0x3f3e1c6c	0.7426212
173	0xbda0c2ae	-0.07849632
174	0xbf1d8ef2	-0.6154624
175	0xbb6d09a8	-0.0036169086
176	0xbf228fda	-0.6350075
177	0x3e506340	0.20350361
178	0xbe66e835	-0.22549517
179	0x3db3440e	0.08753215
180	0x3eb9d5ac	0.3629583
181	0x3ea13673	0.31486854
182	0xbeed6a4e	-0.46370167
183	0xbf251c2b	-0.64496106
184	0xbe7a21f5	-0.24427016
185	0x3e7111db	0.23541968
186	0xbece4270	-0.40285063
187	0x3ecc7f65	0.39940944
188	0x3eeed805	0.46649185
189	0xbf0ccc93	-0.54999655
190	0x3f47ce73	0.7804939
191	0x3f0735b1	0.528163
192	0x3f22edc3	0.63644046
193	0xbefe541a	-0.4967354
194	0xbe740b05	-0.23832329
195	0xbf57991e	-0.84218013
196	0x3e4b193f	0.1983385
197	0xbebd9170	-0.37025023
198	0x3dd910a2	0.105988756
199	0x3e5f837e	0.21827504
200	0xbf0aab78	-0.5416789
201	0x3dcfc4c2	0.101449504
202	0xbeb1e7f1	-0.3474727
203	0x3f286c85	0.6579059
204	0x3f5238c3	0.8211786
205	0xbf308320	-0.6895008
206	0xbf498436	-0.7871736
207	0x3f53aec7	0.82688564
208	0x3da2d41b	0.07950612
209	0xbe1e1226	-0.1543661
210	0x3ea1c235	0.3159348
211	0xbf048291	-0.5176173
212	0xbc0062a4	-0.007836018
213	0xbe882e18	-0.26597667
214	0x3f186ce2	0.5954114
215	0x3efb0d27	0.49033472
216	0xbf01d9b3	-0.5072281
217	0x3f20e07c	0.62842536
218	0xbecac03e	-0.39599794
219	0x3f1bbc37	0.6083407
220	0x3e4af7b5	0.19821055
221	0x3efe7c88	0.49704385
222	0x3dc3a7d9	0.09553499
223	0xbc282367	-0.010262347
224	0x3e4fc4e4	0.20289952
225	0x3eb3c089	0.3510783
226	0xbedd97e1	-0.43279937
227	0xbd620752	-0.055182762
228	0x3a8c8fd4	0.0010724016
229	0xbf134aa0	-0.57535744
230	0x3e08f6d1	0.13375403
231	0xbf16f091	-0.58960825
232	0x3e52ce3c	0.20586485
233	0x3e68442a	0.22682253
234	0xbec066d0	-0.3757844
235	0xbe74665d	-0.23867173
236	0x3e83e5c9	0.2576125
237	0x3ef77a67	0.48335573
238	0x3da91d6e	0.082575664
239	0x3f047172	0.51735604
240	0xbe3289a9	-0.17435326
241	0xbd9b2b20	-0.07576585
242	0xbef6f63b	-0.48234734
243	0xbda76719	-0.08173961
244	0x3e330138	0.17480934
245	0x3f4d8d0a	0.80293334
246	0x3f1da5ef	0.6158132
247	0x3eab214a	0.33423835
248	0xbcbe8ac2	-0.023259524
249	0xbf0056d5	-0.50132495
250	0xbeef75ca	-0.46769553
251	0x3f2b2e3d	0.6686743
252	0xbefb28ef	-0.49054667
253	0x3e7cde3c	0.2469415
254	0x3f694599	0.9112182
255	0xbf808711	-1.0041219

linear3.weight f4 [1, 256]
0	0xbf2b48b2	-0.669078
1	0x3d4f1849	0.05056027
2	0x3e8abbf7	0.2709653
3	0x3cb06fa4	0.02153761
4	0xbe1cffbf	-0.15331934
5	0x3e4ee3ba	0.20204058
6	0x3f17062f	0.5899381
7	0x3b7d5687	0.003865631
8	0xbf228407	-0.6348271
9	0xbb92fc20	-0.004485622
10	0x3e225a61	0.1585479
11	0x3d8ceecf	0.068814866
12	0x3e0070d9	0.12543048
13	0xbd927086	-0.071503684
14	0xbf103d1b	-0.5634324
15	0x3d700029	0.058593903
16	0xbfd26960	-1.6438408
17	0x3f924758	1.1428022
18	0xbe198404	-0.14991766
19	0xbf6ad8da	-0.9173714
20	0x3d951109	0.0727864
21	0xbfe83289	-1.8140422
22	0xbe26432f	-0.16236566
23	0x3de635f3	0.11240759
24	0xbe9c2627	-0.30497858
25	0x3a8f621c	0.0010939273
26	0xbe74c9f3	-0.23905163
27	0xbf0a07ef	-0.53918356
28	0x3eecf595	0.46281114
29	0xbfec2be3	-1.8450893
30	0xbf7311d7	-0.94949096
31	0x3e4e844f	0.20167659
32	0xbe57d020	-0.21075487
33	0xbe3f94bd	-0.18709083
34	0x3b1f51c1	0.0024310204
35	0xbeaf02c2	-0.34181792
36	0x3d24c47c	0.040226445
37	0xbe2d228f	-0.16907714
38	0xbb83a94b	-0.004017984
39	0xbc35d661	-0.011098475
40	0x3e6e84cc	0.23292845
41	0xbfa69f78	-1.3017416
42	0xbdbb1d4a	-0.09136446
43	0xbe2a0d51	-0.16606642
44	0xbbb63179	-0.005560097
45	0xbe0980af	-0.13427995
46	0x3e857dc0	0.26072502
47	0x3b5a0912	0.0033269566
48	0x3e1d08eb	0.15335433
49	0x3db07910	0.08616841
50	0xbe727fb9	-0.23681535
51	0xbe028e87	-0.12749682
52	0x3d522289	0.051302467
53	0x3d9f1830	0.07768285
54	0x3e90c7d6	0.28277463
55	0xbdf1dc77	-0.118096285
56	0x3f824011	1.0175802
57	0x3ee00daf	0.4376044
58	0x3eecca13	0.4624792
59	0xbc80defc	-0.015731327
60	0xbdfb9349	-0.12283952
61	0xbe970423	-0.29495344
62	0x3c538ed8	0.012912475
63	0x3d5976ee	0.053091936
64	0x3ee01f8b	0.43774065
65	0xbd89c2b4	-0.0672659
66	0x3db166e1	0.08662201
67	0xbe8a0470	-0.2695651
68	0xbd409fd0	-0.04702741
69	0xbef2a0f2	-0.47388417
70	0x3de3cfb7	0.11123603
71	0xbe8cd26e	-0.27504295
72	0xbd858f7c	-0.06521508
73	0x3ddad89a	0.10685845
74	0x3ad8fb26	0.001655434
75	0x3f491028	0.7854028
76	0x3e6426ee	0.22280475
77	0xbe650004	-0.22363287
78	0x3f2f0f09	0.68382317
79	0x3db1b35b	0.086767875
80	0x3e064df1	0.1311567
81	0xbd6233e5	-0.05522527
82	0x3f1a1b19	0.601976
83	0x3fb3282f	1.3996638
84	0x3cee5d84	0.029097326
85	0xbf1be1d9	-0.6089149
86	0x3e04eba5	0.12980516
87	0x3e609975	0.21933539
88	0xbdbc5aa2	-0.09196974
89	0xbd20419c	-0.03912507
90	0xbd8edb93	-0.06975474
91	0xbbba7112	-0.0056897486
92	0x3efea854	0.497378
93	0xbc3a76c9	-0.01138086
94	0x3fa2dce6	1.2723663
95	0x3c230850	0.009950712
96	0x3dee0bb5	0.11623327
97	0x3f030625	0.5118125
98	0xbe8705a9	-0.26371506
99	0xbc60cb93	-0.013720411
100	0x3e728f38	0.23687446
101	0x3d4cf94b	0.05004243
102	0x3aef9228	0.0018277811
103	0x3a2efbf4	0.0006675117
104	0x3d1588e7	0.036507513
105	0xbd537c63	-0.051632296
106	0x3d7eee18	0.062238783
107	0xbfb9c593	-1.451342
108	0xbcd3471d	-0.025790745
109	0x3e3fe740	0.18740559
110	0xbba77fe7	-0.0051116827
111	0x3f030620	0.5118122
112	0x3dc7df85	0.0975943
113	0x3c2ceff2	0.010555254
114	0xbcf383d5	-0.029725948
115	0xbd0077a8	-0.031364113
116	0x3fccaa9e	1.5989568
117	0x3e1a1da3	0.15050368
118	0xbe318d42	-0.17339042
119	0x3e98725f	0.29774758
120	0xbee39265	-0.44447628
121	0x3f74e39a	0.9565979
122	0x3f05d29c	0.5227449
123	0x3f029ec0	0.51023483
124	0x3d193950	0.037408173
125	0x3b420296	0.0029603592
126	0xbeb94db7	-0.36192104
127	0xbe37bb3d	-0.1794252
128	0x3ea3920d	0.31947365
129	0x3cdd509d	0.027015978
130	0x3d474bf9	0.048656438
131	0x3d8ef50d	0.069803335
132	0xbd4a553d	-0.049397696
133	0xbd9cff9b	-0.076659404
134	0x3d3544df	0.044255134
135	0x3ec9870b	0.39360842
136	0xbd93e4fb	-0.07221409
137	0x3dcf3211	0.10116971
138	0x3fa3bed4	1.2792611
139	0x3cab873e	0.020938512
140	0x3da45126	0.0802329
141	0xbe6908f6	-0.22757325
142	0xbd324587	-0.043523338
143	0x3dc755db	0.097331725
144	0xbdec14bc	-0.11527392
145	0x3fb2bd77	1.396407
146	0x3feafdfb	1.8358759
147	0x3ccac986	0.024754297
148	0xbf2ec739	-0.6827274
149	0xbc4b830b	-0.01242138
150	0x3fa4b7be	1.2868574
151	0x3d5ebbf1	0.054378454
152	0xbd1e203b	-0.038604956
153	0x3eb4381a	0.35199052
154	0x3aee359c	0.0018173936
155	0x3df34fad	0.11880431
156	0x3f81a423	1.0128216
157	0xbcfbd30f	-0.030740289
158	0xbe05b874	-0.13058645
159	0xbfa6e99f	-1.3040045
160	0xbc61918a	-0.013767609
161	0x3f91ed55	1.1400553
162	0xbbbde08a	-0.0057945894
163	0xbe36254c	-0.17787665
164	0x3f8af642	1.0856402
165	0xbebf82ff	-0.3740463
166	0xbda2a080	-0.07940769
167	0x3e6640c9	0.22485651
168	0xbc9e39f0	-0.019314736
169	0x3e7e9935	0.24863131
170	0x3e40e83f	0.18838595
171	0x3d80673f	0.06269693
172	0x3ef7d184	0.48402035
173	0x3b2334cd	0.0024903298
174	0xbf302a56	-0.688146
175	0x3e25fefd	0.16210552
176	0xbc266c81	-0.010157705
177	0xbd68fc78	-0.056881398
178	0x3dcaf9aa	0.09910901
179	0x3d9588fe	0.0730152
180	0x3fd1a039	1.6377021
181	0x3f9e7e18	1.2382231
182	0xbe089455	-0.13337834
183	0x3e20c91f	0.15701722
184	0xbde24b6d	-0.110495426
185	0x3e9ba19d	0.3039674
186	0xbf046895	-0.5172208
187	0x3e8cc6af	0.27495334
188	0x3e5d404d	0.2160656
189	0xbe988a61	-0.29793075
190	0x3f5a7dc5	0.8534816
191	0xbce0d4b8	-0.027445182
192	0x3e2fd367	0.17170487
193	0xbc521378	-0.0128220245
194	0x3d92dc17	0.07170885
195	0xbf679f44	-0.90477395
196	0x3f1f0b48	0.6212659
197	0xbec7c10d	-0.39014474
198	0x3d0eb7fb	0.034843426
199	0x3ebb24ce	0.36551517
200	0xbf0e5d96	-0.5561155
201	0xbe9350f2	-0.28772694
202	0x3d25158b	0.040303748
203	0x3f13527f	0.57547754
204	0x401a71ef	2.413204
205	0x3e4780ef	0.19482778
206	0xbf9d65dc	-1.229671
207	0x4019b26a	2.4015145
208	0x3cdb06b1	0.02673659
209	0x3dc478c3	0.09593346
210	0xbdcb10eb	-0.09915336
211	0xbe3a3e7d	-0.181879
212	0xbcadbb2f	-0.02120742
213	0xbe042bfa	-0.129074
214	0x3f05a9e7	0.52212375
215	0xbd91368e	-0.070904836
216	0x3d8e7f20	0.06957841
217	0x3dc1485e	0.09437631
218	0x3ba9bc77	0.0051799375
219	0x3f22a8e8	0.6353898
220	0x3e0c9458	0.13728464
221	0x3efa9bc3	0.48946962
222	0x3e666631	0.2249992
223	0xbcd9052e	-0.026491728
224	0x3f785cc9	0.9701658
225	0x3eb86b6c	0.36019456
226	0xbd8217e1	-0.06352211
227	0xbbc2326c	-0.005926421
228	0xba5aefd8	-0.00083517795
229	0xbd6e8e43	-0.05824114
230	0x3e733603	0.23751073
231	0x3d8f0f49	0.06985337
232	0xbb2cf67a	-0.0026392029
233	0x3faf9fe0	1.3720665
234	0xbd863366	-0.06552772
235	0xbd0faa92	-0.035074778
236	0x3e1e67a5	0.15469225
237	0x400a369c	2.159583
238	0x3ca41df1	0.020033808
239	0x3e31d1fe	0.17365262
240	0x3dc4cdd1	0.09609569
241	0x3c801a60	0.015637577
242	0xbf5cabaf	-0.8619947
243	0xbbaefd7b	-0.005340276
244	0x3e2e3b3e	0.17014787
245	0x3f9c07e4	1.2189908
246	0x3f0a16ef	0.53941244
247	0x3e240bd5	0.16020139
248	0x3b357ce2	0.0027692844
249	0x3c9a2dd4	0.01882068
250	0xbf1df36b	-0.6169955
251	0x3ec1804f	0.37793204
252	0xbd145c62	-0.036220916
253	0x3e9f438a	0.31106216
254	0x3eb1aba2	0.34701258
255	0xbfe72e24	-1.8060956
