outputs/Optimal_Control/20220330-171340/models/checkpoint.pt (torch, 533487 bytes, 7 tensors)

linear1.weight f4 [256, 2]
000000 8a 5f 5f 3e 34 70 8b bf 78 11 1e be 45 df db be
       0.21813789 -1.0893617 -0.15436351 -0.4294378
000010 ff 24 7c 3e 5a 9a 94 3d 28 a3 98 3c 8e 15 e0 3d
       0.24623488 0.07256003 0.018632486 0.10941611
000020 b1 fa 9c be 87 4a 20 bf fd 36 b1 3e 52 7f 20 3e
       -0.30660012 -0.6261372 0.34612265 0.15673569
000030 a8 61 f6 bd 12 28 c2 be 1f 91 31 bf 98 d8 b0 3d
       -0.12030345 -0.37921196 -0.6936206 0.08635062
000040 77 b5 94 3e 71 fe 2f bf db e7 8a 3e f0 5e c7 3e
       0.29044697 -0.6874762 0.27130017 0.3893962
000050 5f ae 99 be 20 b6 f9 bc c0 f4 8a 3e 0b a1 98 3e
       -0.30015847 -0.030482352 0.27139854 0.29810366
000060 b7 4a b0 3d 73 0c 80 be 23 71 de 3d d9 46 c1 bd
       0.08608001 -0.25009498 0.10861423 -0.09437341
000070 2d 62 df 3d b6 87 a8 bf 00 d8 d2 be fd e6 1f 3f
       0.109073974 -1.3166416 -0.4118042 0.62461835
000080 ce 78 16 bf 8a 81 8a 3e bc eb 89 3e 42 84 c5 3e
       -0.58778083 0.27051955 0.26937664 0.38577467
000090 f0 db 6f be f0 23 f7 be 8b 84 09 bf ad 0c c1 be
       -0.23423743 -0.48269606 -0.5371787 -0.37704983
0000a0 79 76 10 3f 21 1d c2 be 16 d8 64 3e 3f f6 39 bf
       0.56430775 -0.3791285 0.22348055 -0.72641367
0000b0 18 20 0c be 50 6e 75 bd f3 e4 60 bd 3a f7 71 3d
       -0.13684118 -0.059919655 -0.054905843 0.059073664
0000c0 33 63 c9 3e b6 f4 2a bf fc f8 21 be ad 02 c5 be
       0.39333495 -0.6677965 -0.15817636 -0.38478604
0000d0 76 8a c1 3e 76 80 bf be ce f8 a4 bd 93 db 5b 3e
       0.3780095 -0.37402695 -0.08055268 0.2147048
0000e0 96 e3 ca 3d a6 c1 e5 bc e6 20 47 3e 5b 22 1b bf
       0.0990669 -0.02804644 0.19446144 -0.605993
0000f0 07 69 23 be de f4 14 3f dc 34 dc be 31 76 b4 be
       -0.15958034 0.5818614 -0.43009079 -0.35246423
000100 b2 39 24 be 56 6e 80 3e 4d 91 23 bf 30 48 27 bf
       -0.16037634 0.2508418 -0.63893586 -0.65344524
000110 39 26 12 bf 6a 69 c2 3e 0f 4a e8 3e fb 0b e9 3d
       -0.57089573 0.3797105 0.45369002 0.11379238
000120 2c f7 a1 3e 57 ac 45 bf 46 b5 dc be 7f f9 1f 3f
       0.3163389 -0.77216095 -0.4310705 0.62490076
000130 12 85 a6 be d3 14 ec be bc 82 82 be fb ff 4f 3f
       -0.325234 -0.46109638 -0.25490367 0.8124997
000140 f1 1e f9 3e 31 c1 0f bf b3 74 b4 3d 02 48 8e be
       0.4865642 -0.5615416 0.08811321 -0.27789313
000150 04 da 89 3e 0f 0f 58 be 34 b6 11 bf 46 1c c6 be
       0.26924145 -0.21099494 -0.56918645 -0.38693446
000160 7e 6b 95 3d a5 b1 26 3e 55 d2 16 3e 2c 46 df 3a
       0.07295893 0.16278704 0.14728673 0.0017034463
000170 b7 3f 0e 3e 4c c0 c9 3e 1d 00 38 3e e7 64 23 bf
       0.13891493 0.39404523 0.17968793 -0.6382584
000180 c7 80 8c be 50 70 48 3e 2d 04 b5 3d 62 31 82 be
       -0.27442 0.19574094 0.08838687 -0.254283
000190 da 9a 2a 3e 69 e0 0b bf 00 00 87 39 6f 61 14 bf
       0.16660634 -0.546393 0.00025749207 -0.5796117
0001a0 0c 45 9f be de 92 97 3e 70 f2 a9 bc 12 cf 8d 3d
       -0.31107366 0.29604238 -0.020745486 0.06924261
0001b0 1d ee b6 3e a6 12 79 3e d0 71 f3 bd 7d be 0c bf
       0.3572854 0.2432352 -0.118869424 -0.5497816
0001c0 c4 c3 ee 3e ba 36 8f 3c 4d 95 e3 be e0 8e 8a 3d
       0.46633732 0.01748215 -0.44449845 0.067655325
0001d0 07 b8 18 bf ea 26 eb be 6b 46 42 3d 09 a3 03 be
       -0.59655803 -0.45928127 0.047430437 -0.12855162
0001e0 49 fc dc 3e 5c 9f 6f bf ec f4 49 3e b1 d5 22 bf
       0.43161228 -0.9360254 0.19722337 -0.6360732
0001f0 8f e7 1e bf 98 60 4c 3e 28 46 70 3c 1c 54 14 3e
       -0.6207208 0.19958723 0.014665164 0.1448521
000200 fa de a1 3e 0a c7 28 3e 4c 50 01 3e 9c 7f 83 3e
       0.3161543 0.16482177 0.12628287 0.25683296
000210 dd 02 a4 be 70 c9 81 3d 15 d8 10 bf 68 3e 42 be
       -0.32033435 0.06337249 -0.56579715 -0.18969119
000220 51 35 36 3e b4 55 20 bf 99 bf 8f 3e ec 40 64 bf
       0.17793776 -0.6263077 0.28075865 -0.8916156
000230 0d 37 d3 be a2 71 24 bf e8 ab 11 be a0 c1 91 bc
       -0.41252938 -0.6423589 -0.14225733 -0.017792523
000240 ca 8e d5 3c 49 62 b7 3e de fd a4 3e 42 d5 33 bf
       0.026069064 0.35817173 0.32224935 -0.7024728
000250 d4 c6 46 3e 18 30 26 bf 01 f3 a8 be 08 1b ac 3d
       0.19411784 -0.64917135 -0.32997897 0.08403593
000260 3f 63 07 bf 64 db 83 3e 12 b8 ae be d8 ba eb 3d
       -0.5288581 0.2575332 -0.3412481 0.11510247
000270 2f dc 9c 3e 58 55 1e bf ab 04 01 3e 47 36 f4 be
       0.30636737 -0.61848974 0.12599437 -0.4769766
000280 18 82 3b 3e cd 39 12 bf c6 42 e5 3e 1d 38 8b be
       0.18311346 -0.57119447 0.44777507 -0.2719125
000290 23 69 14 3e 86 ce 41 be 09 a0 14 bf 61 b3 24 bf
       0.14493231 -0.18926439 -0.58056694 -0.6433621
0002a0 0f 87 aa be 40 23 42 bd dd a4 9c 3e d7 23 84 bf
       -0.33306167 -0.0473969 0.3059453 -1.0323437
0002b0 fe df 73 3e a0 49 44 bf dc 36 9e 3d ca 76 1a 3e
       0.23815915 -0.7667484 0.07725307 0.15084377
0002c0 b7 78 1a bf 24 cd c1 be 7f ab 98 3d 77 1c 50 bf
       -0.60340446 -0.37851822 0.07454585 -0.81293434
0002d0 eb e1 11 3e 6c ba ae 3e 71 30 24 bf 92 82 df be
       0.14246337 0.34126604 -0.64136416 -0.43654305
0002e0 8e b3 ab 3e c8 8a 3e bf 60 32 93 bd e3 9b 93 be
       0.33535427 -0.74430513 -0.07187343 -0.2882987
0002f0 94 98 96 be 40 5d e7 3d b1 e1 b4 be db 48 2e bf
       -0.29413283 0.11297083 -0.3532844 -0.6807992
000300 6b b7 d4 3e 77 75 d8 bd 78 76 8a 3e 39 cd 72 3b
       0.41546187 -0.1056928 0.2704351 0.0037048592
000310 68 9d 2b bf e8 bf 20 be 10 53 d3 bd 05 04 30 bf
       -0.6703706 -0.15698206 -0.10318577 -0.68756133
000320 f8 40 05 bf 00 a8 f1 3a d8 d4 b4 be 08 fc f1 be
       -0.5205226 0.0018436909 -0.35318637 -0.47262597
000330 58 15 d5 be a7 98 dc be 5e 47 6c 3e 4d e5 9c 3e
       -0.41617846 -0.43085214 0.230741 0.30643693
000340 22 b4 07 bf 7d 6e 32 bf 98 df b0 be 40 d7 45 3e
       -0.53009236 -0.6969984 -0.34545588 0.19320393
000350 70 50 da 3e ea 4b 1a be d5 68 58 3e 1e f3 36 bf
       0.42639494 -0.15068021 0.2113374 -0.7146472
000360 ea 3c 47 be 66 aa 4b 3e 75 f5 04 bf 47 d7 98 be
       -0.1945683 0.1988922 -0.5193704 -0.29851744
000370 34 c3 a1 be 96 66 a7 3e 2c e0 25 bf eb 6d d7 be
       -0.3159424 0.32695454 -0.64795184 -0.42076048
000380 56 ac 6b 3e 66 da 6c 3e 27 32 7e be 44 45 10 3f
       0.2301496 0.23130187 -0.24823819 0.5635569
000390 6d 19 0d be 77 af 3c 3f e8 67 0f be 5a e4 0e 3f
       -0.1377923 0.7370524 -0.14004481 0.55817187
0003a0 7d 0a 54 be 85 65 68 3e bc d1 28 3b d7 bb 0d 3f
       -0.20707126 0.22694977 0.0025759777 0.55364746
0003b0 18 34 30 be 16 e6 fe 3e 80 d2 f3 bb f0 0b d3 bd
       -0.17207372 0.49784917 -0.007440865 -0.10305011
0003c0 8f e5 e2 3e 63 5b 01 3e b4 cf c9 3e 95 98 cf 3e
       0.44315764 0.12632518 0.39416277 0.40546098
0003d0 21 56 7f 3d b1 74 c4 be e3 2c 07 bf 00 c5 0d 3f
       0.062338 -0.38370278 -0.52802867 0.55378723
0003e0 20 b5 09 bf 58 13 78 3e d1 7a 2c bf 90 fa 30 be
       -0.53792 0.24226129 -0.673749 -0.17283082
0003f0 47 0d 03 bf c0 e1 ee 3c ab f0 80 3c d9 b0 e2 3d
       -0.51192135 0.02916038 0.01573976 0.11068887

linear1.bias f4 [256]
000000 37 45 82 3e d2 2b 31 3e 00 e8 28 bf 1d f3 dc bf
       0.25443432 0.17301872 -0.65979004 -1.7261692
000010 9a 8d c1 3d 57 11 e1 3f 98 37 bf bd 85 07 1e 3f
       0.094508365 1.7583417 -0.093367755 0.61730224
000020 00 8c 1e bf 64 99 c3 bf 00 61 ab bb bc c5 ca bf
       -0.61932373 -1.5281186 -0.005230069 -1.5841594
000030 6c a6 b1 3f 9c 10 ab be 0c e9 fa be 65 45 b6 3e
       1.3878913 -0.3341111 -0.49005926 0.3559982
000040 88 34 c7 bd 60 6e a1 bf 2f 66 ad be 99 28 0b 3f
       -0.097268164 -1.2611809 -0.33867022 0.5435882
000050 33 7a d6 3f e4 f3 7b bf 6e 34 9d be 31 87 c5 bd
       1.6756042 -0.9841902 -0.30704063 -0.09644926
000060 3a 3a 00 c0 ca a4 9d 3e 64 d4 48 bf 9c cf 6c 3e
       -2.0035539 0.30789787 -0.7844908 0.23126072
000070 1d 4f c5 bf 1d 67 6d 3f 67 78 cf bf a8 e6 6d 3e
       -1.5414768 0.92735463 -1.6208619 0.2323252
000080 85 82 93 be c2 50 dc 3d 4b 1f 25 3f 13 ae 9e 3f
       -0.28810516 0.10757591 0.64500874 1.2396873
000090 f7 4e 7e bf 75 7a 60 3f 1c 03 02 3f 76 9c 79 be
       -0.9933924 0.87686855 0.50785995 -0.24376091
0000a0 dd dd b1 3f 61 4e b1 be 8d 34 cc 3f 2c 53 81 3e
       1.3895832 -0.3463011 1.5953537 0.25258768
0000b0 e2 6f d8 3f ef 55 04 c0 1b 2e bd bf 0d 58 7e 3f
       1.6909144 -2.067745 -1.4779695 0.99353105
0000c0 e7 1a 49 3f a0 e5 38 bf 45 61 9f 3f 44 a4 81 be
       0.78556675 -0.7222538 1.2451559 -0.25320637
0000d0 60 e5 9d bd 4e 75 a5 3f 26 ad ce 3f f9 4a 21 3f
       -0.077097654 1.2926424 1.6146591 0.63005024
0000e0 5f 73 28 bf 8d 91 1a bf 50 29 f1 be 8e d2 af 3f
       -0.6580104 -0.6037834 -0.4710183 1.3736131
0000f0 55 22 a2 bf c0 04 13 be 55 11 be 3e 6f 70 b8 bf
       -1.2666727 -0.1435728 0.37122598 -1.4409312
000100 d0 f7 8d bf f8 96 ba bf ed 78 f4 be 01 7b d8 3e
       -1.1091251 -1.4577322 -0.4774851 0.42281345
000110 5e e4 12 3f e8 8d cf bf 9f d7 1b bf 69 46 8b be
       0.5737971 -1.6215181 -0.60875887 -0.27202156
000120 4a f8 fd bf 78 e3 c3 bf 06 a8 08 bf 78 b2 96 3e
       -1.9841397 -1.5303793 -0.53381383 0.29433036
000130 cc 06 16 3f bd c9 97 3e ad 4c 05 c0 a6 9f 9f 3f
       0.5860412 0.29646102 -2.082805 1.2470596
000140 aa 62 b2 3e 68 cf ab bf b1 67 19 3f c4 fa c2 be
       0.348409 -1.342267 0.59923846 -0.38081944
000150 c5 20 4e 3e f8 ae 43 3e b9 e3 e5 3e 27 5a c9 bf
       0.20129688 0.19109714 0.449003 -1.5730637
000160 f3 d2 0b 3e 92 f9 b3 bf 9f 79 76 3f 48 6f 57 ba
       0.1365469 -1.4060538 0.9627933 -0.00082181813
000170 97 86 8c 3f dd ef f7 3e 64 c7 0b 3f 32 17 8c be
       1.0978574 0.4842519 0.5460112 -0.27361447
000180 b5 6c 8b 3e 0d df c4 bf 5e 54 20 3f 4a d8 da be
       0.27231374 -1.538057 0.62628734 -0.4274314
000190 ec 84 9f 3d 96 00 0e bf dd 3b b4 ba ad f2 ff be
       0.07789025 -0.55469644 -0.0013750751 -0.49989834
0001a0 96 19 69 3e d3 23 d4 3e ea 7a ba bf 8a 1e 48 bf
       0.22763667 0.41433582 -1.456876 -0.781716
0001b0 48 28 96 be 30 c2 d5 be 82 d9 b4 be e4 75 2f 3f
       -0.29327607 -0.41749716 -0.35322195 0.6853926
0001c0 cd ce 07 3f 01 c5 34 bf fa 92 b5 3f 58 d0 af 3f
       0.5304993 -0.70613104 1.4185479 1.3735456
0001d0 53 ba 26 bf b6 5d d5 bf e4 ac 1e 3f cc a3 09 bf
       -0.6512806 -1.6669223 0.6198256 -0.5376556
0001e0 32 bb de bf df 89 c1 bf 7d 47 2f 3f d7 60 5f bf
       -1.7400877 -1.51202 0.6846846 -0.8725714
0001f0 09 72 b2 be dd cd 9a 3e 02 5d 99 be 54 9a b0 bf
       -0.34852627 0.30235186 -0.29953772 -1.3797097
000200 4a 10 57 be 4e 5f 1c 3f 8f 5a 27 3f a9 a1 da 3f
       -0.21002308 0.61082923 0.65372556 1.7080585
000210 8f 69 a4 bf 6d 7e bd bf c0 18 d6 be 37 10 94 be
       -1.2844714 -1.4804207 -0.41815758 -0.2891862
000220 25 59 3d 3f a3 a4 d7 bf 24 2c b4 3f 7e 7f 38 bf
       0.7396415 -1.6847118 1.4075971 -0.7206954
000230 07 06 c9 bf 8c f4 89 be 95 0c e6 be a9 0f 06 bf
       -1.5704964 -0.26944387 -0.44931474 -0.52367646
000240 d4 47 28 bf 74 0f ea bf dd 0e 16 3f 74 6d 48 bf
       -0.657346 -1.8285966 0.5861643 -0.7829201
000250 c4 aa a0 3f 0b f1 ec 3f 4e e6 c0 be 8e 31 ed be
       1.2552114 1.851106 -0.3767571 -0.4632687
000260 d5 1d be 3f d0 f0 96 3f 40 eb 7b bf f2 dc c8 bf
       1.4852854 1.179224 -0.9840584 -1.5692427
000270 a3 54 97 3f 87 61 d5 3f 5a e3 81 bf e2 01 02 bf
       1.1822704 1.6670388 -1.0147507 -0.5078412
000280 fd 10 64 bf 74 6c 32 bf 6f 53 0f bf 03 43 e1 bf
       -0.8908842 -0.69696736 -0.55986685 -1.7598575
000290 88 11 cd bf ab 3e 3c 3e f0 60 00 bd ea 1a af be
       -1.6020975 0.18383281 -0.031342447 -0.3420022
0002a0 f9 10 9a 3e a0 e7 a5 bf e8 dd 28 be 8e cd f4 bf
       0.30091074 -1.2961311 -0.164909 -1.912523
0002b0 71 64 05 c0 a8 29 dc be 2c 11 89 3e 3d 1a cf 3f
       -2.0842555 -0.4300053 0.26770914 1.6179882
0002c0 2c 31 ab bf 91 6b ed bf 80 ff 08 bf f0 52 10 3e
       -1.3374381 -1.8548452 -0.5351486 0.14094138
0002d0 2c 52 a3 be fd c6 a9 3f 80 69 47 bd c3 f9 7f bf
       -0.3189863 1.3263851 -0.048684597 -0.9999048
0002e0 79 cb 01 c0 67 2f 86 bf b2 69 35 3f f4 98 8e bf
       -2.028044 -1.0483216 0.70864403 -1.1140428
0002f0 b8 2d b7 bf f1 38 bb bf b8 49 27 bf 51 68 df be
       -1.4310827 -1.4626752 -0.6534686 -0.43634275
000300 e9 29 ae 3f 3d cf 71 3e 9d 8c b0 3f 1f 4a ac 3f
       1.360654 0.23614211 1.3792912 1.346012
000310 f4 ab 0c be 50 bf 4e 3f 0e 9b d1 3e 78 a1 a4 bd
       -0.1373747 0.8076067 0.4093861 -0.0803861
000320 8b 0d da bf 0e 0a 9d 3f 2e f2 87 3e b2 c4 00 3f
       -1.7035383 1.2268693 0.26551956 0.50300133
000330 b4 34 21 be 69 45 c5 bf 82 8b f0 be 33 bb eb 3d
       -0.15742761 -1.5411807 -0.46981436 0.11510315
000340 42 ca 12 bf 1d f4 d5 bf ab 94 c2 be 02 f5 9d bf
       -0.5733987 -1.6715122 -0.3800405 -1.2340395
000350 f3 df db bf cd 29 a5 bf 13 f4 a0 3f 90 6b 9e 3f
       -1.7177719 -1.2903382 1.2574486 1.2376575
000360 e8 89 bf bf f9 15 34 3f 3c 21 d4 bf 80 7f 80 bd
       -1.4963961 0.7034603 -1.6572642 -0.06274319
000370 fb 16 a6 bf 93 da 07 3f e6 0d 1d 3e 15 62 01 3f
       -1.2975763 0.5306789 0.15337333 0.50540286
000380 84 0c c4 3f 90 7e a1 3f 8c e0 7f bf 0b c0 0c 3e
       1.531632 1.2616749 -0.99952006 0.13745134
000390 3d 68 d7 be bf e1 2c bf e0 02 72 3e 18 10 98 3f
       -0.42071715 -0.6753196 0.23633909 1.1879911
0003a0 3c 71 be bf 40 ed 74 bd 5b 45 c7 3f 9e 95 17 bf
       -1.4878306 -0.05979657 1.5568041 -0.5921267
0003b0 ba ad a9 bf 6b 09 d2 bf 90 25 11 bd 00 5d 75 be
       -1.3256142 -1.6409124 -0.035436213 -0.23961258
0003c0 4a 31 82 bf 7f 2d 3b 3f 55 b6 ed bf 9e 1e c7 bf
       -1.0171292 0.73116297 -1.8571268 -1.5556219
0003d0 26 83 65 3f 04 c7 0c bf 3e af bf be cc 1e c4 be
       0.8965324 -0.54991174 -0.37438387 -0.38304746
0003e0 50 39 f6 bf df 44 e2 bf b4 13 9b be 3d f1 ae bf
       -1.923624 -1.7677268 -0.3028847 -1.366737
0003f0 b7 8b dc be f9 4e 06 3e a3 e1 cf bf 36 05 e8 bf
       -0.43075344 0.13116063 -1.6240734 -1.812659

linear2.weight f4 [256, 256]
000000 0a e4 66 3d 27 22 6c bd 54 f1 a7 bc 82 92 15 3c
       0.05636982 -0.057649758 -0.020500816 0.0091291685
000010 d7 4d 6f bc 24 4a 7c bd f8 8e 8d bc f9 5d ea 3c
       -0.014605961 -0.061594144 -0.017280087 0.028609263
000020 f4 d1 1d bc cf 63 1a bd d0 34 fe bc f9 91 34 3d
       -0.009632576 -0.03769284 -0.031031042 0.044084523
000030 97 b7 eb bc 09 26 52 3c 99 83 06 3c 9d 24 d3 3b
       -0.028774066 0.012826451 0.008210086 0.0064435736
000040 78 74 1c 3c 12 e4 8d 3b 42 2d 35 bd 17 28 40 bd
       0.009549253 0.0043301666 -0.044232614 -0.046913233
000050 3d 74 a1 3c f2 4a 43 bd fc cd 15 bd b1 25 85 3b
       0.019708747 -0.047678895 -0.036573395 0.004063331
000060 c3 04 01 bd 61 7b 67 3c c4 6a 65 3d b5 9b c8 3c
       -0.03149868 0.014128537 0.056010023 0.02448831
000070 9b 27 0e 3c 61 89 5e 3d 59 29 43 bd 07 1b 81 bd
       0.008676435 0.054330233 -0.047646854 -0.06303983
000080 09 d1 54 3d af e7 6e bd 95 6a 8d bb 7a 25 65 3c
       0.051957164 -0.05832642 -0.004315684 0.013985986
000090 d4 71 22 bd ce d7 19 3c 65 bd 3f bd 74 a3 8f bb
       -0.039659336 0.009389831 -0.04681148 -0.004383499
0000a0 3c 9c f7 3c bb 29 93 3c 2b 5d cf bc 1e 42 33 3c
       0.030225866 0.017964235 -0.02531298 0.010941057
0000b0 3c 66 08 3d 3c 08 18 bd ef 8d c9 bc eb c7 20 3c
       0.033300623 -0.037117228 -0.024603812 0.009813289
0000c0 5c 40 e8 bc 29 cf 0b bd b7 00 36 bd 3a 8b 6b 3d
       -0.028351001 -0.03413311 -0.044434275 0.057505824
0000d0 76 b2 46 bd 3b c5 19 bd 03 90 47 bd 98 4e c5 bb
       -0.048510037 -0.03754161 -0.048721325 -0.006021332
0000e0 38 37 fc bc 48 69 1f bc 3e e8 3c 3d cf 16 15 3c
       -0.03078805 -0.009729691 0.04611992 0.009099676
0000f0 20 6f da bc 21 cb ee bc 81 2f 5e 3c 0c 72 92 3c
       -0.026664317 -0.029149594 0.0135611305 0.017876647
000100 52 e4 69 bd 1d 79 a4 3c 50 26 82 3c 0f 1d 38 bd
       -0.05710251 0.020077283 0.01588741 -0.044949587
000110 5d 65 dd 3c 89 30 8d 3c b0 de 5f 3c 00 09 d2 ba
       0.027025873 0.017235057 0.013663933 -0.0016024411
000120 20 8b a8 bc a7 4c 11 3d ce 0a fc bc d7 57 db 3c
       -0.020574152 0.035473492 -0.03076687 0.026775284
000130 9e a7 9d 3c 93 a4 6c bd 3d 23 87 3a 66 62 76 bd
       0.019244965 -0.057774138 0.0010310184 -0.060152434
000140 b2 72 ec 3c 05 0b 5c 3d 51 5f 72 3d b0 db b5 3c
       0.028863285 0.053721447 0.059172932 0.022199482
000150 04 f7 ab bb 94 30 54 bd f9 fa 0a 3b 29 17 cb 3c
       -0.0052479524 -0.05180414 0.002120672 0.024791317
000160 02 5e 02 bd 41 39 30 3d 43 4d c3 3b 03 d5 31 3d
       -0.031827934 0.04302335 0.005960138 0.043416034
000170 f6 cb a0 bc fc 8e 0c 3d 7e c3 66 bd 0c 38 69 bd
       -0.019628506 0.034316048 -0.05633878 -0.056938216
000180 78 58 21 3d 0b bf 4b bd 4e 7e 66 bd fa 9c 4e 3d
       0.03939101 -0.04974274 -0.056272797 0.050442673
000190 17 23 62 bd 84 c2 6c 3d 29 ad 9f bc 9b 1f 4c 3c
       -0.055209246 0.057802692 -0.019491749 0.012458707
0001a0 34 44 f3 bc 20 29 bc 3c cc ab 08 3d a4 5f 08 3c
       -0.029695608 0.022968829 0.033366963 0.008323584
0001b0 98 cb 69 bd ec 39 0e bd de bb 37 bc c8 ef 5d bd
       -0.057078928 -0.034723207 -0.011214225 -0.05418375
0001c0 6f 95 6e bd c5 fa ce 3b 4d e3 36 3d 9d 13 ad 3c
       -0.05824798 0.006316515 0.044650365 0.021127516
0001d0 36 63 3f bd 7c ca 0a bd 00 33 53 bd 7a b3 4d bd
       -0.046725474 -0.03388451 -0.05156231 -0.05021999
0001e0 d2 56 84 3c 7a ec 58 3a b3 15 be 3c d0 b2 29 3d
       0.01615468 0.0008274984 0.023203706 0.041430295
0001f0 88 47 1a bc 42 b6 81 3c c8 1b ab bc a2 cc 50 3d
       -0.009416468 0.015833978 -0.02088727 0.050976403
000200 57 88 1a 3c ba 47 b1 bc df b5 d4 bc 8c cb 31 3d
       0.00943192 -0.021640647 -0.02596563 0.043407008
000210 e1 d0 d1 3c 4a c6 5b bd 88 51 c2 3c c9 9a d7 bb
       0.025612297 -0.0536559 0.023720518 -0.006579731
000220 54 a0 77 3d 86 ad 21 3a 42 02 bb bc 9c e9 3d bd
       0.060455635 0.00061675196 -0.022828225 -0.046365365
000230 da b9 6c bd ca 00 70 bd e0 86 98 bc 3a 96 51 3d
       -0.05779443 -0.058594503 -0.018619 0.051168658
000240 68 05 63 bc da 84 7c bd 89 30 b0 3a 11 86 70 bc
       -0.013856269 -0.061650135 0.0013442199 -0.014680401
000250 d0 53 f7 3b 52 a5 06 bb d0 25 7d bd 66 3f 5f bd
       0.007547833 -0.0020545316 -0.06180364 -0.05450382
000260 af 51 f8 bc f1 b0 77 bc ad 0b 4d 3c 22 8f a2 bc
       -0.030312387 -0.01511787 0.012514991 -0.019843642
000270 d5 32 05 bd b7 53 2f bd cf 4c 28 3b aa 45 66 bd
       -0.03251918 -0.042804446 0.0025680547 -0.05621878
000280 ce 9e 83 bc 5b 73 9e bc c4 c6 92 bc c7 80 29 bc
       -0.016066935 -0.019342115 -0.017917044 -0.010345644
000290 f2 00 82 bc 0b 3d 2b bd d8 fe 5d bd 37 00 3e 3d
       -0.015869591 -0.041806262 -0.054198116 0.046386924
0002a0 07 29 14 bc bd 35 5f bd 54 f8 6f bd 6c cb 68 3c
       -0.009042985 -0.05449461 -0.058586434 0.014208656
0002b0 e3 c8 23 bd f8 e0 60 bd 9a 20 04 3d 72 32 53 3d
       -0.039986502 -0.054902047 0.032257654 0.05156178
0002c0 97 df 28 bd 0a f4 8a bd e4 9e 55 3d 7d 91 5f 3d
       -0.041228857 -0.06784828 0.052153483 0.054582108
0002d0 15 9e 52 bd 6f 87 2b bd 40 35 50 3d e4 b0 a9 3c
       -0.05142029 -0.041877206 0.050832033 0.02071423
0002e0 b2 c5 ca 3b c1 6b 07 3a 24 44 5e 3d f8 08 8a bb
       0.006188118 0.0005165898 0.054264203 -0.004212495
0002f0 22 f4 b0 bc bd 8e 55 bc fb fa 8e bb 72 9e b2 3b
       -0.021600787 -0.01303452 -0.0043634153 0.005451017
000300 a7 d6 1e 3d 6f 75 5a 3a f8 6c 22 bc fe 5e 30 3d
       0.038778927 0.0008333539 -0.0099136755 0.04305934
000310 ec 8b 93 bc 18 31 5e bd e9 14 77 bd 84 f0 4a bc
       -0.018011056 -0.05424604 -0.060322676 -0.012386445
000320 37 51 05 bd b8 b5 6a bd 76 4e 13 3d c3 ae 8e bc
       -0.032548156 -0.057302207 0.035963498 -0.017417317
000330 1c 7e a4 3c 04 03 3e 3d 5e c0 1b 3d 9b 66 bf bc
       0.020079665 0.046389595 0.038025253 -0.023364356
000340 7e 32 37 bd 67 5b ed bc fe 13 00 3d cd d4 6d bc
       -0.044725887 -0.028974248 0.031269066 -0.014516068
000350 88 22 4b 3c 48 5a 23 bd 66 d6 22 3d 96 41 35 3d
       0.01239837 -0.03988102 0.039755248 0.044252
000360 a1 d2 32 bd f6 73 e9 3c 89 2f 0a bd 64 3a e8 bc
       -0.043657903 0.028497677 -0.03373674 -0.028348155
000370 07 91 20 bd f5 24 20 3d 35 e8 63 bd b4 6e a5 3c
       -0.03920081 0.039097745 -0.05564137 0.020194389
000380 ea e2 d3 3c 8f 00 e7 b9 64 b9 45 3d 12 7f 50 3d
       0.025865037 -0.0004406017 0.048272505 0.050902434
000390 76 77 86 bd 28 d3 79 3d 52 eb d1 3c 98 b6 0b bd
       -0.06565754 0.06099239 0.025624905 -0.03410968
0003a0 0d a7 2d bd 28 6b cd 3c b1 23 0a bd f2 fb 28 bc
       -0.04239564 0.02507551 -0.033725444 -0.010313975
0003b0 31 70 7f bd 7a 19 94 bc 44 cc 28 3d 20 ae e8 bb
       -0.062362853 -0.018078554 0.041210428 -0.0071008354
0003c0 36 d0 c7 bb df 0e 74 3a 7f 2f 1a bd 93 6c 83 38
       -0.0060978187 0.00093100773 -0.037642952 6.26679e-05
0003d0 38 e4 e8 3c 8e 3d 6c 3d 80 40 ee ba 08 d0 04 3d
       0.028429136 0.05767589 -0.0018177181 0.032424957
0003e0 df 69 0d 3b e9 d6 cd 3b f2 0f 31 3d 89 c4 af 38
       0.0021577997 0.006281723 0.043228097 8.381258e-05
0003f0 0c 67 a8 bc 72 4d 40 3b 7a 32 8c bd 06 13 22 3d
       -0.02055695 0.0029343036 -0.06845565 0.039568923

linear2.bias f4 [256]
000000 a6 87 28 3d eb d4 2b bd 74 f7 a3 3a 75 52 0b bf
       0.04114499 -0.0419511 0.001250966 -0.54422694
000010 00 fe 5e b9 50 1d 21 bd 6f da 8b 3f f1 c8 1d 3b
       -0.00021266192 -0.039334595 1.0926036 0.002407607
000020 14 46 0c b9 02 db 49 3c f0 d5 04 be 8e 88 9a 3c
       -0.00013377547 0.012320282 -0.12972236 0.018863942
000030 43 e9 51 be 25 39 5d 3e 78 97 5d 3d e3 db b8 be
       -0.20499139 0.2160383 0.05409953 -0.3610526
000040 00 fd 13 3d 97 66 85 3d 91 3f 81 ba a3 4b 0b bd
       0.03612995 0.06513708 -0.0009860863 -0.03400768
000050 ef 3d b7 3d db e4 29 3d 61 46 59 3a 52 50 11 bd
       0.0894736 0.04147802 0.00082883803 -0.03547699
000060 71 ac 88 3d cb 76 0a bf bf f1 0a bc 07 8e fb bc
       0.066735156 -0.54087514 -0.008480488 -0.030707372
000070 cc 36 4e bd f0 c2 97 bc e8 02 20 bc 3f 95 89 bc
       -0.050345227 -0.01852557 -0.009766318 -0.016794799
000080 2e 21 2c bd 7e f5 59 bd b7 74 9e 3e 00 11 61 bd
       -0.04202383 -0.053212635 0.3094842 -0.054947853
000090 02 87 0f bd 2a 22 47 3d 98 f1 b8 3c b0 e4 03 bd
       -0.035040863 0.048616566 0.022576138 -0.032200515
0000a0 bd 1e 26 bc cd 0e 89 be e9 18 09 be ac 74 d6 3c
       -0.0101391645 -0.26769105 -0.13388409 0.02617868
0000b0 a7 52 d7 bc d8 c3 95 bd ac 77 27 3b c7 3b d5 be
       -0.026284529 -0.07312745 0.0025553508 -0.4164717
0000c0 8b b9 27 bc 64 73 44 be a6 e0 59 3d b4 2a 96 bc
       -0.010237108 -0.19184643 0.053192757 -0.01833091
0000d0 0c d0 1d bd 2b d0 6d be 40 a3 81 be 8b a1 5d bd
       -0.038528487 -0.23223941 -0.25319862 -0.054109138
0000e0 2a c8 ba 3c c4 f0 ad bc b4 c6 87 bc e3 98 04 be
       0.022800524 -0.02123297 -0.016574241 -0.12948947
0000f0 f0 8f bf bb 9f a3 93 bc 5f f7 f8 bc 78 73 05 bc
       -0.005846016 -0.018022357 -0.030391393 -0.008145206
000100 a3 46 9d bc 51 45 11 bd d1 4c 0f 3e 4d 58 ac be
       -0.019198721 -0.035466496 0.13994147 -0.33661118
000110 18 af a4 be a2 d5 b7 3a dc c7 53 bc 48 87 5c 3d
       -0.32164836 0.001402546 -0.012926068 0.05383995
000120 b1 9f 86 3d 12 d5 5a bd 8a 8f 20 3d fc 66 db 3c
       0.065734275 -0.053425856 0.03919939 0.026782505
000130 57 9c c2 3d b6 6b 55 3d b2 aa c9 3c 04 dc 99 bc
       0.09502476 0.052104674 0.024617527 -0.01878167
000140 d6 16 f1 3c 88 de 37 3d 0e 20 8c bb e5 92 63 3d
       0.029429834 0.044889957 -0.004276282 0.05556001
000150 67 0b 27 3e 25 ef e8 3c d6 8f bc 3c 6e f8 b2 bd
       0.16312943 0.028434345 0.023017805 -0.087387905
000160 44 87 d5 3b ba 44 17 3d 43 ed 61 bc d4 b8 e7 3d
       0.006516369 0.036930777 -0.013789478 0.1131455
000170 b4 0c 20 3e 1f b2 12 bf ff a8 3f 3d ba 71 fb 3b
       0.15629846 -0.5730304 0.046792027 0.0076734694
000180 d1 6c e6 bd 25 f0 0f be 4c f0 15 3d 50 74 39 3c
       -0.11251224 -0.14056452 0.036606118 0.011319235
000190 0a 46 e5 3c de d0 5e 3a dc 67 09 3d da 6e 43 bc
       0.027987499 0.00084997516 0.033546314 -0.011928285
0001a0 3c cf 01 bf a4 35 5c 3b ec cd 66 bd f2 0d 4b bd
       -0.5070684 0.0033601308 -0.056348726 -0.049573846
0001b0 78 f0 1b bd 62 c0 aa bd 1f 12 28 bd 27 90 3b 3b
       -0.038071126 -0.08337475 -0.041032907 0.0028619857
0001c0 8e c2 b0 bb 81 2c 9c 3b e6 71 50 3c 51 c7 a4 3c
       -0.0053942865 0.0047660475 0.012722468 0.020114573
0001d0 c6 bd 7f 3d 21 0e b4 bc e0 7d 9e 3e 09 f7 8f 3c
       0.06243684 -0.021979393 0.3095541 0.01757385
0001e0 4e 10 1f 3d 8b 25 4f bc c0 dc 5b bd 38 7b f2 3c
       0.03883391 -0.012643228 -0.05367732 0.02959977
0001f0 18 49 56 bd 9b 89 08 3d 8c e0 ce 3c 74 66 3e bd
       -0.0523158 0.033334356 0.025253557 -0.046484426
000200 f4 2f 0a bd 2f 06 5c 3d ca fd 53 3c 57 a4 8d bc
       -0.033737138 0.053716835 0.012938926 -0.017290277
000210 7d 07 18 bd 00 8e 2d 3b c5 12 2f be 8e cc ac 3d
       -0.037116516 0.0026482344 -0.17097004 0.08437453
000220 c4 16 33 bd ee 85 4a be aa 6a ee bc 45 fb b9 3c
       -0.043722883 -0.19777653 -0.029103596 0.022702822
000230 24 03 46 bc 58 6f c8 bc 8b 12 33 3e 70 cd cc 3d
       -0.01208571 -0.024467155 0.17487542 0.100001216
000240 b5 f5 35 be 4c 52 38 bc 27 71 5d bd f8 c2 75 bd
       -0.17769511 -0.01125009 -0.05406299 -0.06000039
000250 1f f0 26 3d a6 b4 66 3d 23 9d 62 3b 74 4e 2d bd
       0.04075634 0.056324624 0.0034578524 -0.042311147
000260 a2 da e0 bb 77 05 bc 3b f8 f0 2c 3c 5c 99 2e bd
       -0.0068620006 0.005737956 0.010555498 -0.042626724
000270 28 6c 27 bd 91 13 85 bd 18 42 b8 bb 8d 59 98 3d
       -0.04087463 -0.064978726 -0.0056231134 0.074389555
000280 78 d2 89 3b 5e 2b 17 bd 2c 4d e6 bc 4a d0 60 bd
       0.004205998 -0.036906593 -0.02811297 -0.05488614
000290 2d 62 31 3d 43 b4 c9 3d 7f ad cf 3c 77 a9 4c bd
       0.04330652 0.09848835 0.025351284 -0.0499663
0002a0 9e 53 9f bd cb 45 2f 3c d2 1e 10 3d d1 7a 23 bc
       -0.077796206 0.010697792 0.035185643 -0.009978012
0002b0 62 a0 37 bd 9f 37 e7 3d de 8e 02 bd fe b4 e1 be
       -0.044830687 0.11289906 -0.03187453 -0.440834
0002c0 1e 20 b9 3c c6 ab c4 3d 1f 3e 4d bd c1 97 97 bb
       0.022598322 0.09603076 -0.05010807 -0.004626245
0002d0 0d 83 57 bc 58 be d7 3e 00 95 13 bc 82 0c 90 bc
       -0.013153804 0.42137408 -0.009007692 -0.01758409
0002e0 e4 06 fa bc 95 00 10 3e 0c dd d2 3c a0 4b ad bc
       -0.030520864 0.14062722 0.025740169 -0.021154225
0002f0 14 cb 13 3c 88 b6 cc bd cf 71 47 bd 7d 99 e5 3d
       0.009020586 -0.099957526 -0.04869252 0.11210916
000300 7e 21 77 3d cd d7 e2 3c 51 ea 80 bc 78 07 34 3c
       0.060334675 0.027690792 -0.01573673 0.010988109
000310 07 a7 ba be 90 a6 3c bd 46 10 df 3c 44 19 d5 3c
       -0.36455557 -0.046057284 0.02722944 0.026013024
000320 47 b6 c5 3c aa 37 08 bd 37 17 8b 3c 38 1a ad 3d
       0.024134768 -0.03325621 0.016978843 0.084522665
000330 79 5f fd 3c a2 fe 02 bc c6 27 1d be 58 6c 77 3d
       0.030929314 -0.0079952795 -0.15347204 0.06040606
000340 27 58 53 bd 88 e9 16 bd 10 91 29 3e de a3 22 3d
       -0.05159774 -0.036843807 0.16559243 0.039707057
000350 18 0d 2c 3c 8b 0b bf bc b0 6e 5d 3d d3 5c 09 be
       0.010501169 -0.023320934 0.054060638 -0.13414316
000360 6d 67 07 bd 1a d8 c2 3c 20 d0 b3 bc d8 46 16 3d
       -0.03305762 0.023784686 -0.021949828 0.036688656
000370 0d b7 80 bd 20 d1 69 3b 2b 81 9c bd 0d 27 47 be
       -0.06284914 0.0035677627 -0.07641824 -0.1944849
000380 62 f6 61 3d 1e 6f 35 bd 3a f2 12 3d ba b4 cc be
       0.05516661 -0.044295423 0.035875537 -0.39981633
000390 9d a8 6f bd a0 3e 11 bd 61 ea 63 3e 0a c4 2a bd
       -0.05851041 -0.035460114 0.22257377 -0.041690864
0003a0 a5 0f 90 3e 8d 9d 01 bd 6c a7 ab bc 04 ba c6 3d
       0.28136936 -0.031644393 -0.020953856 0.097034484
0003b0 c7 db f6 bc 98 90 d3 be 41 58 8e be a0 4b 3e 3c
       -0.030134095 -0.41321254 -0.27801707 0.01161471
0003c0 54 95 b0 be a8 f2 a3 bf 8a 28 4f 3d cc d8 97 3c
       -0.34488928 -1.2808428 0.05057577 0.018535994
0003d0 bc 07 1c 3d eb 0b 58 3a 88 f8 02 3e 36 42 e6 3c
       0.038093314 0.0008241522 0.1279012 0.028107744
0003e0 af 00 26 3e c0 c4 2e bb 84 1d e0 bd f6 b5 04 bc
       0.16211198 -0.0026667565 -0.1094313 -0.0081000235
0003f0 51 61 4c 3d 03 2a 81 bc a3 a9 01 bd c7 48 91 3c
       0.049897496 -0.015767103 -0.03165592 0.017734898

linear4.weight f4 [256, 256]
000000 10 5d a5 3c 5a b5 50 3d a0 e4 5d 3d 4f ce 54 bd
       0.020185977 0.0509542 0.054173112 -0.051954564
000010 8c e8 17 3d 14 bf d1 bc d8 36 a6 3d 83 1e 24 3c
       0.03708701 -0.025603808 0.08115929 0.01001704
000020 cb af 66 bd cb f9 5c 3d fa 16 8d 3c 14 5f 83 3c
       -0.056319993 0.05394916 0.01722287 0.016036548
000030 6b 98 a9 3c de 47 ea bc 2c 5c 67 bd c0 75 18 bd
       0.020702561 -0.028598722 -0.056484386 -0.03722167
000040 a3 29 36 3d f0 ca 30 bd e8 b7 9f 3c 43 4b 34 bd
       0.0444733 -0.043162286 0.019496873 -0.044017088
000050 14 19 7d bd f0 1c 1d 3d 12 08 99 ba cf 77 9d 3c
       -0.061791494 0.038357675 -0.0011675379 0.019222168
000060 6b 04 dc bc 15 73 05 3d ba 4a 21 3d 9a f4 2c bd
       -0.026857575 0.032580454 0.039377905 -0.042225458
000070 c0 e6 89 bc 44 5e 74 bd d0 ea d0 bc 86 22 35 3d
       -0.016833663 -0.05966021 -0.025502592 0.044222377
000080 d6 5c 63 3d 70 80 8f 3b 4e 5f fe 3c d5 e8 59 bd
       0.055508457 0.0043793246 0.031051304 -0.05320056
000090 10 8a 63 3c 6c d7 49 bd e8 3d 59 3c a0 7b 6f bc
       0.013887897 -0.049277708 0.0132593885 -0.014616877
0000a0 f3 64 ef bc b3 00 9d bc cc af 84 bc 08 7e 66 3d
       -0.029222941 -0.019165372 -0.016197108 0.056272537
0000b0 3e 4d 46 3c af c4 48 3b 83 68 d4 3a 14 d1 94 3c
       0.012103377 0.003063481 0.0016205463 0.018166102
0000c0 0e 74 46 3a b1 9e ad 3c dc c6 f3 bb 51 77 64 3d
       0.0007570394 0.021193834 -0.0074394774 0.05577785
0000d0 00 02 df 3c a7 75 81 bd 14 84 2c 3d 09 68 93 3b
       0.027222633 -0.063212685 0.042118147 0.004498486
0000e0 15 7a 24 bd f4 81 d6 bc d8 eb 6b bc ee f3 ea bc
       -0.04015549 -0.026185013 -0.014399491 -0.028680768
0000f0 2e 31 35 bc 9a b9 db bc 89 2c 6e bb 0c fc c4 3c
       -0.011059089 -0.0268219 -0.0036342463 0.024045967
000100 56 4e 5e 3b a0 28 84 bd 4a a9 12 bc ae f1 10 bc
       0.0033921204 -0.06453061 -0.0089514945 -0.008846683
000110 ab 32 d9 3c a8 3b 6a 3d fd b3 75 bc 54 8c c3 bc
       0.026513418 0.0571858 -0.014996526 -0.023870625
000120 29 2f 58 bc f6 35 12 bd a0 0b 26 3d 99 b5 30 3c
       -0.013194838 -0.035695992 0.04053843 0.010785484
000130 61 bc 22 bd c3 bc 02 3d 67 fa 73 bd 14 43 39 bd
       -0.039730433 0.0319183 -0.059564974 -0.045229986
000140 9a 9e 69 bd 3d 22 90 3b e0 d8 f3 bc b5 e8 be bc
       -0.05703602 0.004398613 -0.0297665 -0.023304323
000150 1b af eb 3b 12 7f 21 bc d6 3f 0c bc b6 35 ad bc
       0.007192505 -0.009856956 -0.008560142 -0.021143775
000160 83 15 44 3d 4d 7b 6f 3c ae 43 50 bd 8d d0 48 3c
       0.047872078 0.0146168 -0.050845794 0.012256754
000170 03 4f 59 3a 9f 8e 51 3b d2 bf 22 3d 8b 96 ab bb
       0.0008289667 0.0031975878 0.039733715 -0.005236452
000180 e9 0b 84 3d 99 ab e8 ba f6 8d 9a 3c f8 cd 55 3c
       0.06447584 -0.0017751335 0.01886652 0.013049595
000190 57 3d 90 3b 28 70 29 3d d8 4b 4c 3d 7e b5 4d bd
       0.0044018435 0.041366726 0.049877018 -0.050221913
0001a0 03 1b 75 bd 79 ef 2b bc 21 ea 2c 3d 91 1e 1f 3d
       -0.059840214 -0.010494106 0.04221547 0.03884751
0001b0 a4 50 dd 3c d9 88 98 bb 1c 5d d7 3c fa 0a f5 bc
       0.027015992 -0.0046549854 0.026289515 -0.02991246
0001c0 19 7a 5c bd 08 72 46 3d 94 1d 0b bc a0 5b 74 3b
       -0.05382738 0.048448592 -0.008490939 0.0037286058
0001d0 b0 cc 0d bc 1a d7 68 bd a0 c1 b8 3c 26 8d d6 3c
       -0.008654758 -0.05684576 0.022553265 0.026190352
0001e0 a8 f3 b6 bc 84 77 a6 3c 38 b4 eb bc 66 70 44 bd
       -0.022332981 0.020320661 -0.028772458 -0.047958754
0001f0 18 27 ca 3c cb 4c de bc be c4 5d bd 18 c6 43 bd
       0.024676844 -0.027136227 -0.054142706 -0.04779634
000200 28 d9 fb 3c 01 b8 87 bd 1a 70 66 3d a2 56 3e bd
       0.030743197 -0.06626893 0.056259252 -0.04646934
000210 38 6a 37 3c 04 d0 9c 3c 5f 29 65 bb 18 70 6d bd
       0.011194758 0.019142158 -0.0034967286 -0.05796823
000220 0a 91 55 3d a7 f4 26 3d 0d 8d b5 bc f3 73 2b 3c
       0.052140273 0.040760662 -0.022161985 0.010464656
000230 4f 84 f2 bb ec 99 dd 3b 4a 64 6f 3d e2 ce 2e bd
       -0.0074010263 0.0067627337 0.058445252 -0.042677768
000240 65 11 53 3d e2 d7 80 bc 37 ff 51 3d b1 bf 3e 3d
       0.05153026 -0.015727941 0.051268782 0.04656953
000250 95 9f ac 3c ba 43 09 bc aa 22 59 bd 9d 90 2b 3d
       0.021072188 -0.008377964 -0.053011574 0.04188596
000260 ee 19 26 3c 4a 19 35 3c 22 84 68 3d 6c 90 81 3c
       0.010138018 0.011053393 0.056766637 0.015815936
000270 13 6f ba 3c e4 86 f9 bc 94 42 69 bd e0 69 a7 3b
       0.022758042 -0.030459829 -0.05694826 0.005109057
000280 df ec f2 3c 77 ca 0c 3d c1 65 9c bc 40 8f 9e bb
       0.029653965 0.034372773 -0.019091489 -0.004838854
000290 b5 c9 21 3d 30 fb db 3c 90 24 90 bd 60 f5 35 bd
       0.039499003 0.026853174 -0.07038224 -0.04442346
0002a0 d9 72 95 3c c1 cb 03 3d 1f 6a 3e 3d 4a f8 33 bb
       0.01824324 0.032176737 0.046487924 -0.0027461224
0002b0 e4 5a d0 3c d6 7f 89 bd e4 71 53 bd 96 a3 e6 bb
       0.025433965 -0.06713836 -0.051622286 -0.007038544
0002c0 c3 5a 3e 3c 1f c2 4b 3c 28 d8 78 3d 3f 75 3a 3d
       0.011618319 0.012436419 0.060753018 0.04552197
0002d0 f7 cd 20 3d 54 df 79 bd 66 66 77 bd e6 5e de bc
       0.039258923 -0.061003998 -0.06040039 -0.02714486
0002e0 2f 7e 3b 3d af 55 2e bd a9 d1 35 3c 2c ca 88 bc
       0.045774635 -0.042562183 0.01109735 -0.016697966
0002f0 32 f8 79 3b d2 65 02 3d 87 a1 1d bc a4 11 44 bd
       0.003814232 0.031835385 -0.009621031 -0.047868386
000300 9c 12 03 3d 5a 5a e9 3c 01 f1 e2 bc 8a 9e 70 3d
       0.03200017 0.028485466 -0.02770281 0.058744945
000310 bf 3f 37 bd 08 54 03 3c d3 6f 2d bd 72 0f bf bb
       -0.044738527 0.00801564 -0.042342972 -0.0058306986
000320 84 b2 c9 3c 3b 25 2e 3d 7e c1 78 3d 9f 78 10 bd
       0.024621256 0.042515974 0.060731404 -0.035271283
000330 e9 bf 5a 3d 3b 65 c0 bc f6 09 ec bc a3 a9 6c 3d
       0.053405676 -0.02348577 -0.028813343 0.057778966
000340 0a a4 32 3d 8e c3 43 3d 46 0c 58 bd 28 1d 4b bd
       0.04361347 0.047793917 -0.05274608 -0.049588352
000350 fa a4 25 bd 28 67 13 bd b4 52 c6 3c 62 55 81 bd
       -0.040440537 -0.03598705 0.024209358 -0.063151136
000360 b2 24 f3 3a 75 98 df bc fb 51 42 3d 78 37 f7 3c
       0.0018550365 -0.027294377 0.047441464 0.030177817
000370 50 d9 37 bd 34 76 d5 3c 66 fa 44 3c 98 30 86 3c
       -0.04488498 0.02605734 0.01202259 0.016380593
000380 93 b3 e3 3c fb 76 08 3c a0 9d 35 3d 73 fc 05 bd
       0.027795589 0.008329148 0.044339776 -0.032711457
000390 00 81 d3 bc 60 9e 33 3c af 05 fb 3c d0 ba 20 3b
       -0.025818348 0.0109630525 0.030642359 0.0024525411
0003a0 11 01 6c bd 53 89 12 3d a0 0f 2e bd ca d1 d8 bc
       -0.057618205 0.035775494 -0.04249537 -0.026467223
0003b0 0e 8a 80 bc dd 1c 9a 3d 41 0d 8d bd 54 08 7f bd
       -0.01569083 0.075250365 -0.068872936 -0.0622638
0003c0 8a b2 b6 bb 20 86 62 bd fc 73 e4 3c 01 5c 11 3c
       -0.0055754827 -0.055303693 0.027887337 0.008872033
0003d0 9d 98 f4 bc 71 6b 17 3d 3f 9e 54 bd fe 77 7a bd
       -0.029857928 0.0369677 -0.051908728 -0.06114959
0003e0 a4 46 06 bb 3c f2 31 3c 48 70 19 bd 76 7d 86 3c
       -0.0020488882 0.010860976 -0.037460595 0.016417246
0003f0 31 b1 f1 3b 44 5f 21 bd 39 d9 e2 bc 49 dc f3 bc
       0.007375859 -0.039397493 -0.02769147 -0.029768126

linear4.bias f4 [256]
000000 56 58 97 be 55 e7 30 be fa fe c7 be c5 37 0a 3f
       -0.29559582 -0.17275746 -0.3906172 0.5399135
000010 c4 db b0 be ea f3 0e bf a8 42 d0 bd 4c 5a 14 3f
       -0.34542668 -0.55840933 -0.10168964 0.5795028
000020 ce 36 94 3c 25 bc f3 3e 4a 17 6d bf d4 5c e1 bd
       0.01809254 0.4760448 -0.9261366 -0.11004034
000030 d9 53 2d 3d e4 8f 2a bf 20 2c 6d be 80 1b 13 bf
       0.04231629 -0.6662581 -0.23161364 -0.57463837
000040 45 84 a2 3d ea 0a 6b bf 98 a9 15 bf 56 0a 34 bc
       0.07935385 -0.9181353 -0.58461905 -0.010988792
000050 93 a2 f8 bc c2 2b 84 3f 92 5e 84 3f b3 d1 59 3d
       -0.030350959 1.0325854 1.034136 0.0531785
000060 07 7d 3d bf a7 b2 15 bf b1 69 46 bf 0a 33 30 3d
       -0.740189 -0.58475727 -0.7750502 0.043017425
000070 a3 36 07 3e f6 d3 ff be 2f 0e 07 3f c4 89 f6 3d
       0.13204436 -0.499664 0.5275602 0.120379955
000080 b5 8b 37 3f 00 fd e7 bd 79 5b 7d 3f ae 41 b9 bc
       0.7169755 -0.11327553 0.989677 -0.022614326
000090 1f 68 8d bd fe 89 e3 be 59 00 05 be 10 9e d7 3e
       -0.06904625 -0.44441217 -0.12988414 0.4211278
0000a0 35 88 84 3f cb 4e 68 3f 1c e2 97 be ea 4a 47 bd
       1.0354067 0.9074523 -0.29664695 -0.048655428
0000b0 2e 44 32 bf c0 32 4a bf 67 0c 13 3f 95 42 49 3f
       -0.69635284 -0.7898369 0.574408 0.7861722
0000c0 14 f2 13 3f cd 2d 80 3f 4e 5a d2 be c4 d6 18 3e
       0.57791257 1.0013977 -0.41084522 0.14925677
0000d0 56 bd 1d bf ff 93 1f 3f 72 57 9c 3d cc b1 0e bf
       -0.6161703 0.623352 0.07633866 -0.55740047
0000e0 8c 1d bc 3e 7e 9d 39 3f d4 45 8e 3f 61 61 59 bd
       0.36741292 0.7250594 1.111506 -0.053071383
0000f0 7c 94 f4 3e 0e 44 bc be f4 34 07 bf 6a 20 e7 be
       0.47769535 -0.36770672 -0.52815175 -0.45141917
000100 11 9c 47 bf 5a 92 82 bd 10 89 eb 3e 09 da 7b be
       -0.77972513 -0.063755706 0.46003008 -0.24594893
000110 78 07 0a be 53 27 69 bf 54 c0 5b 3f 25 53 44 bf
       -0.13479412 -0.9107563 0.85840344 -0.7668937
000120 c1 04 58 3f f2 ef 33 3f 01 eb b1 3e 75 aa c7 3e
       0.84382254 0.70288 0.34749606 0.38997236
000130 93 99 28 3f 20 5b 05 bf 3e cc 84 be c1 13 88 be
       0.65859336 -0.5209217 -0.25937074 -0.2657757
000140 d0 d3 d3 3d d1 da 56 3f da 5e 8e be a0 ef 6a 3f
       0.103431344 0.8392764 -0.2780674 0.9177189
000150 9f ec 00 bf f2 59 c2 3d 67 7a 74 3f 87 bd 25 3f
       -0.50361055 0.09489812 0.9549927 0.6474232
000160 a9 40 c0 be 7d 2e 4e 3f 74 14 42 3f 60 da 3e 3f
       -0.37549332 0.80539685 0.7581246 0.74551964
000170 f3 18 29 3f 81 8b a3 be 5f 0b 38 3f 8e eb 11 be
       0.66053694 -0.3194237 0.7189235 -0.14250013
000180 77 3e 3b 3f 0f 0e 15 3f 6c 77 a7 3d f6 18 24 bf
       0.7314219 0.58224577 0.08177075 -0.6410059
000190 ce 65 a1 3d 89 44 19 3f 52 f3 3c 3f 4c 81 42 bf
       0.07880746 0.598702 0.7380878 -0.7597854
0001a0 6d 47 03 3f 3a fa 2a bf 08 b6 95 bc 7c 0f e5 be
       0.5128086 -0.66788065 -0.018275276 -0.44738376
0001b0 74 31 4b bf bc 21 86 bf da fa 65 bd d4 eb d1 bd
       -0.79372334 -1.0479045 -0.056147434 -0.10250059
0001c0 0e 46 77 3f 35 75 25 bf 5f 84 ae be 29 1d 89 3d
       0.9659127 -0.6463197 -0.34085366 0.06695015
0001d0 fe 2d 92 3e 1e 02 81 bd f6 0c 3c 3e a8 1e 3b bf
       0.28550714 -0.06299232 0.18364319 -0.7309365
0001e0 e5 1a 6e bf 8d c0 3d 3f 65 6e 90 3f 8a ed 5b 3f
       -0.9300979 0.74121934 1.128369 0.8590933
0001f0 6c 88 24 3e e6 7e 24 bf 90 1f 26 bc 5f 6a 80 3f
       0.16067666 -0.6425613 -0.010139361 1.0032462
000200 1f 77 03 3f 14 9f f6 be a0 f8 90 3f d4 4b 24 bf
       0.5135364 -0.48168242 1.1325874 -0.64178205
000210 3b 2c 42 bf 02 d1 2f 3f 37 87 a6 be 8c 21 61 3f
       -0.7584874 0.68678296 -0.32525036 0.87941813
000220 50 1d 2c 3f 6e aa 10 3f 67 d8 dd be 5d 8e 17 bf
       0.6723223 0.56510055 -0.43329164 -0.59201604
000230 23 9f 45 3f ab 30 50 bf 92 f7 21 3f 49 78 60 3f
       0.7719595 -0.8132426 0.6326839 0.8768354
000240 87 2d 4a 3f fe 3b 06 bc b6 e3 82 3d 35 9f 32 3f
       0.7897572 -0.008193014 0.06391089 0.6977418
000250 1f 43 17 bf 62 25 48 3f 40 5c 40 3f aa 16 29 bf
       -0.59086794 0.7818204 0.7514076 -0.6605021
000260 04 9a 11 bf 77 8d 7f 3f 17 0f 61 3f 33 6f 15 bf
       -0.56875634 0.99825233 0.8791365 -0.583728
000270 1e e7 3e 3f fa a2 0f be 27 87 2e 3f 5b 7c 49 3f
       0.74571407 -0.14027014 0.68174976 0.78705376
000280 c1 c9 eb be e9 c6 34 3f 26 1a 80 3f e7 0d e2 3d
       -0.46052364 0.7061601 1.000798 0.11037808
000290 10 27 3d bf cc c1 f2 be 1b 0a 83 3f c4 00 17 be
       -0.7388773 -0.4741348 1.0237459 -0.14746386
0002a0 73 80 e2 be d9 45 c7 be 51 72 21 3f 9d cf 27 3f
       -0.44238624 -0.38920477 0.6306506 0.6555117
0002b0 b2 9e c3 3e 43 ee 19 3f b7 33 35 3f 27 01 25 bf
       0.38207012 0.60129184 0.70782036 -0.64454883
0002c0 d9 ab 13 bf 44 9a e7 be 26 9c 45 3f eb ce 83 3f
       -0.57684094 -0.45234883 0.7719139 1.0297521
0002d0 b8 77 03 3f 67 e8 db be a5 a0 0a bf 0f b1 48 bf
       0.5135455 -0.42950746 -0.54151374 -0.7839517
0002e0 27 84 5d 3d 00 50 c7 be 3a 8c 22 bf 9e 50 40 3f
       0.05408111 -0.38928223 -0.6349522 0.7512301
0002f0 d6 ce 51 3f 11 21 88 bd 18 a8 4e 3f f0 a5 20 3f
       0.8195623 -0.06646932 0.8072524 0.627532
000300 65 7c 34 3f 52 0f 60 bd ee 20 09 bf 9c 18 13 bf
       0.7050231 -0.05470211 -0.5356587 -0.57459426
000310 4f b7 6a 3f 52 b6 ca be 91 fe e9 3d 61 f7 cd 3e
       0.91685957 -0.39592224 0.11425508 0.40227798
000320 88 54 27 3f d5 9a 4a 3f ef 79 61 3f 1f 00 4d bf
       0.6536336 0.79142505 0.8807668 -0.8007831
000330 87 f6 56 3f af 3d 2d bf 56 cc 29 bf f9 e5 11 3f
       0.8396992 -0.67672247 -0.66327417 0.56991535
000340 72 f5 02 bf 49 3f 33 bf 0b 12 01 bf 9b 1f db be
       -0.5115577 -0.7001844 -0.50418156 -0.4279755
000350 94 ba 8f bf 41 fa e0 bc e6 54 5a 3f e3 b4 59 3f
       -1.1228814 -0.02746308 0.85285795 0.85041636
000360 7c ee 3f bf b1 01 62 bd 6c cf bd bd b7 72 36 3f
       -0.74973273 -0.055177394 -0.09268078 0.7126879
000370 cb cb 46 3d e3 c2 00 3f e9 45 3e 3f 30 a3 30 bf
       0.048534196 0.50297374 0.74325424 -0.68999004
000380 d5 1b 8a 3e de 58 79 3e 9a 4b bd bf 1f 5e c8 be
       0.2697436 0.24350306 -1.4788697 -0.3913431
000390 4e 10 c7 be 18 e8 b5 be 62 97 a5 3e 4e 7c 27 be
       -0.38879627 -0.35528636 0.32342058 -0.16356012
0003a0 47 9a 57 bf 9c e1 e0 3e 74 1a d3 be 36 ab 9e be
       -0.84219784 0.43922126 -0.4123112 -0.3099
0003b0 26 32 c5 be 85 b3 16 3f 68 a9 4d 3f 69 68 62 3f
       -0.38514823 0.58867675 0.8033662 0.8844057
0003c0 c4 b7 f4 be 48 17 3a be 96 b9 90 3e e9 54 ad bd
       -0.47796452 -0.18172944 0.2826659 -0.08463461
0003d0 13 0f 76 3f b9 fd 1a 3f 9d a7 0e 3f 75 3c 80 3f
       0.9611675 0.605434 0.5572451 1.001845
0003e0 1a 40 12 3f 77 e9 a2 3e 7d 0a 8c bd 8f a2 f0 3e
       0.5712906 0.31818745 -0.06837938 0.46999022
0003f0 c7 b5 c3 3e 3e b7 ef 3e 7e 82 7e 3f 15 5f 3c 3f
       0.38224623 0.4681949 0.99417865 0.73582584

linear3.weight f4 [1, 256]
000000 a1 0b 27 3f 04 85 31 3e 6c 4f 4f be f1 be ed 3e
       0.6525212 0.17335898 -0.20245141 0.4643474
000010 c7 c4 8c 3d a6 55 20 bf 66 86 db 3d 90 20 e1 3c
       0.0687347 -0.6263069 0.10718994 0.027481347
000020 af 78 36 ba 12 49 ab bd e2 34 0b c0 57 1e b0 bc
       -0.0006960732 -0.083635464 -2.1751027 -0.021498842
000030 2f 37 92 bd f8 c3 59 bf 63 73 df bd 39 83 43 bf
       -0.07139432 -0.8506465 -0.1091068 -0.76372105
000040 f3 e8 82 3d c1 71 c7 bf c7 92 6d 3d 3d b9 aa ba
       0.06392088 -1.558159 0.058001306 -0.0013025176
000050 ba ea a6 3d 1a f4 d3 be 16 be e7 3f 5d 42 0b 3e
       0.08150239 -0.41397172 1.8104885 0.13599534
000060 23 69 55 3e 94 92 36 bf b9 76 2b bf 95 37 7e 3e
       0.20840888 -0.7131741 -0.6697803 0.2482589
000070 c1 ec 31 be ee 1c 8d be a3 6d fa 3d 28 d0 e2 bb
       -0.1737547 -0.27561134 0.12227943 -0.006921787
000080 5f dd 06 40 74 0f 99 bb 05 e7 08 40 c3 e2 8b bc
       2.1072614 -0.0046710316 2.1391003 -0.017075902
000090 56 5c 39 be 3b 94 14 3b 59 1f 94 3e 77 8d c0 3e
       -0.1810163 0.002267136 0.28930166 0.3760793
0000a0 c1 29 d0 3f e4 e3 52 3f 7f ce 85 3e 25 96 39 3b
       1.6262742 0.82378983 0.26134107 0.0028318253
0000b0 93 f4 9b be 36 83 2c bf e8 f4 0c be ee 01 ab 3f
       -0.30460033 -0.6738771 -0.137653 1.3359964
0000c0 63 40 a5 3e d4 72 52 3e 5a 7a 23 bc 1c d2 1d b9
       0.32275686 0.20551616 -0.009977901 -0.00015050959
0000d0 d0 66 d5 be ac 35 c5 3e 8d 88 12 be b0 07 86 be
       -0.41680002 0.3851751 -0.14309902 -0.2617774
0000e0 62 a4 85 3d 88 36 ae 3f bf bd 4a 3f 53 d1 a0 be
       0.06525494 1.3610392 0.7919578 -0.31409702
0000f0 2b 30 a3 bd a7 cf 07 be 4d f0 72 be 59 21 a8 3e
       -0.07968172 -0.13262807 -0.2372448 0.32837942
000100 b9 f6 be 3e 3e e8 c2 ba 3d 8c 70 be 4c 82 2b bb
       0.3729761 -0.0014870239 -0.23490997 -0.0026170192
000110 03 de 85 ba 9f ba cf 3e 26 a1 00 c0 a8 29 5a bf
       -0.0010213259 0.40572068 -2.0098357 -0.8521981
000120 b5 9f 31 be 9e 7d 06 be 90 e2 f5 3e e5 55 ca 3f
       -0.1734608 -0.13133857 0.48024416 1.5807463
000130 af 34 f2 be 2c 39 1a bf 05 25 14 bc e6 71 c8 be
       -0.4730582 -0.6024349 -0.009042029 -0.39149398
000140 27 58 58 3c 46 c9 f5 3f 0c c3 ac 3e 86 8b 68 be
       0.013204611 1.9202049 0.3374256 -0.22709474
000150 25 d5 89 be e5 53 f4 3e 8b a1 86 be 3c cc 81 3f
       -0.2692043 0.47720256 -0.26295123 1.0140452
000160 c4 3e b6 bd 58 2d 6d 3f a8 a5 82 3f 86 6c a7 be
       -0.0889869 0.92647314 1.0206804 -0.32699984
000170 35 12 0e 3e e5 3d 67 be 0d 46 77 be e0 a3 68 bd
       0.13874133 -0.22582205 -0.24147816 -0.05679691
000180 b4 e9 9a 3f 6c 17 0b 3e 9d a5 32 be b3 46 01 bf
       1.210257 0.13583153 -0.17445989 -0.50498503
000190 a5 5d 23 bd 48 fd 20 3f ad c7 34 3f 66 bf 8b bf
       -0.03988423 0.62886477 0.7061718 -1.0917785
0001a0 88 a6 e5 bc 7f 1f 10 bf 2d 31 51 3e bf 7b 34 3d
       -0.02803351 -0.5629806 0.20428915 0.044063326
0001b0 b8 b8 3a bf bf e3 28 3f 21 51 10 be 38 3f 02 bd
       -0.7293811 0.6597251 -0.14093448 -0.03179857
0001c0 77 64 9d be 72 c3 52 3f 70 ae a9 3c 08 9d c8 bb
       -0.3074071 0.82329476 0.020713061 -0.006122235
0001d0 dd c1 2b bc 95 59 a6 3c c8 0a e2 be c8 57 85 3e
       -0.010483232 0.020306388 -0.4414885 0.26043534
0001e0 fa c7 c0 3e fe b5 4d be 21 73 d4 3f 29 13 a0 3f
       0.3765257 -0.20088956 1.6597635 1.2505847
0001f0 19 f2 97 3c 51 68 3d 3e 3a e1 07 3f 6a ca 8c 3f
       0.018548058 0.18496825 0.53078043 1.0999272
000200 b1 bf 21 be b3 e6 84 bc 54 be bf 3f 48 56 39 bf
       -0.1579578 -0.016223287 1.4979959 -0.7239728
000210 43 24 41 3e a9 5f d4 3e 27 86 7a 3a eb 1a 6e 3e
       0.18861489 0.41479233 0.00095567334 0.23252456
000220 c3 7e 26 be 87 58 0d 3f 14 2f 52 3d 79 98 61 3e
       -0.16259293 0.55213207 0.05131443 0.2203082
000230 94 40 fe bd 97 5e 62 bf 58 55 f8 3e 78 ef 2c 3f
       -0.12414661 -0.8842558 0.48502612 0.675529
000240 8a 11 db bd dd 35 45 3d be 49 f3 3e 1f 11 f2 3f
       -0.10696705 0.04814707 0.47517198 1.8911475
000250 cc 5a 75 be 05 e3 8f 3f 7d 9e b0 3f 66 e9 9e be
       -0.23960418 1.1241156 1.3798367 -0.31037444
000260 8a 61 43 be 33 66 cd 3f a5 e0 6d 3f 1a ad 16 bf
       -0.19080177 1.6046814 0.92920905 -0.5885788
000270 b8 d7 c3 3f 6a 0d 81 bd 9d 7c 7b 3e ee 3f ef 3e
       1.5300207 -0.06301387 0.24559255 0.46728462
000280 3f 92 41 be 42 da 68 bd 33 db cf 3f 50 cf cb 3d
       -0.18903445 -0.056848772 1.6238769 0.09951651
000290 a2 6b 52 be 1b 60 c1 be a0 9d c1 be d4 5b 08 3f
       -0.20548871 -0.37768635 -0.3781557 0.5326512
0002a0 53 b7 c9 3e 5e 50 7a be 7e db 30 3f 84 1e 68 3e
       0.39397678 -0.2444472 0.6908492 0.22667891
0002b0 00 fe a5 bd b5 7e f4 3e ac f3 06 3f 43 22 6e 3e
       -0.08105087 0.4775292 0.52715564 0.23255257
0002c0 81 b1 06 bb ad 04 51 ba 13 53 61 bf 07 4e 98 bf
       -0.0020552578 -0.0007973414 -0.88017386 -1.1898812
0002d0 34 cc ac 3e 03 cb cf be 4e b8 40 be de 8c 7f bf
       0.33749545 -0.40584573 -0.18820307 -0.9982432
0002e0 e6 1f c4 3a 1a 06 c3 be f7 71 51 bf 49 8b 03 3f
       0.001496312 -0.38090593 -0.8181452 0.5138441
0002f0 05 9e ac 3f 46 f6 7a 3a 54 57 e4 3d e2 e9 e0 3e
       1.3485724 0.0009573441 0.11149469 0.43928438
000300 91 f6 0f be 0a 75 02 3c 29 0b 4d 3d 9b 2e 22 bf
       -0.14058901 0.007962475 0.05005947 -0.63352364
000310 4d 22 7e be 5c 87 89 bd b1 cd 0d 3e 04 00 be bd
       -0.24817772 -0.06715271 0.13847996 -0.09277347
000320 6b 89 00 3f 58 75 5f 3e 6a 9d 94 be 20 c3 2e 3e
       0.50209683 0.21822107 -0.29026347 0.17066622
000330 8c 14 58 3f ee 40 37 bf c9 6f 39 be aa 2a 11 3f
       0.8440635 -0.7158345 -0.18109049 0.56705725
000340 b3 4b c3 be 76 7c 9c be 47 7d ca 3d 08 e4 77 bd
       -0.3814369 -0.30563706 0.09887176 -0.060520202
000350 f5 e7 1e c0 c1 eb 9a b9 79 d8 20 be 07 6c 65 be
       -2.4829075 -0.0002954882 -0.15707578 -0.2240449
000360 54 5f 76 3e 70 77 41 3b d0 4e 3e be 70 68 35 3f
       0.24059802 0.0029520653 -0.18584752 0.70862484
000370 11 87 03 3e 93 87 26 bf a6 a2 f5 3e 8c c8 4f bf
       0.12844492 -0.6505062 0.47975653 -0.81165385
000380 72 33 17 bd 41 53 f6 3e 70 4a 73 3f 66 f1 f8 bd
       -0.036914296 0.48110393 0.9503546 -0.12155418
000390 95 a9 ef bd 2a e9 3b 3c b5 e0 6e bd 1f c4 f0 3d
       -0.11702267 0.011469165 -0.058319766 0.11756157
0003a0 5a 96 0c 3f b3 96 76 bd 52 2f 93 bd 9e 34 1b be
       0.5491692 -0.06020231 -0.0718676 -0.1515679
0003b0 66 13 bf bb a1 ac ce 3e 3b ff 2e be 25 fd ac 3f
       -0.00583117 0.4036608 -0.1708955 1.3514754
0003c0 dc 37 8a bc ff 30 77 b9 18 7b 97 3f 1d 9a 0b 3e
       -0.016872339 -0.00023574008 1.183444 0.13633008
0003d0 c9 e5 e9 3e 0f 3b 88 bf e4 e4 07 3f 6b cd af be
       0.45683125 -1.0643023 0.53083634 -0.3433641
0003e0 99 70 a8 be 7b 72 30 bd f8 02 9f bb b7 21 8e 3f
       -0.32898405 -0.043077927 -0.004852649 1.1104039
0003f0 98 55 e5 3e ab 69 4a be e3 f2 ae 3f 05 b6 4e 3f
       0.44791865 -0.19766872 1.3667873 0.8074649
