outputs/Optimal_Control/20220325-112919/models/checkpoint.pt (torch, 533487 bytes, 7 tensors)

linear1.weight f4 [256, 2]
-0.28901702 0.5017476 0.4335071 -0.4914582 -0.5362985 0.03184247 0.38722587 0.5406068
-0.121468425 -0.18767476 0.03666209 -0.18874188 0.18635717 -0.017445488 0.52446145 -0.40429187
0.07965398 0.54417515 0.21057813 0.17154506 -0.09089556 0.3347181 -0.60778755 0.5220807
-0.1556924 0.10891986 -0.5013109 -0.08506608 0.32120156 -0.38124743 -0.38533792 -0.5846216
0.25472254 0.6093257 -0.27579954 -0.30157906 0.055537023 0.43580198 -0.1463595 -0.13475364
0.24616621 -0.07684253 0.121665955 -0.7044537 0.6427835 -0.055843197 0.09351168 0.2121237
0.045462415 -0.4992851 0.49399576 -0.16765931 -0.6978781 0.25989085 0.0077858604 0.32925126
-0.31553933 0.42386606 -0.286092 0.581773 0.20989677 0.3306788 0.47675812 0.25715515
-0.41829517 0.5447774 0.13444802 -0.4704628 -0.30758196 0.09196848 0.39247954 0.36759213
-0.2463821 0.61464363 0.39122182 -0.4058808 0.5443734 0.19821276 0.12392737 -0.4287505
-0.27987978 -0.46563584 -0.37545323 -0.21781549 0.6495484 -0.30370015 -0.1987418 -0.37883618
0.53458226 0.10453581 0.5536009 -0.6184632 0.10910785 -0.2542358 0.18689549 -0.32968944
0.1084091 -0.05375392 -0.49074146 0.023214817 0.4375104 -0.48422962 0.5653823 -0.6527166
-0.17998755 0.16317242 -0.5151723 0.58162045 0.06375486 0.6127297 -0.68243897 0.17117345
-0.38460544 0.49128285 -0.4066005 0.02435565 -0.69718677 -0.50212145 0.23960634 0.32257754
0.6187518 0.49670374 0.3660719 -0.40790814 -0.43068516 -0.13408935 -0.27175716 0.052130938
-0.19515938 -0.42395768 -0.007853568 -0.59229916 0.22151679 0.19874315 -0.33665267 -0.1878562
-0.076717794 -0.053107023 -0.36726722 -0.6133759 -0.10414942 0.30349606 -0.2956917 0.36325434
-0.48061922 -0.54457706 0.61641985 -0.49525508 -0.5937301 -0.48315957 0.26144066 -0.39997405
0.2368956 -0.0659799 0.40156066 -0.5014819 0.57332766 0.5784747 -0.2971986 0.21537924
-0.565776 -0.020058334 0.41149142 -0.08641246 0.35131964 -0.40857887 -0.036489904 -0.52202755
0.42038384 0.52590173 -0.66623175 0.10276878 -0.59584785 0.28499204 -0.21181834 0.056743562
0.0027918334 -0.00016103852 0.5859276 -0.11645923 -0.21781254 -0.03975898 -0.26761976 0.0397287
0.37228802 0.28887376 -0.2643258 0.2578739 0.54590607 0.16440539 0.45560592 0.1573945
0.5385054 0.061932217 0.06117438 -0.6196373 0.29669634 -0.6333492 0.5928173 -0.505395
0.07665858 -0.31289086 -0.0029578696 0.65027857 -0.26092574 -0.46741968 0.57326263 -0.18100996
0.3509975 -0.68268245 0.5346871 0.46595126 0.3739704 0.19172049 0.07134259 -0.62223256
0.6073708 0.19001073 0.5932365 -0.13269179 -0.3421863 0.16824847 0.68179715 0.5824365
0.32882947 0.4377726 -0.04466412 0.3087356 0.6791545 -0.25336316 -0.4438756 -0.49077678
0.4715934 -0.40501195 -0.4210429 0.26498407 0.24260756 -0.15229492 -0.096306026 0.09262985
0.6981246 0.1829988 -0.32913274 -0.17932826 -0.46430796 -0.09446567 -0.67635924 -0.6566316
0.1985133 -0.043586154 0.22795704 0.6746438 -0.66594285 -0.48195916 0.03171485 -0.5646278
00000000: 0afa 93be 8872 003f a5f4 dd3e 69a0 fbbe
00000010: dc4a 09bf 406d 023d 7842 c63e 3565 0a3f
00000020: 70c4 f8bd d02d 40be fd2a 163d 8d45 41be
00000030: 6ad4 3e3e d7e9 8ebc 1b43 063f 58ff cebe
00000040: a021 a33d 104f 0b3f cba1 573e 82a9 2f3e
00000050: 7427 babd 2c60 ab3e f797 1bbf 15a7 053f
00000060: d46d 1fbe 6011 df3d e955 00bf 2037 aebd
00000070: 8874 a43e dd32 c3be 034b c5be c3a9 15bf
00000080: fe6a 823e c5fc 1b3f 9935 8dbe 9268 9abe
00000090: ca7a 633d 7021 df3e 44df 15be dcfc 09be
000000a0: ff12 7c3e 9e5f 9dbd 002c f93d 1457 34bf
000000b0: 768d 243f d6bb 64bd 0d83 bf3d f536 593e
000000c0: cc36 3a3d 4ca2 ffbe 03ed fc3e e2ae 2bbe
000000d0: 24a8 32bf 6a10 853e 8820 ff3b 9f93 a83e
000000e0: 5f8e a1be f904 d93e a77a 92be 13ef 143f
000000f0: 2eef 563e bb4e a93e a419 f43e d7a9 833e
00000100: c92a d6be 8876 0b3f beac 093e 80e0 f0be
00000110: 627b 9dbe f859 bc3d 14f3 c83e 0935 bc3e
00000120: 974b 7cbe 4959 1d3f 3a4e c83e 9ccf cfbe
00000130: 0e5c 0b3f 49f8 4a3e a2cd fd3d 2f85 dbbe
00000140: 674c 8fbe d267 eebe 683b c0be 060b 5fbe
00000150: ce48 263f 967e 9bbe f882 4bbe d1f6 c1be
00000160: 62da 083f df16 d63d cab8 0d3f 9b53 1ebf
00000170: f073 df3d 322b 82be 8861 3f3e 0ecd a8be
00000180: 9705 de3d 122d 5cbd 7742 fbbe 002d be3c
00000190: 5d01 e03e f2ec f7be e5bc 103f 6f18 27bf
000001a0: a84e 38be ac16 273e 55e2 03bf 14e5 143f
000001b0: e891 823d dbdb 1c3f 52b4 2ebf 1848 2f3e
000001c0: 01eb c4be 6d89 fb3e f12d d0be 8085 c73c
000001d0: d57a 32bf 088b 00bf 5d5b 753e e228 a53e
000001e0: 8566 1e3f f44f fe3e c76d bb3e 56d9 d0be
000001f0: c482 dcbe b84e 09be c123 8bbe 4087 553d
00000200: dcd7 47be fb10 d9be 40ac 00bc eba0 17bf
00000210: 4cd5 623e 5383 4b3e bd5d acbe 605d 40be
00000220: 381e 9dbd c086 59bd 730a bcbe 3406 1dbf
00000230: 4b4c d5bd d663 9b3e e764 97be 79fc b93e
00000240: b913 f6be 6769 0bbf b1cd 1d3f 1392 fdbe
00000250: b2fe 17bf b160 f7be 8ddb 853e 66c9 ccbe
00000260: c394 723e 7820 87bd 5c99 cd3e 1e61 00bf
00000270: 9ac5 123f eb16 143f 6a2a 98be 608c 5c3e
00000280: b2d6 10bf 6051 a4bc 01af d23e 04f9 b0bd
00000290: 2be0 b33e 4031 d1be 7076 15bd 99a3 05bf
000002a0: 8d3c d73e 7fa1 063f 2a8e 2abf 7078 d23d
000002b0: 7c89 18bf 7aea 913e e8e6 58be f06b 683d
000002c0: 31f7 363b 73dc 28b9 5aff 153f 2d82 eebd
000002d0: 400a 5fbe 50da 22bd 7505 89be 90ba 223d
000002e0: 899c be3e 43e7 933e b655 87be 0c08 843e
000002f0: 80c0 0b3f e359 283e 2e45 e93e 062c 213e
00000300: 7ddb 093f a3ac 7d3d fd91 7a3d 8da0 1ebf
00000310: 95e8 973e 2c23 22bf e0c2 173f 9161 01bf
00000320: 2cff 9c3d 3b33 a0be d1d8 41bb a878 263f
00000330: 0f98 85be a251 efbe 57c1 123f ad5a 39be
00000340: f2b5 b33e 47c4 2ebf 41e1 083f 2a91 ee3e
00000350: 0c79 bf3e 6052 443e 101c 923d a24a 1fbf
00000360: a77c 1b3f 2c92 423e 59de 173f 5be0 07be
00000370: 0b33 afbe 5449 2c3e 428a 2e3f 8f1a 153f
00000380: 565c a83e bb23 e03e b9f1 36bd 9812 9e3e
00000390: 12dd 2d3f d1b8 81be aa43 e3be 1847 fbbe
000003a0: b174 f13e ba5d cfbe ef92 d7be feab 873e
000003b0: 1e6e 783e 33f3 1bbe 183c c5bd b8b4 bd3d
000003c0: 4bb8 323f 0a64 3b3e 1684 a8be d4a1 37be
000003d0: c6b9 edbe 3877 c1bd e125 2dbf 0219 28bf
000003e0: 1247 4b3e 6587 32bd 926d 693e 75b5 2c3f
000003f0: 3b7b 2abf 5ac3 f6be 6ee7 013d 738b 10bf

linear1.bias f4 [256]
0.6594041 -0.3682 -0.70299906 -0.6135511 -0.3953538 0.21436371 0.23846956 -0.40034732
-0.70654994 0.61092937 0.55377126 -0.5096002 -0.43666065 0.21526098 -0.46025696 0.6300675
0.20770043 -0.23603877 -0.29072174 -0.3365157 -0.16276191 0.10275982 -0.6243374 -0.66242987
0.5720316 0.57450587 0.33383292 -0.08248276 -0.36687732 0.37294078 0.0841478 -0.5711263
0.36064944 0.28785312 0.5868762 0.25651452 0.20313665 -0.31238678 0.4755812 0.21449576
0.032658577 -0.27617574 0.18542716 -0.31094065 -0.36209446 0.60379976 -0.46842632 0.41397253
-0.13177034 -0.43213594 -0.35388863 -0.3722896 -0.54384077 0.30029026 -0.46381992 -0.16636944
-0.5681316 -0.3851448 -0.34106553 0.50245476 -0.28492698 -0.65773034 0.68402463 -0.60699284
0.089475036 -0.20501256 -0.29816496 -0.49085325 0.16470599 0.24978024 0.14398769 0.4633909
-0.37051252 -0.6163785 -0.6175701 0.4309755 -0.22763549 0.6646207 0.5881772 0.4765728
0.31473988 0.3442798 0.21919121 -0.5627373 0.36781064 0.16529626 -0.3910059 0.38096613
0.47435284 -0.6890675 -0.24655241 0.09992957 0.40386596 0.19804835 0.47607955 0.090138264
0.3142939 -0.4740879 -0.6784146 0.16976085 -0.027762827 0.3246692 0.65680724 0.44771746
0.5717954 0.063907936 -0.03956406 -0.7052512 0.69828266 -0.31441215 -0.075454235 0.0064157983
0.29815915 0.13423692 -0.1600113 0.20046842 0.19435634 0.3635456 -0.55171937 0.05648899
0.121121615 -0.42114428 -0.014916599 0.40850323 -0.21444155 -0.65204185 -0.4088611 0.5563698
-0.23675554 -0.5395937 -0.02999878 0.67898077 -0.18994671 -0.60921705 -0.39043206 0.47474176
0.6409244 -0.5225436 -0.497165 0.6375825 -0.38720044 0.09931153 0.34308416 -0.32318568
0.17324252 -0.24248488 -0.35760042 -0.6907179 0.58833 -0.14565748 0.041845027 -0.21176758
0.39541686 0.09329099 0.43449038 -0.49299562 0.4359465 0.4822269 -0.25848427 0.3076303
0.30841768 0.21458098 -0.198573 0.4901771 0.5244369 0.16338398 0.2783018 -0.2459572
-0.278408 0.14871307 0.53092957 0.22022215 -0.08203703 0.43490133 0.08166659 -0.2346071
0.26475808 -0.2273969 -0.19404586 -0.46959496 0.50300926 0.4909565 0.5597784 -0.3049246
-0.5318057 -0.678398 -0.33104664 0.28885335 -0.47928917 -0.2462781 0.5760984 0.32294425
-0.5003162 0.40321618 0.33363405 -0.42955682 -0.1571799 -0.5133392 -0.49912935 0.5480338
0.6048763 0.4761182 0.20722534 -0.1583792 -0.41505337 0.3058614 0.2757895 -0.0666942
0.6998128 0.40122408 -0.17606005 -0.21247819 0.54868513 -0.31741846 -0.3940995 0.60047764
-0.29903424 0.350151 0.6425967 -0.072843485 -0.106842704 -0.37402016 0.66114634 -0.5810118
-0.05209821 -0.65418684 0.49524397 0.6272344 0.6625517 0.2741019 0.29122078 0.11131394
-0.46955612 -0.02020354 -0.60468465 -0.35399714 -0.05863285 -0.61868465 -0.50934315 -0.07314084
0.4719785 0.15437675 -0.5935195 -0.5131582 0.28081298 -0.3982342 -0.57645124 0.20505798
-0.47968256 -0.11739737 -0.66005945 -0.1515997 -0.21915814 -0.17214102 0.15597975 -0.39731959
00000000: b5ce 283f b684 bcbe bff7 33bf af11 1dbf
00000010: d06b cabe 2982 5b3e 5d31 743e 53fa ccbe
00000020: 75e0 34bf de65 1c3f f4c3 0d3f 2975 02bf
00000030: fc91 dfbe 606d 5c3e cda6 ebbe 1b4c 213f
00000040: 6caf 543e 26b4 71be 7bd9 94be c94b acbe
00000050: 0fab 26be be73 d23d 93d4 1fbf 0195 29bf
00000060: aa70 123f d112 133f 26ec aa3e b9ec a8bd
00000070: 58d7 bbbe 18f2 be3e af55 ac3d 5535 12bf
00000080: 0ba7 b83e 7c61 933e 853d 163f df55 833e
00000090: 0e03 503e 29f1 9fbe 617f f33e c7a4 5b3e
000000a0: 00c5 053d e866 8dbe 9ee0 3d3e 9d33 9fbe
000000b0: 7264 b9be 9f92 1a3f 93d5 efbe 35f4 d33e
000000c0: ceee 06be ec40 ddbe e430 b5be be9c bebe
000000d0: 2639 0bbf a5bf 993e ce79 edbe c05c 2abe
000000e0: 1371 11bf b331 c5be 24a0 aebe e0a0 003f
000000f0: f3e1 91be 0461 28bf 3d1c 2f3f e263 1bbf
00000100: b03e b73d d0ee 51be 14a9 98be 1e51 fbbe
00000110: b0a8 283e 64c6 7f3e 8271 133e 9241 ed3e
00000120: d1b3 bdbe fbca 1dbf 1319 1ebf d2a8 dc3e
00000130: 4719 69be 9524 2a3f c892 163f 5a01 f43e
00000140: 9625 a13e 7145 b03e a973 603e 8d0f 10bf
00000150: ad51 bc3e 6c43 293e ed31 c8be fe0d c33e
00000160: 60de f23e ba66 30bf 3c78 7cbe e0a7 cc3d
00000170: 85c7 ce3e 30cd 4a3e b3c0 f33e 699a b83d
00000180: 21eb a03e a6bb f2be 94ac 2dbf cad5 2d3e
00000190: de6e e3bc 0b3b a63e 8524 283f 393b e53e
000001a0: 2f61 123f 2ae2 823d ec0d 22bd 588b 34bf
000001b0: a7c2 323f a1fa a0be c087 9abd 9e3b d23b
000001c0: 51a8 983e 6775 093e 01da 23be 9847 4d3e
000001d0: 5905 473e a622 ba3e 7b3d 0dbf 0061 673d
000001e0: 9c0e f83d 39a0 d7be c064 74bc 5627 d13e
000001f0: 9196 5bbe 37ec 26bf 3e56 d1be 406e 0e3f
00000200: 0b70 72be d022 0abf 00c0 f5bc afd1 2d3f
00000210: 6481 42be a6f5 1bbf b6e6 c7be 5a11 f33e
00000220: 9f13 243f 6bc5 05bf 698c febe 9b38 233f
00000230: 233f c6be d863 cb3d baa8 af3e 9878 a5be
00000240: 7d66 313e f54d 78be 6717 b7be e3d2 30bf
00000250: cb9c 163f 3c27 15be b165 2b3d 9ad9 58be
00000260: 1474 ca3e 590f bf3d 8675 de3e ec69 fcbe
00000270: 6134 df3e 72e6 f63e 0d58 84be b881 9d3e
00000280: ece8 9d3e 1ebb 5b3e b856 4bbe 7ef8 fa3e
00000290: 7f41 063f 214e 273e 937d 8e3e 34dc 7bbe
000002a0: 7e8b 8ebe 3d48 183e 00eb 073f ea81 613e
000002b0: 0803 a8bd 63ab de3e d040 a73d d83c 70be
000002c0: 5f8e 873e bcda 68be f5b3 46be c06e f0be
000002d0: 37c5 003f a65e fb3e a34d 0f3f 141f 9cbe
000002e0: 6b24 08bf 7eab 2dbf f27e a9be 96e4 933e
000002f0: 6465 f5be 5430 7cbe 2f7b 133f f358 a53e
00000300: b914 00bf 5a72 ce3e 15d2 aa3e dfee dbbe
00000310: c5f3 20be 336a 03bf e28d ffbe f14b 0c3f
00000320: 2cd9 1a3f c4c5 f33e e132 543e 282e 22be
00000330: e081 d4be de99 9c3e 4834 8d3e f896 88bd
00000340: ef26 333f 3e6d cd3e 1649 34be e293 59be
00000350: a176 0c3f ac84 a2be 69c7 c9be e7b8 193f
00000360: 041b 99be fe46 b33e 3881 243f f72e 95bd
00000370: 59d0 dabd 927f bfbe e340 293f 30bd 14bf
00000380: ef64 55bd ca78 27bf 9e90 fd3e 6f92 203f
00000390: fd9c 293f 1657 8c3e e41a 953e 90f8 e33d
000003a0: a969 f0be e581 a5bc 9dcc 1abf 1d3f b5be
000003b0: 0029 70bd 1e62 1ebf 5064 02bf ddca 95bd
000003c0: 2aa7 f13e f014 1e3e e5f0 17bf 565e 03bf
000003d0: b8c6 8f3e 5ae5 cbbe 4f92 13bf b8fa 513e
000003e0: f498 f5be 086e f0bd a8f9 28bf f43c 1bbe
000003f0: fe6a 60be bc45 30be 28b9 1f3e 796d cbbe

linear2.weight f4 [256, 256]
-0.03406766 0.019422447 0.00032224506 0.06505645 0.040649705 0.040959686 -0.051065855 -0.017491369
0.05657956 0.024161138 -0.022384228 0.053611763 0.051470317 -0.024993695 0.019784529 -0.06056457
-0.024303583 -0.016855381 -0.038918547 0.042563982 0.05082935 0.05306572 0.043778434 0.06053407
0.063480526 0.0027189576 0.061221413 -0.046965983 -0.009129659 0.058156412 0.054632746 -0.03580644
-0.04799486 0.0040256656 -0.03707899 0.03690181 0.029099606 -0.012169646 0.050415855 0.048476327
0.04763549 -0.049830116 -0.039602887 0.045949936 0.045448504 0.043914635 -0.01443514 -0.04612324
0.035898283 0.033262298 -0.04272263 0.053467624 0.036102705 -0.023628676 0.05234572 0.008575879
-0.037916243 -0.041895337 -0.03295271 -0.007099288 0.039717417 -0.03953573 -0.008945763 0.0325094
0.014119156 0.0046608597 -0.022360828 -0.030902319 -0.034314126 -0.04174325 -0.00094908505 -0.005556502
-0.057783246 0.05374589 -0.04770509 -0.03582454 0.062482845 0.05216644 0.0071661724 0.011936851
-0.042718552 0.05108346 -0.02783369 0.013368614 0.041305628 -0.013722345 0.01348678 0.030395865
0.058136124 0.014199931 0.01587379 0.049958833 -0.002595062 0.04520946 0.062487736 -0.009957101
0.061807383 -0.038488943 0.059262138 0.05552066 0.003596632 -0.038680073 -0.042113684 0.065146714
0.015474791 -0.026462173 0.02671923 -0.03505096 0.0051919287 0.033068553 0.01895152 0.003375415
0.05492089 -0.005881754 0.03265433 -0.00055935234 0.057957787 -0.031535804 -0.01792845 0.022352152
0.05834751 -0.031705424 0.04980567 -0.041868113 -0.029583191 0.05414902 0.0003222227 -0.020209834
0.057049528 0.04454943 -0.0401956 -0.0043509756 -0.042891957 0.0502492 0.020441145 -0.040328823
-0.011022851 -0.052026328 -0.04469142 0.027459623 0.046095304 0.056299172 0.017899692 0.024611846
0.0074571953 0.034619518 0.00918369 0.04692766 -0.040719513 -0.060190022 0.04644254 -0.013342917
-0.021275116 -0.0036492853 -0.049174324 -0.023415774 0.033406448 0.026253797 -0.016097791 -0.04821059
-0.005083972 -0.044714216 0.008227287 -0.01958289 -0.025514476 0.055370126 -0.016320217 -0.040538676
-0.03721622 -0.027150989 0.02454998 -0.009579611 0.05630253 0.061941504 0.0052448586 0.024907771
0.015409152 -0.016980156 0.013647848 0.0175874 -0.0036465675 -0.010964438 -0.0035173148 0.054138653
0.020279385 -0.007909131 0.019957608 0.009865515 -0.05443422 0.044489518 0.01351779 0.00089443865
-0.03540045 0.0012760162 0.036311273 0.002321557 -0.050542124 0.03539401 -0.059241906 -0.00032966584
0.057590086 -0.012242686 -0.050518777 -0.0400706 -0.032654732 -0.04795257 0.03915353 -0.041850276
-0.007397026 0.028700963 -0.047023177 0.022332609 0.00395126 -0.0042219386 -0.06140212 0.03865321
0.018994823 0.030313939 -0.02427515 -0.019505916 -0.053447247 0.01375898 -0.027226418 0.026472654
-0.029967412 -0.021162093 -0.023876378 -0.03951297 -0.040906556 -0.036183823 -0.0431929 0.06095679
0.007862447 -0.015337657 -0.0016424825 -0.018675609 0.003782384 -0.043505847 0.032276038 -0.04228321
-0.019311868 -0.0060616583 0.020421749 -0.038883027 0.036161307 0.015388481 0.04002068 -0.02751121
0.054311834 -0.023106612 0.0064204 0.0398174 -0.008671142 0.021250308 -0.037284385 -0.028707685
00000000: 888a 0bbd d31b 9f3c 00f3 a839 513c 853d
00000010: 4e80 263d 58c5 273d 6e2a 51bd 0f4a 8fbc
00000020: f8bf 673d 94ed c53c 215f b7bc 0298 5b3d
00000030: 8ad2 523d 94bf ccbc 2a13 a23c 8e12 78bd
00000040: 4f18 c7bc 4c14 8abc 0e69 1fbd 9257 2e3d
00000050: 7032 503d 715b 593d 0451 333d 93f2 773d
00000060: 1402 823d 8a30 323b 4ec3 7a3d 675f 40bd
00000070: 9194 15bc 6b35 6e3d 96c6 5f3d c6a9 12bd
00000080: 4296 44bd bbe9 833b 24e0 17bd 5a26 173d
00000090: 4c62 ee3c 3263 47bc db80 4e3d 1d8f 463d
000000a0: 6e1d 433d aa1a 4cbd a336 22bd 0036 3c3d
000000b0: 3628 3a3d d5df 333d 5e81 6cbc b9eb 3cbd
000000c0: 140a 133d 0c3e 083d edfd 2ebd de00 5b3d
000000d0: 6ee0 133d ed90 c1bc 7768 563d d881 0c3c
000000e0: 104e 1bbd 729a 2bbd 6cf9 06bd 25a1 e8bb
000000f0: bbae 223d 38f0 21bd 4091 12bc 9428 053d
00000100: 0854 673c 20ba 983b 0e2e b7bc dc26 fdbc
00000110: f88c 0cbd f8fa 2abd 05cc 78ba 5113 b6bb
00000120: 20ae 6cbd a624 5c3d 6a66 43bd c1bc 12bd
00000130: 03ee 7f3d 7aac 553d 36d2 ea3b c892 433c
00000140: a6f9 2ebd e43c 513d 7b03 e4bc 0808 5b3c
00000150: 1730 293d b0d3 60bc a8f7 5c3c c000 f93c
00000160: 2520 6e3d d4a6 683c c009 823c a2a1 4c3d
00000170: ea11 2abb 8e2d 393d 24f3 7f3d 1c23 23bc
00000180: bd29 7d3d 95a6 1dbd dbbc 723d a269 633d
00000190: 79b5 6b3b ff6e 1ebd 667f 2cbd a46b 853d
000001a0: fa89 7d3c 33c7 d8bc 49e2 da3c 9891 0fbd
000001b0: 0e21 aa3b e472 073d 3840 9b3c 1136 5d3b
000001c0: baf4 603d bbbb c0bb 8cc0 053d 80a1 12ba
000001d0: 2565 6d3d b02b 01bd afde 92bc dc1b b73c
000001e0: ccfd 6e3d 8cdd 01bd 0801 4c3d e67d 2bbd
000001f0: 7358 f2bc 5dcb 5d3d 00f0 a839 188f a5bc
00000200: c4ac 693d 7779 363d 24a4 24bd a192 8ebb
00000210: 7aaf 2fbd 1bd2 4d3d 3074 a73c d62f 25bd
00000220: 3099 34bc 8f19 55bd 5a0e 37bd 01f3 e03c
00000230: 6ece 3c3d f699 663d 60a2 923c c89e c93c
00000240: 7d5b f43b 32cd 0d3d 3077 163c 3837 403d
00000250: 81c9 26bd d089 76bd 883a 3e3d 409c 5abc
00000260: 2749 aebc d928 6fbb 046b 49bd 70d2 bfbc
00000270: 33d5 083d 3412 d73c 84df 83bc 7878 45bd
00000280: 7397 a6bb 4126 37bd becb 063c 4c6c a0bc
00000290: bc03 d1bc c9cb 623d fab1 85bc e20b 26bd
000002a0: 0970 18bd c06b debc 0a1d c93c cdf3 1cbc
000002b0: 7b9d 663d 60b6 7d3d 10dd ab3b 620b cc3c
000002c0: ab76 7c3c f819 8bbc 399b 5f3c 7313 903c
000002d0: 40fb 6ebb 30a4 33bc c082 66bb 7ec0 5d3d
000002e0: f420 a63c 4d95 01bc 237e a33c f8a2 213c
000002f0: 6bf6 5ebd a43a 363d b879 5d3c c378 6a3a
00000300: 1000 11bd 0040 a73a 21bb 143d 4325 183b
00000310: 4205 4fbd 4ff9 103d a4a7 72bd 00d7 acb9
00000320: 95e3 6b3d 8c95 48bc c7ec 4ebd 1221 24bd
00000330: f8c0 05bd ea69 44bd 745f 203d 326b 2bbd
00000340: c062 f2bb 481e eb3c 609b 40bd e0f2 b63c
00000350: 9279 813b 3058 8abb ca80 7bbd d452 1e3d
00000360: 089b 9b3c f054 f83c aedc c6bc dfca 9fbc
00000370: 80eb 5abd 586d 613c f009 dfbc 2edd d83c
00000380: 387e f5bc 205c adbc 6598 c3bc 5ad8 21bd
00000390: a28d 27bd 7d35 14bd 0aeb 30bd d4ad 793d
000003a0: 7ed1 003c cc4a 7bbc 9148 d7ba 97fd 98bc
000003b0: e0e1 773b 3033 32bd e133 043d 2931 2dbd
000003c0: ec33 9ebc e0a0 c6bb 834b a73c cf43 1fbd
000003d0: e11d 143d f81f 7c3c b9ec 233d 305f e1bc
000003e0: 1676 5e3d 144a bdbc 3862 d23b 9217 233d
000003f0: 6811 0ebc 2015 ae3c 83b7 18bd 612c ebbc

linear2.bias f4 [256]
0.018151293 -0.04574658 -0.001745455 0.006649937 0.045000788 -0.05828516 0.03045531 -0.022188548
0.012406342 0.04623999 -0.046155155 0.02086554 -0.063586056 -0.03138386 -0.039714087 -0.027387507
0.024446107 -0.018228645 0.0039649503 -0.04588729 -0.042539597 -0.0013516017 -0.014863032 -0.029838614
-0.0050190934 -0.039756387 0.0017705985 -0.020666659 -0.0074566677 -0.0384229 0.039058164 0.04335787
0.042420805 0.06578719 -0.04912109 0.035448194 0.050696827 0.03128691 0.012945052 0.0054004192
-0.015730323 -0.056425784 -0.05375349 -0.0029526239 0.036171213 -0.004349433 -0.060415678 -0.007295621
0.058042318 0.04966583 -0.05374044 -0.03873245 -0.03134626 0.06141402 0.048311114 0.02467579
-0.015768215 0.002762216 0.025524914 -0.0039202725 0.03629978 0.026822919 0.0096916715 -0.013213962
-0.026634216 0.051140156 0.06580445 -0.023903847 -0.05964481 0.03563103 -0.03899262 -0.014699126
-0.0038487872 0.055275813 -0.057700627 -0.034068577 -0.048921872 0.060466938 0.058863506 -0.0312532
0.060364045 -0.055928696 -0.020239668 0.04698142 0.043693215 -0.01884896 -0.051968087 -0.009967871
0.05416517 -0.03175981 -0.029525064 -0.026057545 -0.034227096 0.0484302 -0.04613435 -0.010162296
-0.033967175 -0.018353395 0.005212838 -0.04451078 -0.040899955 0.019652322 -0.014228037 -0.040856697
-0.033556562 -0.032402642 -0.00520429 0.036492936 0.05256778 0.056399435 0.02835299 -0.026352998
0.0006209643 0.048659798 0.017838571 0.059914477 0.005832139 0.02586686 -0.024362916 -0.03889906
0.007839821 -0.049175985 0.05925532 0.01767283 -0.030064844 -0.021164693 0.030634806 0.031172529
0.055368103 0.044886135 0.0045004934 -0.03677389 0.026202861 0.045968384 -0.056059122 0.050131265
0.03664789 0.06022156 -0.057649672 0.017576067 -0.008233452 -0.0023121429 -0.02011577 -0.023352295
-0.03734031 -0.036136046 0.057610013 -0.02869461 -0.010468215 0.053829387 0.03728807 0.027843937
0.009119518 0.031405464 -0.04877676 0.031950273 0.031317405 0.020929368 0.026872478 0.001034528
0.05449026 0.0429696 -0.054300923 0.01402409 0.032360613 0.021123983 0.01913945 0.057847288
0.052333053 -0.050944656 -0.029014967 0.03263944 -0.017991642 0.020829102 0.053856052 -0.0038906783
0.011490174 0.04715849 -0.043328248 0.02727359 0.029450329 -0.022365877 -0.0003193982 -0.020141505
-0.011223759 -0.021917287 0.03731808 -0.049595475 0.01360746 -0.017475717 0.059574068 0.0018006861
-0.058873594 -0.028880462 0.034208804 0.04199484 0.037977047 0.014737556 0.052165285 0.0059993113
0.015349999 -0.0053009465 0.01585129 -0.059014305 0.053995274 -0.026340209 -0.030113919 0.0012808918
0.0508962 0.025474824 -0.048415635 0.05709227 -0.036356077 -0.05331428 -0.0031380206 -0.0041084317
0.064364694 0.008278087 0.026533743 0.019769914 -0.055537056 0.005509433 -0.051917277 0.011939704
0.06594286 -0.023313299 -0.051186264 0.014989562 -0.045462247 0.02178105 -0.056144364 0.057795405
0.06118057 0.02846775 0.0131347105 0.0555058 0.02769947 -0.05062912 -0.04279291 -0.028243134
-0.04107278 0.034948684 0.06094687 -0.048632074 8.557549e-05 -0.044998363 -0.050458867 -0.059367597
0.038202748 -0.062224567 0.045901056 -0.012058794 -0.027992554 -0.011025154 0.011885797 -0.03983663
00000000: 05b2 943c c460 3bbd c0c7 e4ba b7e7 d93b
00000010: bf52 383d 6cbc 6ebd 6a7d f93c c2c4 b5bc
00000020: f843 4b3c 2566 3d3d 300d 3dbd 35ee aa3c
00000030: 6839 82bd 5d8c 00bd 3dab 22bd c45b e0bc
00000040: 3443 c83c 3d54 95bc 6aec 813b 50f4 3bbd
00000050: 003e 2ebd 3a28 b1ba 1384 73bc 1c70 f4bc
00000060: 3577 a4bb 98d7 22bd 6d13 e83a 204d a9bc
00000070: 1057 f4bb 5561 1dbd 74fb 1f3d 0698 313d
00000080: 70c1 2d3d 6fbb 863d 3233 49bd 2032 113d
00000090: 7aa7 4f3d b426 003d 7c17 543c 00f6 b03b
000000a0: e1dc 80bc b91e 67bd 9f2c 5cbd cf80 41bb
000000b0: 4428 143d b085 8ebb 6e76 77bd 1b10 efbb
000000c0: c8bd 6d3d 666e 4b3d f01e 5cbd eba5 1ebd
000000d0: f064 00bd 448d 7b3d e0e1 453d e224 ca3c
000000e0: 582c 81bc 4b06 353b a019 d13c a175 80bb
000000f0: 14af 143d bdbb db3c d1c9 1e3c 607f 58bc
00000100: 0030 dabc 5778 513d 7cc4 863d 00d2 c3bc
00000110: 1e4e 74bd d8f1 113d bab6 1fbd 9ad4 70bc
00000120: ef3b 7cbb e468 623d 7e57 6cbd 7e8b 0bbd
00000130: 4d62 48bd 2eac 773d dc1a 713d 5b03 00bd
00000140: 4a40 773d 7d15 65bd a9cd a5bc 976f 403d
00000150: a8f7 323d 2269 9abc 7ddc 54bd 4850 23bc
00000160: 4cdc 5d3d 9316 02bd 8cde f1bc a276 d5bc
00000170: b631 0cbd bf5e 463d 5ff7 3cbd c27f 26bc
00000180: 2a21 0bbd dc59 96bc 74d0 aa3b f050 36bd
00000190: b686 27bd e8fd a03c b61c 69bc 5a59 27bd
000001a0: 9b72 09bd a2b8 04bd c088 aabb 9e79 153d
000001b0: 5051 573d 1803 673d 8844 e83c 3ee2 d7bc
000001c0: 35c8 223a 7f4f 473d 3222 923c e268 753d
000001d0: 871b bf3b bde6 d33c bd94 c7bc 9f54 1fbd
000001e0: 9872 003c c26c 49bd b5b5 723d 9cc6 903c
000001f0: 8c4a f6bc 9461 adbc d8f5 fa3c 885d ff3c
00000200: aac9 623d 86da 373d e078 933b 38a0 16bd
00000210: 62a7 d63c 5849 3c3d 409e 65bd 7156 4d3d
00000220: 191c 163d e2aa 763d 1022 6cbd affb 8f3c
00000230: 9ae5 06bc 5287 17bb d4c9 a4bc 504d bfbc
00000240: 27f2 18bd 6403 14bd 7af8 6b3d f510 ebbc
00000250: e082 2bbc 347c 5c3d 60bb 183d f818 e43c
00000260: 086a 153c 04a3 003d 24ca 47bd 4ade 023d
00000270: ae46 003d 1174 ab3c ac23 dc3c 0099 873a
00000280: 2e31 5f3d e400 303d a56a 5ebd 4cc5 653c
00000290: 908c 043d 340c ad3c 56ca 9c3c 47f1 6c3d
000002a0: 2f5b 563d 58ab 50bd ccb0 edbc efb0 053d
000002b0: 3563 93bc cba1 aa3c 2a98 5c3d c0fa 7ebb
000002c0: 4841 3c3c 4329 413d f678 31bd dd6c df3c
000002d0: d141 f13c a538 b7bc e774 a7b9 ccff a4bc
000002e0: dbe3 37bc e28b b3bc d8da 183d a024 4bbd
000002f0: d3f1 5e3c 3c29 8fbc f003 743d 0005 ec3a
00000300: 7025 71bd b896 ecbc 881e 0c3d c802 2c3d
00000310: d28d 1b3d ca75 713c 44ab 553d df95 c43b
00000320: 907e 7b3c 90b3 adbb 91da 813c fcb8 71bd
00000330: 262a 5d3d 6cc7 d7bc 77b1 f6bc 99e3 a73a
00000340: 8978 503d 94b0 d03c 794f 46bd 96d9 693d
00000350: 1cea 14bd 1360 5abd 40a7 4dbb 06a0 86bb
00000360: a3d1 833d d0a0 073c 4b5d d93c 84f4 a13c
00000370: d37a 63bd 7988 b43b 36a7 54bd c09e 433c
00000380: 0d0d 873d 88fb bebc b0a8 51bd c896 753c
00000390: 9f36 3abd 2c6e b23c a2f7 65bd e0ba 6c3d
000003a0: 7a98 7a3d 3335 e93c f832 573c 0d5a 633d
000003b0: 00ea e23c 7b60 4fbd 9e47 2fbd 255e e7bc
000003c0: ee3b 28bd 5a26 0f3d 6da3 793d 6d32 47bd
000003d0: fe76 b338 3450 38bd f5ad 4ebd 702b 73bd
000003e0: 7c7a 1c3d 30df 7ebd bf02 3c3d 3f92 45bc
000003f0: a450 e5bc d9a2 34bc a5bc 423c bc2b 23bd

linear4.weight f4 [256, 256]
0.06336928 -0.02333413 0.024594255 0.031147363 0.006786573 -0.029390082 0.043534875 -0.022821994
-0.01680033 0.048905462 0.057853743 -0.04504179 0.0019579283 0.0565202 -0.03138113 0.010179974
-0.0046070814 0.012203343 -0.0147635825 0.0046102926 0.029194266 0.021331321 -0.035615485 -0.038881127
-0.036833536 0.00092355907 0.031520378 -0.022283778 -0.0057859644 0.052321404 -0.06025821 0.05801949
0.015077033 0.034880754 0.055683076 0.023974985 -0.014527946 0.017031405 0.03687179 0.021117881
-0.055190828 0.061495032 0.0034829706 -0.048311267 -0.00024493784 0.018166326 0.030570768 0.05834901
0.00568149 0.039266244 0.0094304755 0.02065406 -0.053047568 -0.04805319 0.014105062 0.02937834
-0.052453082 -0.0044904575 0.05046098 -0.055592697 0.014156665 0.05248963 0.017887847 -0.03890823
0.009508282 0.04253838 0.04678245 -0.024916068 0.05080594 0.024902612 0.04962071 -0.029189246
0.007786023 0.02399654 -0.019392923 0.0402885 -0.016257409 -0.008355256 -0.028522715 -0.007171095
0.015578055 0.009805091 0.036529083 0.06583297 0.025952503 -0.017042987 -0.0069960947 -0.024516277
0.01506564 -0.032856986 0.011559248 -0.02117318 -0.00043124091 0.013375314 0.024805272 0.057980817
-0.026595553 0.009990081 0.021883098 0.032761782 0.043499 0.027561449 0.06029497 -0.044858523
0.028173665 0.06203366 -0.010872528 -0.038327135 0.039712086 0.01641836 -0.016555302 0.033408813
-0.040206026 0.0071162647 0.05184914 0.034178242 -0.049177304 -0.011724572 -0.027074264 -0.017077636
-0.0624964 0.054231405 -0.04480108 0.026603945 -0.049947254 0.06124066 -0.033713415 0.011664085
-0.017191248 0.015603252 0.061600335 -0.00021788478 0.039861538 -0.05172964 0.021579586 0.051867433
0.06620138 -0.006310731 -0.03823814 -0.06188489 0.057381846 -0.033179894 0.016266773 -0.050848104
-0.030010711 -0.02772455 -0.054698482 -0.023869494 -0.01751297 -0.017485663 -0.049948934 -0.01026825
-0.04429655 0.0030303781 0.03365733 0.043727428 -0.042384565 -0.0022966256 0.061487608 0.040992357
0.0434535 0.05359017 -0.033047073 -0.049775884 -0.012370855 -0.046212353 0.036930908 -0.02235535
-0.032282658 -0.043746665 0.006742043 -0.029359028 0.04389798 0.0036777407 0.011858307 0.017029114
0.025599793 0.06733841 0.04170002 -0.012564301 0.06053092 0.011361754 -0.037532266 0.029990047
-0.013178236 0.039631825 -0.051035758 0.034206554 -0.049631625 0.04880467 -0.05587043 0.021083891
-0.061080303 0.054379933 -0.026254758 0.060240574 -0.044560365 0.014689767 -0.033749912 -0.052370727
0.018840209 0.03504259 0.0011730187 -0.013745263 -0.0125626465 0.03474404 0.005670616 -0.033467047
0.027364831 -0.01854954 -0.026023071 0.0016328245 -0.04202473 0.035269324 -0.03058879 -0.02370375
0.058161736 0.045451738 0.016617667 -0.05347412 -0.029738402 0.019205786 0.055342376 0.028730497
-0.051315505 0.049586616 0.005118884 0.044080786 0.04320237 0.0018313825 -0.028663605 0.08027094
-0.023638368 0.009160462 0.060974307 0.018594874 -0.035978816 -0.025690202 0.01087749 -0.020504277
0.027861133 0.05833558 -0.0072060656 0.03410492 -0.017895231 -0.049773365 0.054895177 0.059884302
0.0014939159 0.042098194 -0.05883616 0.04387545 -0.047725126 -0.018933296 0.0121834725 0.061640136
00000000: c1c7 813d 3827 bfbc e479 c93c c128 ff3c
00000010: e761 de3b 78c3 f0bc a051 323d 31f5 babc
00000020: d8a0 89bc 1851 483d 0cf8 6c3d bd7d 38bd
00000030: 9650 003b ba81 673d 8089 00bd e8c9 263c
00000040: 00f7 96bb 88f0 473c f4e2 71bc f011 973b
00000050: d028 ef3c 06bf ae3c 8be1 11bd d141 1fbd
00000060: c3de 16bd 001b 723a 831b 013d 788c b6bc
00000070: 3098 bdbb f84e 563d 50d1 76bd d8a5 6d3d
00000080: a905 773c 1fdf 0e3d f013 643d 3067 c43c
00000090: 9f06 6ebc 7285 8b3c e006 173d 68ff ac3c
000000a0: c70f 62bd 37e2 7b3d 8d42 643b 09e2 45bd
000000b0: 006b 80b9 8cd1 943c 8c6f fa3c 5fff 6e3d
000000c0: cb2b ba3b a4d5 203d 4882 1a3c b432 a93c
000000d0: 6848 59bd 6cd3 44bd eb18 673c d8aa f03c
000000e0: 0bd9 56bd b024 93bb 2cb0 4e3d 2bb5 63bd
000000f0: 5bf1 673c 5eff 563d 8989 923c 3c5e 1fbd
00000100: a0c8 1b3c b93c 2e3d f49e 3f3d c81c ccbc
00000110: e419 503d 9000 cc3c 163f 4b3d 491e efbc
00000120: e521 ff3b 6494 c43c e8dd 9ebc 8e05 253d
00000130: 422e 85bc 7ce4 08bc 78a8 e9bc 81fb eabb
00000140: 193b 7f3c 88a5 203c 859f 153d 70d3 863d
00000150: 589a d43c bc9d 8bbc 7f3f e5bb 5cd6 c8bc
00000160: e0d5 763c 0c95 06bd 0063 3d3c 6073 adbc
00000170: 2d18 e2b9 2224 5b3c 6d34 cb3c 4b7d 6d3d
00000180: ebde d9bc 70ad 233c 2f44 b33c 3831 063d
00000190: 022c 323d 8cc8 e13c dcf7 763d 92bd 37bd
000001a0: 75cc e63c 0217 7e3d b022 32bc eafc 1cbd
000001b0: 24a9 223d cc7f 863c fc9e 87bc aed7 083d
000001c0: 13af 24bd 8e2f e93b c45f 543d 7cfe 0b3d
000001d0: 246e 49bd 6b18 40bc d9ca ddbc 66e6 8bbc
000001e0: 3afc 7fbd c021 5e3d 5681 37bd 84f0 d93c
000001f0: 7e95 4cbd 7cd7 7a3d 1417 0abd b81a 3f3c
00000200: a9d4 8cbc c8a4 7f3c a250 7c3d 0078 64b9
00000210: da45 233d 76e2 53bd acc7 b03c f272 543d
00000220: 9794 873d 40ca cebb 999f 1cbd 037b 7dbd
00000230: 3a09 6b3d a4e7 07bd e541 853c 1a46 50bd
00000240: 06d9 f5bc 981e e3bc 840b 60bd f589 c3bc
00000250: 5c77 8fbc 183e 8fbc 4197 4cbd 293c 28bc
00000260: 4d70 35bd 4f99 463b 45dc 093d 881b 333d
00000270: 709b 2dbd fc82 16bb 6eda 7b3d 9ae7 273d
00000280: 4cfc 313d 5e81 5b3d 5e5c 07bd cce1 4bbd
00000290: 20af 4abc 2a49 3dbd dd44 173d 9122 b7bc
000002a0: d23a 04bd b42f 33bd 5bec dc3b 5882 f0bc
000002b0: 5ece 333d 4006 713b 5849 423c a480 8b3c
000002c0: a8b6 d13c b8e8 893d a4cd 2a3d 7fda 4dbc
000002d0: 45ef 773d a626 3a3c 6fbb 19bd b0ad f53c
000002e0: 87e9 57bc fb54 223d df0a 51bd 2c1c 0c3d
000002f0: 884a 4bbd 68e7 473d 64d8 64bd 20b8 ac3c
00000300: 572f 7abd 7ebd 5e3d 3814 d7bc d2be 763d
00000310: ee84 36bd 59ad 703c 593d 0abd b082 56bd
00000320: c856 9a3c d288 0f3d fabf 993a d033 61bc
00000330: 8fd3 4dbc c44f 0e3d 93d0 b93b be14 09bd
00000340: 362c e03c 34f5 97bc 562e d5bc 8004 d63a
00000350: 2022 2cbd 9176 103d 5895 fabc 5e2e c2bc
00000360: 003b 6e3d 9a2b 3a3d c621 883c ae07 5bbd
00000370: f39d f3bc 7455 9d3c b0ae 623d 385c eb3c
00000380: 3530 52bd 561b 4b3d 50bc a73b 0e8e 343d
00000390: f8f4 303d 000b f03a f0cf eabc 1765 a43d
000003a0: 40a5 c1bc c315 163c 32c0 793d 4754 983c
000003b0: 865e 13bd 4274 d2bc 8037 323c 96f8 a7bc
000003c0: 083d e43c 4af1 6e3d dc20 ecbb 9ab1 0b3d
000003d0: 0599 92bc 28df 4bbd c4d9 603d 3e49 753d
000003e0: 80cf c33a 286f 2c3d 2ffe 70bd beb6 333d
000003f0: 6c7b 43bd 001a 9bbc 309d 473c 5e7a 7c3d

linear4.bias f4 [256]
0.020661123 -0.021647552 -0.037567593 0.055147253 -0.018029034 0.010564352 0.010954246 -0.03113778
-0.0066494495 0.038557027 -0.045804687 -0.054228462 -0.027269024 0.016821347 0.0383489 -0.048775114
-0.04142394 -0.056516245 0.051033452 0.061845575 0.021436326 0.014782473 0.047512185 0.0080512315
-0.045193933 -0.04769364 -0.05213452 0.0038468838 -0.051626496 -0.047397014 -0.028603412 0.025826275
-0.043577373 0.056744173 0.008236662 0.0603127 -0.051455792 0.038939252 -0.009598032 -0.022205276
-0.010462682 -0.02679954 0.049524046 -0.052121125 -0.04275744 -0.010486714 -0.04250544 -0.005228254
-0.032798797 -0.02310685 0.00030120864 -0.009013233 0.0035391029 -0.055592604 0.05880046 0.036754996
-0.006136715 -0.0385868 0.040025063 -0.026049705 -0.014209383 -0.017918136 0.03147155 -0.05380112
-0.025002478 -0.010756489 -0.033029493 -0.033061445 -0.022566468 -0.029927064 0.03535661 0.03418386
0.045786917 -0.009615983 -0.025571866 -0.023172222 0.05085369 -0.020950725 0.006340103 0.048190385
0.062414832 -0.04511322 0.013157521 0.06555683 -0.0020670965 -0.010842798 0.052698024 0.059619423
0.022170067 0.048663385 -0.041609652 0.04041238 0.025915807 -0.042760458 -0.0049636895 -0.010454826
-0.004837223 0.060596026 -0.005921485 -0.011762397 -0.00037907326 0.06292314 -0.019584216 0.03532813
0.017523795 -0.049600318 0.058643196 -0.06239547 0.028156955 0.044042014 -0.005416746 0.034421023
-0.007525526 -0.052540667 -0.009788606 -0.010584034 0.050181706 -0.01593905 0.017216966 0.040962216
-0.0167128 -0.053029425 0.044166066 -0.041650254 -0.060463205 -0.039017424 0.05226598 0.00055992784
0.025869885 0.030980404 0.046354778 0.051467802 0.04691555 -0.028866798 0.039532218 0.025405912
0.003668687 0.018398881 0.053954683 0.024466224 0.06419541 -0.053520206 0.0019109626 0.06532367
0.036551423 -0.05217473 0.02778978 0.010505939 0.009163808 -0.036128648 0.011368653 0.046643436
-0.043445744 -0.039503355 -0.0035096481 -0.034902334 0.04161671 -0.00868443 -0.02999378 -0.05059519
-0.060768098 -0.062395453 -0.053781714 -0.0068778074 -0.052979317 0.027684305 0.059851713 0.045524
-0.009083062 -0.04530639 0.062419526 0.004123836 0.014252538 0.023523988 0.038845498 0.012213675
-0.04603799 0.043983925 -0.042778306 -0.05346413 -0.03182029 -0.019441046 -0.055336215 -0.03682487
-0.041666538 -0.009245254 -0.036786072 -0.023213034 0.062961794 0.024367124 0.049660347 0.008516023
-0.010417923 -0.060250998 0.0019907856 0.06294889 -0.010591167 0.035814475 -0.04854334 0.035573505
0.018894354 -0.05738197 -0.048486818 -0.013861312 -0.032274697 0.028668884 0.025605895 -0.020084374
-0.05608119 0.032683097 0.037446946 0.024070531 -0.0239821 -0.027429327 -0.041117497 0.014050871
0.043912023 0.043005567 -0.0051716734 -0.031351417 0.013369159 0.034241594 0.04917235 -0.020725256
0.041411184 -0.004396793 -0.024740458 0.05573386 -0.0025912425 0.061817132 -0.04167977 -0.045627777
0.007328969 -0.012734748 -0.016473612 -0.024618711 0.0583036 -0.042082395 0.040354118 0.020929607
-0.056276105 -0.04458884 0.03267887 -0.04051134 -0.01565982 -0.053003307 0.011516236 0.06406064
-0.006051414 0.0051893345 0.012650529 0.031736154 0.067630835 0.021553876 -0.002086766 0.021530382
00000000: 8441 a93c 3556 b1bc 7ae0 19bd 16e2 613d
00000010: a0b1 93bc 1b16 2d3c 7079 333c a814 ffbc
00000020: a0e3 d9bb f9ed 1d3d b29d 3bbd aa1e 5ebd
00000030: 4a63 dfbc eccc 893c bc13 1d3d 6ac8 47bd
00000040: 26ac 29bd 947d 67bd 7408 513d c951 7d3d
00000050: 3c9b af3c 3032 723c 239c 423d 50e9 033c
00000060: 461d 39bd 685a 43bd 028b 55bd 001c 7c3b
00000070: 4e76 53bd 5f23 42bd b451 eabc a091 d33c
00000080: 307e 32bd 946c 683d 10f3 063c 730a 773d
00000090: 4fc3 52bd c47e 1f3d 1041 1dbc d7e7 b5bc
000000a0: ab6b 2bbc b58a dbbc bad9 4a3d f67c 55bd
000000b0: 6d22 2fbd 77d0 2bbc 2f1a 2ebd c651 abbb
000000c0: 0858 06bd 944a bdbc 8aeb 9d39 3dac 13bc
000000d0: 4bf0 673b 12b5 63bd c0d8 703d 688c 163d
000000e0: 7f16 c9bb 310d 1ebd 52f1 233d 3166 d5bc
000000f0: 79ce 68bc 0ec9 92bc 50e8 003d 905e 5cbd
00000100: ffd1 ccbc fc3b 30bc ef49 07bd 706b 07bd
00000110: 50dd b8bc 9a29 f5bc 18d2 103d 6004 0c3d
00000120: 108b 3b3d 5b8c 1dbc 177c d1bc acd3 bdbc
00000130: f54b 503d dba0 abbc a4c0 cf3b 4863 453d
00000140: b2a6 7f3d a4c8 38bd a592 573c a942 863d
00000150: 2078 07bb fea5 31bc e2d9 573d 7f33 743d
00000160: 009e b53c 4253 473d e26e 2abd 7487 253d
00000170: 634d d43c 9725 2fbd 72a6 a2bb b84a 2bbc
00000180: 9181 9ebb 8a33 783d 0409 c2bb 12b7 40bc
00000190: 5abe c6b9 d9dd 803d 146f a0bc 3bb4 103d
000001a0: 108e 8f3c b429 4bbd d933 703d 6492 7fbd
000001b0: 6aa9 e63c 6665 343d f57e b1bb 0ffd 0c3d
000001c0: b098 f6bb e234 57bd 6460 20bc a868 2dbc
000001d0: 558b 4d3d 9c92 82bc 980a 8d3c ffc7 273d
000001e0: 48e9 88bc 6235 59bd 7ae7 343d 7599 2abd
000001f0: 44a8 77bd bcd0 1fbd da14 563d 1fc8 123a
00000200: 15ed d33c 9eca fd3c 82de 3d3d e7cf 523d
00000210: 852a 403d 107a ecbc 89ec 213d 0f20 d03c
00000220: 5b6e 703b 40b9 963c 96ff 5c3d 646d c83c
00000230: e278 833d 0138 5bbd 4479 fa3a 6bc8 853d
00000240: f2b6 153d 2bb5 55bd 65a7 e33c 1a21 2c3c
00000250: cc23 163c a2fb 13bd 9643 3a3c 300d 3f3d
00000260: 2af4 31bd 45ce 21bd 2002 66bb c0f5 0ebd
00000270: 4976 2a3d 2449 0ebc 84b5 f5bc e73c 4fbd
00000280: f8e7 78bd 6092 7fbd 374a 5cbd 3b5f e1bb
00000290: d700 59bd 32ca e23c 1227 753d 6077 3a3d
000002a0: 20d1 14bc 3193 39bd 9eab 7f3d 3e21 873b
000002b0: 7a83 693c 61b5 c03c 751c 1f3d de1b 483c
000002c0: 5592 3cbd 7d28 343d 4e38 2fbd 34fd 5abd
000002d0: fe55 02bd d442 9fbc 3aa8 62bd add5 16bd
000002e0: 88aa 2abd 6879 17bc feac 16bd 4329 bebc
000002f0: 1df2 803d 909d c73c a668 4b3d ca86 0b3c
00000300: f0af 2abc c0c9 76bd d777 023b 59eb 803d
00000310: 9386 2dbc 33b2 123d 62d5 46bd 86b5 113d
00000320: 55c8 9a3c 5b09 6bbd 1d9a 46bd 8e1a 63bc
00000330: 7932 04bd 02db ea3c 74c3 d13c fc87 a4bc
00000340: 64b5 65bd b6de 053d f861 193d 902f c53c
00000350: 1c76 c4bc 78b3 e0bc d26a 28bd a035 663c
00000360: 18dd 333d 9b26 303d 2477 a9bb 586a 00bd
00000370: 510a 5b3c ea40 0c3d f268 493d 03c8 a9bc
00000380: c69e 293d f912 90bb 80ac cabc 3049 643d
00000390: d6d1 29bb f633 7d3d 68b8 2abd 31e4 3abd
000003a0: d927 f03b 68a5 50bc abf3 86bc 2ead c9bc
000003b0: c1cf 6e3d 975e 2cbd 5c4a 253d 9174 ab3c
000003c0: c681 66bd caa2 36bd 47da 053d 38ef 25bd
000003d0: 0649 80bc ff19 59bd 98ae 3c3c 3a32 833d
000003e0: f14a c6bb 4b0b aa3b 2a44 4f3c c5fd 013d
000003f0: 0982 8a3d c191 b03c 20c2 08bb 7c60 b03c

linear3.weight f4 [1, 256]
0.017061675 -0.0016523004 0.01479499 0.0028144722 0.0016164061 0.0015774787 -0.0011460203 0.0047038016
-0.0028797348 0.002393439 0.013190615 0.0014871189 0.00717385 0.0022473969 -8.386658e-05 -0.0021572674
0.0042925566 0.0015899721 -0.000640623 0.0016213764 0.0027061757 -0.002678298 -0.001478326 0.0136986645
-0.000595935 0.0029573273 0.0036262695 -0.0012556118 -0.0013535578 0.00048119825 -0.000457176 0.0015678165
0.00406423 0.029716594 -0.0016163768 0.014598895 0.0002515835 0.00461685 0.0004228768 0.0153903905
-1.5531517e-05 -4.332792e-05 0.0020462507 -0.00032702278 0.0033744965 0.012644767 0.015712889 0.00018252297
0.0047544013 -0.0012267625 0.0039107557 0.0002516809 -0.003040671 0.0031356018 0.02476374 0.0025512818
0.0018248963 -0.0010998358 0.00027767057 -0.0021677138 0.01833196 0.0007989021 -0.0016517616 0.00024111017
0.00440651 0.012374458 0.011039749 -0.0014283807 -0.0015928766 -0.0003822404 -0.0002993225 0.0014741868
0.0007869494 0.0035341154 0.004249287 0.004772337 0.0015528969 0.0008262498 0.0045792 -0.00035650033
0.0069254837 0.0022714422 -0.00015651401 0.0045820135 -0.0012982175 -0.0005648105 -0.0015985258 0.00072540576
0.0043199593 0.02715816 0.00022090529 0.0005518584 -0.0013687549 0.0052952236 0.0047188797 0.00050442154
-0.00037656617 0.025640797 0.0013079672 0.0018502217 -0.00019659502 0.022346191 0.0040035397 9.124916e-05
0.0008364883 0.0020321663 0.0027420693 0.001927285 0.008304811 0.007229604 0.00045262786 0.0055996915
0.0025750897 0.0026001718 0.006831866 0.0007636906 -0.00021958053 0.0022508488 -0.001193984 0.0006948609
0.001404129 2.5505342e-05 -0.0003326566 0.005858263 0.0010478413 0.011328142 0.0034508538 0.001106254
0.00016238754 0.016869577 -0.0004518889 0.00069068925 0.005511704 0.0036482108 0.004760003 0.0012104149
-0.001102728 0.00081715896 0.0024026446 0.002506831 0.019087153 0.008076044 0.00070527295 0.024548253
0.021046808 0.0010739238 0.0001634152 0.032279443 0.0003937634 0.018168764 0.007548491 0.0015385072
0.0043331617 0.00665116 -0.0006475358 0.023843357 -0.00100462 0.0010557092 -0.0012241928 0.0011378375
0.00081283133 -5.2309857e-05 0.00027061848 0.0015186492 -0.0018667286 0.0109972 0.0002158927 -0.0016629786
0.0012159781 0.0070216507 0.02446428 0.00025680196 0.0013342944 0.0031464626 0.0012753 0.006744662
-0.000673208 -0.0014030692 0.033908635 0.016678445 -0.001145799 -0.0026594237 0.00052189827 0.004936879
-0.0013013539 0.0017995457 0.027491836 0.0035903167 0.0046264343 -0.00150442 -0.0029384408 0.012859485
0.0044273543 0.00060953246 0.0027313367 0.004440353 0.015073677 0.004716158 0.0015639443 -0.00052997866
-0.0010912577 0.0024837074 0.030595416 0.0033081532 0.0024518266 0.0043890765 0.0017168253 0.0003957279
-0.0010001089 -0.0022443284 -0.000274987 -0.00037074857 -0.0011975176 0.006593214 -0.00054341863 -0.0013446371
0.0017369414 0.004691817 0.004141866 -0.0001610729 -0.0013350899 0.016359195 0.0036343804 -0.0012987843
0.0018670079 0.02809909 -0.00025312975 0.0015423344 0.0034366196 0.0017519121 -0.0012652713 0.0010101577
0.0048595956 0.00404032 0.025454795 -0.00035051655 0.027692955 0.02977748 0.0015195278 0.0011084754
0.0010119834 0.01624845 0.007899265 -0.00083400676 0.0041589937 -0.0009506378 0.0026812253 0.018902479
0.0021177907 0.004265775 0.00018524454 0.00016002773 0.0054505495 0.00069945084 0.002666715 0.00038322154
00000000: edc4 8b3c 0092 d8ba b066 723c 0273 383b
00000010: 97dd d33a 67c3 ce3a 0f36 96ba 5922 9a3b
00000020: efb9 3cbb 3edb 1c3b 731d 583c 6eeb c23a
00000030: 9e12 eb3b 1049 133b 87e1 afb8 f160 0dbb
00000040: 93a8 8c3b 9c66 d03a 7bef 27ba 5d84 d43a
00000050: 185a 313b 6286 2fbb 64c4 c1ba 5d70 603c
00000060: 8538 1cba b8cf 413b b5a6 6d3b 5793 a4ba
00000070: dd69 b1ba 5649 fc39 20b1 efb9 317f cd3a
00000080: 3b2d 853b 3770 f33c 9bdc d3ba 3430 6f3c
00000090: f7e6 8339 f248 973b 90b5 dd39 fa27 7c3c
000000a0: ae49 82b7 00bb 35b8 641a 063b 4174 abb9
000000b0: a826 5d3b ff2b 4f3c 51b8 803c a363 3f39
000000c0: cfca 9b3b 52cb a0ba cc25 803b 0af4 8339
000000d0: ff45 47bb ab7e 4d3b 54dd ca3c 6833 273b
000000e0: 5c31 ef3a 5e28 90ba 5094 9139 3410 0ebb
000000f0: e82c 963c 6a6d 513a ec7f d8ba 85d2 7c39
00000100: 7c64 903b 3dbe 4a3c 10e0 343c 8138 bbba
00000110: 12c8 d0ba 7067 c8b9 63ee 9cb9 8039 c13a
00000120: 484b 4e3a 9e9c 673b 9a3d 8b3b 4461 9c3b
00000130: 938a cb3a af98 583a 1d0d 963b aae8 bab9
00000140: 2bef e23b 7adc 143b e91d 24b9 b724 963b
00000150: f328 aaba cb0f 14ba a085 d1ba 2829 3e3a
00000160: 728e 8d3b ca7a de3c d0a2 6739 97aa 103a
00000170: cb67 b3ba 8e83 ad3b d5a0 9a3b 283b 043a
00000180: db6d c5b9 a60c d23c 1970 ab3a 2383 f23a
00000190: 1325 4eb9 5c0f b73c 2030 833b 055d bf38
000001a0: c847 5b3a 182e 053b 4ab4 333b f49c fc3a
000001b0: e710 083c 50e6 ec3b af4e ed39 9e7d b73b
000001c0: d6c2 283b a567 2a3b d9dd df3b 6932 483a
000001d0: 333f 66b9 fa82 133b 747f 9cba 5327 363a
000001e0: c00a b83a 4ef4 d537 6a68 aeb9 acf6 bf3b
000001f0: b857 893a ac99 393c b827 623b baff 903a
00000200: 9346 2a39 1132 8a3c 80eb ecb9 5f0f 353a
00000210: 869b b43b d216 6f3b cdf9 9b3b c9a6 9e3a
00000220: 6989 90ba 9c36 563a b075 1d3b a549 243b
00000230: a95c 9c3c 6251 043c 11e2 383a 6b19 c93c
00000240: 5b6a ac3c e7c2 8c3a 6f5a 2b39 7337 043d
00000250: 0772 ce39 a9d6 943c 5559 f73b bca7 c93a
00000260: 32fd 8d3b f9f1 d93b 64bf 29ba 2553 c33c
00000270: 74ad 83ba b95f 8a3a 1875 a0ba 7e23 953a
00000280: 3014 553a 4867 5bb8 cce1 8d39 690d c73a
00000290: 05ad f4ba 9a2d 343c 4161 6239 4df8 d9ba
000002a0: 7461 9f3a e015 e63b 5069 c83c 60a3 8639
000002b0: 7ee3 ae3a e234 4e3b f827 a73a 5302 dd3b
000002c0: 397a 30ba 31e7 b7ba c8e3 0a3d 3ca1 883c
000002d0: a22e 96ba ba49 2ebb 00d0 083a 8bc5 a13b
000002e0: 3192 aaba bcde eb3a 8f36 e13c 854b 6b3b
000002f0: 5899 973b f52f c5ba db92 40bb 97b0 523c
00000300: 5713 913b 08c9 1f3a 3a00 333b 6180 913b
00000310: 95f7 763c 008a 9a3b 43fd cc3a 44ee 0aba
00000320: 8808 8fba b2c5 223b 3da3 fa3c 9acd 583b
00000330: d3ae 203b 3ed2 8f3b 1907 e13a b379 cf39
00000340: 1616 83ba 9515 13bb 212c 90b9 0861 c2b9
00000350: 06f6 9cba e30b d83b 3574 0eba 893e b0ba
00000360: 15aa e33a d0bd 993b 7eb8 873b ade5 28b9
00000370: 2ffe aeba b803 863c c92e 6e3b f83b aaba
00000380: 64b6 f43a 1030 e63c 80b6 84b9 2828 ca3a
00000390: e938 613b 6aa0 e53a 76d7 a5ba 4567 843a
000003a0: 3e3d 9f3b a964 843b 9386 d03c 89c5 b7b9
000003b0: 56dc e23c e7ef f33c e42a c73a 434a 913a
000003c0: 87a4 843a 781b 853c eb6b 013c 3fa1 5aba
000003d0: 2b48 883b 3934 79ba 7fb7 2f3b 5fd9 9a3c
000003e0: a2ca 0a3b eac7 8b3b 343e 4239 1ecd 2739
000003f0: 869a b23b 5a5b 373a 0ec4 2e3b 20eb c839
