outputs/Optimal_Control/20220324-160140/models/checkpoint.pt (torch, 533487 bytes, 7 tensors)

linear1.weight f4 [256, 2]
000000 be 8a cc bd 0c fc 28 3f 6c ce a0 3e 69 7f d5 be
       -0.099874005 0.66009593 0.31407487 -0.4169877
000010 b6 d4 d6 be 86 fc ea 3e 31 fb de 3e b7 34 e4 3e
       -0.4195916 0.45895785 0.4355102 0.44571468
000020 50 f3 9c 3e 4a 1f f7 3e bc 39 31 be 8e b3 06 bf
       0.30654383 0.4826606 -0.1730718 -0.5261773
000030 11 de 02 3f 17 8a cb 3e 86 a5 69 be 40 f8 22 3e
       0.51120096 0.39753792 -0.22817048 0.15915012
000040 27 83 f5 3b d3 a0 88 be 41 78 8f be d6 d5 80 3e
       0.007492441 -0.266852 -0.28021434 0.25163144
000050 ba c2 c0 3e 2e 9e 38 3f 13 55 f2 3e 3f 99 00 bf
       0.37648565 0.72116363 0.4733053 -0.50233835
000060 4d 90 12 bf 58 b7 34 be 9b f1 aa 3e 94 df 97 3d
       -0.57251436 -0.17648065 0.33387455 0.07415691
000070 c6 c4 28 3f cf 2e 03 bf 6f 2e 14 bf 27 fe 0e 3f
       0.6592525 -0.512433 -0.5788335 0.55856556
000080 31 7f 0e 3f d8 16 e7 bd a1 53 bf be 65 4b b7 be
       0.5566283 -0.11283654 -0.3736849 -0.3579971
000090 25 86 9c bd 21 62 98 3e b2 b8 2b 3f 48 c2 9a 3e
       -0.076427735 0.29762366 0.670787 0.3022635
0000a0 69 8a 8a be 00 76 d4 3c d0 b6 06 bd 3c 12 c7 be
       -0.27058724 0.025935173 -0.032889187 -0.388811
0000b0 9a 31 6f 3e e4 f3 ee be 68 cd bd be d3 c0 31 bf
       0.23358765 -0.4667045 -0.37070775 -0.6943485
0000c0 23 a1 16 3f 80 02 0f 3e 9a 46 27 bf ac 05 35 be
       0.58839625 0.13965797 -0.65342104 -0.17677945
0000d0 94 ab 91 be 72 3b fb 3e 0f 07 f8 3d 58 33 18 3e
       -0.28451216 0.4906879 0.12110721 0.14863336
0000e0 86 97 d8 be 07 5b 0a bf 59 a8 7f bd 28 3a d1 3e
       -0.42303103 -0.54045147 -0.06241641 0.40864682
0000f0 61 57 09 3f 41 2c ca 3e 30 92 58 3e 98 f5 35 3f
       0.53648955 0.39486888 0.21149516 0.7107787
000100 52 4d 0d 3e d8 a0 d6 be 38 03 e4 3d 78 6c 9c 3e
       0.13799027 -0.4191959 0.111334264 0.30551505
000110 fd 21 2e 3f e7 dc 13 3f 1c 2d d9 be d0 c6 1e 3e
       0.6802061 0.57758945 -0.42417228 0.15505528
000120 83 e9 28 bf 20 28 bc bd 37 03 b5 be 5e 1f 9c 3e
       -0.6598131 -0.09187341 -0.35354015 0.3049268
000130 6c 1b eb 3e b4 2f bb 3e ff 60 88 3e 6f 0a f3 3e
       0.4591936 0.36559832 0.26636502 0.47468898
000140 f4 5f 22 be 14 cb bc be 6d c4 2d 3d e6 d1 4e 3e
       -0.15856916 -0.36873686 0.042423654 0.20197257
000150 96 40 28 bf 94 9d 78 be 17 72 ae 3e 23 d8 ff be
       -0.6572355 -0.24278861 0.3407142 -0.49969587
000160 a9 f2 a2 be e0 43 9f be 56 8a 73 be d8 13 fe 3d
       -0.3182576 -0.31106472 -0.2378324 0.12406129
000170 ad b1 8b 3d 46 16 8f be 6f 20 ba be 90 7f 83 be
       0.06820998 -0.2794668 -0.3635287 -0.2568326
000180 1c 9b 46 3d eb 5b 66 3e 85 a9 25 bf cf c8 ce be
       0.048487768 0.22496001 -0.6471179 -0.4038758
000190 a8 a0 bd 3e 96 46 06 bf 9b 42 76 3e 65 5d 93 be
       0.37036633 -0.52451456 0.24048845 -0.28782192
0001a0 4e bb 8a 3e fd a8 02 3d 60 48 db bd 97 62 84 be
       0.27096027 0.03189944 -0.10707164 -0.25856468
0001b0 9f 41 32 bf 6c 6e 15 bf 55 14 e2 3e 05 cd 87 bd
       -0.6963138 -0.58371615 0.44156137 -0.06630901
0001c0 4c a0 f9 be c0 d5 8e 3e 8f ad 81 3e 65 f9 9b 3e
       -0.4875511 0.27897453 0.25327727 0.3046371
0001d0 e7 e8 06 bf 00 75 00 3d b3 00 05 bf 84 b6 eb be
       -0.5269913 0.03136158 -0.5195419 -0.46037686
0001e0 e6 03 ee be e8 77 43 3e ae 2b 13 bf e0 cf c6 be
       -0.4648735 0.1908871 -0.57488525 -0.3883047
0001f0 82 85 db 3c e0 39 a4 bd 08 6d 05 bf e2 0e a9 3e
       0.02679706 -0.08018851 -0.52119493 0.33019167
000200 c2 41 29 bf 6e 63 b4 be f5 78 24 3e 08 8e 4c 3e
       -0.66115963 -0.3523211 0.16061766 0.19976056
000210 47 1b 5e 3e 4d e4 db bc b7 f0 19 3f 87 6b bd be
       0.21690093 -0.02684226 0.60132927 -0.369961
000220 e6 5a 19 3f 01 23 97 be 82 6a 0d 3f 0e df b6 3e
       0.59904325 -0.29518893 0.55240643 0.35717052
000230 b8 69 87 bd 9c c1 2b bf e8 29 b4 3e 8f ca 31 bf
       -0.06611961 -0.670923 0.35188222 -0.69449705
000240 13 93 c7 3e b3 60 11 be d5 cf 29 bf 16 41 6a be
       0.38979396 -0.14197044 -0.6633275 -0.22876391
000250 bb 71 dc 3d a4 0d 9a be 1b 86 2e 3e 74 29 1a 3f
       0.1076388 -0.30088532 0.17043345 0.602195
000260 45 44 0e bf 3f 7c 0f bf 52 fe d7 3e eb 16 0e be
       -0.5557292 -0.5604896 0.42186219 -0.1387593
000270 00 cd fa 3d ee df bb 3e 49 ba 25 3c 57 81 30 bf
       0.12246132 0.36694282 0.010115215 -0.68947357
000280 c4 63 de 3e 88 bd 0a 3f 88 3c af 3e 4e 85 ff be
       0.4343549 0.5419545 0.3422587 -0.4990639
000290 5b ed 87 be 0c 27 56 3e 38 58 9a 3e fc fe 2c bf
       -0.26548275 0.20913333 0.3014543 -0.67576575
0002a0 fa 70 02 bd f0 fd 1c 3f 98 1d 34 bf 80 56 b1 bd
       -0.031846024 0.6132498 -0.70357656 -0.08659077
0002b0 a2 38 e5 3e 0e 9b 71 be b9 40 33 3f 7e b8 79 be
       0.4476977 -0.23594305 0.70020634 -0.24386784
0002c0 d9 d5 e4 3e 75 21 a9 be 38 9a 02 bf 56 62 a9 3e
       0.44694403 -0.33033338 -0.5101657 0.33082837
0002d0 4b 94 c0 be 6a 81 0d 3f 85 58 19 3e d8 d5 d0 bc
       -0.3761314 0.55275595 0.14975174 -0.025492594
0002e0 2e c3 2b 3f 58 ef 14 3e f0 5a 26 bd c2 fa fc be
       0.67094696 0.14544427 -0.04061407 -0.49410063
0002f0 90 9d 0b bf 66 a4 75 be 4d 09 17 bf 94 c1 44 3e
       -0.54537296 -0.23988494 -0.58998567 0.19214469
000300 9f a7 08 bf da 27 76 be 9e 81 fa 3e 8c e9 1d 3f
       -0.5338077 -0.2403864 0.48927015 0.6168449
000310 9c 30 25 bf 2e be 12 bf ce 24 b0 bd 91 bf 36 3f
       -0.645273 -0.5732144 -0.0860077 0.7138606
000320 d6 bd 39 3e 79 66 21 3f d4 44 1f 3f 28 9d 02 be
       0.18138823 0.63046986 0.622144 -0.12755263
000330 79 6b 52 be 6b e7 18 3f 19 1a d6 be 0a 01 ab 3e
       -0.2054881 0.59728116 -0.41816786 0.3339923
000340 92 03 e3 be 0e 90 f0 3e 0c c0 3e be 9b 64 b1 be
       -0.4433866 0.46984905 -0.18627948 -0.34647068
000350 7a eb 9d 3e a9 99 89 3c bf 63 ca be 18 17 85 bd
       0.30843717 0.016796904 -0.39529225 -0.064985454
000360 e6 95 fa be 73 81 04 3f f8 13 1f bf 00 6c 7a bc
       -0.48942488 0.51760024 -0.62139845 -0.015284538
000370 f9 b5 5b 3d 62 14 2c 3f f7 5e 80 be 13 e7 1d bf
       0.05364034 0.672186 -0.25072452 -0.61680716
000380 bd 6c 2b 3f 62 31 2e 3f 7e 53 d0 3d 38 df e9 be
       0.66962796 0.680441 0.10172175 -0.45678115
000390 6e b6 0c 3f 93 48 1b 3c 80 fe 75 3e 3a 4c 9d 3e
       0.54965866 0.009477752 0.24022865 0.3072222
0003a0 f0 5b 89 be 43 7c e7 3e b9 a5 27 bf 33 e9 1d bf
       -0.26827955 0.45211992 -0.6548725 -0.6168396
0003b0 22 7b 13 3f 97 65 aa be 08 26 f1 3d 21 75 01 be
       0.5760976 -0.33280632 0.11774832 -0.12642337
0003c0 c4 69 d7 be 90 45 f4 3d a7 26 ab be a5 12 37 3f
       -0.4207288 0.119273305 -0.33427927 0.71512824
0003d0 8a 59 12 3f 1e 01 db 3e bb 24 6d 3d de ad e3 3e
       0.57167876 0.4277429 0.057896357 0.44468588
0003e0 57 5d ba 3e 70 a9 b0 3e 63 a6 de be 6e b7 9c 3e
       0.36399338 0.3450427 -0.43486318 0.30608696
0003f0 59 97 f3 be 2c 78 2e be e2 35 32 bf e4 5f 26 be
       -0.47576407 -0.1703803 -0.6961347 -0.16247517

linear1.bias f4 [256]
000000 66 53 0e bf 0c 8a 96 3e e2 b2 e7 3d fb f5 0d 3f
       -0.55596006 0.29402196 0.11313416 0.5545346
000010 93 e6 9c 3e e5 33 24 3f ff 9d 8e 3e 5f 6e fd be
       0.30644664 0.64141685 0.27854916 -0.4949827
000020 47 a1 06 bf a5 1e 29 3f 79 a7 93 be 7a ce b1 3d
       -0.5258984 0.66062385 -0.2883871 0.086819604
000030 2b 80 11 bf 00 d4 99 be 74 27 ae 3e f0 77 9d be
       -0.56836194 -0.30044556 0.34014475 -0.30755568
000040 86 d1 1d 3f df d4 2c bf a1 89 11 bd 5c 84 cc be
       0.6164783 -0.67512316 -0.035531644 -0.39944732
000050 5a 7d 57 be fa c2 8f 3e b1 77 93 3e 10 5c 40 bd
       -0.21043912 0.28078443 0.28802255 -0.046962798
000060 83 05 a7 bb b0 1a 21 bf 12 7f 77 bc 4f ab 3b bd
       -0.0050970926 -0.62931347 -0.0151059795 -0.04581767
000070 33 e5 05 3f 8b 5f 28 bf 93 c8 88 be 4c 28 02 bf
       0.52302855 -0.65770787 -0.26715526 -0.5084274
000080 8e 02 9c 3e 83 eb f4 3e 6e 55 30 bf 58 f4 a5 bd
       0.304707 0.4783593 -0.68880355 -0.081032455
000090 d8 d6 19 bf 84 c2 2d be de 0f f0 3e 58 ec 54 be
       -0.6009345 -0.16968733 0.46887106 -0.20793283
0000a0 4b d3 2b 3f 39 8f 2e bf fd 85 27 3f 05 ad 49 be
       0.6711928 -0.6818729 0.65438825 -0.19694908
0000b0 29 99 21 bf df 67 8a be 22 9a 19 3e 1e e4 1c bf
       -0.6312433 -0.27032372 0.15000203 -0.6128558
0000c0 e4 9a b4 be 35 38 fc be 91 d2 e4 3d 54 5a b9 3d
       -0.35274422 -0.49261633 0.11172975 0.09050432
0000d0 86 da 31 bf 3a c0 c1 be e2 ce d8 3e a1 bd c6 3e
       -0.69474065 -0.3784197 0.4234534 0.3881655
0000e0 88 14 1c be b8 f1 0c 3e 8c 11 55 3e e0 2d 20 bf
       -0.15242207 0.13764083 0.20807475 -0.6257
0000f0 a8 67 98 be 33 64 0b 3f 90 c5 a7 3e 30 2f 62 3e
       -0.29766583 0.54449767 0.32767916 0.22088313
000100 b8 ba dc 3d cb 95 d5 be 6b 39 eb be ec 18 ad be
       0.10777801 -0.41715845 -0.45942244 -0.33808076
000110 bd eb cd 3d 07 de 2d 3e 97 12 32 3f 79 ca d2 be
       0.10054729 0.16979228 0.69559616 -0.411701
000120 93 d0 90 3e 48 13 d7 3d 1f 5c a4 3e 71 14 a4 3e
       0.2828413 0.105017245 0.32101533 0.32046846
000130 8f 3e a2 be 66 20 34 3e d2 15 f1 3e e8 13 3c be
       -0.31688353 0.17590484 0.4708696 -0.18366969
000140 e9 83 e8 be d1 b2 65 be 90 c8 32 bf a5 e8 1d bf
       -0.4541314 -0.22431494 -0.69837284 -0.6168311
000150 72 60 8d be e8 9a 7f 3e 9d fa a9 be 5f f9 09 3f
       -0.27612644 0.24961436 -0.33199015 0.53896135
000160 f4 b8 11 3e 88 5b d4 3d 12 3e 24 bd 00 dc 54 be
       0.1423071 0.10369021 -0.040098257 -0.20787048
000170 3c d5 1b 3f 8e f2 58 be 28 51 4b be b8 a6 4c 3e
       0.60872245 -0.21186277 -0.19855177 0.19985473
000180 30 28 8f 3d 0f 88 17 3f 9d c4 8e be 67 24 a9 be
       0.06990087 0.59191984 -0.2788438 -0.33035585
000190 a1 6c 0c bf f9 03 bd be e6 32 d2 3e 8b 6c 0a 3f
       -0.54853255 -0.36917093 0.41054457 0.54071873
0001a0 34 d7 0c be 10 0b 75 bd 10 43 61 3e 38 aa 77 3e
       -0.13753968 -0.059825003 0.21998239 0.24186027
0001b0 38 ad 62 3e 9c 2c 27 bf dd 6c 97 3e c0 ad 49 3d
       0.2213639 -0.65302444 0.29575244 0.049237967
0001c0 f9 36 8d 3e 1c 61 1a bf 65 34 23 3f 07 18 e4 be
       0.27581003 -0.6030443 0.6375182 -0.4454958
0001d0 c7 57 b2 3e 00 7e ef 3d c4 24 19 3f 67 bc 04 3f
       0.34832594 0.116939545 0.59821725 0.5184998
0001e0 38 a8 35 3e cf c4 03 3e c6 07 00 3f 1b 15 21 bf
       0.17739952 0.12868045 0.5001186 -0.6292283
0001f0 93 0d d7 be 40 18 39 bc c9 70 86 be 10 14 19 bd
       -0.42002544 -0.011297286 -0.26257923 -0.03737265
000200 6d 3a ba be 7d fd 26 3f d3 33 25 3f 41 a0 e9 3e
       -0.363727 0.6523054 0.645322 0.45630077
000210 c6 6a ee 3c ea 39 fa 3e 32 14 db be 02 c1 df bd
       0.029103648 0.4887231 -0.42788845 -0.10925485
000220 0b 8d 99 3e d3 bc 68 3c cf 3e 27 3f 5a ec c8 bd
       0.2999042 0.014205175 0.65330213 -0.098107055
000230 36 c3 6f be 00 4c bc bd 83 ca 9d be bf 4a 2a bf
       -0.23414311 -0.09194183 -0.30818567 -0.66520303
000240 b8 6c 2c 3f 51 57 03 3f 02 35 b6 3e 0e 62 c8 be
       0.6735339 0.5130511 0.35587317 -0.3913731
000250 5a 24 93 be bb 54 fc 3e 95 6c d5 be eb 76 29 3f
       -0.28738672 0.49283394 -0.41684404 0.6619708
000260 80 e1 73 3e 68 09 82 3d eb 2d 20 3f 8a 09 30 bd
       0.2381649 0.0634945 0.62570065 -0.042977847
000270 6c 0b 9e be a5 88 1a bf 4d ee a7 be 94 37 39 3e
       -0.3086809 -0.60364753 -0.32798997 0.18087608
000280 a2 93 13 3c 70 da 02 3e f8 e9 c8 bd 2e 3d c1 3e
       0.009007366 0.1277864 -0.09810251 0.3774199
000290 9b 8e 1f bf ad a7 bc 3e 30 19 9d bd 14 a9 b6 3e
       -0.62326974 0.36846676 -0.0767082 0.3567587
0002a0 82 05 cb 3e 5d 6e 1b be e0 ad 08 3f 9d e2 d5 be
       0.3965264 -0.15178819 0.5339031 -0.41774455
0002b0 c0 29 45 be a4 ae 57 be 88 a2 19 be 90 bb 39 3d
       -0.19254208 -0.21062714 -0.15003407 0.04534489
0002c0 88 a2 19 bf 89 4f 03 bf a9 03 d7 bd e7 37 34 3f
       -0.6001363 -0.51293236 -0.10498745 0.703978
0002d0 3e 33 ad be f9 dc 66 3e bb af 12 bf 9f 28 ca bc
       -0.33828157 0.22545232 -0.57299393 -0.024677573
0002e0 e6 ef 2f 3f 4b 50 71 3e 2a df 32 3e 04 d5 58 3e
       0.6872543 0.23565786 0.17467943 0.21175009
0002f0 c8 92 da 3d 6c 04 16 bf fa 3c 0d bf 9a a1 dd 3e
       0.106725276 -0.586005 -0.5517117 0.43287355
000300 3a 9e 21 3e 8c 0d 80 be 8c 9a 78 be 08 ce 1f bf
       0.15783015 -0.25010335 -0.24277705 -0.62423754
000310 52 5c d9 be ce 17 a9 be e5 eb c9 3e c8 32 20 be
       -0.42453247 -0.33025974 0.39437786 -0.15644372
000320 f9 a3 df be f0 ec 4a 3d 5f 5b 1e bf c0 fd 06 bf
       -0.4367979 0.049542367 -0.6185817 -0.5273094
000330 ae 51 d3 3e 07 36 73 be b8 1b a9 bd 81 1b 3a bc
       0.41273254 -0.23751079 -0.0825724 -0.0113590965
000340 61 a0 96 be 31 65 9a be 66 b3 76 be 86 c7 15 3f
       -0.29419234 -0.30155328 -0.24091873 0.58507574
000350 fe 46 a9 bd 53 2c e8 be 98 1b d7 be f9 31 96 3c
       -0.08265494 -0.45346317 -0.4201324 0.018334376
000360 51 1f b4 3e 2c 7c 14 bf fd 62 07 3f b4 70 5d be
       0.35180143 -0.5800197 0.5288542 -0.21625024
000370 5b a8 ac be 3f b1 2d 3f e5 d9 30 3f d7 9b 17 bf
       -0.33722195 0.6784858 0.6908248 -0.5922217
000380 a1 a0 e4 3e bf 6b cc bd f2 5d 59 be 05 fb 2c bf
       0.446538 -0.099814884 -0.21227244 -0.67570525
000390 35 4d 0a bf 61 f4 21 3f 9c ca aa be 0f a8 07 3e
       -0.5402406 0.6326352 -0.33357704 0.13247703
0003a0 bc be 10 3e e5 9b 31 bf 6c e4 ef be 47 d9 28 3e
       0.1413526 -0.693785 -0.4685396 0.16489135
0003b0 36 12 f7 be 1f 5f 15 bd 6b 3b a1 3e 2a c7 93 bd
       -0.4825608 -0.036467668 0.31490645 -0.07215722
0003c0 36 47 a1 3e 8d c0 19 3f 83 c0 1f bf b3 ea f3 be
       0.31499642 0.60059434 -0.62403125 -0.4764
0003d0 f7 f1 99 3e b5 c6 7a bd ee a1 20 3f 6a 64 9b 3e
       0.30067417 -0.061224658 0.62747085 0.30350047
0003e0 5c c3 a4 be ad ed 07 3f c5 6e d3 3e 08 f5 b2 be
       -0.32180297 0.5309704 0.41295448 -0.3495257
0003f0 bf 54 36 3f d7 d7 30 3f ca c0 a3 3e 00 1e 25 be
       0.7122306 0.69079345 0.31983024 -0.16124725

linear2.weight f4 [256, 256]
000000 48 50 f1 bc 44 f2 cc 3c 78 2b 29 bd d0 75 49 bc
       -0.029457226 0.025017865 -0.04130122 -0.012296155
000010 10 ee 69 3c a0 dc 35 3d 70 0c a9 3c c0 15 ae 3c
       0.01427795 0.044399858 0.020635813 0.021250606
000020 ee 60 51 bd 00 98 5f bd 54 e1 00 3d c0 25 aa 3c
       -0.05111783 -0.054588318 0.03146489 0.020769954
000030 c0 d8 bc 3c e0 ae 94 3b ce 1c 12 bd 00 f4 83 3b
       0.023052573 0.0045374483 -0.035672 0.00402689
000040 48 71 d8 bc e2 bb 09 bd e0 71 b1 bc 68 39 bd bc
       -0.026421204 -0.033626445 -0.021660745 -0.023098662
000050 50 8d e1 bc 9a 38 62 3d 7c 51 e4 bc 4e 10 4c bd
       -0.027533203 0.05522976 -0.027870886 -0.049820237
000060 50 5d ac bb ee 7e 25 3d 2c 15 a4 bc 68 cc 1f 3d
       -0.005260147 0.040404253 -0.020029627 0.039013296
000070 8c 41 e3 bc 84 47 77 3d 68 df 53 bc 5a 0f 31 bd
       -0.027741216 0.060370937 -0.012931682 -0.04322753
000080 44 c3 cd bc 04 74 59 bd 80 e3 10 bc 28 8b 56 bd
       -0.025117524 -0.053089157 -0.008843303 -0.052378803
000090 98 e5 03 3c 48 53 ba 3c 04 0f ef 3c 24 3c d1 bc
       0.008050345 0.02274479 0.029181965 -0.025541373
0000a0 e0 27 7d bc 90 6d 22 bd 84 0e 9e 3c d8 6f fa 3c
       -0.0154514015 -0.03965527 0.019294031 0.03057091
0000b0 70 da b0 3c 58 e2 54 bd 9c 75 e0 3c 24 c8 3c bd
       0.021588534 -0.05197367 0.02739983 -0.046089306
0000c0 b4 0e 52 bd 80 9c 97 3a 18 07 3a 3d b0 91 f5 bc
       -0.051283553 0.0011567026 0.04541692 -0.029976696
0000d0 48 31 7f 3d da 91 74 3d a4 14 48 3d 94 1c f8 bc
       0.062302858 0.059709407 0.04884781 -0.030287065
0000e0 6c a6 10 bd d0 e4 0e 3d 10 fe a6 3c 88 08 36 bc
       -0.035314962 0.03488618 0.020384818 -0.011110432
0000f0 04 a9 b7 3c 74 3f b9 bc 4c 77 3e 3d ea 47 1e 3d
       0.02241946 -0.022613265 0.04650049 0.0386428
000100 6c 64 a6 3c 60 b3 47 3d 8c 76 b3 3c 14 52 1a bd
       0.020311557 0.04875505 0.021907113 -0.037675932
000110 94 b3 6e 3d e6 c4 31 bd fc e1 75 bd 90 58 e3 bc
       0.058276728 -0.043400668 -0.06002997 -0.02775219
000120 60 4b eb bc 00 79 43 3d ea c7 38 3d a0 08 ef bc
       -0.028722465 0.047722816 0.045112528 -0.029178917
000130 08 ce 95 3c 90 a5 92 3c 9c 1d ed bc d6 a2 3f 3d
       0.01828672 0.017901212 -0.028944783 0.04678615
000140 e8 5c 63 bd 4c 4f 2d 3d 1c f3 ec bc 20 ec a2 3c
       -0.055508524 0.04231195 -0.028924517 0.019887984
000150 80 22 50 3b b8 49 d1 3c 88 8d 26 bc 28 29 36 3c
       0.0031758845 0.025547847 -0.01016558 0.011118211
000160 c0 5b 1e 3b 40 31 01 3d 7c e6 94 bc cc 74 93 3c
       0.0024163574 0.03154111 -0.01817631 0.018000029
000170 80 d5 ac bb 60 f6 ca 3c 50 db c3 3c b0 63 50 3d
       -0.0052744746 0.024775684 0.023908287 0.05087632
000180 24 ae 59 bd b4 36 6c bd da 5c 42 bd ec 1d 17 3d
       -0.05314459 -0.057669356 -0.04745183 0.03689377
000190 40 3b 50 bb 54 62 8a 3c fe f7 0f 3d ca 96 1b bd
       -0.0031773597 0.01689259 0.035148613 -0.0379856
0001a0 84 e9 4f bd de 71 40 3d 00 3a b7 3a 00 99 f4 b9
       -0.050759807 0.046983592 0.0013979077 -0.000466533
0001b0 70 6e 84 bb b0 b1 57 3d 98 e0 7c 3c 9a 2e 2f bd
       -0.0040414855 0.05265969 0.015434407 -0.042769052
0001c0 ac 9a 47 bd 52 ae 67 3d 66 7c 62 bd 54 20 0d bd
       -0.04873149 0.05656273 -0.055294417 -0.03445466
0001d0 6c d5 23 bd 18 22 3d 3d 4c 09 37 bd 5c 18 43 3d
       -0.039998457 0.046175092 -0.0446866 0.047630653
0001e0 c4 53 16 3d 86 fb 57 3d 80 57 cc bc dc 50 54 3d
       0.03670098 0.052730106 -0.024944067 0.051834926
0001f0 d0 32 f5 bb 24 ef 45 3d 28 d5 79 3c 4c ad 70 3d
       -0.007482864 0.048323765 0.015248574 0.05875902
000200 18 0c a0 3c 0c 87 f2 3c 92 5a 58 bd 04 c6 1f bd
       0.019537017 0.029605411 -0.05282075 -0.0390072
000210 44 a9 72 bd fe d2 09 bd ca 16 61 bd ec 7d 11 3d
       -0.059243456 -0.033648483 -0.054953374 0.03552048
000220 18 9b 12 bd a0 44 8c bc 7e e0 61 3d 7a 7b 7a 3d
       -0.03579244 -0.017122567 0.055145733 0.061152913
000230 0c 76 24 3d a8 7d 8f bc 1c dd e4 3c 30 ee 15 3d
       0.04015164 -0.017515972 0.027937464 0.036604106
000240 da 21 48 3d 28 b5 16 bc 74 e1 e2 bc 78 56 ad 3c
       0.04886041 -0.009198464 -0.027695395 0.021159396
000250 f0 c2 c7 3c 3c b4 90 3c bc b7 f4 bc 4c b7 6f 3d
       0.024384946 0.017664067 -0.029872768 0.058524415
000260 f2 0c 52 3d 5a 05 0a 3d aa c9 53 3d d8 5d 63 3c
       0.051281877 0.03369651 0.051705994 0.013877355
000270 5c cc 7b 3d 5c 2f 3f bd 00 5f 9b 39 14 00 0c 3d
       0.06147419 -0.046676025 0.00029634684 0.034179762
000280 40 66 dc 3a da fa 1c 3d a0 e7 c8 bc 0c 35 93 bc
       0.0016815141 0.03832517 -0.02452451 -0.01796963
000290 20 bc 6f 3b 00 0b dd 3b 92 db 68 3d 2c 89 ae bc
       0.0036580637 0.006745696 0.056850024 -0.021305643
0002a0 d6 c9 09 bd 68 28 6b 3c 70 42 d0 3c bc af 07 3d
       -0.03363975 0.014352895 0.025422305 0.033126578
0002b0 d8 0d c4 bc c4 b0 af bc 14 e0 e7 bc d8 f0 06 bd
       -0.023932382 -0.021446593 -0.028305091 -0.03294453
0002c0 60 9d 2f bc 20 23 d2 3c e8 80 5e 3d 08 3f 88 3c
       -0.0107186735 0.025651515 0.054322153 0.016631618
0002d0 00 94 3d 3c 40 b6 55 bc 84 8b b5 3c c4 7d 8e bc
       0.0115709305 -0.01304394 0.022161253 -0.017393954
0002e0 28 8c 87 3c 00 f4 dd b9 ae 31 1f bd 00 53 7a bd
       0.016546324 -0.000423342 -0.038865738 -0.06111431
0002f0 d6 31 60 3d 22 cd 5d 3d 58 57 80 3c c0 0d c2 3a
       0.054735027 0.054150708 0.015666649 0.0014805123
000300 7a 45 52 bd b0 4f bc 3b 10 75 d1 3b c8 e9 3c 3c
       -0.05133579 0.005746804 0.0063921288 0.011530347
000310 d8 78 31 3d 48 02 76 3d a0 5d 26 3c 5e 91 1e bd
       0.043328136 0.06006077 0.010154158 -0.03871285
000320 b4 33 f8 bc 18 18 9f 3c 6c 47 1c bd b2 89 1c 3d
       -0.030298091 0.019420668 -0.03815405 0.038217254
000330 e0 a2 da bc c0 e9 4c bc 74 61 08 3d 64 66 7d 3d
       -0.026688993 -0.012506902 0.033296064 0.061865225
000340 60 eb 16 bc 56 1b 47 3d 40 97 6e bd 9a 25 1b 3d
       -0.009211391 0.048610054 -0.058249712 0.037877657
000350 4c a5 a3 3c 14 1d 44 bd 9c 50 6a bd 86 cd 24 3d
       0.01997628 -0.047879294 -0.05720578 0.040235065
000360 00 20 d8 3a 24 1f 0a bd 64 e4 f0 3c ac d9 d2 bc
       0.0016489029 -0.033721104 0.02940578 -0.02573856
000370 d4 3c 2c bd 70 1e 20 3c 10 fa 08 3d 00 97 60 3a
       -0.042050198 0.009772882 0.033441603 0.00085674226
000380 42 03 6f bd 20 b8 44 3b 00 80 29 38 e4 78 39 3d
       -0.058352716 0.0030016974 4.041195e-05 0.045281306
000390 ea e7 35 3d 24 04 7a bd 80 2e b7 bb 40 25 59 3d
       0.044410624 -0.061039105 -0.00559026 0.05301404
0003a0 90 5b 62 3c 50 14 3f bc 40 36 08 3b 98 b4 0f 3c
       0.0138157755 -0.011662558 0.0020784289 0.008771084
0003b0 ce 5c 04 bd 90 97 08 bd b0 41 f2 3c 52 bd 5f 3d
       -0.032315068 -0.033347666 0.029572338 0.05462391
0003c0 00 79 70 3d 28 7b 75 bd e8 d9 11 bd 5c 24 cb bc
       0.058709145 -0.059931904 -0.035608202 -0.024797611
0003d0 9a 23 16 bd 60 b7 a0 bb 5c 15 ed bc 40 22 a1 3c
       -0.036655046 -0.0049046725 -0.028940849 0.019669652
0003e0 d0 bf 7d bc 80 ad d8 bc c8 e7 67 bd 30 94 fe 3c
       -0.015487626 -0.026449919 -0.05661753 0.03107652
0003f0 18 16 fb bc 80 e3 4d 3a 76 35 6f 3d c8 94 3d 3d
       -0.030650184 0.00078540295 0.058400594 0.046284467

linear2.bias f4 [256]
000000 78 6a 50 bd c2 b4 5a 3d da ca a1 3c b1 77 36 3d
       -0.050882787 0.05339504 0.019750047 0.04454774
000010 f0 3f 74 3c d6 06 7b 3d 65 5b 51 bd 8a 32 98 bc
       0.014907822 0.061285816 -0.05111255 -0.018578786
000020 84 40 74 bc 68 d2 65 3c 56 e9 29 bd 93 e3 1b 3d
       -0.01490796 0.014027216 -0.041482292 0.03805883
000030 67 ad 88 3c 71 fa 31 3d 38 55 ed bc 4c c9 e4 3c
       0.016684247 0.04345173 -0.0289713 0.027928017
000040 1f fd f5 3b 00 9c b9 bb 14 41 3f bd cf a2 32 bd
       0.007506981 -0.0056643486 -0.046692923 -0.043612298
000050 88 ae a5 bc 93 23 2a 3d b1 97 1c 3c bf 6d da bb
       -0.020224825 0.041537832 0.00955765 -0.006665915
000060 3a fd 39 bd d5 af 19 3d 9c 15 e7 3c 28 86 12 bd
       -0.04540751 0.037521202 0.028208546 -0.035772473
000070 f8 4e 6d 3d 9a ab d9 bc 2b f8 0e bd 20 ce 18 bd
       0.05793664 -0.026571084 -0.03490464 -0.03730595
000080 1c e7 47 3d 9a 6f 39 3d e0 ae c2 bb 7e 18 05 3b
       0.048804387 0.045272447 -0.005941257 0.0020308788
000090 a8 d1 38 bd 0a f1 99 3c 80 31 eb 3a df 5b 92 ba
       -0.04512182 0.018791694 0.0017943829 -0.0011166296
0000a0 e3 26 15 bd a8 09 60 bc de 3e 77 3d 4a 64 b5 3c
       -0.03641404 -0.013674177 0.06036269 0.022142548
0000b0 dc d1 cc 3c e7 72 65 bd 87 d7 21 bd 06 7d 41 bd
       0.025002412 -0.056017783 -0.039512184 -0.047238372
0000c0 c7 8f 57 bd 46 b1 94 3c fa ea 60 3c 10 65 58 bd
       -0.05262735 0.018150937 0.013727898 -0.052830756
0000d0 d9 99 2a bd 94 2a d0 bc 20 f4 11 bc 2b 34 51 3d
       -0.041650627 -0.025410928 -0.008908302 0.051075142
0000e0 f4 12 38 3d c3 a0 b1 3c c2 cd 72 3d 40 44 5a bd
       0.04493995 0.021683102 0.059278257 -0.053287745
0000f0 37 b2 e2 3c 22 44 31 bc ae 25 1a bd 39 2a ed bc
       0.02767287 -0.010819467 -0.03763359 -0.028950797
000100 01 3e 4d bd 1d ab 1d 3d 0c b9 6a 3d f9 1b 59 3d
       -0.05010796 0.038493264 0.05730538 0.053005192
000110 fd e3 c6 3b 35 dc a3 3c f1 82 59 3b d2 09 5f bd
       0.006069659 0.020002464 0.003318962 -0.054452725
000120 55 22 17 3d a3 63 7d 3d f6 5a 2c 3d 14 a0 29 bd
       0.036897976 0.0618626 0.042078935 -0.041412428
000130 d2 a5 7d 3d ea 24 5b bd 41 76 61 bd 60 f6 04 3b
       0.061925717 -0.053502 -0.055044416 0.0020288453
000140 f2 30 25 3a 81 f3 5d bd 20 87 40 3d 90 30 93 bc
       0.0006301544 -0.0541873 0.047003865 -0.017967492
000150 26 58 45 3d 9a db c0 3c 60 a3 bc bb 38 3f f9 3c
       0.048179768 0.023542214 -0.0057567805 0.030425653
000160 16 27 12 bd 82 50 6f bd e4 3a ab bc fe 4a 4f 3d
       -0.035681807 -0.058426388 -0.020902105 0.050608627
000170 3c be cf bc 56 2b 0b bc 09 eb 3c bd b4 7c 9b 3c
       -0.025359266 -0.008494219 -0.046122584 0.018980362
000180 3e cb f8 3c d0 62 52 3c 00 e7 8a bc 87 cc d1 bc
       0.03037035 0.012840942 -0.016955853 -0.025610222
000190 80 44 59 bc a8 5e b4 bc 33 35 66 3d 98 71 13 bd
       -0.013260961 -0.022017792 0.05620308 -0.035997003
0001a0 00 aa e1 3c cc 56 31 bd 6f 65 52 3c 28 17 ad 3b
       0.027546883 -0.043295667 0.0128415665 0.0052823015
0001b0 cc 14 af bc e8 68 01 3d 39 e8 17 bd cd e1 3f bd
       -0.021372221 0.031594187 -0.0370867 -0.0468462
0001c0 fb 4f b5 3b a4 da e9 bc 81 53 2c 3d d6 6a 2e ba
       0.005533216 -0.028546639 0.042071823 -0.0006653493
0001d0 a8 4d 2f bd 91 c0 17 bd 1c 40 c6 bc a0 bf a6 3c
       -0.04279867 -0.03704888 -0.024200492 0.020355046
0001e0 20 f1 48 3b 29 8e 30 bd ae 4f 76 bd f0 ba e6 3b
       0.00306613 -0.043104324 -0.060134582 0.0070413277
0001f0 80 5d 42 3a 64 3a 12 3d ee 75 73 bc fc 65 32 3b
       0.0007414445 0.035700217 -0.01485966 0.0027221432
000200 ce 47 19 3c 02 f1 4f bd 02 ff 93 bc f8 91 01 3d
       0.0093554985 -0.050766952 -0.018065933 0.031633347
000210 f0 5a 79 bd 6c 46 db 3c 96 bd 14 bd 49 55 fc 3c
       -0.06087774 0.026766978 -0.036313616 0.030802386
000220 a8 ad 41 bc 9c 5b ec 3b d8 e0 1a 3c 77 dc 41 3d
       -0.011821188 0.007213069 0.009453021 0.047329392
000230 20 c9 62 bd b2 b5 6a bd c9 6b 3d 3d 20 16 54 bb
       -0.05536759 -0.057302184 0.04624537 -0.003236182
000240 0b 4d 55 bc 48 fe 21 bc 47 40 d2 bc 98 84 73 3c
       -0.013018857 -0.0098872855 -0.025665415 0.014863156
000250 c1 26 08 bd 84 99 c4 bc a9 1f 5a bc e8 93 fc 3c
       -0.033240084 -0.023998983 -0.013313212 0.030832246
000260 bf e9 61 3d f6 be e9 3c f9 f7 04 3c f6 a6 6e 3d
       0.05515456 0.02853344 0.008115762 0.058264695
000270 c6 11 86 3d 4c e1 59 3d ea 96 e3 bc 47 cd 3f 3d
       0.06546359 0.053193375 -0.027781922 0.046826627
000280 a6 03 2a 3d f6 c2 24 3d fe c2 4b 3d 90 2f 8c 3d
       0.041507386 0.04022499 0.049746506 0.06845009
000290 84 ea 7c bd 74 99 07 bd 6f d5 22 bd 62 cb b1 3b
       -0.06174709 -0.03310533 -0.039754327 0.0054258564
0002a0 94 2c 32 3d ec 9c 12 3d 8d 41 cb 3b 3c ec cc 3c
       0.043499544 0.035794184 0.0062028826 0.02501499
0002b0 53 51 00 3b 76 2a 36 bd 4a 25 a8 bc be 53 51 3d
       0.0019579723 -0.044474088 -0.020525593 0.051105253
0002c0 c4 37 c3 bb 26 5c 1d 3d 81 63 a7 37 ed 0b 5f 3d
       -0.0059575755 0.038417958 1.9954286e-05 0.054454733
0002d0 e1 9b 31 3d 28 fe fe bc a2 01 2d bd c4 ba f0 3c
       0.04336155 -0.03112705 -0.042237885 0.029385932
0002e0 b8 3b fc bc d1 bf a9 3c 44 50 ab bc ae 5e 13 3d
       -0.030790195 0.020721348 -0.020912297 0.035978965
0002f0 7a 68 13 3d cd 4e 02 bc 6a 42 15 3d 8f 18 44 3d
       0.03598831 -0.007953358 0.03644029 0.047874983
000300 ba cd 2b 3d d4 b2 96 bc b0 17 34 3d 71 44 ee 3c
       0.041944243 -0.018395819 0.043967903 0.02908537
000310 7a 1b a5 bc ef 0f 0e 3d 1a 1b 47 3d 96 90 7d bc
       -0.020154703 0.034683164 0.04860983 -0.0154763665
000320 fd 0e 19 3d 04 fa bb bc b7 e0 e6 bb 00 59 b2 b9
       0.03736781 -0.022946365 -0.007045831 -0.00034017116
000330 a0 2e 19 3d 34 0e 6f bd 9b 8f 47 bc 2a 14 1c 3d
       0.03739798 -0.058363155 -0.012180234 0.038105167
000340 a3 25 87 bc 58 b0 23 3d a1 9e d9 bb ee 86 74 bc
       -0.016497439 0.039963096 -0.0066412245 -0.014924748
000350 1a 0e 51 3d 26 01 40 bd ce 23 2a bd 92 18 51 bd
       0.05103884 -0.046876095 -0.041538052 -0.051048823
000360 1a e0 1b 3d c6 41 3f bd 88 1e 1f 3c 40 76 0d bc
       0.038055517 -0.046693586 0.009711869 -0.00863415
000370 10 74 4a 3d f3 c4 2e bd 7c ed 2a 3d c3 b3 4a bd
       0.049427092 -0.042668294 0.04173039 -0.04948784
000380 04 3b 37 bd 00 f3 01 3b a6 cf 1d bd 30 ea 30 3d
       -0.044734016 0.0019828677 -0.038528107 0.04319209
000390 62 a3 4c 3d 90 c2 63 bd c7 49 66 3d 62 59 4d 3d
       0.0499605 -0.05560547 0.056222703 0.05013407
0003a0 97 a7 25 bc a8 48 7a bc 9c 98 85 3c 1a fc 1e bd
       -0.010110757 -0.015276112 0.016308121 -0.03881464
0003b0 b1 f7 0a 3d 82 69 89 bc b1 65 4b bd 6e 9a ae ba
       0.033927623 -0.016773943 -0.049657527 -0.001332117
0003c0 d0 f8 ab bc 2e c8 11 bd c2 76 63 bd 40 42 22 3c
       -0.020992666 -0.035591297 -0.05553318 0.009903491
0003d0 ee b6 0b bd ee aa 2e 3d 40 b1 f9 bb b8 0e 31 3d
       -0.034110002 0.04264348 -0.007620007 0.043226928
0003e0 48 05 b4 3c b2 a9 08 3d 3f 79 6e 3c f7 4d c2 bb
       0.021975175 0.03336496 0.0145552745 -0.0059297043
0003f0 49 bf 57 bd 0c 40 c5 3c 08 04 0d 3d a4 40 ee 3c
       -0.052672658 0.024078391 0.034427673 0.029083557

linear4.weight f4 [256, 256]
000000 ba 7a 49 3d 80 9c 94 3b 8e a9 fa bc 1f 7f 2f 3c
       0.049189307 0.004535258 -0.030598428 0.01071146
000010 80 5d 10 bc f2 18 3b bd a2 97 53 3d 9d 4b 92 3c
       -0.008811355 -0.045678087 0.05165828 0.01785832
000020 d6 52 26 3d 40 e1 1c bd 20 8f 9c 3c 99 2d 4d bd
       0.040606342 -0.038300753 0.019111216 -0.050092313
000030 5a 40 b7 bc 4d a6 9f 3c 70 4b bb bb 46 8c 7d 3d
       -0.022369552 0.019488478 -0.00571578 0.061901353
000040 ee 3d 5a 3d 84 65 a8 bc 2a 43 5f bd cb 1a 16 3d
       0.053281717 -0.020556219 -0.054507412 0.036646646
000050 d4 dd f4 3c 3b 58 f8 bb 43 5e 1b 3d cf 5a 9c 3b
       0.029890932 -0.0075788773 0.03793169 0.0047715674
000060 44 85 00 3d 7b 17 cc 3b dc d6 07 bd 5c 9c 14 bd
       0.031377092 0.006228385 -0.03316389 -0.03628193
000070 04 73 8d 3a 2b b1 8a 3d 98 b5 b6 3b fc 73 1e bd
       0.0010791724 0.06772073 0.005575847 -0.03868483
000080 45 fa 77 3d a0 96 71 3d e6 6b 50 bd 05 36 d9 3c
       0.06054141 0.058981538 -0.05088415 0.026515016
000090 d8 60 79 3c 59 85 3c 3d 30 7a 90 bc 58 57 5d 3c
       0.015220843 0.046025608 -0.017636389 0.013509594
0000a0 9d 7f 8e bb e2 34 28 3d 78 40 82 bc 19 ba 5c 3c
       -0.004348709 0.041066058 -0.015899882 0.0134721035
0000b0 d0 5f 25 3d 9b 12 62 3d 94 0d 80 3c 78 20 38 bd
       0.040374577 0.055193525 0.015631475 -0.04495284
0000c0 0c 45 21 bd ec 39 6c bd 1c 32 63 3b b4 4f f5 bc
       -0.03937249 -0.057672426 0.0034667319 -0.029945232
0000d0 bc 34 39 3d 6a f9 5b 3d a8 4f 8b bc 15 2e b7 3c
       0.045216307 0.053704657 -0.017005756 0.02236084
0000e0 ae 6c 67 3d 2f bf 33 3d 06 38 3d 3d 68 29 15 bc
       0.05650013 0.0438835 0.046196006 -0.00910411
0000f0 e1 ee 75 bc 51 ca 4f bd 16 83 45 bd 55 84 fe 3c
       -0.015010566 -0.050730053 -0.048220716 0.03106896
000100 8c 0b 6a bd 97 a4 02 3b 86 32 24 bd f4 12 5a bc
       -0.05713992 0.001993453 -0.040087245 -0.013310183
000110 c4 3b 1b 3d 0e 73 3e 3d ca cd e3 bc d0 14 1a 3c
       0.037898794 0.046496443 -0.027808089 0.009404376
000120 a4 b1 57 bd 16 66 95 3d 38 be 67 bd a4 43 b9 3c
       -0.052659646 0.07294862 -0.05657789 0.022615261
000130 cd 3a 3e bd d8 a0 0e 3d 30 02 d2 3c 12 08 2a bd
       -0.046442796 0.03482136 0.025635809 -0.041511603
000140 44 f5 66 3c 53 f7 94 3c 00 62 fe b9 b0 31 ee bb
       0.014096562 0.01818434 -0.0004851967 -0.007269107
000150 00 04 a3 3a b4 48 5b bd c6 c3 49 3d f8 64 52 bc
       0.0012437105 -0.053536132 0.04925897 -0.012841456
000160 1b 7c 82 bc 30 e6 e9 bc 1c 0c cd 3c 28 89 9e 3c
       -0.015928319 -0.028552145 0.025030188 0.01935251
000170 38 89 cc 3c ad 88 eb 3c a3 0f f7 bc 31 2c 14 3d
       0.024967775 0.028751696 -0.030158823 0.036174957
000180 f3 7f 57 3b e3 0d 83 3d 0f 53 4a bd 9d 3b 20 bd
       0.003288266 0.06399133 -0.049395617 -0.03911935
000190 fa f7 29 3d 40 fa db 3a d8 f3 3f bd 44 96 94 bc
       0.041496255 0.0016782954 -0.046863407 -0.018138058
0001a0 ac fe 54 bd 6c 9d 52 bd fa b1 dc 3c 6f 76 86 3d
       -0.052000687 -0.05141966 0.026940335 0.06565558
0001b0 24 cf 3e bd f4 0a d0 bc 2d 19 33 3d a4 c8 a7 bb
       -0.046584263 -0.025395848 0.04372518 -0.005120354
0001c0 e0 15 c2 bc b4 9d 07 bd 81 aa 5d bd c3 93 57 3d
       -0.023692071 -0.03310938 -0.054117683 0.05263115
0001d0 73 98 39 bc 44 86 4e 3c d0 3d 48 bc 6a 41 0b 3d
       -0.011327851 0.012605254 -0.0122217685 0.03399793
0001e0 5c b6 76 3d 2b 4f e3 bc 44 8f 54 3d 20 1c 00 3d
       0.060232505 -0.027747711 0.05189444 0.031276822
0001f0 9c 51 3b bd d9 67 83 3a 4d 0b 8a bb ee 39 5b 3d
       -0.045732126 0.0010025456 -0.004212773 0.053522043
000200 02 5a 4e bd 90 70 6e 3c 78 aa 7e 3d c3 90 01 3d
       -0.050378807 0.014553204 0.06217429 0.031632196
000210 57 3b 32 3d a0 56 b0 3c 45 3b 91 bb b5 95 18 bd
       0.043513622 0.021525681 -0.0044321143 -0.037252147
000220 4c f7 f4 bc 42 a4 61 3d 3c 16 59 bd 90 ed 2a bd
       -0.029903077 0.05508829 -0.05299972 -0.041730464
000230 84 8e f4 bc 00 65 13 bb d3 11 78 b9 20 4f 05 bc
       -0.029853113 -0.002249062 -0.00023657763 -0.008136541
000240 34 64 d1 b9 58 93 11 bd a5 3e 3d 3d a1 7a 57 bd
       -0.00039938244 -0.03554091 0.04620232 -0.052607182
000250 b4 69 b4 bc 7e b7 e6 bc b7 d0 1c 3d 7f 19 59 bd
       -0.02202306 -0.028163668 0.038284983 -0.05300283
000260 97 a9 dd 3c 14 26 72 3d 83 a1 6f bc 5d 15 78 bc
       0.027058406 0.059118345 -0.01462591 -0.015141812
000270 fe 6e 84 3d 8e 73 cd 3b 32 16 65 3d 1e d4 a7 bb
       0.064664826 0.0062698787 0.05592937 -0.005121722
000280 3e c6 41 bd f8 ef 09 bd 6a 00 0d 3d d4 76 40 bd
       -0.0473082 -0.033676118 0.034424223 -0.046988323
000290 0c 12 84 3c 28 f4 6f 3c 4f 95 3b 3d f7 46 48 3a
       0.016121887 0.014645614 0.04579669 0.0007639969
0002a0 71 70 18 bd 21 ad d0 bb a4 4d 94 39 05 c7 63 bb
       -0.037216607 -0.006368295 0.00028286607 -0.0034756076
0002b0 b6 9f 09 ba 0c c4 19 bd 21 4a b0 3c 75 6c 83 3d
       -0.0005249934 -0.03754048 0.021519722 0.06417171
0002c0 2e 5b cf 3a 28 c5 03 bd 8b 6f 2f bd fd 4c e9 bb
       0.001582002 -0.032170445 -0.042830985 -0.0071197734
0002d0 b4 25 62 bd d0 eb 1c 3c 07 0d 59 3d ff cb 2c bc
       -0.055211738 0.009577706 0.05299094 -0.010546683
0002e0 60 43 1b bc 14 0f 83 3d 4e a1 7f bd 08 d1 55 3d
       -0.009476513 0.0639936 -0.06240969 0.0522013
0002f0 ce 5c 7d bd 38 c4 5e bc cf f0 83 3d 10 7d 41 39
       -0.061856084 -0.013596587 0.06442415 0.00018452504
000300 c4 1a 99 bc ee b2 22 bd ac af 66 bd e1 68 30 3b
       -0.01868952 -0.039721422 -0.056319878 0.0026917981
000310 70 af fa 3b 07 46 33 bc b2 9d 25 bd 5f f7 8a 3c
       0.0076503083 -0.010941989 -0.040433593 0.016963659
000320 02 af d1 3c 88 15 32 3c 25 2f 01 3d 24 e0 84 3c
       0.025596146 0.010869391 0.0315391 0.01622016
000330 ae 64 04 3d e5 a7 d9 3c 09 d7 70 bd 44 21 3b 3d
       0.032322578 0.026569316 -0.058798824 0.04568602
000340 63 60 9a bc 66 57 ee 3a 49 61 5e 3d e0 4d 1e 3d
       -0.018844789 0.0018184006 0.054291997 0.038648486
000350 1c bf 1f 3d f4 b0 9f bc 91 1f 19 3d b0 79 8e bc
       0.039000615 -0.019493558 0.03738362 -0.01739201
000360 0e 1b 31 bd 28 c9 27 3d aa 9b 12 bd 50 ca 18 3c
       -0.043238692 0.040963322 -0.035792984 0.009325579
000370 70 98 5e 3d bf 78 82 3d d8 33 ca 3c 29 dc d0 3a
       0.054344594 0.06370687 0.024682924 0.0015934753
000380 93 b2 c1 bb f8 35 34 bc 28 b5 a2 bc 26 4d 01 bd
       -0.0059111803 -0.010999195 -0.019861773 -0.031567715
000390 80 7a 87 ba 4c 52 44 bd e4 35 78 3c 4f c5 22 bc
       -0.001033619 -0.047930047 0.015149567 -0.009934737
0003a0 f8 76 59 3d 98 c8 7c 3c 68 96 c3 3c 00 8a 5d 3a
       0.053091973 0.015428685 0.02387543 0.00084510446
0003b0 4c 66 09 3b fc 8b 4a 3d 6a 82 34 bd 96 68 46 3d
       0.0020965515 0.049449906 -0.044069685 0.048439585
0003c0 32 fd 47 3d 58 a1 c8 bc 53 55 13 3d 23 dd c6 3c
       0.04882545 -0.024490997 0.035970043 0.024275368
0003d0 3c 65 01 3d b7 a0 43 3d 6c 3d f6 3c 4a 80 7a 3d
       0.031590685 0.04776069 0.030058585 0.061157502
0003e0 64 4c b8 bc f7 cf 4b bd 95 11 f2 3c cc ad 8c 3c
       -0.022497363 -0.049758878 0.0295494 0.017172717
0003f0 42 99 9a 3c 72 93 63 bd da 31 67 3d 72 76 60 3d
       0.018871907 -0.055560537 0.056444027 0.05480046

linear4.bias f4 [256]
000000 fa 87 6a bd a8 ca 2a 3c ac 7c 85 3d 37 09 0f 3d
       -0.057258584 0.010424294 0.0651792 0.034920897
000010 9c a5 9c bc be 23 0b bd c8 37 d5 bc 07 56 53 bd
       -0.019121937 -0.033969633 -0.026027575 -0.051595714
000020 d0 40 2b 3c 02 6a 05 bd 36 17 14 bd aa 2d 28 3c
       0.010452464 -0.0325718 -0.03615495 0.010264793
000030 78 3f de bb 10 21 d4 bc 3a 9c 3a bd cb 27 30 3d
       -0.0067824684 -0.025894672 -0.045559146 0.0430067
000040 99 a8 7f bd d8 a4 3c 3c 30 06 cc bc 06 1c 84 bc
       -0.062416647 0.011513911 -0.024905294 -0.016126644
000050 4c 16 b7 3c bf 9c f5 3c 50 af 8c bc 8c 26 02 3d
       0.0223495 0.029981969 -0.01717344 0.031775042
000060 50 aa cd 3b ca dc 6e 3b 34 fe 5c 3d e8 39 3e bd
       0.0062764063 0.0036447519 0.053953364 -0.046441942
000070 68 7c 15 bd 42 35 16 3d ac 10 a5 3c 58 11 a0 bc
       -0.036495596 0.036671884 0.020149551 -0.01953952
000080 d6 44 04 bd 48 e2 e0 ba 36 88 f0 bb d1 f1 e3 3a
       -0.03229221 -0.0017157281 -0.0073404564 0.0017390792
000090 95 10 33 bd 91 d2 4e bd ef 86 45 bd 27 84 19 bb
       -0.043716986 -0.05049378 -0.048224386 -0.0023424716
0000a0 6d 74 9c 3c 4b ac 8a bc 98 0b 67 3c b8 bf 1c bd
       0.019098485 -0.016927859 0.014101885 -0.038268775
0000b0 39 22 ef 3c 91 1c 4a bd 1d 90 b7 3c 38 c7 cb 3c
       0.029191123 -0.04934365 0.022407586 0.024875268
0000c0 75 b7 07 3d b3 3a 28 3d c3 46 64 bd f5 54 87 3d
       0.033133943 0.041071605 -0.055731546 0.06608001
0000d0 35 37 c5 bc f4 42 36 3d 1c e1 a7 bc 5e 74 0e 3d
       -0.024074176 0.044497445 -0.020493083 0.034778945
0000e0 01 39 74 bd fe db 31 3d d1 02 12 bd 33 cc 44 bd
       -0.059624676 0.04342269 -0.035647217 -0.048046302
0000f0 54 7f e2 3c 1a 22 36 3d 24 dd 26 bd 6e a7 25 3d
       0.027648605 0.044466116 -0.04073824 0.040442877
000100 d6 8b 1f bc 9a e5 9e bc 7b 83 12 3d 06 a2 5a 3d
       -0.009737929 -0.019396592 0.03576992 0.053377174
000110 a0 f2 f1 bc c1 d7 4a bc 40 e3 88 ba 40 a8 f5 bc
       -0.029534638 -0.012380541 -0.0010443702 -0.029987454
000120 db d5 c0 bc 8b a5 c4 bc 82 d7 31 3d 3e 6d 8f bc
       -0.023539474 -0.024004718 0.043418415 -0.017508145
000130 c4 7d c7 bc 0e 9e ea 3c b7 00 90 3c d1 9a 7d 3c
       -0.024351962 0.02863982 0.017578466 0.015478806
000140 0f ae ec bb c4 7f aa 3c 88 9d 96 bc c0 0b a5 3b
       -0.007222898 0.020812877 -0.018385664 0.005036801
000150 4a 69 0f 3d cf d9 17 3c dd 95 5c 3d c0 75 fe 3b
       0.03501252 0.009268238 0.05385386 0.0077655017
000160 02 18 34 bd d0 2f 52 bd e2 69 2a bb 20 90 83 3b
       -0.043968208 -0.05131513 -0.0026003052 0.004014984
000170 64 fa 81 3d 61 d0 4b 3d 96 10 52 3d b1 90 8c 3c
       0.06346586 0.049759272 0.05128535 0.017158838
000180 0c 43 00 3d 7c 18 4d 3d 40 07 51 3d 18 ab ec bc
       0.03131394 0.05007218 0.051032305 -0.028890178
000190 3e 20 7f bd 48 20 b1 3a 30 da 1f bc 4e 2c 0a 3d
       -0.062286608 0.0013513649 -0.00975661 0.03373366
0001a0 fe d9 80 3c 0f 18 35 3d a3 40 20 3c 70 ed d1 3b
       0.015728947 0.044212397 0.009781036 0.0064064786
0001b0 97 c8 2f bd af ea cf bc ee c1 96 bc 40 63 e0 bb
       -0.042915907 -0.02538046 -0.01840302 -0.006847769
0001c0 f1 89 9e bc f9 a3 9f 3b 4e 78 1f 3d 3a d0 6b 3d
       -0.019352885 0.004871842 0.03893309 0.057571627
0001d0 dc dc 19 3d 5a 4f 6e bb f8 cb 85 3c 26 4c 6c bd
       0.037564144 -0.0036363215 0.016332611 -0.05768981
0001e0 16 20 65 3c 7f dd 0d 3d c6 98 33 bd 33 ab 29 3d
       0.013984701 0.034635063 -0.043846868 0.041423034
0001f0 8d d6 02 3d 68 24 e4 bc 8d 5d 69 3d 10 49 e4 bc
       0.031942893 -0.027849391 0.056973983 -0.02786687
000200 18 9c ba bc 12 f5 58 bd bf c2 4a 3d 23 be 20 3d
       -0.02277951 -0.052968092 0.04950213 0.03924383
000210 b4 1a ed 3c 8f bd f3 3c 95 a5 ae bb dc a4 5e 3d
       0.028943397 0.029753475 -0.0053297975 0.05435644
000220 e7 3e 90 bc 4c f1 56 bc 30 dc 7a 3d 3c 77 a0 bc
       -0.01760812 -0.013119053 0.061245143 -0.019588105
000230 7c bd bd bc 9d 78 ca 3b b0 fe 54 bd a4 b2 80 3d
       -0.023161642 0.006178929 -0.0520007 0.06284073
000240 b4 99 db 3a 83 be 19 bc 6a 7c 4e bd a0 4c 8c bc
       0.0016754181 -0.0093838 -0.05041162 -0.017126381
000250 80 0a 6c 3b cc f5 62 3d f0 18 b4 bc f7 c8 5e 3d
       0.0036017 0.05541019 -0.021984547 0.054390874
000260 c1 90 0b bd 4b 6c 2a 3d df 1f d0 bc 79 aa 7b 3d
       -0.034073595 0.041607182 -0.025405822 0.061441872
000270 ac 8f 6e bd f8 2f 75 3c e8 a3 eb bc 4d 68 9d bc
       -0.058242485 0.01496505 -0.02876468 -0.019214774
000280 53 6c 18 3d 69 30 e5 3c d5 1c 75 bc 8d c3 66 39
       0.03721268 0.027977185 -0.014960487 0.00022007358
000290 b0 79 43 3b c1 45 fa bb e0 9d 22 bc d0 9a 71 bd
       0.002982717 -0.00763771 -0.009925336 -0.05898553
0002a0 80 75 e2 bb 38 8d 84 3d 74 32 08 bd 50 8a b6 bc
       -0.0069109797 0.06472248 -0.03325124 -0.02228275
0002b0 b8 39 1d bd b6 d3 20 3c e1 f9 24 3d 80 1b 7a bd
       -0.038385123 0.009816101 0.040277366 -0.061061382
0002c0 d8 ca 65 bc 80 de 89 bc 35 26 12 bc 15 56 60 3c
       -0.0140254125 -0.01682973 -0.008920242 0.013692399
0002d0 58 bb 34 3c a0 8d 65 3c 46 16 91 3c c9 c1 f9 bc
       0.011030994 0.014010817 0.017710816 -0.030487912
0002e0 35 c1 64 3c 79 06 2d bd 33 57 53 bd e9 34 6b bd
       0.01396208 -0.0422425 -0.05159683 -0.057423506
0002f0 88 c6 b7 3c f8 02 ee 3c b2 46 aa bc 02 51 99 3c
       0.022433534 0.02905415 -0.020785663 0.018715385
000300 91 51 c3 3c 54 9d da 3c b0 09 ed 3c 98 74 58 bb
       0.023842605 0.026686348 0.028935283 -0.003302848
000310 16 78 e6 bc 03 6d d6 bb c6 25 5c 3d 29 02 33 bd
       -0.028133433 -0.006543757 0.05374696 -0.043703232
000320 a4 5c 74 bb 2c cc d4 bb 6e 80 35 bc 64 91 8d 3c
       -0.0037286663 -0.0064940657 -0.011077983 0.017281242
000330 48 49 2a bd 28 05 cd bc 60 db 27 bc 70 31 be bc
       -0.041573793 -0.025026873 -0.010245174 -0.023216933
000340 a4 df 2f bd 05 e5 40 bc f2 c3 26 3d 14 9e 62 bd
       -0.04293789 -0.0117733525 0.04071421 -0.055326536
000350 d5 00 48 bd 0a b5 48 3d d3 cc 55 3d b0 c0 4f bd
       -0.04882892 0.049000777 0.05219729 -0.05072087
000360 4d f0 e0 3c 02 b2 6a 3d a4 88 95 bc 74 d5 d9 3c
       0.027458334 0.057298668 -0.018253632 0.02659104
000370 fc c0 b3 bc a3 cd 56 3c 75 33 09 bd 68 d0 06 bc
       -0.021942608 0.013110551 -0.03349634 -0.008228399
000380 67 f1 39 bd 5d 96 0b 3d 1d f6 13 bd ce f3 76 3d
       -0.045396235 0.034078944 -0.036123384 0.060291104
000390 78 b5 38 bc 1f 98 0f bd de 24 04 3d 20 5d 76 bd
       -0.011273734 -0.035057183 0.03226172 -0.060147405
0003a0 30 3d fa 3c eb 43 dd bc df 4e 21 bc 79 5c d6 3c
       0.030546755 -0.027009925 -0.0098454645 0.026167141
0003b0 5f f6 39 bd 59 1f 15 3d 56 5a 7d 3d bc fe 2c 3d
       -0.045400973 0.03640685 0.06185373 0.04223512
0003c0 4b bc 5e 3d 57 5a 0f bc 4c fd fa bc e2 39 9b bc
       0.05437879 -0.008749566 -0.03063836 -0.0189485
0003d0 f8 eb d7 3c e8 45 10 3d 86 f4 a2 3c 08 0c 53 bd
       0.026357636 0.035222918 0.019891988 -0.051525146
0003e0 2a 1f 67 3d d9 bd a4 3b 90 c9 c7 3c e0 3d 8e bb
       0.056426205 0.0050275144 0.024388105 -0.004340872
0003f0 c8 4e a9 bc 01 9d 22 bd cb 88 52 3d 9e df 54 bd
       -0.020667449 -0.03970051 0.051399987 -0.05197107

linear3.weight f4 [1, 256]
000000 ef bc 2a 3b 6e 34 3c 3b 5d 10 a1 3c 24 ac b4 3a
       0.0026052555 0.0028717774 0.019661123 0.0013784212
000010 2a 2b 9f ba b6 cc 94 3c 84 22 45 ba cd 76 01 bb
       -0.0012143601 0.01816402 -0.0007520097 -0.0019754649
000020 b4 05 3b 3b 48 47 1b 3b 10 ac df 39 7a a0 cc 3c
       0.0028537335 0.002369361 0.0004266207 0.024978865
000030 33 2b a2 ba 3c 3f 3f bb f8 11 12 ba 3e 6b 09 3c
       -0.0012372494 -0.0029181978 -0.00055721356 0.008387385
000040 54 1e 60 ba 20 f0 bf 38 94 17 47 ba 5f d1 13 3b
       -0.0008549441 9.1523165e-05 -0.0007594761 0.0022555215
000050 d8 16 43 bb 47 62 4a 38 ae ca 3f 3b 8e 34 00 bb
       -0.0029768255 4.825208e-05 0.0029265094 -0.0019562575
000060 e8 e5 5d 3a 5a 5a e1 3a 36 f9 1d 3b 5f bd 45 3b
       0.00084647397 0.0017193065 0.002410484 0.0030172688
000070 07 2e 03 3b 28 cd af 3a c7 fc 0a 3b 5e c1 57 ba
       0.0020016448 0.0013412582 0.0021207796 -0.0008230413
000080 13 aa f0 ba 1e 5d aa 3b c9 c1 9c ba f6 a8 ce ba
       -0.0018361233 0.0051990887 -0.0011959608 -0.0015766907
000090 a5 3e 99 3c 37 bc 53 b9 74 68 ea 3b 90 b1 82 3c
       0.018706629 -0.00020192644 0.007153565 0.015953809
0000a0 eb 71 f8 3b e0 dd 0c 3c aa 34 27 3b b0 40 99 3a
       0.0075819395 0.008597821 0.0025513568 0.0011692252
0000b0 26 18 f6 3b 1a 7f cd 3c b4 67 bf 3c 35 3b 95 3b
       0.007510203 0.02508502 0.02336488 0.004554177
0000c0 ea 3b f1 ba b0 79 83 b9 d1 d0 7d ba 60 a3 78 3c
       -0.0018404697 -0.0002507693 -0.00096823 0.01517567
0000d0 11 2f 49 3b e2 e4 ac 3b 01 e3 12 3c 8b 4b d6 3b
       0.003069822 0.0052763084 0.008965255 0.006539767
0000e0 36 b8 27 3a 4d bd 9f ba c8 79 f0 3b 27 ea 71 3b
       0.0006397994 -0.0012187153 0.007338736 0.0036913247
0000f0 bf 52 0d 3a eb 62 5a ba 90 3b cf 3c d8 f2 77 ba
       0.0005391053 -0.000833078 0.025296956 -0.0009458489
000100 77 98 47 39 71 e4 77 38 75 1b bb b9 6c 0d 70 3c
       0.00019034916 5.910214e-05 -0.00035687877 0.0146516375
000110 10 a8 a7 b9 db 48 db 3b ec b3 d1 ba 47 cd 9e ba
       -0.00031977938 0.0066920347 -0.0015999055 -0.0012115621
000120 eb 02 89 3b 56 d8 1a bb 6e fa 51 3a 5f e1 a8 3b
       0.004181256 -0.0023627481 0.0008010034 0.0051538195
000130 44 32 53 3a a0 c9 3d b9 df d9 71 3c 98 f4 7b 3c
       0.00080565014 -0.00018099556 0.014761417 0.01537814
000140 dd 76 15 3b bc cc 19 bb 64 96 83 3a 68 84 aa 3b
       0.0022806444 -0.0023467978 0.0010039327 0.0052037723
000150 fc 0a f7 3a 0f 82 ff 3b 61 88 e9 b9 96 68 b9 3b
       0.0018847878 0.0077974866 -0.00044542833 0.0056582196
000160 d8 4f fe 3a b5 41 c5 b9 40 56 a3 3b 77 17 0f bb
       0.0019402457 -0.00037623724 0.004984647 -0.0021834054
000170 22 f5 94 3c 39 6e ba 3c 07 2a de 3b af b2 0f 3c
       0.018183295 0.022757636 0.0067799124 0.008770629
000180 ec f1 24 3b f5 7d 49 3b 1e b0 0b 3b 56 39 b0 3c
       0.002516861 0.0030745242 0.002131469 0.021511715
000190 f0 de 64 ba 86 4d f5 b9 da a6 35 3b 15 8e 1d 3b
       -0.000873073 -0.000467878 0.002771786 0.0024040986
0001a0 91 8a 85 3b 70 f6 1a ba 28 79 57 ba 80 f2 98 38
       0.0040753563 -0.0005911356 -0.0008219653 7.293094e-05
0001b0 d0 33 fb ba 75 31 b2 39 dc 7d a3 3b 6b 26 43 bb
       -0.0019165222 0.00033987654 0.004989369 -0.0029777538
0001c0 40 7b 9c 3c ee f1 85 3b a7 00 b2 3b 38 c7 c9 ba
       0.019101739 0.004087678 0.0054322067 -0.0015394455
0001d0 29 5d 16 3c 83 df d5 3c be 39 5c 38 dc 01 d6 ba
       0.009177485 0.026107555 5.2505864e-05 -0.0016327458
0001e0 46 89 de 3a 4d 29 fc ba d1 df 9f ba 0e 53 1e 3c
       0.0016978167 -0.0019238383 -0.001219744 0.0096633565
0001f0 39 5a e9 3b c8 df 43 ba 39 53 88 b9 73 08 8d 3c
       0.007121351 -0.00074720057 -0.00026001947 0.017215943
000200 90 95 98 3a ce 4e 2c 3b c0 18 2a 3c 94 d6 c5 3b
       0.0011641253 0.0026292088 0.010381877 0.0060375426
000210 40 36 d2 3a 0d cf eb 3b 4f 85 e0 3b 00 1e a2 b9
       0.0016037896 0.0071963132 0.006851829 -0.000309214
000220 5b 8e 84 3a 3f 10 a7 ba c1 0e 6e 3c 2a f3 18 3b
       0.0010113226 -0.001274593 0.014529885 0.0023338296
000230 da c0 05 3b 81 07 8c 3b a4 1b e0 ba 21 8d b6 3b
       0.0020409138 0.0042733555 -0.0017098081 0.005571023
000240 37 34 b9 3b 95 18 95 39 b8 67 80 ba d2 8a 2e bb
       0.0056519764 0.0002843781 -0.0009796536 -0.0026633036
000250 f2 51 3b bb aa 9d 2c 3b 9c 27 e5 ba 56 b5 5a 3b
       -0.0028582779 0.0026339092 -0.0017483118 0.0033372245
000260 41 22 eb 3b e5 58 c8 3b f3 5d c7 3b c2 0a 06 bb
       0.0071757142 0.0061141127 0.0060841977 -0.002045319
000270 63 5a c9 39 6e 9b 07 3c ca 55 af 3b 93 93 3d 3b
       0.0003840505 0.008276803 0.005350803 0.0028927072
000280 fa bd ab 3b 29 d8 82 3c b3 8f c8 3c 31 28 8a 3b
       0.005241153 0.015972214 0.024482584 0.004216217
000290 86 13 93 3c e1 7d 66 3c e4 e3 b9 3a e0 04 f7 3a
       0.017953645 0.014068098 0.0014182297 0.0018846057
0002a0 08 e1 49 ba 69 0a c6 3b d3 06 b5 3b 00 6a 89 b6
       -0.0007701074 0.0060437215 0.005524495 -4.095258e-06
0002b0 0f e7 27 bb 86 e3 c6 3b 72 96 96 3b 50 68 0c bb
       -0.00256199 0.0060696034 0.004595571 -0.002142448
0002c0 7a e0 d4 ba 64 8a c8 3a 19 60 1c 3b 2f 04 4c 3c
       -0.0016241216 0.0015300033 0.002386099 0.012452169
0002d0 80 60 68 38 9f 34 cf ba 74 54 eb 3a d0 8f 55 3a
       5.5402983e-05 -0.0015808529 0.0017954246 0.0008146735
0002e0 b5 b5 8e ba 21 0c 10 3c a3 63 a0 ba 52 9c 15 3b
       -0.0010887893 0.008791954 -0.0012236725 0.002282877
0002f0 66 78 c3 ba 20 a6 b1 b9 ec 0f 40 3b ab 86 bf 3b
       -0.0014913201 -0.00033883844 0.0029306365 0.005844911
000300 53 6f be 3a 8b 3f 95 ba a0 a5 0f 3b c4 88 9c 3c
       0.0014529027 -0.0011386735 0.0021918789 0.019108184
000310 2b d0 af 3a b9 66 e1 3b 8e c3 23 3b fc 7e cc 3b
       0.0013413479 0.0068787006 0.0024988386 0.0062407237
000320 69 83 b1 ba a6 17 82 3c fb 89 90 b9 98 1f 70 3b
       -0.0013543192 0.015880417 -0.00027568624 0.0036639925
000330 a1 81 4a 3b d6 2d 0b ba e8 a5 d1 39 37 1e e1 ba
       0.0030900019 -0.0005309259 0.00039987196 -0.0017175142
000340 62 f3 33 bb c0 d5 e9 3b 87 d2 c7 3b 82 65 93 ba
       -0.00274583 0.0071360767 0.006098095 -0.0011245462
000350 a6 41 c4 3b a8 4b 4a ba 32 1d 82 3a 82 36 03 3b
       0.005989271 -0.0007716962 0.0009926914 0.0020021503
000360 c3 98 8b 3b 78 58 9f 3c 25 bb 83 3b 3c e0 08 3b
       0.004260154 0.019451365 0.004020112 0.0020885607
000370 af 82 97 3b 10 37 ae 3b a6 ec 82 3b 50 d0 15 3b
       0.004623733 0.0053166226 0.003995496 0.002285976
000380 bd 6c 93 3b 41 93 87 3c 6f c3 40 3b 1e f7 e6 ba
       0.0044990466 0.016549708 0.0029413362 -0.0017621254
000390 0c 7e 99 3a d7 f2 b2 3c 50 0e 86 b9 96 11 10 bb
       0.0011710539 0.02184431 -0.00025569135 -0.0021983138
0003a0 70 7d dd b9 47 4f 92 b9 6f bc 17 ba c2 09 8c 3b
       -0.00042245863 -0.00027906356 -0.00057882717 0.004273624
0003b0 c2 b7 b8 3c 9e af 3f 3b c2 17 a4 3b 87 2a 5e ba
       0.02254856 0.0029248963 0.005007715 -0.0008474965
0003c0 be 43 88 ba a8 5b d1 3b c8 80 64 ba e4 49 a4 3b
       -0.0010396165 0.0063891 -0.00087166997 0.0050136913
0003d0 9e 6a 2f bb 1c 1d 96 3c f2 78 9d 3b f0 06 11 3a
       -0.002676643 0.018324427 0.0048056776 0.0005532345
0003e0 ad a4 15 bb d1 d6 c7 3b 98 54 74 b9 6a 62 09 3b
       -0.002283375 0.006098606 -0.00023301167 0.00209632
0003f0 e9 09 e8 3b 94 d3 e5 ba 62 ee 31 3c 94 38 0c 3c
       0.0070812595 -0.0017534369 0.010860058 0.008558411
