outputs/Optimal_Control/20220331-135407/models/checkpoint.pt (torch, 533487 bytes, 7 tensors)

linear1.weight f4 [256, 2]
00000000: ce7a da3e e06b 4dbf 7811 1ebe 45df dbbe
00000010: 4985 b13e bedd e43d 225f 843d 4e10 053e
00000020: b1fa 9cbe 874a 20bf 24d4 d43e 1491 ae3e
00000030: a861 f6bd 1228 c2be 1f91 31bf 98d8 b03d
00000040: 2e37 913e a650 24bf fde6 8d3e cbd9 8a3e
00000050: 5fae 99be 20b6 f9bc dd52 8d3d def5 423d
00000060: ddfd db3d b46e ddbe 56ed 003f 08a9 bf3e
00000070: be6e 2e3d 02fb e5bf ebec 3fbe 8377 3e3f
00000080: ce78 16bf 8a81 8a3e ed45 a13e f535 bb3e
00000090: f0db 6fbe f023 f7be 8b84 09bf ad0c c1be
000000a0: edc0 183f 3f52 93be 80de a73e 58b2 30bf
000000b0: 1820 0cbe 506e 75bd f8c5 aa3e 14d3 f63e
000000c0: e95f 903e 23e9 10bf fcf8 21be ad02 c5be
000000d0: bfc2 e33e 4280 84be 5d7b 373e 01f7 d03e
000000e0: f9eb 9d3d d749 1d3b 5e52 023e bd64 8ebf
000000f0: ffb0 c3bd 48f6 0f3f dc34 dcbe 3176 b4be
00000100: 0dda a23b 8b36 f53e 4d91 23bf 3048 27bf
00000110: 3926 12bf 6a69 c23e 20e8 b13e 66e3 9d3d
00000120: 7a3a 9e3e 6ae2 2cbf 5fc4 8cbe 4e29 2c3f
00000130: 1285 a6be d314 ecbe a96c 81be 1949 3e3f
00000140: a14d 043f 586c 07bf 74cf fe3d a923 fbbe
00000150: 0d54 613e 87c0 74be 34b6 11bf 461c c6be
00000160: 0a2d fb3d 7fa8 8b3e f8c1 343e e122 2d3d
00000170: b4cc 553e f8c6 ea3e bac4 793e 446f 05bf
00000180: fb13 acbd 4f93 9b3e 2ce3 f63e c668 043d
00000190: 3753 483e cdb6 e7be 0000 8739 6f61 14bf
000001a0: 0c45 9fbe de92 973e b895 133d b65b 033e
000001b0: 88db d53e 75ff b83e d071 f3bd 7dbe 0cbf
000001c0: b993 ec3e 87b2 8dbc 4d95 e3be e08e 8a3d
000001d0: 07b8 18bf ea26 ebbe 93ca 8c3d d880 d4bd
000001e0: 6a12 083f ce81 20bf 952f 983e 60c0 03bf
000001f0: 8fe7 1ebf 9860 4c3e 8f9c 5b3b fcc5 0e3e
00000200: 584b 003f c840 9f3e c079 2c3e bc3e 833e
00000210: dd02 a4be 70c9 813d 15d8 10bf 683e 42be
00000220: 1f18 3d3e 0cbc debe 3e36 9e3e 5d71 29bf
00000230: 0d37 d3be a271 24bf e8ab 11be a0c1 91bc
00000240: 7530 9d3d 2c13 d43e 3e1a e03e 5765 10bf
00000250: 4799 063f 139e aebe 01f3 a8be 081b ac3d
00000260: 3f63 07bf 64db 833e 12b8 aebe d8ba eb3d
00000270: 4fa9 a43e 3f89 1dbf c84c 793e 5efe a0be
00000280: 3051 313e f472 2ebf ace1 023f 6d03 93be
00000290: 95c3 9e3e 594f a23d 09a0 14bf 61b3 24bf
000002a0: 0f87 aabe 4023 42bd f338 fb3e 0318 47bf
000002b0: 2c11 4c3e e887 3dbf d99d 023e f402 323e
000002c0: b778 1abf 24cd c1be ae9e d43d dd1a e5bd
000002d0: cbbf c23e b8c0 0a3f 7130 24bf 9282 dfbe
000002e0: f07a c73e 0b08 46bf 6032 93bd e39b 93be
000002f0: 9498 96be 405d e73d b1e1 b4be db48 2ebf
00000300: f443 f63d 3670 99be 6c5e 513e af57 ebbd
00000310: 689d 2bbf e8bf 20be 1053 d3bd 0504 30bf
00000320: f840 05bf 00a8 f13a d8d4 b4be 08fc f1be
00000330: 5815 d5be a798 dcbe 867a bb3e a022 c23e
00000340: 22b4 07bf 7d6e 32bf 98df b0be 40d7 453e
00000350: 249f fe3e 2544 5ebd ef7a 383e 69d5 0bbf
00000360: 7e6b 88bd c1ea 5c3e 75f5 04bf 47d7 98be
00000370: 85eb 43be 2e3c d13e 2ce0 25bf eb6d d7be
00000380: ef59 d63e c9d5 d83e 5da3 4ebe 1eaa 063f
00000390: c690 febd 8673 4d3f 5232 5ebe dbfa 013f
000003a0: 9603 443b 6754 af3e 82f0 cfb9 0cf6 0e3f
000003b0: 3255 083a 155e 0a3f 80d2 f3bb f00b d3bd
000003c0: 13ef f23e 9fbd 4f3e f105 9c3e b7a1 7f3e
000003d0: 9865 7f3e abac dcbd be45 9cbe 6b50 3a3f
000003e0: 20b5 09bf 5813 783e d17a 2cbf 90fa 30be
000003f0: 470d 03bf c0e1 ee3c 6bf6 b33d bf2e 6b3e
0.42671818 -0.8024273 -0.15436351 -0.4294378 0.34672 0.111751065 0.06463458 0.12994501
-0.30660012 -0.6261372 0.415681 0.3409506 -0.12030345 -0.37921196 -0.6936206 0.08635062
0.2836241 -0.6418556 0.27715293 0.27119288 -0.30015847 -0.030482352 0.069005705 0.04759776
0.1074178 -0.43248522 0.50362146 0.37433648 0.04258608 -1.7967227 -0.18742721 0.7440111
-0.58778083 0.27051955 0.31498662 0.36564603 -0.23423743 -0.48269606 -0.5371787 -0.37704983
0.5966938 -0.28773686 0.32786942 -0.6902213 -0.13684118 -0.059919655 0.33354163 0.48207915
0.28198174 -0.5660574 -0.15817636 -0.38478604 0.44484517 -0.25879103 0.17918153 0.4081345
0.07711024 0.002400031 0.12726733 -1.1124493 -0.09555244 0.5623517 -0.43009079 -0.35246423
0.0049698413 0.47893175 -0.63893586 -0.65344524 -0.57089573 0.3797105 0.3474741 0.077093884
0.3090399 -0.6753298 -0.2749357 0.67250526 -0.325234 -0.46109638 -0.25278214 0.7433029
0.5168095 -0.52899694 0.12441912 -0.49050644 0.22004719 -0.23901568 -0.56918645 -0.38693446
0.1226445 0.2727699 0.17652118 0.04226959 0.2087887 0.45854926 0.24391451 -0.521229
-0.084022485 0.30385825 0.48220193 0.032326482 0.19562994 -0.45256653 0.00025749207 -0.5796117
-0.31107366 0.29604238 0.036031455 0.12827954 0.41769052 0.36132398 -0.118869424 -0.5497816
0.46206453 -0.017297043 -0.44449845 0.067655325 -0.59655803 -0.45928127 0.068745755 -0.103761375
0.531531 -0.62698066 0.29723802 -0.51465416 -0.6207208 0.19958723 0.0033510064 0.13942713
0.50114965 0.31104112 0.16843319 0.256338 -0.32033435 0.06337249 -0.56579715 -0.18969119
0.18466233 -0.43502843 0.30900759 -0.66188604 -0.41252938 -0.6423589 -0.14225733 -0.017792523
0.07675258 0.41420877 0.4377002 -0.5640463 0.5257763 -0.34104976 -0.32997897 0.08403593
-0.5288581 0.2575332 -0.3412481 0.11510247 0.32160422 -0.61537546 0.24345696 -0.31444067
0.17316127 -0.68144155 0.511256 -0.2871355 0.31008592 0.079252906 -0.58056694 -0.6433621
-0.33306167 -0.0473969 0.49066886 -0.77771014 0.19928426 -0.740355 0.12755527 0.17383939
-0.60340446 -0.37851822 0.10381828 -0.111867644 0.3803695 0.54200315 -0.64136416 -0.43654305
0.3896098 -0.7735602 -0.07187343 -0.2882987 -0.29413283 0.11297083 -0.3532844 -0.6807992
0.1202468 -0.29968423 0.20446175 -0.11491334 -0.6703706 -0.15698206 -0.10318577 -0.68756133
-0.5205226 0.0018436909 -0.35318637 -0.47262597 -0.41617846 -0.43085214 0.36616915 0.37917042
-0.53009236 -0.6969984 -0.34545588 0.19320393 0.4973079 -0.054264206 0.18015645 -0.54622513
-0.066611275 0.21573927 -0.5193704 -0.29851744 -0.19132812 0.40866226 -0.64795184 -0.42076048
0.4186549 0.42350605 -0.20179506 0.5260333 -0.12429957 0.802544 -0.21698883 0.507734
0.0029909364 0.3424408 -0.0003966131 0.5584419 0.00052006834 0.5404981 -0.007440865 -0.10305011
0.47448024 0.20287178 0.30473283 0.24964033 0.24941099 -0.10775121 -0.3052196 0.7277896
-0.53792 0.24226129 -0.673749 -0.17283082 -0.51192135 0.02916038 0.08787235 0.22967051

linear1.bias f4 [256]
00000000: 011c 7d3e a53a f73d 77b0 83bf 5a19 9bbf
00000010: 8915 3f3d 9c3c 5b3f 9837 bfbd a095 173f
00000020: 8798 873f bba7 0fbf 0061 abbb d5fb d3bf
00000030: 0d35 b23e b753 a3bf f11b 93be 657f 563f
00000040: 8834 c7bd f356 aebf 2f66 adbe 3f16 073f
00000050: e660 b83f 0519 a5bf 6e34 9dbe a83d 2b3f
00000060: ae78 cbbd 3c06 5b3e 84a5 973f 04b8 93bf
00000070: 9281 a2bf 1ba2 0a3f 99d0 c2bf 4ad6 1c3e
00000080: d0e3 d63e 62d3 cb3d 5853 183f bff1 3e3f
00000090: 822c 1abf df49 583f c8d3 db3e f828 d6be
000000a0: a917 af3f e827 9abe 56e5 0bbe 587d 7d3e
000000b0: 5694 ac3f ec43 eebf dc59 adbf 6700 a03f
000000c0: 84be 553f e7ce 29bf d65c 953f 44a4 81be
000000d0: 60e5 9dbd 4ed3 323f ae6a 863f 26dd 1c3f
000000e0: 1860 8cbf 8d91 1abf 5029 f1be db22 843f
000000f0: c93f 99bf ec55 443f 727f ac3e 00ae 80bf
00000100: aa45 ca3e 9284 88bf ed78 f4be 1852 c23e
00000110: d7ee 793f 7e96 a5bd 9fd7 1bbf 6946 8bbe
00000120: 2071 c5bf d316 b1bf 582d 803f 93ae 833e
00000130: b0f2 0c3f 6d46 543e 16ee babf 3a1b c23f
00000140: 3b74 263c 0489 f1bf 6fa4 153f c4fa c2be
00000150: 9a7c ec3d c760 773f cf54 353f ea08 e0bf
00000160: a5b1 913d 8b38 a3bf aec1 a73f c7e6 84ba
00000170: 56f0 2e3d c93a db3e f85f 083f 3217 8cbe
00000180: a55f 75bf 05fe b9bf ca66 113f 4ad8 dabe
00000190: aa9b 8b3d 9600 0ebf ec26 81ba f935 563f
000001a0: 6617 233e ad07 a43e 1cff bfbf d84e 4a3f
000001b0: 943c 68bf 30c2 d5be 3ce5 dbbe ed75 293f
000001c0: cc67 a7bf 43e7 46bf 1ee0 d83f 0881 6b3f
000001d0: 08aa 93bf 2a23 cbbf 840b 27bf cca3 09bf
000001e0: bf77 acbf 1aa2 87bf 1344 ccbf 05c2 80bf
000001f0: 0972 b2be 293a 853e 025d 99be 9117 443f
00000200: 82c5 a2bf 79bf 233f efdc 153f 4758 2e3f
00000210: 4a49 64bf 860c c5bf c018 d6be 1c45 123f
00000220: b84e 0f3f 767f cfbf 02e7 e6bd d529 49bf
00000230: 83ff d2be 8cf4 89be 950c e6be 0bd0 e0bf
00000240: d447 28bf 1c47 d8bf fd99 043f 5b07 383f
00000250: 72cf 3d3e cbd8 593f 4ee6 c0be 8e31 edbe
00000260: 9b46 a93f 5f64 5b3e b6b0 bebf 92cb 2e3f
00000270: 5654 743f 924b db3f 2211 803f e201 02bf
00000280: 20bd 163e 13c3 af3d 6f53 0fbf 8d0a b7bf
00000290: 6321 68bf 4e01 83bf f060 00bd ab7b 603f
000002a0: 6bad 6d3e ba36 743d e8dd 28be f58b c2bf
000002b0: f896 d6bf a829 dcbe a433 5a3e db38 2c3f
000002c0: 77e9 a23f 9021 b3bf 80ff 08bf a198 bd3f
000002d0: 253a a7bf 591e 8b3f 8069 47bd ec92 aabf
000002e0: daa1 bbbf 57a8 3bbf 6c66 943f 0966 b8bf
000002f0: 0f6a 82bf 2724 9ebf 59e1 8cbf b264 513f
00000300: 3200 c23f 7904 3d3e 45fd 8d3f c8b7 a63e
00000310: f4ab 0cbe 2a07 853f 8557 893f 05cb a33f
00000320: cb4e b1bf 0676 9e3f 08cb 07bf 6a48 df3e
00000330: b434 21be 30b4 55bf 828b f0be 8033 923d
00000340: 42ca 12bf 2c35 9a3e ab94 c2be aecc 8cbf
00000350: e07e b7bf a0b2 e1bf 61e6 91bf 535c b33e
00000360: 68fc 5fbf 0c57 1f3f 07a8 bcbf 807f 80bd
00000370: 1c56 623d eb91 f73e 090b 1a3e 93eb e83e
00000380: c9b4 e13e 8374 d13f b78f 71bf 592e 0cbf
00000390: 7256 41be f756 55be b565 303e 8b25 713f
000003a0: 76a5 bfbf 40ed 74bd 61a1 a53f 3589 4f3e
000003b0: c4b0 b7bf 7163 c9bf 9025 11bd 005d 75be
000003c0: d544 4bbf 9ebf 06bf f62a bdbf 9144 d4bf
000003d0: 85cb 973f 04c7 0cbf 3eaf bfbe c87e bbbe
000003e0: 818c d2bf 6a11 d9bf b413 9bbe 100a 9cbf
000003f0: b78b dcbe 82dd 043e af96 92bf 4b7d 85bf
0.24717714 0.120717324 -1.0288228 -1.2117112 0.046651397 0.8563936 -0.093367755 0.59212685
1.0593423 -0.5611531 -0.005230069 -1.6561228 0.348061 -1.2759923 -0.28732255 0.8378814
-0.097268164 -1.3620285 -0.33867022 0.5276832 1.4404571 -1.289826 -0.30704063 0.66890955
-0.09935127 0.21389097 1.1847386 -1.1540532 -1.2695792 0.54153603 -1.5219909 0.1531612
0.41970682 0.099524274 0.5950217 0.74587625 -0.60224164 0.8448772 0.42935014 -0.41828132
1.3679096 -0.3010857 -0.13661703 0.24754846 1.3482769 -1.8614478 -1.3543048 1.2500123
0.8349383 -0.6633133 1.1668956 -0.25320637 -0.077097654 0.69853675 1.0501306 0.61274946
-1.0966825 -0.6037834 -0.4710183 1.0323137 -1.1972591 0.76693606 0.33690983 -1.00531
0.39506274 -1.0665457 -0.4774851 0.37953258 0.97630066 -0.08085345 -0.60875887 -0.27202156
-1.5425148 -1.383509 1.0013838 0.25719127 0.5505781 0.2072999 -1.4603908 1.5164559
0.010159547 -1.8869939 0.5845403 -0.38081944 0.11547203 0.96632046 0.7083253 -1.750272
0.07113961 -1.275163 1.3105981 -0.0010139578 0.04270967 0.42818287 0.53271437 -0.27361447
-0.95849067 -1.4530646 0.5679747 -0.4274314 0.068168 -0.55469644 -0.0009853519 0.83676106
0.15926895 0.32037106 -1.4999728 0.79026556 -0.90717435 -0.41749716 -0.4294833 0.66195565
-1.3078551 -0.7769663 1.6943395 0.9199376 -1.1536264 -1.5870106 -0.65251946 -0.5376556
-1.3474044 -1.0596344 -1.5958275 -1.005921 -0.34852627 0.26020935 -0.29953772 0.7659846
-1.2716525 0.6396404 0.5854024 0.6810345 -0.8917433 -1.5394447 -0.41815758 0.571367
0.5597949 -1.6210773 -0.1127453 -0.78579456 -0.41210565 -0.26944387 -0.44931474 -1.756349
-0.657346 -1.6896701 0.5179747 0.71886224 0.18536165 0.85096425 -0.3767571 -0.4632687
1.3224672 0.21425007 -1.4897678 0.68279374 0.95441186 1.7132437 1.0005229 -0.5078412
0.14720583 0.08582129 -0.55986685 -1.4300095 -0.90675944 -1.0234773 -0.031342447 0.876887
0.23210685 0.059622504 -0.164909 -1.5198961 -1.6764822 -0.4300053 0.21308762 0.67274255
1.2727498 -1.3994617 -0.5351486 1.4812204 -1.3064619 1.0868636 -0.048684597 -1.3326087
-1.4658768 -0.7330374 1.1593757 -1.4406139 -1.0188617 -1.2354783 -1.1006271 0.81794274
1.515631 0.18458737 1.1092917 0.3256209 -0.1373747 1.0392811 1.0729834 1.2796332
-1.3852171 1.2379768 -0.53044176 0.43609935 -0.15742761 -0.8347807 -0.46981436 0.07138729
-0.5733987 0.30118692 -0.3800405 -1.0999963 -1.4335594 -1.7632637 -1.1398431 0.35031375
-0.87494516 0.622422 -1.4738778 -0.06274319 0.0552579 0.48353514 0.15043272 0.4549223
0.4408324 1.6363682 -0.94359916 -0.5475822 -0.18880633 -0.20833956 0.17226298 0.9419791
-1.497237 -0.05979657 1.2939874 0.20267184 -1.435082 -1.5733472 -0.035436213 -0.23961258
-0.79401904 -0.52636135 -1.4778736 -1.6583425 1.1858984 -0.54991174 -0.37438387 -0.36620164
-1.6449128 -1.6958439 -0.3028847 -1.2190571 -0.43075344 0.12975124 -1.1452235 -1.0428861

linear2.weight f4 [256, 256]
00000000: 8059 513d 7b0a 5ebd d64d 21bc f768 a53c
00000010: 5c8e 24bc 4530 82bd f88e 8dbc 2f28 043d
00000020: c6a9 66bc a3f6 d9bc d034 febc f715 613d
00000030: 200e 02bd 6682 c13c f020 403c 1a0a c03b
00000040: 7874 1c3c 55ad 7b3c 422d 35bd 021c 31bd
00000050: 3dcd 7d3c 8a10 2bbd fccd 15bd b555 f5ba
00000060: 3100 babc e1f0 913c 4323 503d f53a 133d
00000070: 95d0 953c fedc 6b3d 23f8 1cbd 5902 74bd
00000080: b687 823d 67dc 5ebd 67d2 2bba 7459 123c
00000090: ab89 43bd 7f23 733c 10a2 30bd 2453 f73b
000000a0: c6d0 d63c 0cfe a13c da9e f2bc 2daa 703c
000000b0: ea74 0f3d 2055 ddbc 4044 58bc 0407 c23b
000000c0: aa0d c5bc f0aa 23bd 50a3 43bd 3a8b 6b3d
000000d0: 76b2 46bd d61b 1fbd 3085 53bd 9ddc 19bb
000000e0: 5d99 a8bc 4869 1fbc 3ee8 3c3d 9daa d43b
000000f0: 7bd3 94bc 3778 05bd 3efc 8c3c 810a e03c
00000100: de24 84bd 132b 703c 5026 823c eb16 29bd
00000110: 6815 b83c 4cd2 c63c b0de 5f3c 0009 d2ba
00000120: 2a58 0ebc b333 323d 2b0d 22bd fbf5 f83c
00000130: d2d1 bb3c ede5 5dbd 385a c33b 6e17 80bd
00000140: a9bd 043d d5e5 813d adde 583d b0db b53c
00000150: a697 d3ba 367c 72bd 4868 37bb 8a25 123d
00000160: 4f38 e8bc fb6f 383d 4921 6d3b abd0 313d
00000170: b4e2 d6bc 7954 1b3d 178f 57bd 0c38 69bd
00000180: cd66 4b3d 81b5 22bd 587c 57bd fa9c 4e3d
00000190: 932c 51bd 84c2 6c3d 08d0 9fbc 7a9e 0c3c
000001a0: f021 d6bc cec2 d93c fcaf 313d 6969 943b
000001b0: 5c56 3fbd ec39 0ebd 9d8f 43bb c9f2 4ebd
000001c0: 5ac2 41bd 7f8a 893c 4b87 523d 16ef d13c
000001d0: 45fd 13bd 82ed c4bc 8638 63bd 7ab3 4dbd
000001e0: 3a50 da3c fb87 3f3c 7c6b 063d f5f6 593d
000001f0: 8847 1abc bb4d a03c c81b abbc e520 383d
00000200: 810c 9a3c 99ff 81bc 2ef5 b6bc 77cd 1e3d
00000210: 6144 d83c deb7 37bd 8851 c23c 7337 3dbc
00000220: d2af 6e3d ac80 443c e5fd ddbc bacd 10bd
00000230: 9501 6abd ca00 70bd e086 98bc 12eb 7f3d
00000240: 6805 63bc f8c1 52bd 4b25 a43b da0f a6bc
00000250: f030 853b adf5 85bb d025 7dbd 663f 5fbd
00000260: 04f3 0cbd 1d1b abbc 7c9d ba3c ea1d 5fbc
00000270: f7bd 17bd ace3 1bbd 90aa cdba aa45 66bd
00000280: 1e5a 7bbc 09de c2bc c4c6 92bc fe7b 973a
00000290: deaf bfbc 2199 fabc d8fe 5dbd f868 243d
000002a0: 7970 b1bb fd95 34bd 54f8 6fbd 2d09 c13c
000002b0: bb38 01bd f8e0 60bd a519 133d c750 3f3d
000002c0: 791c 30bd cefb 68bd e49e 553d fe06 503d
000002d0: 26d4 23bd daff 3bbd 4035 503d 90c6 023d
000002e0: 129d 813c d303 fcbb 2b8a 513d 3335 a23b
000002f0: 621f 1ebc 1eed 7bbb 66da 6f3b 1ce9 e5bb
00000300: 967c 3a3d 3dfc 923b 1d3b 37bc 751d 2a3d
00000310: ec8b 93bc c3c5 42bd 480c 77bd 0279 75bc
00000320: 0dc0 c4bc 86a4 51bd f32f 013d 6ecc 61bc
00000330: 1c7e a43c e469 453d 5ec0 1b3d 42f0 a1bc
00000340: 7e32 37bd 8b32 a2bc fe13 003d 1330 6ebb
00000350: 53b8 b93c 8dbb efbc f9d7 503d f71c 4a3d
00000360: a541 08bd 0898 033d 8384 b8bc 643a e8bc
00000370: 6348 20bd 330f 2f3d ed19 54bd f0e7 c33c
00000380: 4da9 ba3c 56ef 83bb 4c84 6c3d 0685 7f3d
00000390: cff1 5bbd 15f5 673d 6a04 f13c b7cf f5bc
000003a0: 2660 03bd 286b cd3c 25d4 13bd 6151 87bc
000003b0: 781d 57bd 9fd0 07bc 44cc 283d 20ae e8bb
000003c0: 3e38 0cbc 33a2 c9ba dda4 e4bc f727 283c
000003d0: 592d 093d 8e3d 6c3d 8040 eeba 0ce7 333d
000003e0: 84fc 4f3c 432b 943c f20f 313d 3dff 303c
000003f0: 0c67 a8bc 5182 de3b 94fc 68bd 956a 283d
0.051110744 -0.054209214 -0.009845218 0.020191653 -0.010043707 -0.06356863 -0.017280087 0.032264885
-0.014078563 -0.026606863 -0.031031042 0.054952588 -0.031751752 0.02362175 0.011726603 0.005860579
0.009549253 0.01536115 -0.044232614 -0.0432396 0.015490827 -0.04176382 -0.036573395 -0.0018717559
-0.02270517 0.017815055 0.05081488 0.035944898 0.018287936 0.0575838 -0.03832258 -0.05957255
0.06373541 -0.05440941 -0.0006554485 0.00893246 -0.047738712 0.014840006 -0.043123305 0.007547753
0.026222598 0.01977446 -0.029616762 0.014689011 0.035023607 -0.02701813 -0.013199866 0.0059212465
-0.024054367 -0.03995794 -0.04776317 0.057505824 -0.048510037 -0.038844906 -0.05164069 -0.0023477443
-0.020580942 -0.009729691 0.04611992 0.0064900653 -0.018167248 -0.03258535 0.017210122 0.027348759
-0.06452344 0.014658707 0.01588741 -0.041281622 0.022471145 0.0242702 0.013663933 -0.0016024411
-0.008688012 0.043506335 -0.03956334 0.03039073 0.022927199 -0.054174352 0.0059616826 -0.06254469
0.032407437 0.06342665 0.052946735 0.022199482 -0.0016143217 -0.059200488 -0.002798574 0.03568033
-0.028347163 0.045028668 0.003618317 0.043411892 -0.026231147 0.037922356 -0.052626695 -0.056938216
0.049658585 -0.039723877 -0.052608818 0.050442673 -0.0510679 0.057802692 -0.019508377 0.008582706
-0.02613923 0.026582148 0.043380722 0.0045291674 -0.046713218 -0.034723207 -0.002984024 -0.050524507
-0.04730449 0.016789673 0.051398557 0.0256267 -0.03613021 -0.024039034 -0.055473827 -0.05021999
0.026649583 0.011690135 0.03281735 0.053214032 -0.009416468 0.019568315 -0.02088727 0.044953246
0.01880479 -0.015868949 -0.022333708 0.038770165 0.026399793 -0.044853084 0.023720518 -0.011548865
0.058273144 0.011993568 -0.027098605 -0.035352446 -0.057130415 -0.058594503 -0.018619 0.06248004
-0.013856269 -0.051454514 0.0050093285 -0.02027123 0.0040646717 -0.0040881247 -0.06180364 -0.05450382
-0.034411445 -0.020886952 0.022780173 -0.013617972 -0.0370464 -0.03805892 -0.001569109 -0.05621878
-0.01534131 -0.023787515 -0.017917044 0.0011557338 -0.02339929 -0.030590596 -0.054198116 0.04013917
-0.005415019 -0.044088352 -0.058586434 0.023563946 -0.031548243 -0.054902047 0.03591313 0.046707895
-0.042995904 -0.056880765 0.052153483 0.05078792 -0.039997242 -0.045898296 0.050832033 0.031927645
0.015821967 -0.0076908856 0.051157158 0.0049501895 -0.009651037 -0.0038440893 0.0036598681 -0.007016314
0.04552897 0.0044856356 -0.011183527 0.041532 -0.018011056 -0.04755188 -0.060314447 -0.014982464
-0.024017358 -0.051182292 0.03153987 -0.01378165 0.020079665 0.04819669 0.038025253 -0.019767884
-0.044725887 -0.019799491 0.031269066 -0.0036344572 0.0226709 -0.029264236 0.050987218 0.04934403
-0.03326573 0.03212741 -0.022524124 -0.028348155 -0.039131533 0.042739104 -0.051782537 0.023914307
0.022785807 -0.004026334 0.057743356 0.06238272 -0.053697404 0.056630213 0.02942105 -0.030006273
-0.032074116 0.02507551 -0.03609099 -0.016518297 -0.052518338 -0.008289485 0.041210428 -0.0071008354
-0.008558331 -0.0015383422 -0.027910644 0.010263435 0.033490513 0.05767589 -0.0018177181 0.043921515
0.012694482 0.018087035 0.043228097 0.010803041 -0.02055695 0.0067904373 -0.056881502 0.04111727

linear2.bias f4 [256]
00000000: 1510 3f3d 0b37 e1bc 7eed e93a bd98 223c
00000010: 00fe 5eb9 501d 21bd 262e 82bd 95e0 073c
00000020: a6ea 143b 22fb 523c d396 26bf ff64 8c3c
00000030: 2080 1cbf 18a7 873d 5b21 a73c 49e1 663d
00000040: bb35 0d3d 64bc 5d3c 0063 50ba 66bb 09bd
00000050: ce02 8b3d 8159 b83c d9d4 ac3e 633d 203d
00000060: fd15 253d b7eb babe 0265 fbbb 0292 f0bc
00000070: cc36 4ebd f0c2 97bc 82ba 40bd 2a5c c33c
00000080: f8ff 3fbd 7ef5 59bd 8070 103f 1d3a 62bd
00000090: 0287 0fbd 8744 4c3d c3ec a53c b0e4 03bd
000000a0: d8bc 1f3e 9f54 b5bd 9f1c a53b 5d79 e03c
000000b0: 1ead debc e8aa b9bc 620a 20bf 08e5 7abd
000000c0: 3ba3 44bc 9d1b 313d ca63 d43e cf21 213e
000000d0: 0cd0 1dbd 49bc 6abb 1cbe b0bc 9c22 52bd
000000e0: fd8e 31be c4f0 adbc b4c6 87bc 6a66 b83c
000000f0: 896c 82bf 0ea7 7abf 0cb0 d9bc 7873 05bc
00000100: af31 9dbc b492 e6bc 29ba 5c3d 4543 c4bd
00000110: 7684 b0bc 9062 e23b 361d 39bc 8a89 693d
00000120: 53e3 b23c 2366 69bd 8a8f 203d 5da7 e73c
00000130: 335c a53d a3a3 643d 0352 9c3c dd79 81bc
00000140: 649d f13c 9c84 76bc 6001 18bb 58e0 643d
00000150: a4cd c8bc 5b18 e93c aaf0 c9bd 08e4 413e
00000160: 0775 f13d 0e1e b5bc 33d8 e6bb 714a 793d
00000170: faae d33c c3dc debe 1f60 463d e093 0cbd
00000180: 72d0 28bf 9f64 59bd b659 c33c 5074 393c
00000190: 517a 173d 9bf5 dcbe 1fe4 83bc bbd8 953c
000001a0: 8aae f3bc 77c1 74bd b696 6dbd 2dc9 33bd
000001b0: 78f0 1bbd b33c 1cbe f869 1abd d685 78ba
000001c0: 6b72 b0be 66e2 953b 572c 803c 0ccc be3c
000001d0: c6bd 7f3d 407e 98bc 9e1b 85bd 92d0 873c
000001e0: ad0d 123d 9c0b 77bc c0dc 5bbd 387b f23c
000001f0: 5390 52bd d7d1 763c f0e4 d53e 0a4d 08bf
00000200: 69cf 09bd e635 4d3e 23aa 663c dfed 81bc
00000210: 49fd 18bd 008e 2d3b 409b a73d 2f53 67bb
00000220: c416 33bd 089c b93d 532d 1fbc d098 b53c
00000230: f8da 57bc 51e4 b5bc 14b8 793d a4c1 8c3d
00000240: ba1c 0bbd 8029 2dbc ef6e 5dbd 3a57 81bd
00000250: 06b6 2e3d 8492 643d 73bc c73b f6da 0dbd
00000260: ad95 7ebc 1e68 e03b f8f0 2c3c 7628 2abd
00000270: 3dd6 25bd a888 7ebd 8133 4a3e 511a 5e3d
00000280: b767 25bc 471e 12bf 5483 d9bc 4ad0 60bd
00000290: a3cf 1b3d d9c3 7c3c 30f3 8bbc c245 45bd
000002a0: ac6f a63c 7a1d 773c fc2b 043d 236d 153a
000002b0: 62a0 37bd 8156 013d de8e 02bd c823 033d
000002c0: 7009 923c 4886 833d 114f 4dbd e905 2dbc
000002d0: 7684 72bf e4d4 12bf b1a7 15bc 784b 6dbc
000002e0: 51b2 0cbd 91c0 923d abc1 823d a1aa b5bc
000002f0: 8c82 963a 33b7 7a3d 6fb7 3ebd 701b 003f
00000300: 7e21 773d 8160 cf3c d46f 9c3e 7807 343c
00000310: d580 2ebf c27e 4abf c39b 6b3d ce87 dd3c
00000320: 9d28 d63c 88a5 08bd 6014 9e3c 1ad4 5f3d
00000330: 9170 113d ddd4 113f 0b08 123e d608 ee3c
00000340: 9e96 a0bc 5ec7 e4bc d299 4abc 9d39 213d
00000350: 180d 2c3c 405b 7cbd b06e 5d3d 8030 1fbd
00000360: 3ea3 03bd e8d2 d03c f046 9dbc 8841 1a3d
00000370: db38 91be 20d1 693b 1176 49bc 06cd 2ebe
00000380: da9a 0b3c 53b8 06bd 7c15 21bd b2ec 2abc
00000390: 490c 76bd 4e41 1ebd d9f6 753f 9387 2abd
000003a0: 2a0c e13d 95ce d0be ab5d 8d3a bc3c d0bb
000003b0: ff4a ebbc 70aa 0b3e 68f4 263e a04b 3e3c
000003c0: b816 1cbf f0f9 233c 73b4 543d 4638 9b3c
000003d0: 2f07 1c3d 14fa 3739 3275 e53c f4c2 e83c
000003e0: 34e6 893d 00ed f739 1ea1 4bbe 65c8 253d
000003f0: 45d9 4d3d f3d5 78bc 4f45 0b3a d1a0 8b3c
0.046646196 -0.027492067 0.0017847267 0.009924111 -0.00021266192 -0.039334595 -0.06356458 0.008293291
0.002272287 0.012877258 -0.6507389 0.017138002 -0.61133003 0.066236675 0.020401647 0.056367192
0.03447507 0.013533685 -0.00079493225 -0.033625983 0.06787644 0.022503616 0.3375614 0.039121043
0.040304173 -0.3650796 -0.007671953 -0.029366497 -0.050345227 -0.01852557 -0.047052868 0.023847658
-0.04687497 -0.053212635 0.5642166 -0.055231202 -0.035040863 0.04987004 0.020254498 -0.032200515
0.15599382 -0.08854031 0.0050388123 0.02740162 -0.027182158 -0.022664502 -0.6251584 -0.061253577
-0.012001808 0.043239225 0.41482383 0.15735553 -0.038528487 -0.0035817793 -0.021575026 -0.051302537
-0.17339702 -0.02123297 -0.016574241 0.022509772 -1.0189372 -0.97911155 -0.026573204 -0.008145206
-0.01918873 -0.028146125 0.053888474 -0.09583143 -0.021547537 0.006908722 -0.011298468 0.057015933
0.021836912 -0.05698217 0.03919939 0.028278047 0.08074226 0.05582012 0.019082075 -0.01580518
0.029493995 -0.015046265 -0.002319418 0.055878013 -0.02451212 0.028453996 -0.09860356 0.18934643
0.11789899 -0.022109058 -0.007044816 0.06086201 0.025840271 -0.43527803 0.048431512 -0.034320712
-0.6594306 -0.053074475 0.023846488 0.011319235 0.036981884 -0.43156132 -0.016099988 0.018291822
-0.029746313 -0.059754815 -0.058005057 -0.043893028 -0.038071126 -0.1525753 -0.037698716 -0.00094803923
-0.34462294 0.004574108 0.015646143 0.023290657 0.06243684 -0.018614888 -0.06499408 0.016578946
0.035657573 -0.0150784515 -0.05367732 0.02959977 -0.05140717 0.015064678 0.41776228 -0.5324255
-0.033645067 0.20040092 0.01407865 -0.015860496 -0.037350927 0.0026482344 0.081839085 -0.0035297384
-0.043722883 0.09062964 -0.009715396 0.022167593 -0.013174765 -0.022203596 0.060966566 0.068728715
-0.033962943 -0.010568976 -0.054060873 -0.06315465 0.04265406 0.05580379 0.006095463 -0.034632646
-0.015538615 0.0068483492 0.010555498 -0.041542493 -0.040487517 -0.062142044 0.1974621 0.054224316
-0.010095528 -0.5707745 -0.02655188 -0.05488614 0.038039815 0.015427553 -0.017083734 -0.04816223
0.020316921 0.015082711 0.03226851 0.00057001616 -0.044830687 0.031576637 -0.03187453 0.032016546
0.017826766 0.064220965 -0.05012423 -0.010560491 -0.9473337 -0.57356095 -0.009134219 -0.014483325
-0.034349743 0.071656354 0.063845955 -0.022176089 0.0011482998 0.06120987 -0.046561655 0.50041866
0.060334675 0.025314571 0.30554068 0.010988109 -0.6816533 -0.7909967 0.057521593 0.027042296
0.026142413 -0.033360988 0.019296825 0.054645635 0.035507742 0.5696543 0.1426088 0.029056948
-0.01960307 -0.027927097 -0.012365775 0.039361585 0.010501169 -0.06161046 0.054060638 -0.038864613
-0.0321381 0.025491193 -0.019198865 0.03766015 -0.2836369 0.0035677627 -0.012296216 -0.17070398
0.008520806 -0.03289063 -0.03932713 -0.010432409 -0.06007031 -0.0386365 0.96079785 -0.0416332
0.10988648 -0.4078261 0.0010785362 -0.0063548964 -0.028722284 0.13639235 0.16304171 0.01161471
-0.60972166 0.01000832 0.051929902 0.018947732 0.03809279 0.00017545401 0.028009985 0.028413273
0.06733361 0.0004728809 -0.1988568 0.040474314 0.050256032 -0.015187728 0.0005312757 0.017044457

linear4.weight f4 [256, 256]
00000000: fed5 dd3c 40c5 813d eed0 553d c62b 27bd
00000010: 8ce8 173d 14bf d1bc 7d01 353d ae07 cd3c
00000020: 6914 1bbd 25b9 793d 8518 ed3b afd5 e43c
00000030: a457 313d 6cd2 43bc a688 40bd fe4f a4bc
00000040: f7d0 473d fb40 9abc e8b7 9f3c 6d3f 27bd
00000050: 203f 87bd ec30 263d 866c 233d d44b d33b
00000060: d551 62bc b690 d13b df64 1e3d b4c5 25bd
00000070: c0e6 89bc 445e 74bd a653 c1bc 8d88 8f3d
00000080: c2f2 733d 7080 8f3b c77d 243d 1ae6 4cbd
00000090: 108a 633c 4ecd 34bd 1624 993c a07b 6fbc
000000a0: 67df 72bc 5d97 743b 6b21 9dbb 2d3e 7b3d
000000b0: 88aa a73c 0aaf 823c 8dd0 21bc 496f be3c
000000c0: 30a2 333b 1823 113d 876c 323c 0f02 433d
000000d0: 0002 df3c eaf9 44bd 55cb 2d3d f6d8 933b
000000e0: 9ebf b0bc f481 d6bc d8eb 6bbc c7b6 9dbc
000000f0: fe9b 253a de54 933c 0cd1 6ebb 0cfc c43c
00000100: f17a 163c 7651 79bd 4101 1a3b 91c1 133c
00000110: 8b98 0f3d 366a 603d f469 e4ba 548c c3bc
00000120: 4e0c 58bc f635 12bd a00b 263d a4de f03c
00000130: 9a83 d5bc 6227 453d 9550 3fbd 4f79 37bd
00000140: 056d 68bd 5ba5 953c e0d8 f3bc 90a8 e3bc
00000150: e8a3 cf3c 19c5 87ba de76 14bb 81d9 01bd
00000160: c577 763d 22a9 e33c 4c98 59bd 68eb ce3c
00000170: 0e8e 333c f3ae 5ebb f9a8 3d3d f2cf ccba
00000180: 20f5 063d 9c33 9f3c 9629 fa3c f8cd 553c
00000190: 3d43 083c 425b 543d a4f1 503d f8de 1bbd
000001a0: d2f8 75bd e607 26bc 6c1b 493d 722c 5a3d
000001b0: a450 dd3c b631 e2bb 80a0 173d 893c ecbc
000001c0: 958f 23bd c0e2 5d3d bfec 0abc a05b 743b
000001d0: b0cc 0dbc b784 68bd 2194 8f3c c88d f63c
000001e0: a8f3 b6bc 8aa8 a63c 38b4 ebbc 6670 44bd
000001f0: 3361 b93c 1fe9 c4bc 0858 3fbd 481c 35bd
00000200: 59ca fb3c 4893 81bc 4781 663d 54b8 0abd
00000210: 5367 f23b 04d0 9c3c a49e 0f3c 5c1d 4fbd
00000220: 0a91 553d 132a 0f3d 2aba 253b 3a3b 9a3c
00000230: 475a 533a f780 433c 077d 943d 0c9e 1dbd
00000240: 1b49 863d 54e2 80bc 0676 5e3d 6305 383d
00000250: a461 093d 142b 633b b706 59bd 6e05 453d
00000260: 4867 ac3c 78ce 9c3c 2284 683d d2b1 e53c
00000270: cb71 ba3c e486 f9bc 3bb5 77bd c348 f53c
00000280: 649b 4d3d 267e b03d 918a aebc 408f 9ebb
00000290: 3b6b 3a3d aada 263d 43d4 8abd f8f6 35bd
000002a0: acf0 023d ed13 2a3d 846f 3e3d 2ad0 35bb
000002b0: e45a d03c 8858 79bd e471 53bd cded 603b
000002c0: 5925 9b3c 70ce 153d fcd2 783d 9138 583d
000002d0: 6928 89bc dd97 adbd 6666 77bd a85f debc
000002e0: 5dbd 663d 7859 3dbd dc19 873c 2cca 88bc
000002f0: 6a8d 843c 08bd 703d 6e39 fcbb 9ab4 9ebc
00000300: 9c12 033d a534 0b3d 5be2 f9bb 8a9e 703d
00000310: 00a3 2ebe eb34 143d bd88 0cbd e4ed 83b7
00000320: 36c3 c93c cf5e 483d 4ed0 703d 54dd 93bc
00000330: 7dd2 5a3d b611 61bd 7d21 d0bc c513 813d
00000340: 6c8e 6c3d 29d8 953d ccda 21bd 85c2 3fbd
00000350: faa4 25bd 370c 01bd b452 c63c 35bd 80bd
00000360: b7f0 093c 1c9f c5bc 6a6d 423d db07 213d
00000370: 06d3 47bd 3476 d53c fdb6 9c3c e27f d43c
00000380: 0ea8 fb3c a1dc 853c 8d8d 4b3d cb25 95bc
00000390: d297 e0bc 609e 333c 86e8 553d 00cd 0aba
000003a0: d307 6bbd 81a3 213d 3506 74bd f6fd 86bb
000003b0: 3cff 56bc 22c4 6eba f9ee 91bd 5408 7fbd
000003c0: cc15 e43b 7d51 52bd fc73 e43c 96a1 153c
000003d0: af9e f4bc 4383 173d fcbf 09bd a928 0abd
000003e0: 9b30 873a 18de 313c 7501 bcbc b23f a53c
000003f0: 6962 f43b 1300 e9bc 54e7 94bc 7d87 d0bc
0.027079578 0.063364506 0.052201204 -0.04081323 0.03708701 -0.025603808 0.044190872 0.025028076
-0.03786126 0.060967583 0.007235589 0.027933924 0.04329647 -0.011952024 -0.047005318 -0.020057674
0.04878327 -0.018829813 0.019496873 -0.040831972 -0.06603837 0.040574 0.039898418 0.0064482484
-0.013813456 0.0063954247 0.038670417 -0.040471748 -0.016833663 -0.05966021 -0.023599457 0.07008467
0.059557684 0.0043793246 0.040159013 -0.05002413 0.013887897 -0.044141106 0.018693965 -0.014616877
-0.014823771 0.0037321665 -0.0047952435 0.061338592 0.020467058 0.015952606 -0.009876383 0.023246424
0.0027409904 0.03543386 0.010890133 0.047609385 0.027222633 -0.0480899 0.04243024 0.0045119477
-0.021575745 -0.026185013 -0.014399491 -0.019252194 0.0006317495 0.017984804 -0.003644052 0.024045967
0.009184585 -0.060868703 0.0023499283 0.009018318 0.035057586 0.05478879 -0.0017426596 -0.023870625
-0.013186527 -0.035695992 0.04053843 0.029403038 -0.02606373 0.04813326 -0.04670771 -0.044793423
-0.056744594 0.018267324 -0.0297665 -0.027790338 0.025346711 -0.0010358422 -0.0022653858 -0.03170157
0.060172815 0.02779061 -0.053123757 0.025258735 0.010959161 -0.003397879 0.046303723 -0.0015625937
0.032948613 0.019433789 0.030537408 0.013049595 0.008316812 0.051844843 0.051011696 -0.038054436
-0.060051747 -0.010133719 0.049098417 0.053265043 0.027015992 -0.0069028987 0.0370183 -0.02883746
-0.039931852 0.054171324 -0.008479296 0.0037286058 -0.008654758 -0.05676719 0.017526688 0.030096903
-0.022332981 0.020344038 -0.028772458 -0.047958754 0.022629356 -0.024036942 -0.046714813 -0.044216424
0.030736135 -0.0158173 0.056275632 -0.033867195 0.007397571 0.019142158 0.00876585 -0.05056511
0.052140273 0.034952234 0.0025287964 0.01882707 0.00080624636 0.011932603 0.072504096 -0.038480803
0.065569125 -0.015732922 0.054311775 0.044927012 0.033540383 0.0034663128 -0.05298492 0.04810088
0.021045342 0.01914142 0.056766637 0.028038893 0.022759339 -0.030459829 -0.06047557 0.029941922
0.05019702 0.08617811 -0.021306308 -0.004838854 0.04551242 0.040735878 -0.06778767 -0.04442498
0.031967804 0.04152291 0.04649307 -0.0027742484 0.025433965 -0.060875446 -0.051622286 0.0034321428
0.018938707 0.036573827 0.060748085 0.05278832 -0.016742902 -0.08476231 -0.06040039 -0.027145222
0.056332935 -0.046227902 0.016491823 -0.016697966 0.016180713 0.058774024 -0.007697276 -0.019373227
0.03200017 0.033985753 -0.0076258606 0.058744945 -0.17054367 0.03618328 -0.03431009 -1.5727193e-05
0.024629217 0.04891854 0.058792405 -0.018049873 0.053423394 -0.05494853 -0.025406593 0.06302599
0.05775301 0.0731662 -0.0395153 -0.046816368 -0.040440537 -0.03150579 0.024209358 -0.062860884
0.008419207 -0.02412372 0.047467627 0.039314132 -0.048785232 0.02605734 0.019130224 0.025939886
0.030719783 0.016340556 0.04969554 -0.018206498 -0.027416144 0.0109630525 0.052223705 -0.00052948296
-0.05738051 0.03946257 -0.059576232 -0.00411963 -0.013122376 -0.00091082056 -0.071256585 -0.0622638
0.006960606 -0.051347245 0.027887337 0.009132763 -0.029860822 0.036990415 -0.033630356 -0.033730183
0.0010314168 0.010856174 -0.022949914 0.020171974 0.0074580205 -0.028442418 -0.018176712 -0.02545523

linear4.bias f4 [256]
00000000: 925e 3cbf 508f febe 88cf 34bf b9ad 4e3d
00000010: bf7b 10bf 6dd7 dfbe 9fd1 023f 78ba 3c3f
00000020: 4891 b03b 7747 323f d4d3 a6bd 1eb8 87be
00000030: 75bb af3e 0c06 11bd f0d6 58bf 8705 5dbf
00000040: ee82 03bf 11e7 74bf 9c94 033f 47c6 6fbf
00000050: 1ffc 26bf 6538 9aba 3105 6e3d df2d 6ebf
00000060: 5187 28bf 8898 25bd c712 40bf 23aa 0bbf
00000070: 0f2f 21bf bb06 38bf 3432 fd3d de42 113f
00000080: 010f 793f d3d4 1cbf 8ad7 1b3d b7e9 55bf
00000090: 9258 c23e 1242 46bc b9a9 2cbf 2ccd 1b3f
000000a0: 2190 d13e c247 21be 10ee 413f c3ad 4bbe
000000b0: 6aa0 88be 8add 2ebf 30c0 333f c7fc 193f
000000c0: ade5 49bf 3025 6cbf 4e76 25bf 82e1 55bf
000000d0: d52e 69bf e4c1 2abe 0609 3abc 1bcc 7dbc
000000e0: bcf3 163d 57c2 1d3f 7e1a 4aba c816 853e
000000f0: 96dd 7b3d d32b 04bf 9c39 2cbe 0d37 883d
00000100: 76f0 373f 96f8 04bf 53d5 89bd db40 1fbe
00000110: 0230 733e 2738 003e 7ff9 75bf 7def 44be
00000120: e2ce a73e c15b 92bd b1f6 3bbe de11 313f
00000130: 0b5a b63d ece6 dbbd 7cd1 2f3d 17ee 73bc
00000140: 59a4 553c 0af7 453f 83f5 20bd a0b3 ab3e
00000150: 5432 373f 3cfc b03c 49a8 1f3f d7b0 29bf
00000160: 76cd 13bf a2f2 533e 15c1 2d3e 480c 29bf
00000170: f689 bc3d 80e1 14bf 83e9 1f3f 13d4 47bf
00000180: 1d52 4e3f 84c6 12bf 1618 31bf 44c5 06bf
00000190: 28cd 7cbd 663e 273f 49a5 493e aa97 3fbe
000001a0: 07a7 7c3e 276e 5fbf 7212 fd3d 53ce 32bf
000001b0: eea7 7ebf 9add 253f 287c 71bf 8766 933e
000001c0: e2fe 4c3f b2f5 953b 1d40 35bf 1e84 29bd
000001d0: 4994 33bd e82c 113e 5296 59bd acb2 023e
000001e0: aa5d 38bf 571a c5be 1e0b 143f a2b9 f3be
000001f0: ab22 a3be 8045 33bf 0879 51bf 0e52 743e
00000200: e7a1 44bd c8f6 43bf 8452 30bf a317 d83e
00000210: 81cf 57bf aa1f 4f3e 7e20 413f 242e 0c3e
00000220: 359c ce3e 217f 26bf 0e15 7abe 822f 643f
00000230: 31bb 593e 0c93 063f 383d 64bf 6171 043f
00000240: 6839 023e 81f6 b0bd ceba 3b3f 3679 d23b
00000250: 645d de3e ff30 84bf 5cf9 3f3f a69c fa3d
00000260: 5ca1 1cbf 1b2a 443f 2286 703f 7385 5e3f
00000270: f313 f43d c42a 033f eb69 203f 8d43 0f3f
00000280: 2370 49bf 767f 1f3d 404c 7f3e 5393 153f
00000290: 1a30 3abf d619 893c 4395 023f 1e9f 32bf
000002a0: 29c1 4cbf f7e5 4a3f c0ac 39bf abb8 153c
000002b0: 65fe 073f 6b37 e8bd 2d44 4d3f d88c c0be
000002c0: 6b88 a13e 763d 48bf dbd4 f1bd e3ea 543f
000002d0: a964 7d3e e407 14be aafc 1bbf 0e4c a7be
000002e0: b581 45bf d27a cf3e 9f07 14bf d39d 22bd
000002f0: 614e e03e b6a0 ea3c c74a 503f 7b21 8cbc
00000300: 2782 fabd 5f75 b8be 8339 133e a431 163f
00000310: 7489 d63e 42f0 873e 175c 21be 8ad3 df3e
00000320: d5e2 563f caf0 3dbf 21f5 59bf 75cc ae3e
00000330: 7d30 f9bc 0be6 47bf 5ffd 17bf a3c1 5c3e
00000340: 0fbf 4b3f 08ce 7ebd b93f eabe 67a8 4abf
00000350: c09f f8bd 27f4 42bf 3390 11bf 67df 3d3f
00000360: ed7f 7b3d c8e3 7cbc a550 47bf 948a f03d
00000370: a65b ae3d 7a2c 5fbf d625 ad3e 3930 2e3f
00000380: 0120 c93c 21ff 4c3f 0878 12bf 9d02 1b3f
00000390: a206 23bf 3f72 25bf 7687 14bf 8eb3 66bd
000003a0: 5c62 afbd 192b 2b3f a6b5 243e b377 49bf
000003b0: fd90 0abe c405 be3e 883e 763f e133 e9bc
000003c0: 8214 f4be e61f 55bf e217 37bf 9ec5 a2be
000003d0: 3000 3f3f 590f ec3c 9ed8 243f 7a50 843e
000003e0: 08d1 2c3f b639 02bf 4238 9abe 956b 04bf
000003f0: bd68 633f 1d00 473f 7553 32bf 31cf 70bf
-0.735818 -0.49718714 -0.7062917 0.050458644 -0.5643882 -0.43719044 0.51101106 0.7372203
0.0053884126 0.69640297 -0.08145872 -0.26507658 0.34322706 -0.035406157 -0.8470297 -0.8633656
-0.5137166 -0.9566508 0.51398635 -0.9366192 -0.65228456 -0.0011766074 0.05811042 -0.93038744
-0.65831476 -0.04042867 -0.7502865 -0.54556483 -0.6296243 -0.7188527 0.12363091 0.56742656
0.9728852 -0.61262244 0.03804735 -0.83559746 0.379582 -0.012100713 -0.67446476 0.6085994
0.40930274 -0.1575003 0.7575388 -0.19890504 -0.26684886 -0.6830679 0.7021513 0.6015133
-0.7886608 -0.92244244 -0.64633644 -0.8354722 -0.91087085 -0.16675526 -0.01135469 -0.015490557
0.036853537 0.61624664 -0.0007709636 0.25993943 0.061490618 -0.5162937 -0.16818851 0.06651125
0.7185129 -0.5194181 -0.067301415 -0.15552084 0.23748782 0.1252142 -0.96083826 -0.19231983
0.32775027 -0.07146407 -0.18355824 0.6916789 0.08903893 -0.10737404 0.04292439 -0.014888308
0.013039672 0.77330077 -0.03929664 0.3353548 0.7156117 0.02160465 0.6236616 -0.6628546
-0.57735384 0.20698026 0.16968186 -0.66034365 0.092060015 -0.58156586 0.62465686 -0.78057975
0.80594045 -0.5733416 -0.6917738 -0.52644753 -0.06171909 0.6532959 0.19691958 -0.18710199
0.24673091 -0.87277454 0.12357034 -0.69846076 -0.9947499 0.6479126 -0.9433007 0.2878916
0.8007642 0.0045764083 -0.70800954 -0.041385762 -0.043842588 0.14177287 -0.053121872 0.1276347
-0.7201792 -0.38496658 0.57829463 -0.47602564 -0.31862387 -0.70027924 -0.81825304 0.23859426
-0.048005965 -0.76548433 -0.6887591 0.42205533 -0.84301 0.20226923 0.75440204 0.13689476
0.40353552 -0.65037733 -0.24422094 0.8913499 0.21262814 0.52568126 -0.8915591 0.517355
0.12717211 -0.08640767 0.73331916 0.006423141 0.43430626 -1.0327452 0.7498987 0.122369096
-0.61183715 0.7662675 0.9395467 0.8692238 0.119178675 0.5123713 0.6266162 0.5596245
-0.7868673 0.038939916 0.24931431 0.58427924 -0.7272965 0.016735952 0.51009005 -0.69774044
-0.7998224 0.7925715 -0.7252922 0.009138267 0.5312255 -0.11338695 0.80182153 -0.37607455
0.3154939 -0.7821878 -0.11808177 0.8317091 0.2474543 -0.14456135 -0.6093241 -0.32675213
-0.7715104 0.40523392 -0.5782413 -0.039701294 0.43809798 0.028641086 0.813641 -0.017105808
-0.12231856 -0.36027047 0.14377408 0.58669496 0.41901743 0.2655049 -0.15757786 0.4371608
0.8393987 -0.7419554 -0.8513966 0.34140363 -0.030418629 -0.7808539 -0.5937099 0.21558242
0.7958841 -0.062208205 -0.45751742 -0.7916321 -0.12139845 -0.76153797 -0.56860656 0.7416901
0.061401296 -0.015435167 -0.7785743 0.11745182 0.08513574 -0.8717724 0.3381793 0.6804233
0.024551393 0.80076796 -0.57214403 0.6055086 -0.63681996 -0.6462745 -0.58019197 -0.05632358
-0.085636824 0.66862637 0.16084918 -0.7869827 -0.13531871 0.37113774 0.96189165 -0.02846712
-0.47671896 -0.832518 -0.7152082 -0.31791395 0.7460966 0.028815912 0.6439303 0.2584265
0.67506456 -0.5086931 -0.30121046 -0.5172666 0.8883169 0.7773455 -0.69658595 -0.9406615

linear3.weight f4 [1, 256]
00000000: dc29 7cbe ecba 1ebd 7458 dbbe 29c3 393f
00000010: cab1 13bd 08ba c8bd 52d0 393e 14c8 4b3f
00000020: 6211 c83b 2f67 593e b787 0dbb 8098 f03c
00000030: 0169 5b3f 9e9f 6cba eb95 3dbf 25ed 903d
00000040: 1a3d ad3d 2d3d 4b3e 8e04 85bc d908 92bf
00000050: 6d25 8fbc bcb3 e7ba 1045 f3bd 6545 c03d
00000060: e125 3ebe 39e2 86bb 55b7 25bf 535a 1abe
00000070: a1ef abbd fb74 773d d1a3 163f edaf fe3e
00000080: 45ca 023f 091d 1c3e 1843 333f c40a 6abe
00000090: 7418 a93f cb3e 903e 72d2 acbd e05c 593e
000000a0: 0685 9d3a 14a4 f3ba 0f25 b23d 9969 acbe
000000b0: 6ea2 cfbc 3a4b d63d 3047 2d3e 56e3 053f
000000c0: fe7b 34be 2d6c 243e aa4c 13be bc80 53bd
000000d0: 174a 9cbf 5a10 1f3f 862c 013a 7f93 c338
000000e0: 14fe 45bc 25ee ac3f b33d ce3b a7ba a33e
000000f0: 033e e03d cd7a 4abe 6a06 fbbc 20b1 693a
00000100: 1987 af3e 895f 2ebe 0c80 9bbb 3314 10be
00000110: 32da 143f ecbe 933e cd2e 66be 7b29 85bd
00000120: fd9a 563f 9c79 e93e 97e9 a9bd 132b c23e
00000130: 8cc2 723e bc7c 033b 91e8 953c 1ae6 a1b9
00000140: 1028 b1bc dbff a83f fe58 89bb 3447 983f
00000150: 744b b9bd 15e5 d1bd 9c1f 713f 1681 47be
00000160: 454b a43c b080 bb3e 2cb1 d93e f6e4 8f3d
00000170: 7160 873e dd6b 1a3d 32e1 353e bc74 8ebe
00000180: 3e80 a43e 4eab 153e ff63 083d 31ac 763d
00000190: 92de 77b9 7003 583e 991d 8d3f 0c41 783d
000001a0: 1415 8e3f c9c5 d5be f493 c6bd e5ac babe
000001b0: 6929 373e 64de 4a3e c7b3 30bf f226 083f
000001c0: a33b 00be 44de 25be 8121 02be d5b4 9dbd
000001d0: b3b7 c1bc 9b16 fa3e d708 c63d 5fd3 513c
000001e0: 785d 173e 82a7 803d 1dca cd3d 41e9 d0be
000001f0: fed0 083b c257 07be 46f7 5abf 2094 e93d
00000200: 4899 173e e4b2 65bf 9f23 17bc 229a 463e
00000210: 8298 4bbf 83e6 1abd 534d 293f cd46 093f
00000220: 846f 0a3f 9f7c f13c 749c 17ba 3c43 093f
00000230: fe3e 903d 093b 0a3e 6bc1 8bbf 4663 343e
00000240: c11d af3d 7d62 f6bd 5be3 2a3e 2513 4a3b
00000250: 751e 563f 1c71 59bf f0f5 4cbd ca61 ccbb
00000260: e1df 17be 5593 b03e 887b 653f 4311 5e3e
00000270: e0e1 1dbf dc43 493e 649f 193f 6897 b43d
00000280: 557e 0bbf a884 0dba 3633 1bbf 99b2 323e
00000290: e511 59bf 89d9 063b 471e f53c 7fae 543d
000002a0: ff76 60bd 740c f93e 7a0c b93d 6c9a 723e
000002b0: 4019 60bd 90c6 6dbb fdb5 703e 765e f53a
000002c0: 3847 7c3f 08ab 90bd fadb 923e 5269 fa3e
000002d0: 3d48 9e3d de81 f4ba 6b98 2abd 0831 59bd
000002e0: a386 2ebe 1539 8f3f 04da c23a 6750 693b
000002f0: bfc3 dc3e ae26 24b9 291b 4e3f 26f3 8fba
00000300: 59b7 1d3d 4165 0ebe f34d 283f d8cf 853e
00000310: 12fb da3d 1c61 923d 380c 15bd 8549 b13d
00000320: 1a77 4e3f 1420 e73d 2811 5ebf da6e 6e3f
00000330: 2cd3 343f 85f5 0dbf c216 28be c0c2 70bd
00000340: ae3b 2e3e 9c13 8bbb 030a 233d eba6 473e
00000350: d5fe a5bd 9c59 77be ec65 47bd 3fec 213e
00000360: 4cba 5d3d 48f5 893d 9c81 3a3e 4345 ce3e
00000370: 1592 bfbe 6690 1ebf a411 683e ed7f c9bd
00000380: d079 c83d 9dbb 84be 2839 a9ba 4cfe f23d
00000390: 968a 07be 3147 dc3d 100f f0be da02 293d
000003a0: 80c1 6339 1b1a a33d 9bf7 e73e fc06 08be
000003b0: 38db bdb9 9b93 0a3f 39ba 933f 1ff7 41bd
000003c0: 95c0 99bd 3ca7 3fbd 673f 61be c7fb 0d3d
000003d0: 8727 5f3e 4c12 f33b 413b 1cbe b16f a13e
000003e0: 0e35 503e aa50 6f3d 689c 0f3d 245c dc3d
000003f0: 822a 183f 59e2 c33d 95af 1dbe 98bc 81bf
-0.24625343 -0.03875248 -0.42840922 0.72563416 -0.036058225 -0.09801108 0.18145874 0.7960217
0.006105588 0.21230768 -0.0021595785 0.029369593 0.857071 -0.00090264704 -0.7405688 0.07076482
0.0845892 0.19847555 -0.016237523 -1.140895 -0.0174739 -0.0017677466 -0.11878407 0.09388236
-0.18569137 -0.0041163233 -0.6473287 -0.15073518 -0.08395315 0.060414296 0.58843714 0.49743596
0.5108989 0.15245451 0.7002425 -0.2285567 1.3210588 0.28172907 -0.08438577 0.21226835
0.0012017793 -0.0018588328 0.086984746 -0.33674315 -0.025346007 0.10463567 0.16921687 0.5230001
-0.17625424 0.16056891 -0.14384714 -0.051636443 -1.221011 0.62134326 0.0004927594 9.325798e-05
-0.012084503 1.3510176 0.006293976 0.31978342 0.10949328 -0.19773407 -0.030642707 0.00089146383
0.3428276 -0.17028631 -0.004745489 -0.14070205 0.5814544 0.288566 -0.2247879 -0.065020524
0.83830243 0.45600593 -0.08296507 0.37923488 0.23707026 0.002006336 0.018299373 -0.00030879752
-0.021625549 1.3203081 -0.004191517 1.189673 -0.09047595 -0.10248772 0.9418886 -0.19482836
0.020055423 0.36621618 0.42517984 0.07026093 0.26440766 0.037700523 0.17761686 -0.27823436
0.3212909 0.14616129 0.03329849 0.06022281 -0.0002363867 0.21095061 1.1024657 0.06060891
1.1100183 -0.4175246 -0.096961886 -0.36460033 0.1788689 0.19811398 -0.6902432 0.53184426
-0.1252275 -0.16198069 -0.12708093 -0.077005066 -0.023647165 0.48845372 0.09669655 0.012806742
0.14781749 0.062819496 0.10048316 -0.4080296 0.0020876522 -0.1321707 -0.8553356 0.11405206
0.14804566 -0.8972609 -0.009224801 0.19394735 -0.79529583 -0.03781749 0.6613361 0.5362366
0.5407641 0.02947837 -0.0005783506 0.53618217 0.07043265 0.13499083 -1.0918401 0.17615995
0.08550597 -0.12030504 0.16688292 0.0030834165 0.83640224 -0.84938216 -0.05003923 -0.0062372433
-0.14831497 0.34487405 0.8964162 0.21686272 -0.6167278 0.19654793 0.60008836 0.08817941
-0.5448964 -0.00053984905 -0.60625017 0.17450942 -0.8479293 0.0020576438 0.029921664 0.051924225
-0.054800984 0.48642313 0.09035583 0.2369172 -0.05471158 -0.0036281683 0.23506923 0.0018720168
0.9854617 -0.070638716 0.28683454 0.48908478 0.07728622 -0.0018654426 -0.041649263 -0.053025275
-0.17043547 1.1189295 0.0014865999 0.0035600902 0.43118092 -0.00015654668 0.80510193 -0.0010982498
0.038504932 -0.13905813 0.6574394 0.26135135 0.10692419 0.071474284 -0.036388606 0.08656601
0.80650485 0.11285415 -0.8674493 0.93137896 0.7063472 -0.5545276 -0.16414931 -0.058779478
0.17014953 -0.004244281 0.03980447 0.19497268 -0.08105246 -0.24155277 -0.048681185 0.15812777
0.054132745 0.06736237 0.18213505 0.40287217 -0.3741614 -0.61939085 0.2266298 -0.09838853
0.09788859 -0.25924388 -0.0012910711 0.118649095 -0.1323646 0.10755766 -0.46886492 0.041262485
0.00021720491 0.079639636 0.45306095 -0.13283914 -0.0003621222 0.5413148 1.1541206 -0.047354814
-0.07507435 -0.046790347 -0.21996842 0.03466394 0.21792422 0.0074179526 -0.15256979 0.31530526
0.20332739 0.058426537 0.03506127 0.10759762 0.5943986 0.09564657 -0.1539901 -1.0135679
