outputs/Optimal_Control/20220324-205644/models/checkpoint.pt (torch, 533487 bytes, 7 tensors)

linear1.weight f4 [256, 2]
0	0xbd5f81c6	-0.05456712
1	0x3edee306	0.4353258
2	0x3e1bc843	0.15213113
3	0x3e49e743	0.19717126
4	0x3e2acb67	0.16679154
5	0xbe5d7777	-0.21627603
6	0xbeb7fa73	-0.35933265
7	0xbd779c90	-0.060452044
8	0x3ed470d1	0.41492322
9	0x3ed5ffd0	0.41796732
10	0x3f22b8c0	0.63563156
11	0xbf2d0acb	-0.67594594
12	0xbde75028	-0.112945855
13	0xbf2b5f2b	-0.6694209
14	0x3f14d7ef	0.5814199
15	0xbb8f36d3	-0.004370549
16	0xbcb4dea0	-0.022078812
17	0xbe8c5985	-0.27412048
18	0x3e88f24e	0.26747364
19	0xbf32f523	-0.699053
20	0x3f1e69e7	0.61880344
21	0x3e8764c6	0.26444072
22	0x3f0fa23b	0.5610692
23	0x3da19d6d	0.07891355
24	0xbe7f5044	-0.24932963
25	0xbe7ba53a	-0.24574748
26	0x3f12f06c	0.57398105
27	0xbe0628ef	-0.13101552
28	0x3e71621b	0.2357258
29	0x3ef2c501	0.47415927
30	0x3deee688	0.11665064
31	0x3e28fe40	0.16503239
32	0x3e6ba3a2	0.2301164
33	0x3f16f5ae	0.5896863
34	0x3e5589e4	0.20853382
35	0xbf10adc9	-0.56515175
36	0x3f2dd6b0	0.6790571
37	0xbea72626	-0.32646292
38	0xbf232151	-0.6372271
39	0x3e5edeac	0.2176463
40	0x3dd1bd4b	0.10241183
41	0x3ee72109	0.4514239
42	0xbee5a88c	-0.44855154
43	0xbd93c408	-0.07215124
44	0x3ef00209	0.46876553
45	0x3eb80eb5	0.3594872
46	0x3c0e4357	0.008683047
47	0xbe57366c	-0.21016854
48	0x3efa5ba8	0.48898053
49	0x3eefa212	0.46803337
50	0xbe0bc539	-0.13649453
51	0x3ea7d409	0.32778957
52	0xbea5da20	-0.3239298
53	0xbd883dd0	-0.06652415
54	0xbf118d43	-0.56856173
55	0xbeb077b4	-0.34466326
56	0x3e443748	0.19161713
57	0xbda935ed	-0.08262239
58	0x3e8f69d3	0.28010425
59	0x3f049227	0.5178551
60	0xbe78005e	-0.2421889
61	0x3e8dadae	0.2767157
62	0x3db6e01c	0.08929464
63	0x3f366405	0.7124637
64	0x3ef5473d	0.47905913
65	0x3e9cffd0	0.3066392
66	0x3d9b5c70	0.075859904
67	0x3ef149fb	0.47126755
68	0x3e821361	0.2540541
69	0xbf24c82e	-0.6436795
70	0x3eebf82c	0.46087778
71	0x3ee4ff20	0.44725895
72	0x3e0559ff	0.13022612
73	0x3ea72ab6	0.32649773
74	0x3e9472e1	0.28993896
75	0x3f238001	0.63867193
76	0x3e27d525	0.16389902
77	0xbe174608	-0.14772809
78	0xbf004da6	-0.5011848
79	0xbeb64f39	-0.35607317
80	0x3f0de18f	0.554223
81	0xbe9d6211	-0.3073888
82	0x3e938626	0.28813285
83	0xbf2e1624	-0.68002534
84	0x3e7bb387	0.24580203
85	0xbf19bf4d	-0.60057527
86	0x3f071136	0.52760637
87	0x3ed7460e	0.42045635
88	0x3ea50e3a	0.32237417
89	0xbf185a2b	-0.59512585
90	0x3daf87f3	0.08570852
91	0xbec5414e	-0.38526386
92	0xbf198b19	-0.5997787
93	0x3eff442a	0.49856693
94	0x3d31513c	0.04329036
95	0xbf13c528	-0.5772271
96	0xbe4d8638	-0.20070732
97	0xbea5e4d5	-0.32401147
98	0xbf2205a5	-0.6328986
99	0xbe4cfd84	-0.20018584
100	0x3f1026ad	0.56309015
101	0x3d1884ee	0.037236147
102	0xbf11c747	-0.569447
103	0x3d5a3e90	0.05328232
104	0x3f1c0ee2	0.6096021
105	0xbe6edebf	-0.23327158
106	0x3dc59b0c	0.096487135
107	0xbed60278	-0.41798759
108	0x3e03025f	0.12793873
109	0xbe0dd14d	-0.13849373
110	0x3f07acfe	0.5299834
111	0xbebb4f5f	-0.36583993
112	0xbefd5f18	-0.49486613
113	0x3ea43bca	0.32076865
114	0xbe25a8f8	-0.16177738
115	0xbf2cf6b7	-0.67563957
116	0xbd7cb171	-0.06169266
117	0x3f145762	0.57945836
118	0x3d32057e	0.04346227
119	0xbeff8f30	-0.4991393
120	0x3e630751	0.2217076
121	0x3ea65231	0.32484582
122	0xbf22c637	-0.635837
123	0x3eacf4a6	0.33780402
124	0xbe6cae2f	-0.23113321
125	0x3f1ca9c2	0.6119653
126	0xbf06f827	-0.527224
127	0xbe765510	-0.24055886
128	0x3e3390aa	0.17535654
129	0x3ece3242	0.4027272
130	0x3eca75f8	0.39543128
131	0xbcfcba11	-0.030850442
132	0x3f232130	0.63722515
133	0xbe02f053	-0.12786989
134	0x3e7a9caa	0.24473825
135	0x3e9f72cd	0.31142274
136	0xbf2cce49	-0.67502266
137	0xbee6058b	-0.44926104
138	0x3ee05a62	0.43818957
139	0x3e51b4fc	0.20479196
140	0xbd2820d0	-0.041046917
141	0xbe61d490	-0.22053742
142	0x3e440772	0.19143465
143	0xbecfdb64	-0.4059707
144	0x3ef860c5	0.4851133
145	0xbef18c28	-0.47177243
146	0x3e841993	0.25800762
147	0x3eb4b832	0.3529678
148	0x3e44a270	0.1920259
149	0x3e2af335	0.16694339
150	0xbeadda9b	-0.33955845
151	0xbd07d340	-0.033160448
152	0x3f09f3b9	0.53887516
153	0xbeba9160	-0.36439037
154	0x3d8f7535	0.07004777
155	0xbe36731b	-0.17817347
156	0xbeada327	-0.33913538
157	0xbcd41f00	-0.025893688
158	0xbf187590	-0.59554386
159	0x3f215f96	0.6303648
160	0xbf0dc38e	-0.5537652
161	0x3d8847e8	0.0665434
162	0x3ebe64e0	0.37186337
163	0xbec44b9c	-0.38338935
164	0xbd45d3a5	-0.048297543
165	0x3eca5acf	0.39522406
166	0xbdff89f0	-0.12477481
167	0xbe76e3fc	-0.24110407
168	0x3eec729a	0.46181184
169	0xbf011b1f	-0.5043201
170	0x3f18e750	0.59727955
171	0x3f1a3dd4	0.6025059
172	0xbe9262ec	-0.28591096
173	0x3ec8f7a6	0.3925144
174	0xbef018fe	-0.46894068
175	0xbf185a9b	-0.5951325
176	0x3eff0184	0.49805844
177	0xbd7e81d5	-0.062135536
178	0xbe5cb83e	-0.21554658
179	0x3e224440	0.15846348
180	0x3c641b67	0.013922549
181	0xbf09c76a	-0.53819907
182	0xbef749d8	-0.48298526
183	0xbea0985c	-0.3136624
184	0xbf071d03	-0.52778643
185	0x3e9f42ca	0.31105644
186	0x3e6bac3e	0.23014924
187	0x3c607799	0.013700389
188	0x3e88bb62	0.26705462
189	0xbe9f1282	-0.31068808
190	0xbdf2994f	-0.118456475
191	0x3ef5df4c	0.48021924
192	0xbea4a00d	-0.3215336
193	0x3ea205c6	0.3164503
194	0x3e623207	0.22089396
195	0xbed94205	-0.4243318
196	0xbf20fad4	-0.62882733
197	0x3ebeeb82	0.37289053
198	0xbf2647a0	-0.6495304
199	0x3e97f556	0.29679364
200	0xbeafc40e	-0.34329265
201	0x3dbebc40	0.093132496
202	0xbf029220	-0.5100422
203	0xbc9f7c00	-0.019468307
204	0x3ef83754	0.48479712
205	0xbe52c455	-0.20582707
206	0x3e8ce3b9	0.2751749
207	0x3f2090eb	0.6272113
208	0x3d3435bf	0.04399657
209	0xbf1cf699	-0.6131378
210	0xbf34f440	-0.70685196
211	0xbe87ffd7	-0.26562378
212	0xbda9abf8	-0.082847536
213	0xbee032f0	-0.43788862
214	0x3f2ba0ee	0.67042434
215	0xbe0127e4	-0.12612873
216	0x3f2ec5d5	0.6827062
217	0xbe206a21	-0.15665485
218	0xbdfd8ad8	-0.12379998
219	0x3ed06f2e	0.40709823
220	0x3f24ba01	0.6434632
221	0xbeec3ff7	-0.4614255
222	0x3ec0d334	0.37661135
223	0x3f242707	0.6412205
224	0xbf09ed3e	-0.5387763
225	0x3ea56c22	0.3230906
226	0xbd615a58	-0.0550178
227	0x3f04d648	0.5188947
228	0xbe9a9127	-0.30188867
229	0xbec3ceab	-0.38243613
230	0xbf2d4814	-0.6768811
231	0xbe9876f5	-0.29778257
232	0xbf0b9a7f	-0.5453262
233	0x3e822eda	0.2542637
234	0xbeceb73e	-0.40374178
235	0xbedf74d4	-0.4364382
236	0x3f2b0768	0.66808176
237	0xbf0bf559	-0.54671246
238	0x3e167e53	0.14696626
239	0xbe1d5f51	-0.15368392
240	0x3c14a803	0.00907326
241	0xbe4621a8	-0.19348776
242	0xbd01b00d	-0.031662036
243	0x3ee65f5e	0.44994634
244	0xbc5d11c0	-0.013493001
245	0xbf2dd940	-0.6790962
246	0xbe727586	-0.23677644
247	0xbebe7d7a	-0.37205106
248	0x3e50f988	0.20407689
249	0x3f1e2b27	0.61784595
250	0xbf0fe172	-0.5620338
251	0x3c9cd340	0.0191437
252	0xbe234390	-0.15943742
253	0xbf089523	-0.53352565
254	0x3e8dd2e1	0.2769995
255	0xbd8ac592	-0.06775965

linear1.bias f4 [256]
0	0xbebe9292	-0.372212
1	0x3f2a2a36	0.6647066
2	0xbf1f2585	-0.62166625
3	0x3f20fadf	0.628828
4	0x3f248c3a	0.6427647
5	0x3e657921	0.22409488
6	0x3ea310a2	0.31848627
7	0xbef86c86	-0.48520297
8	0xbeeed7aa	-0.46648914
9	0xbf1712a2	-0.59012806
10	0xbede9ace	-0.43477482
11	0x3e829f28	0.25512052
12	0x3ee93a2a	0.45552188
13	0xbb5077ba	-0.0031809644
14	0xbdd3474f	-0.103163354
15	0xb9ae446f	-0.00033238853
16	0xbedbfcb7	-0.42966244
17	0xbed6119c	-0.4181031
18	0xbf04b4f6	-0.51838624
19	0xbf0d1675	-0.5511239
20	0x3e847ca2	0.25876337
21	0x3f1385eb	0.5762622
22	0xbe8da885	-0.27667633
23	0x3f2d7752	0.67760193
24	0x3f17a8d7	0.59242004
25	0x3e44df24	0.19225746
26	0x3f1fa3d1	0.6235934
27	0x3eb19dee	0.34690803
28	0xbf145a6b	-0.57950467
29	0x3f2c63fb	0.6734006
30	0xbee0b6bb	-0.43889412
31	0x3e9c2038	0.3049333
32	0xbe23d0e7	-0.15997659
33	0xbf301caf	-0.6879377
34	0xbe961346	-0.2931158
35	0x3ea5e835	0.32403722
36	0x3f066757	0.52501434
37	0x3f36c5a7	0.71395344
38	0x3e9df750	0.30852747
39	0xbeaf5151	-0.34241727
40	0xbcb8917b	-0.022530308
41	0xbecf1585	-0.40446106
42	0x3e8ac1ed	0.2710108
43	0x3edce5c9	0.43144062
44	0xbf22aaab	-0.6354167
45	0x3f0c5ab8	0.54825926
46	0xbee9f84c	-0.45697248
47	0x3edd277f	0.43194196
48	0x3dbe87c8	0.09303242
49	0x3f1b215b	0.6059777
50	0x3f19a7cc	0.6002166
51	0xbf341bfb	-0.70355195
52	0x3de3058b	0.110850416
53	0x3e11e6c1	0.14248182
54	0x3f135af4	0.5756066
55	0x3ee3e854	0.4451319
56	0xbf0708fe	-0.52748096
57	0xbf283470	-0.65705013
58	0xbee479de	-0.44624227
59	0xbdb3c037	-0.087768964
60	0x3f0086f0	0.502059
61	0x3ec7c0b6	0.39014214
62	0xbdcd537c	-0.10025689
63	0xbec641a9	-0.3872197
64	0xbf323a4e	-0.69620216
65	0x3e90d003	0.282837
66	0x3e75b1fa	0.23993674
67	0x3e929a6e	0.28633446
68	0xbf275b39	-0.6537357
69	0x3ecd85b8	0.40141082
70	0xbe482074	-0.1954363
71	0x3d39a5a7	0.045323994
72	0x3ef794b3	0.48355636
73	0x3e2e046c	0.16993874
74	0x3ea3b9dd	0.3197774
75	0x3dc27ff8	0.09497064
76	0x3f187123	0.5954763
77	0x3e98e70e	0.2986378
78	0x3e0e9f98	0.13928068
79	0x3eecb48f	0.46231505
80	0x3d1f85a0	0.038945794
81	0xbea1e590	-0.31620455
82	0x3dfc0455	0.12305514
83	0x3f084393	0.5322811
84	0x3e3029f0	0.17203498
85	0x3ebb2627	0.36552545
86	0x3f00b9c4	0.50283456
87	0x3f00553b	0.5013005
88	0xbe809845	-0.25116172
89	0x3c9c0d00	0.019049168
90	0xbed326db	-0.41240582
91	0xbf05487e	-0.5206374
92	0x3ef2f60e	0.4745335
93	0x3c114212	0.00886585
94	0xbeede74f	-0.46465537
95	0x3f1772b2	0.59159386
96	0xbeca2a2f	-0.3948531
97	0x3ea39173	0.31946906
98	0x3eaabf12	0.333489
99	0xbe1e07b4	-0.15432626
100	0xbe4eda4c	-0.20200461
101	0x3e74bb5c	0.23899597
102	0xbdedcbca	-0.11611135
103	0xbf16c77e	-0.5889815
104	0xbebd9eb0	-0.3703513
105	0xbf1e1b07	-0.6175999
106	0xbf017362	-0.50566685
107	0xbdbb1bd8	-0.0913617
108	0x3b970e6f	0.004609875
109	0xbf1bcf16	-0.60862863
110	0x3eabfc6b	0.33591017
111	0xbf227a65	-0.6346801
112	0x3d6d5640	0.057943583
113	0xbf2b13d6	-0.6682714
114	0xbf022397	-0.50835556
115	0x3ec38056	0.3818385
116	0xbd9b5280	-0.07584095
117	0x3ea45cf6	0.32102174
118	0xbd599df7	-0.053129163
119	0x3e20a3d2	0.15687492
120	0x3e60cd30	0.21953273
121	0xbe7b6a83	-0.2455235
122	0x3e38dce4	0.18053013
123	0xbf2eaaa0	-0.68229103
124	0x3f2f91b7	0.6858172
125	0x3ee7cb02	0.4527207
126	0x3e846154	0.25855505
127	0xbf21cd8a	-0.6320425
128	0x3e9761ea	0.2956689
129	0x3d6036b5	0.054739673
130	0xbdbae8fc	-0.091264695
131	0xbf144e6e	-0.57932174
132	0x3ee5942a	0.44839603
133	0xbe7fc18e	-0.24976179
134	0xbf1d9069	-0.6154848
135	0xbdd76aae	-0.105183944
136	0x3d7b57d0	0.06136304
137	0x3eff10f7	0.4981763
138	0x3e1db72c	0.15401906
139	0x3f2b95af	0.67025274
140	0x3eefb46e	0.46817344
141	0xbf339cdb	-0.7016122
142	0xbee22c26	-0.44174308
143	0x3f0403a7	0.51568073
144	0x3e3f127b	0.18659393
145	0x3ee67cee	0.4501719
146	0x3f19dc34	0.6010163
147	0xbc91975c	-0.01777237
148	0xbea8634a	-0.32888252
149	0x3e0787f8	0.13235462
150	0xbe0380ef	-0.12842153
151	0xbdc59008	-0.096466124
152	0x3ed7730a	0.42079955
153	0x3ed17c5d	0.40915194
154	0xbd27be20	-0.0409528
155	0xbe576dd2	-0.21037987
156	0xbec76e01	-0.38951114
157	0xbeb4d70b	-0.35320315
158	0xbeacd579	-0.33756617
159	0xbd7ea243	-0.062166464
160	0xbf1ec74b	-0.62022847
161	0xbd9048c0	-0.07045126
162	0xbee4bf17	-0.4467704
163	0xbd53d730	-0.05171889
164	0x3ed78a4a	0.42097694
165	0xbeea4d24	-0.4576198
166	0x3e98f3fa	0.2987364
167	0x3f171b2e	0.5902585
168	0x3e5362a6	0.206431
169	0x3c1c8d10	0.009555116
170	0x3effd48a	0.49966842
171	0x3ea3f614	0.3202368
172	0x3f204f75	0.6262124
173	0xbe1de7e0	-0.15420485
174	0xbf2b0e13	-0.6681835
175	0xbea8fab1	-0.33003762
176	0xbe186dd0	-0.1488564
177	0x3d9d2508	0.07673079
178	0xbf0e8198	-0.55666494
179	0xbf042fe3	-0.5163557
180	0x3f30c90c	0.69056773
181	0xbe967faa	-0.29394275
182	0x3ebf8594	0.374066
183	0x3edcfc5a	0.4316128
184	0xbe73f90a	-0.2382547
185	0xbe58b756	-0.21163687
186	0x3db654e8	0.08902913
187	0xbf1c604f	-0.61084455
188	0xbe93c026	-0.28857535
189	0x3cf6938f	0.030099658
190	0x3e789bde	0.24278209
191	0x3e85bc18	0.26120067
192	0xbf1a5ab6	-0.60294664
193	0xbe22582d	-0.15853949
194	0x3ee41d01	0.44553378
195	0xbeca25ae	-0.39481872
196	0xbf337392	-0.7009822
197	0xbee32d93	-0.44370708
198	0x3e9e908e	0.3096966
199	0x3ee9ccf6	0.45664185
200	0x3f0674a5	0.52521735
201	0xbf283840	-0.6571083
202	0xbf11810f	-0.5683755
203	0x3eb155b5	0.34635702
204	0xbe92be73	-0.28660926
205	0x3ef84582	0.4849053
206	0x3d5dc458	0.054142326
207	0xbf1d0d44	-0.61348367
208	0x3e97848e	0.2959332
209	0xbc7bab4f	-0.015360667
210	0xbe85aac3	-0.26106843
211	0x3ee849e2	0.45368868
212	0xbf1a35ec	-0.6023853
213	0x3ebbca4e	0.36677784
214	0xbf11b490	-0.5691614
215	0xbe9f7c80	-0.31149673
216	0x3d525ec0	0.051359892
217	0xbe5efdaa	-0.21776453
218	0xbdfcc602	-0.123424545
219	0xbf32b038	-0.6980014
220	0x3ebaf68b	0.36516222
221	0xbd8742b0	-0.066045165
222	0x3e489d03	0.19591145
223	0x3dcb5178	0.09927648
224	0xbf318162	-0.6933805
225	0xbe9958e9	-0.29950646
226	0xbf05307c	-0.52027106
227	0xbe52301b	-0.20526163
228	0x3dcbe89b	0.09956475
229	0xbe2328f8	-0.15933597
230	0xbc40e840	-0.011774123
231	0x3e974066	0.2954132
232	0x3e6e016d	0.23242731
233	0xbd198b6a	-0.03748647
234	0xbeed099a	-0.46296388
235	0xbefeea83	-0.49788293
236	0xbea1e804	-0.31622326
237	0xbef35c12	-0.47531182
238	0xbdd5e0e8	-0.10443288
239	0xbe83ac18	-0.25717235
240	0x3eb01a66	0.3439514
241	0x3f2d9e67	0.6781983
242	0xbf165815	-0.5872815
243	0xbef20e2e	-0.47276443
244	0xbdb912fc	-0.09036824
245	0x3d1cd47b	0.038288575
246	0x3eda4a6e	0.4263491
247	0xbe097af9	-0.13425817
248	0x3eaa8fb2	0.33312756
249	0xbf06890c	-0.52552867
250	0xbd65179b	-0.055930715
251	0x3e0a32a3	0.13495879
252	0xbecf9444	-0.40542805
253	0x3eea3af0	0.4574809
254	0x3dfd6681	0.12373067
255	0x3e1d515f	0.15363072

linear2.weight f4 [256, 256]
0	0xbbe728f9	-0.007054445
1	0xbc8815cc	-0.016611956
2	0xbd49c8d6	-0.049263798
3	0xbd5ba2d6	-0.05362209
4	0xbd593f3a	-0.053038813
5	0xbd3ccd9b	-0.04609452
6	0xb9c10f00	-0.00036823004
7	0x3d6aac21	0.05729306
8	0xbd66786e	-0.056267194
9	0xbad56411	-0.0016280432
10	0xbca14c20	-0.01968962
11	0xbcbbb94e	-0.022915509
12	0x3d7e2a7c	0.062052235
13	0xbd6a5ce7	-0.057217505
14	0xbc6d749d	-0.014493135
15	0xbd72c8f4	-0.059273675
16	0xbd2c888e	-0.042122416
17	0xbcb605da	-0.022219587
18	0xbd2fe31f	-0.04294121
19	0xbd66baa6	-0.056330346
20	0xbb04e652	-0.0020278883
21	0x3a9e6c80	0.0012086779
22	0x3d5fc7b7	0.054633822
23	0x3c9d788d	0.019222522
24	0xbb5907dd	-0.003311626
25	0x3c815fb4	0.015792705
26	0xbd292594	-0.041295603
27	0x3d32a0b0	0.043610275
28	0x3cb5b722	0.022182051
29	0x3d31acb7	0.043377604
30	0xbd48afb0	-0.048995674
31	0xbd419022	-0.047256596
32	0xbc1320c1	-0.008979977
33	0xbc56edca	-0.013118217
34	0x3ceb9699	0.028758334
35	0xbc9a0382	-0.0188005
36	0xbd35e080	-0.044403553
37	0xbc88bdaa	-0.016692001
38	0x3d3e4f37	0.046462264
39	0xbd7c321c	-0.061571226
40	0x3bf69d0b	0.007526045
41	0xbc758b6d	-0.014986855
42	0xbd526225	-0.05136313
43	0xbc4d8920	-0.0125449
44	0x3c8c8de0	0.017157495
45	0x3cfa2d02	0.03053904
46	0xbc3e6e00	-0.011622906
47	0xbb3b13e1	-0.0028545784
48	0x3c800e54	0.015631832
49	0x3b0febe0	0.002196066
50	0x3cb44315	0.022004643
51	0x3ce8bb88	0.028409734
52	0xbcef5933	-0.029217338
53	0xbc4f05c7	-0.012635655
54	0x3d567fc8	0.052367955
55	0x3d4eb578	0.05046603
56	0x3c64ec40	0.013972342
57	0xbcd1deec	-0.025618993
58	0xbc5ee775	-0.013604988
59	0xbd25db2c	-0.04049222
60	0x3d495383	0.04915191
61	0xbd15413a	-0.036439158
62	0xbd3d5246	-0.04622104
63	0x3ca056bc	0.019572608
64	0x3d331fe5	0.04373159
65	0x3d6debf8	0.058086365
66	0x3d615b0a	0.055018462
67	0x3c4c9626	0.01248697
68	0x3d73a924	0.059487477
69	0x3d190063	0.037353884
70	0x3cea852c	0.028627954
71	0x3d4bad05	0.04972555
72	0x3a6c1835	0.00090062927
73	0xbc854e9a	-0.016272832
74	0x3d536f6b	0.05161993
75	0xbd2505e2	-0.040288813
76	0xbd7ae150	-0.06125003
77	0xbc583e25	-0.01319841
78	0xbd39164c	-0.04518728
79	0xbd3bd538	-0.045857638
80	0xbb635ee0	-0.0034694
81	0xbbaddf4c	-0.00530616
82	0x3cfc950a	0.030832786
83	0x3d66f19e	0.056382768
84	0x3d76810a	0.060181655
85	0xba380369	-0.0007019551
86	0x3c3d4158	0.011551224
87	0xbd3c8dac	-0.046033546
88	0x3d250954	0.0402921
89	0xbc7bf270	-0.015377626
90	0xbce10d9c	-0.02747231
91	0x3c32dd70	0.010917053
92	0x3d738f32	0.059462734
93	0xbc3a7eab	-0.011382739
94	0x3cf83b47	0.030301703
95	0xbb94fea0	-0.004546955
96	0xbcfbf8c8	-0.030758277
97	0x3cd1e58a	0.025622148
98	0xbd36ffd4	-0.04467757
99	0xbba32020	-0.004978195
100	0xbd51d4bc	-0.05122827
101	0x3c0c2410	0.00855352
102	0x3d424570	0.047429502
103	0x3ce10fbf	0.027473329
104	0x3d2e861e	0.042608373
105	0xbd22d51a	-0.03975401
106	0xbba4ce70	-0.005029492
107	0xbd0fceeb	-0.03510944
108	0x3cfc4870	0.03079626
109	0xbd69837c	-0.05701016
110	0x3b9b1572	0.004732781
111	0xbbf1440c	-0.007362848
112	0xbca454d0	-0.020059973
113	0x3d2a0c64	0.041515723
114	0x3d1fefb2	0.03904695
115	0xbcb5602c	-0.022140585
116	0x3d4026b4	0.04691191
117	0x3bff3330	0.0077880844
118	0xbcc10903	-0.023563867
119	0x3d673b2c	0.056452915
120	0x3c130167	0.008972502
121	0xbcce9e60	-0.025222003
122	0x3d0a8376	0.033816777
123	0x3d5d10f2	0.05397124
124	0x3ca48e32	0.020087335
125	0x3aa4cb00	0.0012572706
126	0xbcf95388	-0.030435339
127	0x3bce77c8	0.0063009
128	0xbd171232	-0.036882587
129	0x3cf620a3	0.03004486
130	0xbcdf8b98	-0.027288243
131	0x3b0deebe	0.0021657194
132	0xbce14c58	-0.027502224
133	0x3c38d2e8	0.011280753
134	0x3d4584cc	0.048222348
135	0xbd621174	-0.055192426
136	0x3d1daf46	0.038497232
137	0xbbd36f3d	-0.0064524696
138	0x3d736a5a	0.059427597
139	0x3c3f8067	0.011688328
140	0x3cf500f8	0.029907688
141	0xbca7a3ce	-0.02046385
142	0xbce43f1f	-0.02786213
143	0x3cd6120c	0.026131652
144	0x3d186fd5	0.037216026
145	0xbd29f47a	-0.041492917
146	0xbd3b3ad0	-0.045710385
147	0x3c137e20	0.0090022385
148	0x3c821580	0.015879393
149	0xbb54fb20	-0.0032498315
150	0x3d0815d6	0.03322395
151	0xbcf09cc0	-0.02937162
152	0xbd3cc17d	-0.046082962
153	0x3d22a4af	0.039707836
154	0xbd697a54	-0.057001427
155	0xbd362a62	-0.044474013
156	0xbd73f400	-0.05955887
157	0x3d170774	0.036872342
158	0xbb8ae0e0	-0.004238233
159	0xbd5aa14a	-0.053376473
160	0xbd766e06	-0.06016352
161	0x3b3526e0	0.002764158
162	0x3d2336c0	0.039847136
163	0x3d40b98e	0.04705196
164	0xbcd86790	-0.02641657
165	0xbd359010	-0.04432684
166	0xbd4d9a56	-0.050196014
167	0xbc242838	-0.0100193545
168	0xbc6ad739	-0.01433354
169	0x3cbf4de2	0.023352567
170	0xbac74fc0	-0.0015206262
171	0xbd67e41b	-0.056614023
172	0xbcca8a21	-0.024724068
173	0x3d6b7bf8	0.057491273
174	0x3c486b83	0.012232664
175	0x3d036d02	0.03208638
176	0xbd5f1603	-0.05446435
177	0xbc58ee08	-0.013240345
178	0xbd7ecfc6	-0.062209867
179	0xbd7c550c	-0.061604545
180	0x3cecc2a0	0.028901398
181	0x3c767540	0.015042603
182	0xbc0361d0	-0.008018926
183	0x3d0fe37e	0.035129063
184	0xbd5bee98	-0.053694338
185	0x3c6c9760	0.0144403875
186	0x3d785844	0.06063105
187	0x3d1995e9	0.03749648
188	0xbceccc01	-0.02890587
189	0x3d1ab550	0.03777057
190	0x3d214868	0.039375693
191	0xbce6526d	-0.028115476
192	0x3d3bc559	0.045842502
193	0x3c5ca471	0.01346694
194	0xbd5c548e	-0.053791575
195	0xbd143be4	-0.03618993
196	0x3d32b623	0.04363073
197	0xbd1adc4a	-0.03780774
198	0x3d5d8f6f	0.054091867
199	0xbd2cea21	-0.04221547
200	0x3d3835c4	0.04497315
201	0xbd67c76a	-0.05658666
202	0xbd6739c4	-0.056451574
203	0xbb0f949e	-0.002190865
204	0x3d1bc6fe	0.03803157
205	0x3c86d5e0	0.016459405
206	0xbb78276a	-0.003786529
207	0xbcfe9279	-0.031075703
208	0x3d20b935	0.039239127
209	0xbd037a5f	-0.032099124
210	0x3cb82589	0.022478836
211	0x3d1259da	0.03573022
212	0x3c997960	0.018734634
213	0x3d68366c	0.056692526
214	0x3d346e6c	0.04405062
215	0x3d58c110	0.052918494
216	0x3d62865e	0.055303924
217	0xbcbe0b19	-0.023198651
218	0x3c3601d8	0.011108838
219	0xbd4ca28f	-0.049959715
220	0xbcf8c76f	-0.030368535
221	0x3d4c5540	0.04988599
222	0x3d22af9a	0.039718248
223	0xbd784861	-0.0606159
224	0x3c93f7b0	0.018062443
225	0xbc5967d0	-0.01326938
226	0xbc4a8dc0	-0.012362897
227	0xbb6fbf13	-0.0036582395
228	0x3cf47d2f	0.029844848
229	0xbc2991a8	-0.010349669
230	0x3d117d56	0.03551992
231	0x3d233d7a	0.03985355
232	0x3c43decb	0.011954973
233	0x3d33ec27	0.043926384
234	0x3d6db84f	0.0580371
235	0x3b4e0b40	0.003143981
236	0xbc12f2ea	-0.008969048
237	0xbd7a832a	-0.061160244
238	0xbd1f9848	-0.038963586
239	0x3c0e2ee4	0.008678172
240	0x3d6a3410	0.057178557
241	0x3d283f90	0.041076243
242	0xbc3d8618	-0.011567615
243	0xbd617aa6	-0.055048607
244	0xbd234f4b	-0.03987054
245	0x3985f21d	0.00025548125
246	0xbca59b94	-0.020215787
247	0x3ce19e90	0.027541429
248	0x3d10ec44	0.03538157
249	0xbd6bf5d8	-0.0576075
250	0xbd7483d0	-0.05969602
251	0xbcb55145	-0.022133479
252	0x3cfe6048	0.03105177
253	0x3cd371b8	0.025811061
254	0xbcb426fd	-0.021991247
255	0xbcca466b	-0.024691781

linear2.bias f4 [256]
0	0x3d24d78b	0.04024462
1	0x3cd02816	0.02540974
2	0xbd4e22da	-0.050326206
3	0xbd4163a4	-0.047214165
4	0xbcf33b35	-0.029691318
5	0xbd419710	-0.047263205
6	0xbc1dae7f	-0.009624123
7	0xbc8194e0	-0.01581806
8	0x3ce376f4	0.027766682
9	0xbcd8a200	-0.026444435
10	0x3d2c56a0	0.0420748
11	0xbd327828	-0.04357162
12	0x3bdb9480	0.006701052
13	0x3cd9c317	0.026582284
14	0x3d4ea540	0.050450563
15	0xb9064be1	-0.00012807503
16	0xbd222d7a	-0.03959415
17	0x3d00d6e6	0.031454943
18	0x3c39fc89	0.011351713
19	0xbca305c6	-0.019900214
20	0x3d6e8c0e	0.058239035
21	0x3cab2b5c	0.020894699
22	0xbada8fc0	-0.0016674921
23	0x3d70052a	0.058598675
24	0x3c4e48f5	0.0125906365
25	0xbd1ee59a	-0.038793184
26	0xbd1a1161	-0.03761423
27	0xbd0fa506	-0.035069488
28	0xbd04eea0	-0.032454133
29	0x3d6c1abf	0.057642695
30	0x3b28ed17	0.0025776082
31	0xbc45fd18	-0.012084268
32	0xbd7d8710	-0.061896384
33	0xbd3671f8	-0.044542283
34	0x3cddc83e	0.027073022
35	0x3cc55140	0.024086595
36	0x3cbbbfd4	0.02291862
37	0xbd5beaee	-0.053690843
38	0xbd0b1e50	-0.033964455
39	0xbd390b9d	-0.04517709
40	0x3c768ab6	0.01504772
41	0x3d216c12	0.039409705
42	0xbd1d813a	-0.03845332
43	0xbcc98b53	-0.024602568
44	0xbc9c4db8	-0.019080028
45	0xbcb8a90f	-0.02254155
46	0x3cf3e3f4	0.029771782
47	0xbcea9f68	-0.028640464
48	0x3d7127bf	0.058875795
49	0x3d57ee6d	0.052717615
50	0xbd7fd992	-0.06246335
51	0x3d462ad4	0.048380688
52	0xbce4d663	-0.027934259
53	0x3d569a7d	0.052393425
54	0xbcf66c88	-0.030081049
55	0xbd23c660	-0.039984107
56	0x3cd93d04	0.026518352
57	0xbc4c8d63	-0.012484881
58	0x3bd8d3c3	0.006617041
59	0x3d685290	0.056719363
60	0x3af783c8	0.0018883878
61	0xbcc03250	-0.02346149
62	0xbd018b40	-0.03162694
63	0xbcbab6bd	-0.022792215
64	0x3cd409b8	0.02588354
65	0xbd50198a	-0.050805606
66	0xbcf69ef0	-0.030105084
67	0xbd1a9518	-0.037739843
68	0x3b7bb8e0	0.0038409755
69	0x3d61a4df	0.055088874
70	0x3cc174e4	0.023615308
71	0x3d3b2652	0.045690842
72	0x3d80996d	0.06279264
73	0x3d7a1b78	0.061061352
74	0x3c9e82d6	0.019349497
75	0xbd06832c	-0.03283994
76	0xbcb65f45	-0.022262225
77	0x3cbb8ea8	0.022895172
78	0x3d562ff1	0.052291814
79	0x3bed6cfe	0.007245659
80	0x3d417074	0.047226384
81	0xbc834da4	-0.016028233
82	0x3c101090	0.008793011
83	0x3d7d1998	0.061791986
84	0x3d6833c2	0.056689985
85	0xbd46b2b6	-0.048510276
86	0xbca80f23	-0.02051503
87	0x3cb9e86e	0.022693839
88	0x3d25af11	0.04045016
89	0xbd4ac298	-0.049501985
90	0xbd4ef047	-0.050522115
91	0x3ce0e8ac	0.027454697
92	0xbb89f18a	-0.004209702
93	0x3d59322c	0.053026363
94	0xbd2e80b6	-0.042603217
95	0xbcac48fa	-0.021030892
96	0x3c99877f	0.018741367
97	0x3d473213	0.04863174
98	0xbc561608	-0.013066776
99	0xbd291d60	-0.04128778
100	0xbd762d3e	-0.06010174
101	0x3ca53572	0.020167086
102	0x3d135136	0.03596612
103	0xbca416d4	-0.020030417
104	0xbb1db634	-0.00240649
105	0x3ba4380e	0.005011565
106	0x3d3ddefb	0.04635523
107	0x3c74de80	0.014945626
108	0xbc4b41ee	-0.012405856
109	0xbd5290e8	-0.051407725
110	0xbcecc8e7	-0.028904391
111	0xbce927c8	-0.028461352
112	0xbd12681a	-0.03574381
113	0xbd006889	-0.031349692
114	0xbd22c08a	-0.0397344
115	0xbd7d947c	-0.061909184
116	0x3d3b6f3c	0.04576038
117	0xbd5f5aec	-0.05453007
118	0xbd11f342	-0.03563238
119	0xbcdf3f64	-0.027251907
120	0xbbec2d90	-0.00720758
121	0x3d4df501	0.050282482
122	0xbb5abb66	-0.0033375858
123	0xbb905bcf	-0.0044054757
124	0x3c951534	0.018198587
125	0x3d8d5fdb	0.069030486
126	0x3d5bd36d	0.05366843
127	0x3ceefdb4	0.02917371
128	0xbd5f3ebe	-0.054503195
129	0x3d33fe6e	0.043943815
130	0xbd538f40	-0.051650286
131	0x3d2c7bca	0.042110242
132	0x3d54c2b2	0.05194349
133	0x3c883868	0.01662846
134	0x3c864bce	0.016393568
135	0xbcd8b6b9	-0.026454316
136	0xbd38a37e	-0.045077793
137	0x3b32374e	0.0027193609
138	0x3cfd13c7	0.03089322
139	0x3d637a1c	0.055536374
140	0x3b8db09f	0.0043240334
141	0x3c1d4a60	0.009600252
142	0xbd481b27	-0.04885402
143	0x3c582f07	0.013194806
144	0x3d07aa12	0.033121176
145	0xbd7df12a	-0.06199757
146	0x3ce813b4	0.028329708
147	0xbc3f05e0	-0.011659116
148	0x3c855859	0.016277479
149	0xbc8aa2e2	-0.016923372
150	0xbd09c786	-0.033637546
151	0x3d621ac3	0.055201303
152	0x3d21e23a	0.039522387
153	0x3cf3f94d	0.029781962
154	0xbd72f4f6	-0.059315644
155	0xbc80fc3c	-0.015745275
156	0xbd24061c	-0.04004489
157	0x3cf39863	0.02973575
158	0x3cdbfa36	0.026852708
159	0x3d3b9ef6	0.045805894
160	0xbc12fa5d	-0.008970824
161	0xbd0ee330	-0.03488463
162	0x3c70e904	0.014703993
163	0x3d4402f5	0.047854383
164	0x3d1d4602	0.038396843
165	0x3c6ff54e	0.014645888
166	0xbd2830ee	-0.041062288
167	0x3d88b561	0.0667522
168	0xbd58f356	-0.05296644
169	0xbcbbfe5f	-0.022948442
170	0x3d2f2466	0.04275932
171	0xbd595343	-0.05305792
172	0x3bfdbe80	0.0077436566
173	0x3c1b85c8	0.009492345
174	0xbd27f23c	-0.041002497
175	0x3d3fb3a6	0.046802185
176	0xbd62b74c	-0.055350587
177	0xbd4da34f	-0.05020457
178	0x3c87a410	0.016557723
179	0x3d6a4a51	0.05719978
180	0xbd1af7c4	-0.037833944
181	0x3d94aad4	0.072591454
182	0x3b0f228d	0.0021840662
183	0xbd2f7f4a	-0.042846
184	0x3d6ddb05	0.0580702
185	0xbac65b00	-0.0015133321
186	0xbd6aae6a	-0.05729524
187	0xbcc19a6c	-0.023633204
188	0x3d1a6184	0.037690654
189	0xbcf3c4c2	-0.029756907
190	0x3cecce49	0.028906958
191	0x3d80c9d8	0.06288499
192	0xbd18b68e	-0.037283473
193	0x3cc1169f	0.023570357
194	0x3d6185b1	0.05505914
195	0x3d5b1ab6	0.05349227
196	0xbc89b23a	-0.016808618
197	0x3d651a70	0.055933416
198	0x3c378650	0.011201456
199	0x3cde9b7b	0.027173748
200	0xbd60a14b	-0.05484132
201	0xbd40877d	-0.04700421
202	0x3cae5378	0.021280035
203	0x3c1b2967	0.00947032
204	0xbd5b37b2	-0.053519912
205	0xbd0299ff	-0.031885143
206	0xbd1156e6	-0.035483263
207	0x3d60985a	0.054832794
208	0xbd51c219	-0.051210497
209	0x3d5b2685	0.053503532
210	0xbd370191	-0.04467923
211	0xbd4709ea	-0.04859344
212	0xbd73c31a	-0.059512235
213	0x3d371e41	0.044706587
214	0x3d34381a	0.043998815
215	0x3c888776	0.016666155
216	0x3d5f2ffd	0.054489125
217	0xbd46e333	-0.048556518
218	0xbbc5de60	-0.006038472
219	0x3cd5dd40	0.026106477
220	0x3babde9a	0.005245042
221	0x3b4f0e58	0.0031594243
222	0xbc4233e1	-0.011853189
223	0x3c4a8ed1	0.012363152
224	0x3b1461e0	0.0022641346
225	0xbc128358	-0.008942448
226	0xbd23c2f9	-0.039980862
227	0x3d860d15	0.06545464
228	0x3caaa8a1	0.020832362
229	0x3cf4e19c	0.029892735
230	0x3c34c148	0.01103241
231	0x3cd89efd	0.026442999
232	0xbd2e4e6c	-0.042555258
233	0xbd591251	-0.052995984
234	0xbd4b9e3c	-0.04971145
235	0xbb81b0d1	-0.0039578457
236	0xbc557cbb	-0.013030226
237	0x3d007e97	0.031370725
238	0xbd84093a	-0.06447072
239	0x3d78d71c	0.06075202
240	0x3cf793e0	0.03022188
241	0x3d03c09e	0.032166116
242	0x3cfaaabe	0.030598994
243	0xbc230acc	-0.009951305
244	0x3bf86780	0.0075806975
245	0x3c253c47	0.010085172
246	0x3cee3a21	0.029080452
247	0xbcf692c5	-0.030099282
248	0xbd4afe1d	-0.049558748
249	0xbcd2c310	-0.025727779
250	0x3d2d49f4	0.042306855
251	0x3d11acf1	0.03556532
252	0x3c882978	0.016621336
253	0xbc132a58	-0.0089822635
254	0xbd03a870	-0.032143056
255	0xbbc9c360	-0.0061573237

linear4.weight f4 [256, 256]
0	0x3d5d9175	0.054093797
1	0x3cd6ba6e	0.026211943
2	0xbd326ffe	-0.043563835
3	0xbb037140	-0.0020056516
4	0x3bf27ac7	0.00739989
5	0x3c938c8c	0.018011354
6	0x3c2a6a1b	0.010401274
7	0x3d4b932c	0.0497009
8	0x3d7fa5f4	0.062414125
9	0x3c20858a	0.009797463
10	0x3d463c45	0.04839732
11	0x3d598eb6	0.053114615
12	0xbc692d08	-0.014231928
13	0x3d410ce5	0.047131438
14	0x3c2ff87b	0.010740395
15	0xbd40eafc	-0.0470991
16	0x3d8db834	0.069198996
17	0xbbd7d98e	-0.006587214
18	0x3bd84448	0.0065999366
19	0x3d57b72b	0.052664917
20	0x3ca75b80	0.020429373
21	0x3cbbb830	0.022914976
22	0xbd4e86ea	-0.050421633
23	0x3d1e4a68	0.038645178
24	0xbceaa3ea	-0.028642613
25	0x3caf3910	0.021389514
26	0x3d0c8b14	0.034312323
27	0x3d4c8c6c	0.049938604
28	0xbb8920a0	-0.0041847974
29	0x3c166cf4	0.00918125
30	0xbd457e70	-0.048216283
31	0x3caec778	0.021335348
32	0x3c902038	0.017593488
33	0x3d39b39a	0.045337297
34	0xbcd6c2de	-0.026215967
35	0xbb80566e	-0.003916553
36	0x3cfd7efc	0.03094434
37	0xbcd711ed	-0.026253665
38	0xbd2cb476	-0.04216429
39	0xbc6659c7	-0.0140594905
40	0xbbdd7124	-0.006757872
41	0x3d2531cc	0.040330693
42	0xbd189082	-0.03724719
43	0xbd4f68f3	-0.050637197
44	0x3c42f723	0.011899742
45	0x3d82df7f	0.06390285
46	0x3c45c460	0.012070745
47	0x3c645fe0	0.013938874
48	0x3d2048a5	0.03913178
49	0xbd1cedec	-0.038312837
50	0xbd0e0d35	-0.034680564
51	0xbc641e10	-0.013923183
52	0xbc24708d	-0.0100366
53	0x3d23c5bf	0.039983507
54	0xbd4ba616	-0.04971894
55	0x3c9c5584	0.019083746
56	0xbd077396	-0.033069216
57	0xbd0a739f	-0.03380167
58	0xbd3b6db7	-0.04575893
59	0xbd5156f4	-0.051108316
60	0xbd44155c	-0.047871932
61	0x3d5df15a	0.05418525
62	0x3d0002c4	0.031252638
63	0xbbf5e491	-0.007504054
64	0x3d433629	0.047659073
65	0xbceb078c	-0.028690122
66	0xbd7603be	-0.060062163
67	0xbd5882aa	-0.052858986
68	0x3c32a218	0.010902904
69	0x3d49a9d3	0.049234223
70	0x3d4cd8ab	0.05001132
71	0x3d3b48c3	0.045723688
72	0xbc98a2b3	-0.018632269
73	0xbd5a6056	-0.05331453
74	0xbc06a26f	-0.008217438
75	0xbcefd6d8	-0.02927725
76	0xbcb29e98	-0.021804139
77	0xbc18a568	-0.00931678
78	0xbc9dc73d	-0.019260043
79	0x3cd22648	0.02565302
80	0xbc54e7c8	-0.012994714
81	0xbc2a5170	-0.010395393
82	0xbc8d7559	-0.01726787
83	0x3ca1fe7b	0.019774666
84	0x3d215091	0.039383475
85	0xbb431380	-0.0029766262
86	0xbb95f7a4	-0.00457664
87	0x3d1ab806	0.037773155
88	0x3d3340ca	0.04376296
89	0xbd3353b8	-0.043781012
90	0xbd34e973	-0.044167947
91	0x3d49a405	0.049228687
92	0x3d429bb1	0.04751176
93	0x3bbe59a1	0.0058090244
94	0xbcdcfba1	-0.026975455
95	0xbcdc5d04	-0.026899822
96	0xbc742e75	-0.014903654
97	0x3d051b73	0.03249688
98	0x3cb33deb	0.02188011
99	0x3d6e6ac4	0.05820729
100	0xbd1b7194	-0.037950113
101	0xbd09b4e2	-0.03361977
102	0x3b81b029	0.0039577675
103	0xbd4c7c11	-0.049923006
104	0xbd23f7f1	-0.040031377
105	0x3c15f17d	0.009151814
106	0xbd118f52	-0.03553707
107	0x3d5975e8	0.05309096
108	0x3d0af36f	0.033923563
109	0xbd5f5f0e	-0.05453401
110	0x3d037fec	0.032104418
111	0x3c60ece0	0.01372835
112	0xbd46199e	-0.048364274
113	0x3ccbaeaa	0.02486356
114	0xbd260bf4	-0.040538743
115	0x3b880e44	0.004152091
116	0x3cd8e7f0	0.026477784
117	0xbc8ac742	-0.016940717
118	0xbcaebe2d	-0.021330917
119	0x3d212476	0.039341412
120	0xbd0be3c4	-0.03415276
121	0x3c56f8a7	0.013120807
122	0x3c07a37e	0.008278726
123	0xbcd81f3e	-0.026382085
124	0x3ce6ed80	0.02818942
125	0x3d07de89	0.03317121
126	0xbc45bb2e	-0.012068553
127	0xbcd5dc4b	-0.02610602
128	0xbcc0b98c	-0.023525976
129	0xbc355bd8	-0.011069261
130	0x3d639b1a	0.05556784
131	0x3c8a4374	0.016877867
132	0x3ca74928	0.020420626
133	0x3d02e0fc	0.031952843
134	0x3d264ed2	0.040602513
135	0xbd552846	-0.05204036
136	0x3d422d62	0.04740656
137	0x3c44cef2	0.01201223
138	0x3c248f72	0.010043966
139	0x3d64455e	0.055730216
140	0xbbfeade4	-0.007772194
141	0x3d41e6ba	0.04733918
142	0x3d073d41	0.0330174
143	0x3c16f8ee	0.009214623
144	0x3cf28414	0.029603995
145	0x3c2bffb8	0.01049798
146	0x3bbf6199	0.005840492
147	0xbd69fad8	-0.05712399
148	0xb9fa675d	-0.00047760727
149	0xbc9fb28a	-0.019494314
150	0xbc55a398	-0.013039492
151	0x3d0cc220	0.03436482
152	0x3d006628	0.031347424
153	0xbd477f87	-0.048705604
154	0x3b036780	0.0020050704
155	0x3d33ec19	0.043926332
156	0xbd270218	-0.04077348
157	0x3d5d1471	0.053974573
158	0x3d9c0101	0.07617379
159	0x3b428a80	0.0029684603
160	0xbd320139	-0.043458197
161	0xbd1ad368	-0.03779927
162	0xbd470185	-0.048585434
163	0x3cf86297	0.030320449
164	0xbba24f96	-0.004953335
165	0x3c5c3aa0	0.013441712
166	0xbd0b6084	-0.03402759
167	0x3cb55b7f	0.022138355
168	0x3c235182	0.009968163
169	0x3cc6730e	0.024224784
170	0xbcf46aeb	-0.029836139
171	0x3c90574f	0.017619757
172	0x3d0619e2	0.032739528
173	0xbcf3c920	-0.02975899
174	0x3b7365e5	0.0037139591
175	0xbd5874d1	-0.05284578
176	0x3cb34b3c	0.02188646
177	0x3d080cbc	0.03321527
178	0x3d78eec2	0.060774572
179	0xbd35030d	-0.044192363
180	0xbd1e5184	-0.038651958
181	0xbba973f4	-0.0051712934
182	0x3d72a8fe	0.059243195
183	0x3d096c22	0.03355039
184	0x3ca289ae	0.019841041
185	0x3d5db920	0.054131627
186	0x3cbfb788	0.023402944
187	0xbb88d060	-0.004175231
188	0x3b80e0a0	0.0039330274
189	0xbd6317be	-0.055442564
190	0x3cc5a05a	0.024124313
191	0x3c345b36	0.0110080745
192	0xbbcd9fb2	-0.0062751407
193	0x3d2bce47	0.04194477
194	0xbd4d82a2	-0.05017341
195	0x3d49b20c	0.049242064
196	0x3c6307be	0.013856826
197	0x3d02212d	0.03176992
198	0x3c160118	0.009155534
199	0x3b84cba8	0.004052598
200	0x3d6f737d	0.058459748
201	0xbd5421b9	-0.051789973
202	0xbd4b4474	-0.04962583
203	0xbbffdabc	-0.0078080576
204	0xbcefb56c	-0.029261313
205	0x3d7e933d	0.062152136
206	0x3d6e8ea6	0.05824151
207	0xbcc31420	-0.023813307
208	0x3d68ffb9	0.0568845
209	0x3d448307	0.04797652
210	0xbcba773c	-0.022761934
211	0x3d7f0a5f	0.06226575
212	0x3d7d03a0	0.061771035
213	0x3ccfc601	0.02536297
214	0x3c3872f8	0.011257879
215	0xbca4133e	-0.020028707
216	0xbbede679	-0.0072601405
217	0xbb9f5c59	-0.0048633036
218	0x3d6ca732	0.057776637
219	0xbd7f35fe	-0.06230735
220	0x3c892717	0.016742272
221	0x3d742532	0.059605785
222	0x3c9bba0f	0.019009618
223	0x3cc65e3d	0.024214858
224	0xbd62373c	-0.055228457
225	0xbcd079c4	-0.025448687
226	0x3d877ad6	0.06615226
227	0x3ccadd84	0.02476383
228	0xba9ad206	-0.001181186
229	0xbd5ea546	-0.054356836
230	0x3d689ab2	0.056788154
231	0xbc4aa210	-0.01236774
232	0x3d47c3fe	0.048770897
233	0x3d84c6a5	0.06483201
234	0x3cc285a4	0.023745365
235	0x3bf247c3	0.0073938086
236	0x3d37cab0	0.044871032
237	0x3d740434	0.05957432
238	0xbbf13fc2	-0.007362337
239	0xbc561188	-0.013065703
240	0xbd624c1c	-0.055248365
241	0x3d29429e	0.041323297
242	0xbd52d4c6	-0.051472448
243	0xb85243c6	-5.013102e-05
244	0xbc3f1920	-0.011663705
245	0x3d819b1e	0.063284144
246	0xbd4df248	-0.050279886
247	0xbcbe9099	-0.023262309
248	0x3ce65dfd	0.028120989
249	0x3d20fee7	0.039305594
250	0x3d70490a	0.058663405
251	0x3c92807d	0.017883534
252	0x3b0ce6f8	0.0021499973
253	0x3cc439a4	0.023953266
254	0x3d0688e8	0.032845408
255	0x3a790e00	0.00095006824

linear4.bias f4 [256]
0	0xbc0bf8dc	-0.008543219
1	0xbc9aa698	-0.018878266
2	0xbcdb0684	-0.026736505
3	0x3d363ddb	0.044492584
4	0x3d47ce17	0.048780527
5	0xbcf6ab44	-0.030110963
6	0xbd534f2a	-0.05158917
7	0xbcfe3d95	-0.031035224
8	0xbb3cbc16	-0.0028798631
9	0x3d3a8bdc	0.045543537
10	0xbd09f9b6	-0.03368541
11	0x3ce3addf	0.02779287
12	0x3d64b58b	0.055837195
13	0xbd201239	-0.03907988
14	0x3cf188e5	0.029484222
15	0xbd27089d	-0.0407797
16	0x3c37baac	0.01121394
17	0x3d2ef218	0.042711347
18	0xbd732a36	-0.059366427
19	0x3c008558	0.007844292
20	0x3d152cb8	0.0364196
21	0x3d482abc	0.04886888
22	0xbd6db7cc	-0.05803661
23	0x3d7ebe80	0.062193394
24	0x3d243b14	0.040095404
25	0x3a8cf280	0.0010753423
26	0xbd4a0e07	-0.049329784
27	0xbc8661cd	-0.016404057
28	0x3bbd2be0	0.0057730526
29	0xbd23334f	-0.039843854
30	0x3d6a08e5	0.05713739
31	0xbd540877	-0.051765885
32	0x3c869c40	0.016431928
33	0x3d6f127c	0.058367237
34	0xbd320140	-0.043458223
35	0x3cbf81ae	0.023377266
36	0xbcfb0ade	-0.03064483
37	0xbd7ea384	-0.06216766
38	0xbc38858f	-0.011262312
39	0xbc3774a4	-0.011197243
40	0x3d26a429	0.0406839
41	0x3d841fa9	0.06451351
42	0x3d5a99b1	0.053369228
43	0x3a99c5ea	0.0011731957
44	0x3d1e00e8	0.038575083
45	0xbd0d6eb0	-0.034529388
46	0xbcbc3460	-0.022974193
47	0xbb63bafc	-0.0034748903
48	0x3cd9a9cb	0.026570221
49	0x3c8aa3b5	0.016923765
50	0x3c048e80	0.008090615
51	0x3d227cda	0.03966985
52	0xbd1843c6	-0.03717401
53	0x3d1e064f	0.038580235
54	0xbd5449bf	-0.051828142
55	0x3d02a3a1	0.03189433
56	0x3d22bbbf	0.03972983
57	0x3d60634d	0.0547822
58	0x3c428094	0.011871476
59	0x3be918e0	0.007113561
60	0xbb560780	-0.003265828
61	0x3c1f1a83	0.009710911
62	0xbc5d0bb0	-0.013491556
63	0xbc86be65	-0.016448209
64	0xbcb8a478	-0.022539362
65	0xbd371764	-0.04470004
66	0xbcef6016	-0.029220622
67	0x3d55113b	0.052018385
68	0x3d06a734	0.0328743
69	0xbc3416ef	-0.010991796
70	0xbc176c58	-0.00924214
71	0x3d0c51e8	0.0342578
72	0x3d6050b4	0.054764464
73	0x3c98e3a4	0.018663235
74	0xbb3cf521	-0.0028832632
75	0x3d24c77b	0.040229302
76	0x3d53332a	0.051562466
77	0x3d48b846	0.04900386
78	0x3d721230	0.059099376
79	0xbcc718e3	-0.02430386
80	0x3c303bc0	0.010756433
81	0x3d5a6763	0.053321254
82	0xbcd4e141	-0.025986316
83	0x3cddc5d8	0.027071878
84	0xbd538e80	-0.05164957
85	0x3d3438a6	0.043999337
86	0xbc6a9d78	-0.01431977
87	0xbc724ce0	-0.014788836
88	0x3cd76ea8	0.026297882
89	0xbbc5fd65	-0.00604217
90	0xbcd1ca18	-0.025609061
91	0xbd4f4aae	-0.05060833
92	0xbd669de3	-0.056302916
93	0xbc82aac2	-0.015950564
94	0xbb4e1901	-0.003144801
95	0xbd5bfe48	-0.0537093
96	0x3d72f122	0.059311993
97	0x3d7d22c3	0.06180073
98	0xbb570600	-0.0032809973
99	0x3d4e6050	0.05038482
100	0x3cebff08	0.028808132
101	0x3cd16d5c	0.025564842
102	0x3a267a00	0.0006350577
103	0x3d5653ba	0.05232594
104	0x3d964a0a	0.073383406
105	0x3d5475d4	0.051870182
106	0x3d684d7e	0.056714527
107	0x3cc2e2de	0.02378982
108	0xbd0bf65b	-0.03417049
109	0x3cbd20b4	0.023086883
110	0xbd3be4e5	-0.045872588
111	0x3d69191c	0.05690871
112	0x3d6f2097	0.05838069
113	0x3d889da9	0.06670696
114	0x3ab65dd6	0.0013913463
115	0x3cf7ca13	0.030247724
116	0xbccc2d76	-0.024924021
117	0x3d4ddfca	0.05026225
118	0x3c7a53a6	0.015278732
119	0xbc9e6b31	-0.019338222
120	0xbd70c55e	-0.058781974
121	0xbd25cbad	-0.040477443
122	0xbab1a780	-0.0013553947
123	0xbb9f55e7	-0.0048625353
124	0xbd54e4b1	-0.05197591
125	0x3cedbff8	0.029022202
126	0xbd6699ef	-0.056299146
127	0xbcc8160c	-0.024424575
128	0x3d0af24a	0.03392247
129	0x3cb01d24	0.02149827
130	0x3d2c2c6e	0.04203456
131	0xbd00ece6	-0.031475924
132	0x3c6bcff8	0.014392845
133	0x3d641785	0.055686492
134	0x3c38720e	0.0112576615
135	0xbcd0c888	-0.025486246
136	0x3d6f4f5e	0.0584253
137	0xbd3530fa	-0.04423616
138	0xbca7d24b	-0.020486018
139	0x3cee1f90	0.029067785
140	0x3bd624d0	0.00653515
141	0x3d6c4a57	0.057688083
142	0xbd669687	-0.056295898
143	0x3d21a685	0.039465446
144	0x3d53fd92	0.051755495
145	0x3d2934d8	0.04131016
146	0x3b9c556d	0.0047709257
147	0xbca45139	-0.020058261
148	0x3d527c94	0.05138834
149	0x3c80c67b	0.015719643
150	0x3c03b96f	0.008039816
151	0x3d03e37c	0.032199368
152	0xbd620486	-0.055180095
153	0x3d5bd749	0.05367211
154	0x3bf649e0	0.007516131
155	0x3d528240	0.051393747
156	0xbd5f67f6	-0.054542504
157	0xbccfcfa0	-0.025367558
158	0x3d5fe351	0.054660145
159	0xbd57d72e	-0.052695446
160	0xbd071c7a	-0.03298614
161	0xbd0ad6fb	-0.033896428
162	0xbd128fa4	-0.035781518
163	0xbd696664	-0.056982413
164	0xbd021aa0	-0.031763673
165	0x3c9db000	0.019248962
166	0x3c2c6923	0.010523113
167	0x3d0e0cd7	0.034680214
168	0x3b9251a0	0.004465297
169	0x3bca8a99	0.006181073
170	0x3d618ba6	0.05506482
171	0x3d6d6107	0.05795386
172	0xbc805085	-0.015663395
173	0x3cbedbf8	0.023298249
174	0x3c540808	0.012941368
175	0x3d837f05	0.064207114
176	0xbd67ca3f	-0.05658936
177	0x3c59f1dc	0.013302293
178	0x3d5ab036	0.053390704
179	0x3c087ea0	0.008330971
180	0x3a5b5d00	0.0008368045
181	0x3d7123da	0.05887208
182	0xbd765d1d	-0.060147393
183	0x3cff23d7	0.03114502
184	0xbd61f482	-0.05516482
185	0xbcb9a5b0	-0.022662014
186	0x3d37ea10	0.044900954
187	0xbd11ea1e	-0.035623662
188	0x3d14952f	0.036275085
189	0x3bd07e70	0.006362729
190	0x3bfb17f0	0.0076627657
191	0xbb384ab2	-0.0028120694
192	0x3d131bf7	0.03591534
193	0xbc4067e8	-0.011743523
194	0xbcfa26d8	-0.0305361
195	0xbcacd15a	-0.02109592
196	0x3d320262	0.043459304
197	0x3b82fad0	0.0039971843
198	0xbd010581	-0.03149939
199	0x3d4ea7fc	0.05045317
200	0x3d7b24d2	0.06131441
201	0x3cfe6a5e	0.03105658
202	0x3c7b0ad0	0.015322402
203	0xbce7abb1	-0.028280111
204	0x3d5133cb	0.051074784
205	0x3c8ee62e	0.017443743
206	0xbd3e10a8	-0.046402603
207	0x3d05b7cc	0.032645985
208	0x3d2c22f0	0.042025506
209	0x3cfc4f87	0.03079964
210	0xbd15ecdd	-0.036602844
211	0xbd35fc83	-0.044430267
212	0xbcb886e4	-0.022525258
213	0x3d3fd58e	0.04683452
214	0x3b9505c3	0.004547806
215	0x3cd5b174	0.026085593
216	0x3c8e0268	0.017335132
217	0x3c6be778	0.014398448
218	0xbd19b6e8	-0.03752795
219	0xbbeb27fd	-0.007176398
220	0x3d5e4221	0.054262284
221	0xbd6d7cc6	-0.05798032
222	0x3d3c6aab	0.046000164
223	0xbd3ea250	-0.046541512
224	0xbd5b952d	-0.053609062
225	0x3c406228	0.011742152
226	0x3b8cc659	0.004296106
227	0x3cebdffb	0.028793326
228	0xbd36f11e	-0.04466354
229	0x3c86293c	0.016377084
230	0xbccafe7c	-0.02477955
231	0x3cdb6aa7	0.026784254
232	0x3d38b577	0.045094933
233	0xbd0e9bd6	-0.034816585
234	0x3c844588	0.016146436
235	0xbcc1eed6	-0.023673456
236	0x3bb80e61	0.0056169485
237	0xbb9889b2	-0.0046550864
238	0x3c641edd	0.013923374
239	0x3d6ee037	0.058319297
240	0xbd34e618	-0.044164747
241	0xbd61c052	-0.05511505
242	0x3d7c6e42	0.061628588
243	0xbc891c24	-0.016737051
244	0x3d607348	0.05479744
245	0xbd44d7e5	-0.048057456
246	0xbc422a94	-0.011850972
247	0xbcdb9357	-0.026803656
248	0x3bc09d47	0.005878124
249	0x3d26cc34	0.040722087
250	0x3c175fd0	0.009239152
251	0x3ce637f1	0.028102847
252	0x3c4ebdb0	0.012618467
253	0x3c7617f0	0.015020356
254	0x3cd10ed7	0.025519772
255	0x3c6ec361	0.014572949

linear3.weight f4 [1, 256]
0	0x3b83333c	0.0040039103
1	0x3ac8559c	0.0015284303
2	0xb9dba229	-0.00041891754
3	0x3aa433c7	0.0012527638
4	0x3b2312d4	0.0024883049
5	0xb9123d20	-0.00013946416
6	0x3b30dc78	0.0026986878
7	0x3c791ab1	0.015204118
8	0x3c0e81fd	0.008697984
9	0x3a45daa0	0.0007547531
10	0x3c089b5d	0.008337823
11	0x3beea776	0.0072831465
12	0xba8d7e8a	-0.0010795158
13	0x3bce7f9d	0.006301834
14	0xbab95a10	-0.0014141221
15	0x3ad87d2c	0.0016516796
16	0x3bf3e710	0.0074433163
17	0xb9c1b1b0	-0.00036944216
18	0xbb327bf0	-0.0027234517
19	0x3d115faa	0.035491623
20	0x3c01768f	0.007901802
21	0x3b98c410	0.0046620443
22	0xba84a33e	-0.0010119451
23	0x3b8a74f4	0.0042253677
24	0x3a56c110	0.00081922207
25	0x3b32a23c	0.0027257344
26	0x3bed42ba	0.0072406204
27	0x3c89bdba	0.016814101
28	0xba7e4c03	-0.00097006577
29	0x3b9cec33	0.0047888993
30	0x3b21e972	0.0024705795
31	0x3a12af1a	0.000559555
32	0x3a8ff558	0.0010983152
33	0xba933f16	-0.0011234011
34	0x3aecfae5	0.0018080143
35	0x3b4ad178	0.0030947607
36	0x3d233a8a	0.03985075
37	0x3a042c57	0.00050420075
38	0x3c762b6c	0.015025001
39	0x3ba1ad50	0.0049339905
40	0x3beb6eb1	0.0071848263
41	0x3b84032f	0.0040287
42	0x3cb918ee	0.022594895
43	0xb9b9ccc5	-0.00035438515
44	0xbb0930cc	-0.0020933626
45	0xba1b10fc	-0.00059153116
46	0xbb1a4d48	-0.0023544598
47	0xb9cdc1b5	-0.0003924497
48	0x3bf4cfc5	0.007471057
49	0xb9bb1b3d	-0.00035687714
50	0xba8063de	-0.0009795388
51	0x398211f0	0.00024808897
52	0xbac58f2a	-0.0015072573
53	0x3bb56987	0.0055362615
54	0xbae950f0	-0.001780061
55	0x3c8ea3d7	0.01741211
56	0x3befd840	0.00731948
57	0x3c169c42	0.009192528
58	0x3bdc93be	0.0067314794
59	0x3b2d801a	0.002647406
60	0xbb0918ba	-0.002091928
61	0x3ca65942	0.020306233
62	0x3b02d60c	0.0019964008
63	0x397a7fa7	0.00023889412
64	0xbb27e34a	-0.0025617653
65	0x3ab1eb3a	0.0013574131
66	0xba0f8c9c	-0.00054759695
67	0x3cd535d7	0.02602665
68	0xba04cc64	-0.0005065857
69	0x3bb99a26	0.005664128
70	0x383dc680	4.524598e-05
71	0x3b12f993	0.002242659
72	0x3bc579d7	0.0060264873
73	0x3a997dec	0.0011710501
74	0x3beee404	0.007290365
75	0x3be4153a	0.006960538
76	0xbabe7b1d	-0.001453254
77	0x3aedae3c	0.0018133591
78	0x3ad2bb80	0.0016077608
79	0x3b71bca8	0.003688613
80	0xbad47e10	-0.0016211886
81	0x3bbf4dec	0.0058381464
82	0xbace2502	-0.0015727582
83	0x3c756f39	0.014980131
84	0x3bc60655	0.0060432353
85	0xbb221b8c	-0.0024735657
86	0xbb389b23	-0.002816864
87	0xbb36df05	-0.0027903926
88	0xbb283bb8	-0.002567036
89	0x3bc15c79	0.005900916
90	0x3aa07090	0.0012240577
91	0x3af5c080	0.0018749386
92	0x3bc3a9d3	0.0059711724
93	0x39b74644	0.00034956832
94	0x3bcba81f	0.00621511
95	0x3b9d2d90	0.0047966912
96	0xbaed90ac	-0.0018124781
97	0x3ca6c693	0.02035836
98	0x3d15a63d	0.03653549
99	0xbb3cf6b8	-0.002883358
100	0xb9f53760	-0.000467713
101	0xbade82be	-0.001697622
102	0x3b3b3864	0.0028567547
103	0x3c8316a2	0.016002003
104	0x3cb8c7cb	0.022556206
105	0xba788a4c	-0.0009481057
106	0x3c0e0cb9	0.0086700255
107	0x3b50811a	0.0031815232
108	0x3bd79744	0.0065793116
109	0x3a0716bc	0.0005153229
110	0x3bafe130	0.0053674206
111	0xba61258c	-0.0008588664
112	0x3ab3d2fe	0.0013719497
113	0x3b7cfdb9	0.003860338
114	0x3a5a0328	0.00083165104
115	0x3c8de98f	0.017323283
116	0xbae63d02	-0.0017565789
117	0x3b1dbbb8	0.0024068188
118	0x3bc9aa2a	0.0061543183
119	0x3cbb6ab7	0.022878034
120	0x3b345c16	0.0027520708
121	0x3c364838	0.011125617
122	0x3a54885c	0.00081074773
123	0x3ca68c28	0.020330504
124	0xb94d292a	-0.00019565658
125	0xba4817c0	-0.00076329336
126	0x3b38de7c	0.0028208783
127	0x3be852d7	0.0070899534
128	0xbb0fe1fe	-0.002195477
129	0x3931f0c4	0.00016969728
130	0xba8754cc	-0.0010324954
131	0xba90de51	-0.0011052584
132	0xba0fc588	-0.00054844515
133	0x3cd86df1	0.026419612
134	0x3b28c30c	0.0025751023
135	0xb83a8b80	-4.4475775e-05
136	0x3bbeba47	0.005820546
137	0x399bc690	0.00029711844
138	0x3b798d80	0.0038078725
139	0x3b2848e4	0.0025678212
140	0x3b02f198	0.0019980427
141	0x3bd0b365	0.0063690417
142	0x3c9a8424	0.018861838
143	0x3bd66a75	0.0065434524
144	0x3bc20183	0.0059205904
145	0x3aed3199	0.0018096446
146	0x3c118d5e	0.008883802
147	0xb938f32e	-0.00017638199
148	0x3b4d8976	0.003136245
149	0x3be21fa6	0.0069007454
150	0x3aab35af	0.0013062264
151	0x3bfa32b7	0.00763544
152	0x3ba299dd	0.0049621896
153	0x3c8ecdd0	0.017432123
154	0xba586998	-0.0008255481
155	0x3ca31667	0.019908143
156	0x3ba299e6	0.004962194
157	0x3afa53e0	0.0019098483
158	0x3bbb35bb	0.0057131923
159	0x3b8eb89f	0.0043555046
160	0xba8e9294	-0.0010877424
161	0x3bcbe948	0.0062228777
162	0xbb32d8b1	-0.0027289803
163	0x3b32b84e	0.0027270499
164	0x38ca82e0	9.656488e-05
165	0x3b19d6da	0.0023474009
166	0x3bf713de	0.00754021
167	0x3bba3906	0.0056830673
168	0xbaae8419	-0.0013314515
169	0x3bf0847c	0.007340012
170	0xba47e7d0	-0.00076257903
171	0x3afb9568	0.0019194307
172	0x3b0cf27e	0.0021506841
173	0x3a88fa56	0.0010450582
174	0xbb2fec44	-0.0026843706
175	0x3bb0ccd8	0.005395513
176	0x3bee01f5	0.007263417
177	0x3a00165b	0.0004886144
178	0xbad3b3f6	-0.0016151655
179	0xbb367b21	-0.0027844387
180	0xba31ecbc	-0.00067872903
181	0x3bf48991	0.0074626883
182	0x39a351ae	0.0003115064
183	0x3b308145	0.002693252
184	0x3bd288fa	0.0064250203
185	0xbaad801f	-0.0013237036
186	0x3d1e4e6a	0.038649
187	0xba2a851a	-0.0006504819
188	0x3a177159	0.0005777083
189	0x3948a4a0	0.00019134814
190	0x3a827968	0.0009954395
191	0x3b644a3b	0.0034834284
192	0x3c05af44	0.008159462
193	0xbb04e8db	-0.0020280394
194	0xba091440	-0.0005229153
195	0xbac04c3b	-0.0014671156
196	0xba3a2de4	-0.0007102175
197	0x3b1b6bc6	0.002371536
198	0x3a77be42	0.0009450653
199	0x391184b0	0.00013877708
200	0xba696851	-0.0008903789
201	0x3c09abd6	0.008402785
202	0xbb1b58a3	-0.0023703955
203	0x3d14ee27	0.036359932
204	0xb9f4f0ed	-0.0004671881
205	0x3b914ba2	0.004434065
206	0x3a751a48	0.00093499245
207	0xba0f8f0b	-0.0005476332
208	0x3c31631d	0.010826853
209	0xba2b8686	-0.0006543178
210	0x3c8c98eb	0.01716276
211	0xbac0224d	-0.001465866
212	0xba7ee1ce	-0.00097229786
213	0xbac1fb0f	-0.0014799553
214	0x3c91b735	0.017787555
215	0x3b976e9f	0.0046213414
216	0x3bc75ab6	0.0060838116
217	0x3a9619d4	0.0011451789
218	0x3a8cc7cc	0.0010740696
219	0x3bbf5f80	0.005840242
220	0x3b655bc5	0.0034997326
221	0x3badee69	0.0053079617
222	0xb9f7fb47	-0.00047298727
223	0xbaf6e409	-0.001883627
224	0xbaac4113	-0.0013141952
225	0xbab0afb2	-0.0013480096
226	0x3bcafe50	0.006194867
227	0x3ba5aa51	0.0050557037
228	0x3b33a318	0.0027410444
229	0x3a5e3e84	0.00084779435
230	0x3ca25146	0.019814145
231	0x39fc4f32	0.0004812419
232	0x3bb5f51d	0.0055529014
233	0x3b16c2e2	0.0023004343
234	0xbaecd984	-0.0018070196
235	0x3bc83c7f	0.0061107273
236	0xb9a1789c	-0.00030798174
237	0x3acb2aa4	0.0015500379
238	0x3bd198d3	0.006396392
239	0x3b6f86fe	0.0036548967
240	0xba9b5d26	-0.0011853322
241	0xbae0e65b	-0.0017158495
242	0x3d100f28	0.035170704
243	0x3aaf90ec	0.001339463
244	0xb9096bcb	-0.00013105494
245	0x3b9a8c61	0.0047164415
246	0x3cbac0de	0.022797044
247	0x3ba7c1e3	0.0051195486
248	0x398dbdba	0.00027034973
249	0xba3a2b54	-0.00071017933
250	0x380ff5c0	3.432273e-05
251	0x3bae93ad	0.005327663
252	0x399d94f8	0.00030056364
253	0xba4d9f04	-0.00078438246
254	0xb9d7d54b	-0.0004116691
255	0x3ba2f09b	0.00497253
