outputs/Optimal_Control/20220401-112026/models/checkpoint.pt (torch, 533487 bytes, 7 tensors)

linear1.weight f4 [256, 2]
0	0x3f0589df	0.521635
1	0xbf2f7840	-0.6854286
2	0xbe1e1178	-0.15436351
3	0xbedbdf45	-0.4294378
4	0x3eb37310	0.35048723
5	0x3e7f4553	0.24928789
6	0x3d381350	0.044940293
7	0x3e056b97	0.13029324
8	0xbe9cfab1	-0.30660012
9	0xbf204a87	-0.6261372
10	0x3edcbde9	0.4311364
11	0x3e9e9d49	0.30979374
12	0xbdf661a8	-0.12030345
13	0xbec22812	-0.37921196
14	0xbf31911f	-0.6936206
15	0x3db0d898	0.08635062
16	0x3e408456	0.18800482
17	0xbf2b4051	-0.66895014
18	0x3ef5a206	0.47975177
19	0x3f27f591	0.6560908
20	0xbe99ae5f	-0.30015847
21	0xbcf9b620	-0.030482352
22	0x3e2a3f92	0.16625813
23	0xbcb632a9	-0.022240954
24	0x3e0b99b8	0.13632858
25	0xbed8fb85	-0.42379394
26	0x3e757d6d	0.23973627
27	0x3e5d7ad0	0.2162888
28	0x3e0bbc61	0.1364608
29	0xbfae9e52	-1.3642066
30	0xbe7a5e70	-0.24450088
31	0x3f331816	0.6995863
32	0xbf1678ce	-0.58778083
33	0x3e8a818a	0.27051955
34	0x3ea2f4b9	0.31827334
35	0x3ed0122e	0.4063887
36	0xbe6fdbf0	-0.23423743
37	0xbef723f0	-0.48269606
38	0xbf09848b	-0.5371787
39	0xbec10cad	-0.37704983
40	0x3f0557d1	0.5208712
41	0xbeecdf4d	-0.46264115
42	0x3e7c5f24	0.24645668
43	0xbf252e5a	-0.6452385
44	0xbe0c2018	-0.13684118
45	0xbd756e50	-0.059919655
46	0x3ebd6b52	0.3699594
47	0x3ed9a42b	0.42508063
48	0x3f0a215d	0.5395716
49	0xbf0614f7	-0.5237574
50	0xbe21f8fc	-0.15817636
51	0xbec502ad	-0.38478604
52	0x3f10d025	0.56567603
53	0xbe780f07	-0.24224482
54	0x3c061ce8	0.008185603
55	0x3e92a11a	0.28638536
56	0x3d594fd4	0.053054646
57	0x3d00950b	0.03139214
58	0x3de2136d	0.110388614
59	0xbfa664e7	-1.2999543
60	0xbe0025ce	-0.12514421
61	0x3f2df219	0.67947537
62	0xbedc34dc	-0.43009079
63	0xbeb47631	-0.35246423
64	0xbd95c9ce	-0.07313882
65	0x3e89d7a5	0.26922336
66	0xbf23914d	-0.63893586
67	0xbf274830	-0.65344524
68	0xbf122639	-0.57089573
69	0x3ec2696a	0.3797105
70	0x3ee9969a	0.45622712
71	0x3c97f6fe	0.018550392
72	0x3e8a63fd	0.2702941
73	0xbf2164ca	-0.63044417
74	0xbe82bfbd	-0.2553691
75	0x3f27e4c4	0.65583444
76	0xbea68512	-0.325234
77	0xbeec14d3	-0.46109638
78	0xbea0028e	-0.3125195
79	0x3f33916e	0.70143783
80	0x3eeea886	0.46612948
81	0xbf129bdb	-0.57269067
82	0x3dce3da8	0.10070354
83	0xbf4fe68c	-0.8121116
84	0x3ebed9c5	0.3727552
85	0xbd8f3f98	-0.069945514
86	0xbf11b634	-0.56918645
87	0xbec61c46	-0.38693446
88	0x3da1a10a	0.07892044
89	0x3e492f8b	0.19647042
90	0x3e424ea6	0.18975314
91	0x3dbe64a0	0.092965364
92	0x3e3ad66a	0.18245855
93	0x3eed9e44	0.4640981
94	0x3e685ef5	0.22692473
95	0xbf288d92	-0.6584102
96	0xbda800b2	-0.082032576
97	0x3ea8900a	0.32922393
98	0x3ebb118e	0.3653683
99	0xbc5b982b	-0.013402979
100	0x3e110e45	0.141656
101	0xbf3d3eba	-0.7392384
102	0x39870000	0.00025749207
103	0xbf14616f	-0.5796117
104	0xbe9f450c	-0.31107366
105	0x3e9792de	0.29604238
106	0xbd08cde8	-0.033399493
107	0x3d43ffbf	0.04785132
108	0x3ef8191b	0.48456654
109	0x3ee03e0d	0.4379734
110	0xbdf371d0	-0.118869424
111	0xbf0cbe7d	-0.5497816
112	0x3ee5df0b	0.4489673
113	0x3cec8523	0.028872078
114	0xbee3954d	-0.44449845
115	0x3d8a8ee0	0.067655325
116	0xbf18b807	-0.59655803
117	0xbeeb26ea	-0.45928127
118	0x3d8da62c	0.069164604
119	0xbdfa426f	-0.122197025
120	0x3edfa9a6	0.4368412
121	0xbf4c69a5	-0.798487
122	0x3ece1749	0.4025214
123	0xbed315fd	-0.41227713
124	0xbf1ee78f	-0.6207208
125	0x3e4c6098	0.19958723
126	0x3b86480f	0.0040979455
127	0x3e0eec72	0.13957384
128	0x3ee8fab1	0.45503762
129	0x3e9eb74b	0.30999216
130	0x3cdf8247	0.0272838
131	0x3e6d7445	0.23188885
132	0xbea402dd	-0.32033435
133	0x3d81c970	0.06337249
134	0xbf10d815	-0.56579715
135	0xbe423e68	-0.18969119
136	0x3e3bb268	0.18329775
137	0xbee7766a	-0.4520753
138	0x3eb730ee	0.35779518
139	0xbf42f773	-0.7615883
140	0xbed3370d	-0.41252938
141	0xbf2471a2	-0.6423589
142	0xbe11abe8	-0.14225733
143	0xbc91c1a0	-0.017792523
144	0x3cfdb84d	0.03097167
145	0x3eddde1a	0.43333513
146	0x3ec41bd4	0.3830248
147	0xbf003043	-0.5007364
148	0x3efae0df	0.48999688
149	0xbed03f2c	-0.40673196
150	0xbea8f301	-0.32997897
151	0x3dac1b08	0.08403593
152	0xbf07633f	-0.5288581
153	0x3e83db64	0.2575332
154	0xbeaeb812	-0.3412481
155	0x3debbad8	0.11510247
156	0x3e9536fa	0.29143506
157	0xbf19746b	-0.59943265
158	0x3e630636	0.22170338
159	0xbed11777	-0.40838215
160	0x3e22d2fa	0.15900794
161	0xbee5ac43	-0.44857988
162	0x3f17833f	0.5918464
163	0xbe0f9792	-0.14022663
164	0x3ea2732f	0.31728503
165	0x3d125399	0.035724256
166	0xbf14a009	-0.58056694
167	0xbf24b361	-0.6433621
168	0xbeaa870f	-0.33306167
169	0xbd422340	-0.0473969
170	0x3ef2cdc1	0.47422603
171	0xbf5f5b81	-0.87249
172	0x3e212375	0.15736182
173	0xbf4ad7b3	-0.7923538
174	0x3e28a9dd	0.16471048
175	0x3e55ab50	0.20866132
176	0xbf1a78b7	-0.60340446
177	0xbec1cd24	-0.37851822
178	0x3da925d8	0.08259171
179	0xbf77cb7f	-0.96794885
180	0x3edcdb73	0.43136176
181	0x3f19f505	0.60139495
182	0xbf243071	-0.64136416
183	0xbedf8292	-0.43654305
184	0x3ea58e18	0.3233497
185	0xbf522e10	-0.82101536
186	0xbd933260	-0.07187343
187	0xbe939be3	-0.2882987
188	0xbe969894	-0.29413283
189	0x3de75d40	0.11297083
190	0xbeb4e1b1	-0.3532844
191	0xbf2e48db	-0.6807992
192	0x3ec74953	0.3892313
193	0xbd38a78b	-0.045081656
194	0x3e68fec5	0.22753437
195	0x3b56ca93	0.0032774552
196	0xbf2b9d68	-0.6703706
197	0xbe20bfe8	-0.15698206
198	0xbdd35310	-0.10318577
199	0xbf300405	-0.68756133
200	0xbf0540f8	-0.5205226
201	0x3af1a800	0.0018436909
202	0xbeb4d4d8	-0.35318637
203	0xbef1fc08	-0.47262597
204	0xbed51558	-0.41617846
205	0xbedc98a7	-0.43085214
206	0x3ea11b17	0.3146598
207	0x3eaa15da	0.33219796
208	0xbf07b422	-0.53009236
209	0xbf326e7d	-0.6969984
210	0xbeb0df98	-0.34545588
211	0x3e45d740	0.19320393
212	0x3f023dc8	0.5087552
213	0xbb1a74ba	-0.002356811
214	0x3edacf08	0.42736077
215	0xbebcc307	-0.36867544
216	0xbd766388	-0.060153514
217	0x3e870770	0.26372862
218	0xbf04f575	-0.5193704
219	0xbe98d747	-0.29851744
220	0xbe92a846	-0.28644007
221	0x3e983ef1	0.2973552
222	0xbf25e02c	-0.64795184
223	0xbed76deb	-0.42076048
224	0x3ed4a620	0.41532993
225	0x3edc4b55	0.43026224
226	0xbe2fc6a9	-0.17165627
227	0x3f06a9fa	0.52603114
228	0xbdd68c4b	-0.104759775
229	0x3f4dec1a	0.8043839
230	0xbe1000f6	-0.14062867
231	0x3f098574	0.5371926
232	0xbc9ab92b	-0.018887123
233	0x3eb4afaf	0.35290286
234	0x3b92f54d	0.0044848085
235	0x3f174dbf	0.59103006
236	0xbb6a40ed	-0.0035744265
237	0x3f095287	0.5364155
238	0xbbf3d280	-0.007440865
239	0xbdd30bf0	-0.10305011
240	0x3f0a3293	0.5398342
241	0x3eaaed42	0.33384138
242	0x3ec85f70	0.39135313
243	0x3ec989f2	0.39363056
244	0x3dbbe89e	0.091752276
245	0xbe32d79f	-0.17465065
246	0xbea54881	-0.3228188
247	0x3f33523f	0.7004737
248	0xbf09b520	-0.53792
249	0x3e781358	0.24226129
250	0xbf2c7ad1	-0.673749
251	0xbe30fa90	-0.17283082
252	0xbf030d47	-0.51192135
253	0x3ceee1c0	0.02916038
254	0x3e3921a0	0.18079233
255	0x3e937dd6	0.28806943

linear1.bias f4 [256]
0	0x3fa68228	1.300847
1	0x3e06326f	0.13105176
2	0xbf9f7d85	-1.246018
3	0xbf883684	-1.0641637
4	0x3d32e9bf	0.04367995
5	0x3fc02b90	1.5013294
6	0xbdbf3798	-0.093367755
7	0x3f18640f	0.5952768
8	0x3f7b08ec	0.9806049
9	0xbf346979	-0.7047344
10	0xbbab6100	-0.005230069
11	0xbe7aa826	-0.24478206
12	0xbde2eabf	-0.110799305
13	0xbfc236f0	-1.5173016
14	0xbe045c72	-0.1292589
15	0x3b86c350	0.0041126385
16	0xbdc73488	-0.097268164
17	0xbf7e0008	-0.992188
18	0xbead662f	-0.33867022
19	0x3f07e690	0.53086185
20	0xbcb584c9	-0.022158043
21	0xbec40448	-0.38284516
22	0xbe9d346e	-0.30704063
23	0xbf353d4e	-0.7079667
24	0xbf697105	-0.9118808
25	0x3e6a7ceb	0.22899215
26	0x3f95a924	1.1692243
27	0xbf0df4d2	-0.5545169
28	0xbfb017d1	-1.3757268
29	0x3e496313	0.196667
30	0xbf1e317a	-0.61794245
31	0x3e35583e	0.17709443
32	0x3e6cebfe	0.23136899
33	0x3dd4f9ea	0.1039923
34	0x3f202dae	0.625697
35	0x3f3eaeae	0.7448529
36	0xbf402753	-0.75060004
37	0x3f6c1a19	0.9222732
38	0x3ef0b48c	0.47012746
39	0xbf598e9a	-0.8498322
40	0x3fd1dc4e	1.6395357
41	0xbed4e1d6	-0.4157855
42	0xbeffb7c7	-0.49944898
43	0x3e797185	0.2435971
44	0xbdef46ed	-0.1168345
45	0xbfe0a3d2	-1.7549994
46	0xbf84b745	-1.036843
47	0x3f88398a	1.064256
48	0x3fa26a85	1.2688757
49	0xbea92e66	-0.33043212
50	0x3f31f54f	0.69514936
51	0xbe81a444	-0.25320637
52	0xbd9de560	-0.077097654
53	0x3e669757	0.22518669
54	0x3e198e3c	0.14995664
55	0x3f1da67d	0.61582166
56	0x3e49f7d1	0.1972344
57	0xbf1a918d	-0.6037834
58	0xbef12950	-0.4710183
59	0x3f9c6d9f	1.2220954
60	0xbfa14bed	-1.2601296
61	0x3fba5306	1.4556587
62	0x3eaf29c8	0.34211564
63	0xbf9b1178	-1.2114706
64	0x3e502c92	0.20329502
65	0xbf9d5ae4	-1.2293363
66	0xbef478ed	-0.4774851
67	0x3ecae7d9	0.3963001
68	0xbe9e0b21	-0.30867866
69	0xbe9aa9ea	-0.3020776
70	0xbf1bd79f	-0.60875887
71	0xbe8b4669	-0.27202156
72	0xbfb89c05	-1.4422613
73	0xbf94bef7	-1.1620778
74	0x3f566ee3	0.8376295
75	0x3e8a638d	0.27029076
76	0x3f0f23c3	0.55913943
77	0x3e7d1d7a	0.24718276
78	0xbfcea0e0	-1.6142845
79	0x3fc8b3a9	1.5679828
80	0xbe70717a	-0.23480788
81	0xbffce814	-1.9758325
82	0xbf2ff2cb	-0.6872985
83	0xbec2fac4	-0.38081944
84	0x3e170441	0.14747716
85	0x3f06c57a	0.52645075
86	0xbd4d2759	-0.050086353
87	0xbfcdb219	-1.6069976
88	0x3dad1880	0.08451939
89	0xbf8e939f	-1.11388
90	0x3f33dc5d	0.7025812
91	0xba75b08c	-0.0009372316
92	0xbf1e1f50	-0.6176653
93	0x3ee01cc6	0.43771952
94	0x3f08179e	0.53161037
95	0xbe8c1732	-0.27361447
96	0xbe5f90d9	-0.21832599
97	0xbfcc1762	-1.5944636
98	0x3f149f14	0.58055234
99	0xbedad84a	-0.4274314
100	0x3d92d6fd	0.07169912
101	0xbf0e0096	-0.55469644
102	0xbabfd8f0	-0.0014636796
103	0xbf62d743	-0.88609713
104	0x3e3916f8	0.18075168
105	0x3ebe88f5	0.37213865
106	0xbf93a2e3	-1.1534084
107	0x3fb45f2c	1.4091544
108	0xbf865f40	-1.0497818
109	0xbed5c230	-0.41749716
110	0xbee56b3e	-0.44808382
111	0x3f28f56c	0.65999484
112	0xbfba7fd7	-1.4570264
113	0xbf8a5364	-1.0806699
114	0x3fdb35c8	1.7125788
115	0x3f9cc043	1.2246174
116	0xbf9690c5	-1.176293
117	0xbfb9622e	-1.4483087
118	0x3d36c884	0.04462482
119	0xbf09a3cc	-0.5376556
120	0xbfb163e3	-1.3858608
121	0xbf2e8a67	-0.68179935
122	0xbfb2f5c0	-1.3981247
123	0xbfa009c7	-1.2502984
124	0xbeb27209	-0.34852627
125	0x3e8f47a2	0.2798434
126	0xbe995d02	-0.29953772
127	0xbef03745	-0.46917167
128	0xbf403335	-0.75078136
129	0x3f226e45	0.6344951
130	0x3f18d40c	0.5969856
131	0x3fd3b56c	1.653974
132	0xbf8ae90f	-1.0852374
133	0xbfaf53f7	-1.3697499
134	0xbed618c0	-0.41815758
135	0x3d768e9d	0.0601946
136	0x3e4218e7	0.18954812
137	0xbfca7ab0	-1.5818691
138	0xbf5a4f19	-0.85276943
139	0xbf82fc9f	-1.0233344
140	0xbf438c41	-0.76385885
141	0xbe89f48c	-0.26944387
142	0xbee60c95	-0.44931474
143	0xbfff4e76	-1.9945819
144	0xbf2847d4	-0.657346
145	0xbfda00ab	-1.7031454
146	0x3f0ef50a	0.5584265
147	0x3f3fc39a	0.7490784
148	0xbd379b15	-0.044825632
149	0x3fa9f1a0	1.3276863
150	0xbec0e64e	-0.3767571
151	0xbeed318e	-0.4632687
152	0x3eb6034d	0.35549393
153	0x3f611ea8	0.879374
154	0xbf989b2f	-1.1922358
155	0xbf160d7e	-0.5861434
156	0x3f837f37	1.0273198
157	0x3f893248	1.071847
158	0x3fb8df84	1.4443212
159	0xbf0201e2	-0.5078412
160	0xbe6e2dc8	-0.23259652
161	0xbf3e8b68	-0.7443147
162	0xbf0f536f	-0.55986685
163	0xbfb76d00	-1.4330139
164	0xbf802a01	-1.0012819
165	0xbf9e03b2	-1.2344878
166	0xbd0060f0	-0.031342447
167	0xbdd62547	-0.10456329
168	0x3e8fc9cb	0.28083643
169	0xbf6636f3	-0.89927596
170	0xbe28dde8	-0.164909
171	0xbf5582f9	-0.83402973
172	0xbfc124ee	-1.5089395
173	0xbedc29a8	-0.4300053
174	0x3e6ab248	0.22919571
175	0x3f1f2939	0.62172276
176	0x3f7b3ccd	0.9813965
177	0xbfb00e9c	-1.3754458
178	0xbf08ff80	-0.5351486
179	0x3fa8cca8	1.3187456
180	0xbfbcf202	-1.4761355
181	0x3faa8ccb	1.3324217
182	0xbd476980	-0.048684597
183	0xbf7b6d42	-0.9821359
184	0xbfd22390	-1.6417103
185	0xbd829551	-0.06376136
186	0x3ecf8d49	0.4053748
187	0xbfbee907	-1.4914864
188	0x3ec181c3	0.37794313
189	0xbfb029d5	-1.3762766
190	0xbdac5e33	-0.084164046
191	0x3f4b1489	0.7932821
192	0x3fd7fa3a	1.6873238
193	0x3e5cf42f	0.21577524
194	0x3f34aeac	0.7057903
195	0x3fbb5e8b	1.4638227
196	0xbe0cabf4	-0.1373747
197	0x3f9643d0	1.1739445
198	0x3f1fbd2c	0.6239803
199	0x3f4b67d9	0.79455334
200	0xbfc2e35c	-1.5225635
201	0x3f6cfa19	0.9256912
202	0xbd80ac50	-0.06282866
203	0x3eece9e1	0.46272185
204	0xbe2134b4	-0.15742761
205	0xbfca0409	-1.5782481
206	0xbef08b82	-0.46981436
207	0x3d8bc921	0.06825472
208	0xbf12ca42	-0.5733987
209	0xbf9eea3e	-1.2415235
210	0xbec294ab	-0.3800405
211	0xbfba34d4	-1.4547372
212	0xbfa810ba	-1.3130105
213	0xbf95d6ff	-1.1706237
214	0x3f6156d3	0.8802311
215	0x3fc6e909	1.5539867
216	0x3e7a0c9e	0.24418876
217	0x3f296f78	0.6618571
218	0xbfa00aa5	-1.2503248
219	0xbd807f80	-0.06274319
220	0xbef1a435	-0.47195593
221	0x3efa9e65	0.4894897
222	0x3e117314	0.14204055
223	0x3eec2197	0.46119377
224	0x3f73f7e2	0.95300114
225	0x3fb47803	1.4099125
226	0xbf6d7bb4	-0.9276688
227	0xbeea8c33	-0.4581009
228	0xbe7c1b60	-0.24619818
229	0x3fc45999	1.5339843
230	0x3e505e25	0.20348413
231	0x3f9e0bac	1.2347312
232	0xbfc5ea2c	-1.5462089
233	0xbd74ed40	-0.05979657
234	0x3fbf2243	1.4932331
235	0x3f5a0a58	0.85172033
236	0xbfb53410	-1.4156513
237	0xbfdd79fa	-1.7302849
238	0xbd112590	-0.035436213
239	0xbe755d00	-0.23961258
240	0xbe191b8d	-0.14951916
241	0xbe8c63a6	-0.27419776
242	0xbfbaa4f3	-1.4581589
243	0xbfba5fd4	-1.4560494
244	0x3fa2c3b7	1.2715977
245	0xbf0cc704	-0.54991174
246	0xbebfaf3e	-0.37438387
247	0xbe4f7cfe	-0.20262524
248	0xbf92136b	-1.1412176
249	0xbfd97832	-1.6989806
250	0xbe9b13b4	-0.3028847
251	0xbd636f93	-0.055526327
252	0xbedc8bb7	-0.43075344
253	0x3e036e1d	0.12834974
254	0x3ebe8838	0.37213302
255	0xbf4da39d	-0.8032778

linear2.weight f4 [256, 256]
0	0x3d7d97d6	0.06191238
1	0xbd4959d6	-0.04915794
2	0xbc96fa4e	-0.018429901
3	0x3bee0429	0.0072636795
4	0xbba1abaa	-0.004933794
5	0xbd827c95	-0.063714184
6	0xbc8d8ef8	-0.017280087
7	0x3d195665	0.037435908
8	0x3afe2708	0.0019390294
9	0xbd1c3714	-0.038138464
10	0xbcfe34d0	-0.031031042
11	0x3d367df6	0.04455372
12	0xbc65055d	-0.0139783295
13	0x3c630f2f	0.0138586005
14	0x3db65b3a	0.08904119
15	0x3c00f341	0.007870496
16	0x3c1c7478	0.009549253
17	0x3b836388	0.004009668
18	0xbd352d42	-0.044232614
19	0xbd1c20b5	-0.03811713
20	0x3cacc8f4	0.021091916
21	0xbd146e6b	-0.036238115
22	0xbd15cdfc	-0.036573395
23	0xbb94249a	-0.004520965
24	0xbcbf86b0	-0.023379654
25	0x3cbbe6b8	0.022937164
26	0x3d61f754	0.05516751
27	0x3cad91c2	0.021187667
28	0x3c437018	0.011928581
29	0x3e0ba530	0.13637233
30	0xbd4f016c	-0.050538465
31	0xbd5f57f6	-0.054527245
32	0x3d3d0d66	0.046155356
33	0xbd4a61b4	-0.049409583
34	0x3b95444e	0.0045552617
35	0x3c1d461b	0.009599234
36	0xbd11f061	-0.035629634
37	0x3c8bf287	0.01708342
38	0xbd1bea7a	-0.03806541
39	0xbb7b584d	-0.0038352192
40	0x3d0f9184	0.035050884
41	0x3d222c42	0.03959299
42	0xbcdf12ef	-0.027230708
43	0x3ca1a457	0.019731684
44	0x3d047e7d	0.03234719
45	0xbd10e945	-0.035378713
46	0xbce89f7d	-0.028396362
47	0x3ca8ec90	0.020620614
48	0xbc9b4bfe	-0.018957134
49	0xbd200064	-0.039062873
50	0xbce4b31f	-0.027917443
51	0x3d6b8b3a	0.057505824
52	0xbd46b276	-0.048510037
53	0xbd2f1685	-0.042746086
54	0xbd5acb3f	-0.053416487
55	0x3b34613e	0.0027523781
56	0xbce26b3b	-0.027639022
57	0xbc1f6948	-0.009729691
58	0x3d3ce83e	0.04611992
59	0x3c2c8b93	0.010531324
60	0xbc91782a	-0.017757494
61	0xbccc3385	-0.02492691
62	0x3cb81549	0.022471087
63	0x3c9134d6	0.01772539
64	0xbd83859f	-0.064219706
65	0x3c204fd8	0.009784661
66	0x3c822650	0.01588741
67	0xbd148955	-0.036263783
68	0x3d15cf06	0.036574386
69	0x3cd6ebad	0.026235426
70	0x3c5fdeb0	0.013663933
71	0xbad20900	-0.0016024411
72	0xbcfaf03c	-0.03063213
73	0x3d34c858	0.044136375
74	0xbd019a09	-0.03164104
75	0x3d12fd02	0.03588582
76	0x3ce5f793	0.028072154
77	0xbd4781eb	-0.048707884
78	0x3c49af29	0.012309828
79	0xbd4a3c9d	-0.04937421
80	0x3d3c7062	0.046005614
81	0x3d70d3a5	0.05879559
82	0x3d5dca51	0.054148022
83	0x3cb5dbb0	0.022199482
84	0x3b5ecff4	0.0033998461
85	0xbd404ab5	-0.046946246
86	0x3cb4472c	0.022006594
87	0x3cc63d84	0.024199255
88	0xbcbdddc0	-0.023177028
89	0x3d800454	0.062508255
90	0x3a2a36a8	0.000649313
91	0x3d31d439	0.043415282
92	0xbc457fca	-0.012054393
93	0x3d305c18	0.043056577
94	0xbd42c5ac	-0.047551796
95	0xbd69380c	-0.056938216
96	0x3d306819	0.043068025
97	0xbd3d627f	-0.04623651
98	0xbd425316	-0.04744252
99	0x3d4e9cfa	0.050442673
100	0xbd3d9c19	-0.046291444
101	0x3d6cc284	0.057802692
102	0xbc9faf94	-0.019492902
103	0x3bbf7a68	0.0058434494
104	0xbcad6956	-0.021168392
105	0x3d034ca9	0.03205553
106	0x3d1a347b	0.037647706
107	0x3c4852b3	0.012226748
108	0xbd65b2af	-0.05607861
109	0xbd0e39ec	-0.034723207
110	0xbc355f80	-0.011070132
111	0xbd3a223d	-0.04544281
112	0xbd6d4268	-0.057924658
113	0x3bdfa861	0.0068254923
114	0x3d6212f4	0.055193856
115	0x3cee602c	0.029098593
116	0xbd925918	-0.071458995
117	0xbdd65417	-0.104652576
118	0xbda269b6	-0.07930319
119	0xbd4db37a	-0.05021999
120	0x3c9690b6	0.01837955
121	0x3ab9e160	0.0014181547
122	0x3ce875fc	0.028376572
123	0x3d2b5349	0.041827474
124	0xbc1a4788	-0.009416468
125	0x3ccb33a2	0.024804894
126	0xbcab1bc8	-0.02088727
127	0x3d2a1945	0.041528005
128	0x3c82288e	0.015888479
129	0xbc099b01	-0.008398772
130	0xbc8d0fbd	-0.017219419
131	0x3d4b9789	0.049705062
132	0x3d425541	0.047444586
133	0xbe04aacd	-0.1295578
134	0x3cc25188	0.023720518
135	0x3cdada36	0.02671538
136	0x3d4a4ba3	0.04938854
137	0xbcf250db	-0.02957957
138	0xbced6018	-0.028976485
139	0xbd3c6c7c	-0.046001896
140	0xbd1f602f	-0.038910087
141	0xbd7000ca	-0.058594503
142	0xbc9886e0	-0.018619
143	0x3d46af05	0.048506755
144	0xbc630568	-0.013856269
145	0xbd75655e	-0.059911124
146	0x3c2638de	0.010145394
147	0xbcb61a94	-0.02222947
148	0x3b25e068	0.0025310759
149	0x3a049d9c	0.0005058886
150	0xbd7d25d0	-0.06180364
151	0xbd5f3f66	-0.05450382
152	0xbce22c9c	-0.027609162
153	0xbbea9467	-0.007158804
154	0x3c83bf1d	0.01608234
155	0xbc13c60e	-0.009019388
156	0xbd1caa06	-0.038248084
157	0x3d094ab4	0.033518508
158	0x3bc149b9	0.005898681
159	0xbd6645aa	-0.05621878
160	0x3c0e0b96	0.0086697545
161	0xbcdd7110	-0.027031451
162	0xbc92c6c4	-0.017917044
163	0xbcf98b3e	-0.030461904
164	0xbc72408d	-0.014785898
165	0xbd321762	-0.04347933
166	0xbd5dfed8	-0.054198116
167	0x3d5288ef	0.05140012
168	0x396ee1fa	0.00022781632
169	0xbd4dde77	-0.050260987
170	0xbd6ff854	-0.058586434
171	0x3ca7c286	0.020478498
172	0xbd0223ad	-0.031772304
173	0xbd60e0f8	-0.054902047
174	0x3d27a705	0.040930767
175	0x3d6d629a	0.057955362
176	0xbd1f366d	-0.038870264
177	0xbd8e0da7	-0.06936198
178	0x3d559ee4	0.052153483
179	0x3d8a25d3	0.06745496
180	0xbd5f44b2	-0.054508872
181	0xbd4462ee	-0.04794591
182	0x3d503540	0.050832033
183	0x3c9dab64	0.019246764
184	0x3c375984	0.011190776
185	0x3b3d4ace	0.0028883698
186	0x3d4668af	0.048439678
187	0x3b337177	0.0027380863
188	0xbd05dae6	-0.03267946
189	0xbbe11fef	-0.006870262
190	0x3b8ed058	0.0043583326
191	0xbd016370	-0.03158897
192	0x3d463d49	0.04839829
193	0x3c238c90	0.009982243
194	0xbca21aad	-0.01978811
195	0x3d1d5949	0.038415227
196	0xbc938bec	-0.018011056
197	0xbd14851e	-0.036259763
198	0xbd88de74	-0.066830546
199	0xbc4a0800	-0.012331009
200	0xbd152f1e	-0.036421888
201	0xbdacb97c	-0.08433816
202	0x3d0a599a	0.033776857
203	0xbc0e1742	-0.008672537
204	0x3ca47e1c	0.020079665
205	0x3d2d56fb	0.04231928
206	0x3d1bc05e	0.038025253
207	0xbc7f5591	-0.015584365
208	0xbd37327e	-0.044725887
209	0xbcb445e0	-0.022005975
210	0x3d0013fe	0.031269066
211	0xbc7267f8	-0.014795296
212	0x3c7b0622	0.015321286
213	0xbd1fc8ed	-0.039009977
214	0x3d1adf39	0.037810538
215	0x3d4c57b0	0.049888313
216	0xbd278f59	-0.04090819
217	0x3d189273	0.03724904
218	0xbd115f33	-0.03549118
219	0xbce83a64	-0.028348155
220	0x3982e72d	0.00024967772
221	0x3d443d42	0.047909983
222	0xbd4006ce	-0.04688149
223	0x3cedd91a	0.029034186
224	0x3cc98562	0.024599735
225	0x3bf9c15c	0.007621927
226	0xbc7afaa4	-0.015318546
227	0x3d53dc0d	0.05172353
228	0xbd8464ec	-0.06464562
229	0x3d88a4dd	0.0667207
230	0x3d0d9f0d	0.03457551
231	0xbcc8b508	-0.024500385
232	0xbd20ef17	-0.039290514
233	0x3ccd6b28	0.02507551
234	0xbc9cbbd6	-0.019132536
235	0x3a668842	0.00087941077
236	0xbd6c6749	-0.057715688
237	0xbc5dbbb2	-0.01353352
238	0x3d28cc44	0.041210428
239	0xbbe8ae20	-0.0071008354
240	0xbc8ab147	-0.016930236
241	0xbb162717	-0.0022911483
242	0xbd04b3bd	-0.032397974
243	0xbd93414c	-0.07190189
244	0x3d13ba95	0.03606661
245	0x3d6c3d8e	0.05767589
246	0xbaee4080	-0.0018177181
247	0x3d082c71	0.033245508
248	0x3b4fe6e1	0.0031723308
249	0xbc0e997d	-0.008703587
250	0x3d310ff2	0.043228097
251	0x3aa429fb	0.0012524718
252	0xbca8670c	-0.02055695
253	0x3c407630	0.011746928
254	0xbd98f67e	-0.0746889
255	0x3d65a417	0.05606469

linear2.bias f4 [256]
0	0x3dcb7a84	0.099354774
1	0xbbb80b6b	-0.0056165955
2	0x3aaf1aa4	0.001335938
3	0x3bb34ff7	0.005472179
4	0xb95efe00	-0.00021266192
5	0xbd211d50	-0.039334595
6	0x3cda9dc4	0.026686557
7	0xbdd5f47c	-0.10447022
8	0x3b0c7686	0.002143295
9	0x3cc367cf	0.02385321
10	0xbea06bb6	-0.31332177
11	0x3c9c6a12	0.019093547
12	0xbe4255a1	-0.18977977
13	0x3d997cdf	0.074945204
14	0x3dee1dc8	0.11626774
15	0xbd3ed13d	-0.046586264
16	0x3d3ca159	0.04605231
17	0x3c5f40d1	0.013626293
18	0xbb726142	-0.003698424
19	0xbcfc5869	-0.030803876
20	0x3e6ff3af	0.23432802
21	0x3d003625	0.031301636
22	0xbccabfb5	-0.024749616
23	0xbd1aa5b3	-0.03775568
24	0x3cea1b3a	0.028577436
25	0xbecb828c	-0.39748037
26	0xbbbffccd	-0.0058589936
27	0xbcea478a	-0.028598566
28	0xbd4e36cc	-0.050345227
29	0xbc97c2f0	-0.01852557
30	0xbc2002e8	-0.009766318
31	0x3cd45d4f	0.0259234
32	0xbd2c212e	-0.04202383
33	0xbd59f57e	-0.053212635
34	0xbed56cff	-0.4168472
35	0xbd55375c	-0.052054748
36	0xbd0f8702	-0.035040863
37	0x3d4a4031	0.049377624
38	0x3c9bf6f8	0.019038662
39	0xbd040f65	-0.032241244
40	0xbd13edb3	-0.03611536
41	0x3dab3e1a	0.08361454
42	0x3e41f5bb	0.18941395
43	0x3ce5c06f	0.028045861
44	0xbcc68f9b	-0.024238398
45	0xbc9cd7a4	-0.019145794
46	0xbe4491bb	-0.19196217
47	0x3c7a3843	0.015272203
48	0xbc189bec	-0.009314518
49	0x3d4e54e4	0.050373927
50	0x3cc1d626	0.023661684
51	0xbc90de2f	-0.01768407
52	0xbd1dd00c	-0.038528487
53	0xbe3eaa5e	-0.18619677
54	0xbcb1120e	-0.021615054
55	0xbd526c77	-0.05137297
56	0x3d375c11	0.044765536
57	0xbcadf0c4	-0.02123297
58	0xbc87c6b4	-0.016574241
59	0x3d169861	0.036766414
60	0xbe21e76d	-0.15810938
61	0xbf48dad9	-0.78458935
62	0xbcff67c9	-0.031177418
63	0xbc057378	-0.008145206
64	0xbca1a57b	-0.019732228
65	0xbd95a2fc	-0.073064774
66	0x3d97b419	0.07407398
67	0x3b4c4d19	0.0031173883
68	0xbcc230a0	-0.023704827
69	0x3b9b5b30	0.004741095
70	0x3b21e3bb	0.0024702388
71	0x3d600a7c	0.0546975
72	0x3cb0f68f	0.021601943
73	0xbd5ad512	-0.053425856
74	0x3d208f8a	0.03919939
75	0x3ccf315b	0.02529209
76	0x3dd63777	0.10459798
77	0xbcbfd88d	-0.02341869
78	0x3ccefa82	0.025265936
79	0xbc81a883	-0.015827423
80	0x3d26a00e	0.040679984
81	0xbd8b6070	-0.06805503
82	0xbb180160	-0.002319418
83	0x3d71afc8	0.05900553
84	0x3c4ca5e3	0.012490722
85	0x3cf504e9	0.029909568
86	0xbed7fd16	-0.42185277
87	0xbe896ce1	-0.2684088
88	0xbecad543	-0.3961583
89	0x3cbecbde	0.02329057
90	0xbc240bc3	-0.01001257
91	0x3d8c9e2e	0.06866108
92	0x3cd4145c	0.025888614
93	0xbe1d967d	-0.15389438
94	0x3d40a88d	0.047035743
95	0xbcd7e927	-0.026356293
96	0x3d53a8fd	0.05167483
97	0xbd59664f	-0.053076085
98	0x3cc9e9dc	0.024647646
99	0x3c397450	0.011319235
100	0x3d10027b	0.035158616
101	0xbe13ed06	-0.14445886
102	0xbb664f39	-0.0035142435
103	0x3cb2b307	0.021813883
104	0xbd318b37	-0.043345656
105	0xbe905b3e	-0.28194612
106	0xbd6b8c22	-0.057506688
107	0xbd2ed86f	-0.042686876
108	0xbd1bf078	-0.038071126
109	0xbcbef1e1	-0.023308696
110	0xbd1f3b30	-0.038874805
111	0x3b222072	0.0024738577
112	0xbf47b00d	-0.7800301
113	0x3b7a06bb	0.0038150984
114	0x3c7f2153	0.01557191
115	0x3cbecc0c	0.023290657
116	0x3d7fbdc6	0.06243684
117	0xbc9b58cf	-0.018963246
118	0xbd8cc2fd	-0.068731286
119	0x3c9592bd	0.018258447
120	0x3d1f104e	0.03883391
121	0xbc777f8e	-0.015106095
122	0xbd5bdcc0	-0.05367732
123	0x3cf27b38	0.02959977
124	0xbd494790	-0.049140513
125	0x3d180f0b	0.03712372
126	0xbadcd128	-0.0016847001
127	0xbe7095df	-0.23494671
128	0xbd0a28d1	-0.03373033
129	0x3c960849	0.018314498
130	0x3c4dcb7f	0.012560724
131	0x395eb83a	0.000212402
132	0xbd4bcf6f	-0.04975837
133	0x3b2d8e00	0.0026482344
134	0x3d9f0b11	0.077657826
135	0x3a40a338	0.000734854
136	0xbd3316c4	-0.043722883
137	0xbe4396f3	-0.19100551
138	0xbcdeb5a2	-0.027186219
139	0x3cc74524	0.024324961
140	0xbc4eae8c	-0.012614857
141	0xbcb67b8a	-0.022275705
142	0x3d8611b8	0.06546348
143	0x3d80917e	0.062777504
144	0xbb0e0697	-0.0021671408
145	0xbc1f8850	-0.009737089
146	0xbd5d715e	-0.054063194
147	0xbd41ad73	-0.047284555
148	0x3d2d0d37	0.04224893
149	0x3d6a030f	0.057131823
150	0x3bc58ba3	0.006028609
151	0xbd0ddaf6	-0.034632646
152	0xbc62b5f1	-0.0138373235
153	0x3bdc8fdf	0.006731018
154	0x3c2cf0f8	0.010555498
155	0xbd2f4492	-0.042790003
156	0xbcf4920f	-0.029854802
157	0xbd7e88a8	-0.062142044
158	0xbc0b08e1	-0.008486004
159	0x3d41fb07	0.04735854
160	0x3b1e1894	0.0024123536
161	0xbf0145dc	-0.5049722
162	0xbcccd5be	-0.025004264
163	0xbd60d04a	-0.05488614
164	0x3d4a75df	0.049428817
165	0x3cae96dc	0.02131217
166	0xbbe255ad	-0.006907186
167	0xbd453e4c	-0.048155114
168	0xbdef988a	-0.116990164
169	0x3c7b7692	0.015348094
170	0x3cbc0d60	0.022955596
171	0xbbe13bf0	-0.0068736
172	0xbd37a062	-0.044830687
173	0x3d00165c	0.031271324
174	0xbd028ede	-0.03187453
175	0x3c6e7288	0.014553674
176	0x3c9924f4	0.018694378
177	0x3d4be51d	0.049779046
178	0xbd4d488b	-0.05011801
179	0xbc22def3	-0.009940851
180	0xbeaa03b2	-0.33205944
181	0xbd32e9f3	-0.043680143
182	0xbc139500	-0.009007692
183	0xbc6d4b78	-0.014483325
184	0xbcc023aa	-0.023454506
185	0x3de116d6	0.10990684
186	0xbe418491	-0.18898226
187	0x3c029556	0.007970175
188	0x3af6d021	0.0018830338
189	0xbe4ae690	-0.19814515
190	0xbd2bbaf8	-0.041926354
191	0x3db9c5e9	0.090709515
192	0x3d77217e	0.060334675
193	0x3ce4ca36	0.027928453
194	0x3c8c0b29	0.017095165
195	0x3c340778	0.010988109
196	0xbe4687f7	-0.19387804
197	0xbf29b91e	-0.6629809
198	0xbd97ede0	-0.07418418
199	0x3cdace3c	0.026709668
200	0x3cc8e823	0.024524754
201	0xbd067acc	-0.032831952
202	0x3c85c49d	0.016329104
203	0x3d552d07	0.052044895
204	0x3cffb780	0.03121543
205	0x3f6b2b71	0.9186316
206	0xbcf36436	-0.02971087
207	0x3cf3b545	0.029749522
208	0xbca5aec9	-0.020224946
209	0xbe0e1ed8	-0.13878953
210	0x3f8e30ce	1.1108644
211	0x3db1dbf9	0.086845346
212	0x3c2c0d18	0.010501169
213	0xbd59fb2b	-0.053218048
214	0x3d5d6eb0	0.054060638
215	0xbd1c9b77	-0.0382342
216	0xbd04fb7a	-0.03246639
217	0x3cd0d2e8	0.025491193
218	0xbca39b24	-0.019971438
219	0x3d1f9e2d	0.038969208
220	0x3d470eb6	0.048598014
221	0x3b69d120	0.0035677627
222	0xbc42cd77	-0.011889807
223	0xbd20028c	-0.03906493
224	0x3d228a2e	0.03968256
225	0xbe3f1874	-0.18661672
226	0xbc887c21	-0.016660752
227	0xbc451417	-0.012028716
228	0xbd74d130	-0.05976981
229	0xbd113ea0	-0.035460114
230	0x3cae6386	0.02128769
231	0xbd1dc2ea	-0.038515963
232	0x3e4cf58a	0.2001554
233	0xbeffead3	-0.49983844
234	0xbcaba76c	-0.020953856
235	0xbc47e335	-0.0122001665
236	0xbcacc8b3	-0.021091795
237	0x3e9c6737	0.30547497
238	0x3d8ce3e8	0.06879407
239	0x3c3e4ba0	0.01161471
240	0xbe6da33a	-0.23206797
241	0xbd55ce1f	-0.052198526
242	0x3d510e56	0.051039062
243	0x3c9f5a23	0.01945216
244	0x3d1c08a6	0.038094185
245	0xbb095ae1	-0.002095871
246	0x3c96cfdc	0.018409662
247	0x3ce93a41	0.02847016
248	0x3d2ccf4e	0.04218989
249	0x39f7ed00	0.0004728809
250	0xbd2817b1	-0.04103822
251	0x3cbbd84b	0.022930285
252	0x3d4be611	0.049779955
253	0xbc7b88cf	-0.015352442
254	0x3e725eb0	0.23668933
255	0x3c939d63	0.018019384

linear4.weight f4 [256, 256]
0	0x3d21638c	0.039401576
1	0x3c726970	0.014795646
2	0x3d48b2fe	0.048998825
3	0xbd2c0327	-0.041995194
4	0x3d17e88c	0.03708701
5	0xbcd1bf14	-0.025603808
6	0x3d3a4b05	0.0454817
7	0x3e38d58a	0.18050209
8	0xbd66a034	-0.056305125
9	0x3d50baa3	0.05095924
10	0x3db4a6d5	0.08820883
11	0x3c5b0b26	0.013369357
12	0x3ca0d111	0.01963094
13	0xbd56b5fc	-0.052419648
14	0xbd144d10	-0.036206305
15	0x3e129cbe	0.14317605
16	0x3d2a80c3	0.041626703
17	0xbcaf644e	-0.021410134
18	0x3c85c0f6	0.016327363
19	0xbd34479d	-0.04401361
20	0xbcbeda61	-0.02329749
21	0x3cfcdfc4	0.030868419
22	0xbc0ff181	-0.008785606
23	0x3c8e8baf	0.01740059
24	0xbd3830aa	-0.044968285
25	0x3d43ada2	0.04777301
26	0x3d1e6200	0.03866768
27	0xbd2ce5d9	-0.042211387
28	0xbc89e6c0	-0.016833663
29	0xbd745e44	-0.05966021
30	0xbcd0ead0	-0.025502592
31	0x3d4d02a0	0.05005133
32	0x3d635cd6	0.055508457
33	0x3b8f8070	0.0043793246
34	0x3d78bcd1	0.060726944
35	0xbd4ce61a	-0.05002413
36	0x3c638a10	0.013887897
37	0xbd49c8c5	-0.049263734
38	0x3c970eea	0.018439729
39	0xbc6f7ba0	-0.014616877
40	0xbcb0b444	-0.021570332
41	0xbc1bfb32	-0.009520339
42	0xbac791f8	-0.0015225997
43	0x3d668999	0.056283567
44	0x3c468489	0.01211656
45	0x3c0473e4	0.008084271
46	0x3c98ad90	0.018637449
47	0x3b3cf3db	0.0028831873
48	0x3a468870	0.00075734314
49	0x3cee3948	0.029080048
50	0xbd1f7c05	-0.038936634
51	0x3d659f7d	0.056060303
52	0x3cdf0200	0.027222633
53	0x3e0da0d7	0.13830887
54	0x3d2c8414	0.042118147
55	0x3aaca3eb	0.001317141
56	0xbd194c77	-0.03742644
57	0xbcd681f4	-0.026185013
58	0xbc6bebd8	-0.014399491
59	0x3cf4d4b0	0.029886574
60	0x3dd260e5	0.102723874
61	0x3de7a56e	0.1131085
62	0xbb88709c	-0.0041638147
63	0x3cc4fc0c	0.024045967
64	0xbc73193a	-0.014837557
65	0x3db3170e	0.08744632
66	0xbcfd4f7d	-0.030921692
67	0xbc0be477	-0.008538357
68	0x3d0d72fa	0.03453348
69	0x3d5c7e50	0.0538314
70	0xbc97548a	-0.018472929
71	0xbcc38c54	-0.023870625
72	0xbc583672	-0.0131965745
73	0xbd1235f6	-0.035695992
74	0x3d260ba0	0.04053843
75	0x3c756eee	0.014980061
76	0xbd8be7a8	-0.06831294
77	0x3d015c1c	0.031581983
78	0xbd5d43bc	-0.054019675
79	0xbd377aea	-0.044794954
80	0xbd5e7427	-0.05430999
81	0x3ca92714	0.020648517
82	0xbcf3d8e0	-0.0297665
83	0xbce3a890	-0.027790338
84	0xbcc36302	-0.023850922
85	0xbc211a3a	-0.009832913
86	0xbc95965f	-0.01826018
87	0xbcbfd0d2	-0.023415003
88	0x3d92503b	0.07144209
89	0x3cd95d37	0.026533706
90	0xbd562686	-0.052282833
91	0x3d27a88d	0.040932227
92	0x39bdeea4	0.0003622669
93	0x3d958a96	0.07301824
94	0x3d21d272	0.039507337
95	0xbbab2ea0	-0.005224064
96	0x3d5f6970	0.054543912
97	0x3c9e7af0	0.01934573
98	0x3ca3b296	0.019982617
99	0x3c55cdf8	0.013049595
100	0x3c3b7ef2	0.01144384
101	0x3e3312ce	0.17487642
102	0x3d4a3caa	0.04937426
103	0xbd334d46	-0.043774866
104	0xbd801f33	-0.06255951
105	0x3c9156ce	0.017741587
106	0x3d48e9ad	0.049050976
107	0x3d3d8858	0.046272606
108	0x3cdd50a4	0.027015992
109	0xbc331882	-0.010931136
110	0x3cd7e20f	0.02635291
111	0xbd06f1b7	-0.03294536
112	0x3d954884	0.07289222
113	0x3d4dbfdc	0.0502318
114	0xbc0b08df	-0.008486002
115	0x3b745ba0	0.0037286058
116	0xbc0dccb0	-0.008654758
117	0xbd68eae7	-0.056864645
118	0x3c8e6088	0.017380014
119	0x3cd6b8a6	0.026211094
120	0xbcb6f3a8	-0.022332981
121	0x3ca6838c	0.020326398
122	0xbcebb438	-0.028772458
123	0xbd447066	-0.047958754
124	0x3cca2718	0.024676844
125	0xbd5c500a	-0.05378727
126	0xbd7a1189	-0.06105188
127	0x3d4955ae	0.049153976
128	0x3cfbd3f2	0.030740712
129	0xbdaf9fef	-0.08575427
130	0x3d667ab7	0.056269374
131	0xbcbba535	-0.022905925
132	0x3c38a326	0.011269366
133	0x3c9cd004	0.019142158
134	0xbb9e2e3e	-0.00482729
135	0xbd62528b	-0.0552545
136	0x3d55910a	0.052140273
137	0x3cb78302	0.022401337
138	0x3dd0ecad	0.10201392
139	0x3b1da6d2	0.0024055731
140	0xbc348340	-0.011017621
141	0x3bde030d	0.006775266
142	0x3d68886e	0.056770734
143	0xbd74afd0	-0.05973798
144	0x3d3daafd	0.046305645
145	0xbc700d26	-0.014651572
146	0x3d5188ad	0.051155735
147	0x3d3622fc	0.044466957
148	0x3cace15c	0.021103553
149	0xbc453512	-0.012036579
150	0xbd591d87	-0.053006675
151	0x3d45056e	0.04810088
152	0x3c93a9d5	0.018025318
153	0x3c1c3c3e	0.009535847
154	0x3d688422	0.056766637
155	0x3cb89679	0.022532688
156	0x3b5de79d	0.0033859976
157	0xbcf986e4	-0.030459829
158	0xbd4a73b1	-0.04942674
159	0xbd32f9b4	-0.043695167
160	0x3d005c38	0.031337947
161	0x3e3fe9d4	0.18741542
162	0xbcc81a7a	-0.024426688
163	0xbb9e8f40	-0.004838854
164	0x3d2f2ea6	0.042769097
165	0x3c8cf2c6	0.017205607
166	0xbd820648	-0.06348854
167	0xbd35f762	-0.044425376
168	0x3ca57f6d	0.020202363
169	0x3d03d7fa	0.032188393
170	0x3d3cd6cb	0.04610328
171	0xbb340da2	-0.0027473946
172	0x3cd05ae4	0.025433965
173	0xbd83fac1	-0.06444312
174	0xbd5371e4	-0.051622286
175	0x3ac81323	0.0015264492
176	0x3c9a9c1b	0.018873265
177	0x3c73c7e2	0.014879199
178	0x3d78d216	0.06074723
179	0x3d57f06c	0.05271952
180	0x3d0d6ab1	0.034525577
181	0xbd752b71	-0.059855882
182	0xbd776666	-0.06040039
183	0xbcde5fa8	-0.027145222
184	0x3d44f1ef	0.04808229
185	0xbd2e8990	-0.04261166
186	0x3c6c08d1	0.014406399
187	0xbc8bf975	-0.017086724
188	0x3bf63f86	0.007514897
189	0x3d1296ee	0.03578847
190	0xbc754c4d	-0.014971805
191	0xbda9093f	-0.08253717
192	0x3d03129c	0.03200017
193	0x3ce972e0	0.02849716
194	0xbd1b1a4e	-0.037866883
195	0x3d709e8a	0.058744945
196	0xbd10588c	-0.035240695
197	0x3d97d7c6	0.074142024
198	0x3e040ce9	0.1289555
199	0xbbbea9dd	-0.005818589
200	0x3cc83a9c	0.02444201
201	0x3d4859a4	0.048913613
202	0x3d78c17e	0.060731404
203	0xbd381df2	-0.044950433
204	0x3d5acaa6	0.053415917
205	0xbde89030	-0.113556266
206	0xbc9249d4	-0.01785747
207	0x3d6692d6	0.056292377
208	0x3d525493	0.051350188
209	0x3ddfda34	0.10930291
210	0xbe777d51	-0.24168898
211	0xbd2667e6	-0.04062643
212	0xbd25a4fa	-0.040440537
213	0xbcafaf9b	-0.02144604
214	0x3cc652b4	0.024209358
215	0xbd80c1a4	-0.06286934
216	0x3ae6ab86	0.0017598725
217	0xbcc59f1c	-0.02412372
218	0x3d42661f	0.04746067
219	0x3ce83f8d	0.028350616
220	0xbd45c909	-0.048287425
221	0x3cd57634	0.02605734
222	0x3c9c66f0	0.019092053
223	0x3cc7ff6e	0.02441379
224	0xbc0dbe35	-0.008651306
225	0x3e4a83f5	0.197769
226	0x3d22e9eb	0.039773863
227	0xbca1915f	-0.019722639
228	0xbcd38100	-0.025818348
229	0x3c339e60	0.0109630525
230	0x3dcb187a	0.09916778
231	0xba0acd00	-0.00052948296
232	0xbd3d5939	-0.046227667
233	0x3e557305	0.20844658
234	0xbd2e0fa0	-0.04249537
235	0xbcb7d711	-0.022441419
236	0xbc908bad	-0.017644728
237	0x3d0c51a8	0.03425756
238	0xbd5bb832	-0.05364246
239	0xbd7f0854	-0.0622638
240	0x3e1c6777	0.15273844
241	0xbd746a44	-0.059671655
242	0x3cfc09cc	0.03076639
243	0x3c15d1e8	0.009144284
244	0xbcf4984e	-0.02985778
245	0x3d17770d	0.03697877
246	0xbda22724	-0.07917622
247	0xbd70ec98	-0.058819383
248	0x3e02b0c6	0.12762746
249	0x3c31de18	0.010856174
250	0xbcf3dc0a	-0.029768009
251	0xbc2c1715	-0.01050355
252	0x3bf10eec	0.007356515
253	0xbd214d72	-0.0393805
254	0xbc3b7a0c	-0.011442672
255	0xbcf39705	-0.029735098

linear4.bias f4 [256]
0	0xbece32f3	-0.40273246
1	0x3e953be6	0.2914726
2	0xbeafaab9	-0.3430994
3	0x3d42058c	0.04736857
4	0xbf2087cb	-0.62707204
5	0xbf10dcb8	-0.5658679
6	0xbce3214c	-0.027725838
7	0xbf092e51	-0.535863
8	0x3ee91dbb	0.45530495
9	0xbe3418cc	-0.17587584
10	0xbf24eded	-0.64425546
11	0x3d8a4eb3	0.06753292
12	0x3ecb2f66	0.396846
13	0xbcebddc6	-0.028792273
14	0xbf07a1f7	-0.52981514
15	0xbf1ec349	-0.6201673
16	0xbd147f1d	-0.036254037
17	0xbf0f1250	-0.5588732
18	0xbeddccb8	-0.4332025
19	0xbed2bb0d	-0.41158333
20	0xbf0a530b	-0.54032964
21	0x3de6ca49	0.112690516
22	0xbc043cd6	-0.008071145
23	0x3d73b9d5	0.059503395
24	0xbf0874de	-0.53303325
25	0x3bd55931	0.0065108766
26	0xbecba63e	-0.3977527
27	0xbf1eb048	-0.61987734
28	0xbd970049	-0.07373101
29	0x3e478e1f	0.19487809
30	0x3f36d210	0.7141428
31	0xbf1886ea	-0.5958086
32	0x3f59c22b	0.850619
33	0x3ee6c677	0.45073292
34	0x3e20f01c	0.15716594
35	0xbf4cdf20	-0.8002796
36	0xbed70442	-0.41995436
37	0x3d5b47af	0.05353516
38	0x3f489c24	0.7836325
39	0x3ef7176e	0.48260063
40	0x3e1416d9	0.1446184
41	0xbf0ad37a	-0.5422894
42	0x3f42124b	0.7580916
43	0xbee9a22c	-0.4563154
44	0xbf117074	-0.56812215
45	0xbebf3090	-0.37341738
46	0x3f3e3b48	0.74309206
47	0xbed2e7f7	-0.411926
48	0x3f09694d	0.536763
49	0x3f1c1f27	0.60985035
50	0xbeabbb52	-0.33541352
51	0xbe03f376	-0.12885842
52	0xbf273ecf	-0.65330213
53	0x3e7133bb	0.2355489
54	0x3f1e8fc0	0.61938095
55	0xbeac90d2	-0.3370424
56	0xbe032af2	-0.12809351
57	0x3df37c5c	0.11888954
58	0x3d4bb921	0.0497371
59	0xbf2f5cf0	-0.68501186
60	0x3f007dab	0.50191754
61	0x3cd9469c	0.026522927
62	0xbd864b4e	-0.06557332
63	0x3f2e7a55	0.68155414
64	0x3c4c7779	0.012479656
65	0xbf3200d7	-0.6953253
66	0xbbb3e249	-0.005489622
67	0x3db9c768	0.09071237
68	0x3f39c632	0.7256805
69	0xbf0af179	-0.5427471
70	0xbf172d39	-0.5905338
71	0xbe0c8d2a	-0.13725725
72	0x3e49f5a7	0.19722615
73	0x3e917859	0.2841213
74	0xbeec5e45	-0.46165672
75	0xbdb51902	-0.088426605
76	0xbd2d79e4	-0.042352572
77	0x3cc09922	0.02351052
78	0xbf0d67e5	-0.55236655
79	0xbcd7c934	-0.026341058
80	0xbdb9f032	-0.09079017
81	0x3f4cbc1a	0.7997452
82	0x3e743b2b	0.23850696
83	0x3f295841	0.6615029
84	0xbebd5357	-0.36977646
85	0xbdbcd9e7	-0.09221249
86	0x3f483848	0.7821088
87	0x3f21e334	0.6323731
88	0xbf07cc38	-0.5304599
89	0x3f1c5155	0.610616
90	0x3ed96c03	0.4246522
91	0xbe007f3d	-0.12548538
92	0x3e027f06	0.12743768
93	0xbe9197d5	-0.2843615
94	0xbf0b2e04	-0.5436709
95	0xbed2a346	-0.41140193
96	0xbc1b0fc8	-0.009464212
97	0x3f2d9080	0.67798615
98	0xbf0a8e64	-0.5412352
99	0xbe8ee609	-0.27909878
100	0x3e540596	0.20705256
101	0x3e93d696	0.28874654
102	0x3dff6b3b	0.124716245
103	0xbd8f60e7	-0.070009045
104	0x3f26993b	0.6507756
105	0xbf57dc9b	-0.8432099
106	0x3cd8956c	0.026438437
107	0xbf3f4450	-0.7471361
108	0xbec25ba1	-0.37960532
109	0x3f2377ba	0.63854563
110	0xbf58e5fb	-0.8472592
111	0xbe766013	-0.24060087
112	0x3eef93c6	0.4679243
113	0xbf390160	-0.72267723
114	0xbf6d071f	-0.9258899
115	0x3d381259	0.044939373
116	0xbf6bb966	-0.9207977
117	0xbf08c4cb	-0.5342528
118	0xbf44b0f9	-0.7683254
119	0xbf10c331	-0.5654784
120	0x3f0626e4	0.5240309
121	0x3eb97651	0.3622308
122	0xbf8e2518	-1.110507
123	0xbececc2f	-0.40390155
124	0xbe2b48ba	-0.16726962
125	0xbf4ec678	-0.8077159
126	0xbf385119	-0.71998745
127	0x3f354564	0.70809007
128	0xbd53169c	-0.051535234
129	0xbf071540	-0.527668
130	0x3d0a8148	0.0338147
131	0xbf0fa501	-0.5611115
132	0x3f2437c5	0.641476
133	0x3f211541	0.62923056
134	0xbe29e269	-0.16590275
135	0x3e329bf2	0.17442301
136	0x3f023a74	0.5087044
137	0xbd6b1846	-0.057396196
138	0x3ed2d52b	0.4117826
139	0x3f48ff97	0.78515
140	0x3f3897d2	0.7210666
141	0xbebc19b4	-0.3673836
142	0xbec12f7f	-0.3773155
143	0xbf1dd883	-0.61658496
144	0x3e89b0f3	0.26892814
145	0x3ef8dd79	0.4860647
146	0x3e9ef9fb	0.31050095
147	0x3d15eb7c	0.03660153
148	0x3e8759b0	0.26435614
149	0xbf409a24	-0.752352
150	0x3f085277	0.5325083
151	0x3f24ef13	0.644273
152	0xbf09b33b	-0.5378911
153	0x3ed27814	0.41107237
154	0x3f2f69da	0.6852089
155	0x3eefb637	0.46818706
156	0xbc909097	-0.01764707
157	0x3f5903a9	0.8477121
158	0x3f357e09	0.7089544
159	0xbf1e52ed	-0.61845285
160	0xbf053659	-0.5203605
161	0xbed2c569	-0.41166237
162	0xbee50008	-0.44726586
163	0x3f22c0d5	0.6357549
164	0xbf67e1f7	-0.9057917
165	0xbf2a3fc2	-0.66503537
166	0xbbc3c991	-0.0059749563
167	0x3ed62b5d	0.4182996
168	0xbf478b37	-0.779468
169	0x3f5215b4	0.82064366
170	0xbc36106b	-0.011112313
171	0x3ec848ff	0.39118192
172	0x3eadd5b8	0.33952117
173	0x3d235608	0.039876968
174	0xbed91a81	-0.42403033
175	0x3cfc6f69	0.030814843
176	0xbf31b71d	-0.69420034
177	0xbec3fe91	-0.38280156
178	0x3f1e7dac	0.6191051
179	0xbf0278da	-0.50965655
180	0xbebd1e13	-0.36937007
181	0xbeab14da	-0.33414346
182	0xbcbc70c3	-0.023002988
183	0xbf11c07f	-0.5693435
184	0xbf297792	-0.66198075
185	0xbda9fba0	-0.08299947
186	0xbf0e4a5e	-0.55582225
187	0x3f2e5a7f	0.68106836
188	0x3f375d24	0.71626496
189	0xbc136823	-0.008996996
190	0x3f37af79	0.71752125
191	0x3f20e84a	0.62854445
192	0x3e91f5d4	0.28507864
193	0xbf161b08	-0.58634996
194	0x3e386fe8	0.18011439
195	0xbf27ff3c	-0.6562383
196	0x3d213757	0.039359417
197	0x3cc8b479	0.024500119
198	0x3da11b27	0.07866507
199	0x3f2a3a1c	0.6649492
200	0xbefce2c1	-0.4939175
201	0x3f042dcf	0.516324
202	0x3d958d63	0.07302358
203	0x3ca9175b	0.02064102
204	0x3f3713e2	0.71514714
205	0xbe83a013	-0.25708064
206	0xbeb8e990	-0.36115694
207	0x3f07de46	0.5307354
208	0xbd903347	-0.070410304
209	0xbf6e914e	-0.9319047
210	0x3f1bb9a3	0.60830134
211	0xbdb6f69a	-0.08933754
212	0x3f3a9300	0.72880554
213	0x3f23e054	0.6401417
214	0xbef2714f	-0.47352073
215	0x3f57d45e	0.8430842
216	0xbeca3748	-0.394953
217	0xbf3749ca	-0.7159697
218	0xbf531bfc	-0.82464576
219	0xbdecf074	-0.115693
220	0x3ef9ab3b	0.4876345
221	0xbedb698b	-0.4285396
222	0x3f0ab95e	0.541891
223	0x3de0dacb	0.109792314
224	0x3e863501	0.26212314
225	0x3f30a270	0.6899786
226	0xbe9e1dd2	-0.30882126
227	0xbf37e2c6	-0.71830404
228	0x3db813c4	0.08988145
229	0xbd833ee4	-0.0640848
230	0x3f58160d	0.84408647
231	0xbda5245f	-0.08063578
232	0x3d2e4b37	0.0425522
233	0x3e8e7a98	0.27827907
234	0xbe97264c	-0.29521406
235	0xbf2a28ae	-0.6646832
236	0xbf2ea647	-0.6822247
237	0x3f227365	0.6345733
238	0x3eb9d2a4	0.3629352
239	0xbee33dcb	-0.44383082
240	0xbe9d2373	-0.30691108
241	0x3e6438b6	0.22287259
242	0xbedfb181	-0.43690112
243	0x3f5cf693	0.8631374
244	0xbf5d3717	-0.86412185
245	0xbd021c36	-0.031765185
246	0x3ec54e51	0.38536313
247	0x3f14e2da	0.5815865
248	0xbf3b41d7	-0.7314734
249	0xbebb0e69	-0.36534432
250	0xbf0f026c	-0.5586307
251	0x3e59127d	0.21198459
252	0xbe93c18e	-0.28858608
253	0x3e8139e3	0.25239477
254	0xbd337b02	-0.04381848
255	0x3edea341	0.43483928

linear3.weight f4 [1, 256]
0	0xbe42902f	-0.19000314
1	0xbd3eb5df	-0.046560165
2	0xbe50a74a	-0.20376316
3	0x3e14e130	0.14539027
4	0xbf02c975	-0.5108865
5	0xbeee74bc	-0.46573436
6	0x3c4c9958	0.012487732
7	0xbdcfc920	-0.101457834
8	0x3efa64bc	0.4890498
9	0xbe23487b	-0.15945618
10	0xbd981159	-0.07425184
11	0xbc75b5df	-0.014996975
12	0xbda918a7	-0.08256655
13	0x3ab16a64	0.0013535735
14	0xbdee6f5b	-0.11642333
15	0xbf0785d4	-0.5293858
16	0x3c241cfa	0.010016674
17	0xbe3b46e9	-0.18288769
18	0xbe884b32	-0.2661987
19	0xbd5c2d19	-0.053753946
20	0xbd942977	-0.07234471
21	0x390aa826	0.00013223346
22	0xbc920e1e	-0.017828997
23	0x3ce0b5c3	0.02743042
24	0xbe7cb68b	-0.2467901
25	0xbcc26840	-0.02373135
26	0x3c77d2fb	0.015125985
27	0xbded14df	-0.115762465
28	0x3cf8b086	0.03035761
29	0x3eb1819d	0.346692
30	0x3f0ea82e	0.5572537
31	0xbee67b6b	-0.45016035
32	0x3f10f2e1	0.56620604
33	0xbe127795	-0.1430343
34	0x3e137f30	0.14403987
35	0xbf04539b	-0.5169007
36	0x3d9c6463	0.07636335
37	0x3e50dc07	0.20396434
38	0x3eee1ec0	0.46507835
39	0xbdbb2a50	-0.0913893
40	0x3ec56d5e	0.38560003
41	0xbe30f968	-0.17282641
42	0xbec3c415	-0.38235536
43	0xbcbab0a5	-0.022789309
44	0xbdca0414	-0.09864059
45	0xbddb13fe	-0.106971726
46	0x3f1ab1a5	0.60427314
47	0xbce1118a	-0.027474184
48	0x3fddc89a	1.7326844
49	0x3e3edee3	0.18639712
50	0xbe1661b3	-0.14685707
51	0xbea110bf	-0.3145809
52	0xbd949397	-0.07254713
53	0x3f17c412	0.59283555
54	0x3e704325	0.23463114
55	0xbd9c361f	-0.0762751
56	0xbcd026c9	-0.02540912
57	0x3cb9b565	0.022669503
58	0x3e87de1f	0.26536652
59	0xbeaa2563	-0.3323165
60	0xbd722d81	-0.059125427
61	0x3bd5c8bc	0.0065241735
62	0xbb033df8	-0.002002595
63	0x3f41413c	0.75490165
64	0x3a08e1bd	0.0005221626
65	0xbea530b4	-0.3226372
66	0x3e787dac	0.2426669
67	0x3b995589	0.004679386
68	0x3ef6f1ea	0.4823144
69	0xbe199889	-0.14999594
70	0xbd5cfda3	-0.053952824
71	0x3b39fb9e	0.0028378735
72	0x3ea13887	0.3148844
73	0xbd04b969	-0.032403383
74	0x3a1ef4ea	0.0006063717
75	0x3f25d718	0.6478133
76	0x3e406e86	0.18792161
77	0xbbc400d2	-0.005981543
78	0xbe8a24c3	-0.26981172
79	0xbc11fd99	-0.00891056
80	0x3c09411d	0.008377341
81	0x3eee9532	0.46598202
82	0x3c38217e	0.011238454
83	0x3ec0a4ab	0.37625632
84	0xbe32d336	-0.17463383
85	0x3d1889f9	0.037240956
86	0x3f27cdcc	0.65548396
87	0x3ea754cd	0.32681885
88	0xbe417a1e	-0.1889424
89	0x3e795d8c	0.24352092
90	0x3f9c8cec	1.2230506
91	0x3e1eb6db	0.15499441
92	0xb9b56b7d	-0.00034603095
93	0x3de76ecb	0.11300429
94	0xbe10a385	-0.14124878
95	0xbda86b5a	-0.08223601
96	0xba9e2e55	-0.0012068251
97	0x3e867232	0.26259
98	0xbd80e905	-0.06294445
99	0x3a035649	0.0005010111
100	0x3f347def	0.7050466
101	0xbd9392eb	-0.07205757
102	0xbdf1bf73	-0.11804094
103	0xbb423a77	-0.0029636899
104	0xbe3014a9	-0.17195381
105	0x3e51d842	0.20492652
106	0xbaf75227	-0.0018869088
107	0xbf18e884	-0.5972979
108	0xbca75cd2	-0.020430002
109	0x3e2d6e0e	0.16936514
110	0xbfcd8da1	-1.6058847
111	0xbe1b3a21	-0.15158893
112	0x3e9161c5	0.28394905
113	0xbeb7b2c8	-0.35878587
114	0x3e83282d	0.2561659
115	0xbc81c00c	-0.015838645
116	0x3e873a6e	0.26411766
117	0x3c0079a4	0.007841501
118	0x3e3c915f	0.1841483
119	0x3d447b30	0.047969043
120	0x3ec5068a	0.3848155
121	0x3e0c52e2	0.13703492
122	0x3edbf175	0.42957655
123	0xbc170f9b	-0.009220029
124	0xbe2c98a7	-0.16855107
125	0xbf2e79dd	-0.681547
126	0xbeced7f2	-0.40399128
127	0x3e85bd9c	0.26121223
128	0x3ca1c1cd	0.019745732
129	0x3d1721ce	0.036897473
130	0x3f019a98	0.50626516
131	0xbd958c59	-0.0730216
132	0x3e3a8fe0	0.18218946
133	0x3e3d4c98	0.1848625
134	0xbbaeec0e	-0.0053381985
135	0x3ebd2af5	0.36946836
136	0xbd6f6446	-0.058445238
137	0xbd0457f5	-0.032310445
138	0x3e31cb70	0.17362761
139	0x3eb948de	0.36188406
140	0x3f3a54b2	0.72785485
141	0xbd8e5c71	-0.069512255
142	0xbd2c2c91	-0.04203469
143	0x3d50f285	0.051012535
144	0x3f51ca96	0.81949747
145	0x3df783a2	0.12085654
146	0xbdb13fe7	-0.086547665
147	0x3c8493a0	0.016183674
148	0x3f9a8f11	1.207491
149	0xbde4ba7c	-0.111683816
150	0xbde5f914	-0.112291485
151	0x3f068109	0.5254064
152	0x3b7a3bde	0.0038182656
153	0x3efb30c1	0.49060634
154	0x3e6c23c8	0.23060524
155	0x3d89af97	0.06722944
156	0xbae1c80f	-0.001722576
157	0x3f0137bb	0.5047566
158	0x3e9739e1	0.29536346
159	0x3d3f03a2	0.046634324
160	0xbe9df934	-0.3085419
161	0xbd014342	-0.031558283
162	0x3d462a64	0.04838027
163	0x3e75cbbe	0.24003503
164	0x3e5f1f61	0.21789314
165	0x3d7198dc	0.05898367
166	0x3e8d15c6	0.27555674
167	0x3f295201	0.66140753
168	0xbeeedb3a	-0.46651632
169	0x3e96bfeb	0.29443297
170	0x3e59620d	0.2122881
171	0xbc77476f	-0.015092715
172	0xbdae9ac5	-0.08525614
173	0x3f055e65	0.5209716
174	0xbd305ff3	-0.043060254
175	0x3f7a2eef	0.97727865
176	0xbe962061	-0.29321578
177	0xbe52ead8	-0.20597398
178	0x3e61717d	0.22015949
179	0x3e2170ec	0.15765733
180	0x3d3f3d8d	0.04668956
181	0xbd4d3693	-0.050100874
182	0x3dc118bd	0.094285466
183	0xbe92477c	-0.28570163
184	0xbedceb68	-0.4314835
185	0x3ae3a3c2	0.0017367529
186	0xbd8cbab7	-0.068715505
187	0x3eb56ab5	0.35432974
188	0x3f06f045	0.5271037
189	0xbd4b30bc	-0.049607024
190	0x3eecb517	0.4623191
191	0x3e8c7632	0.27433926
192	0x3f2c2d83	0.67256945
193	0xbf006d4d	-0.5016678
194	0x3f229c0d	0.63519365
195	0x3e1e9483	0.1548634
196	0xba8fbdc6	-0.0010966591
197	0xbc02a0f3	-0.007972944
198	0x3e673871	0.22580124
199	0x3db4b82c	0.088241905
200	0xbeccafe7	-0.39977953
201	0x3edd310d	0.43201485
202	0x3ecc766e	0.39934105
203	0x3e79e9b4	0.24405557
204	0x3ed71b66	0.4201309
205	0xba881a24	-0.0010383767
206	0x3a17eae5	0.0005795195
207	0x3e41fbb6	0.18943676
208	0xb921b5ec	-0.00015421928
209	0xbf582792	-0.8443538
210	0x3e6e981e	0.23300216
211	0xbc588b25	-0.013216768
212	0x3f32bfbd	0.6982382
213	0xbe060ad6	-0.13090071
214	0x3ca5a85c	0.020221882
215	0x3f2e0cfe	0.67988575
216	0x3cb7c380	0.022432089
217	0x3e0e0b25	0.13871439
218	0xbf4a11b0	-0.7893324
219	0x3ca88caf	0.020574896
220	0xbdf00618	-0.11719912
221	0x3e17fc0e	0.14842245
222	0x3e415366	0.1887947
223	0xbdd423dd	-0.10358403
224	0x3f7c2abb	0.985027
225	0x3e76acda	0.24089375
226	0xbd9d3d3a	-0.07677694
227	0xbefe2963	-0.4964095
228	0x3e87c015	0.26513734
229	0x3e942135	0.28931585
230	0x3f1481fe	0.5801085
231	0x3e3483c1	0.17628385
232	0x3dad660e	0.08466731
233	0x3e5652c9	0.20930018
234	0x397a3f97	0.00023865547
235	0xbe21a8df	-0.15787075
236	0xbda29582	-0.079386726
237	0x3e866859	0.26251486
238	0xbd835002	-0.06411745
239	0xbe74d063	-0.23907618
240	0x3dfe2bfa	0.124107316
241	0xbea21502	-0.31656653
242	0xbe45e584	-0.19325835
243	0x3f17f6a7	0.59360737
244	0xbf33db68	-0.7025666
245	0x3e73dc4a	0.23814502
246	0xbcfe2aa6	-0.031026196
247	0x3edd2a82	0.43196493
248	0xbf4c347e	-0.79767597
249	0x3da1f13f	0.07907342
250	0x3c315e2a	0.010825673
251	0x3f2c76ae	0.6736859
252	0x3d2c8475	0.04211851
253	0x3ea4a7dd	0.3215932
254	0x3e7f1103	0.24908833
255	0x3dbf6b85	0.093466796
