outputs/Optimal_Control/20220401-104508/models/checkpoint.pt (torch, 533487 bytes, 7 tensors)

linear1.weight f4 [256, 2]
00000000: 5be9 043f bcc1 2abf 7811 1ebe 45df dbbe
00000010: 2f99 223e bab0 f0bc 837c a23c 0250 5e3d
00000020: b1fa 9cbe 874a 20bf b16d f13e 0fae 9b3e
00000030: a861 f6bd 1228 c2be 1f91 31bf 98d8 b03d
00000040: 11d7 8c3e 2294 2fbf 1d32 f93e 5778 243f
00000050: 5fae 99be 20b6 f9bc 0622 333e d502 603e
00000060: 0af3 133e 91de d0be 79cf f93e 6ef3 cc3e
00000070: 53d1 f13d 1a39 bdbf e5c4 adbe 9fe4 243f
00000080: ce78 16bf 8a81 8a3e 6602 eb3d 2072 af3d
00000090: f0db 6fbe f023 f7be 8b84 09bf ad0c c1be
000000a0: 4814 163f c7c8 9abe 3f38 ac3e 3d1a 1abf
000000b0: 1820 0cbe 506e 75bd 3e8c e13e 25ea 0f3f
000000c0: 6a01 fd3e 664e eebe fcf8 21be ad02 c5be
000000d0: 3171 a53e be8f f9be a6a6 b23d e03c bf3e
000000e0: bf50 a43c faab 423c 3369 ed3d 6745 9bbf
000000f0: 9ccd d8bd 2f3a 123f dc34 dcbe 3176 b4be
00000100: 1e71 cb3d 46a0 163f 4d91 23bf 3048 27bf
00000110: 3926 12bf 6a69 c23e 478b b73e 502e 7c3d
00000120: cd68 9f3e 6f5e 31bf fbf0 f5be d8f5 e23e
00000130: 1285 a6be d314 ecbe 625f c0be 67f1 223f
00000140: a172 f93e 184b 05bf c7b0 1c3e 98ee 06bf
00000150: f2ce 983e 1f7c 51be 34b6 11bf 461c c6be
00000160: aede c23d af0d 613e 213e 253e 302b 1e3d
00000170: 2194 443e abf5 e43e 7fe2 643e 8bde 59bf
00000180: e02b 6abe 6f31 3a3e 6c91 053f 9c9b b23c
00000190: 226b 4d3e 4d28 16bf 0000 8739 6f61 14bf
000001a0: 0c45 9fbe de92 973e 1979 1f3e fe16 9c3e
000001b0: 9662 ec3e 2a03 ee3e d071 f3bd 7dbe 0cbf
000001c0: 6972 033f efe6 8f3d 4d95 e3be e08e 8a3d
000001d0: 07b8 18bf ea26 ebbe bdc5 4c3d 6fe9 d5bd
000001e0: c591 133f c8c2 24bf a090 ca3e ffb7 b5be
000001f0: 8fe7 1ebf 9860 4c3e d2c8 aa3b 735d 163e
00000200: df5d 093f 4c4a c63e e20f 893d f154 c13d
00000210: dd02 a4be 70c9 813d 15d8 10bf 683e 42be
00000220: dc87 593e bb2f f0be 1154 be3e 7d18 28bf
00000230: 0d37 d3be a271 24bf e8ab 11be a0c1 91bc
00000240: d21e c43c ae25 b93e 148b e33e 654b 13bf
00000250: e6ad ed3e 1f45 d4be 01f3 a8be 081b ac3d
00000260: 3f63 07bf 64db 833e 12b8 aebe d8ba eb3d
00000270: 50c2 963e d0c3 0dbf ffdf 263e 4973 9cbe
00000280: c743 2e3e 338a e1be ec65 f73e 157a a4be
00000290: 8f50 753e 7f6d 02be 09a0 14bf 61b3 24bf
000002a0: 0f87 aabe 4023 42bd 63f9 d53e 8044 53bf
000002b0: 4254 513e 7c9a 50bf a0ce 3a3d 942a 6ebc
000002c0: b778 1abf 24cd c1be 29e1 e93d 4d8e eebd
000002d0: 6066 cc3e 797f 183f 7130 24bf 9282 dfbe
000002e0: 843d 8c3e 9d5b 69bf 6032 93bd e39b 93be
000002f0: 9498 96be 405d e73d b1e1 b4be db48 2ebf
00000300: bb76 1b3f b604 ee3d af77 983e a1c6 00be
00000310: 689d 2bbf e8bf 20be 1053 d3bd 0504 30bf
00000320: f840 05bf 00a8 f13a d8d4 b4be 08fc f1be
00000330: 5815 d5be a798 dcbe c92d c33e f7cf b63e
00000340: 22b4 07bf 7d6e 32bf 98df b0be 40d7 453e
00000350: 1d8e 153f f6bd 373d 2f1c a13e 7cae 1fbf
00000360: 0083 2ebe aac5 563e 75f5 04bf 47d7 98be
00000370: b73a 87be 61f9 b63e 2ce0 25bf eb6d d7be
00000380: 13f5 af3e ddf0 663e c3d0 72be d8cf f43e
00000390: 1174 eabd ecbc 523f c596 c7be 8f61 b53e
000003a0: bdea f63b 9607 c43e b407 f13b a380 0f3f
000003b0: 1d64 cd39 5bb4 e03e 80d2 f3bb f00b d3bd
000003c0: 989d d33e 90d2 2a3e 3336 6e3e f4a5 893e
000003d0: 10e0 8d3e 5ca2 3cbd 67d3 c7be 2d25 293f
000003e0: 20b5 09bf 5813 783e d17a 2cbf 90fa 30be
000003f0: 470d 03bf c0e1 ee3c fbc5 563e e364 913e
0.5191857 -0.66701865 -0.15436351 -0.4294378 0.15878747 -0.029381145 0.019834762 0.05427552
-0.30660012 -0.6261372 0.47154 0.30406234 -0.12030345 -0.37921196 -0.6936206 0.08635062
0.27507833 -0.6858541 0.48671046 0.64246124 -0.30015847 -0.030482352 0.17493448 0.2187608
0.14448181 -0.40794805 0.48791102 0.40029472 0.118075036 -1.4783051 -0.3393928 0.6441135
-0.58778083 0.27051955 0.11475067 0.085666895 -0.23423743 -0.48269606 -0.5371787 -0.37704983
0.58624697 -0.30231306 0.33636662 -0.60196286 -0.13684118 -0.059919655 0.4405231 0.5621665
0.4941514 -0.46544188 -0.15817636 -0.38478604 0.3231292 -0.4874248 0.08723192 0.3735113
0.020058034 0.011881823 0.11592331 -1.2130555 -0.10586092 0.5712003 -0.43009079 -0.35246423
0.09933685 0.5883831 -0.63893586 -0.65344524 -0.57089573 0.3797105 0.35848448 0.061567605
0.31134644 -0.6928472 -0.48035416 0.4432819 -0.325234 -0.46109638 -0.3757277 0.636496
0.48720267 -0.5206771 0.1530181 -0.52707815 0.29845387 -0.20457505 -0.56918645 -0.38693446
0.09515129 0.21977876 0.16136982 0.038615406 0.19197132 0.4471868 0.22352026 -0.851052
-0.228683 0.1818292 0.5217502 0.021802716 0.20060399 -0.58655244 0.00025749207 -0.5796117
-0.31107366 0.29604238 0.15573539 0.30486292 0.46168965 0.4648679 -0.118869424 -0.5497816
0.5134645 0.07026469 -0.44449845 0.067655325 -0.59655803 -0.45928127 0.049993265 -0.104449145
0.576443 -0.6435971 0.39563465 -0.3549194 -0.6207208 0.19958723 0.005211928 0.14684086
0.5365886 0.3872856 0.066924825 0.094400294 -0.32033435 0.06337249 -0.56579715 -0.18969119
0.21243232 -0.46911415 0.37173513 -0.65662366 -0.41252938 -0.6423589 -0.14225733 -0.017792523
0.023940478 0.3616156 0.44442046 -0.5753692 0.46421736 -0.41458985 -0.32997897 0.08403593
-0.5288581 0.2575332 -0.3412481 0.11510247 0.29445124 -0.5537691 0.16296385 -0.30556706
0.17018043 -0.4405075 0.48319948 -0.3212439 0.23956512 -0.12737082 -0.58056694 -0.6433621
-0.33306167 -0.0473969 0.4179183 -0.825264 0.20442298 -0.81485724 0.04560721 -0.014536519
-0.60340446 -0.37851822 0.11419899 -0.116482355 0.39921856 0.5956951 -0.64136416 -0.43654305
0.27390683 -0.91155416 -0.07187343 -0.2882987 -0.29413283 0.11297083 -0.3532844 -0.6807992
0.60728043 0.11621992 0.2977881 -0.12575771 -0.6703706 -0.15698206 -0.10318577 -0.68756133
-0.5205226 0.0018436909 -0.35318637 -0.47262597 -0.41617846 -0.43085214 0.3812087 0.3570554
-0.53009236 -0.6969984 -0.34545588 0.19320393 0.5841997 0.044858895 0.31466815 -0.6237562
-0.1704216 0.2097384 -0.5193704 -0.29851744 -0.26411983 0.35737136 -0.64795184 -0.42076048
0.34366664 0.2255282 -0.23712449 0.47814822 -0.11447919 0.8231952 -0.38982216 0.35425994
0.007535307 0.38287038 0.0073556546 0.5605566 0.00039175237 0.438876 -0.007440865 -0.10305011
0.41331172 0.16681886 0.23262863 0.26884425 0.2771001 -0.046053275 -0.39028475 0.6607235
-0.53792 0.24226129 -0.673749 -0.17283082 -0.51192135 0.02916038 0.20973961 0.28397283

linear1.bias f4 [256]
00000000: c176 b73f dcf3 013e 941e 85bf b52e c5bf
00000010: 2149 d53c 9159 cc3f 9837 bfbd ae6b 173f
00000020: 125c ac3f a3c4 81bf 0061 abbb 9da4 d23e
00000030: 76c1 1dbf d290 e1bf 28d9 82be e473 cd3e
00000040: 8834 c7bd 8972 bbbf 2f66 adbe 4e79 053f
00000050: df43 bd3f 097b bbbf 6e34 9dbe d8e1 8dbf
00000060: bc28 19bf 4726 6a3e d79c 3d3f 8532 4f3f
00000070: d538 87bf 2023 a63e dfd0 c8bf cfb9 263e
00000080: 3539 693f 9e1c a23d 1f14 1e3f 7576 893f
00000090: 3c78 a83e dcb1 063f 5c1c f13e 1d35 32bf
000000a0: 5527 c83f dbe6 69be e066 8ebd 955c 663e
000000b0: 1c70 d03f 777f e6bf d759 c3bf abb6 0b3d
000000c0: 9c71 d93e e49d d83e eb4d a3be 44a4 81be
000000d0: 60e5 9dbd 1fbd 58be 92be a93f 01f0 1d3f
000000e0: 9895 f7bf 8d91 1abf 5029 f1be c24a 9d3f
000000f0: 9a98 87bf 3e8f d13f 1699 a93e 2564 7fbf
00000100: b4ca bebe 0d78 00bf ed78 f4be 4c3e ca3e
00000110: f2d4 773f 357d afbf 9fd7 1bbf 6946 8bbe
00000120: 9f1b dbbf 1d56 bebf 38d2 40bf e586 843e
00000130: bb45 0e3f 19a0 923e f2b3 8dbf 0753 cb3f
00000140: 156b 66bf d3ad 9c3e 3244 3bbf c4fa c2be
00000150: ac59 103e 3387 a9be 73f3 c73e 9e97 acbf
00000160: 1404 9e3d 1664 abbf 4439 b73f a10e 75ba
00000170: b2d4 8f3e 9023 db3e d1ad 053f 3217 8cbe
00000180: ff5a 65bf aaf2 bdbf d609 133f 4ad8 dabe
00000190: df2c 803d 9600 0ebf 905c 8dba d262 9bbe
000001a0: 7bfb 353e 3164 b43e 1083 a4bf ae66 1ebf
000001b0: 642f 2fbf 30c2 d5be 6443 27bf eb8e 273f
000001c0: 0fd0 d9bf 0116 1cbf be26 d83f 3055 7f3f
000001d0: bf5c 75bf 18ad c3bf b38d 7ebe cca3 09bf
000001e0: ef7f 333c a071 cdbf 2ccc 95bf f579 79bf
000001f0: 0972 b2be 3662 8b3e 025d 99be 0f1d e63e
00000200: c438 b2bf e7f9 313f f00a 183f a818 943f
00000210: 20df 87bf 3126 c2bf c018 d6be 3dbc 5c3e
00000220: f785 223f 896b b7bf 13f4 f4be d80f 5fbf
00000230: d0de 0abf 8cf4 89be 950c e6be a2d2 4ebf
00000240: d447 28bf 2f98 f0bf 53b8 093f f80e 12be
00000250: 3323 3cbe cc02 743f 4ee6 c0be 8e31 edbe
00000260: 2490 b33f 666f 7f3f 0e56 94bf dbd4 a93e
00000270: ba16 a53f 14d4 bf3f fa1f 63bf e201 02bf
00000280: f4a5 13be 08a9 8d3f 6f53 0fbf 623a abbf
00000290: 3cf6 753f 25d2 5cbf f060 00bd ee0f 05bf
000002a0: 8547 833e 58ea b6bf e8dd 28be b658 94bf
000002b0: 2551 cfbf a829 dcbe c637 613e f3b0 8f3f
000002c0: 158f ac3f bb24 a5bf 80ff 08bf 89bb 643f
000002d0: 30b5 bfbf f17f 0fbf 8069 47bd 7b9a 35bf
000002e0: 704c c4bf 5a4e 0cbe cb40 5bbe 45d5 8cbf
000002f0: 9bf3 86bf 2103 aebf 5598 c8bd 44d5 d0be
00000300: 74c5 b03f 82ad 483e ee41 9c3f 3739 653f
00000310: f4ab 0cbe a3cc 523f c37a 493f 5111 343f
00000320: 9bb7 b3bf 1bab 973f c0aa 0e3f 75ce e63e
00000330: b434 21be 24df a7bf 828b f0be a68c 803d
00000340: 42ca 12bf d614 82bf ab94 c2be c443 8abf
00000350: e0cb adbf 40a6 c5bf cd6b c4bf 67b8 9b3f
00000360: f202 cfbf 91c1 283f 3b89 bfbf 807f 80bd
00000370: 2ea9 e8be 379a ed3e 0a0f e33d 5ac5 ed3e
00000380: 6d52 d63f abd9 c23f a653 3abf eab0 dbbe
00000390: 39e9 b5be 2b20 f13e c6ff 4c3e e727 853f
000003a0: baf9 acbf 40ed 74bd a238 c83f 5c89 963f
000003b0: 0229 a8bf 86d4 c4bf 9025 11bd 005d 75be
000003c0: 21cd 213f b596 583c 9eb1 9dbe 658e c6bf
000003d0: 2bf9 8a3f 04c7 0cbf 3eaf bfbe 0869 dbbe
000003e0: eb79 f4bf 65d5 cebf b413 9bbe a6d5 cfbf
000003f0: b78b dcbe d7bd f63d 1539 2dbf 04f7 94bf
1.4333116 0.12690681 -1.0399957 -1.5404879 0.026035847 1.5964833 -0.093367755 0.5914868
1.3465598 -1.0138134 -0.005230069 0.41141215 -0.6162332 -1.7622321 -0.25556302 0.4012748
-0.097268164 -1.4644328 -0.33867022 0.5213822 1.4786338 -1.4646922 -0.30704063 -1.1084547
-0.5982778 0.22866164 0.74067444 0.8093646 -1.0564219 0.32448673 -1.5688742 0.16281818
0.91102916 0.079156145 0.6174945 1.0739275 0.32904232 0.5261514 0.4709195 -0.69612294
1.5637003 -0.2284197 -0.069532156 0.22496255 1.6284213 -1.8007649 -1.5261792 0.034109753
0.4246949 0.4230796 -0.31895384 -0.25320637 -0.077097654 -0.21165894 1.3261282 0.6169434
-1.9342527 -0.6037834 -0.4710183 1.2288439 -1.0593445 1.6371839 0.33124608 -0.99762183
-0.37264025 -0.5018318 -0.4774851 0.39500654 0.96809304 -1.3710085 -0.60875887 -0.27202156
-1.7117804 -1.487003 -0.7532077 0.25884166 0.5557515 0.2863777 -1.107054 1.5884713
-0.90007144 0.30601367 -0.7315093 -0.38081944 0.14096707 -0.3311096 0.39052925 -1.348377
0.077156216 -1.3389919 1.4314351 -0.0009348188 0.2809196 0.4280057 0.5221835 -0.27361447
-0.89591974 -1.483968 0.57436883 -0.4274314 0.062585585 -0.55469644 -0.0010785032 -0.3034883
0.17771713 0.3523269 -1.2852497 -0.61875427 -0.6843169 -0.41749716 -0.65337205 0.6545245
-1.701662 -0.60971075 1.6886823 0.9973936 -0.95844644 -1.5287199 -0.24858741 -0.5376556
0.010955795 -1.6050301 -1.1702933 -0.97451717 -0.34852627 0.27223366 -0.29953772 0.44944045
-1.3923573 0.69521946 0.5939169 1.1570024 -1.0614967 -1.5167905 -0.41815758 0.21556182
0.63485664 -1.4329692 -0.47842464 -0.8713355 -0.54246235 -0.26944387 -0.44931474 -0.8079015
-0.657346 -1.8796443 0.5379688 -0.14263523 -0.18372802 0.9531677 -0.3767571 -0.4632687
1.4028363 0.99779356 -1.1588762 0.33170208 1.2897561 1.4986596 -0.8872067 -0.5078412
-0.14418775 1.1067209 -0.55986685 -1.3377192 0.9607885 -0.86258155 -0.031342447 -0.5197743
0.25640503 -1.4290266 -0.164909 -1.1589572 -1.6196638 -0.4300053 0.21993932 1.1225876
1.3481165 -1.2901834 -0.5351486 0.89348656 -1.4977169 -0.560546 -0.048684597 -0.70938843
-1.5335827 -0.13701764 -0.21411435 -1.1002585 -1.0543092 -1.3594705 -0.0979468 -0.4078771
1.3810258 0.19597438 1.220762 0.8954043 -0.1373747 0.823435 0.78702945 0.7033892
-1.4040407 1.1849092 0.55729294 0.4507939 -0.15742761 -1.3114972 -0.46981436 0.062768266
-0.5733987 -1.0162609 -0.3800405 -1.080193 -1.3577843 -1.544136 -1.5345398 1.216565
-1.6172774 0.6592036 -1.4963754 -0.06274319 -0.45441574 0.4640672 0.11086853 0.4643963
1.6743904 1.5222677 -0.7278389 -0.42908412 -0.35529497 0.47094855 0.20019445 1.0402802
-1.351371 -0.05979657 1.5642283 1.1760669 -1.3137515 -1.5377357 -0.035436213 -0.23961258
0.63203627 0.013219525 -0.30799574 -1.5512205 1.085729 -0.54991174 -0.37438387 -0.4285357
-1.9099706 -1.6158873 -0.3028847 -1.6237075 -0.43075344 0.12047928 -0.67665225 -1.1637883

linear2.weight f4 [256, 256]
00000000: b844 513d c8f0 81bd 07e7 4dbc 8dcf 913c
00000010: 5e04 99bc b522 81bd f88e 8dbc 192e bc3c
00000020: 895c 72bc 3d11 efbc d034 febc 7f7c 563d
00000030: 4dde 02bd 4965 ab3c 0b6b 363c 2b42 943c
00000040: 7874 1c3c 2196 513c 422d 35bd af04 57bd
00000050: 0523 813c c69a 3abd fccd 15bd 98bb 9ab9
00000060: 6caf d2bc 0de7 0b3c 5c9e 513d 8a33 153d
00000070: 846d 773c b428 683d c7a8 01bd 9066 8cbd
00000080: ef28 853d 1d4d 82bd 54a6 22bc 9e09 213c
00000090: a8f5 3ebd c84f b23c 838a 56bd 2292 2c3c
000000a0: c57c d73c 3a72 b43c 3622 f0bc 1f47 b43b
000000b0: ec6a 133d e3fc f3bc fdd7 7ebc ae8a a83b
000000c0: 3a8a 08bd e73c 1fbd 7245 44bd 3a8b 6b3d
000000d0: 76b2 46bd 0102 1cbd 67f5 50bd 3603 3ebc
000000e0: 59b9 bfbc 4869 1fbc 3ee8 3c3d 5b25 dd3b
000000f0: f883 aebc e4ff 04bd 7641 023c 121f 043d
00000100: c2c3 7cbd 39f8 633c 5026 823c b3e9 4ebd
00000110: 99a8 b13c 90e9 ac3c b0de 5f3c 0009 d2ba
00000120: 91d2 2abc 9abb 243d b745 1fbd 5af3 ac3c
00000130: ad8d 5f3c 4b01 82bd 1f45 353b 5158 80bd
00000140: 4816 f63c c2c3 773d 3921 633d b0db b53c
00000150: 6230 32bc f57a 74bd 622b 48bb 399a 073d
00000160: 1847 1abd 0ff0 283d a95d 8e3b 54d4 313d
00000170: bf0d dcbc 8eef ea3c 5d49 7dbd 0c38 69bd
00000180: ced3 3f3d 44c6 2ebd 906c 7dbd fa9c 4e3d
00000190: 3b33 77bd 84c2 6c3d 30b5 9fbc 6b67 173c
000001a0: bae6 10bd 0903 8e3c 21fc 253d cc14 973b
000001b0: b614 25bd ec39 0ebd c115 13bc 9dfa 74bd
000001c0: 7492 4cbd 913f b43c 9014 753d 25fd 023d
000001d0: 06a7 11bd 63c2 a8bc d059 5bbd 7ab3 4dbd
000001e0: e8a8 c33c 8f1c 143c 0053 f53c 36f8 633d
000001f0: 8847 1abc 61df 293c c81b abbc afbb 4c3d
00000200: 1790 813c b464 ddbb ea51 01bd dbe7 1e3d
00000210: c00b ca3c a569 28bd 8851 c23c bea2 48bc
00000220: 9da7 743d 1c6e 3e3c d0d4 eabc a7c2 04bd
00000230: e977 60bd ca00 70bd e086 98bc e5e8 753d
00000240: 6805 63bc cd7d 5ebd 42bb 8abb 76fc adbc
00000250: f598 9b3b 213e 7abb d025 7dbd 663f 5fbd
00000260: 9b4b 0cbd 730e aabc a2f7 a23c e696 5bbc
00000270: 0ed3 14bd 6bce 20bd a17d 95bb aa45 66bd
00000280: a6bf 5abc 1be3 babc c4c6 92bc c00e 0e3a
00000290: c85d b2bc 5c74 07bd d8fe 5dbd 5962 263d
000002a0: 73d5 70bc d46b 40bd 54f8 6fbd 8ea3 a83c
000002b0: eef4 0dbd f8e0 60bd 1f2f da3c f345 3f3d
000002c0: b153 2ebd 1f3a 73bd e49e 553d 0607 4d3d
000002d0: 4d96 2dbd 6829 38bd 4035 503d f578 f13c
000002e0: 005d 533c 36c6 acbb ed49 543d 72fb 003b
000002f0: 2b3e 31bc becb e3bb 451d bb39 865e bc3c
00000300: 1205 603d 0752 98bb 72bc 20bc 1388 2d3d
00000310: ec8b 93bc ec90 1bbd 7561 72bd 91de 70bc
00000320: 47e4 a9bc 005b 33bd b9b7 033d 24bd bcbc
00000330: 1c7e a43c 92e4 613d 5ec0 1b3d a039 edbc
00000340: 7e32 37bd afee babc fe13 003d 1630 86b9
00000350: b509 a33c e5e8 02bd 7ff8 473d 271b 6e3d
00000360: 64bb 13bd 6932 bb3c a0dc ccbc 643a e8bc
00000370: f478 1abd 1c10 093d 7e06 78bd 2f33 703c
00000380: ec85 bd3c 149e 84bb f462 7d3d 6919 813d
00000390: 9206 53bd 275b 683d ee76 a63c 90f0 abbc
000003a0: b4de 0ebd 286b cd3c 35e1 16bd 84c3 86bc
000003b0: 9e05 63bd 1cc4 37bc 44cc 283d 20ae e8bb
000003c0: c767 98bb b453 73ba 9309 fdbc ec07 6a3c
000003d0: 30f3 2e3d 8e3d 6c3d 8040 eeba bc93 383d
000003e0: 4d4a 233c 12a7 863c f20f 313d 56b6 043c
000003f0: 0c67 a8bc ab68 1fbb 2f25 70bd 436e 223d
0.051090926 -0.063447535 -0.012567288 0.017799163 -0.01867884 -0.06305448 -0.017280087 0.0229712
-0.01479257 -0.029183025 -0.031031042 0.052364822 -0.031950284 0.02092232 0.0111339195 0.018097958
0.009549253 0.012792141 -0.044232614 -0.0524947 0.015763769 -0.04555776 -0.036573395 -0.00029512937
-0.025718413 0.0085389735 0.051176414 0.036426105 0.015101794 0.056679443 -0.0316551 -0.068555
0.06501948 -0.063623644 -0.009927351 0.009828953 -0.046620995 0.021766558 -0.05237819 0.010532888
0.026304612 0.022027124 -0.029313188 0.0055016424 0.03599064 -0.029783672 -0.015554425 0.005143485
-0.033334948 -0.03887644 -0.04791779 0.057505824 -0.048510037 -0.03808785 -0.051015284 -0.011597445
-0.02340381 -0.009729691 0.04611992 0.006748838 -0.021303162 -0.0324706 0.007950177 0.032256193
-0.061710127 0.013914161 0.01588741 -0.05051584 0.021686839 0.021107465 0.013663933 -0.0016024411
-0.0104261795 0.040217973 -0.038884845 0.021112133 0.013644618 -0.06347903 0.0027659608 -0.06266845
0.030039921 0.060489424 0.055451605 0.022199482 -0.010875793 -0.059687573 -0.0030543436 0.033106063
-0.037665457 0.041244563 0.0043446613 0.043415383 -0.026862023 0.028678682 -0.061837543 -0.056938216
0.046832852 -0.04266955 -0.06187111 0.050442673 -0.06035159 0.057802692 -0.019495577 0.009240965
-0.035376288 0.017335432 0.040523652 0.0046106335 -0.040302955 -0.034723207 -0.0089773545 -0.059809316
-0.049944356 0.022002967 0.059834063 0.0319797 -0.035559677 -0.020600503 -0.05355245 -0.05021999
0.023884252 0.009040012 0.029946804 0.055656634 -0.009416468 0.010368199 -0.02088727 0.049983677
0.015815778 -0.0067563895 -0.03157226 0.038795333 0.024663806 -0.041116375 0.023720518 -0.012245832
0.05973016 0.011622932 -0.02866593 -0.032412197 -0.054801855 -0.058594503 -0.018619 0.06003656
-0.013856269 -0.05431919 -0.0042337487 -0.021238547 0.0047484585 -0.0038184004 -0.06180364 -0.05450382
-0.03425179 -0.020758843 0.019893471 -0.013402676 -0.03633409 -0.039259356 -0.0045620953 -0.05621878
-0.013351357 -0.02281337 -0.017917044 0.0005419068 -0.021773234 -0.033069953 -0.054198116 0.040621135
-0.014699328 -0.046977833 -0.058586434 0.020585801 -0.03465741 -0.054902047 0.026633797 0.04669757
-0.042560283 -0.0593816 0.052153483 0.050055526 -0.042379666 -0.044961363 0.050832033 0.029476622
0.012900591 -0.005272652 0.051828314 0.0019681123 -0.010818045 -0.006951778 0.00035689227 0.022994291
0.054692335 -0.0046484503 -0.009810554 0.0423661 -0.018011056 -0.037980005 -0.059174974 -0.0147015015
-0.020738734 -0.043787956 0.032157633 -0.023039408 0.020079665 0.055149622 0.038025253 -0.028958142
-0.044725887 -0.022818891 0.031269066 -0.00025594298 0.01990209 -0.031960387 0.04882097 0.058131363
-0.03606738 0.022851186 -0.025007546 -0.028348155 -0.037713006 0.03346263 -0.060553066 0.014660641
0.023135148 -0.0040471647 0.061861947 0.06303675 -0.051519938 0.056727555 0.020320382 -0.020988733
-0.034880355 0.02507551 -0.036835868 -0.016450651 -0.05542528 -0.01121619 0.041210428 -0.0071008354
-0.004651043 -0.0009282187 -0.030888354 0.014284115 0.04271239 0.05767589 -0.0018177181 0.045062765
0.009966445 0.016437087 0.043228097 0.008100113 -0.02055695 -0.0024323862 -0.05862921 0.039655935

linear2.bias f4 [256]
00000000: 628f 493d 4bb3 01bf 0942 973a b21c 8b3d
00000010: 00fe 5eb9 501d 21bd bb74 ec3c 6a8b 09be
00000020: d9e0 363b 4763 613c 3061 fcbe dc4d a33c
00000030: 592b 75be dea8 893d ba97 323d f0e4 d43c
00000040: bf0c 203d 7ef8 4b3c 725c c5bb 4fd3 13bd
00000050: f938 143c 93fc ac3c 7dee df3a f613 793d
00000060: be21 0c3d e511 e2be 01a1 c0bb b631 e5bc
00000070: cc36 4ebd f0c2 97bc e802 20bc 9dbf b43c
00000080: 2e21 2cbd 7ef5 59bd 84ac 6b3d 5c37 55bd
00000090: 55e7 1fbd f477 463d a606 38bf b0e4 03bd
000000a0: 80e2 183d 58ca 08bf 059d 093e fbe2 dd3c
000000b0: 157d c8bc ad58 93bc 5a3a 053c 46bf 383c
000000c0: 1319 02bc 51cf 343d f45c 2b3f 8605 82bc
000000d0: 0cd0 1dbd 12ed 09bf 6e74 b0bc 7f94 57bd
000000e0: 0ca9 fb3c c4f0 adbc 31f4 a4bc 2f0b 993e
000000f0: a1cf bfba 3d64 6bbc 9caf d9bc 7873 05bc
00000100: c28b 99bc 6d38 55be 7b98 753d 3ad4 783b
00000110: 49a1 84bc 08ac 943b 5887 86bf 8a89 693d
00000120: 3cc6 dc3c 12d5 5abd 8a8f 203d d9c1 ca3c
00000130: dd58 803e e505 6c3d a6df 9c3c a975 81bc
00000140: e62d 3f3d 6d35 03be 4ecf b3bb c8af 713d
00000150: d051 3fbc 81e4 fb3c fd2d d03c 4c68 a53d
00000160: b505 97be f56d 2fbc 240b f9bb 63c0 843d
00000170: 7d2a c53c da7b 23bd 507d 503d 48a8 bbbd
00000180: f53f c23e 916e 55bd 40b2 bf3c 5074 393c
00000190: 69d7 1c3d 46f9 313c b663 cbb9 d84f 903c
000001a0: 2c54 30bd 2a75 223d 611c 6dbd 55c7 43bd
000001b0: 78f0 1bbd b021 ca3d f1d7 1fbd 9c54 293b
000001c0: e8de 08bb 0924 aa3b b8ed 7f3c 0ccc be3c
000001d0: 5fb8 763d 081f 66bc 83f6 83bd 9ebf 9c3c
000001e0: d378 123d cb0b 43bc c0dc 5bbd 387b f23c
000001f0: 4492 54bd 8261 d33b da8f f33c ddb6 38bd
00000200: b8cd 09bd 1ea6 fb3c 7c1f 7a3c 8034 79bc
00000210: 5872 39bd 008e 2d3b c8ac ae3c 3510 1c3b
00000220: c416 33bd 8131 7cbd 6204 843d a7a4 b63c
00000230: dd88 52bc 2832 b0bc f508 5b3d 0f3b 003d
00000240: 16d3 f4bc d03a 2cbc a771 5dbd cd54 81bd
00000250: ed72 2f3d b24a 6e3d 26ad 3f3b f6da 0dbd
00000260: 6cf9 bdbc 819f 1b3b f8f0 2c3c 8d0b 29bd
00000270: 03ff 18bd a888 7ebd a6cb 1abe 19be 22bc
00000280: 9cd5 ed39 0d3d e83c fc8d c1bc 10a7 62bd
00000290: bb21 1e3d dba3 193d 6d5e cbbb 7a0e 51bd
000002a0: 25a0 613c da80 843c f31b 123d 4a5c d2bb
000002b0: 62a0 37bd c54f ef3c de8e 02bd 50ec 9e3d
000002c0: 24fc 9c3c d837 b13d 56ce 56bd b82b 18bc
000002d0: 5a17 febb a555 713f f3f1 43bc 784b 6dbc
000002e0: 18ee f3bc bc6f 0ebf 61f2 2abe f1c5 f8bb
000002f0: 2b16 d73e 2ebe dcbe 7e57 42bd 0853 d13d
00000300: 7e21 773d f003 ee3c f90b f4bd 7807 343c
00000310: 7e93 bd3d 95af 45bd e5d6 003d 52d6 e73c
00000320: 7011 c33c f58c 0ebd 2da5 873c c729 ca3d
00000330: a294 f73c e4c1 1cbe a7d4 543c cc94 dd3c
00000340: 85b3 96bc e1d7 10bd b3d3 e13e 02d9 93be
00000350: 180d 2c3c e923 2dbd b06e 5d3d b39f 18bd
00000360: 9f05 11bd e8d2 d03c 6dfa 8ebc b820 223d
00000370: c894 26bf 6c35 cd39 09fc 3dbc 3ab0 35bd
00000380: 53ad ad3b ab79 2dbd 0adc 21bd 0615 2bbc
00000390: 1815 69bd a03e 11bd f653 0e3d eac2 1dbd
000003a0: c58c 9d3d 21de b2bc 13a7 c5bc 20c4 dcbb
000003b0: 8baf ecbc 54ae 3e3d 30f9 083d a04b 3e3c
000003c0: 0a76 d3be 9e7c 45bd d620 513d 0b97 ad3c
000003d0: 3806 1c3d 8116 a33a ba10 d53c 8e90 d83c
000003e0: b966 243f 00ed f739 e4cb ddbc 1f69 ab3c
000003f0: 1bce 4c3d 4fbf 83bc 5abc 73ba 76c1 ab3d
0.049209006 -0.50664204 0.0011540066 0.067925826 -0.00021266192 -0.039334595 0.028864255 -0.13432088
0.0027905016 0.01375658 -0.49292898 0.019934587 -0.23942317 0.06721662 0.04360173 0.025988072
0.039074656 0.012449382 -0.006022983 -0.03609019 0.009046786 0.02111653 0.0017084625 0.06081005
0.034211867 -0.44154277 -0.005878568 -0.027977806 -0.050345227 -0.01852557 -0.009766318 0.022064025
-0.04202383 -0.053212635 0.05753757 -0.052054748 -0.039038975 0.04845424 -0.71885145 -0.032200515
0.037325382 -0.5343375 0.13438804 0.027085772 -0.024473706 -0.01798662 0.008131588 0.011276072
-0.0079405485 0.044143025 0.6693871 -0.015871774 -0.038528487 -0.53877366 -0.021539893 -0.05263185
0.030720256 -0.02123297 -0.02013597 0.29891345 -0.0014634022 -0.01436716 -0.026572995 -0.008145206
-0.0187434 -0.20822306 0.05995987 0.0037968294 -0.016190188 0.0045371093 -1.0510054 0.057015933
0.026949994 -0.053425856 0.03919939 0.024750637 0.25067797 0.05762281 0.019149613 -0.015803175
0.04667463 -0.12813349 -0.005487359 0.05900553 -0.01167722 0.030748608 0.025412554 0.08076534
-0.29496542 -0.010707368 -0.007600205 0.06482007 0.024068112 -0.039913036 0.050900757 -0.091629565
0.3793942 -0.052107397 0.023400426 0.011319235 0.03829137 0.010862654 -0.00038793468 0.017616197
-0.043049023 0.039662518 -0.057888392 -0.04779752 -0.038071126 0.09869707 -0.039024297 0.0025837785
-0.0020884816 0.005192284 0.015620641 0.023290657 0.060234424 -0.014045484 -0.06443503 0.019134339
0.03575976 -0.011904667 -0.05367732 0.02959977 -0.051897302 0.006450833 0.02973168 -0.045096267
-0.033643454 0.03071886 0.0152662955 -0.015210271 -0.045275062 0.0026482344 0.021322623 0.002381337
-0.043722883 -0.061570648 0.064461485 0.02229531 -0.012850014 -0.021508291 0.05347534 0.031306323
-0.02988581 -0.010512069 -0.054063465 -0.063150026 0.04283421 0.058176704 0.0029247492 -0.034632646
-0.023190223 0.0023746195 0.010555498 -0.04127078 -0.037352573 -0.062142044 -0.15116748 -0.009933018
0.00045363314 0.028349424 -0.023627274 -0.055335104 0.038606387 0.03750978 -0.006206325 -0.051039197
0.013771092 0.016174722 0.035671186 -0.006419693 -0.044830687 0.029212842 -0.03187453 0.07759917
0.019163199 0.086532295 -0.05244287 -0.009287767 -0.0077542486 0.9427131 -0.011959541 -0.014483325
-0.029776618 -0.55639243 -0.16694023 -0.007591956 0.420091 -0.43113846 -0.04744672 0.10220915
0.060334675 0.029054612 -0.11916346 0.010988109 0.092566475 -0.04826315 0.03145494 0.028300438
0.023812026 -0.034802396 0.016558254 0.0987125 0.03022224 -0.15308338 0.012990153 0.027048491
-0.018396148 -0.03536213 0.44106826 -0.288765 0.010501169 -0.042270575 0.054060638 -0.037261676
-0.03540575 0.025491193 -0.017453397 0.039581984 -0.6507077 0.0003914045 -0.011595734 -0.044357516
0.005300203 -0.04235236 -0.039516486 -0.010442024 -0.056904882 -0.035460114 0.03474804 -0.038515963
0.07692865 -0.021834435 -0.024127519 -0.006737247 -0.0288923 0.04655297 0.03344077 0.01161471
-0.41300994 -0.048214547 0.051056705 0.021190187 0.03809187 0.001244262 0.026008952 0.026436117
0.6421924 0.0004728809 -0.027074762 0.02092415 0.050001245 -0.016082434 -0.0009297781 0.08386509

linear4.weight f4 [256, 256]
00000000: 43b2 003d abe8 673d 4e62 623d cf80 3fbd
00000010: 8ce8 173d 14bf d1bc ff92 3d3d 7f72 c63b
00000020: 8999 42bd db59 723d 8b46 163d a617 ef3c
00000030: ae83 c73d 36b1 22bc 242d 36bd f18d 8dbc
00000040: 2cc6 423d a889 90bc 3554 d53c 5b48 4abd
00000050: ee70 77bd 5ab8 143d 3af4 ec3b 9b07 6f3c
00000060: 9746 23bc 5402 443d b363 1e3d 996d 10bd
00000070: c0e6 89bc 445e 74bd d0ea d0bc 3150 5a3d
00000080: d65c 633d 7080 8f3b e48e f23c 1ae6 4cbd
00000090: c78b 993c 5c32 33bd 9a26 143d a07b 6fbc
000000a0: 0f2b d3bc 6a59 11bd c6e8 d7bb 458f 663d
000000b0: c905 823c 61d0 753c 780d 6e3b f28b b23c
000000c0: 8099 183c e10e 203d 09d2 c8bc d405 653d
000000d0: 0002 df3c cc9e 3ebd da11 393d 4b37 2d3c
000000e0: 9674 eabc f481 d6bc d8eb 6bbc b90c 78bc
000000f0: 6ac8 ceba 2d1b b5bc dbce 6ebb 0cfc c43c
00000100: 8876 5f3b 5da7 52bd 2c5a 5c3c bffc a03c
00000110: 638b 0f3d 4a41 6a3d f6f1 a13c 548c c3bc
00000120: 21f6 bdbb f635 12bd a00b 263d 72ca b03c
00000130: 3282 4fbc 6e0f 313d 0419 62bd 4176 37bd
00000140: b299 73bd 476c 943c e0d8 f3bc 90a8 e3bc
00000150: a47f 033d 140a 21bc 7823 31bb 4cc5 dfbc
00000160: f107 d73c 272b c53c 6888 33bd 3056 cb3c
00000170: 6c41 2a3c ea8b 123d 4d8a 223d ad4f 42bc
00000180: 350a 8b3d 482a 9f3c 1855 d53c f8cd 553c
00000190: 9ae3 143c 9077 593d c03f 4a3d 709d 31bd
000001a0: 0424 79bd 7537 61b9 0e09 483d 1f8c 4b3d
000001b0: a450 dd3c 5ddb 5fbc e9f6 d73c af2e e8bc
000001c0: aee9 35bd cdc0 5f3d b8f6 0abc a05b 743b
000001d0: b0cc 0dbc 78ae 75bd a978 9b3c e167 f63c
000001e0: a8f3 b6bc 8ab0 a63c 38b4 ebbc 6670 44bd
000001f0: 1827 ca3c 5659 d2bc a1dc 4fbd fde1 debc
00000200: 03c5 fb3c 7d90 86bd 012c 553d 83df 2cbd
00000210: 9c5b 823b 04d0 9c3c 35ad a43c 965b 54bd
00000220: 0a91 553d 906a 413d 6a84 ad3b 5d41 7f3c
00000230: acfe 0eba f004 3f3c dda2 673d 2ab3 d2bc
00000240: 3d56 993d 54e2 80bc 0676 5e3d b5c5 3e3d
00000250: 42c2 e13c fded 73bb 0a03 59bd 6e05 453d
00000260: 5c0e c63c e29b ac3c 2284 683d c4ab f23c
00000270: 7e2d e33c e486 f9bc 20ed 1ebd 17a3 db3c
00000280: db61 663d a605 823d e608 c2bc 408f 9ebb
00000290: 634f 2a3d 3e99 263d 25c5 60bd ed25 44bd
000002a0: 02a7 f23c 281e ef3c 4b9f 323d 99ef 33bb
000002b0: e45a d03c a511 47bd e471 53bd 36b0 bd3b
000002c0: e81d 9b3c 8188 233d ac7e 6a3d c534 583d
000002d0: a836 843d 107d b73d 1632 81bd a85f debc
000002e0: 00b3 5f3d c413 b5bc b6e8 843c 2f34 dbbc
000002f0: 07d0 843d e825 3e3d 5d5d b2bb cb36 d8bc
00000300: 9c12 033d c903 073d cf7f 95bc 8a9e 703d
00000310: cb12 2fbd 00d3 053c 28a7 07bd 1731 c2ba
00000320: abbe c93c a45c 483d 7ec1 783d b982 58bc
00000330: 1dcd 373d 2c68 29bc 8f75 c0bc 1bb1 5d3d
00000340: 36e4 6e3d 5daa 923d c15a 01bd ed59 36bd
00000350: faa4 25bd 59bf adbc b452 c63c c7be 80bd
00000360: 21fe db3b 1c9f c5bc 11e4 603d 730c 163d
00000370: a61b fdbc 3476 d53c 68af 9c3c 5fb5 c53c
00000380: 6a41 173d 62a5 7d3c 2b6b 3a3d 82e1 cebc
00000390: 0081 d3bc 609e 333c 73b7 413d 00cd 0aba
000003a0: 33e2 6abd d327 533d a00f 2ebd eb9a 4cbc
000003b0: c785 a0bc 0ca2 a43a 8b9d 88bd 5408 7fbd
000003c0: a409 3dbe 7ae4 72bd fc73 e43c 136b d43c
000003d0: b99b f4bc ae9c 113d b129 ffbc bc6a 44bd
000003e0: c714 b73c 18de 313c 17c9 d0bc b704 bf3c
000003f0: 3e04 f33b bd47 21bd c9a5 9dbc 5b94 c4bc
0.031420004 0.056618374 0.055269532 -0.0467537 0.03708701 -0.025603808 0.046282765 0.0060561295
-0.047509704 0.059167724 0.03668837 0.029186081 0.09741913 -0.009929946 -0.044476643 -0.017279597
0.047552273 -0.017643765 0.02604113 -0.04938541 -0.060410433 0.036308624 0.0072312625 0.014589216
-0.00996556 0.047853783 0.0386693 -0.03526077 -0.016833663 -0.05966021 -0.025502592 0.053299133
0.055508457 0.0043793246 0.029609151 -0.05002413 0.018743409 -0.0437492 0.036169626 -0.014616877
-0.025777368 -0.035485663 -0.006589028 0.056288976 0.0158719 0.015003295 0.0036323946 0.021795247
0.009313941 0.03907669 -0.024514215 0.05591376 0.027222633 -0.04653816 0.04518304 0.010572265
-0.028620046 -0.026185013 -0.014399491 -0.015139752 -0.0015776281 -0.022107685 -0.0036439213 0.024045967
0.003409775 -0.05142914 0.013449233 0.019651769 0.03504504 0.05719117 0.019768696 -0.023870625
-0.005797163 -0.035695992 0.04053843 0.021580908 -0.012665318 0.043227606 -0.055199638 -0.04479051
-0.059472747 0.018118037 -0.0297665 -0.027790338 0.03210415 -0.009829063 -0.0027029198 -0.027315758
0.026248904 0.024068428 -0.04383126 0.02482137 0.010391574 0.035777964 0.039682675 -0.0118598165
0.06789056 0.019429341 0.026041552 0.013049595 0.009087468 0.05309254 0.049377203 -0.043363035
-0.060825363 -0.00021478331 0.04883676 0.049694177 0.027015992 -0.01366314 0.026362853 -0.028342573
-0.044412307 0.05462723 -0.008481674 0.0037286058 -0.008654758 -0.05998084 0.018978434 0.03007883
-0.022332981 0.020347852 -0.028772458 -0.047958754 0.024676844 -0.025677364 -0.050747517 -0.027207369
0.030733591 -0.06570528 0.05204392 -0.042205345 0.003978206 0.019142158 0.020102123 -0.051845156
0.052140273 0.047220767 0.005295326 0.015579549 -0.0005454819 0.011658892 0.056551803 -0.025720198
0.07487152 -0.015732922 0.054311775 0.046575267 0.02755845 -0.003722071 -0.052981414 0.04810088
0.024176769 0.021070424 0.056766637 0.02962292 0.027731653 -0.030459829 -0.03880036 0.026811166
0.056245666 0.063487336 -0.023685884 -0.004838854 0.041579615 0.040673487 -0.05487551 -0.04788773
0.029620651 0.029189184 0.043608945 -0.0027456044 0.025433965 -0.04860081 -0.051622286 0.0057888282
0.018935159 0.039925102 0.05724971 0.0527847 0.06455737 0.08959401 -0.06308381 -0.027145222
0.054614067 -0.022104152 0.016224246 -0.026758282 0.064849906 0.04642287 -0.0054432587 -0.026393315
0.03200017 0.032962594 -0.01824942 0.058744945 -0.04274253 0.008167982 -0.033118397 -0.0014815655
0.02462705 0.048916474 0.060731404 -0.01321476 0.044873346 -0.010339778 -0.023493556 0.05412398
0.058323108 0.071614005 -0.03158069 -0.044519354 -0.040440537 -0.021209406 0.024209358 -0.06286388
0.006713644 -0.02412372 0.054905 0.036632966 -0.030896973 0.02605734 0.019126609 0.024134336
0.036927618 0.015481325 0.04551236 -0.025254015 -0.025818348 0.0109630525 0.04729409 -0.00052948296
-0.057344627 0.05155165 -0.04249537 -0.012488107 -0.01959504 0.0012560501 -0.06670674 -0.0622638
-0.18460709 -0.059299923 0.027887337 0.025929963 -0.02985941 0.035549812 -0.03114781 -0.047953352
0.022348775 0.010856174 -0.025486512 0.023317678 0.007416277 -0.039375056 -0.019244092 -0.023996523

linear4.bias f4 [256]
00000000: 6e26 2cbf cf10 abbe 708e 693e e815 e6be
00000010: 47cf 04be daf9 e83e 3fd4 343f effa bbbe
00000020: 6415 ce3e d520 d6be 9d0d fbbc e509 dc3e
00000030: 1946 43bd 77e4 15bf 5f38 c5bd f5ee 6f3f
00000040: 260c 803e 96a6 e3bd 6950 003f e208 80bf
00000050: 7c11 d8be cb30 2ebf ba86 c83e 3e66 513c
00000060: 1efc ec3e f7f3 883e ac24 46bf ec36 c9be
00000070: 7f51 5d3c a716 17bf 2958 1ebf 9413 5b3f
00000080: c265 b73b 865b 2dbf 93c6 373f 86ae 25bd
00000090: baa3 13bd dd95 b1be 58be 203f 0360 303f
000000a0: 6c92 cf3e 849e 1a3f 4c98 0f3f 3d47 25bf
000000b0: 320b 69bf 4f0b 19bf ff48 6b3d 489a a53e
000000c0: 4533 f5be 4d46 c3be 5036 173f 49bc 5dbf
000000d0: 57ee 50be fed4 b13e 0c7e 1cbf 2bbf 18bf
000000e0: 5b6a 14bf ada1 33bf a13a 443f 506a 12be
000000f0: b6ac 523f 7fed 0fbd c9f5 0fbb 7467 76bd
00000100: 40fa da3e 4710 94bd 0dac 33bf 8508 a4be
00000110: e203 363f 96c1 b03e 9943 eabe 7606 8ebd
00000120: 4c8b 9e3b b051 a33d 17e0 3cbf b9f2 d53e
00000130: 40a8 1e3e d9cc e83c cdb4 d23e 983f 423e
00000140: b80a be3e e820 c4bb 7731 40bf 463f 363d
00000150: 1b46 f0bc f663 183f c629 313f 2972 20bf
00000160: fff4 0f3f e115 a83d 2911 62bf 4abe 45bf
00000170: 11e1 f33e 4dcb 453e 372d 9dbd 1c63 57bf
00000180: e6ed 8d3e 641f 263f 65f2 15bf 4d3b 063e
00000190: e2ab c5be 97ce 283f ca1d 0fbf d3d1 7fbd
000001a0: 27a9 39bf 47de 09bf 156e c53e b48f f9be
000001b0: 260d 6c3e a8b8 873e e6e5 c2bd a74a 88be
000001c0: 7ea3 953e aa73 72bd 709d 2bbf 02bb 653e
000001d0: f60d a43e 41e5 8e3e 01d7 3a3f f35b 2a3d
000001e0: f9c1 2f3c 19f2 703d faa6 5d3f c2a4 c83c
000001f0: 83e3 43be a8b5 15bf d66c 34bf 1b55 433e
00000200: bd23 2f3f 69e0 2abf 3c37 893c 6ac4 3e3f
00000210: 3618 ca3e 5297 053f e9c9 91bc 4704 0f3f
00000220: 273e c33e ad41 e53e f6c1 ae3e 812c 2dbf
00000230: 67d5 183f 72a3 f13e 1c0c 7f3e 9175 203f
00000240: 339d 133f dfbb 19bf a9fd 8c3e e160 313f
00000250: 8eee 27bf 35c3 3ebf 11f9 3e3f 95fc 253f
00000260: 953f 973d b25c 253d 9596 423f a479 543e
00000270: c2cc 283c b837 c43e ca2e 093f 7daa 323f
00000280: badb 16bf 2bf6 72bf ee4b 0fbf 6dc0 9a3e
00000290: 8eee 27bf 3c94 d23d 2383 5fbf fe45 e3be
000002a0: 801a 8fb9 73d9 ae3d d31f 233f 461c 8f3e
000002b0: ae7b 183f 872e 81bf 6dde 1cbf 64a9 48bf
000002c0: cb3f 7d3e 57ca 193f 47c5 393f f6b1 463f
000002d0: 8aaa b03c 61ee d13e 362f 4abf e70d 7e3d
000002e0: d6f5 96be 235d 22bd 8fa9 2cbf f769 0ebf
000002f0: 803e 01bf 283d 2fbe 43ec 7e3e edec fa3e
00000300: d2cd bf3e a797 aebc ea93 bcbd d65a 093f
00000310: d9ed 37bf 63e8 883e 77e3 0e3f 52f5 30bf
00000320: b26e 0c3f 2b28 ec3e 864d 3dbf 20b7 3bbf
00000330: 49b0 083f 1a74 5ebd 1154 aabe 8239 1c3f
00000340: de4a 483f 328b a9bd cbd5 b3bb beaa 3fbf
00000350: 8021 34be 6b37 1fbe 6b86 d2be 1062 ad3e
00000360: fc3d 5c3f 7a31 2fbf 1673 55bf 56fa 30bf
00000370: f022 96bb 5656 1ebf adf2 ecbe 1cd9 013f
00000380: 862d b4be 3506 c93d 2c51 d43e d9b1 c53e
00000390: 29cb b0be 0304 b6bd 932f 0a3d 9a61 7fbd
000003a0: 2d9e e03e e00b 643f 15be 8ebc 70e9 56bf
000003b0: 0db5 523d f283 f93e 7db9 3e3d 310b 5f3f
000003c0: fce2 3c3e 4881 babc d53a a63e d5cc 87bd
000003d0: f9b9 05bf 39ac 193e 793f 223f ee02 a33e
000003e0: 1d21 3c3d 8f3a 3bbf 20db 6c3f b48f b53e
000003f0: 0734 343f 75a0 183f be3e d5be 007b 28bf
-0.6724614 -0.3341126 0.22808242 -0.44938588 -0.12969695 0.45503122 0.7063636 -0.36714885
0.40250695 -0.41821924 -0.03064614 0.429763 -0.047674272 -0.58551735 -0.096298926 0.93723994
0.2500927 -0.11115758 0.50122696 -1.0002711 -0.4220084 -0.680432 0.39165288 0.012780724
0.462861 0.2674863 -0.77399707 -0.39299715 0.0135082 -0.5901894 -0.6185327 0.8557675
0.0055968473 -0.6771778 0.71787375 -0.04044964 -0.036044814 -0.3468465 0.6279044 0.688965
0.405414 0.60398126 0.5609176 -0.64561826 -0.9103271 -0.5978288 0.05744266 0.3234427
-0.47890678 -0.38139573 0.5906725 -0.86615425 -0.2040342 0.34732813 -0.6112983 -0.596667
-0.57974786 -0.7016857 0.7665196 -0.14298368 0.82294786 -0.035138603 -0.0021966568 -0.060157254
0.4276905 -0.07229667 -0.70184404 -0.3203775 0.71099675 0.34522694 -0.45754698 -0.06934826
0.004838383 0.07974565 -0.73779434 0.41786745 0.1549387 0.028417991 0.41153565 0.18969572
0.37117553 -0.005985368 -0.7507548 0.044493936 -0.029330304 0.5952753 0.69204366 -0.62674195
0.5623321 0.08207298 -0.88307434 -0.77243483 0.4763265 0.19315834 -0.0767464 -0.84135604
0.27720565 0.6489165 -0.5857299 0.13108559 -0.386077 0.6594023 -0.5590483 -0.062455963
-0.7252373 -0.53854793 0.38560548 -0.4874245 0.2305189 0.2650807 -0.09516506 -0.26619455
0.29226297 -0.059192337 -0.67037106 0.22434619 0.320419 0.27909282 0.7298432 0.041591596
0.010727399 0.058824632 0.8658291 0.024492625 -0.19129758 -0.5848031 -0.7047857 0.19075434
0.6841391 -0.6674867 0.01674997 0.74518454 0.39471596 0.5218402 -0.017796474 0.558659
0.38133356 0.4477667 0.34132355 -0.6764603 0.59700626 0.4719501 0.24906963 0.6267939
0.5766174 -0.60052294 0.27537277 0.6928845 -0.6559838 -0.7451661 0.74598795 0.64838535
0.07385174 0.040371604 0.7601102 0.20749527 0.010302724 0.3832376 0.5358702 0.69791394
-0.58929026 -0.9490687 -0.55975235 0.30224934 -0.6559838 0.1028218 -0.87309474 -0.44389337
-0.0002729483 0.08537569 0.63720435 0.27951258 0.5956372 -1.0092324 -0.61276895 -0.7838347
0.24731366 0.6007437 0.72566646 0.77615297 0.021565694 0.4100218 -0.7897829 0.062024977
-0.29484433 -0.039639603 -0.67446226 -0.5563044 -0.5048599 -0.17113173 0.24894814 0.49008885
0.37461716 -0.021312548 -0.092079 0.5365423 -0.718473 0.26739797 0.55815834 -0.6912433
0.5485641 0.46124396 -0.73946416 -0.733263 0.5339399 -0.05430994 -0.33267263 0.6102525
0.7823924 -0.082785025 -0.0054881326 -0.74869907 -0.17590904 -0.15548484 -0.41118178 0.33863878
0.8603208 -0.6843487 -0.8337873 -0.6913198 -0.0045818016 -0.6185049 -0.46278897 0.5072191
-0.35190982 0.09815637 0.4146818 0.3861225 -0.3453 -0.08887484 0.033736777 -0.06234894
0.4387068 0.8908062 -0.017424623 -0.8394995 0.051442195 0.4873348 0.046563614 0.8712645
0.18445963 -0.022766724 0.3246676 -0.066308655 -0.52236897 0.15007104 0.633781 0.31838173
0.045930017 -0.7313623 0.9252186 0.354612 0.7039189 0.5961984 -0.4164943 -0.65812683

linear3.weight f4 [1, 256]
00000000: b1eb 1cbe c3f5 e7bc 72a8 9cbd f2cf cf3d
00000010: d0fc d8bd 0b97 383f 9153 0e3f 3dda 0bbb
00000020: 37c8 373e 75ec 513d f4ca b53d 250b e23d
00000030: 114a babd a005 0c3e 260a e5ba 4550 3c3f
00000040: 044e 9f3e 1f4e 2b3d 65de d7bd ecf6 f1bf
00000050: 110b e0bd ba87 cebe 34cb b83d 5171 d03e
00000060: 0310 533e 65ee af3e 54e4 ca3d 6a80 dc3b
00000070: 885a d83c 0f04 5ebe 4e1f e63d ccd6 553f
00000080: cd5c a1bb bf4f 90be 1c94 3b3e 94f5 e2ba
00000090: 88a8 a73d 16c5 cf3d e46b f33e 39d0 e13d
000000a0: 84ca 8dbb d015 3e3f 6fdb 9b3d 5381 5d3c
000000b0: 3cfd df3e f6c2 27bf dfcf 16bc b482 4b3e
000000c0: de23 ce3c 8b54 9dbd 7254 223e e1c4 eb3d
000000d0: 3cf2 69bd 36c3 cabd 9050 36be 8c81 4e3e
000000e0: 15b3 80bf 2bc5 b23d 9d8a c43e d44f 4fbc
000000f0: b094 0f3f a618 1e3d 4209 ee3e b843 fc3a
00000100: c340 bf3e aefa 0d3e 1193 08be d819 7cbd
00000110: 5997 813e 53ba 023f 613f e4bd fe8d babb
00000120: 812b d83d 9831 bb3e 05d0 43bf f261 d7bc
00000130: 3f7b 033e ddeb 6bbd 1b70 293f fc6a 253f
00000140: 6b7e 2b3c 84d7 743d b690 c83d 63b9 b33d
00000150: 451d 383c 0005 8f3f edbb a0be f76d ffbc
00000160: ef7d 4bbf 2887 ae3d beeb c43e 28ac 7f3d
00000170: ba18 e4bd c53e bc3d f859 1dbc 92d6 693e
00000180: 5394 f33e 6417 153e 25ea 13be 3fc7 933f
00000190: bf39 543e 94fa 813e 0e32 7a3d fa8f 8e3b
000001a0: 6d79 573e b6c8 583d d057 eabd 938d b6bc
000001b0: 2806 c43e 8343 2b3c bfc7 0cbb 1627 a0bd
000001c0: 4bbd 293f e6c6 00bb d5ec 93bd 5c99 4cbc
000001d0: 0c60 a6bd 2909 093f 58c6 573e 606a 33bc
000001e0: e23b 483b 4faf 483d b7ef 133f d1be 113c
000001f0: 703f 24be 7bec 8cbd 50e6 533e 594a 233f
00000200: e64e c9be 6d02 90be ac9b 46bd 5d4d f63e
00000210: f264 e13d 2625 3a3e 8330 dbbc f338 ca3d
00000220: 0e52 83bd 40b6 603e fafb 3d3f bfab eabe
00000230: 5274 553d d787 f33e c4cf 4d3f 4e7f 59be
00000240: efe0 aabe 8e1b 44be afe8 95bd 6628 243e
00000250: 3086 36bf 5080 8e3e a267 273e e568 643d
00000260: 7028 c03d 328a 57bb 3bc3 213f ef6d c13d
00000270: 9a99 353e 55cf 2c3f 5f89 c63d c444 923d
00000280: 27ec 8cbf 0c58 87bf cd5d fdbe f33d 8e3d
00000290: c9bc ffbb 7fee e83e f124 4fbf 715e 58bd
000002a0: 2387 82bc bf01 a93d 712e a93d 774a 7dbd
000002b0: 9253 24be 58ca 9fbf 6d2d d8bd 65bf e63d
000002c0: 720e ccbd d9d1 7a3d 0afe 3c3e 3520 ce3e
000002d0: 4176 953f 026d 403f 3c9e ef3d 46fb fbbd
000002e0: b604 10bb 2bbf 6f3c 5bf6 c8bd a240 4a3d
000002f0: 5e55 713e 6810 bdbd dab8 dbbd bff4 133f
00000300: 06e8 373e f331 c53c 8cf0 983d 7a4c b83d
00000310: f8b6 913d ba53 403e 2057 29be 8488 28be
00000320: a137 de3d 2b53 48be 26b6 7bbe ece9 20bf
00000330: fc1d 6dbe 212a 02b9 d242 81bd e7f0 a33d
00000340: a03e 1d3e db3e 803b b574 2cbe 8d55 373e
00000350: f697 d9bd 7154 ac3c e4c3 10bf 17a0 66bd
00000360: b15f 223f 2a3d 94be be02 f03d f219 a73e
00000370: 0a6e 483b 01fc 5ebe e56b 50bd 73da 07bf
00000380: 403b 82bd e527 2f3d 6191 943e b499 323f
00000390: ebd7 10bd 8a0b 09bf b36e 2c3b c39a 2fba
000003a0: 353e 0c3e 4d09 653f 52b0 173a 1e9c e73d
000003b0: 0e48 803f 5243 253e 8b9c f8bb 8e22 413f
000003c0: c907 233f 4c3d de3b f109 2d3f 98be d8bc
000003d0: 73be d33a 6f2a 4dbe 5ef2 043f cfe4 083f
000003e0: 1606 a63f 8b8d c73d fa49 383f 6e68 353e
000003f0: 3026 383f 7271 0d3f c565 2bbf 0453 22bf
-0.15324284 -0.02831543 -0.07649316 0.10147084 -0.10595095 0.72105473 0.5559626 -0.0021339797
0.1794747 0.051250894 0.08876601 0.11037282 -0.09096158 0.13674021 -0.0017474338 0.7355998
0.3111421 0.04182255 -0.10540465 -1.890348 -0.10939611 -0.40337926 0.09023133 0.40711454
0.20611577 0.34361568 0.099068314 0.0067291753 0.026410356 -0.21681236 0.1123644 0.8353088
-0.004924393 -0.2818584 0.18318218 -0.001731562 0.08186442 0.10145013 0.47543252 0.110260434
-0.0043271203 0.74252033 0.07610213 0.013519603 0.4374789 -0.6553186 -0.009204834 0.19874078
0.025163587 -0.07682141 0.15852526 0.11512161 -0.05711578 -0.09900515 -0.1780417 0.20166606
-1.0054651 0.08729013 0.38387004 -0.01265331 0.56086254 0.038597725 0.46491438 0.0019246256
0.37354097 0.13865158 -0.13337351 -0.061548084 0.25310782 0.5106556 -0.11144901 -0.0056931963
0.10555173 0.36561275 -0.7648929 -0.026291821 0.12839983 -0.057597984 0.66186684 0.6461637
0.010467152 0.059775844 0.097932264 0.08775594 0.011237447 1.1173401 -0.31393376 -0.031180365
-0.79489034 0.08521873 0.38461107 0.06242004 -0.11137529 0.0919166 -0.00960397 0.22835758
0.475741 0.14559704 -0.14444788 1.154518 0.20725153 0.25386488 0.061082892 0.0043506594
0.21042414 0.052925788 -0.1144253 -0.022284305 0.38285947 0.010453108 -0.0021481363 -0.07819955
0.66304463 -0.0019649803 -0.072229065 -0.012487736 -0.08123788 0.535296 0.21071756 -0.010950655
0.003055327 0.048995312 0.5778765 0.008895592 -0.16039824 -0.068810426 0.20693326 0.6378532
-0.39318007 -0.2812685 -0.048488304 0.48105898 0.11005582 0.18178234 -0.02675653 0.098741435
-0.06412135 0.21944523 0.7421261 -0.45834157 0.052112885 0.47564575 0.8039515 -0.21239969
-0.33374736 -0.19151136 -0.073197715 0.16031036 -0.71298504 0.2783227 0.16348127 0.055764098
0.09382713 -0.0032888767 0.63188523 0.09444796 0.17734376 0.67503864 0.0969417 0.07142022
-1.1009568 -1.0573745 -0.49485627 0.069454096 -0.0078044874 0.45494458 -0.80915743 -0.05282444
-0.015933579 0.08252286 0.08260811 -0.061838593 -0.16047505 -1.2483625 -0.10555539 0.11266974
-0.09963693 0.061235283 0.18456283 0.40258947 1.1676713 0.7516633 0.11700103 -0.12303786
-0.0021975464 0.01463298 -0.098126136 0.049378045 0.23567721 -0.09231645 -0.10728617 0.5779533
0.17959604 0.02407167 0.07467756 0.08998962 0.07114977 0.18781939 -0.16537142 -0.16458327
0.10850454 -0.19562976 -0.24581203 -0.62856936 -0.2315597 -0.0001241346 -0.06311573 0.08004933
0.15355921 0.003913743 -0.16841395 0.17903729 -0.106246874 0.021036359 -0.56548905 -0.056305017
0.63427263 -0.28952914 0.11719273 0.32636982 0.0030583167 -0.2177582 -0.050884146 -0.530677
-0.06358957 0.042762656 0.29017165 0.6976578 -0.035362165 -0.5353323 0.00263111 -0.00066987815
0.13695605 0.89467317 0.00057864666 0.11309074 1.0021989 0.16138962 -0.0075870208 0.7544335
0.63683754 0.0067822095 0.67593294 -0.02645807 0.0016154781 -0.20035718 0.5193232 0.53474134
1.2970607 0.09743794 0.7198788 0.17715618 0.7193327 0.5525123 -0.66952163 -0.6340792
