outputs/Optimal_Control/20220325-113619/models/checkpoint.pt (torch, 533487 bytes, 7 tensors)

linear1.weight f4 [256, 2]
0.69986284 -0.28297058 -0.5468874 0.015987039 0.30454877 -0.5434232 0.68927145 -0.31751335
0.013984054 0.013472541 0.5761399 -0.20399275 -0.36091754 -0.053956747 0.050011426 0.56163466
0.6126844 0.004542274 0.14466941 -0.45162255 0.07323056 0.5277267 -0.6832718 0.53393334
-0.6063842 0.48386377 0.19355427 -0.46993113 -0.65807366 -0.12774742 0.26447013 0.22071512
0.65939784 -0.046767756 0.6751876 0.70102894 -0.09434903 0.5761364 0.36042887 0.023940625
-0.63614047 0.16787201 -0.09626678 0.6156885 -0.5300405 -0.32606134 0.4624321 0.29569507
0.2302061 0.42675894 0.20725837 0.23910749 0.32010028 0.63562506 0.3058082 -0.02962905
-0.67799836 -0.34784198 -0.31905526 0.5527095 -0.093823746 0.21613355 -0.090448216 0.11895918
-0.0970937 -0.10987294 -0.45684418 -0.26412275 0.51852536 0.117127925 0.08592935 -0.0021869403
0.66318446 -0.5204336 -0.14268088 0.07383543 -0.028831132 0.12596413 -0.2091604 0.21182688
-0.039806247 -0.09858984 0.03216708 -0.017288892 0.34252733 -0.23150322 0.43797246 -0.49194783
0.4795808 0.2873699 -0.35546872 -0.10009968 0.37982205 -0.6273665 0.29562488 -0.23548365
-0.5975869 0.32415074 -0.22254242 0.42903635 -0.6927712 0.62251824 0.17664066 0.43675125
-0.40164867 -0.4573792 0.20846206 -0.08770563 0.6746475 -0.67885137 -0.38940483 -0.44861704
0.579673 -0.2829186 0.28633213 0.61143714 -0.00094216067 0.2248299 0.11817695 0.2566515
0.29479626 0.31889793 -0.5191992 -0.17669761 -0.40478203 0.36768943 -0.2052167 -0.6619352
-0.65112317 0.0771811 -0.2700082 0.56046706 0.13221094 0.4156822 -0.24533021 -0.15467668
-0.54353124 0.44400805 -0.093164384 0.25293225 -0.4683184 -0.1524697 -0.4719023 0.2469008
-0.5756495 0.36247844 0.675781 0.5070872 -0.37493557 -0.3931566 0.004101938 -0.54495096
-0.43843696 0.404499 0.7050114 -0.4309457 -0.27961072 0.4421963 0.5452581 -0.019664275
-0.37824968 -0.29670033 -0.58115685 0.34629625 0.35740274 0.55370665 -0.1806047 -0.24479538
0.22946721 0.15345615 0.36322168 -0.31155607 0.6507559 0.457742 -0.36394748 0.3585561
-0.68156916 0.28367978 0.2853868 -0.52226806 0.10578988 0.6054218 -0.17633016 0.612563
-0.378017 0.054745615 0.18442397 -0.10694122 0.06533116 0.32727244 0.034378767 0.12716825
-0.20540005 -0.0445022 0.28129384 -0.3193453 -0.1789447 0.22326763 -0.15343934 0.5675409
0.26935017 -0.6909851 0.5155565 0.023268722 -0.6875267 -0.02471745 -0.30355796 0.17681485
0.6232023 0.4256852 0.68330866 0.563275 0.5119518 -0.4875226 -0.14245594 -0.12634993
0.012556091 -0.5254162 -0.23807514 0.4734371 -0.1761837 -0.18940008 0.050062604 0.052591015
-0.5594009 0.1959014 -0.4833999 -0.048762023 0.1537284 0.06507449 -0.49599904 0.33811706
0.35581896 -0.48027116 -0.12495194 0.5738547 -0.65294117 0.42323595 -0.27306303 0.06712663
0.3705546 0.026074631 -0.4309343 -0.62039703 0.5216733 0.24093847 0.30408236 -0.44976354
0.2558543 -0.3654172 -0.22038579 -0.6268177 0.3884523 -0.36072862 -0.07423765 0.7028452
00000000: 362a 333f 85e1 90be d000 0cbf 40f7 823c
00000010: d1ed 9b3e c81d 0bbf 1874 303f 1c91 a2be
00000020: 601d 653c efbb 5c3c e87d 133f 7ae3 50be
00000030: 2fca b8be c001 5dbd c8d8 4c3d 4ac7 0f3f
00000040: e3d8 1c3f 5bd7 943b 3824 143e 123b e7be
00000050: e7f9 953d 1919 073f e7ea 2ebf dbaf 083f
00000060: ff3b 1bbf febc f73e 1733 463e d09a f0be
00000070: 8477 28bf 38d0 02be a168 873e 2503 623e
00000080: 4cce 283f 8c8f 3fbd 18d9 2c3f a276 333f
00000090: 103a c1bd ad7d 133f 228a b83e 211f c43c
000000a0: 1ada 22bf a4e6 2b3e 8427 c5bd c39d 1d3f
000000b0: bcb0 07bf 83f1 a6be e6c3 ec3e 5865 973e
000000c0: 26bb 6b3e 2680 da3e 8a3b 543e 98d8 743e
000000d0: 2fe4 a33e 53b8 223f e492 9c3e 9fb8 f2bc
000000e0: 4d91 2dbf 5818 b2be 365b a3be 5f7e 0d3f
000000f0: aa26 c0bd 1d52 5d3e ea3c b9bd dfa0 f33d
00000100: 10d9 c6bd 1005 e1bd 7be7 e9be 193b 87be
00000110: 14be 043f c4e0 ef3d bafb af3d c552 0fbb
00000120: 75c6 293f 233b 05bf f01a 12be 0837 973d
00000130: 442f ecbc befc 003e 252e 56be 25e9 583e
00000140: e00b 23bd 78e9 c9bd a1c1 033d 6fa1 8dbc
00000150: be5f af3e 2e0f 6dbe ed3d e03e 96e0 fbbe
00000160: 9d8b f53e 2622 933e ffff b5be 1001 cdbd
00000170: 0978 c23e 179b 20bf 255c 973e a022 71be
00000180: 75fb 18bf 16f7 a53e 29e2 63be a7aa db3e
00000190: 7459 31bf 5b5d 1f3f 4ae1 343e dc9d df3e
000001a0: e5a4 cdbe 9b2d eabe 1477 553e 029f b3bd
000001b0: b3b5 2c3f 34c9 2dbf 1260 c7be 22b1 e5be
000001c0: 7365 143f b5da 90be 209a 923e 2587 1c3f
000001d0: 55fb 76ba cf39 663e c206 f23d d367 833e
000001e0: 89ef 963e 9746 a33e 3dea 04bf 38f0 34be
000001f0: 973f cfbe ca41 bc3e 5424 52be 9674 29bf
00000200: 02b0 26bf 2011 9e3d 843e 8abe c57a 0f3f
00000210: 4e62 073e 4cd4 d43e d837 7bbe 9063 1ebe
00000220: dd24 0bbf 0655 e33e f8cc bebd 5680 813e
00000230: 6ec7 efbe 0421 1cbe 2e9d f1be 90d3 7c3e
00000240: c45d 13bf c696 b93e fcff 2c3f 77d0 013f
00000250: 8ef7 bfbe d24b c9be 8d69 863b e881 0bbf
00000260: cf7a e0be 7e1a cf3e a17b 343f eaa4 dcbe
00000270: 2329 8fbe 8e67 e23e 0996 0b3f f916 a1bc
00000280: f1a9 c1be 1be9 97be b2c6 14bf be4d b13e
00000290: 7efd b63e b8bf 0d3f 70f0 38be a4ab 7abe
000002a0: 74f9 6a3e 9c23 1d3e 31f8 b93e 4784 9fbe
000002b0: f097 263f 295d ea3e 5357 babe aa94 b73e
000002c0: 517b 2ebf 7a3e 913e 381e 923e 5cb3 05bf
000002d0: 5da8 d83d ecfc 1a3f e58f 34be eed0 1c3f
000002e0: 728b c1be f03c 603d a3d9 3c3e 0004 dbbd
000002f0: 58cc 853d 4190 a73e c0d0 0c3d 6538 023e
00000300: 6454 52be f047 36bd bf05 903e 3a81 a3be
00000310: 483d 37be 45a0 643e 341f 1dbe 5c4a 113f
00000320: 44e8 893e 66e4 30bf 83fb 033f 0c9e be3c
00000330: c001 30bf 407c cabc f36b 9bbe f40e 353e
00000340: 308a 1f3f 69f3 d93e 51ed 2e3f ca32 103f
00000350: 460f 033f 909c f9be f8df 11be e061 01be
00000360: 10b8 4d3c ad81 06bf f8c9 73be 5966 f23e
00000370: 8069 34be 18f2 41be 720e 4d3d ad69 573d
00000380: e634 0fbf 609a 483e 3180 f7be b0ba 47bd
00000390: fa6a 1d3e c645 853d 96f3 fdbe ae1d ad3e
000003a0: e72d b63e 1ae6 f5be cde6 ffbd 24e8 123f
000003b0: 2727 27bf 62b2 d83e ebce 8bbe b079 893d
000003c0: 55b9 bd3e 779a d53c 6ca3 dcbe 57d2 1ebf
000003d0: 628c 053f 93b8 763e afb0 9b3e 6847 e6be
000003e0: 56ff 823e f717 bbbe d0ac 61be 2077 20bf
000003f0: 38e3 c63e 6cb1 b8be e909 98bd aaed 333f

linear1.bias f4 [256]
-0.5045997 0.02824539 -0.47576052 -0.5442944 0.55734766 -0.26749018 -0.11580181 0.40237147
0.066903405 0.2739791 -0.37386435 -0.02673626 0.47531682 -0.68677706 -0.5564683 0.44310513
-0.15759571 -0.22571592 -0.5883689 0.50023526 0.7002999 0.6732674 0.26634693 0.25325382
-0.16051443 0.61524594 -0.3442348 -0.18757267 -0.31842583 0.26349825 0.43358302 0.53831965
-0.36487445 -0.47919348 0.015865564 0.38003418 -0.11917028 -0.0880242 0.31503198 0.39339313
0.036240578 0.6082804 -0.53784996 0.49406478 -0.3259377 0.5137219 -0.6832039 0.3973389
0.14290994 0.16590749 0.020939589 -0.051198315 0.12912422 -0.08929708 0.38474014 -0.18456197
-0.40803427 0.39374876 -0.17359258 0.5238221 -0.53789264 -0.13463783 -0.2563742 0.69227594
-0.418471 -0.47023258 -0.67235446 -0.68156517 0.010925829 0.17190589 0.40978044 0.13951021
0.4557634 -0.27914587 0.025973499 -0.6061592 -0.14235336 -0.64587814 0.43232328 -0.576152
0.45364124 0.3307572 -0.15620314 -0.29592693 -0.46129763 -0.0042021046 -0.21844797 -0.66460866
0.36291665 0.64633125 0.5752244 -0.44035485 -0.5955562 0.5047154 -0.09235339 0.14554292
0.15743792 0.5040576 0.38288832 -0.17065951 0.22573113 0.30025676 -0.219805 -0.61413825
-0.012628338 -0.17725013 -0.16504632 0.54040295 0.4253634 -0.34450752 0.22943735 0.29837212
0.6946451 0.34717232 -0.15783209 -0.4258017 -0.015849581 -0.013620678 0.4842556 0.2589152
-0.07504128 0.57759315 0.6529366 0.279411 -0.18099199 -0.5545483 -0.13616164 0.31560794
0.5314812 -0.63102925 -0.016910672 0.38754827 0.66932625 -0.47263727 -0.37354118 0.66722786
-0.1659419 0.5669182 -0.49659565 -0.5612329 0.63927865 -0.6858954 -0.0586192 -0.36928558
0.34472618 -0.3272965 -0.1684795 -0.18881088 -0.24205571 -0.2513084 -0.043048188 0.41462857
0.5793237 -0.07180357 0.5097108 0.5444174 -0.09807724 0.6300942 -0.6831427 0.5748487
0.40258092 -0.1278094 -0.20541003 -0.6235494 -0.3295683 -0.62292457 -0.22458276 0.691588
-0.32518914 0.38072088 0.268816 0.014843362 0.6243108 0.40950572 0.29296643 -0.119625
-0.51364315 0.35115516 -0.52763665 0.09554875 -0.2924809 -0.68724144 0.20054755 -0.6625406
0.32324618 0.22094795 -0.6095943 -0.13577372 -0.3265715 -0.34899342 -0.4605665 -0.24203941
0.46584982 0.5048405 0.59045655 -0.5949148 0.58585185 0.5367596 -0.09855062 0.051412046
0.30741602 0.10996711 -0.6496405 -0.22780024 -0.05895844 0.19824433 0.523845 0.43441242
-0.5523586 -0.012162805 -0.52171296 -0.23333578 -0.6551198 -0.6276123 -0.14111346 0.0038891945
-0.4278201 0.004206836 -0.10320658 0.21409954 -0.12172592 -0.5874223 0.5344948 0.24663834
0.42433417 0.24382609 0.18942428 0.019945366 -0.17234266 -0.16329251 -0.20952395 -0.49464133
-0.2885542 -0.072531365 0.0588783 -0.671973 0.57755667 0.00523262 -0.03473632 -0.50918543
-0.6246946 0.070262104 0.573479 -0.63086164 -0.278925 -0.19839765 -0.53770614 -0.24172524
0.61412996 -0.5877224 -0.67491484 -0.2851147 -0.144313 0.20314354 0.22626851 -0.39309657
00000000: 722d 01bf e062 e73c e296 f3be e156 0bbf
00000010: 56ae 0e3f 79f4 88be 8029 edbd a203 ce3e
00000020: a704 893d fd46 8c3e 266b bfbe 0006 dbbc
00000030: ba5c f33e 9fd0 2fbf b574 0ebf adde e23e
00000040: c560 21be 1322 67be 589f 16bf 6b0f 003f
00000050: db46 333f 415b 2c3f a05e 883e 7caa 813e
00000060: e55d 24be c280 1d3f 8b3f b0be 0d13 40be
00000070: b608 a3be 3ee9 863e 98fe dd3e 51cf 093f
00000080: d3d0 babe d958 f5be 80f8 813c d793 c23e
00000090: 8c0f f4bd 0846 b4bd df4b a13e d36a c93e
000000a0: 0071 143d 44b8 1b3f 89b0 09bf 0ff6 fc3e
000000b0: 4ee1 a6be 4783 033f 73e6 2ebf 0170 cb3e
000000c0: fc56 123e a7e3 293e 8089 ab3c 53b5 51bd
000000d0: 2439 043e 63e1 b6bd a9fc c43e d0fd 3cbe
000000e0: dee9 d0be 7099 c93e 41c2 31be 3519 063f
000000f0: 55b3 09bf 80de 09be 7b43 83be ff38 313f
00000100: d541 d6be 53c2 f0be 6c1f 2cbf 0e7b 2ebf
00000110: 4002 333c 1908 303e bece d13e c4db 0e3e
00000120: d259 e93e 35ec 8ebe 60c6 d43c 402d 1bbf
00000130: 14c5 11be 4558 25bf 7a59 dd3e b37e 13bf
00000140: aa43 e83e 0259 a93e b7f3 1fbe bc83 97be
00000150: 342f ecbe cfb1 89bb d3b0 5fbe cb23 2abf
00000160: 36d0 b93e f775 253f e841 133f 3176 e1be
00000170: 5f76 18bf 0735 013f c623 bdbd 3409 153e
00000180: 6837 213e eb09 013f f009 c43e 5ec1 2ebe
00000190: 1026 673e 41bb 993e 9014 61be 2a38 1dbf
000001a0: 17e7 4ebc 0f81 35be e701 29be d957 0a3f
000001b0: 3bc9 d93e 4a63 b0be a0f1 6a3e 3bc4 983e
000001c0: 43d4 313f 92c0 b13e bc9e 21be ae02 dabe
000001d0: fbd6 81bc 4429 5fbc 5af0 f73e 8890 843e
000001e0: 3eaf 99bd 25dd 133f da26 273f f50e 8f3e
000001f0: f755 39be e1f6 0dbf f56d 0bbe 5d97 a13e
00000200: 270f 083f 228b 21bf 4088 8abc ba6c c63e
00000210: f758 2b3f 83fd f1be ca40 bfbe 72cf 2a3f
00000220: acec 29be 8d21 113f c941 febe f6ac 0fbf
00000230: c4a7 233f d796 2fbf b01a 70bd 0013 bdbe
00000240: f37f b03e 6893 a7be e485 2cbe a457 41be
00000250: 74dd 77be 7fab 80be 4c53 30bd 324a d43e
00000260: 8f4e 143f c00d 93bd 687c 023f f05e 0b3f
00000270: b8dc c8bd da4d 213f 71e2 2ebf 4929 133f
00000280: 161f ce3e 78e0 02be 0257 52be efa0 1fbf
00000290: 2dbd a8be fc77 1fbf 06f9 65be e90b 313f
000002a0: 317f a6be d9ed c23e 40a2 893e 9331 733c
000002b0: d5d2 1f3f bcaa d13e b2ff 953e f4fd f4bd
000002c0: 1e7e 03bf 9cca b33e 3213 07bf 10af c33d
000002d0: 0ec0 95be 0eef 2fbf 565c 4d3e 439c 29bf
000002e0: 8680 a53e 2e40 623e 5f0e 1cbf 4408 0bbe
000002f0: 6134 a7be 44af b2be 5fcf ebbe 2ed9 77be
00000300: de83 ee3e 3a3d 013f 2928 173f 564c 18bf
00000310: 63fa 153f 1469 093f e8d4 c9bd 7095 523d
00000320: a265 9d3e 7036 e13d d74e 26bf 7744 69be
00000330: 687e 71bd 9000 4b3e b51a 063f 4e6b de3e
00000340: 6067 0dbf 8046 47bc fb8e 05bf 93ef 6ebe
00000350: eeb5 27bf 33ab 20bf 0c80 10be dbe1 7e3b
00000360: 3c0b dbbe 80d9 893b f95d d3bd e93c 5b3e
00000370: 704b f9bd 4f61 16bf a7d4 083f c38e 7c3e
00000380: 5442 d93e 8cad 793e 70f8 413e 7764 a33c
00000390: 987a 30be 2736 27be 728d 56be a141 fdbe
000003a0: 60bd 93be 538b 94bd 5f2a 713d 6c06 2cbf
000003b0: c1da 133f 6676 ab3b ac47 0ebd fa59 02bf
000003c0: fceb 1fbf 94e5 8f3d 85cf 123f 2680 21bf
000003d0: 42cf 8ebe c128 4bbe 1ca7 09bf d286 77be
000003e0: 9f37 1d3f fa74 16bf 38c7 2cbf 8efa 91be
000003f0: c9c6 13be dc04 503e efb2 673e f443 c9be

linear2.weight f4 [256, 256]
-0.010493084 -0.024550997 0.023582904 0.03920147 0.044083074 -0.009836042 -0.033551246 0.032402877
0.0054311897 0.0003899527 -0.03111139 -0.03074029 -0.011688031 -0.04596921 0.033994988 -0.040177364
0.00041856949 -0.060485512 0.027609931 0.053909212 0.053320304 -0.058174107 -0.034971595 -0.0004729994
0.038576737 -0.016891915 0.045338906 0.04491303 0.047783576 0.032127433 -0.050152253 -0.05343907
0.037967525 0.017282829 0.031197153 0.036486156 0.029074065 -0.055959128 -0.022786794 -0.028389003
0.04380341 0.045135494 -0.038360633 -0.04270264 0.04551353 -0.028156266 -0.039530635 -0.042233266
-0.028739974 0.05332219 0.056767814 -0.04996455 0.010957062 0.040682424 -0.026720665 0.040890843
-0.032745663 0.057027053 -0.028035996 0.05040981 0.040555228 -0.002327688 -0.013021298 -0.017532513
0.022486165 0.027973073 0.0010443209 0.034617737 0.03381762 0.063464575 -0.017478928 -0.03579686
-0.0124035105 0.014031899 0.04708671 0.025346868 -0.044170566 0.0102485465 0.057071835 -0.060591664
-0.017291434 0.011549883 0.037961673 -0.023479193 -0.027071016 0.004923555 -0.006660522 -0.037949026
-0.039467417 0.05446805 -0.004351957 -0.028451232 -0.0063762963 0.004017446 0.04935094 -0.027573124
-0.04418058 -0.008641015 -0.045395203 0.019184018 -0.04206369 0.007716151 -0.010594942 -0.026898943
0.026852155 -0.0059955698 0.0011173557 -0.04407119 0.0025878176 -0.05524368 -0.03949307 0.054894913
0.050882667 -0.06080634 0.03608198 0.007855743 0.00090036605 -0.04998472 0.06072917 -0.036263183
0.037893917 0.05548297 -0.025207346 -0.010598749 0.024156902 -0.0017849058 0.03809292 0.041610565
0.03473247 0.010064437 0.035470784 -0.0005784579 -0.02550365 -0.04039016 -0.014440879 0.003794874
0.04970266 -0.057557747 -0.040736243 0.011080511 0.027847454 -0.03220561 -0.05399599 0.024505166
0.04533845 0.03266979 0.019973628 0.029593587 -0.005032822 -0.048540466 -0.025005057 0.009032257
0.04897251 0.014819093 -0.0083905505 0.026350666 0.047412954 -0.007748132 -0.025986142 0.0139677515
-0.026288567 0.04101582 -0.033836365 -0.03396703 -0.06043738 0.039046235 -0.009807572 0.027635423
0.039102003 -0.026549866 0.013636544 -0.05448734 -0.04425784 -0.0025533512 0.030909067 9.456909e-05
-0.016322268 -0.035004314 0.0012335933 0.0045585707 -0.04278001 -0.06240359 0.020123467 -0.011845507
-0.013816598 0.0229571 -0.050473496 0.028019015 0.05748638 -0.011024207 -0.017840426 -0.0075544864
0.045863815 -0.007956006 -0.04706706 -0.0077540707 -0.010415817 -0.049362775 -0.007829696 0.012474403
-0.03683509 0.03494346 -0.009795397 0.018790191 0.026966818 -0.039296992 -0.058629386 -0.027514562
-0.034114107 0.023357555 0.028519118 0.056872863 -0.034159712 -0.0011031316 0.037832838 0.013836883
0.023636892 0.034687653 -0.025813632 0.043591984 -0.02618812 0.030074663 -0.002701279 -0.0022033448
0.03938874 0.019059392 0.016331267 -0.051321894 0.019096285 0.04087774 -0.03155067 0.0028395911
0.0516914 -0.038082022 0.03257193 0.026588904 -0.018909454 0.03474647 -0.05977828 -0.03925103
0.0015125498 -0.028593162 -0.037548088 0.05318413 0.051864147 -0.03074978 -0.034257278 -0.00998124
-0.032557357 0.050685164 0.06027368 -0.012948121 -0.034070577 -0.034432497 -0.028598905 -0.039069533
00000000: 2feb 2bbc 2c1f c9bc ef30 c13c b891 203d
00000010: 7490 343d 5a27 21bc 086d 09bd e1b8 043d
00000020: 1ff8 b13b 9172 cc39 50dd febc 10d3 fbbc
00000030: 287f 3fbc 364a 3cbd 543e 0b3d 0591 24bd
00000040: 7273 db39 a8bf 77bd 392e e23c e8cf 5c3d
00000050: 6466 5a3d f947 6ebd 603e 0fbd e8fc f7b9
00000060: a402 1e3d ea60 8abc 4ab5 393d baf6 373d
00000070: b6b8 433d 0e98 033d 736c 4dbd ede2 5abd
00000080: d683 1b3d b894 8d3c 2c91 ff3c 8272 153d
00000090: bc2c ee3c 6635 65bd 5fab babc 0e90 e8bc
000000a0: 346b 333d ffdf 383d 0a20 1dbd f7e8 2ebd
000000b0: 656c 3a3d f8a7 e6bc e0ea 21bd cafc 2cbd
000000c0: 1870 ebbc 5e68 5a3d 5e85 683d a1a7 4cbd
000000d0: 4085 333c 9da2 263d 4ce5 dabc 287d 273d
000000e0: 5120 06bd 3395 693d bfab e5bc 847a 4e3d
000000f0: 3d1d 263d 208c 18bb 4857 55bc 58a0 8fbc
00000100: e834 b83c c927 e53c 98e1 883a 54cb 0d3d
00000110: 5884 0a3d b7f9 813d f82f 8fbc ba9f 12bd
00000120: 1838 4bbc 0de6 653c fedd 403d 3ca4 cf3c
00000130: 32ec 34bd 85e9 273c 28c4 693d f72e 78bd
00000140: c4a6 8dbc b83b 3d3c b37d 1b3d 7057 c0bc
00000150: 09c4 ddbc c655 a13b 8240 dabb 7070 1bbd
00000160: 96a8 21bd e419 5f3d dc9a 8ebb 8f12 e9bc
00000170: 40f0 d0bb c8a4 833b 3624 4a3d 08e1 e1bc
00000180: b2f6 34bd 0b93 0dbc 52f0 39bd cd27 9d3c
00000190: fa4a 2cbd c4d7 fc3b 6896 2dbc 2c5b dcbc
000001a0: 0df9 db3c 7c76 c4bb 3c74 923a fe83 34bd
000001b0: 6098 293b 3247 62bd 7cc3 21bd 7dd9 603d
000001c0: 586a 503d 1210 79bd b3ca 133d 60b5 003c
000001d0: 8b06 6c3a c7bc 4cbd 26bf 783d b488 14bd
000001e0: a736 1b3d 1c42 633d a37f cebc 60a6 2dbc
000001f0: b2e4 c53c 80f3 e9ba 5207 1c3d d76f 2a3d
00000200: a243 0e3d 4fe5 243c d049 113d a7a3 17ba
00000210: 08ed d0bc 2770 25bd 7099 6cbc 6cb3 783b
00000220: 0495 4b3d acc1 6bbd 0cdb 26bd 088b 353c
00000230: 5820 e43c 08ea 03bd e62a 5dbd 0fbf c83c
00000240: d0b4 393d c2d0 053d bc9f a33c 406e f23c
00000250: 5fea a4bb 5ed2 46bd 68d7 ccbc 08fc 133c
00000260: 6697 483d c8cb 723c 8578 09bc 5add d73c
00000270: 1634 423d 0be4 fdbb e4e0 d4bc ffd8 643c
00000280: 1f5b d7bc 3400 283d 0098 0abd 0321 0bbd
00000290: 308d 77bd f2ee 1f3d f0af 20bc af63 e23c
000002a0: 6c29 203d 1b7f d9bc d06b 5f3c 1e2e 5fbd
000002b0: b547 35bd 2056 27bb 0335 fd3c 6553 c638
000002c0: 47b6 85bc af60 0fbd 86b0 a13a 1060 953b
000002d0: 173a 2fbd e89a 7fbd f8d9 a43c a813 42bc
000002e0: 035f 62bc 8710 bc3c 4cbd 4ebd 2288 e53c
000002f0: d776 6b3d e09e 34bc 1626 92bc a08b f7bb
00000300: b2db 3b3d e859 02bc 64c9 40bd dc15 febb
00000310: 1aa7 2abc 9f30 4abd 2048 00bc 7061 4c3c
00000320: 64e0 16bd e020 0f3d df7c 20bc e3ed 993c
00000330: 84e9 dc3c e2f5 20bd 5e25 70bd 3866 e1bc
00000340: 3cbb 0bbd 5858 bf3c eda0 e93c 85f3 683d
00000350: 0eeb 0bbd f496 90ba 9bf6 1a3d 18b4 623c
00000360: 28a2 c13c a414 0e3d 1c77 d3bc 828d 323d
00000370: 7888 d6bc 245f f63c f107 31bb fe65 10bb
00000380: 1656 213d 7122 9c3c 26c9 853c e836 52bd
00000390: d06f 9c3c 6b6f 273d 463b 01bd 6f18 3a3b
000003a0: 5dba 533d e5fb 1bbd 256a 053d f9d0 d93c
000003b0: 00e8 9abc 5152 0e3d 12da 74bd b0c5 20bd
000003c0: c040 c63a 353c eabc 06cc 19bd 9ad7 593d
000003d0: 806f 543d f6e6 fbbc 5c51 0cbd 5b88 23bc
000003e0: dd5a 05bd 3f9b 4f3d 89e1 763d 5b24 54bc
000003f0: 978d 0bbd 1709 0dbd 4048 eabc 6007 20bd

linear2.bias f4 [256]
-0.016544603 -0.051941983 0.032911528 0.059085533 0.021543069 -0.005205542 0.011701416 0.047245003
-0.06087147 0.006618835 -0.0331009 -0.018914908 -0.014202689 -0.03314858 0.0398464 -0.008248704
0.045700178 0.045170374 -0.0031109229 -0.032433342 0.012240541 0.030639844 0.054351434 -0.04191023
-0.01859083 0.06400564 0.06046017 0.0031748803 -0.004695971 0.046264336 -0.01890362 0.067518055
-0.00498292 -0.054039806 0.019935345 -0.045247428 -0.007879857 0.011810704 0.04907159 0.059992947
0.058544323 0.06358917 0.021443516 0.03751146 0.05520206 -0.019153789 -0.04851953 0.048452433
-0.025404958 -0.04186573 -0.026648724 0.05080145 -0.048468836 0.05942668 -0.012629338 0.05715158
-0.004998643 -0.0070683807 -0.03608047 -0.025880456 0.0046019107 0.031152077 -0.029084805 0.06728109
0.04988048 0.05000165 0.04734251 -0.05499499 0.061744355 0.016813494 0.03259934 0.05276021
-0.05702492 0.04713908 0.054432765 0.049895633 0.027860008 -0.046958704 0.052695964 -0.0004968527
0.027187541 -0.04986616 0.019502394 -0.0512639 0.02156761 -0.027876161 -0.01115834 0.026917584
0.052711137 -0.0055011506 0.009019407 0.05887139 -0.037983768 -0.02613578 -0.03220418 0.022923127
0.00096630264 -0.043658216 0.017904624 -0.0013900921 -0.047733575 -0.00021902453 -0.007427758 0.026513547
0.051344275 -0.05357396 -0.0329624 -0.027520498 -0.0068555633 -0.011715992 -0.013914161 0.039346017
0.060081817 0.014004894 -0.037483912 0.06084166 -0.027961753 0.05754668 0.044374123 0.036177345
-0.014899997 -0.030550463 0.038622957 0.059395917 0.060467057 -0.014454372 0.012645056 -0.020833358
0.050015025 -0.0186485 0.022363901 0.043079928 -0.048912697 0.038565002 -0.052139197 -0.020212239
-0.033378005 0.045757696 0.05199338 0.006757632 -0.04285169 -0.024289377 -0.031151727 0.011965267
0.043169063 0.00018459099 -0.041065387 -0.053775758 -0.042987004 0.046426676 0.03439697 -0.009347362
-0.045629036 0.05660318 -0.05971452 -0.051299147 -0.05184713 0.023514584 0.024458868 0.05036591
-0.0013794254 -0.010693774 0.0528548 0.052992836 0.019756887 -0.030620584 -0.0161599 -0.035366382
-0.005903731 -0.034441143 0.0074053714 0.035021327 0.01080466 -0.010387637 -0.04933877 0.03540677
0.052883 -0.05485154 -0.057147577 -0.006501317 -0.04001215 0.017566862 -0.047969535 0.03580259
-0.03666808 0.0052719414 -0.018675324 -0.0030055596 -0.029406212 -0.0053960755 0.004768558 -0.012253758
0.0052637383 -0.016269932 -0.022668868 -0.040141165 -0.006031344 0.045214254 -0.01928521 0.018573023
-0.0004886679 -0.040751353 0.032462195 0.052908476 0.013771333 -0.03647943 -0.004004011 0.003771782
0.05792473 0.006295964 -0.0278587 0.00044310093 -0.02171471 0.013397067 -0.03909536 0.031585976
0.03571079 -0.03047553 -0.04927714 0.03137313 0.043694213 0.01294551 -0.055882942 -0.012506664
0.034236632 -0.038827855 -0.03358066 -0.043627176 0.013630108 -0.015612103 0.027113197 0.042675003
-0.014558159 -0.027194465 0.05684051 9.984523e-05 0.023599008 -0.010638432 -0.01738691 0.014288649
0.024059944 -0.02396229 0.0033652755 -0.021262918 0.053834986 -0.039489068 -0.051835775 -0.051536877
0.033641454 0.057310883 0.02025301 0.031604983 0.0075557157 -0.04236412 -0.02369649 0.038614646
00000000: 8c88 87bc 1ec1 54bd 3dce 063d ac03 723d
00000010: 177b b03c 4093 aabb 4cb7 3f3c fa83 413d
00000020: 5d54 79bd d0e2 d83b cf94 07bd 70f3 9abc
00000030: 65b2 68bc cec6 07bd fb35 233d 9225 07bc
00000040: 1c30 3b3d 9204 393d a0e0 4bbb d3d8 04bd
00000050: 8d8c 483c 6900 fb3c 9c9f 5e3d 10aa 2bbd
00000060: cc4b 98bc 6415 833d 15a5 773d a711 503b
00000070: a9e0 99bb ac7f 3d3d c4db 9abc e846 8a3d
00000080: c347 a3bb d858 5dbd 734f a33c 5e55 39bd
00000090: 841a 01bc af81 413c 4bff 483d 2abb 753d
000000a0: 2ccc 6f3d 0a3b 823d 50aa af3c 9ea5 193d
000000b0: 8e1b 623d 68e8 9cbc 6abc 46bd 0f76 463d
000000c0: 0f1e d0bc 667b 2bbd 6d4e dabc 2e15 503d
000000d0: 4287 46bd 6469 733d 48eb 4ebc c617 6a3d
000000e0: a8cb a3bb e09d e7bb 1dc9 13bd 4003 d4bc
000000f0: a0cb 963b a432 ff3c 4243 eebc abca 893d
00000100: 794f 4c3d 88ce 4c3d 38ea 413d 6d42 61bd
00000110: a6e7 7c3d 74bc 893c e386 053d 171b 583d
00000120: f692 69bd e814 413d e4f4 5e3d 5d5f 4c3d
00000130: ac3a e43c c557 40bd b9d7 573d 383f 02ba
00000140: 68b8 de3c 7540 4cbd 7cc3 9f3c 18fa 51bd
00000150: 8eae b03c 8c5c e4bc 78d1 36bc 4482 dc3c
00000160: a2e7 573d ff42 b4bb 23c6 133c 2023 713d
00000170: de94 1bbd b41a d6bc 88e8 03bd 48c9 bb3c
00000180: 794f 7d3a f5d2 32bd b8ac 923c c033 b6ba
00000190: 4884 43bd f3a9 65b9 8d64 f3bb f032 d93c
000001a0: 604e 523d 5e70 5bbd 9503 07bd ab72 e1bc
000001b0: a2a4 e0bb 6ff4 3fbc 39f8 63bc 4a29 213d
000001c0: 5a18 763d c874 653c bb88 19bd 1b35 793d
000001d0: 0c10 e5bc 11b6 6b3d a4c1 353d b22e 143d
000001e0: 1e1f 74bc f744 fabc 1b33 1e3d 2249 733d
000001f0: 4eac 773d 08d2 6cbc 352d 4f3c b8aa aabc
00000200: 8edc 4c3d bdc4 98bc 8034 b73c 9474 303d
00000210: ae58 48bd 56f6 1d3d e98f 55bd 2394 a5bc
00000220: 60b7 08bd 6c6c 3b3d 03f7 543d 206f dd3b
00000230: 4185 2fbd 84fa c6bc e831 ffbc f809 443c
00000240: 0bd2 303d c48e 4139 2e34 28bd f843 5cbd
00000250: 2413 30bd e629 3e3d d6e3 0c3d ae25 19bc
00000260: 83e5 3abd bcd8 673d 3697 74bd 0e1f 52bd
00000270: a85d 54bd a8a1 c03c f75d c83c 7c4c 4e3d
00000280: d6cd b4ba f034 2fbc 467e 583d 040f 593d
00000290: 32d9 a13c 05d8 fabc c461 84bc 57dc 10bd
000002a0: 1674 c1bb 2812 0dbd c2a8 f23b 8672 0f3d
000002b0: 0706 313c e830 2abc 7317 4abd b006 113d
000002c0: d89b 583d 02ac 60bd 9413 6abd 0009 d5bb
000002d0: c8e3 23bd 61e8 8f3c b47b 44bd bda5 123d
000002e0: 4531 16bd 40c0 ac3b fefc 98bc ecf8 44bb
000002f0: 4ce5 f0bc 90d1 b0bb 9041 9c3b fcc3 48bc
00000300: 707b ac3b 8548 85bc 10b4 b9bc 106b 24bd
00000310: 95a2 c5bb 9532 393d 04fc 9dbc 7426 983c
00000320: f319 00ba e4ea 26bd 14f7 043d 8fb6 583d
00000330: 28a1 613c 746b 15bd 1434 83bb 0030 773b
00000340: 7b42 6d3d 604e ce3b ee37 e4bc 0050 e839
00000350: 0ce3 b1bc 5f7f 5b3c 7522 20bd 4c60 013d
00000360: 7a45 123d d2a7 f9bc d4d6 49bd 1c81 003d
00000370: b4f8 323d 6819 543c 83e5 64bd c0e8 4cbc
00000380: b63b 0c3d f509 1fbd e08b 09bd 69b2 32bd
00000390: d150 5f3c e8c9 7fbc 7f1c de3c fccb 2e3d
000003a0: 5885 6ebc edc6 debc 98d1 683d 0064 d138
000003b0: b552 c13c d14c 2ebc fe6e 8ebc f01a 6a3c
000003c0: 5c19 c53c 904c c4bc f48b 5c3b 922f aebc
000003d0: 1382 5c3d 4abf 21bd c051 54bd 5518 53bd
000003e0: 9fcb 093d d1be 6a3d a4e9 a53c 3a74 013d
000003f0: f095 f73b 0086 2dbd 241f c2bc 642a 1e3d

linear4.weight f4 [256, 256]
-0.032812063 0.042614315 -0.010741228 0.05012826 0.05983267 0.05162645 0.030913677 0.022713222
-0.032021433 0.021748364 0.032272328 -0.0014374703 -0.048052978 0.024818562 0.023323208 0.04660109
0.03205511 0.012699251 -0.025251918 0.03371512 0.052431732 0.046872314 0.008282516 0.061226428
0.009345382 0.055902857 -0.053422194 -0.04377245 0.030822912 0.000113599 0.05295735 0.019148367
0.05597526 0.060401723 -0.0060690055 0.017391618 -0.05470791 -0.049654406 -0.056839928 -0.0019322735
-0.005262144 -0.009058046 -0.029358886 -0.025185384 -0.027122164 0.05442088 0.0463969 -0.007937017
0.0372258 0.025780745 -0.031820424 0.03179837 0.051358387 -0.030687556 -0.046379507 -0.05545936
-0.003605846 -0.016976953 0.02000724 -0.03980402 0.05471532 -0.030254781 0.0402404 0.037005022
-0.013924498 -0.044585638 -0.044677142 0.03593766 0.0074441433 0.043775972 0.040856384 -0.0029960936
0.04514058 -0.0047146305 0.017190106 0.031906053 0.020267105 0.010822966 -0.035760168 0.026047962
-0.033704184 0.044809267 0.032581594 0.05948899 0.027425425 0.038018696 -0.03488128 0.0027248636
-0.044718295 -0.0041700574 -0.007561122 0.02591087 -0.027016561 0.05793584 -0.027700292 0.024543889
-0.058289047 -0.033906695 0.0048783645 0.026823923 0.029609181 -0.056708083 -0.03401873 0.011071466
-0.03675873 -0.02947201 -0.012636937 -0.014793321 -0.056670208 0.013941763 -0.0046161413 0.04623867
0.0011222662 0.03326466 0.022174245 -0.030479845 -0.04690661 -0.05940169 -0.051553123 0.05805467
0.029587023 -0.028777715 0.016620489 0.013948239 -0.051213752 -0.05033841 0.0062070703 -0.028976567
0.058617406 0.03464572 0.029160842 -0.016985571 0.030220836 0.017831326 0.0379759 -0.01260332
0.035818674 -0.0149137825 0.02144807 0.044800185 0.026350208 0.02681525 -0.02992434 0.05538685
0.019342218 0.0047169724 0.056055576 -0.03630608 0.047934547 0.030121807 0.053428423 -0.045085594
0.052097257 -0.03759344 -0.016792774 0.04757744 0.028343827 0.004396759 -0.05135291 0.0026559532
0.05411579 0.010579072 0.023836344 0.024919223 -0.04591261 -0.035156995 -0.012230732 -0.050190195
0.043026235 0.038909294 -0.018078031 -0.044982143 -0.036639597 0.048756815 0.023421327 0.030469596
-0.0008502975 -0.042841457 -0.03697326 0.060944825 -0.04651449 -0.047580622 -0.045365263 0.0476026
0.013735141 -0.004635647 0.031749073 -0.028519375 -0.012745485 -0.049971998 -0.04556544 0.060098894
-0.060622014 0.0026360871 -0.0322824 0.03308514 0.038692724 -0.015726494 0.062397793 0.039575554
0.016263066 -0.00066549965 -0.01701694 0.050608613 0.012806468 0.038519487 0.0549436 -0.006450355
0.029317068 -0.03649924 -0.041517198 -0.038001873 0.041432068 -0.06226779 0.057823583 0.045802783
-0.007685967 -0.00024568097 -0.038487345 -0.060059667 0.035417754 -0.046302892 0.0066827517 -0.050337277
-0.0042612106 -0.025141025 -0.030901 0.032925144 -0.04387926 0.028035283 0.051772803 -0.015895009
-0.04738432 0.016456872 0.020379834 0.022429973 -0.041433953 0.04431206 0.03795866 0.013448596
0.019363768 -0.047350496 0.04390885 -0.046525236 0.019334765 -0.03623788 0.05809532 0.060049806
-0.0044954135 0.0051848316 -0.053683817 -0.049601823 -0.040220946 -0.039829474 0.013903504 0.060995243
00000000: f165 06bd 598c 2e3d fafb 2fbc 4a53 4d3d
00000010: 1a13 753d 4276 533d ae3e fd3c 1411 ba3c
00000020: e828 03bd a029 b23c fd2f 043d 8069 bcba
00000030: 33d3 44bd 4c50 cb3c 5010 bf3c c9e0 3e3d
00000040: 384c 033d 8510 503c 1cdd cebc de18 0a3d
00000050: a8c2 563d 2ffd 3f3d 64b3 073c 90c8 7a3d
00000060: 601d 193c 65fa 643d 3bd1 5abd be4a 33bd
00000070: 5580 fc3c 003c ee38 cee9 583d 09dd 9c3c
00000080: 5046 653d cc67 773d 82de c6bb de78 8e3c
00000090: 6715 60bd 6b62 4bbd fcd0 68bd 5744 fdba
000000a0: 106e acbb 3368 14bc 0c82 f0bc 9451 cebc
000000b0: 4d2f debc 6ee8 5e3d ad0a 3e3d 430a 02bc
000000c0: 157a 183d 2432 d33c 2256 02bd 023f 023d
000000d0: 2c5d 523d 7864 fbbc 70f8 3dbd 5b29 63bd
000000e0: 0f50 6cbb 4013 8bbc 39e6 a33c 8a09 23bd
000000f0: 2c1d 603d e0d8 f7bc 1ed3 243d 9492 173d
00000100: 9423 64bc 6e9f 36bd 61ff 36bd 5e33 133d
00000110: 00ee f33b 6f4e 333d 0659 273d 1c5a 44bb
00000120: 54e5 383d 307d 9abb 44d2 8c3c ecaf 023d
00000130: 3307 a63c cf52 313c 4179 12bd 8962 d53c
00000140: 660d 0abd ec89 373d 4774 053d baaa 733d
00000150: 49ab e03c 7eb9 1b3d acdf 0ebd a093 323b
00000160: 882a 37bd faa4 88bb 4ac3 f7bb 0843 d43c
00000170: d651 ddbc 224e 6d3d b9eb e2bc 4410 c93c
00000180: 7fc0 6ebd bfe1 0abd b0da 9f3b d8bd db3c
00000190: f48e f23c bc46 68bd 3957 0bbd 1865 353c
000001a0: 5290 16bd 496f f1bc 280b 4fbc af5f 72bc
000001b0: 051f 68bd fe6b 643c 0043 97bb c264 3d3d
000001c0: 0119 933a 8640 083d c3a6 b53c deb0 f9bc
000001d0: 2521 40bd 304f 73bd 5e29 53bd bcca 6d3d
000001e0: 7c60 f23c 3ebf ebbc b127 883c 2887 643c
000001f0: 83c5 51bd a62f 4ebd ae64 cb3b 4460 edbc
00000200: ce18 703d ace8 0d3d b8e2 ee3c 5325 8bbc
00000210: b091 f73c 0013 923c 9e8c 1b3d 287e 4ebc
00000220: 9ab6 123d f058 74bc ddb3 af3c 6680 373d
00000230: 64dc d73c a8ab db3c e423 f5bc 52dd 623d
00000240: 9273 9e3c d590 9a3b 889a 653d afb5 14bd
00000250: 0457 443d 02c2 f63c c3d7 5a3d acab 38bd
00000260: ef63 553d 94fb 19bd 0091 89bc 90e0 423d
00000270: 5031 e83c b012 903b 6e57 52bd 800f 2e3b
00000280: 85a8 5d3d d853 2d3c 7044 c33c 6623 cc3c
00000290: dc0e 3cbd c800 10bd 6863 48bc 3c94 4dbd
000002a0: 473c 303d 5a5f 1f3d 6118 94bc 323f 38bd
000002b0: 6713 16bd 3ab5 473d 15de bf3c 609b f93c
000002c0: 80e6 5eba 867a 2fbd 4671 17bd 48a1 793d
000002d0: fa85 3ebd e6e3 42bd edd0 39bd f2fa 423d
000002e0: 5b09 613c a0e6 97bb 510b 023d 77a1 e9bc
000002f0: 70d2 50bc 70af 4cbd d4a2 3abd 422a 763d
00000300: ca4e 78bd 34c2 2c3b 8d3a 04bd 4984 073d
00000310: 437c 1e3d d9d4 80bc d494 7f3d fa19 223d
00000320: 1f3a 853c ed74 2eba 1c67 8bbc fa4a 4f3d
00000330: 38d2 513c 9cc6 1d3d 8a0c 613d 805d d3bb
00000340: 592a f03c 3a80 15bd f00d 2abd daa7 1bbd
00000350: acb4 293d 830c 7fbd 6cd8 6c3d b39b 3b3d
00000360: 90da fbbb bece 80b9 e8a4 1dbd 2001 76bd
00000370: 3512 113d 1aa8 3dbd fcfa da3b 762e 4ebd
00000380: a0a1 8bbb 8df4 cdbc 1824 fdbc 84dc 063d
00000390: bdba 33bd 40aa e53c b80f 543d 4036 82bc
000003a0: 1016 42bd 90d0 863c 9cf3 a63c 10bf b73c
000003b0: a6b6 29bd 9080 353d 8a7a 1b3d 8057 5c3c
000003c0: c4a0 9e3c 98f2 41bd c4d9 333d 3f91 3ebd
000003d0: f163 9e3c 2c6e 14bd 5cf5 6d3d c9f6 753d
000003e0: 434e 93bb 85e5 a93b 90e3 5bbd 482b 4bbd
000003f0: b8be 24bd 3b24 23bd 86cb 633c 26d6 793d

linear4.bias f4 [256]
-0.01821965 -0.022994205 0.021134518 0.044531733 0.050390385 0.07126918 0.04034903 -0.061448418
-0.011959205 -0.047582876 0.037744828 0.03485076 -0.017678289 0.03280334 -0.04980322 0.05752649
0.034758803 -0.004451439 0.03347779 0.04677753 -0.030312734 0.04897158 -0.00021114897 0.0142327845
0.049695134 -0.017483413 0.020119892 -0.0069705816 0.05385324 -0.020795498 0.0049442947 -0.023565678
-0.04614094 -0.044293668 0.041236665 0.006695546 0.03198495 -0.06176587 -0.029348144 0.05194887
-0.016418405 0.036181625 0.013072316 0.022795714 0.042101957 0.046702202 -0.0032629997 -0.059945174
-0.02198924 0.03948926 -0.046929117 0.01650327 0.032706883 -0.046786338 -0.04203811 -0.036126256
0.0489613 0.042782232 -0.01943586 0.017147444 0.04953111 0.059465177 0.05811937 -0.053433575
0.056224756 -0.0031440258 -0.06207575 0.04170331 -0.060964555 0.0031273467 0.046767734 -0.023288673
-0.020691928 0.024814384 -0.0016754274 -0.027850457 0.016503666 0.05321066 -0.063951746 -0.018124051
-0.03625994 -0.051417187 -0.059893623 -0.028012935 -0.020495847 0.04917316 0.045894776 -0.012398869
-0.051397357 0.014876802 0.050263755 -0.024457326 -0.049579196 -0.008678311 -0.05057974 0.007280797
9.045623e-05 -0.015130843 0.018040888 -0.0405346 -0.050756563 -0.006926194 0.05663453 0.03317312
-0.009785719 -0.01282701 0.03681555 -0.049076315 -0.035393514 0.007234238 0.049771912 0.045738537
0.015222965 0.003902126 -0.0050647706 -0.0071848705 0.07267162 -0.046985906 0.05012984 0.031581216
0.015727248 -0.006562725 0.011615203 0.058526665 -0.03605266 -0.0038582012 -0.0213379 0.01694464
-0.0028723055 -0.012642337 -0.050040163 0.009845236 -0.008680843 -0.050533775 -0.020607412 0.03403136
0.05888015 0.04357817 -0.0119748395 -0.02050986 0.05984417 -0.056120817 -0.0010688663 0.024752935
-0.0035110684 -0.022815049 0.038932938 -0.02890765 -0.028756138 0.022583611 0.0016320489 -0.049446877
-0.009611346 0.04758911 -0.018448686 -0.04161641 0.048010733 0.036442257 0.047531415 -0.013828434
0.060349096 -0.053786237 -0.055310786 -0.012162077 -0.045475505 -0.045345515 -0.015194713 0.072694816
-0.029132377 0.05703135 -0.029406747 0.061399926 -0.03371158 -0.054493457 0.059812658 -0.05070766
0.0021283925 -0.035015438 0.008713421 -0.020463787 -0.055733636 0.0033210812 0.058204543 -0.045972522
-0.03016963 0.05624513 0.0061824303 -0.037882898 -0.009901948 0.04766193 0.009274997 -0.015685983
0.045645546 -0.009644967 -0.044669617 -0.026412293 0.015496473 0.006517401 -0.062113404 -0.025311358
-0.022085745 0.017907945 0.02575772 -0.022045873 -0.007565874 0.012592132 0.0028141488 0.0046846624
-0.059648614 0.04748179 0.043665092 -0.002354117 -0.00871258 0.004941768 0.051681556 0.04195567
-0.027265333 0.06442657 0.053407818 0.06351711 0.019897796 -0.004341892 -0.024897598 0.02745163
0.05636321 0.05232948 -0.024483945 -0.020507108 -0.02361149 0.026310511 0.03251069 -0.057348587
-0.0206005 -0.011514963 0.027681328 -0.057873502 -0.053268656 0.0540177 -0.061333947 -0.0409909
0.025309213 -0.060653165 -0.060759738 -0.06102421 -0.03594929 0.04121846 0.011077262 0.02767768
0.024711855 0.03879083 -0.043540154 -0.022669392 0.026526332 -0.031013018 -0.01092336 -0.044905808
00000000: 6041 95bc 585e bcbc 4c22 ad3c e866 363d
00000010: 2666 4e3d 93f5 913d 0645 253d 56b1 7bbd
00000020: 8bf0 43bc 43e6 42bd 529a 1a3d acbf 0e3d
00000030: 0fd2 90bc cc5c 063d 76fe 4bbd e6a0 6b3d
00000040: 3f5f 0e3d 60dd 91bb 0220 093d cc99 3f3d
00000050: 6952 f8bc 6c96 483d df67 5db9 a030 693c
00000060: 208d 4b3d 6039 8fbc 79d2 a43c 7a69 e4bb
00000070: 3795 5c3d 525b aabc c003 a23b cf0c c1bc
00000080: 48fe 3cbd 476d 35bd c7e7 283d 5066 db3b
00000090: a702 033d 35fe 7cbd 856b f0bc 57c8 543d
000000a0: e47f 86bc 2f33 143d 442d 563c 14be ba3c
000000b0: 1a73 2c3d cf4a 3f3d 0dd8 55bb 1289 75bd
000000c0: c722 b4bc 7ebf 213d bf38 40bd de31 873c
000000d0: a7f7 053d 08a3 3fbd 2730 2cbd 20f9 13bd
000000e0: a58b 483d 6c3c 2f3d f437 9fbc cc78 8c3c
000000f0: 22e1 4a3d c291 733d 940e 6e3d 2add 5abd
00000100: ee4b 663d 000c 4ebb 2443 7ebd 17d1 2a3d
00000110: f8b5 79bd 2cf4 4c3b 868f 3f3d e3c7 bebc
00000120: 1e82 a9bc 8947 cb3c 049a dbba a426 e4bc
00000130: b232 873c 6cf3 593d 22f9 82bd e478 94bc
00000140: 4e85 14bd d49a 52bd 0453 75bd 627b e5bc
00000150: e8e6 a7bc cc69 493d 29fc 3b3d a024 4bbc
00000160: 0986 52bd d5bd 733c 5ee1 4d3d bb5a c8bc
00000170: 8e13 4bbd 792f 0ebc b42c 4fbd c193 ee3b
00000180: 52b3 bd38 5be7 77bc 7cca 933c 9c07 26bd
00000190: 1de6 4fbd 20f5 e2bb 9cf9 673d 8ae0 073d
000001a0: 4854 20bc 6128 52bc e7cb 163d 3f04 49bd
000001b0: caf8 10bd 300d ed3b a2dd 4b3d 5558 3b3d
000001c0: be69 793c d0ba 7f3b 60f6 a5bb 106f ebbb
000001d0: dcd4 943d 4b74 40bd f254 4d3d 4e5b 013d
000001e0: 6ed6 803c 210c d7bb b14d 3e3c a8b9 6f3d
000001f0: f4ab 13bd e0d9 7cbb d2cc aebc 7ccf 8a3c
00000200: 4a3d 3cbb ce21 4fbc eaf6 4cbd ea4d 213c
00000210: 183a 0ebc 81fc 4ebd e0d0 a8bc 7864 0b3d
00000220: 502c 713d 067f 323d 1e32 44bc 4b04 a8bc
00000230: 291f 753d f1de 65bd 3419 8cba abc6 ca3c
00000240: f419 66bb a0e6 babc 2578 1f3d bccf ecbc
00000250: fe91 ebbc 4401 b93c 79ea d53a cf88 4abd
00000260: e878 1dbc ccec 423d b321 97bc f875 2abd
00000270: e7a6 443d 7a44 153d 4db0 423d a890 62bc
00000280: 9d30 773d f54e 5cbd 908d 62bd 7343 47bc
00000290: 8644 3abd 38bc 39bd 3ff3 78bc 05e1 943d
000002a0: 06a7 eebc b499 693d 6be6 f0bc 7d7e 7b3d
000002b0: 2715 0abd 8834 5fbd 1efe 743d d6b2 4fbd
000002c0: 807c 0b3b 596c 0fbd bdc2 0e3c aca3 a7bc
000002d0: f448 64bd 7fa6 593b e367 6e3d af4d 3cbd
000002e0: 4d26 f7bc 4b61 663d fc95 ca3b 192b 1bbd
000002f0: c83b 22bc 2839 433d 28f6 173c e47f 80bc
00000300: d3f6 3a3d ec05 1ebc 7df7 36bd 985e d8bc
00000310: ebe4 7d3c ec8f d53b a06a 7ebd c459 cfbc
00000320: 2aed b4bc afb3 923c db01 d33c 8c99 b4bc
00000330: 27eb f7bb 3b4f 4e3c 956d 383b cc81 993b
00000340: 1b52 74bd 447c 423d 2bda 323d 8847 1abb
00000350: 36bf 0ebc 8eee a13b 0ab0 533d b5d9 2b3d
00000360: 8c5b dfbc 14f2 833d 28c2 5a3d 4215 823d
00000370: b400 a33c 6e46 8ebb 0cf6 cbbc 3ee2 e03c
00000380: 1cdd 663d 7057 563d 8e92 c8bc 86fe a7bc
00000390: e26c c1bc 2489 d73c ee29 053d 5ae6 6abd
000003a0: 61c2 a8bc 41a9 3cbc f4c3 e23c c40c 6dbd
000003b0: 3c30 5abd aa41 5d3d 4e39 7bbd 13e6 27bd
000003c0: 4455 cf3c 746f 78bd 34df 78bd 86f4 79bd
000003d0: 903f 13bd b0d4 283d 687d 353c 4dbc e23c
000003e0: 8470 ca3c 22e3 1e3d 2957 32bd 29b5 b9bc
000003f0: c04d d93c 030f febc e4f7 32bc 27ef 37bd

linear3.weight f4 [1, 256]
-0.0009543924 0.0020968216 0.020189794 0.0052806446 0.0013239258 0.027978592 0.0008545758 0.00072967284
0.0050595575 0.026535587 0.009169408 0.0112401545 0.0039045573 0.0014434868 -3.269082e-05 0.013700063
-0.0004707861 -0.0023444828 0.0056511657 -0.00052634184 0.0060740537 0.0024994293 0.005576709 -0.0020568008
0.019067045 0.00026340177 0.0024287656 0.0041720583 0.008842822 0.0012589279 0.00198675 -0.001241667
-0.0013986361 0.0005843899 0.0033443752 -0.0009956688 0.010945654 0.0042440314 0.005036074 0.007454757
-0.00071324594 0.0029858714 -0.00015212779 0.0038012844 0.00056774146 0.0039033084 0.004960334 0.0015258723
0.0042796135 0.025034826 -0.0010300204 0.023064967 0.012705994 -8.506887e-05 0.0043924516 0.002328354
0.0004516126 -0.0029180772 0.0022246516 0.0023359794 0.0035217514 -0.00024397002 -5.0069934e-06 -0.0015669802
0.0009312476 0.004848525 0.00018393928 -0.0012359128 9.1300346e-05 0.0006868808 0.0034775822 -9.014761e-05
-0.00029346196 -0.0010713426 0.0126290545 7.634284e-05 -0.0013721682 0.0072630052 0.00017096246 -0.00069858675
-0.00020786305 0.006062868 0.001562194 0.007226944 -0.00088161416 0.00025754073 0.0018294768 0.0020422665
0.0018585774 0.015580667 -0.0007059681 0.013046472 0.028000832 0.004932024 -0.0015251898 0.008787169
0.02012297 0.0032323967 0.010373947 0.004502077 0.026291532 -0.001948458 0.0045549646 0.0043475274
0.0024640528 0.0026357898 0.0051956973 -0.0009995014 -0.0028792988 0.0061724023 -0.0029614964 -0.000575468
-0.00026354287 0.003929501 -0.00071932445 0.006948708 0.022269946 0.0071264985 -0.00096679153 0.004632764
0.0053740386 0.00082452875 0.014261451 0.0035864012 -0.0021442347 -0.0023141098 0.025696194 0.0004951663
0.0037560686 0.00077518553 0.00055782456 0.015093961 0.0007198595 0.009024201 0.0012887684 0.00077039865
0.0020735506 -0.00046990273 -0.00038370068 0.00088967016 0.00040620076 -0.0012617417 0.005178788 -0.00039640965
0.0047515216 0.027327089 0.0050902767 -0.00034106808 0.0014466466 0.00033999872 0.020102236 0.030746035
0.005000633 -0.0003351774 0.0026320165 0.0037197147 0.0038771657 0.0041979793 -0.0004115488 0.0016548163
-0.0014976845 0.0038706586 0.0040555564 0.0045331144 -0.0015267972 0.005896596 0.004188234 0.023160854
0.0015781244 -0.00053996884 -0.0010882405 0.0027273288 0.004714559 0.0025342228 0.004080099 -1.1886004e-05
-0.0015646348 0.01874763 0.009123358 0.020447588 0.0044531217 -0.0015546399 0.0019257605 0.005131205
0.0056193364 0.005111078 0.011880634 -0.00036180418 0.0003055716 -0.0014565085 0.0022897832 0.002484708
-0.00024846478 0.014774846 0.0007667662 -0.0013352757 0.0027562503 0.0035982977 -0.0019596308 -0.0019234968
0.024930047 -0.0004011368 0.00083014515 0.005028443 -0.0007480438 0.0059609637 0.00347261 0.014746021
0.0005892842 -0.00022481912 0.006483934 0.005035578 0.014747514 0.0025804222 0.007866501 0.00036752748
0.0012700025 0.015838556 -0.002945062 0.0045346403 0.0008792102 0.00498003 -0.0014059596 -3.634395e-05
0.001943192 -0.0005695764 -0.00030844964 0.0039084256 -0.0016722914 -0.0029212597 0.00015601842 -0.0011631617
0.019026741 0.0035021256 0.00025081006 0.0004320473 -0.0017302852 0.004708098 -0.0008611782 -0.0005245755
4.5981025e-05 -0.0018235624 0.001243212 -0.002046418 0.0010848185 0.0007751843 0.0009036057 0.007885022
-0.0020301046 0.0006700662 -0.0008301523 0.027864575 -0.0029626768 0.0037814204 0.0006589794 -6.564895e-05
00000000: 3130 7aba d46a 093b 1165 a53c 4209 ad3b
00000010: 9487 ad3a 5c33 e53c 9c05 603a 8447 3f3a
00000020: a5ca a53b 2961 d93c 493b 163c a028 383c
00000030: 9ae3 7f3b 6133 bd3a 801d 09b8 3b76 603c
00000040: d7d3 f6b9 e5a5 19bb 6a2d b93b 34fa 09ba
00000050: db08 c73b 77cd 233b d3bc b63b 64cb 06bb
00000060: 7e32 9c3c 3019 8a39 ed2b 1f3b c3b5 883b
00000070: 7ce1 103c 9c02 a53a 2234 023b 6ebf a2ba
00000080: 7152 b7ba be31 193a 4e2d 5b3b 1a81 82ba
00000090: 6655 333c 8411 8b3b a705 a53b 0947 f43b
000000a0: 20f9 3aba 9cae 433b 7e84 1fb9 f81e 793b
000000b0: 7cd4 143a a6ce 7f3b 4c8a a23b c7ff c73a
000000c0: 003c 8c3b d615 cd3c c001 87ba bef2 bc3c
000000d0: cd2c 503c 0067 b2b8 8eee 8f3b 4c97 183b
000000e0: 6bc6 ec39 363d 3fbb 76cb 113b 3b17 193b
000000f0: 2fcd 663b 34d2 7fb9 bf01 a8b6 2163 cdba
00000100: f81e 743a 60e0 9e3b d3df 4039 5afe a1ba
00000110: 8078 bf38 ca0f 343a 26e8 633b a10d bdb8
00000120: ccdb 99b9 4b6c 8cba 18ea 4e3c 401a a038
00000130: 53da b3ba 81fe ed3b 6344 3339 5d21 37ba
00000140: d0f5 59b9 06ab c63b 88c2 cc3a 00d0 ec3b
00000150: 201c 67ba 8806 8739 0ecb ef3a 8cd7 053b
00000160: 829b f33a 0e46 7f3c b810 39ba dfc0 553c
00000170: 0062 e53c d19c a13b e1e8 c7ba 0ff8 0f3c
00000180: edd8 a43c 9ed6 533b 7df7 293c 2986 933b
00000190: 5761 d73c 6763 ffba d041 953b b475 8e3b
000001a0: f27b 213b 37bd 2c3b ab40 aa3b b401 83ba
000001b0: 9eb2 3cbb dd41 ca3b aa15 42bb 01db 16ba
000001c0: 202c 8ab9 0bc3 803b 0c91 3cba fdb1 e33b
000001d0: 766f b63c 6785 e93b 4870 7dba 71ce 973b
000001e0: b418 b03b 3025 583a dca8 693c d409 6b3b
000001f0: 4a86 0cbb 52a8 17bb d380 d23c 0cce 013a
00000200: 6028 763b d235 4b3a f93a 123a a94c 773c
00000210: f4b4 3c3a 3eda 133c e4eb a83a 94f4 493a
00000220: 68e4 073b 475d f6b9 6f2b c9b9 c138 693a
00000230: 58f7 d439 0761 a5ba d3b2 a93b 34d5 cfb9
00000240: a7b2 9b3b 0fdd df3c 56cc a63b 62d1 b2b9
00000250: 689d bd3a db41 b239 72ad a43c 1cdf fb3c
00000260: 5adc a33b c0ba afb9 e97d 2c3b 75c6 733b
00000270: 0c18 7e3b 348f 893b 25c5 d7b9 6ce6 d83a
00000280: f44d c4ba e0aa 7d3b 79e4 843b 858a 943b
00000290: d01e c8ba 3b38 c13b 743d 893b d5bb bd3c
000002a0: 11d9 ce3a b28c 0dba 4ba3 8eba fcbc 323b
000002b0: 967c 9a3b 3415 263b 5ab2 853b 006a 47b7
000002c0: 6f14 cdba a194 993c 237a 153c b381 a73c
000002d0: 7eeb 913b 0fc5 cbba cd69 fc3a ab23 a83b
000002e0: 6922 b83b d47a a73b fea6 423c 89b0 bdb9
000002f0: 2035 a039 51e8 beba 3010 163b 7cd6 223b
00000300: 6144 82b9 3212 723c cf00 493a 6b04 afba
00000310: 35a2 343b 6bd1 6b3b 266d 00bb d81d fcba
00000320: 193a cc3c ab4f d2b9 199e 593a a3c5 a43b
00000330: 5f18 44ba 3054 c33b ba94 633b 4b99 713c
00000340: 317a 1a3a 6cbd 6bb9 2e77 d43b 7d01 a53b
00000350: 8f9f 713c 4d1c 293b 7fe2 003c b4b0 c039
00000360: 3676 a63a dcbf 813c f101 41bb 5297 943b
00000370: cc7a 663a 852f a33b 2d48 b8ba 0570 18b8
00000380: b4b2 fe3a a04f 15ba 69b7 a1b9 4012 803b
00000390: ca30 dbba 9b72 3fbb e098 2339 3b75 98ba
000003a0: f8dd 9b3c eb83 653b 287f 8339 6884 e239
000003b0: bdca e2ba 6346 9a3b b1c0 61ba aa83 09ba
000003c0: c0db 4038 9a04 efba 46f3 a23a 321d 06bb
000003d0: 7830 8e3a bd35 4b3a f4df 6c3a 2e30 013c
000003e0: 810b 05bb 62a7 2f3a 949e 59ba 4044 e43c
000003f0: 7829 42bb b5d1 773b 5cbf 2c3a 03ad 89b8
