outputs/Optimal_Control/20220330-162427/models/checkpoint.pt (torch, 533487 bytes, 7 tensors)

linear1.weight f4 [256, 2]
0.21023215 -1.0622591 -0.15436351 -0.4294378 0.32851797 0.13039614 0.032084078 0.09670686
-0.30660012 -0.6261372 0.44098505 0.2671694 -0.12030345 -0.37921196 -0.6936206 0.08635062
0.27603683 -0.735374 0.40479285 0.5228031 -0.30015847 -0.030482352 0.306142 0.3283204
0.07953092 -0.3091832 0.33102408 0.20613521 0.10659566 -1.1962754 -0.43509674 0.58804274
-0.58778083 0.27051955 0.3387941 0.4450669 -0.23423743 -0.48269606 -0.5371787 -0.37704983
0.61054003 -0.29622176 0.26612592 -0.6930853 -0.13684118 -0.059919655 0.24722867 0.2681823
0.50440514 -0.5791318 -0.15817636 -0.38478604 0.5125513 -0.26228225 0.09217117 0.39921555
0.06847008 -0.08509021 0.16046372 -0.6768555 -0.13973781 0.57114035 -0.43009079 -0.35246423
0.026253015 0.43243566 -0.63893586 -0.65344524 -0.57089573 0.3797105 0.5508029 0.19749688
0.31428456 -0.8064738 -0.34149796 0.6655405 -0.325234 -0.46109638 -0.26938638 0.75893027
0.54914147 -0.48516095 0.089495175 -0.3221044 0.34764165 -0.10338038 -0.56918645 -0.38693446
0.12917858 0.24472582 0.17596926 0.03427434 0.20667794 0.45533687 0.24649471 -0.5755253
-0.26287857 0.20653923 0.24305317 -0.19855432 0.20163307 -0.5362939 0.00025749207 -0.5796117
-0.31107366 0.29604238 0.177104 0.3056348 0.46777874 0.3605706 -0.118869424 -0.5497816
0.58044136 0.17138596 -0.44449845 0.067655325 -0.59655803 -0.45928127 0.09210725 -0.13081476
0.5393471 -0.7999311 0.36874965 -0.44139543 -0.6207208 0.19958723 0.005598297 0.1150549
0.4414391 0.26254475 0.17137986 0.28520048 -0.32033435 0.06337249 -0.56579715 -0.18969119
0.118808106 -0.7158668 0.4665753 -0.6832596 -0.41252938 -0.6423589 -0.14225733 -0.017792523
0.058221083 0.37829182 0.4125992 -0.59435487 0.35034052 -0.52750164 -0.32997897 0.08403593
-0.5288581 0.2575332 -0.3412481 0.11510247 0.27938876 -0.63811374 0.18968382 -0.47072715
0.11856442 -0.6954272 0.52980953 -0.22298086 0.2876248 -0.021469694 -0.58056694 -0.6433621
-0.33306167 -0.0473969 0.4155307 -0.8667785 0.1523251 -0.91906434 0.15916398 0.21084446
-0.60340446 -0.37851822 0.11637836 -0.6358823 0.3714787 0.51001304 -0.64136416 -0.43654305
0.36987033 -0.75302386 -0.07187343 -0.2882987 -0.29413283 0.11297083 -0.3532844 -0.6807992
0.53731775 0.10149403 0.31992817 0.049330886 -0.6703706 -0.15698206 -0.10318577 -0.68756133
-0.5205226 0.0018436909 -0.35318637 -0.47262597 -0.41617846 -0.43085214 0.34201843 0.40584558
-0.53009236 -0.6969984 -0.34545588 0.19320393 0.53695846 -0.029118218 0.2551115 -0.6863426
-0.1945683 0.1988922 -0.5193704 -0.29851744 -0.31538296 0.327514 -0.64795184 -0.42076048
0.36366054 0.37907615 -0.17776504 0.55523056 -0.18014751 0.73883677 -0.3012345 0.46934924
-0.17056979 0.2572224 0.005732946 0.57087123 -0.11614599 0.5316617 -0.007440865 -0.10305011
0.5056738 0.20565991 0.43578887 0.46725786 0.18960938 -0.2290268 -0.52802867 0.55378723
-0.53792 0.24226129 -0.673749 -0.17283082 -0.51192135 0.02916038 0.022821335 0.118483335
00000000: 1947 573e 1bf8 87bf 7811 1ebe 45df dbbe
00000010: 8233 a83e 9186 053e 986a 033d 3f0e c63d
00000020: b1fa 9cbe 874a 20bf cbc8 e13e 6dca 883e
00000030: a861 f6bd 1228 c2be 1f91 31bf 98d8 b03d
00000040: b354 8d3e 7841 3cbf 0241 cf3e 6dd6 053f
00000050: 5fae 99be 20b6 f9bc a5be 9c3e 9d19 a83e
00000060: 1be1 a23d 434d 9ebe fd7b a93e 1c15 533e
00000070: d34e da3d 8d1f 99bf 00c5 debe f889 163f
00000080: ce78 16bf 8a81 8a3e 6c76 ad3e cfdf e33e
00000090: f0db 6fbe f023 f7be 8b84 09bf ad0c c1be
000000a0: 5a4c 1c3f 61aa 97be a841 883e 0a6e 31bf
000000b0: 1820 0cbe 506e 75bd 8329 7d3e 314f 893e
000000c0: b220 013f fb41 14bf fcf8 21be ad02 c5be
000000d0: 9036 033f dc49 86be 3dc4 bc3d fb65 cc3e
000000e0: 0b3a 8c3d c743 aebd 9a50 243e 6746 2dbf
000000f0: 6e17 0fbe 4136 123f dc34 dcbe 3176 b4be
00000100: 9010 d73c 3568 dd3e 4d91 23bf 3048 27bf
00000110: 3926 12bf 6a69 c23e 6b01 0d3f 9f3c 4a3e
00000120: e8e9 a03e 1175 4ebf d2d8 aebe dd60 2a3f
00000130: 1285 a6be d314 ecbe 03ed 89be 4149 423f
00000140: 8994 0c3f 0467 f8be 3f49 b73d deea a4be
00000150: 16fe b13e 18b9 d3bd 34b6 11bf 461c c6be
00000160: 6447 043e 6899 7a3e 4931 343e 4063 0c3d
00000170: 62a3 533e ea21 e93e 1c69 7c3e a055 13bf
00000180: 0598 86be 057f 533e eee2 783e d351 4bbe
00000190: e678 4e3e 8f4a 09bf 0000 8739 6f61 14bf
000001a0: 0c45 9fbe de92 973e c05a 353e 2a7c 9c3e
000001b0: b280 ef3e b69c b83e d071 f3bd 7dbe 0cbf
000001c0: ce97 143f cd7f 2f3e 4d95 e3be e08e 8a3d
000001d0: 07b8 18bf ea26 ebbe baa2 bc3d 4ef4 05be
000001e0: a712 0a3f 49c8 4cbf c1cc bc3e 95fe e1be
000001f0: 8fe7 1ebf 9860 4c3e eb71 b73b e7a1 eb3d
00000200: 4e04 e23e 446c 863e 347e 2f3e cc05 923e
00000210: dd02 a4be 70c9 813d 15d8 10bf 683e 42be
00000220: aa51 f33d 0c43 37bf f5e2 ee3e 1aea 2ebf
00000230: 0d37 d3be a271 24bf e8ab 11be a0c1 91bc
00000240: 3b79 6e3d 77af c13e 3440 d33e a427 18bf
00000250: d55f b33e 590a 07bf 01f3 a8be 081b ac3d
00000260: 3f63 07bf 64db 833e 12b8 aebe d8ba eb3d
00000270: 0b0c 8f3e 6c5b 23bf 7a3c 423e 2603 f1be
00000280: e7d1 f23d 8407 32bf 99a1 073f 1855 64be
00000290: 8f43 933e 36e1 afbc 09a0 14bf 61b3 24bf
000002a0: 0f87 aabe 4023 42bd 71c0 d43e 32e5 5dbf
000002b0: 1cfb 1b3e cd47 6bbf e2fb 223e 9ce7 573e
000002c0: b778 1abf 24cd c1be c757 ee3d 2fc9 22bf
000002d0: 7532 be3e 3790 023f 7130 24bf 9282 dfbe
000002e0: a55f bd3e 2cc6 40bf 6032 93bd e39b 93be
000002f0: 9498 96be 405d e73d b1e1 b4be db48 2ebf
00000300: a88d 093f 1adc cf3d a0cd a33e 2f0f 4a3d
00000310: 689d 2bbf e8bf 20be 1053 d3bd 0504 30bf
00000320: f840 05bf 00a8 f13a d8d4 b4be 08fc f1be
00000330: 5815 d5be a798 dcbe 0a1d af3e feca cf3e
00000340: 22b4 07bf 7d6e 32bf 98df b0be 40d7 453e
00000350: 1c76 093f 5489 eebc f99d 823e 26b4 2fbf
00000360: ea3c 47be 66aa 4b3e 75f5 04bf 47d7 98be
00000370: e079 a1be eaaf a73e 2ce0 25bf eb6d d7be
00000380: b731 ba3e 4516 c23e 0a08 36be 9723 0e3f
00000390: 9778 38be 6824 3d3f 693b 9abe 8b4e f03e
000003a0: d9a9 2ebe a8b2 833e 70db bb3b 9e24 123f
000003b0: f3dd edbd fb1a 083f 80d2 f3bb f00b d3bd
000003c0: d773 013f 8398 523e b81f df3e 6c3c ef3e
000003d0: f628 423e 0086 6abe e32c 07bf 00c5 0d3f
000003e0: 20b5 09bf 5813 783e d17a 2cbf 90fa 30be
000003f0: 470d 03bf c0e1 ee3c cff3 ba3c 64a7 f23d

linear1.bias f4 [256]
0.26780954 0.17301872 -0.3054151 -1.3259364 0.094508365 1.6226019 -0.093367755 0.61730224
-0.31517732 -1.3224436 -0.005230069 -1.3154486 1.0983223 -0.49201638 -0.1174023 0.13830297
-0.097268164 -1.1479307 -0.33867022 0.5435882 1.5491987 -0.6404129 -0.30704063 -0.1693105
-1.5637792 0.30789787 -0.58963716 0.18179214 -1.2319373 0.9285171 -1.3372568 0.2323252
-0.073067226 0.10757591 0.64500874 1.1712512 -0.7504352 0.80483234 0.50785995 -0.3325604
1.4406868 -0.06279717 1.3568646 0.25258768 1.5459586 -1.7978705 -1.5092118 1.0134469
0.7880196 -0.39372906 1.1976645 -0.25320637 -0.077097654 1.319567 1.5480672 0.63005024
-0.22352335 -0.6037834 -0.4710183 1.0584419 -1.0446013 0.41039836 0.37122598 -1.1769094
-0.6124594 -1.1888003 -0.4774851 0.42281345 0.4291779 -1.1794366 -0.60875887 -0.27202156
-1.7302549 -1.2858336 -0.47350183 0.29433036 0.5860412 0.29646102 -1.7984526 1.1944429
0.19863418 -0.96310043 0.5657944 -0.38081944 0.20129688 0.6769348 0.34165362 -1.3546479
0.1365469 -0.9079253 1.0890186 -0.00082181813 0.8474087 0.4842519 0.5460112 -0.27361447
0.2850848 -1.4204513 0.62628734 -0.4274314 0.07789025 -0.55469644 -0.0013750751 -0.111832656
0.22763667 0.41433582 -1.3945122 -0.38567322 -0.29327607 -0.41749716 -0.35232192 0.6853926
0.25810885 -0.62344676 1.1964107 1.0472282 -0.63721746 -1.6136581 0.6604036 -0.5376556
-1.3672862 -1.2530528 0.587632 -0.8725714 -0.34852627 0.30235186 -0.29953772 -0.938103
-0.08795887 0.6236356 0.65372556 1.4857353 -1.1294885 -1.4190453 -0.41815758 -0.12042434
0.59032303 -1.488959 0.97946024 -0.70498544 -1.2705886 -0.26944387 -0.44931474 -0.74888664
-0.657346 -1.5549029 0.5861643 -0.7263605 1.1586328 1.6475016 -0.3767571 -0.4632687
1.1870544 1.0945541 -0.6312821 -1.2492205 1.0380676 1.5055737 -0.5942167 -0.5078412
-0.67491287 -0.41346627 -0.55986685 -1.4342585 -1.0783676 -0.08289108 -0.031342447 -0.047106013
0.30091074 -0.72498524 -0.164909 -1.6873027 -1.6490756 -0.4300053 0.26770914 1.4230148
-0.97006696 -1.4767028 -0.5351486 0.45735008 -0.29443878 1.206034 -0.048684597 -1.0520762
-1.8491993 -0.7873943 0.49997905 -1.0973972 -1.1143595 -1.076553 -0.44399077 -0.31750622
1.2952083 0.23614211 1.1767209 1.4256014 -0.1373747 0.68223524 0.48392767 -0.051958274
-1.5087322 1.0704976 -0.073676504 0.50300133 -0.15742761 -1.324776 -0.46981436 0.11510315
-0.5733987 -1.5322273 -0.3800405 -1.1149043 -1.3929306 -0.9844441 0.82975066 1.2378225
-1.32452 0.7034603 -1.3118879 -0.06274319 -0.89734405 0.5306789 0.15337333 0.50540286
1.5108258 1.1342685 -1.0980122 -0.021588415 -0.42071715 -0.1983437 0.23633909 0.96525556
-1.2619184 -0.05979657 1.4551662 -0.34392703 -1.1486111 -1.4775319 -0.035436213 -0.23961258
-0.9180869 0.91838866 -1.5296267 -1.5237908 0.83508986 -0.54991174 -0.37438387 -0.38304746
-1.4455961 -1.4625939 -0.3028847 -1.4075273 -0.43075344 0.13116063 -1.2432204 -1.5435393
00000000: 551e 893e d22b 313e 5e5f 9cbe 49b8 a9bf
00000010: 9a8d c13d 6bb1 cf3f 9837 bfbd 8507 1e3f
00000020: ec5e a1be d545 a9bf 0061 abbb 9f60 a8bf
00000030: d395 8c3f 92e9 fbbe 9e70 f0bd 4b9f 0d3e
00000040: 8834 c7bd 65ef 92bf 2f66 adbe 9928 0b3f
00000050: 254c c63f 1af2 23bf 6e34 9dbe bb5f 2dbe
00000060: eb29 c8bf caa4 9d3e 76f2 16bf b827 3a3e
00000070: 1fb0 9dbf 4cb3 6d3f 3b2b abbf a8e6 6d3e
00000080: 45a4 95bd c250 dc3d 4b1f 253f 8feb 953f
00000090: 851c 40bf 7e09 4e3f 1c03 023f 5b45 aabe
000000a0: 6d68 b83f cd9b 80bd bdad ad3f 2c53 813e
000000b0: f9e1 c53f 9f20 e6bf da2d c1bf a1b8 813f
000000c0: a7bb 493f db96 c9be 124d 993f 44a4 81be
000000d0: 60e5 9dbd 92e7 a83f 1127 c63f f94a 213f
000000e0: 4ee3 64be 8d91 1abf 5029 f1be 067b 873f
000000f0: 7fb5 85bf bc1f d23e 5511 be3e f8a4 96bf
00000100: 24ca 1cbf 9c2a 98bf ed78 f4be 017b d83e
00000110: 35bd db3e c7f7 96bf 9fd7 1bbf 6946 8bbe
00000120: fe78 ddbf 3296 a4bf d56e f2be 78b2 963e
00000130: cc06 163f bdc9 973e b233 e6bf 81e3 983f
00000140: c266 4b3e c08d 76bf e7d7 103f c4fa c2be
00000150: c520 4e3e 994b 2d3f 39ed ae3e 1a65 adbf
00000160: f3d2 0b3e cb6d 68bf f664 8b3f 486f 57ba
00000170: c7ef 583f ddef f73e 64c7 0b3f 3217 8cbe
00000180: a3f6 913e 59d1 b5bf 5e54 203f 4ad8 dabe
00000190: ec84 9f3d 9600 0ebf dd3b b4ba 8508 e5bd
000001a0: 9619 693e d323 d43e 607f b2bf f676 c5be
000001b0: 4828 96be 30c2 d5be 8a63 b4be e475 2f3f
000001c0: d826 843e 359a 1fbf fc23 993f 930b 863f
000001d0: af20 23bf 598c cebf 3610 293f cca3 09bf
000001e0: 3c03 afbf 0964 a0bf 0d6f 163f d760 5fbf
000001f0: 0972 b2be ddcd 9a3e 025d 99be 8527 70bf
00000200: c823 b4bd 95a6 1f3f 8f5a 273f 932c be3f
00000210: 1493 90bf 47a3 b5bf c018 d6be 09a1 f6bd
00000220: 691f 173f 3596 bebf e8bd 7a3f ed79 34bf
00000230: a6a2 a2bf 8cf4 89be 950c e6be 09b7 3fbf
00000240: d447 28bf 0f07 c7bf dd0e 163f c3f2 39bf
00000250: 144e 943f 55e1 d23f 4ee6 c0be 8e31 edbe
00000260: 66f1 973f 591a 8c3f b49b 21bf 75e6 9fbf
00000270: 66df 843f a4b6 c03f 961e 18bf e201 02bf
00000280: 17c7 2cbf dab1 d3be 6f53 0fbf c895 b7bf
00000290: f307 8abf ccc2 a9bd f060 00bd 3cf2 40bd
000002a0: f910 9a3e a298 39bf e8dd 28be 89f9 d7bf
000002b0: e914 d3bf a829 dcbe 2c11 893e 5925 b63f
000002c0: 4f56 78bf 9904 bdbf 80ff 08bf ca29 ea3e
000002d0: aec0 96be 525f 9a3f 8069 47bd 6faa 86bf
000002e0: 90b2 ecbf ac92 49bf 41fd ff3e 8377 8cbf
000002f0: 55a3 8ebf 7dcc 89bf c252 e3be 2d90 a2be
00000300: 63c9 a53f 3dcf 713e ca9e 963f 1b7a b63f
00000310: f4ab 0cbe f8a6 2e3f 5ec5 f73e 33d2 54bd
00000320: 231e c1bf 1106 893f b5e3 96bd b2c4 003f
00000330: b434 21be 4392 a9bf 828b f0be 33bb eb3d
00000340: 42ca 12bf 0620 c4bf ab94 c2be 2fb5 8ebf
00000350: 8d4b b2bf 8704 7cbf 8a6a 543f f870 9e3f
00000360: df89 a9bf f915 343f f1eb a7bf 807f 80bd
00000370: 57b8 65bf 93da 073f e60d 1d3e 1562 013f
00000380: bd62 c13f b62f 913f aa8b 8cbf 30da b0bc
00000390: 3d68 d7be 9c1a 4bbe e002 723e fd1a 773f
000003a0: 8b86 a1bf 40ed 74bd e342 ba3f 3417 b0be
000003b0: b005 93bf c41f bdbf 9025 11bd 005d 75be
000003c0: be07 6bbf 851b 6b3f cfca c3bf 940b c3bf
000003d0: 73c8 553f 04c7 0cbf 3eaf bfbe cc1e c4be
000003e0: 4b09 b9bf 4736 bbbf b413 9bbe db29 b4bf
000003f0: b78b dcbe f94e 063e d921 9fbf b292 c5bf

linear2.weight f4 [256, 256]
0.05636982 -0.057649758 -0.020500816 0.0091291685 -0.014605961 -0.061594144 -0.017280087 0.028609263
-0.009632576 -0.03769284 -0.031031042 0.044084523 -0.028774066 0.012826451 0.008210086 0.0064435736
0.009549253 0.0043301666 -0.044232614 -0.046913233 0.019708747 -0.047678895 -0.036573395 0.004063331
-0.03149868 0.014128537 0.056010023 0.02448831 0.008676435 0.054330233 -0.047646854 -0.06303983
0.051957164 -0.05832642 -0.004315684 0.013985986 -0.039659336 0.009389831 -0.04681148 -0.004383499
0.030225866 0.017964235 -0.02531298 0.010941057 0.033300623 -0.037117228 -0.024603812 0.009813289
-0.028351001 -0.03413311 -0.044434275 0.057505824 -0.048510037 -0.03754161 -0.048721325 -0.006021332
-0.03078805 -0.009729691 0.04611992 0.009099676 -0.026664317 -0.029149594 0.0135611305 0.017876647
-0.05710251 0.020077283 0.01588741 -0.044949587 0.027025873 0.017235057 0.013663933 -0.0016024411
-0.020574152 0.035473492 -0.03076687 0.026775284 0.019244965 -0.057774138 0.0010310184 -0.060152434
0.028863285 0.053721447 0.059172932 0.022199482 -0.0052479524 -0.05180414 0.002120672 0.024791317
-0.031827934 0.04302335 0.005960138 0.043416034 -0.019628506 0.034316048 -0.05633878 -0.056938216
0.03939101 -0.04974274 -0.056272797 0.050442673 -0.055209246 0.057802692 -0.019491749 0.012458707
-0.029695608 0.022968829 0.033366963 0.008323584 -0.057078928 -0.034723207 -0.011214225 -0.05418375
-0.05824798 0.006316515 0.044650365 0.021127516 -0.046725474 -0.03388451 -0.05156231 -0.05021999
0.01615468 0.0008274984 0.023203706 0.041430295 -0.009416468 0.015833978 -0.02088727 0.050976403
0.00943192 -0.021640647 -0.02596563 0.043407008 0.025612297 -0.0536559 0.023720518 -0.006579731
0.060455635 0.00061675196 -0.022828225 -0.046365365 -0.05779443 -0.058594503 -0.018619 0.051168658
-0.013856269 -0.061650135 0.0013442199 -0.014680401 0.007547833 -0.0020545316 -0.06180364 -0.05450382
-0.030312387 -0.01511787 0.012514991 -0.019843642 -0.03251918 -0.042804446 0.0025680547 -0.05621878
-0.016066935 -0.019342115 -0.017917044 -0.010345644 -0.015869591 -0.041806262 -0.054198116 0.046386924
-0.009042985 -0.05449461 -0.058586434 0.014208656 -0.039986502 -0.054902047 0.032257654 0.05156178
-0.041228857 -0.06784828 0.052153483 0.054582108 -0.05142029 -0.041877206 0.050832033 0.02071423
0.006188118 0.0005165898 0.054264203 -0.004212495 -0.021600787 -0.01303452 -0.0043634153 0.005451017
0.038778927 0.0008333539 -0.0099136755 0.04305934 -0.018011056 -0.05424604 -0.060322676 -0.012386445
-0.032548156 -0.057302207 0.035963498 -0.017417317 0.020079665 0.046389595 0.038025253 -0.023364356
-0.044725887 -0.028974248 0.031269066 -0.014516068 0.01239837 -0.03988102 0.039755248 0.044252
-0.043657903 0.028497677 -0.03373674 -0.028348155 -0.03920081 0.039097745 -0.05564137 0.020194389
0.025865037 -0.0004406017 0.048272505 0.050902434 -0.06565754 0.06099239 0.025624905 -0.03410968
-0.04239564 0.02507551 -0.033725444 -0.010313975 -0.062362853 -0.018078554 0.041210428 -0.0071008354
-0.0060978187 0.00093100773 -0.037642952 6.26679e-05 0.028429136 0.05767589 -0.0018177181 0.032424957
0.0021577997 0.006281723 0.043228097 8.381258e-05 -0.02055695 0.0029343036 -0.06845565 0.039568923
00000000: 0ae4 663d 2722 6cbd 54f1 a7bc 8292 153c
00000010: d74d 6fbc 244a 7cbd f88e 8dbc f95d ea3c
00000020: f4d1 1dbc cf63 1abd d034 febc f991 343d
00000030: 97b7 ebbc 0926 523c 9983 063c 9d24 d33b
00000040: 7874 1c3c 12e4 8d3b 422d 35bd 1728 40bd
00000050: 3d74 a13c f24a 43bd fccd 15bd b125 853b
00000060: c304 01bd 617b 673c c46a 653d b59b c83c
00000070: 9b27 0e3c 6189 5e3d 5929 43bd 071b 81bd
00000080: 09d1 543d afe7 6ebd 956a 8dbb 7a25 653c
00000090: d471 22bd ced7 193c 65bd 3fbd 74a3 8fbb
000000a0: 3c9c f73c bb29 933c 2b5d cfbc 1e42 333c
000000b0: 3c66 083d 3c08 18bd ef8d c9bc ebc7 203c
000000c0: 5c40 e8bc 29cf 0bbd b700 36bd 3a8b 6b3d
000000d0: 76b2 46bd 3bc5 19bd 0390 47bd 984e c5bb
000000e0: 3837 fcbc 4869 1fbc 3ee8 3c3d cf16 153c
000000f0: 206f dabc 21cb eebc 812f 5e3c 0c72 923c
00000100: 52e4 69bd 1d79 a43c 5026 823c 0f1d 38bd
00000110: 5d65 dd3c 8930 8d3c b0de 5f3c 0009 d2ba
00000120: 208b a8bc a74c 113d ce0a fcbc d757 db3c
00000130: 9ea7 9d3c 93a4 6cbd 3d23 873a 6662 76bd
00000140: b272 ec3c 050b 5c3d 515f 723d b0db b53c
00000150: 04f7 abbb 9430 54bd f9fa 0a3b 2917 cb3c
00000160: 025e 02bd 4139 303d 434d c33b 03d5 313d
00000170: f6cb a0bc fc8e 0c3d 7ec3 66bd 0c38 69bd
00000180: 7858 213d 0bbf 4bbd 4e7e 66bd fa9c 4e3d
00000190: 1723 62bd 84c2 6c3d 29ad 9fbc 9b1f 4c3c
000001a0: 3444 f3bc 2029 bc3c ccab 083d a45f 083c
000001b0: 98cb 69bd ec39 0ebd debb 37bc c8ef 5dbd
000001c0: 6f95 6ebd c5fa ce3b 4de3 363d 9d13 ad3c
000001d0: 3663 3fbd 7cca 0abd 0033 53bd 7ab3 4dbd
000001e0: d256 843c 7aec 583a b315 be3c d0b2 293d
000001f0: 8847 1abc 42b6 813c c81b abbc a2cc 503d
00000200: 5788 1a3c ba47 b1bc dfb5 d4bc 8ccb 313d
00000210: e1d0 d13c 4ac6 5bbd 8851 c23c c99a d7bb
00000220: 54a0 773d 86ad 213a 4202 bbbc 9ce9 3dbd
00000230: dab9 6cbd ca00 70bd e086 98bc 3a96 513d
00000240: 6805 63bc da84 7cbd 8930 b03a 1186 70bc
00000250: d053 f73b 52a5 06bb d025 7dbd 663f 5fbd
00000260: af51 f8bc f1b0 77bc ad0b 4d3c 228f a2bc
00000270: d532 05bd b753 2fbd cf4c 283b aa45 66bd
00000280: ce9e 83bc 5b73 9ebc c4c6 92bc c780 29bc
00000290: f200 82bc 0b3d 2bbd d8fe 5dbd 3700 3e3d
000002a0: 0729 14bc bd35 5fbd 54f8 6fbd 6ccb 683c
000002b0: e3c8 23bd f8e0 60bd 9a20 043d 7232 533d
000002c0: 97df 28bd 0af4 8abd e49e 553d 7d91 5f3d
000002d0: 159e 52bd 6f87 2bbd 4035 503d e4b0 a93c
000002e0: b2c5 ca3b c16b 073a 2444 5e3d f808 8abb
000002f0: 22f4 b0bc bd8e 55bc fbfa 8ebb 729e b23b
00000300: a7d6 1e3d 6f75 5a3a f86c 22bc fe5e 303d
00000310: ec8b 93bc 1831 5ebd e914 77bd 84f0 4abc
00000320: 3751 05bd b8b5 6abd 764e 133d c3ae 8ebc
00000330: 1c7e a43c 0403 3e3d 5ec0 1b3d 9b66 bfbc
00000340: 7e32 37bd 675b edbc fe13 003d cdd4 6dbc
00000350: 8822 4b3c 485a 23bd 66d6 223d 9641 353d
00000360: a1d2 32bd f673 e93c 892f 0abd 643a e8bc
00000370: 0791 20bd f524 203d 35e8 63bd b46e a53c
00000380: eae2 d33c 8f00 e7b9 64b9 453d 127f 503d
00000390: 7677 86bd 28d3 793d 52eb d13c 98b6 0bbd
000003a0: 0da7 2dbd 286b cd3c b123 0abd f2fb 28bc
000003b0: 3170 7fbd 7a19 94bc 44cc 283d 20ae e8bb
000003c0: 36d0 c7bb df0e 743a 7f2f 1abd 936c 8338
000003d0: 38e4 e83c 8e3d 6c3d 8040 eeba 08d0 043d
000003e0: df69 0d3b e9d6 cd3b f20f 313d 89c4 af38
000003f0: 0c67 a8bc 724d 403b 7a32 8cbd 0613 223d

linear2.bias f4 [256]
0.04114499 -0.0419511 0.004043735 -0.54422694 -0.00021266192 -0.039334595 1.0097685 0.002407607
-0.00013377547 0.012320282 -0.12972236 0.018863942 -0.20499139 0.2191349 0.05409953 -0.3610526
0.03612995 0.06808014 -0.00079493225 -0.03400768 0.092040405 0.04186944 0.0039105006 -0.03547699
0.06973349 -0.54087514 -0.005874058 -0.030707372 -0.050345227 -0.01852557 -0.009766318 -0.016794799
-0.04202383 -0.053212635 0.3118532 -0.054947853 -0.035040863 0.048616566 0.023098757 -0.032200515
-0.006962887 -0.26769105 -0.12790522 0.02617868 -0.026284529 -0.07175644 0.0054570534 -0.4164717
-0.010237108 -0.19184643 0.053192757 -0.018277323 -0.038528487 -0.23223941 -0.25319862 -0.054109138
0.029055791 -0.02123297 -0.016574241 -0.12732224 -0.005846016 -0.018022357 -0.030391393 -0.008145206
-0.019198721 -0.03543913 0.14189701 -0.33661118 -0.32164836 0.001402546 -0.012926068 0.057015933
0.065734275 -0.053425856 0.03919939 0.026782505 0.09502476 0.053243592 0.024617527 -0.017780032
0.029429834 0.044889957 -0.004276282 0.05556001 0.16312943 0.028434345 0.025460599 -0.0850687
0.009627608 0.03955389 -0.013789478 0.1131455 0.15923546 -0.5645977 0.049968433 0.0076734694
-0.11251224 -0.4211942 0.03947904 0.011319235 0.027987499 0.00084997516 0.036991604 -0.011928285
-0.4967376 0.003665944 -0.056348726 -0.049573846 -0.038071126 -0.08337475 -0.041032907 0.0028619857
-0.0053942865 0.0047660475 0.01557499 0.023290657 0.06243684 -0.021979393 0.3096742 0.01757385
0.03883391 -0.012643228 -0.05367732 0.02959977 -0.0523158 0.035503335 0.025253557 -0.046484426
-0.033737138 0.053716835 0.012938926 -0.017290277 -0.033951174 0.0026482344 -0.17097004 0.08860126
-0.043722883 -0.19777653 -0.029103596 0.022702822 -0.01208571 -0.024467155 0.17487542 0.100001216
-0.17769511 -0.009394447 -0.050887033 -0.06000039 0.04075634 0.057904568 0.0034578524 -0.037808467
-0.0068620006 0.005737956 0.010555498 -0.042626724 -0.04087463 -0.064978726 -0.0056231134 0.074389555
0.004205998 -0.036906593 -0.025062094 -0.05488614 0.04654978 0.09848835 0.028480576 -0.0499663
-0.07467731 0.013840524 0.035185643 -0.0068020592 -0.044830687 0.11289906 -0.03187453 -0.4394378
0.022598322 0.10589688 -0.05010807 -0.004626245 -0.009977285 0.42137408 -0.009007692 -0.014483325
-0.030520864 0.14062722 0.025740169 -0.021154225 0.009020586 -0.099957526 -0.04869252 0.11210916
0.060334675 0.027690792 -0.012587579 0.010988109 -0.36455557 -0.046057284 0.030048098 0.026013024
0.024134768 -0.03285556 0.016978843 0.084522665 0.030929314 -0.0079952795 -0.15347204 0.061876222
-0.05159774 -0.03257538 0.16578141 0.039707057 0.010501169 -0.023320934 0.054060638 -0.13414316
-0.03305762 0.02382067 -0.021949828 0.036688656 -0.06284914 0.0035677627 -0.07641824 -0.1944849
0.05516661 -0.044295423 0.035875537 -0.39981633 -0.056904882 -0.035460114 0.22604172 -0.038515963
0.28454015 -0.031644393 -0.020953856 0.097034484 -0.0271893 -0.052782997 -0.27801707 0.01161471
-0.342386 -1.1409342 0.05057577 0.018535994 0.038093314 0.0008241522 0.13482523 0.028107744
0.16211198 -0.0026667565 -0.1094313 -0.0081000235 0.049897496 -0.015767103 -0.03165592 0.017734898
00000000: a687 283d ebd4 2bbd 4f81 843b 7552 0bbf
00000010: 00fe 5eb9 501d 21bd 1840 813f f1c8 1d3b
00000020: 1446 0cb9 02db 493c f0d5 04be 8e88 9a3c
00000030: 43e9 51be e664 603e 7897 5d3d e3db b8be
00000040: 00fd 133d 9a6d 8b3d 0063 50ba a34b 0bbd
00000050: ae7f bc3d 4a7f 2b3d a823 803b 5250 11bd
00000060: 6fd0 8e3d cb76 0abf 2c7b c0bb 078e fbbc
00000070: cc36 4ebd f0c2 97bc e802 20bc 3f95 89bc
00000080: 2e21 2cbd 7ef5 59bd 39ab 9f3e 0011 61bd
00000090: 0287 0fbd 2a22 473d 9b39 bd3c b0e4 03bd
000000a0: ee28 e4bb cd0e 89be 96f9 02be ac74 d63c
000000b0: a752 d7bc 0af5 92bd 15d1 b23b c73b d5be
000000c0: 8bb9 27bc 6473 44be a6e0 593d 53ba 95bc
000000d0: 0cd0 1dbd 2bd0 6dbe 40a3 81be 8ba1 5dbd
000000e0: 6906 ee3c c4f0 adbc b4c6 87bc c360 02be
000000f0: f08f bfbb 9fa3 93bc 5ff7 f8bc 7873 05bc
00000100: a346 9dbc 9f28 11bd 734d 113e 4d58 acbe
00000110: 18af a4be a2d5 b73a dcc7 53bc 8a89 693d
00000120: b19f 863d 12d5 5abd 8a8f 203d fc66 db3c
00000130: 579c c23d f415 5a3d b2aa c93c 6ea7 91bc
00000140: d616 f13c 88de 373d 0e20 8cbb e592 633d
00000150: 670b 273e 25ef e83c bf92 d03c 8038 aebd
00000160: 1dbd 1d3c 4203 223d 43ed 61bc d4b8 e73d
00000170: 9f0e 233e 7a89 10bf b3ab 4c3d ba71 fb3b
00000180: d16c e6bd c4a6 d7be c6b4 213d 5074 393c
00000190: 0a46 e53c ded0 5e3a 8284 173d da6e 43bc
000001a0: 6454 febe 5640 703b eccd 66bd f20d 4bbd
000001b0: 78f0 1bbd 62c0 aabd 1f12 28bd 2790 3b3b
000001c0: 8ec2 b0bb 812c 9c3b 3e2e 7f3c 0ccc be3c
000001d0: c6bd 7f3d 210e b4bc 9e8d 9e3e 09f7 8f3c
000001e0: 4e10 1f3d 8b25 4fbc c0dc 5bbd 387b f23c
000001f0: 1849 56bd f26b 113d 8ce0 ce3c 7466 3ebd
00000200: f42f 0abd 2f06 5c3d cafd 533c 57a4 8dbc
00000210: 6310 0bbd 008e 2d3b c512 2fbe 9474 b53d
00000220: c416 33bd ee85 4abe aa6a eebc 45fb b93c
00000230: 2403 46bc 586f c8bc 8b12 333e 70cd cc3d
00000240: b5f5 35be 2beb 19bc ec6e 50bd f8c2 75bd
00000250: 1ff0 263d 572d 6d3d 239d 623b 0ddd 1abd
00000260: a2da e0bb 7705 bc3b f8f0 2c3c 5c99 2ebd
00000270: 286c 27bd 9113 85bd 1842 b8bb 8d59 983d
00000280: 78d2 893b 5e2b 17bd 054f cdbc 4ad0 60bd
00000290: fbaa 3e3d 43b4 c93d 1950 e93c 77a9 4cbd
000002a0: 6bf0 98bd 5dc3 623c d21e 103d cfe3 debb
000002b0: 62a0 37bd 9f37 e73d de8e 02bd fefd e0be
000002c0: 1e20 b93c 77e0 d83d 1f3e 4dbd c197 97bb
000002d0: c477 23bc 58be d73e 0095 13bc 784b 6dbc
000002e0: e406 fabc 9500 103e 0cdd d23c a04b adbc
000002f0: 14cb 133c 88b6 ccbd cf71 47bd 7d99 e53d
00000300: 7e21 773d cdd7 e23c 223c 4ebc 7807 343c
00000310: 07a7 babe 90a6 3cbd 6e27 f63c 4419 d53c
00000320: 47b6 c53c 8d93 06bd 3717 8b3c 381a ad3d
00000330: 795f fd3c a2fe 02bc c627 1dbe ec71 7d3d
00000340: 2758 53bd c36d 05bd 9ac2 293e dea3 223d
00000350: 180d 2c3c 8b0b bfbc b06e 5d3d d35c 09be
00000360: 6d67 07bd 9123 c33c 20d0 b3bc d846 163d
00000370: 0db7 80bd 20d1 693b 2b81 9cbd 0d27 47be
00000380: 62f6 613d 1e6f 35bd 3af2 123d bab4 ccbe
00000390: 1815 69bd a03e 11bd 7b77 673e eac2 1dbd
000003a0: 3faf 913e 8d9d 01bd 6ca7 abbc 04ba c63d
000003b0: 18bc debc fc32 58bd 4158 8ebe a04b 3e3c
000003c0: 384d afbe 220a 92bf 8a28 4f3d ccd8 973c
000003d0: bc07 1c3d eb0b 583a a00f 0a3e 3642 e63c
000003e0: af00 263e c0c4 2ebb 841d e0bd f6b5 04bc
000003f0: 5161 4c3d 032a 81bc a3a9 01bd c748 913c

linear4.weight f4 [256, 256]
0.020185977 0.0509542 0.05211498 -0.051954564 0.03708701 -0.025603808 0.1268089 0.01001704
-0.056319993 0.05394916 0.01722287 0.016036548 0.020702561 -0.028598722 -0.056484386 -0.03722167
0.0444733 -0.043162286 0.019496873 -0.044017088 -0.061791494 0.02917117 -0.0022065812 0.019222168
-0.026947403 0.032580454 0.03866723 -0.042225458 -0.016833663 -0.05966021 -0.025502592 0.044222377
0.055508457 0.0043793246 0.031051304 -0.05320056 0.013887897 -0.049277708 0.0132593885 -0.014616877
-0.029222941 -0.019165372 -0.013323992 0.056272537 0.012103377 0.003063481 0.0016205463 0.018166102
0.0007570394 0.021193834 -0.0074394774 0.05577785 0.027222633 -0.063212685 0.042118147 0.004498486
-0.0327806 -0.026185013 -0.014399491 -0.028680768 -0.011059089 -0.0268219 -0.0036342463 0.024045967
0.0033921204 -0.06453839 -0.0128653785 -0.008846683 0.026513418 0.0571858 -0.014996526 -0.023870625
-0.013194838 -0.035695992 0.04053843 0.010785484 -0.039730433 0.0319183 -0.059564974 -0.042345367
-0.05703602 0.004398613 -0.0297665 -0.023304323 0.007192505 -0.009856956 -0.008560142 -0.021143775
0.04461577 0.0146168 -0.050845794 0.012256754 0.0008289667 -0.0015855773 0.039733715 -0.005236452
0.06447584 0.08584882 0.022032658 0.013049595 0.0044018435 0.041366726 0.049370527 -0.050221913
-0.0725173 -0.010502392 0.04221547 0.03884751 0.027015992 -0.0046549854 0.026289515 -0.02991246
-0.05382738 0.048448592 -0.008490939 0.0037286058 -0.008654758 -0.05684576 0.022540562 0.026190352
-0.022332981 0.020320661 -0.028772458 -0.047958754 0.024676844 -0.038238343 -0.054142706 -0.04779634
0.030743197 -0.06626893 0.056259252 -0.04646934 0.011194758 0.019142158 -0.0034967286 -0.05528668
0.052140273 0.040760662 -0.022161985 0.010464656 -0.0074010263 0.0067627337 0.058445252 -0.042677768
0.05153026 -0.015732922 0.054311775 0.04656953 0.021072188 -0.008384334 -0.053011574 0.04810088
0.010138018 0.011053393 0.056766637 0.015815936 0.022758042 -0.030459829 -0.05694826 0.005109057
0.029653965 0.034372773 -0.023517346 -0.004838854 0.039499003 0.026853174 -0.07038224 -0.04442346
0.01824324 0.032176737 0.046487924 -0.0027461224 0.025433965 -0.06713836 -0.051622286 -0.009399889
0.011618319 0.016790012 0.060753018 0.04552197 0.039258923 -0.061003998 -0.06040039 -0.027145222
0.045774635 -0.042562183 0.01109735 -0.016697966 0.003814232 0.031835385 -0.009621031 -0.047868386
0.03200017 0.028485466 -0.02770281 0.058744945 -0.044738527 0.00801564 -0.042342972 -0.0058306986
0.024621256 0.04891054 0.060731404 -0.035271283 0.053405676 -0.02348577 -0.028813343 0.056281462
0.04361347 0.04733465 -0.052746527 -0.049588352 -0.040440537 -0.03598705 0.024209358 -0.063151136
0.0018550365 -0.027295003 0.047441464 0.030177817 -0.04488498 0.02605734 0.01202259 0.016380593
0.027795589 0.008329148 0.044339776 -0.032711457 -0.025818348 0.0109630525 0.024581239 -0.00052948296
-0.054911427 0.035775494 -0.04249537 -0.026467223 -0.01886008 -0.00069972477 -0.068872936 -0.0622638
-0.0020052071 -0.048865434 0.027887337 0.008872033 -0.029857928 0.0369677 -0.04907433 -0.06114959
-0.0020488882 0.010860976 -0.037460595 0.016417246 0.007375859 -0.039397493 -0.02769147 -0.029768126
00000000: 105d a53c 5ab5 503d 8476 553d 4fce 54bd
00000010: 8ce8 173d 14bf d1bc 31da 013e 831e 243c
00000020: cbaf 66bd cbf9 5c3d fa16 8d3c 145f 833c
00000030: 6b98 a93c de47 eabc 2c5c 67bd c075 18bd
00000040: a329 363d f0ca 30bd e8b7 9f3c 434b 34bd
00000050: 1419 7dbd 61f8 ee3c 4a9c 10bb cf77 9d3c
00000060: cdc0 dcbc 1573 053d 8861 1e3d 9af4 2cbd
00000070: c0e6 89bc 445e 74bd d0ea d0bc 8622 353d
00000080: d65c 633d 7080 8f3b 4e5f fe3c d5e8 59bd
00000090: 108a 633c 6cd7 49bd e83d 593c a07b 6fbc
000000a0: f364 efbc b300 9dbc df4c 5abc 087e 663d
000000b0: 3e4d 463c afc4 483b 8368 d43a 14d1 943c
000000c0: 0e74 463a b19e ad3c dcc6 f3bb 5177 643d
000000d0: 0002 df3c a775 81bd 1484 2c3d 0968 933b
000000e0: f344 06bd f481 d6bc d8eb 6bbc eef3 eabc
000000f0: 2e31 35bc 9ab9 dbbc 892c 6ebb 0cfc c43c
00000100: 564e 5e3b b42c 84bd 4fc9 52bc aef1 10bc
00000110: ab32 d93c a83b 6a3d fdb3 75bc 548c c3bc
00000120: 292f 58bc f635 12bd a00b 263d 99b5 303c
00000130: 61bc 22bd c3bc 023d 67fa 73bd 5672 2dbd
00000140: 9a9e 69bd 3d22 903b e0d8 f3bc b5e8 bebc
00000150: 1baf eb3b 127f 21bc d63f 0cbc b635 adbc
00000160: 07bf 363d 4d7b 6f3c ae43 50bd 8dd0 483c
00000170: 034f 593a 25d3 cfba d2bf 223d 8b96 abbb
00000180: e90b 843d 82d1 af3d d57d b43c f8cd 553c
00000190: 573d 903b 2870 293d c038 4a3d 7eb5 4dbd
000001a0: f383 94bd 3a12 2cbc 21ea 2c3d 911e 1f3d
000001b0: a450 dd3c d988 98bb 1c5d d73c fa0a f5bc
000001c0: 197a 5cbd 0872 463d 941d 0bbc a05b 743b
000001d0: b0cc 0dbc 1ad7 68bd fca6 b83c 268d d63c
000001e0: a8f3 b6bc 8477 a63c 38b4 ebbc 6670 44bd
000001f0: 1827 ca3c cf9f 1cbd bec4 5dbd 18c6 43bd
00000200: 28d9 fb3c 01b8 87bd 1a70 663d a256 3ebd
00000210: 386a 373c 04d0 9c3c 5f29 65bb 4974 62bd
00000220: 0a91 553d a7f4 263d 0d8d b5bc f373 2b3c
00000230: 4f84 f2bb ec99 dd3b 4a64 6f3d e2ce 2ebd
00000240: 6511 533d 54e2 80bc 0676 5e3d b1bf 3e3d
00000250: 959f ac3c 725e 09bc aa22 59bd 6e05 453d
00000260: ee19 263c 4a19 353c 2284 683d 6c90 813c
00000270: 136f ba3c e486 f9bc 9442 69bd e069 a73b
00000280: dfec f23c 77ca 0c3d 73a7 c0bc 408f 9ebb
00000290: b5c9 213d 30fb db3c 9024 90bd 60f5 35bd
000002a0: d972 953c c1cb 033d 1f6a 3e3d 4af8 33bb
000002b0: e45a d03c d67f 89bd e471 53bd fe01 1abc
000002c0: c35a 3e3c 358b 893c 28d8 783d 3f75 3a3d
000002d0: f7cd 203d 54df 79bd 6666 77bd a85f debc
000002e0: 2f7e 3b3d af55 2ebd a9d1 353c 2cca 88bc
000002f0: 32f8 793b d265 023d 87a1 1dbc a411 44bd
00000300: 9c12 033d 5a5a e93c 01f1 e2bc 8a9e 703d
00000310: bf3f 37bd 0854 033c d36f 2dbd 720f bfbb
00000320: 84b2 c93c 6b56 483d 7ec1 783d 9f78 10bd
00000330: e9bf 5a3d 3b65 c0bc f609 ecbc 6487 663d
00000340: 0aa4 323d fae1 413d be0c 58bd 281d 4bbd
00000350: faa4 25bd 2867 13bd b452 c63c 6255 81bd
00000360: b224 f33a c599 dfbc fb51 423d 7837 f73c
00000370: 50d9 37bd 3476 d53c 66fa 443c 9830 863c
00000380: 93b3 e33c fb76 083c a09d 353d 73fc 05bd
00000390: 0081 d3bc 609e 333c 985e c93c 00cd 0aba
000003a0: ceea 60bd 5389 123d a00f 2ebd cad1 d8bc
000003b0: 7480 9abc bc6d 37ba 410d 8dbd 5408 7fbd
000003c0: cb69 03bb 1f27 48bd fc73 e43c 015c 113c
000003d0: 9d98 f4bc 716b 173d 2a02 49bd fe77 7abd
000003e0: a446 06bb 3cf2 313c 4870 19bd 767d 863c
000003f0: 31b1 f13b 445f 21bd 39d9 e2bc 49dc f3bc

linear4.bias f4 [256]
0.024548186 -0.16655073 -0.41755953 0.44894767 -0.3514898 -0.5647768 -0.0727566 0.55244756
0.01809254 0.18047127 -1.0063498 -0.27575365 0.031122444 -0.7507249 -0.36186874 -0.5753739
0.07935385 -0.8822143 -0.58461905 -0.010988792 -0.030350959 0.7434031 0.8858205 0.06263672
-0.3766325 -0.5289495 -0.7019966 0.29242226 0.13204436 -0.48695847 0.5352014 0.12042874
0.7226765 -0.11327553 0.8346058 0.24142441 -0.071189664 -0.44095296 -0.12448228 0.5397668
0.9205471 0.81433177 0.04632357 -0.048655428 -0.69635284 -0.68656343 0.6858022 0.7325871
0.84478307 0.9389236 -0.40715572 0.14925677 -0.6276704 0.62021774 0.068447456 -0.55740047
0.37488252 0.66647303 1.0146586 -0.16262618 0.49122867 -0.36770672 -0.52815175 -0.44390076
-0.2723219 -0.063755706 0.46837088 -0.24156184 -0.13479412 -0.49133563 0.8460873 -0.5769123
0.6138928 0.4905468 0.516901 0.461682 0.38128766 -0.5830257 -0.25306502 -0.36090165
0.10456547 0.77413374 0.23525874 0.64185 -0.50361055 0.104075074 0.6902153 0.78463966
-0.37409267 0.6795285 0.6503732 0.6601791 0.8158432 -0.30669013 0.7406656 -0.40558925
0.60929763 0.75205654 0.08177075 -0.6919308 0.07894678 0.59496224 0.7262193 -0.6121028
0.30392325 -0.65803456 -0.011016526 -0.44990727 -0.74464554 -0.5358664 -0.056948844 -0.10241731
0.7023565 -0.4757648 -0.34047812 0.06695015 0.2757243 -0.059815872 0.045936614 -0.3959279
-0.35998055 0.7065522 0.98508 0.7875099 0.16067666 -0.41817087 0.070190385 0.8868708
0.25551045 -0.4749688 1.0341971 -0.62628955 -0.56861943 0.6729028 -0.29240686 0.8196776
0.47971264 0.5489602 -0.32131204 -0.5843648 0.521731 -0.6984742 0.5554555 0.7827313
0.7057853 -0.008193014 0.078933425 0.7760109 -0.59086794 0.67491686 0.73084563 -0.6398654
-0.54756606 0.87668705 0.87727046 -0.63144535 0.7709129 -0.10092955 0.85191417 0.75646865
-0.44717535 0.70117575 0.89194125 0.27863014 -0.7063073 -0.4741348 0.7749933 -0.13852404
-0.43385705 -0.26592547 0.60032916 0.6041665 0.42399076 0.5634109 0.66585165 -0.46736035
-0.5280471 -0.4175647 0.48683754 0.5899194 0.49300137 -0.48768905 -0.55288684 -0.6795634
0.05408111 -0.39550567 -0.5632438 0.8852975 0.7963346 -0.06329781 0.76452947 0.7414718
0.64365685 -0.053270735 -0.5356587 -0.5642903 0.67508394 -0.39592224 0.11425508 0.21986404
0.6377858 0.75520945 0.5406189 -0.62876517 0.72344255 -0.6562654 -0.61180055 0.55195916
-0.54170245 -0.67115533 -0.46123224 -0.4279755 -0.9810386 -0.02478573 0.5936303 0.60536623
-0.43644962 -0.05203877 -0.24564162 0.6650321 0.3056415 0.17883167 0.74386126 -0.6844331
0.2748688 0.16960338 -0.97055185 -0.34923834 -0.43475956 -0.32362708 0.32977265 -0.16252223
-0.5746381 0.43945414 -0.4123112 -0.30979607 -0.41932982 0.5386691 0.54699236 0.7889762
-0.47796452 -0.17638959 0.5248475 -0.07245026 0.87082237 0.62951 0.6605291 0.730365
0.23971216 0.32069784 -0.06837938 0.47560644 0.5943106 0.4468117 0.79566103 0.6139395
00000000: 4719 c93c 468c 2abe 5dca d5be 78dc e53e
00000010: 79f6 b3be 3695 10bf 6a01 95bd 346d 0d3f
00000020: ce36 943c 76cd 383e 12d0 80bf 952f 8dbe
00000030: 7ff4 fe3c 822f 40bf dc46 b9be b44b 13bf
00000040: 4584 a23d ccd8 61bf 98a9 15bf 560a 34bc
00000050: 93a2 f8bc aa4f 3e3f 22c5 623f ae47 803d
00000060: fad5 c0be 3c69 07bf 0db6 33bf 5fb8 953e
00000070: a336 073e 9f52 f9be f502 093f 58a3 f63d
00000080: 5401 393f 00fd e7bd baa8 553f f637 773e
00000090: e3cb 91bd 96c4 e1be 91f0 febd 282e 0a3f
000000a0: faa8 6b3f 0c78 503f c9bd 3d3d ea4a 47bd
000000b0: 2e44 32bf 9fc2 2fbf bc90 2f3f d48a 3b3f
000000c0: b443 583f 4c5d 703f b776 d0be c4d6 183e
000000d0: 02af 20bf 97c6 1e3f 2e2e 8c3d ccb1 0ebf
000000e0: 9af0 bf3e fa9d 2a3f 55e0 813f 7a87 26be
000000f0: 5382 fb3e 0e44 bcbe f434 07bf f646 e3be
00000100: c76d 8bbe 5a92 82bd 4fce ef3e fd5b 77be
00000110: 7807 0abe 5890 fbbe 2d99 583f 86b0 13bf
00000120: 1428 1d3f f328 fb3e a053 043f 9561 ec3e
00000130: 2338 c33e 2c41 15bf bd91 81be 1ac8 b8be
00000140: 6c26 d63d a12d 463f abe7 703e 4850 243f
00000150: 9fec 00bf 5025 d53d f3b1 303f 25de 483f
00000160: 1389 bfbe 94f5 2d3f dc7e 263f 7f01 293f
00000170: 1adb 503f 7d06 9dbe 439c 3d3f 65a9 cfbe
00000180: eefa 1b3f c786 403f 6c77 a73d 6022 31bf
00000190: d9ae a13d 724f 183f 82e9 393f c5b2 1cbf
000001a0: d49b 9b3e f474 28bf a97e 34bc 3f5a e6be
000001b0: 17a1 3ebf 8a2e 09bf 3143 69bd 2bc0 d1bd
000001c0: a3cd 333f 7297 f3be 2653 aebe 291d 893d
000001d0: bc2b 8d3e 7d01 75bd 0828 3c3d 10b7 cabe
000001e0: 5f4f b8be 9be0 343f 342e 7c3f 409a 493f
000001f0: 6c88 243e 7e1a d6be fabf 8f3d f709 633f
00000200: 44d2 823e 1c2f f3be 9260 843f 8354 20bf
00000210: 0b91 11bf 5c43 2c3f 5ab6 95be 64d6 513f
00000220: e59c f53e a888 0c3f 0383 a4be ee98 15bf
00000230: 2a90 053f 35cf 32bf 5532 0e3f 1461 483f
00000240: 58ae 343f fe3b 06bc d9a7 a13d a6a8 463f
00000250: 1f43 17bf 5ac7 2c3f b318 3b3f 38ce 23bf
00000260: 4a2d 0cbf 906e 603f cc94 603f 67a6 21bf
00000270: 8c5a 453f 27b4 cebd 0c17 5a3f eea7 413f
00000280: 2bf4 e4be 4180 333f 4356 643f 9ca8 8e3e
00000290: 8ed0 34bf ccc1 f2be f665 463f 3fd9 0dbe
000002a0: 8322 debe 6227 88be 2caf 193f a8aa 1a3f
000002b0: 5115 d93e b23b 103f 4175 2a3f db49 efbe
000002c0: 182e 07bf 0acb d5be c542 f93e f504 173f
000002d0: ad6a fc3e 61b2 f9be fe89 0dbf def7 2dbf
000002e0: 2784 5d3d b87f cabe bf30 10bf dba2 623f
000002f0: 96dc 4b3f 48a2 81bd 34b8 433f 19d1 3d3f
00000300: b2c6 243f 6a32 5abd ee20 09bf 5475 10bf
00000310: 4dd2 2c3f 52b6 cabe 91fe e93d 0a24 613e
00000320: ee45 233f 6855 413f 0066 0a3f c1f6 20bf
00000330: 8833 393f 0201 28bf f69e 1cbf 324d 0d3f
00000340: 03ad 0abf d6d0 2bbf a226 ecbe 9b1f dbbe
00000350: 5825 7bbf 710b cbbc 28f8 173f 48f9 1a3f
00000360: 5376 dfbe 9b26 55bd 7a89 7bbe 8b3f 2a3f
00000370: 0b7d 9c3e a61f 373e b16d 3e3f 0237 2fbf
00000380: 9abb 8c3e 82ac 2d3e 1676 78bf 5ecf b2be
00000390: ce98 debe 73b2 a5be f6d7 a83e 3a6c 26be
000003a0: 7c1b 13bf 2200 e13e 741a d3be 979d 9ebe
000003b0: 66b2 d6be 38e6 093f b107 0c3f 58fa 493f
000003c0: c4b7 f4be 799f 34be 685c 063f cd60 94bd
000003d0: 37ee 5e3f 9127 213f 6f18 293f 33f9 3a3f
000003e0: 1b77 753e 8232 a43e 7d0a 8cbd b082 f33e
000003f0: bd24 183f 81c4 e43e 71b0 4b3f 242b 1d3f

linear3.weight f4 [1, 256]
0.41778392 0.1802714 -0.046633787 0.14339241 -0.030357618 -0.07994616 0.108826414 0.09614787
-0.0006960732 -0.03750983 -1.8029411 -0.07741001 -0.0034145683 -0.60764366 -0.07802842 -0.40126622
0.06392088 -0.86619407 0.058001306 -0.0013025176 0.08150239 -0.33703583 1.0397476 0.13218692
-0.017673329 -0.5989381 -0.45245802 0.33315971 -0.1737547 -0.21731742 0.2137542 -0.0072937794
1.244919 -0.0046710316 1.3859565 0.23476006 -0.18933761 -0.00077945367 0.27723378 0.4428147
0.8176353 0.617116 0.3523945 0.0028318253 -0.30460033 -0.34431067 0.22112054 1.234914
0.6310215 0.28036308 -0.013182008 -0.00015050959 -0.25681064 0.32291538 -0.04709377 -0.2617774
0.047561683 1.5001547 0.6568356 -0.250315 -0.061506063 -0.13262807 -0.2372448 0.33919126
0.08286628 -0.0014870239 -0.13325597 0.00069030985 -0.0010213259 0.11258833 -1.7300515 -0.23855114
-0.15592115 -0.118753724 0.65226454 1.1999534 -0.011019287 -0.48039106 -0.015391119 -0.24425635
0.011336023 1.3272748 0.2734222 -0.12989281 -0.2692043 0.48633102 -0.20760125 0.8181483
-0.08780543 0.69540066 0.40954462 0.14685662 0.3806319 -0.23968166 0.22668774 -0.11995192
0.9685756 0.3680829 -0.17445989 -0.43114734 -0.039885707 0.5837246 0.6001753 -0.6444989
-0.09101797 -0.45580068 0.18716653 -0.09008887 -0.3981312 0.3387559 -0.009606166 -0.031933453
-0.18779966 0.7298247 -0.017967712 -0.006122235 -0.0023024331 0.023482312 -0.3726039 0.22716667
0.051807977 0.18800825 0.9540666 1.0254397 0.018548058 -0.035392895 0.44635224 0.5257368
0.03346673 -0.020981686 1.2019675 -0.49792218 0.07399193 0.13151892 -0.02661262 0.36183652
-0.15436314 0.6439471 -0.017924119 0.22755118 -0.06237465 -0.47540215 0.3205921 0.4090761
0.13518012 0.04814707 0.46787766 1.2538546 -0.23960418 0.84105825 1.2016015 -0.17985064
-0.18509187 0.76730055 0.75858754 -0.3822859 0.99913174 -0.09154582 0.51765645 0.42458418
-0.06853397 0.1870307 1.051586 0.05068989 -0.13301878 -0.37768635 -0.29016 0.5386485
0.39860085 -0.023950417 0.5957247 0.1816958 -0.08077904 0.34030756 0.40092131 0.10947219
-0.027567314 -0.015907913 -0.18395777 -0.30440253 0.4309312 -0.20937645 -0.18782465 -0.5402102
0.001496312 -0.09281699 -0.6878669 0.69738543 0.97436565 -0.004262095 0.2141972 0.39240453
0.16291642 0.00089515134 0.05005947 -0.6491438 -0.19836773 -0.06715271 0.13847996 -0.05425421
0.31229943 0.17405283 -0.13725291 0.10168936 0.21955985 -0.42689988 -0.14282551 0.17095703
-0.20764735 -0.30343232 0.06953899 -0.060520202 -1.4931617 -0.00023343701 -0.08896871 -0.16158098
0.07630667 -0.00022256591 -0.027810777 0.54018277 0.19171146 -0.22623022 0.4366683 -0.62424105
-0.03891811 0.35073838 0.38271955 -0.033490635 -0.07854237 0.00656136 -0.062168352 0.107287414
0.5096221 -0.06022315 -0.0718676 -0.1515681 -0.043148402 0.23765391 -0.095202 0.8006755
-0.016872339 0.0049838377 1.1182063 0.13462336 0.3000936 -1.0380492 0.6564471 -0.24953397
-0.29153153 -0.034675334 -0.004852649 0.84413844 0.6565556 -0.12167824 0.818937 0.56002903
00000000: c6e7 d53e 1199 383e 1203 3fbd 76d5 123e
00000010: 8ab0 f8bc d0ba a3bd 62e0 de3d 2de9 c43d
00000020: af78 36ba e8a3 19bd c6c6 e6bf 2489 9ebd
00000030: f3c6 5fbb 898e 1bbf 5dcd 9fbd c472 cdbe
00000040: f3e8 823d e5be 5dbf c792 6d3d 3db9 aaba
00000050: baea a63d f68f acbe 7316 853f 025c 073e
00000060: a8c7 90bc 0254 19bf 94a8 e7be e993 aa3e
00000070: c1ec 31be 7588 5ebe 62e2 5a3e a800 efbb
00000080: 8159 9f3f 740f 99bb 0667 b13f f164 703e
00000090: b8e1 41be 4054 4cba 96f1 8d3e 9cb8 e23e
000000a0: 8c50 513f 50fb 1d3f 0d6d b43e 2596 393b
000000b0: 93f4 9bbe 7d49 b0be 6c6d 623e a911 9e3f
000000c0: a08a 213f c08b 8f3e 59f9 57bc 1cd2 1db9
000000d0: af7c 83be 2a55 a53e 66e5 40bd b007 86be
000000e0: 0ad0 423d 1205 c03f 6126 283f 4a29 80be
000000f0: c8ed 7bbd a7cf 07be 4df0 72be 7aaa ad3e
00000100: ccb5 a93d 3ee8 c2ba 4174 08be e9f5 343a
00000110: 03de 85ba b694 e63d 5472 ddbf c046 74be
00000120: cba9 1fbe 2735 f3bd cffa 263f 1398 993f
00000130: 3d8a 34bc d1f5 f5be 082b 7cbc 561e 7abe
00000140: baba 393c 24e4 a93f fffd 8b3e 9f02 05be
00000150: 25d5 89be 6100 f93e 6c95 54be 2b72 513f
00000160: 55d3 b3bd c705 323f d5af d13e 9561 163e
00000170: 2fe2 c23e 1c6f 75be d520 683e 5aa9 f5bd
00000180: 92f4 773f 5d75 bc3e 9da5 32be 58bf dcbe
00000190: 325f 23bd fa6e 153f 17a5 193f e1fd 24bf
000001a0: a167 babd b55e e9be 95a8 3f3e 8380 b8bd
000001b0: dad7 cbbe 6a71 ad3e 2e63 1dbc a7cc 02bd
000001c0: 8e4e 40be cbd5 3a3f 0631 93bc 089d c8bb
000001d0: 6be4 16bb fa5d c03c f0c5 bebe 619e 683e
000001e0: 9a34 543d 3c85 403e b53d 743f 9c41 833f
000001f0: 19f2 973c 24f8 10bd 4888 e43e b096 063f
00000200: 6914 093d c9e1 abbc 12da 993f a8ef febe
00000210: 1589 973d e5ac 063e b602 dabc a342 b93e
00000220: 5f11 1ebe b8d9 243f 9ad5 92bc 2d03 693e
00000230: 907c 7fbd e967 f3be a624 a43e 6c72 d13e
00000240: a86c 0a3e dd35 453d a98d ef3e 4f7e a03f
00000250: cc5a 75be 984f 573f 14ce 993f c42a 38be
00000260: b988 3dbe cf6d 443f cb32 423f faba c3be
00000270: 19c7 7f3f 607c bbbd 2285 043f 1963 d93e
00000280: 8a5b 8cbd fa84 3f3e 5f9a 863f 34a0 4f3d
00000290: 1336 08be 1b60 c1be da8f 94be dee4 093f
000002a0: 6915 cc3e aa33 c4bc 6a81 183f 770e 3a3e
000002b0: 7b6f a5bd cb3c ae3e 8f45 cd3e f532 e03d
000002c0: d9d4 e1bc 5051 82bc 6d5f 3cbe a6da 9bbe
000002d0: 04a3 dc3e c866 56be 1b55 40be 374b 0abf
000002e0: e61f c43a d616 bebd 0c18 30bf da87 323f
000002f0: 0770 793f 0ba9 8bbb 8356 5b3e 3fe9 c83e
00000300: 90d3 263e 97a8 6a3a 290b 4d3d 4a2e 26bf
00000310: e920 4bbe 5c87 89bd b1cd 0d3e aa39 5ebd
00000320: b6e5 9f3e e83a 323e 078c 0cbe 8342 d03d
00000330: 4cd4 603e 9f92 dabe da40 12be 5c0f 2f3e
00000340: 82a1 54be 7b5b 9bbe 756a 8e3d 08e4 77bd
00000350: ec1f bfbf c5c6 74b9 3a35 b6bd 7c75 25be
00000360: ac46 9c3d 9560 69b9 6dd3 e3bc 6b49 0a3f
00000370: 0250 443e e5a8 67be fd92 df3e 43ce 1fbf
00000380: 9968 1fbd fb93 b33e d1f3 c33e 7a2d 09bd
00000390: d2da a0bd ad00 d73b 3ea4 7ebd 81b9 db3d
000003a0: 9876 023f 8dac 76bd 522f 93bd ab34 1bbe
000003b0: 61bc 30bd 8c5b 733e 44f9 c2bd 12f9 4c3f
000003c0: dc37 8abc 764f a33b 6221 8f3f b5da 093e
000003d0: dea5 993e ccde 84bf eb0c 283f d585 7fbe
000003e0: 9f43 95be b907 0ebd f802 9fbb 7519 583f
000003f0: 0714 283f 7132 f9bd dba5 513f 105e 0f3f
