outputs/Optimal_Control/20220509-103016/models/checkpoint.pt (torch, 533487 bytes, 7 tensors)

linear1.weight f4 [256, 2]
0	0x3ee48943	0.44635972
1	0xbf290476	-0.6602243
2	0xbe1e1178	-0.15436351
3	0xbedbdf45	-0.4294378
4	0x3e8205e7	0.25395128
5	0x3d5b26cb	0.053503793
6	0x3c16abf2	0.009196268
7	0x3d3f5f17	0.046721544
8	0xbe9cfab1	-0.30660012
9	0xbf204a87	-0.6261372
10	0x3ec14fbf	0.37756154
11	0x3e5852fe	0.21125409
12	0xbdf661a8	-0.12030345
13	0xbec22812	-0.37921196
14	0xbf31911f	-0.6936206
15	0x3db0d898	0.08635062
16	0x3e994e0b	0.29942355
17	0xbf191fcb	-0.5981414
18	0x3eff47e4	0.49859536
19	0x3f18dfc9	0.5971647
20	0xbe99ae5f	-0.30015847
21	0xbcf9b620	-0.030482352
22	0x3d8a00ad	0.0673841
23	0xbd4da3cd	-0.05020504
24	0x3dda842a	0.106697395
25	0xbe62117c	-0.22076982
26	0x3f168475	0.58795863
27	0x3ef05eab	0.46947226
28	0x3e112a37	0.1417626
29	0xbf6593ae	-0.89678466
30	0xbe5df38f	-0.21674941
31	0x3f2dc4a1	0.67878157
32	0xbf1678ce	-0.58778083
33	0x3e8a818a	0.27051955
34	0x3eae56a5	0.3405048
35	0x3eca6de6	0.3953697
36	0xbe6fdbf0	-0.23423743
37	0xbef723f0	-0.48269606
38	0xbf09848b	-0.5371787
39	0xbec10cad	-0.37704983
40	0x3ed30983	0.41218194
41	0xbef4fd67	-0.4784958
42	0x3ea4ab5d	0.3216199
43	0xbf09f18d	-0.538842
44	0xbe0c2018	-0.13684118
45	0xbd756e50	-0.059919655
46	0x3ea23459	0.31680563
47	0x3ed94e01	0.42442325
48	0x3eecc0bf	0.46240804
49	0xbf289096	-0.6584562
50	0xbe21f8fc	-0.15817636
51	0xbec502ad	-0.38478604
52	0x3f0a6960	0.5406704
53	0xbe51c2d9	-0.20484485
54	0x3dd07f37	0.10180514
55	0x3e907330	0.2821288
56	0x3d7a4746	0.061103128
57	0xbd1279e3	-0.03576077
58	0x3e0afc1e	0.13572738
59	0xbea40b44	-0.32039845
60	0xbbec11dc	-0.0072042774
61	0x3f2151c0	0.63015366
62	0xbedc34dc	-0.43009079
63	0xbeb47631	-0.35246423
64	0x3d6b25f9	0.05740926
65	0x3ed4e638	0.41581893
66	0xbf23914d	-0.63893586
67	0xbf274830	-0.65344524
68	0xbf122639	-0.57089573
69	0x3ec2696a	0.3797105
70	0x3ee2debd	0.4431056
71	0x3c92d784	0.017925031
72	0x3ebf0cc3	0.37314424
73	0xbf142625	-0.57870704
74	0xbeaef4cf	-0.3417115
75	0x3f1bf73e	0.60924137
76	0xbea68512	-0.325234
77	0xbeec14d3	-0.46109638
78	0xbea84fc0	-0.32873344
79	0x3f296751	0.66173273
80	0x3f09e318	0.5386214
81	0xbee8c071	-0.4545932
82	0x3e283c75	0.16429313
83	0xbeba7182	-0.36414725
84	0x3e8fda82	0.28096396
85	0xbdb275b0	-0.08713853
86	0xbf11b634	-0.56918645
87	0xbec61c46	-0.38693446
88	0x3e15c2c4	0.14625078
89	0x3e8387f4	0.25689662
90	0x3e50187a	0.20321837
91	0x3cd203e4	0.02563662
92	0x3e6ad78f	0.22933792
93	0x3ee13a8e	0.43989986
94	0x3e7168b6	0.235751
95	0xbf0adf9d	-0.54247457
96	0xbd8ef7a1	-0.06980825
97	0x3e9c687c	0.30548465
98	0x3eea75cb	0.45792994
99	0x3d5ef007	0.054428127
100	0x3e583f63	0.2111793
101	0xbee8b450	-0.45450068
102	0x39870000	0.00025749207
103	0xbf14616f	-0.5796117
104	0xbe9f450c	-0.31107366
105	0x3e9792de	0.29604238
106	0x3e7a9669	0.2447144
107	0x3edcb173	0.43104133
108	0x3eff80a7	0.4990284
109	0x3edb7bfa	0.42868024
110	0xbdf371d0	-0.118869424
111	0xbf0cbe7d	-0.5497816
112	0x3f0a4b8c	0.54021525
113	0x3d30a5c3	0.043126833
114	0xbee3954d	-0.44449845
115	0x3d8a8ee0	0.067655325
116	0xbf18b807	-0.59655803
117	0xbeeb26ea	-0.45928127
118	0x3e13d259	0.1443571
119	0xbc8120fa	-0.015762795
120	0x3f1cf3c4	0.61309457
121	0xbf1441df	-0.5791301
122	0x3ec4e775	0.38457838
123	0xbeb7ad26	-0.3587429
124	0xbf1ee78f	-0.6207208
125	0x3e4c6098	0.19958723
126	0x3c0f50b1	0.008747266
127	0x3e20476a	0.15652242
128	0x3eeb6e22	0.45982462
129	0x3e8b6e12	0.27232414
130	0x3e30116a	0.17194143
131	0x3e88c21b	0.2671059
132	0xbea402dd	-0.32033435
133	0x3d81c970	0.06337249
134	0xbf10d815	-0.56579715
135	0xbe423e68	-0.18969119
136	0x3e4fb8fc	0.2028541
137	0xbee286df	-0.44243523
138	0x3ee69704	0.4503709
139	0xbf079f6b	-0.5297763
140	0xbed3370d	-0.41252938
141	0xbf2471a2	-0.6423589
142	0xbe11abe8	-0.14225733
143	0xbc91c1a0	-0.017792523
144	0x3dad6ca3	0.084679864
145	0x3ecfbc2f	0.4057326
146	0x3efe7c14	0.4970404
147	0xbeda7ec5	-0.42674842
148	0x3ec907d4	0.39263785
149	0xbefb93ba	-0.49136144
150	0xbea8f301	-0.32997897
151	0x3dac1b08	0.08403593
152	0xbf07633f	-0.5288581
153	0x3e83db64	0.2575332
154	0xbeaeb812	-0.3412481
155	0x3debbad8	0.11510247
156	0x3e9cfce1	0.3066168
157	0xbf11adba	-0.5690571
158	0x3e80c5ef	0.2515101
159	0xbeaf5500	-0.34244537
160	0x3e2ac550	0.16676831
161	0xbf18fde2	-0.59762394
162	0x3f0022c3	0.5005304
163	0xbe82d7f7	-0.25555393
164	0x3ebf0961	0.37311843
165	0x3dc931bc	0.09823939
166	0xbf14a009	-0.58056694
167	0xbf24b361	-0.6433621
168	0xbeaa870f	-0.33306167
169	0xbd422340	-0.0473969
170	0x3ee782c1	0.45216945
171	0xbf49b397	-0.7878966
172	0x3e7c6e5f	0.24651478
173	0xbf1022a7	-0.56302875
174	0x3ce7dd79	0.028303849
175	0x3d649891	0.05580956
176	0xbf1a78b7	-0.60340446
177	0xbec1cd24	-0.37851822
178	0x3d99c2c3	0.07507851
179	0xbf54fe4a	-0.83200514
180	0x3eefddc5	0.46848884
181	0x3f198993	0.59975547
182	0xbf243071	-0.64136416
183	0xbedf8292	-0.43654305
184	0x3ea91390	0.33022738
185	0xbf2a7f84	-0.66600823
186	0xbd933260	-0.07187343
187	0xbe939be3	-0.2882987
188	0xbe969894	-0.29413283
189	0x3de75d40	0.11297083
190	0xbeb4e1b1	-0.3532844
191	0xbf2e48db	-0.6807992
192	0x3f1523f1	0.5825797
193	0x3cac6c7c	0.021047823
194	0x3e9c7e4b	0.30565104
195	0xbc558a6a	-0.013033489
196	0xbf2b9d68	-0.6703706
197	0xbe20bfe8	-0.15698206
198	0xbdd35310	-0.10318577
199	0xbf300405	-0.68756133
200	0xbf0540f8	-0.5205226
201	0x3af1a800	0.0018436909
202	0xbeb4d4d8	-0.35318637
203	0xbef1fc08	-0.47262597
204	0xbed51558	-0.41617846
205	0xbedc98a7	-0.43085214
206	0x3edc3b2b	0.43013892
207	0x3ee5cbf1	0.44882157
208	0xbf07b422	-0.53009236
209	0xbf326e7d	-0.6969984
210	0xbeb0df98	-0.34545588
211	0x3e45d740	0.19320393
212	0x3f154fe0	0.58325005
213	0xbcaac130	-0.020844072
214	0x3ece4dc6	0.4029371
215	0xbe9ef36e	-0.31045097
216	0xbd73ab2e	-0.05948942
217	0x3e8c5010	0.27404833
218	0xbf04f575	-0.5193704
219	0xbe98d747	-0.29851744
220	0xbde77644	-0.11301854
221	0x3ee9b4ad	0.45645657
222	0xbf25e02c	-0.64795184
223	0xbed76deb	-0.42076048
224	0x3edc3152	0.43006378
225	0x3ed4971a	0.4152153
226	0xbe79e16b	-0.24402396
227	0x3f012045	0.50439864
228	0xbdf86f7b	-0.12130638
229	0x3f33d602	0.70248425
230	0xbe768a61	-0.24076225
231	0x3ee65b76	0.44991654
232	0xbb43c790	-0.0029873587
233	0x3e87423d	0.26417723
234	0x3b1431d0	0.0022612698
235	0x3efff4b9	0.49991396
236	0xbdeed318	-0.11661357
237	0x3eedf81f	0.46478364
238	0xbbf3d280	-0.007440865
239	0xbdd30bf0	-0.10305011
240	0x3ebd0f1b	0.36925587
241	0x3d9d9ed4	0.0769631
242	0x3ec8b3fc	0.39199817
243	0x3e912eed	0.28356114
244	0x3e75ad97	0.23992
245	0xbe06fcbf	-0.13182352
246	0xbea7476d	-0.3267168
247	0x3f2eff90	0.6835871
248	0xbf09b520	-0.53792
249	0x3e781358	0.24226129
250	0xbf2c7ad1	-0.673749
251	0xbe30fa90	-0.17283082
252	0xbf030d47	-0.51192135
253	0x3ceee1c0	0.02916038
254	0x3e680fc6	0.22662267
255	0x3e8d1596	0.2755553

linear1.bias f4 [256]
0	0x3f8d29f5	1.1028429
1	0x3e1e490d	0.15457554
2	0xbefe9f41	-0.49730876
3	0xbf7213bb	-0.94561356
4	0x3d840250	0.064457536
5	0x3f92383b	1.142341
6	0xbdbf3798	-0.093367755
7	0x3f1a0494	0.60163236
8	0x3faf1a67	1.3679932
9	0xbf9c80f4	-1.2226853
10	0xbbab6100	-0.005230069
11	0xbf6d3b3f	-0.9266853
12	0x3f844a10	1.0335102
13	0xbfb5a9af	-1.4192408
14	0x3b194607	0.0023387687
15	0x3f52c3fd	0.82330304
16	0xbdc73488	-0.097268164
17	0xbfac22f0	-1.3448162
18	0xbead662f	-0.33867022
19	0x3f0b9cfc	0.54536414
20	0x3f062853	0.5240528
21	0xbf9141e4	-1.1348233
22	0xbe9d346e	-0.30704063
23	0x3e295e0c	0.16539782
24	0xbf7d9ba4	-0.99065614
25	0x3e83f375	0.2577168
26	0x3f9236db	1.142299
27	0x3eb10ba0	0.34579182
28	0xbf775ca8	-0.9662576
29	0x3fae6187	1.3623513
30	0xbfb25c29	-1.3934375
31	0x3e5ec69a	0.21755448
32	0xbf7a439b	-0.9775941
33	0x3dd45140	0.1036706
34	0x3f248a82	0.64273846
35	0x3f23a5dd	0.6392496
36	0xbf6e6b31	-0.9313231
37	0x3f6e5acc	0.93107295
38	0x3efc7492	0.49307686
39	0xbf638e84	-0.88889337
40	0x3fbcf063	1.476086
41	0x3ea4d061	0.3219023
42	0x3f87fbbe	1.0623701
43	0x3e8342b6	0.25636834
44	0x3fc22279	1.516677
45	0xbfc78283	-1.5586704
46	0xbfac07b2	-1.3439848
47	0x3f9fdaad	1.248861
48	0x3fa1ec48	1.2650232
49	0x3f5d1d9d	0.8637331
50	0x3faa2c79	1.3294822
51	0xbe81a444	-0.25320637
52	0xbd9de560	-0.077097654
53	0x3fa233f6	1.2672107
54	0x3fa5ab2e	1.2942865
55	0x3f239931	0.63905627
56	0xbf820018	-1.0156279
57	0xbf1a918d	-0.6037834
58	0xbef12950	-0.4710183
59	0x3f8eac55	1.1146342
60	0xbf9432a5	-1.1577955
61	0x3f9f8bf7	1.2464589
62	0x3ec33a2f	0.38130328
63	0xbf8809e6	-1.0628021
64	0x3b30d9fb	0.0026985395
65	0x3f667231	0.9001799
66	0xbef478ed	-0.4774851
67	0x3ed083db	0.40725598
68	0x3f70ac62	0.94013035
69	0xbfc0d81b	-1.506595
70	0xbf1bd79f	-0.60875887
71	0xbe8b4669	-0.27202156
72	0xbfc8715a	-1.5659592
73	0xbfc8a371	-1.5674878
74	0xbecff4cb	-0.4061645
75	0x3e842c44	0.25815022
76	0x3f0f7ed3	0.56052893
77	0x3e86451a	0.26224595
78	0xbfbdddd3	-1.483332
79	0x3fb710b2	1.430197
80	0xbecdf351	-0.40224698
81	0xbf460bcf	-0.7736177
82	0xbf7e6b6d	-0.9938267
83	0xbec2fac4	-0.38081944
84	0x3e2a0167	0.16602097
85	0x3f4f76e6	0.810408
86	0x3f6f004b	0.9335982
87	0xbef90e3e	-0.48643678
88	0x3db06e0f	0.08614742
89	0xbf8887a3	-1.0666393
90	0x3fc4ec7a	1.5384667
91	0xba38c5c9	-0.0007048515
92	0x3f72c2da	0.9482857
93	0x3edc11cb	0.42982325
94	0x3f0a5821	0.54040724
95	0xbe8c1732	-0.27361447
96	0xbf6676ec	-0.9002521
97	0xbfa7fc7c	-1.3123927
98	0x3f16ea40	0.5895119
99	0xbedad84a	-0.4274314
100	0x3d9e5cb0	0.077325225
101	0xbf0e0096	-0.55469644
102	0xb948e95b	-0.00019160418
103	0x3f8dc603	1.1076053
104	0x3e35b464	0.17744595
105	0x3ec7bc79	0.3901098
106	0xbfa29b0f	-1.270357
107	0x3faf0fc3	1.3676685
108	0xbf378b36	-0.71696794
109	0xbed5c230	-0.41749716
110	0xbf527b71	-0.82219607
111	0x3f2f1c05	0.6840213
112	0xbfab4ae9	-1.3382236
113	0xbed1d528	-0.40982938
114	0x3fce501d	1.6118199
115	0x3f9ea169	1.2393008
116	0x3f0e9583	0.55696887
117	0xbfcfca64	-1.623364
118	0x3f215675	0.6302255
119	0xbf09a3cc	-0.5376556
120	0xbf039d45	-0.5141185
121	0xbfb15c8a	-1.3856366
122	0xbf9a65d1	-1.2062322
123	0xbf96ce6c	-1.1781745
124	0xbeb27209	-0.34852627
125	0x3e92aef6	0.2864911
126	0xbe995d02	-0.29953772
127	0xbf881ac0	-1.0633163
128	0xbfa4861b	-1.2853426
129	0x3f8c819c	1.0977054
130	0x3f1dda38	0.616611
131	0x3f8056a4	1.0026441
132	0xbfae6838	-1.3625555
133	0xbfbf16d5	-1.4928843
134	0xbed618c0	-0.41815758
135	0x3d499a07	0.049219158
136	0x3e265d5e	0.16246554
137	0xbfc36f87	-1.526841
138	0xbf490fbc	-0.78539634
139	0xbf76b45c	-0.96368957
140	0xbf9781fb	-1.1836542
141	0xbe89f48c	-0.26944387
142	0xbee60c95	-0.44931474
143	0xbfd2ce06	-1.6469123
144	0xbf2847d4	-0.657346
145	0xbfd26f0e	-1.6440141
146	0x3f113240	0.567173
147	0xbf371261	-0.7151242
148	0x3f3d1dcb	0.73873585
149	0x3fae68e4	1.362576
150	0xbec0e64e	-0.3767571
151	0xbeed318e	-0.4632687
152	0x3f6b3802	0.91882336
153	0x3f817920	1.011509
154	0xbfa58789	-1.2931987
155	0xbf6472be	-0.8923758
156	0x3f20cb86	0.6281055
157	0x3fd8a68e	1.6925828
158	0x3f8c7f37	1.0976323
159	0xbf0201e2	-0.5078412
160	0xbf8f401a	-1.1191437
161	0x3efcc7c6	0.49371165
162	0xbf0f536f	-0.55986685
163	0xbf9408b9	-1.1565162
164	0x3f54d0b7	0.83130974
165	0xbfa8b6f5	-1.3180834
166	0xbd0060f0	-0.031342447
167	0xbf38c62a	-0.72177374
168	0x3e91b297	0.28456566
169	0xbf24420d	-0.64163285
170	0xbe28dde8	-0.164909
171	0xbfbe93be	-1.4888837
172	0xbf23e909	-0.6402746
173	0xbedc29a8	-0.4300053
174	0x3e6b99c1	0.23007871
175	0x3f9bdffe	1.2177732
176	0x3f8874b7	1.0660619
177	0xbf9a5d0c	-1.2059646
178	0xbf08ff80	-0.5351486
179	0x3fa0bcfb	1.2557672
180	0xbfacf365	-1.3511778
181	0x3f6d3ffc	0.9267576
182	0xbd476980	-0.048684597
183	0xbfa66290	-1.2998829
184	0xbfb9e4e7	-1.452298
185	0xbf61b847	-0.8817181
186	0x3fa2cecf	1.2719363
187	0xbfc11101	-1.5083314
188	0xbf97d1de	-1.1860921
189	0xbfaf9e65	-1.3720213
190	0xbf98ec54	-1.1947122
191	0x3ef6202e	0.48071426
192	0x3fcaec99	1.5853454
193	0x3e67ab52	0.22623947
194	0x3f0f1fcd	0.559079
195	0x3f7e0ce6	0.9923843
196	0xbe0cabf4	-0.1373747
197	0x3f9475ac	1.1598411
198	0x3fb3e7a4	1.4055066
199	0x3fa89242	1.3169634
200	0xbfac5a07	-1.3464974
201	0x3fb5600c	1.4169936
202	0x3f1a76ba	0.6033741
203	0x3ef63a1d	0.48091212
204	0xbe2134b4	-0.15742761
205	0xbfa618d8	-1.2976332
206	0xbef08b82	-0.46981436
207	0x3d9a98a5	0.07548646
208	0xbf12ca42	-0.5733987
209	0xbfbdffb4	-1.4843659
210	0xbec294ab	-0.3800405
211	0xbf9cc4c3	-1.2247547
212	0xbf84adcc	-1.0365539
213	0xbfe0c597	-1.75603
214	0x3dd9551e	0.10611938
215	0x3fa2619a	1.2686036
216	0xbf4b799c	-0.79482436
217	0x3f2a81ec	0.66604495
218	0xbfa92821	-1.3215371
219	0xbd807f80	-0.06274319
220	0xbed13eca	-0.40868217
221	0x3efda8df	0.495429
222	0x3e21c0b9	0.15796174
223	0x3ee35ccd	0.4440674
224	0x3fabcf30	1.3422604
225	0x3fb0ea6c	1.382154
226	0xbf87063b	-1.0548776
227	0xbf4ff4d8	-0.81232977
228	0xbee8bf71	-0.45458558
229	0x3fa88532	1.3165648
230	0x3e524ef0	0.20537925
231	0x3fb1304b	1.3842863
232	0xbfa7cceb	-1.3109411
233	0xbd74ed40	-0.05979657
234	0x3fb295e2	1.3951991
235	0x3f83ebbf	1.0306319
236	0xbf9fca8f	-1.2483691
237	0xbfbffc61	-1.4998895
238	0xbd112590	-0.035436213
239	0xbe755d00	-0.23961258
240	0xbec9f7a8	-0.3944676
241	0x3fcc3876	1.595473
242	0xbfa9202b	-1.3212942
243	0xbfd3ef93	-1.6557487
244	0x3f9e8c00	1.2386475
245	0xbf0cc704	-0.54991174
246	0xbebfaf3e	-0.37438387
247	0xbf2afd7f	-0.66793054
248	0xbfd67352	-1.6753943
249	0xbfc7d374	-1.5611405
250	0xbe9b13b4	-0.3028847
251	0xbfc30e92	-1.5238822
252	0xbedc8bb7	-0.43075344
253	0x3e08c8a2	0.13357785
254	0xbf9416bf	-1.1569442
255	0xbfb81af6	-1.4383228

linear2.weight f4 [256, 256]
0	0x3d16a6a9	0.036780033
1	0xbda1352a	-0.07871468
2	0xbd0fcfa0	-0.035110116
3	0xbb7221db	-0.003694645
4	0xbd06ba86	-0.032892726
5	0xbd4c0d91	-0.049817625
6	0xbc8d8ef8	-0.017280087
7	0x3be07ceb	0.006850829
8	0x3c1316b7	0.008977584
9	0xbd54033f	-0.05176091
10	0xbcfe34d0	-0.031031042
11	0x3ceb17f1	0.02869794
12	0x3bb301c4	0.005462857
13	0xbb65eae8	-0.0035082642
14	0x3e8b82cd	0.2724823
15	0x3db6935f	0.089148276
16	0x3c1c7478	0.009549253
17	0xbc3d9f31	-0.011573599
18	0xbd352d42	-0.044232614
19	0xbd8d1878	-0.06889433
20	0x3c8f796a	0.01751395
21	0xbd6bf357	-0.057605114
22	0xbd15cdfc	-0.036573395
23	0xbc072534	-0.008248616
24	0xbd47d408	-0.048786193
25	0xbbeb5d50	-0.0071827546
26	0x3d5516b1	0.052023593
27	0x3c4d903a	0.012546593
28	0xbc1a4668	-0.0094162
29	0x3e1094a5	0.14119203
30	0xbde77cac	-0.11303076
31	0xbdadd2fd	-0.084875084
32	0x3d305f47	0.043059614
33	0xbd9de8b5	-0.07710401
34	0xbcd7397d	-0.02627253
35	0x3c15cf7f	0.009143709
36	0xbd2cc1c0	-0.042176962
37	0x3e1471a2	0.14496472
38	0xbd8cd56b	-0.06876644
39	0x39cd024f	0.00039102367
40	0x3d11af84	0.035567775
41	0x3d147319	0.03624258
42	0xbcc27242	-0.023736123
43	0xbc2a70a6	-0.010402834
44	0x3d8a353c	0.06748435
45	0xbd8d949d	-0.06913111
46	0xbd2acf25	-0.041701455
47	0x3d292eae	0.041304283
48	0x3e305828	0.17221129
49	0xbd2b2412	-0.041782446
50	0xbc583719	-0.01319673
51	0x3d6b8b3a	0.057505824
52	0xbd46b276	-0.048510037
53	0xbcc8264e	-0.024432328
54	0xbd2b789e	-0.041863076
55	0xbce6260d	-0.028094316
56	0xbd51bcc4	-0.05120541
57	0xbc1f6948	-0.009729691
58	0x3d3ce83e	0.04611992
59	0x3ccc8203	0.024964338
60	0xbd9a868d	-0.07545195
61	0xbca5d795	-0.0202444
62	0xbc07ebda	-0.0082959775
63	0xbe13c593	-0.14430837
64	0xbd8fb6ac	-0.07017264
65	0x3c48d93e	0.012258826
66	0x3c822650	0.01588741
67	0xbd8873dc	-0.066627234
68	0x3d4f2286	0.050570033
69	0x3bfa218a	0.0076333927
70	0x3c5fdeb0	0.013663933
71	0xbad20900	-0.0016024411
72	0xbd4043e3	-0.04693974
73	0x3c9c3213	0.019066846
74	0xbd9b77ef	-0.07591235
75	0x3bc2255b	0.0059248633
76	0xbb1c8fd6	-0.0023889444
77	0xbda19a70	-0.07890785
78	0xbc7e0e53	-0.015506345
79	0xbd3963c8	-0.045261174
80	0x3d1097cf	0.035301026
81	0x3cff1af6	0.031140786
82	0x3d30d6c6	0.043173574
83	0x3cb5dbb0	0.022199482
84	0xbcd51ef6	-0.02601574
85	0xbd320fbe	-0.043472044
86	0x3cd52f43	0.026023513
87	0x3c36126d	0.0111127915
88	0xbd4edc1e	-0.05050289
89	0x3e990bfc	0.29891956
90	0x3c88148a	0.016611356
91	0x3d43bd5e	0.047788016
92	0xbc054cd0	-0.008135989
93	0x3c50f22b	0.01275305
94	0xbda0486a	-0.07826312
95	0xbd69380c	-0.056938216
96	0x3cc5d4b4	0.024149276
97	0xbd965ca6	-0.0734189
98	0xbda01e49	-0.078182764
99	0x3d4e9cfa	0.050442673
100	0xbd99cc42	-0.07509662
101	0x3d6cc284	0.057802692
102	0xbbd7963c	-0.0065791886
103	0x3c618b9d	0.013766197
104	0xbd4b9eb0	-0.049711883
105	0x3a48fbd7	0.00076669216
106	0x3c6d9aad	0.01450221
107	0x3c74e63a	0.014947468
108	0xbdf10921	-0.11769319
109	0xbd0e39ec	-0.034723207
110	0xbd3317e2	-0.04372395
111	0xbd9c4334	-0.076300055
112	0xbd9687ed	-0.073501445
113	0xbc210151	-0.009826974
114	0x3e1ff830	0.1562202
115	0x3e24414f	0.16040538
116	0xbd611eff	-0.0549612
117	0xbdb7f2fe	-0.08981894
118	0xbd4fdab7	-0.050745692
119	0xbd4db37a	-0.05021999
120	0xba1b0c7a	-0.000591464
121	0xbc6cc91a	-0.014452243
122	0xbb6a3060	-0.00357344
123	0x3c10a6e0	0.008828849
124	0xbc1a4788	-0.009416468
125	0xbbaac995	-0.0052120187
126	0xbcab1bc8	-0.02088727
127	0x3d17811d	0.036988366
128	0xbc5ba4cf	-0.013405993
129	0x3dd89ff0	0.10577381
130	0xbd44943e	-0.047992937
131	0x3cfe1647	0.031016482
132	0xbc7b8f6f	-0.015354021
133	0xbde958bd	-0.113938786
134	0x3cc25188	0.023720518
135	0x3e37dbec	0.17954987
136	0x3d8b46ad	0.0680059
137	0xbd666ac9	-0.056254182
138	0xbd0c49c6	-0.034250043
139	0xbdca6721	-0.098829515
140	0xbe04a163	-0.12952189
141	0xbd7000ca	-0.058594503
142	0xbc9886e0	-0.018619
143	0x3d0431c2	0.032274015
144	0xbc630568	-0.013856269
145	0xbdc3b651	-0.095562585
146	0xbca82f21	-0.020530285
147	0xbccddcb0	-0.025129646
148	0x3c3daa8d	0.011576307
149	0x3c3a27be	0.011362014
150	0xbd7d25d0	-0.06180364
151	0xbd5f3f66	-0.05450382
152	0xbce59b2d	-0.028028095
153	0x3be717f8	0.007052418
154	0xbb9ad6a6	-0.004725295
155	0xbccf8035	-0.025329689
156	0xbd072c62	-0.03300131
157	0x3e12fd82	0.14354518
158	0x3c077df8	0.008269779
159	0xbd6645aa	-0.05621878
160	0xbd1f57da	-0.03890214
161	0xbcbbab93	-0.022908961
162	0xbc92c6c4	-0.017917044
163	0xbd2b523d	-0.041826475
164	0xbd638f2a	-0.055556454
165	0xbd70ba59	-0.058771465
166	0xbd5dfed8	-0.054198116
167	0x3d2bf3a2	0.041980393
168	0xbd006314	-0.03134449
169	0xbd93e938	-0.07222217
170	0xbd6ff854	-0.058586434
171	0xbc55607f	-0.013023495
172	0xbdb1302e	-0.08651768
173	0xbd60e0f8	-0.054902047
174	0x3c3c291b	0.01148441
175	0x3d466d73	0.048444223
176	0xbc9f7c80	-0.019468546
177	0xbdb7dba0	-0.08977437
178	0x3d559ee4	0.052153483
179	0x3da98599	0.08277435
180	0xbd87ffe2	-0.06640603
181	0xbd2ccf4d	-0.042189885
182	0x3d503540	0.050832033
183	0x3bac814f	0.005264438
184	0xbcaacd3f	-0.020849822
185	0x3bd4c062	0.0064926604
186	0x3d7de1c4	0.061982885
187	0xbd016e24	-0.03159918
188	0xbd0fc8c9	-0.035103593
189	0xbd98fb2d	-0.07469783
190	0xbc7b4b74	-0.015337814
191	0x3cbf655a	0.023363758
192	0x3e3af60b	0.1825792
193	0xbca96555	-0.020678202
194	0x3b060aad	0.002045314
195	0x3d664145	0.05621459
196	0xbc938bec	-0.018011056
197	0x3d2ba8f0	0.04190916
198	0xbd1fb14d	-0.038987447
199	0x3b07a9ae	0.0020700502
200	0xbdea418c	-0.11438283
201	0x3d1126da	0.035437442
202	0x3d19de9d	0.037565816
203	0xbd2096a7	-0.039206173
204	0x3ca47e1c	0.020079665
205	0xbe127b09	-0.14304747
206	0x3d1bc05e	0.038025253
207	0xbd2502fe	-0.040286057
208	0xbd37327e	-0.044725887
209	0xbd5fc92c	-0.05463521
210	0x3d0013fe	0.031269066
211	0xbd793120	-0.060837865
212	0xbc5b21ac	-0.013374727
213	0xbd859df9	-0.065242715
214	0x3d0ad88b	0.033897918
215	0x3e3fe36b	0.18739097
216	0xbd81b64e	-0.063336
217	0x3bd6c4e6	0.006554234
218	0xbd4ba286	-0.04971554
219	0xbce83a64	-0.028348155
220	0x3e64e583	0.22353177
221	0x3c8e0e2f	0.017340748
222	0xbd9b7843	-0.075912975
223	0xba761141	-0.00093867263
224	0x3d0bfde7	0.034177687
225	0x3b894609	0.004189257
226	0x3ca71983	0.020397907
227	0x3dae3367	0.08505898
228	0x3da7b65f	0.081890814
229	0x3d7fbd57	0.062436428
230	0x3babc70b	0.0052422336
231	0x3dd7ddf0	0.10540378
232	0xbd7b9c4c	-0.061428353
233	0x3ccd6b28	0.02507551
234	0x3b8eb4f6	0.0043550683
235	0x3bdcb349	0.0067352396
236	0xbdab0115	-0.08349816
237	0xbd2b0863	-0.041756045
238	0x3d28cc44	0.041210428
239	0xbbe8ae20	-0.0071008354
240	0xbc40cb3e	-0.011767207
241	0x3c3255d9	0.0108847255
242	0xbd77939f	-0.060443517
243	0xbd5764ff	-0.05258655
244	0x3e3143a2	0.17310956
245	0x3d6c3d8e	0.05767589
246	0xbaee4080	-0.0018177181
247	0x3d78fc4f	0.060787495
248	0xbcb26445	-0.021776328
249	0xbd27c9d7	-0.040963974
250	0x3d310ff2	0.043228097
251	0xbc8e556e	-0.01737472
252	0xbca8670c	-0.02055695
253	0xbc87a2f4	-0.016557194
254	0xbdb44369	-0.0880192
255	0x3ca0ebe9	0.01964374

linear2.bias f4 [256]
0	0x3ef2ca61	0.47420028
1	0xbcf7ee05	-0.030264864
2	0x3bc30879	0.0059519378
3	0xbc0115b6	-0.007878711
4	0xb95efe00	-0.00021266192
5	0xbd211d50	-0.039334595
6	0x3d3076fe	0.04308223
7	0x3b900bd2	0.0043959403
8	0x3ed337fd	0.41253653
9	0x3c5fae80	0.013652444
10	0xbd7dee7b	-0.06199501
11	0x3c953d12	0.018217597
12	0xbe0d0942	-0.13773063
13	0x3ea89912	0.32929283
14	0x3cce6d86	0.02519871
15	0x3ec9cd0c	0.3941425
16	0x3d32ca63	0.043650042
17	0x3c339f42	0.010963263
18	0xba506300	-0.00079493225
19	0xbcfbd854	-0.030742802
20	0x3c4c504f	0.012470319
21	0x3ef59e10	0.47972155
22	0x3bd7291e	0.006566181
23	0xbd325c47	-0.043545034
24	0x3ce42923	0.027851647
25	0xbeed5a10	-0.46357775
26	0xbbbc4fbb	-0.0057468093
27	0xbd07c3d8	-0.033145756
28	0xbd4e36cc	-0.050345227
29	0xbc97c2f0	-0.01852557
30	0xbc2002e8	-0.009766318
31	0x3cc13f59	0.023589777
32	0xbd2c212e	-0.04202383
33	0xbd59f57e	-0.053212635
34	0x3d147165	0.036240954
35	0xbd55375c	-0.052054748
36	0xbd0f8702	-0.035040863
37	0xbec5585b	-0.38543972
38	0x3c8edbff	0.017438887
39	0xbd03e4b0	-0.032200515
40	0x3d9761be	0.0739169
41	0xbd81ebc0	-0.06343794
42	0xbf264792	-0.6495296
43	0x3c9f5663	0.019450372
44	0xbd1b5726	-0.037924908
45	0xbcbee5e3	-0.023302978
46	0x3b81de4b	0.003963267
47	0xbeea35cc	-0.4574417
48	0xbc28eeee	-0.0103108715
49	0x3d49acf4	0.049237207
50	0xbd0ddf2a	-0.034636654
51	0xbc7a26c2	-0.01526803
52	0xbd1dd00c	-0.038528487
53	0xbc9c134e	-0.019052174
54	0xbcb12f74	-0.021629073
55	0x3ea5bed6	0.3237216
56	0x3eded088	0.43518472
57	0xbcadf0c4	-0.02123297
58	0x3f20aa77	0.6276011
59	0x3c11464a	0.008866856
60	0xbc77cd6b	-0.015124659
61	0xbc851968	-0.016247466
62	0xbcf0bd57	-0.02938716
63	0xbc057378	-0.008145206
64	0x3cab1a98	0.020886704
65	0xbd244cd3	-0.040112328
66	0x3a5b26a5	0.00083599455
67	0x3a731d91	0.000927412
68	0xbcb38a45	-0.021916518
69	0x3b99c5cc	0.0046927687
70	0xbec60f4d	-0.3868355
71	0x3d69898a	0.057015933
72	0x3cc498d8	0.023998663
73	0xbd5ad512	-0.053425856
74	0x3d208f8a	0.03919939
75	0x3c9d309a	0.019188214
76	0x3d639346	0.055560373
77	0xbe76f14e	-0.24115488
78	0x3ce4d534	0.027933694
79	0xbc853ac3	-0.016263371
80	0x3d049fdb	0.032379013
81	0xbcd3097e	-0.025761362
82	0xbb180160	-0.002319418
83	0x3d71afc8	0.05900553
84	0xbd0fcd33	-0.035107803
85	0x3cc1aa0c	0.023640655
86	0x3cbfad8c	0.023398183
87	0x3cadcb00	0.021214962
88	0x3cc39dc6	0.023878943
89	0x3ec48e6f	0.38389918
90	0xbc8dcd33	-0.01730976
91	0x3e2d2722	0.16909459
92	0x3f08efbc	0.53490806
93	0xbed1e1cd	-0.40992585
94	0x3d4bf766	0.049796484
95	0x3e2af42a	0.16694704
96	0xbe9c3bb1	-0.3051429
97	0xbd35a6c0	-0.04434848
98	0x3cc137a1	0.023586096
99	0x3c397450	0.011319235
100	0xbebdeb71	-0.3709369
101	0x3b834189	0.004005615
102	0x3d57e1b3	0.052705478
103	0x3f064910	0.52455235
104	0xbd19a9f5	-0.0375156
105	0xbbf1044e	-0.0073552495
106	0x3df8b9b8	0.12144798
107	0x3ecf9ce8	0.40549397
108	0xbd1bf078	-0.038071126
109	0xbd1c3fa8	-0.038146645
110	0xbd17b0c4	-0.03703381
111	0x3bdc037d	0.006714283
112	0xbb98fcf9	-0.0046688286
113	0x3e037e94	0.12841254
114	0x3c8b277d	0.016986603
115	0x3cbecc0c	0.023290657
116	0x3d7fbdc6	0.06243684
117	0x3f0ac7e8	0.5421128
118	0xbd59bb2d	-0.05315702
119	0x3d7a3a04	0.061090484
120	0x3d17b5f4	0.03703876
121	0x3e816775	0.25274244
122	0xbd5bdcc0	-0.05367732
123	0x3cf27b38	0.02959977
124	0xbd494790	-0.049140513
125	0x3ba060eb	0.004894366
126	0x3ce8124c	0.028329037
127	0xbd56797b	-0.052361947
128	0xbd09d696	-0.03365191
129	0x3ea43742	0.32073408
130	0x3d6fee94	0.058577135
131	0xbc98b70e	-0.018641975
132	0xbd171f54	-0.03689511
133	0x3b2d8e00	0.0026482344
134	0x3c8013c9	0.015634434
135	0xbbbb47ef	-0.0057153623
136	0xbd3316c4	-0.043722883
137	0xbd4c1974	-0.04982896
138	0xbed8ccf1	-0.42343858
139	0x3ecb22ee	0.39675087
140	0xbc2ee3db	-0.010674442
141	0xbcce640c	-0.02519419
142	0x3da38421	0.07984186
143	0x3d16c9de	0.03681361
144	0xbf7b4c9b	-0.98163766
145	0xbbf24890	-0.007393904
146	0xbd506eec	-0.050887033
147	0xbd76ad8f	-0.060224112
148	0x3cee98d3	0.029125607
149	0x3f018d96	0.5060667
150	0x3f071c2b	0.52777356
151	0xbd1e467a	-0.03864143
152	0xbcb5b941	-0.022183063
153	0xbde4748f	-0.11155044
154	0x3c2cf0f8	0.010555498
155	0x3c085c1b	0.008322741
156	0xbd277199	-0.04087982
157	0xbd7e88a8	-0.062142044
158	0xbc2b84a5	-0.010468637
159	0x3ec83aaf	0.39107272
160	0xba5f1b11	-0.0008510808
161	0xbcee2ae0	-0.029073179
162	0xbcc895c8	-0.024485484
163	0xbd60d04a	-0.05488614
164	0x3f39c8c6	0.7257198
165	0x3c3b30d3	0.011425215
166	0xbe862dcc	-0.26206815
167	0xbd4597a3	-0.048240315
168	0xbf1ccdff	-0.61251825
169	0x3d1c468b	0.038153213
170	0x3f30c201	0.69046026
171	0xbbd9c7d1	-0.0066461344
172	0xbd37a062	-0.044830687
173	0x3cf3ef98	0.029777333
174	0xbd028ede	-0.03187453
175	0x3baafee1	0.005218372
176	0xbd176dbc	-0.036969885
177	0x3d33e62f	0.043920692
178	0xbd4bbfec	-0.049743578
179	0x3e084bcb	0.13310163
180	0xbc5a2722	-0.013314994
181	0xbd9010a3	-0.07034423
182	0xbc139500	-0.009007692
183	0xbc6d4b78	-0.014483325
184	0x3f03f7e5	0.5155013
185	0x3f2702b5	0.65238506
186	0x3cb5214b	0.022110602
187	0xbcb42a05	-0.021992693
188	0xbb0a363b	-0.0021089453
189	0xbf1312ea	-0.57450736
190	0xbd453f9a	-0.04815636
191	0x3d596af9	0.053080533
192	0x3d77217e	0.060334675
193	0x3ca67160	0.020317733
194	0xbc260865	-0.010133837
195	0x3c0007b0	0.007814333
196	0x3a158310	0.0005703429
197	0xbd3c4a04	-0.045969024
198	0x3ec42634	0.38310397
199	0x3f74799e	0.95498073
200	0x3cd9c8d8	0.026585028
201	0xbd05b88d	-0.032646704
202	0x3c9fc468	0.019502833
203	0x3d6fd093	0.05854852
204	0x3d96a2f7	0.07355302
205	0xbb8a84d7	-0.0042272615
206	0xbcf3eda4	-0.029776402
207	0x3f2fad4e	0.68623817
208	0xbcf58f41	-0.029975535
209	0xbcd918e9	-0.026501136
210	0xbc64a17f	-0.013954519
211	0x3ddee8e3	0.10884263
212	0x3c2c0d18	0.010501169
213	0xbf407974	-0.7518532
214	0x3d5d6eb0	0.054060638
215	0xbcf967e2	-0.030445043
216	0xbd17f3cc	-0.037097737
217	0x3cd0d2e8	0.025491193
218	0xbd03cdda	-0.032178737
219	0x3d102d3d	0.035199393
220	0xbf07e0c3	-0.53077334
221	0x3b69d120	0.0035677627
222	0xbbf9b930	-0.007620953
223	0xbf7b208a	-0.98096526
224	0xbc4eab5f	-0.0126141
225	0xbd2c7fe0	-0.04211414
226	0xbd49de10	-0.04928404
227	0x3c8a1642	0.016856316
228	0xbd691518	-0.056904882
229	0xbd113ea0	-0.035460114
230	0x3d244350	0.040103257
231	0xbd1dc2ea	-0.038515963
232	0x3ecc972a	0.3995908
233	0xbd095ea6	-0.03353753
234	0xbcaba76c	-0.020953856
235	0x3eff0083	0.49805078
236	0xbceb120e	-0.028695133
237	0x3f62e7e8	0.8863511
238	0xbd030e1f	-0.03199589
239	0x3c3e4ba0	0.01161471
240	0xbd6c3a8e	-0.05767303
241	0x3d8218d9	0.063523956
242	0x3d5cc7fc	0.053901657
243	0x3cd5f535	0.0261179
244	0x3f0f6aed	0.5602253
245	0xbbe679a4	-0.0070335437
246	0x3c7c0131	0.015381143
247	0x3cbd50bd	0.023109788
248	0xbda5604b	-0.08075007
249	0x39f7ed00	0.0004728809
250	0xbd12b148	-0.0358136
251	0x3c5e01f7	0.013550273
252	0x3d45f3f5	0.04832836
253	0xbcd46c75	-0.025930623
254	0xbbbf92d0	-0.005846359
255	0x3ebe3448	0.37149262

linear4.weight f4 [256, 256]
0	0x3dba155d	0.09086106
1	0x3d8439ee	0.06456362
2	0x3d7617fc	0.060081467
3	0xbd140ef7	-0.036147084
4	0x3d17e88c	0.03708701
5	0xbcd1bf14	-0.025603808
6	0x3d4f7fc7	0.050658967
7	0x3c8fb8bb	0.017544141
8	0xbd953947	-0.072863154
9	0x3d7cbc18	0.061702818
10	0x3cacb390	0.021081716
11	0x3c9be665	0.01903076
12	0x3c71093d	0.014711675
13	0xbc449fe5	-0.012001012
14	0xbd418cb4	-0.047253326
15	0x39d7afbb	0.00041138925
16	0x3ccbbaac	0.024869286
17	0xbd05eb71	-0.032695238
18	0x3c9fb7e8	0.019496873
19	0xbd35bc20	-0.044368863
20	0xbd4a202c	-0.049347088
21	0x3d5b084c	0.05347471
22	0x3aed11cd	0.001808697
23	0x3cee9085	0.029121647
24	0xbc72c663	-0.014817807
25	0x3cfd2f4b	0.03090634
26	0x3d1dc630	0.038519084
27	0xbd03291c	-0.032021627
28	0xbc89e6c0	-0.016833663
29	0xbd745e44	-0.05966021
30	0xbcd0ead0	-0.025502592
31	0x3d5f6824	0.054542676
32	0x3d635cd6	0.055508457
33	0x3b8f8070	0.0043793246
34	0x3d8c8310	0.06860936
35	0xbd4ce61a	-0.05002413
36	0x3c638a10	0.013887897
37	0xba8ea303	-0.0010882322
38	0x3c965ade	0.018353876
39	0xbc6f7ba0	-0.014616877
40	0x3c265f25	0.01015452
41	0xbbbdf18a	-0.005796616
42	0x3d10b1c0	0.035325766
43	0x3d634622	0.055486806
44	0x3c0b752d	0.008511824
45	0x3be0a037	0.0068550366
46	0x3b4729bd	0.0030389868
47	0x3c064c4a	0.0081969
48	0x3c276fff	0.010219573
49	0xbd0e35d8	-0.03471932
50	0x3ca0a4bb	0.0196098
51	0x3d6d4468	0.057926565
52	0x3cdf0200	0.027222633
53	0xbd728ce2	-0.059216388
54	0x3d37f1be	0.044908278
55	0xbcab99ea	-0.020947415
56	0xbd1098fc	-0.035302147
57	0xbcd681f4	-0.026185013
58	0xbbfec46d	-0.0077748806
59	0xbc663b98	-0.014052294
60	0xbc2b118c	-0.010441195
61	0xbcc69fb7	-0.02424608
62	0xbb871ef5	-0.0041235634
63	0x3cc4fc0c	0.024045967
64	0x3d4d945e	0.050190322
65	0xbd65a59c	-0.05606614
66	0x3cb3a425	0.021928856
67	0x3c1b96ca	0.0094964
68	0x3d0f37bb	0.034965258
69	0x3d5d0283	0.053957473
70	0xbcf6a644	-0.030108579
71	0xbcc38c54	-0.023870625
72	0xbc853d25	-0.016264508
73	0xbd1235f6	-0.035695992
74	0x3d260ba0	0.04053843
75	0x3d37917d	0.044816483
76	0x3c908cef	0.017645327
77	0x3d464a4c	0.0484107
78	0xbe0006aa	-0.12502542
79	0xbd2f4a0d	-0.04279523
80	0xbd699df6	-0.05703541
81	0x3c309fae	0.010780258
82	0xbcf3d8e0	-0.0297665
83	0xbce3a890	-0.027790338
84	0x3d16308d	0.036667395
85	0xbb493730	-0.003070306
86	0xbbb203b1	-0.005432569
87	0xbc45b3a3	-0.0120667545
88	0x3d34c71c	0.044135198
89	0x3c9f1fbc	0.019424312
90	0xbd51bbd6	-0.051204525
91	0x3dc3ce64	0.0956085
92	0xbd806f1a	-0.06271191
93	0x3bf9aee1	0.007619724
94	0x3d21f9ab	0.039544743
95	0xbc812684	-0.015765436
96	0x3d77d32b	0.06050412
97	0x3cdf2849	0.02724089
98	0x3d2cafaf	0.042159732
99	0x3c55cdf8	0.013049595
100	0xb9b8ad19	-0.00035224183
101	0x3d4bf881	0.04979754
102	0x3d90c1e8	0.07068235
103	0xbd0c5907	-0.03426459
104	0xbd7af7b5	-0.061271388
105	0xbb4afd38	-0.0030973684
106	0x3dc2f9ea	0.095203236
107	0x3daab60c	0.08335504
108	0x3cdd50a4	0.027015992
109	0xba8319e2	-0.001000222
110	0x3cd572c1	0.026055695
111	0xbcc4dee9	-0.024032073
112	0xbd229eea	-0.039702334
113	0x3d446f6a	0.047957815
114	0xbabd2eb1	-0.0014433471
115	0x3b745ba0	0.0037286058
116	0xbc0dccb0	-0.008654758
117	0xbd94a410	-0.07257855
118	0x3c84446c	0.016145907
119	0x3cc2842b	0.023744663
120	0xbcb6f3a8	-0.022332981
121	0x3bd86c0c	0.006604677
122	0xbcebb438	-0.028772458
123	0xbd447066	-0.047958754
124	0x3cca2718	0.024676844
125	0xbc2e17b6	-0.01062577
126	0xbd603349	-0.05473641
127	0xbd22bb1e	-0.03972923
128	0x3cfbe79f	0.030750094
129	0xbd24a924	-0.040200368
130	0x3d8a4134	0.06750718
131	0xbd14d706	-0.036337875
132	0x3c6b698a	0.014368424
133	0x3c9cd004	0.019142158
134	0x3bf2ec92	0.0074134553
135	0xbd4980b5	-0.04919501
136	0x3d55910a	0.052140273
137	0x3d4f66bb	0.05063508
138	0xbc7ef593	-0.015561479
139	0xbce0c45d	-0.027437383
140	0xbd568b2f	-0.05237883
141	0x3c2a70cb	0.0104028685
142	0x3dac6476	0.08417599
143	0xb94e191d	-0.00019655046
144	0x3d5eb77d	0.054374207
145	0xbc80e254	-0.015732922
146	0x3d5e7606	0.054311775
147	0x3d3d8a5f	0.04627454
148	0x3c9ba9a7	0.019001795
149	0xbca06255	-0.019578138
150	0xbe0fedc4	-0.14055544
151	0x3d3f5be8	0.046718508
152	0x3c9d1933	0.019177055
153	0x3a5c2047	0.00083971437
154	0x3d688422	0.056766637
155	0xbda73fae	-0.08166443
156	0x3caea240	0.021317601
157	0xbcf986e4	-0.030459829
158	0xbd4d423c	-0.050111994
159	0x3da8744f	0.08225309
160	0x3d3aa30b	0.045565646
161	0x3d59e1dd	0.053193916
162	0xbcbef5a1	-0.023310484
163	0xbb9e8f40	-0.004838854
164	0x3e1b27f2	0.15151957
165	0x3d45568d	0.048178244
166	0xbda64d50	-0.08120215
167	0xbd36df84	-0.044646755
168	0xbd5d33ef	-0.054004606
169	0x3d91cd5e	0.07119249
170	0xbd135503	-0.035969745
171	0xbb32724b	-0.0027228768
172	0x3cd05ae4	0.025433965
173	0xbd2472d7	-0.040148582
174	0xbd5371e4	-0.051622286
175	0x3a8c8b46	0.0010722659
176	0x3bb241fd	0.0054399953
177	0x3cf1c1ee	0.029511418
178	0x3d7a5d88	0.061124355
179	0x3d0da1e6	0.034578227
180	0x3d63b2fd	0.05559062
181	0xbd251074	-0.040298894
182	0xbd776666	-0.06040039
183	0xbcde5fa8	-0.027145222
184	0x3d914c47	0.07094627
185	0xbe433bc3	-0.19065766
186	0x3c2b0005	0.010437016
187	0xbcb09cd7	-0.021559162
188	0x3cdf0d21	0.02722794
189	0x3ccf30ef	0.025291888
190	0xbaabae5b	-0.0013098227
191	0xbc004d49	-0.007830926
192	0x3d03129c	0.03200017
193	0x3d1c01a1	0.03808749
194	0xbcb80c46	-0.02246679
195	0x3d709e8a	0.058744945
196	0xbd2e7b49	-0.042598043
197	0x3c023d61	0.007949204
198	0xbd0da741	-0.034583334
199	0xbdc01f58	-0.09380978
200	0x3cc7d009	0.024391191
201	0x3d471e6d	0.048613
202	0x3d78c17e	0.060731404
203	0xbc30ef49	-0.0107992375
204	0x3d84e7bb	0.064895116
205	0xbcc704c3	-0.024294263
206	0xbc2e8094	-0.010650773
207	0x3e14f066	0.1454483
208	0x3d4b59ed	0.049646307
209	0x3d6ac333	0.057315063
210	0xbd57c995	-0.052682478
211	0xbe2f5aab	-0.17124431
212	0xbd25a4fa	-0.040440537
213	0x3c04278e	0.008066071
214	0x3cc652b4	0.024209358
215	0xbd7ffe48	-0.06249836
216	0x3c0d9eb8	0.0086437985
217	0xbcc59f1c	-0.02412372
218	0x3d4065b4	0.04697199
219	0x3d25b1f8	0.040452927
220	0xbe86d129	-0.26331452
221	0x3cd57634	0.02605734
222	0x3c96bb71	0.018399926
223	0x3d5bc9b7	0.053659167
224	0x3d1b37a0	0.037894845
225	0x3c14bdb7	0.009078435
226	0x3d1913ef	0.037372526
227	0xbc449842	-0.011999192
228	0xbcd38100	-0.025818348
229	0x3c339e60	0.0109630525
230	0x3d3a1e22	0.045438893
231	0xba0acd00	-0.00052948296
232	0xbd1c1b02	-0.038111694
233	0x3d51b6e9	0.051199827
234	0xbd2e0fa0	-0.04249537
235	0x3d1ff1a8	0.03904882
236	0xbcb16c90	-0.021658212
237	0x3dc738a1	0.09727598
238	0xbd6eef4f	-0.05833369
239	0xbd7f0854	-0.0622638
240	0xbb0a2d71	-0.0021084214
241	0xbdb52058	-0.0884406
242	0x3ce473fc	0.027887337
243	0x3d3434b1	0.043995563
244	0xbd0a0d10	-0.033703864
245	0x3d14cfea	0.036331095
246	0xbcaf557c	-0.021403067
247	0xbd1e6539	-0.038670752
248	0xbc476685	-0.012170439
249	0x3c31de18	0.010856174
250	0xbcad67f0	-0.021167725
251	0x3ce3da9b	0.0278142
252	0x3cde24d0	0.027117163
253	0xbd2030fa	-0.039109208
254	0xbc9f41e3	-0.019440597
255	0xbcb884c3	-0.022524243

linear4.bias f4 [256]
0	0x3f01b720	0.5067005
1	0xbed51645	-0.41618553
2	0x3e578a16	0.2104877
3	0xbe208f42	-0.15679649
4	0x3f0869aa	0.5328623
5	0x3e71a317	0.2359737
6	0xbcb8c2f3	-0.022553897
7	0x3cb8d052	0.022560272
8	0x3f199ad4	0.60001874
9	0x3cf98a13	0.030461347
10	0xbeb89e6e	-0.36058372
11	0x3e6f19f7	0.23349749
12	0xbc689192	-0.014194863
13	0x3e81d5a6	0.25358313
14	0xbdf310ea	-0.118684605
15	0xbd17ea02	-0.0370884
16	0xbe3341d2	-0.17505577
17	0xbe30dd87	-0.17272006
18	0xbeb45213	-0.35218868
19	0xbeb98d4f	-0.36240622
20	0xbd428245	-0.047487516
21	0x3e1e9210	0.15485406
22	0x3d7fe745	0.062476415
23	0x3f150253	0.5820667
24	0xbe4a4fd5	-0.19757016
25	0xbdafde2a	-0.08587296
26	0x3e0f4da6	0.13994464
27	0xbe9606aa	-0.2930196
28	0x3e520873	0.20511036
29	0xbee902c2	-0.45509917
30	0x3dbd8e5f	0.09255671
31	0xbf31ff47	-0.6953015
32	0xbeab2a1c	-0.33430564
33	0xbef30dc8	-0.47471452
34	0xbe3e0d24	-0.185597
35	0xbdc9736d	-0.09836469
36	0xbe7552f3	-0.23957424
37	0xbd40c088	-0.047058612
38	0xbd8c13b0	-0.068396926
39	0xbe4c11cd	-0.19928665
40	0xbd175d91	-0.036954466
41	0x3ba51dc5	0.005038949
42	0xbc80a157	-0.015701933
43	0xbd42d7b6	-0.047569
44	0xbf316b7a	-0.6930462
45	0x3f103307	0.5632786
46	0x3d1b6c0b	0.037944835
47	0xbf39f308	-0.7263646
48	0x3f1d04f5	0.6133569
49	0xbd69cce2	-0.057080157
50	0xbf253e4d	-0.6454819
51	0xbf14ef23	-0.58177394
52	0x3d9d0bee	0.07668291
53	0xbed07d05	-0.40720382
54	0x3d674be1	0.05646885
55	0xbd29dc2f	-0.04146975
56	0x3f0ea5bc	0.5572164
57	0xbe916656	-0.2839839
58	0x3f11f9b5	0.5702165
59	0x3b0c46fe	0.002140462
60	0xbe05f2af	-0.13080858
61	0xbf116a4c	-0.5680282
62	0xbd9f1806	-0.07768254
63	0x3e90b44a	0.2826255
64	0xbb4fa108	-0.0031681675
65	0xbf318a19	-0.69351345
66	0xbd8f892e	-0.07008587
67	0x3edf62e1	0.43630126
68	0xbf24283c	-0.6412389
69	0x3d087632	0.033315845
70	0x3e636fa9	0.22210564
71	0xbeb038d1	-0.34418347
72	0xbd74739f	-0.059680577
73	0xbe080273	-0.13282184
74	0xbea66207	-0.32496664
75	0xbc491d0b	-0.012274991
76	0x3ed33f43	0.41259202
77	0xbd1f5c93	-0.038906645
78	0x3e342708	0.17593014
79	0xbe9d1f19	-0.30687788
80	0xbcc158b9	-0.023601877
81	0x3e18f939	0.14938821
82	0xbe08451b	-0.13307612
83	0x3e900b78	0.2813375
84	0xbf3694b6	-0.71320665
85	0x3e804194	0.25050032
86	0x3f04a397	0.5181212
87	0xbef166c4	-0.47148716
88	0x3ec05eec	0.3757242
89	0xbdc54f74	-0.09634295
90	0xbd872dd0	-0.06600535
91	0xbda6112b	-0.08108743
92	0x3c66cee4	0.0140874125
93	0x3e8ffe29	0.28123596
94	0xbd731ca2	-0.05935348
95	0x3d745e44	0.05966021
96	0x3bd146b7	0.0063866037
97	0xbf1788de	-0.5919322
98	0x3a38b6f5	0.00070463057
99	0xbca60156	-0.020264309
100	0x3df9b624	0.12192944
101	0xbd03e648	-0.032202035
102	0x3d2a0cc8	0.041516095
103	0x3d77514e	0.060380273
104	0xbba6403d	-0.005073576
105	0xbdc37adb	-0.09544917
106	0x3d57f8e4	0.052727595
107	0xbd6b4f43	-0.057448637
108	0x3e6968da	0.22793904
109	0x3f2c6617	0.67343277
110	0xbf0bf719	-0.54673916
111	0x3eb909ec	0.36140382
112	0x3f16e122	0.58937275
113	0x3c84e2c9	0.01622142
114	0x3ea99588	0.33121896
115	0xbdd20281	-0.10254384
116	0xbedf1c83	-0.4357644
117	0xbf20d4c2	-0.6282464
118	0x3f110241	0.56644064
119	0xbddd73b2	-0.10813083
120	0x3c04de90	0.008109704
121	0xbe71672c	-0.23574513
122	0x3f0644fa	0.52449
123	0xbee8b85a	-0.4545315
124	0xbec107c0	-0.37701225
125	0xbf3ec09e	-0.7451266
126	0x3f2f4b96	0.6847471
127	0x3e882146	0.26587886
128	0xbdb7125c	-0.08939049
129	0xbf8c6f11	-1.0971395
130	0xbf0b5000	-0.54418945
131	0x3d852a23	0.065021776
132	0xbe9ee186	-0.31031436
133	0x3d4d7e97	0.050169554
134	0xbecc5748	-0.3991034
135	0xbf16d203	-0.589142
136	0xbc9248db	-0.017857006
137	0x3f057561	0.5213223
138	0x3b4a54f1	0.0030873383
139	0x3ec1dd60	0.37864208
140	0xbeec7730	-0.46184683
141	0x3e3f2677	0.18667017
142	0xbdbd900e	-0.09255992
143	0xbf1d4c1b	-0.6144425
144	0xbca7d6a7	-0.020488096
145	0xbd0c881a	-0.034309484
146	0x3e78cc20	0.24296618
147	0xbb2c67a8	-0.00263069
148	0x3db8cec6	0.09023814
149	0x3e03947a	0.12849608
150	0x3ed9866e	0.42485374
151	0x3d4ee56c	0.050511762
152	0x3dc73200	0.097263336
153	0x3ddca5f8	0.107738435
154	0x3f1f7ecf	0.6230287
155	0x3d0941ce	0.033510022
156	0xbd866bab	-0.06563505
157	0xbe606e3e	-0.21917054
158	0xbf29f251	-0.6638537
159	0x3de3d0f5	0.1112384
160	0x3f4a915a	0.7912804
161	0x3eede355	0.46462503
162	0xbe772bf1	-0.24137856
163	0xbe99b726	-0.30022544
164	0xbd8079e5	-0.062732495
165	0xbeb15929	-0.34638336
166	0xbd81dc05	-0.063407935
167	0x3dc6131b	0.09671613
168	0x3e7ed5a8	0.24886191
169	0x3c2b5aae	0.010458631
170	0x3e6cc5bf	0.23122309
171	0x3e32a8fd	0.17447276
172	0x3e74e399	0.23914947
173	0x3f093e4d	0.5361069
174	0x3d3a7e0b	0.04553036
175	0x3dcfb7d9	0.10142488
176	0xbe5c686d	-0.2152421
177	0xbd91982d	-0.07109103
178	0xbf2b6475	-0.6695016
179	0x3e8b8496	0.27249593
180	0x3c6176f0	0.013761267
181	0xbdb16809	-0.08662421
182	0x3db0efa6	0.08639459
183	0xbedd1a29	-0.4318402
184	0x3eb9f065	0.3631622
185	0xbd1a1075	-0.03761335
186	0xbb863166	-0.004095244
187	0xbf016628	-0.50546503
188	0xbd49cf14	-0.04926975
189	0xbb1bac3f	-0.002375379
190	0xbda37d80	-0.079829216
191	0xbe1923e5	-0.14955099
192	0xbda7fa00	-0.082019806
193	0xbd8f4d84	-0.06997207
194	0xbe5ffb28	-0.21873152
195	0xbea729c4	-0.32649052
196	0x3de2b0bd	0.110688664
197	0xbde0d1e6	-0.10977535
198	0xbf3c4fe3	-0.735594
199	0x3f3195c7	0.6936917
200	0x3b93c594	0.004509637
201	0xbbdcb185	-0.006735029
202	0xbf3bb382	-0.7332078
203	0xbdf90885	-0.12159828
204	0x3e5a9e01	0.21349336
205	0xbd9e0525	-0.07715825
206	0xbf15a780	-0.5845871
207	0x3f1530e0	0.582777
208	0x3d81e281	0.0634203
209	0xbeeded5b	-0.4647015
210	0xbe864eb5	-0.26231924
211	0xbd8964bc	-0.06708667
212	0xbedc65fe	-0.43046564
213	0x3f3d8797	0.7403502
214	0xbee45f45	-0.44603935
215	0x3ee18122	0.44043833
216	0x3e0e1f39	0.13879098
217	0x3ec2f067	0.38074037
218	0x3db23218	0.08700961
219	0xbf178963	-0.5919401
220	0x3ba64b1e	0.0050748726
221	0x3e857a92	0.26070076
222	0x3f22504b	0.6340377
223	0xbeee5bc3	-0.46554384
224	0x3f1d489a	0.61438906
225	0xbcdd0d7e	-0.026983973
226	0x3e9ef6ba	0.31047612
227	0x3d957c28	0.072990716
228	0x3c913fb1	0.017730566
229	0x3dc1f85d	0.094712
230	0x3dcd4688	0.100232184
231	0xbe5b4922	-0.21414617
232	0x3e1896a9	0.14901222
233	0x3e2903f2	0.16505411
234	0xbe019abe	-0.12656686
235	0xbf02d129	-0.51100403
236	0xbe8593ac	-0.26089227
237	0xbf116c50	-0.56805897
238	0x3ec3d4bb	0.38248238
239	0xbd0746fe	-0.033026688
240	0x3dcf0115	0.10107628
241	0x3d1eb45a	0.038746215
242	0x3e056f3b	0.13030712
243	0x3e7d7b97	0.24754177
244	0x3ecf62ce	0.4050507
245	0x3d204e91	0.039137427
246	0xbf26dec0	-0.6518364
247	0xbcf67224	-0.030083723
248	0xbefb8d0b	-0.49131045
249	0x3f07e055	0.5307668
250	0x3d010061	0.031494502
251	0x3e9264a9	0.28592423
252	0xbd3ce8e7	-0.04612055
253	0xbe9976b0	-0.29973364
254	0x3d384238	0.044985026
255	0x3cc3f7b2	0.023921821

linear3.weight f4 [1, 256]
0	0x3e6c4c31	0.2307594
1	0x3e92a844	0.28644
2	0x3df1f2e5	0.118139066
3	0xbe52cdbe	-0.20586297
4	0xbe21bce7	-0.15794717
5	0xbf32efcd	-0.69897157
6	0x3d109d29	0.03530613
7	0x3d6a563d	0.05721115
8	0x3e085715	0.13314469
9	0x3f3667bb	0.7125203
10	0xbcd2e5f4	-0.025744416
11	0x3d90ee23	0.07076671
12	0xbd6f8001	-0.058471683
13	0xbe8b83b6	-0.27248925
14	0x3c661e22	0.01404527
15	0x3e5709d6	0.20999846
16	0x3e59d3ff	0.21272276
17	0xbae8af31	-0.0017752406
18	0xbfd0aa4f	-1.6301974
19	0xbdb6bdd8	-0.089229286
20	0xbd81eeb5	-0.06344358
21	0xbed985ba	-0.42484838
22	0x3f037883	0.5135576
23	0x3ec55793	0.38543376
24	0x3e571f45	0.21008022
25	0x3ef9b9ff	0.48774716
26	0x3eb4ebeb	0.3533624
27	0x3ef89da1	0.4855776
28	0xbe7299f1	-0.23691536
29	0xbd91675f	-0.070997946
30	0x3e9a5772	0.3014484
31	0xc085d88a	-4.182683
32	0xbe9b7b76	-0.3036763
33	0xbe7041ee	-0.2346265
34	0x3a994726	0.0011694178
35	0x3a8091a8	0.0009809034
36	0x3ec9828d	0.39357415
37	0xbe958e67	-0.29210207
38	0x3e5cc5bd	0.21559806
39	0xbe68b140	-0.22723866
40	0xbb2e289c	-0.0026574498
41	0x3e9dde0a	0.30833465
42	0x3d3e34a8	0.046436936
43	0xbf0cfefe	-0.5507659
44	0xbf4c239c	-0.79741836
45	0x3f8086ae	1.0041101
46	0xbdae1935	-0.085009016
47	0xbf2361f3	-0.63821334
48	0x3f9925f3	1.1964706
49	0x3e597452	0.21235779
50	0xbf84a96a	-1.0364201
51	0x3df96137	0.121767454
52	0x3fa1f035	1.265143
53	0x3e206efb	0.15667336
54	0x3e9d994f	0.30781028
55	0xbd955ed1	-0.072934754
56	0x3e5d319f	0.2160096
57	0x3ead558c	0.3385433
58	0xbedb3cfd	-0.42819968
59	0xbecb55b4	-0.39713824
60	0x3e8df668	0.27727056
61	0xbe8d4e13	-0.27598628
62	0x3d5f3c5d	0.054500926
63	0x3fa7220b	1.3057264
64	0x3ac9dfaf	0.0015401746
65	0x3e880a9e	0.265706
66	0x3b487e7a	0.0030592964
67	0xbd2d0f45	-0.04225089
68	0xbf861b00	-1.047699
69	0xbe30f6a5	-0.17281587
70	0xbe896aef	-0.26839396
71	0x3f140191	0.5781489
72	0x3b13cb26	0.0022551506
73	0x3c35968c	0.011083256
74	0x3f0acb72	0.5421668
75	0xbce50e5a	-0.027960945
76	0xbdb6a9e8	-0.08919126
77	0x3ac906ad	0.0015337073
78	0xbf1f868a	-0.62314665
79	0xbe9b8efa	-0.3038252
80	0xbe890718	-0.26763225
81	0xbea8b16f	-0.3294787
82	0x3e03cfe9	0.1287228
83	0x3e0f0908	0.13968289
84	0xbef0fce3	-0.47067937
85	0x3e291148	0.16510499
86	0xbe285171	-0.16437317
87	0xbea34386	-0.31887454
88	0xbe24c859	-0.16092052
89	0xbd6cdf2f	-0.057830032
90	0xbaf6c72c	-0.0018827668
91	0xbac8e1ea	-0.0015326117
92	0xbe885f02	-0.26634985
93	0x3f2de6f9	0.6793056
94	0xba04dc9c	-0.0005068274
95	0xbd259161	-0.040421847
96	0xba7cb4f1	-0.00096399995
97	0xbe70313d	-0.23456283
98	0xbdcfeab9	-0.10152192
99	0x3fd0d8f3	1.6316208
100	0x3f8701d5	1.0547434
101	0xbde99f61	-0.11407352
102	0x3e8539a3	0.26020536
103	0x3dd5c79b	0.10438462
104	0x3fad6d07	1.3548898
105	0x3efcdf0d	0.49388924
106	0xbe040bd8	-0.12895143
107	0x3ecdb1bf	0.40174672
108	0xbdd44036	-0.1036381
109	0x3e5a96cb	0.21346585
110	0xbf412dbf	-0.7546043
111	0xbdb87753	-0.09007134
112	0x3f22f49b	0.6365449
113	0x3e4800b6	0.19531521
114	0xbe532d16	-0.20622668
115	0xbdf71bc5	-0.120658435
116	0xbd6d28c9	-0.057900224
117	0xbe23640c	-0.15956134
118	0xbdc76816	-0.0973665
119	0xbe7822fe	-0.24232098
120	0x3b95981e	0.004565253
121	0x3e311a1d	0.17295118
122	0x3ef18c38	0.4717729
123	0xbe0cde28	-0.13756621
124	0x3e12d2e4	0.14338261
125	0xbf37b51f	-0.71760744
126	0x3f7afd2f	0.9804258
127	0xbdb66a6c	-0.08907017
128	0xbd06ba91	-0.032892767
129	0x3f689e00	0.9086609
130	0xbe52caf0	-0.20585227
131	0x3fa80015	1.3125025
132	0x3ead2a1e	0.33821195
133	0xbe693e62	-0.22777703
134	0xbe11c420	-0.14234972
135	0xbfbdf77f	-1.4841155
136	0xbebf7705	-0.37395492
137	0x3e308090	0.17236543
138	0xbe895bb9	-0.2682779
139	0xbd6a3f66	-0.057189368
140	0x3da6345c	0.081154555
141	0x3f16a044	0.58838296
142	0xbdbcae2b	-0.092129074
143	0x3ea3cdc9	0.3199294
144	0x3b0b34cf	0.0021241193
145	0xbabca51e	-0.001439247
146	0x3e8714a5	0.26382938
147	0x3e4aac9e	0.1979241
148	0x3fa77a83	1.3084263
149	0xbe6679c4	-0.22507387
150	0x3e69d53a	0.22835246
151	0x3d9a883f	0.07545518
152	0xbe5f97b2	-0.21835211
153	0x3fe44b4b	1.7835478
154	0x3e932e3d	0.28746215
155	0xba3c9847	-0.0007194322
156	0xbe7edf48	-0.24889863
157	0x3dd9f192	0.10641779
158	0xbfcdcb79	-1.607772
159	0x3f7aca84	0.97965264
160	0x3fb01593	1.3756584
161	0x3e61d2d0	0.22053075
162	0xbf4ad861	-0.7923642
163	0x3e27e66c	0.16396493
164	0x3a400194	0.0007324454
165	0x3f03af57	0.5143942
166	0x3bb20beb	0.0054335496
167	0xbe98f206	-0.2987215
168	0xbdba900e	-0.091095075
169	0xbb34c55a	-0.002758345
170	0xbeba109a	-0.3634079
171	0xbe28a264	-0.16468197
172	0x3eb973b5	0.3622109
173	0x3f0df82d	0.5545681
174	0x3e5c9960	0.21542883
175	0x3f652587	0.8951039
176	0x3e234d9b	0.15947573
177	0x3d9b6f46	0.07589583
178	0xbe93bd89	-0.2885554
179	0x3f0fa264	0.56107163
180	0x3b3cf80e	0.0028834376
181	0xbce31276	-0.027718764
182	0x3f062276	0.52396333
183	0xbe73b122	-0.2379804
184	0x3e7ecc23	0.2488256
185	0x3e354e14	0.17705566
186	0x3bbb6884	0.0057192463
187	0xbc27bd7c	-0.010238048
188	0xbb31e595	-0.0027144898
189	0x3ee4837d	0.44631568
190	0xbeafc683	-0.3433114
191	0x3d30dcd2	0.04317934
192	0xbc659fdd	-0.014015165
193	0xbe637baf	-0.2221515
194	0x3e18dbb2	0.14927557
195	0x3da6142b	0.081093155
196	0xbcb0091b	-0.021488717
197	0x3ecf7057	0.40515396
198	0xc033968b	-2.8060634
199	0x3fccc653	1.5998024
200	0xbe6f1ce5	-0.23350866
201	0x3e2be94a	0.16788211
202	0x3f01ca13	0.50698966
203	0xbe5888bb	-0.21145909
204	0x3f947048	1.1596766
205	0x388832f2	6.494475e-05
206	0x3e7337c7	0.23751746
207	0x3e942717	0.28936073
208	0x3ae82e4e	0.0017713995
209	0xbe90b688	-0.2826426
210	0x3e97bcbc	0.2963618
211	0x3e168f31	0.1470306
212	0x3e77aec0	0.24187756
213	0x3eca29e0	0.39485073
214	0x3e885e8e	0.2663464
215	0x3d58afb2	0.05290193
216	0x3e4214f4	0.18953305
217	0xbd8d5a6c	-0.06902012
218	0x3e532efa	0.20623389
219	0xbe192e5b	-0.1495909
220	0xbab072f1	-0.001346199
221	0x3e35d933	0.17758636
222	0x3e4ec3b5	0.20191844
223	0xbe0d5308	-0.13801205
224	0x3e41a146	0.18909177
225	0xbdd6d84c	-0.10490474
226	0x3fba0927	1.4534043
227	0xbe86952f	-0.26285693
228	0xba355b4d	-0.0006918207
229	0x4007eeb3	2.123944
230	0xbe729289	-0.23688711
231	0x3f26d3d0	0.6516695
232	0xbe365e71	-0.17809464
233	0x3e84935f	0.25893685
234	0xbe960646	-0.2930166
235	0xbe473665	-0.19454344
236	0xbd85f593	-0.0654098
237	0x3e05e1e6	0.13074455
238	0xbdac2a45	-0.084065
239	0x3ed1e4cf	0.4099488
240	0xbde23190	-0.110446095
241	0x3f333267	0.6999878
242	0xbebf7f87	-0.37401983
243	0x3e500405	0.20314033
244	0xbed96fe9	-0.42468193
245	0xbedfcc24	-0.43710434
246	0x3e912e64	0.28355706
247	0xbeb337d1	-0.35003522
248	0xbf3af32b	-0.73027295
249	0x3ee7082f	0.4512343
250	0x3f784c5a	0.96991503
251	0x3eb2aaf0	0.3489604
252	0xbe19bd00	-0.15013504
253	0xbd7f1911	-0.062279765
254	0xba7a30b0	-0.0009543998
255	0xbd8232ac	-0.06357321
