outputs/Optimal_Control/20220401-235434/models/checkpoint.pt (torch, 533487 bytes, 7 tensors)

linear1.weight f4 [256, 2]
0.3895445 -0.8648784 -0.15436351 -0.4294378 0.29904765 0.1467192 0.07239225 0.13809378
-0.30660012 -0.6261372 0.3907259 0.39090085 -0.12030345 -0.37921196 -0.6936206 0.08635062
0.31272304 -0.7055983 0.421313 0.46724635 -0.30015847 -0.030482352 0.14391565 0.2095134
0.056361187 -0.10919394 0.5489223 0.46614295 0.11920944 -1.5991337 -0.23490645 0.6831683
-0.58778083 0.27051955 0.3503722 0.41076896 -0.23423743 -0.48269606 -0.5371787 -0.37704983
0.57884204 -0.22330803 0.34230062 -0.56719184 -0.13684118 -0.059919655 0.4200747 0.59300035
0.5308718 -0.4798568 -0.15817636 -0.38478604 0.4854369 -0.21096745 0.16886409 0.3639806
0.046352986 -0.05790281 0.12722442 -0.6160653 -0.13095233 0.57504916 -0.43009079 -0.35246423
-0.0589925 0.28686923 -0.63893586 -0.65344524 -0.57089573 0.3797105 0.37832743 0.05980848
0.21076171 -0.642687 -0.2907439 0.6333462 -0.325234 -0.46109638 -0.2531533 0.74220157
0.4990883 -0.5334942 0.11329628 -0.18910189 0.36632186 -0.029715223 -0.56918645 -0.38693446
0.053130757 0.26128495 0.1834598 -0.011951309 0.09171658 0.35162634 0.27256864 -0.4989479
-0.07353755 0.34674945 0.35116985 -0.2587511 0.18163538 -0.44080114 0.00025749207 -0.5796117
-0.31107366 0.29604238 0.18078741 0.40355626 0.43923986 0.48263136 -0.118869424 -0.5497816
0.58245903 0.051827233 -0.44449845 0.067655325 -0.59655803 -0.45928127 0.10354034 0.0073749744
0.6116214 -0.56134486 0.27947748 -0.5182398 -0.6207208 0.19958723 -0.115334824 0.11663793
0.25617993 0.11997627 0.1866116 0.30257294 -0.32033435 0.06337249 -0.56579715 -0.18969119
0.18459767 -0.45738822 0.39998218 -0.73816687 -0.41252938 -0.6423589 -0.14225733 -0.017792523
0.095988296 0.43776795 0.4728771 -0.49664846 0.41148484 -0.42340398 -0.32997897 0.08403593
-0.5288581 0.2575332 -0.3412481 0.11510247 0.28996795 -0.6716116 0.16318946 -0.53929377
0.15715477 -0.29745284 0.5597033 -0.13828212 0.33393508 0.07918589 -0.58056694 -0.6433621
-0.33306167 -0.0473969 0.54334337 -0.64781815 0.1563054 -0.53467274 0.2529613 0.27861214
-0.60340446 -0.37851822 0.09781301 -0.14116512 0.33160144 0.49983907 -0.64136416 -0.43654305
0.29455987 -0.8500352 -0.07187343 -0.2882987 -0.29413283 0.11297083 -0.3532844 -0.6807992
0.42790124 -0.072466016 0.28026074 -0.0051303776 -0.6703706 -0.15698206 -0.10318577 -0.68756133
-0.5205226 0.0018436909 -0.35318637 -0.47262597 -0.41617846 -0.43085214 0.4275178 0.50879854
-0.53009236 -0.6969984 -0.34545588 0.19320393 0.50553435 -0.13826296 0.25943938 -0.56163394
-0.104660265 0.2710203 -0.5193704 -0.29851744 -0.29126027 0.30210412 -0.64795184 -0.42076048
0.39643067 0.41201693 -0.2558027 0.495409 -0.07186442 0.7789296 -0.20709834 0.51816005
0.0016116315 0.32341465 0.008057635 0.5381874 0.00023441472 0.47110352 -0.007440865 -0.10305011
0.41345397 0.14017151 0.4048156 0.35823187 0.156087 -0.24493136 -0.35377184 0.70040077
-0.53792 0.24226129 -0.673749 -0.17283082 -0.51192135 0.02916038 0.0009459351 0.14469883
00000000: 6072 c73e ac68 5dbf 7811 1ebe 45df dbbe
00000010: c61c 993e 8f3d 163e 6342 943d 7568 0d3e
00000020: b1fa 9cbe 874a 20bf 3a0d c83e 2824 c83e
00000030: a861 f6bd 1228 c2be 1f91 31bf 98d8 b03d
00000040: 3c1d a03e 17a2 34bf 56b6 d73e ea3a ef3e
00000050: 5fae 99be 20b6 f9bc a05e 133e ae8a 563e
00000060: fdda 663d 13a1 dfbd 2c86 0c3f 4aaa ee3e
00000070: 1424 f43d 6ab0 ccbf 518b 70be 1ee4 2e3f
00000080: ce78 16bf 8a81 8a3e fc63 b33e 4f50 d23e
00000090: f0db 6fbe f023 f7be 8b84 09bf ad0c c1be
000000a0: fe2e 143f dcaa 64be 0742 af3e 7c33 11bf
000000b0: 1820 0cbe 506e 75bd 0814 d73e dfce 173f
000000c0: 37e7 073f caaf f5be fcf8 21be ad02 c5be
000000d0: 2f8b f83e da07 58be b5ea 2c3e aa5b ba3e
000000e0: a1dc 3d3d 7f2b 6dbd 1e47 023e 75b6 1dbf
000000f0: 5e18 06be 6c36 133f dc34 dcbe 3176 b4be
00000100: 1fa2 71bd 86e0 923e 4d91 23bf 3048 27bf
00000110: 3926 12bf 6a69 c23e 22b4 c13e bdf9 743d
00000120: ebd1 573e 2387 24bf 62dc 94be fa22 223f
00000130: 1285 a6be d314 ecbe 4f9d 81be ec00 3e3f
00000140: 8088 ff3e 1393 08bf e107 e83d eda3 41be
00000150: 8a8e bb3e 576d f3bc 34b6 11bf 461c c6be
00000160: a39f 593d 24c7 853e e3dc 3b3e 6ccf 43bc
00000170: e7d5 bb3d 5e08 b43e 1e8e 8b3e 1976 ffbe
00000180: db9a 96bd 2589 b13e 89cc b33e 067b 84be
00000190: a0fe 393e b0b0 e1be 0000 8739 6f61 14bf
000001a0: 0c45 9fbe de92 973e 5620 393e ed9e ce3e
000001b0: 0ce4 e03e 751b f73e d071 f3bd 7dbe 0cbf
000001c0: 091c 153f cb48 543d 4d95 e3be e08e 8a3d
000001d0: 07b8 18bf ea26 ebbe f50c d43d c5a9 f13b
000001e0: 3893 1c3f 4cb4 0fbf ac17 8f3e 5dab 04bf
000001f0: 8fe7 1ebf 9860 4c3e aa34 ecbd dedf ee3d
00000200: 042a 833e 1eb6 f53d 1c17 3f3e d7ea 9a3e
00000210: dd02 a4be 70c9 813d 15d8 10bf 683e 42be
00000220: 2c07 3d3e ca2e eabe 77ca cc3e 81f8 3cbf
00000230: 0d37 d3be a271 24bf e8ab 11be a0c1 91bc
00000240: 8395 c43d 1f23 e03e f21c f23e b548 febe
00000250: 24ae d23e 68c8 d8be 01f3 a8be 081b ac3d
00000260: 3f63 07bf 64db 833e 12b8 aebe d8ba eb3d
00000270: ae76 943e bdee 2bbf 231b 273e 280f 0abf
00000280: 2eed 203e bd4b 98be b748 0f3f d499 0dbe
00000290: 8af9 aa3e 362c a23d 09a0 14bf 61b3 24bf
000002a0: 0f87 aabe 4023 42bd 8d18 0b3f 69d7 25bf
000002b0: 860e 203e 50e0 08bf 2584 813e 40a6 8e3e
000002c0: b778 1abf 24cd c1be 3052 c83d 978d 10be
000002d0: aac7 a93e e8ea ff3e 7130 24bf 9282 dfbe
000002e0: 8dd0 963e e89b 59bf 6032 93bd e39b 93be
000002f0: 9498 96be 405d e73d b1e1 b4be db48 2ebf
00000300: df15 db3e 1069 94bd 567e 8f3e ba1c a8bb
00000310: 689d 2bbf e8bf 20be 1053 d3bd 0504 30bf
00000320: f840 05bf 00a8 f13a d8d4 b4be 08fc f1be
00000330: 5815 d5be a798 dcbe 9de3 da3e 9f40 023f
00000340: 22b4 07bf 7d6e 32bf 98df b0be 40d7 453e
00000350: b36a 013f ce94 0dbe 3dd5 843e 3ec7 0fbf
00000360: 1f58 d6bd 2cc3 8a3e 75f5 04bf 47d7 98be
00000370: 1120 95be 64ad 9a3e 2ce0 25bf eb6d d7be
00000380: f6f8 ca3e e2f3 d23e 92f8 82be 40a6 fd3e
00000390: a72d 93bd ee67 473f 9611 54be 23a6 043f
000003a0: 613d d33a 9b96 a53e 2c04 043c a6c6 093f
000003b0: 39cd 7539 7b34 f13e 80d2 f3bb f00b d3bd
000003c0: 3db0 d33e 1f89 0f3e fe43 cf3e 2b6a b73e
000003d0: 45d5 1f3e 49cf 7abe 9521 b5be 774d 333f
000003e0: 20b5 09bf 5813 783e d17a 2cbf 90fa 30be
000003f0: 470d 03bf c0e1 ee3c a1f8 773a ee2b 143e

linear1.bias f4 [256]
0.6157087 0.17632933 0.6998723 -1.1311748 0.076175265 1.5274808 -0.093367755 0.6216209
1.0648501 -0.26352602 -0.005230069 -0.75601244 0.82257926 -1.4935904 -0.107640535 -0.071201496
-0.097268164 -1.4290007 -0.33867022 0.5557604 1.4955821 -1.1301199 -0.30704063 0.8624762
0.62955135 0.29452866 1.0857241 -1.2942547 -0.8128123 1.237023 -1.4129764 0.19715624
-0.55092853 0.1367353 0.670731 0.70910203 -0.43377158 0.9688298 0.5338913 -0.39794242
1.4403613 -0.6227142 1.172387 0.2825955 1.5436559 -1.6880192 -1.5186105 1.4153454
1.0777684 -1.1168792 0.8306397 -0.25320637 -0.077097654 -0.5426481 1.2992185 0.6601113
-1.7226858 -0.6037834 -0.4710183 1.2140815 -0.8983159 0.9547007 0.39069086 -0.2059236
0.39793718 -0.8869314 -0.4774851 0.44411084 1.0330433 -1.124537 -0.60875887 -0.27202156
-1.6436789 -1.4719929 0.511873 0.30566156 0.6061731 0.29712892 -1.5089879 0.05041218
-0.8008352 -1.3889349 0.62393737 -0.38081944 0.19818598 1.1360992 0.11968676 -1.5354518
0.12869531 -1.404977 1.4412003 -0.00087541674 -0.72574604 0.4787191 0.54377884 -0.27361447
-0.10536998 -0.97084975 0.6160286 -0.4274314 0.072486855 -0.55469644 -0.0012725341 1.3504325
0.23186052 0.41081068 -0.22441038 -0.08485695 -0.30933228 -0.41749716 -0.38318667 0.708626
-1.2017697 -0.42198858 1.642647 0.70699614 -1.1898 -1.6236812 -0.6455955 -0.5376556
-0.83588535 -1.1885803 -1.2290227 -0.671738 -0.34852627 0.33225745 -0.29953772 -1.0022289
-0.75166214 0.35590467 0.63705045 1.3438913 -1.3399454 -1.6397889 -0.41815758 0.3120141
-0.43961513 -1.6064962 1.0908734 -0.29340053 -1.034874 -0.26944387 -0.44931474 -1.7171092
-0.657346 -1.7376996 0.60418886 0.82421446 1.2402714 1.2691804 -0.3767571 -0.4632687
1.3848494 1.2777928 -0.1704228 0.5125202 -0.63398117 1.7056955 0.73040617 -0.5078412
-0.5262895 1.1006328 -0.55986685 -1.3839016 -0.94801086 -1.6110904 -0.031342447 0.29486072
0.3220718 0.7785906 -0.164909 -1.6796062 -1.5498214 -0.4300053 0.27225173 -0.08556072
-0.31464326 -1.2169757 -0.5351486 1.5479985 -1.2478957 -0.01091219 -0.048684597 -1.4566796
-1.9147462 -1.0931025 -0.6795114 -1.1244968 -1.1229315 -1.2762448 -1.3294134 0.89983135
1.4109166 0.25862974 0.7499744 1.2228473 -0.1373747 0.59257096 1.4260463 0.9478369
-1.4886785 1.4139999 -0.84984004 0.5095345 -0.15742761 -0.6131469 -0.46981436 0.12341757
-0.5733987 0.22130868 -0.3800405 -0.78527 -1.0827844 -1.5291951 -1.3560877 0.9717514
-1.4999312 0.7014158 -1.5015104 -0.06274319 -0.7046119 0.53573275 0.1752465 0.50160944
1.0772685 1.5553256 -0.6437582 -0.5077616 -0.2712005 1.6116359 0.24705817 1.2476922
-1.2806327 -0.05979657 1.4428781 0.9122628 -1.1673598 -1.5960172 -0.035436213 -0.23961258
-1.0687141 1.3887135 -1.4505597 -1.7059475 0.95930177 -0.54991174 -0.37438387 -0.40395182
-1.4865271 -1.6168802 -0.3028847 -1.684757 -0.43075344 0.1511775 -0.042423356 -1.1249272
00000000: 169f 1d3f ad8f 343e d52a 333f 56ca 90bf
00000010: c701 9c3d 7e84 c33f 9837 bfbd 8c22 1f3f
00000020: 024d 883f e2ec 86be 0061 abbb 088a 41bf
00000030: 8e94 523f f82d bfbf a472 dcbd 17d2 91bd
00000040: 8834 c7bd 7fe9 b6bf 2f66 adbe 5046 0e3f
00000050: 3c6f bf3f c5a7 90bf 6e34 9dbe 3ecb 5c3f
00000060: 472a 213f 76cc 963e 02f9 8a3f 23aa a5bf
00000070: 7814 50bf c556 9e3f 69dc b4bf 53e3 493e
00000080: a709 0dbf 5704 0c3e 07b5 2b3f b687 353f
00000090: 4f17 debe 3b05 783f 1aad 083f 1cbf cbbe
000000a0: c25d b83f 336a 1fbf c710 963f 5bb0 903e
000000b0: 8496 c53f 0311 d8bf d461 c2bf 0a2a b53f
000000c0: 51f4 893f e6f5 8ebf cea4 543f 44a4 81be
000000d0: 60e5 9dbd fcea 0abf cb4c a63f 0efd 283f
000000e0: f880 dcbf 8d91 1abf 5029 f1be 0667 9b3f
000000f0: 08f8 65bf 4467 743f a208 c83e a3dd 52be
00000100: 6cbe cb3e f00d 63bf ed78 f4be 7f62 e33e
00000110: c33a 843f d4f0 8fbf 9fd7 1bbf 6946 8bbe
00000120: 1264 d2bf 436a bcbf 1c0a 033f ac7f 9c3e
00000130: 292e 1b3f 4821 983e 8426 c1bf 017d 4e3d
00000140: 8903 4dbf 9ec8 b1bf 5cba 1f3f c4fa c2be
00000150: 44f1 4a3e b36b 913f 551e f53d af89 c4bf
00000160: b4c8 033e 49d6 b3bf 4079 b83f 397c 65ba
00000170: 7eca 39bf ab1a f53e 1735 0b3f 3217 8cbe
00000180: 37cc d7bd 9c89 78bf 0db4 1d3f 4ad8 dabe
00000190: fd73 943d 9600 0ebf 29cb a6ba f9da ac3f
000001a0: d86c 6d3e c755 d23e d6cb 65be 7bc9 adbd
000001b0: cd60 9ebe 30c2 d5be 0b31 c4be 8368 353f
000001c0: 97d3 99bf e30e d8be 4242 d23f b3fd 343f
000001d0: 5e4b 98bf c9d4 cfbf bf45 25bf cca3 09bf
000001e0: 95fc 55bf 6623 98bf 9e50 9dbf 06f7 2bbf
000001f0: 0972 b2be a61d aa3e 025d 99be 0949 80bf
00000200: ee6c 40bf 2339 b63e bd15 233f a104 ac3f
00000210: 5583 abbf 9ae4 d1bf c018 d6be 50c0 9f3e
00000220: 3c15 e1be aba1 cdbf bda1 8b3f 9838 96be
00000230: c076 84bf 8cf4 89be 950c e6be 3cca dbbf
00000240: d447 28bf f16c debf 1fac 1a3f b8ff 523f
00000250: 37c1 9e3f 8174 a23f 4ee6 c0be 8e31 edbe
00000260: bf42 b13f b78e a33f 5183 2ebe 8634 033f
00000270: 974c 22bf 3b54 da3f e6fb 3a3f e201 02bf
00000280: e9ba 06bf 89e1 8c3f 6f53 0fbf b023 b1bf
00000290: d7b0 72bf 3638 cebf f060 00bd fcf7 963e
000002a0: 98e6 a43e b751 473f e8dd 28be 56fd d6bf
000002b0: 8c60 c6bf a829 dcbe 9464 8b3e 753a afbd
000002c0: ec18 a1be dcc5 9bbf 80ff 08bf d124 c63f
000002d0: 0cbb 9fbf 0bc9 32bc 8069 47bd 7a74 babf
000002e0: 6716 f5bf c8ea 8bbf 76f4 2dbf 83ef 8fbf
000002f0: 38bc 8fbf fd5b a3bf 382a aabf 595b 663f
00000300: ea98 b43f 1e6b 843e 53fe 3f3f 4386 9c3f
00000310: f4ab 0cbe bbb2 173f af88 b63f 70a5 723f
00000320: 048d bebf f3fd b43f 1e8f 59bf da70 023f
00000330: b434 21be 32f7 1cbf 828b f0be 5ac2 fc3d
00000340: 42ca 12bf be9e 623e ab94 c2be 7407 49bf
00000350: ae98 8abf aabc c3bf 4894 adbf b3c4 783f
00000360: bffd bfbf fc8f 333f 7e31 c0bf 807f 80bd
00000370: 7261 34bf c825 093f d273 333e 7a69 003f
00000380: efe3 893f e914 c73f 56cd 24bf aafc 01bf
00000390: cbda 8abe 164a ce3f d1fc 7c3e 61b4 9f3f
000003a0: c6eb a3bf 40ed 74bd 3bb0 b83f 0e8a 693f
000003b0: 0c6c 95bf 4b4a ccbf 9025 11bd 005d 75be
000003c0: a0cb 88bf 5dc1 b13f f1ab b9bf 7d5c dabf
000003d0: cd94 753f 04c7 0cbf 3eaf bfbe c6d2 cebe
000003e0: 8546 bebf eef5 cebf b413 9bbe 1ea6 d7bf
000003f0: b78b dcbe 46ce 1a3e 1dc4 2dbd 9dfd 8fbf

linear2.weight f4 [256, 256]
0.051447622 -0.053525805 -0.029701803 0.009800915 -0.010685803 -0.064322636 -0.017280087 0.033178467
-0.013537392 -0.0371187 -0.031031042 0.0445198 -0.031532325 0.013166813 0.011915329 0.0085823815
0.009549253 0.0048645264 -0.044232614 -0.042318657 0.014733129 -0.04282931 -0.036573395 -0.0022031802
-0.031162279 0.018655248 0.04928724 0.025413819 -0.005482677 0.05825172 -0.048936367 -0.058764707
0.053151056 -0.053895697 0.0002677476 0.0072984276 -0.04759418 0.015419062 -0.042234972 -0.005189716
0.026218906 0.00018794388 -0.031263635 0.015555392 0.035112947 -0.03704475 -0.02372896 0.0063758865
-0.023213847 -0.04216963 -0.04710839 0.057505824 -0.048510037 -0.039345253 -0.052323855 -0.0014296358
-0.030786863 -0.009729691 0.04611992 0.006512648 -0.04270854 -0.032679833 0.018050559 0.017813087
-0.06693704 0.016731005 0.01588741 -0.04039308 0.022515628 0.020808473 0.013663933 -0.0016024411
-0.01925181 0.03711986 -0.039857913 0.031208599 0.02385957 -0.05336322 0.005696734 -0.06156507
0.007631917 0.053554315 0.05455235 0.022199482 -0.0008590539 -0.060669508 -0.002434528 0.025233509
-0.027919253 0.045269743 0.0030875148 0.0434137 -0.026148386 0.03881639 -0.051718824 -0.056938216
0.03273037 -0.049774706 -0.051689 0.050442673 -0.050722763 0.057802692 -0.019495873 0.0060831145
-0.025383053 0.027449533 0.033268906 0.0045171245 -0.057009898 -0.034723207 -0.011633317 -0.049592968
-0.057780277 0.005363228 0.05142528 0.026448013 -0.04669223 -0.03459569 -0.054407272 -0.05021999
0.016287459 0.0012339798 0.023079317 0.040518086 -0.009416468 0.020394865 -0.02088727 0.043890268
0.009262841 -0.015748134 -0.0214168 0.039270196 0.029139215 -0.055553503 0.023720518 -0.013535816
0.056456946 0.0015419514 -0.029776162 -0.046735518 -0.053733654 -0.058594503 -0.018619 0.051936496
-0.013856269 -0.06159696 0.0059251892 -0.022758204 0.0031521055 -0.0037069588 -0.06180364 -0.05450382
-0.03450205 -0.020918291 0.012522776 -0.015233871 -0.038388938 -0.037400596 -0.0017367409 -0.05621878
-0.0124191325 -0.025921209 -0.017917044 -0.009374226 -0.025682919 -0.04112354 -0.054198116 0.03700403
-0.004619493 -0.05660005 -0.058586434 0.014136625 -0.03905299 -0.054902047 0.036693577 0.047024865
-0.042809937 -0.06726408 0.052153483 0.051543735 -0.05054524 -0.04644089 0.050832033 0.02139769
0.0060699484 -0.00703308 0.050485108 -0.0041947453 -0.020235881 -0.013037407 -0.0028074384 0.00067368225
0.04586459 0.0052240393 -0.012195432 0.04093506 -0.018011056 -0.047706302 -0.061115593 -0.014644735
-0.034537476 -0.051167876 0.030904286 -0.012882588 0.020079665 0.045862086 0.038025253 -0.01944566
-0.044725887 -0.02903366 0.031269066 -0.015430289 0.01244711 -0.03957364 0.040582202 0.05002226
-0.04354363 0.03304827 -0.0330221 -0.028348155 -0.036972262 0.04363704 -0.05100938 0.024832116
0.022513976 -0.003669716 0.04715186 0.051288348 -0.06554309 0.05661122 0.03017581 -0.029158678
-0.042335507 0.02507551 -0.03540908 -0.016250758 -0.06249706 -0.018191777 0.041210428 -0.0071008354
-0.010561443 -0.0025632656 -0.037769545 -0.00034391065 0.034215894 0.05767589 -0.0018177181 0.032415554
0.0023632883 0.0076532695 0.043228097 0.0003827254 -0.02055695 0.007404248 -0.06732148 0.044101477
00000000: beba 523d e03d 5bbd 3251 f3bc 0494 203c
00000010: 8213 2fbc 96bb 83bd f88e 8dbc 25e6 073d
00000020: f0cb 5dbc c709 18bd d034 febc 655a 363d
00000030: 0a28 01bd 9eb9 573c 8338 433c 1e9d 0c3c
00000040: 7874 1c3c 9b66 9f3b 422d 35bd 5456 2dbd
00000050: 3963 713c c96d 2fbd fccd 15bd 3b63 10bb
00000060: 0948 ffbc e4d2 983c 6be1 493d a430 d03c
00000070: 07a8 b3bb 5b99 6e3d 8071 48bd 43b3 70bd
00000080: ecb4 593d bcc1 5cbd 7960 8c39 a627 ef3b
00000090: 1df2 42bd 3ca0 7c3c 94fe 2cbd 7e0e aabb
000000a0: 08c9 d63c cd12 4539 4c0e 00bd 0bdc 7e3c
000000b0: 98d2 0f3d 3cbc 17bd 3c63 c2bc d0ec d03b
000000c0: f72a bebc 10ba 2cbd baf4 40bd 3a8b 6b3d
000000d0: 76b2 46bd 7d28 21bd 8a51 56bd 9e62 bbba
000000e0: bb34 fcbc 4869 1fbc 3ee8 3c3d 0d68 d53b
000000f0: 26ef 2ebd 4adb 05bd c4de 933c c0ec 913c
00000100: 4916 89bd 760f 893c 5026 823c 3773 25bd
00000110: b272 b83c 8876 aa3c b0de 5f3c 0009 d2ba
00000120: f9b5 9dbc ff0a 183d 0d42 23bd 2da9 ff3c
00000130: 2575 c33c 6493 5abd abab ba3b a82b 7cbd
00000140: 2915 fa3b c55b 5b3d 4972 5f3d b0db b53c
00000150: 2232 61ba 9780 78bd 9a8c 1fbb 81b6 ce3c
00000160: ebb6 e4bc c46c 393d e757 4a3b 90d2 313d
00000170: 2435 d6bc effd 1e3d 1ed7 53bd 0c38 69bd
00000180: 4810 063d 90e0 4bbd d8b7 53bd fa9c 4e3d
00000190: acc2 4fbd 84c2 6c3d cfb5 9fbc dd54 c73b
000001a0: 1ff0 cfbc d8dd e03c fa44 083d 6304 943b
000001b0: 3683 69bd ec39 0ebd ab99 3ebc ff21 4bbd
000001c0: 03ab 6cbd 04be af3b 50a3 523d 81a9 d83c
000001d0: 5a40 3fbd 36b4 0dbd 29da 5ebd 7ab3 4dbd
000001e0: 476d 853c 7ebd a13a d610 bd3c 4bf6 253d
000001f0: 8847 1abc 2213 a73c c81b abbc 48c6 333d
00000200: 2cc3 173c 3b02 81bc 4972 afbc c9d9 203d
00000210: 5db5 ee3c 128c 63bd 8851 c23c 54c5 5dbc
00000220: 663f 673d 4e1b ca3a 23ed f3bc be6d 3fbd
00000230: d217 5cbd ca00 70bd e086 98bc 5dbb 543d
00000240: 6805 63bc 184d 7cbd 1728 c23b 6a6f babc
00000250: 8e93 4e3b 73f0 72bb d025 7dbd 663f 5fbd
00000260: 0652 0dbd d65c abbc 542c 4d3c 7c97 79bc
00000270: b83d 1dbd 5e31 19bd 5ba3 e3ba aa45 66bd
00000280: 9e79 4bbc b758 d4bc c4c6 92bc 5b96 19bc
00000290: fc64 d2bc 2871 28bd d8fe 5dbd 8a91 173d
000002a0: 1e5f 97bb 74d5 67bd 54f8 6fbd 4e9d 673c
000002b0: 07f6 1fbd f8e0 60bd 014c 163d 259d 403d
000002c0: 7959 2fbd c0c1 89bd e49e 553d 861f 533d
000002d0: 8708 4fbd cd38 3ebd 4035 503d 354a af3c
000002e0: 6be6 c63b c075 e6bb 79c9 4e3d 1374 89bb
000002f0: b8c5 a5bc d99a 55bc 00fd 37bb 0d9a 303a
00000300: 82dc 3b3d 6b2e ab3b 59cf 47bc 85ab 273d
00000310: ec8b 93bc af67 43bd 5854 7abd 78f0 6fbc
00000320: 2b77 0dbd 6895 51bd fc2a fd3c 7e11 53bc
00000330: 1c7e a43c e2d9 3b3d 5ec0 1b3d 814c 9fbc
00000340: 7e32 37bd 00d8 edbc fe13 003d 53cf 7cbc
00000350: f7ee 4b3c f817 22bd 8639 263d 24e4 4c3d
00000360: ce5a 32bd 9f5d 073d 2e42 07bd 643a e8bc
00000370: 3a70 17bd c1bc 323d 36ef 50bd b96c cb3c
00000380: 3b6f b83c 9e7f 70bb 4f22 413d bb13 523d
00000390: 753b 86bd 2be1 673d 4333 f73c 2ede eebc
000003a0: ff67 2dbd 286b cd3c 1d09 11bd 4f20 85bc
000003b0: ebfc 7fbd ec06 95bc 44cc 283d 20ae e8bb
000003c0: e709 2dbc 76fc 27bb 3db4 1abd e84e b4b9
000003d0: f725 0c3d 8e3d 6c3d 8040 eeba 2cc6 043d
000003e0: 66e1 1a3b 47c8 fa3b f20f 313d 89a8 c839
000003f0: 0c67 a8bc 569f f23b d8df 89bd c0a3 343d

linear2.bias f4 [256]
0.047568366 -0.33105168 0.0011198125 -0.41108793 -0.00021266192 -0.039334595 0.02820909 -0.04215115
0.001257395 0.011433989 -0.062487178 0.0179619 0.024361454 0.07439714 0.1776764 0.047200255
0.03564913 0.010846336 -0.00079493225 -0.03398499 0.15945165 0.023266722 0.005896285 -0.096301995
0.033157818 -0.060723968 -0.00587855 -0.029538302 -0.050345227 -0.01852557 -0.012936389 0.023374503
-0.04202383 -0.053212635 0.98976535 -0.05491456 -0.035040863 0.048786126 0.019965425 -0.032200515
0.0152935 -0.10150679 0.31295472 0.02626787 -0.026716376 -0.024414442 0.0054790326 -0.28453213
-0.009166556 0.01110294 -0.041886844 0.092256166 -0.038528487 0.056805395 -0.07002237 -0.05141689
0.035371497 -0.02123297 -0.016574241 0.24120323 -0.0044702697 -0.038692363 -0.100659445 -0.008145206
0.021348527 -0.036811538 0.027498625 -0.03895773 -0.13671583 0.003789025 -0.011598117 0.057015933
0.07090111 -0.053425856 0.03919939 0.019768707 0.10782766 0.02976071 0.020902993 -0.018995238
0.03244096 0.082892045 -0.002319418 0.05900553 0.019211397 0.029553184 0.023508016 -0.37258467
0.008381242 0.036434572 0.019441815 0.124033295 0.025774073 -0.40001675 0.049751077 -0.03302136
-0.16368791 -0.54170907 0.023897614 0.011319235 -0.062010985 -0.41737747 -0.0034657246 0.0014861496
-0.0840957 -0.29149517 -0.057896648 -0.22518906 -0.038071126 0.110060595 -0.039448828 0.0023715126
-0.030744309 -0.0059644226 0.015621529 0.023290657 0.059643157 -0.018758725 -0.10461606 0.017251559
0.03883391 -0.016832357 -0.05367732 0.02959977 -0.05231511 -0.0010291216 0.024548331 -0.09384362
-0.0336458 0.07063278 0.01538494 -0.017872402 -0.036289502 0.0026482344 0.023743542 0.00024120574
-0.043722883 0.12127955 0.0002826052 0.021800715 -0.011525974 -0.023387108 0.06047773 0.02370193
-0.19956085 -0.00843274 -0.051926553 -0.059981097 0.041419312 0.058130458 0.006066863 -0.03780006
-0.01938982 0.0051003634 0.010555498 -0.049075298 -0.09101049 -0.062142044 0.24540806 -0.028147193
-0.0055506187 -1.0192811 -0.026793784 -0.05488614 0.03790433 0.012823992 -0.006603178 -0.051347904
0.020716738 0.014249707 0.034924753 0.007506929 -0.044830687 0.14585026 -0.03187453 -0.11273002
-0.18153112 0.004338091 -0.053130765 -0.49476007 -0.0137262065 -0.108658604 -0.008392087 -0.014483325
-0.030417213 0.13133688 0.13939492 -0.020951694 -0.023825746 -0.32670322 -0.048798814 0.079303615
0.060334675 0.02704457 -0.014257917 0.010988109 -0.22654605 -0.0452433 0.10569711 0.025365956
0.02379627 -0.035211816 0.016552469 0.0550292 0.03224953 -0.2285589 -0.050516844 0.085251205
-0.02136848 -0.037725046 -0.014178358 0.043069635 0.010501169 0.0039450102 0.054060638 -0.035395857
-0.030329797 0.025491193 -0.02029944 0.037354324 0.023744594 0.00039325465 0.16254564 -0.10046419
-0.005303816 -0.08064974 -0.0466786 -0.35883558 -0.059717655 -0.035460114 0.025622629 -0.038515963
0.12587513 -0.041122597 -0.02177288 -0.00034360145 -0.037339747 0.4114847 -0.25225776 0.01161471
-0.6057103 0.052690677 0.050630488 0.017726146 0.038092595 -0.000870222 -0.0015943737 0.028076176
0.7574726 0.0004728809 -0.26041335 0.010339834 0.049886327 -0.016267015 -0.010364457 0.017313967
00000000: 0cd7 423d 9b7f a9be acc6 923a 1e7a d2be
00000010: 00fe 5eb9 501d 21bd c016 e73c afa6 2cbd
00000020: 2dcf a43a a055 3b3c 8ef2 7fbd d624 933c
00000030: ac91 c73c 875d 983d cdf0 353e 0e55 413d
00000040: d204 123d d5b4 313c 0063 50ba d833 0bbd
00000050: 4b47 233e da99 be3c a035 c13b fb39 c5bd
00000060: 7ed0 073d b2b9 78bd daa0 c0bb 4ffa f1bc
00000070: cc36 4ebd f0c2 97bc 26f3 53bc e37b bf3c
00000080: 2e21 2cbd 7ef5 59bd 4361 7d3f 17ee 60bd
00000090: 0287 0fbd f6d3 473d 888e a33c b0e4 03bd
000000a0: 9791 7a3c cbe2 cfbd 9a3b a03e b72f d73c
000000b0: 4ddc dabc cc00 c8bc 7589 b33b 32ae 91be
000000c0: 532f 16bc 1be9 353c 8a91 2bbd cdf0 bc3d
000000d0: 0cd0 1dbd c6ac 683d e367 8fbd 849a 52bd
000000e0: b4e1 103d c4f0 adbc b4c6 87bc fbfd 763e
000000f0: 577b 92bb e27b 1ebd 8a26 cebd 7873 05bc
00000100: 1be3 ae3c b2c7 16bd cc44 e13c 2492 1fbd
00000110: 3cff 0bbe 4a51 783b 0706 3ebc 8a89 693d
00000120: 9a34 913d 12d5 5abd 8a8f 203d fcf1 a13c
00000130: c0d4 dc3d bccc f33c c13c ab3c e79b 9bbc
00000140: d0e0 043d 4ec3 a93d 6001 18bb c8af 713d
00000150: 3861 9d3c 8519 f23c e293 c03c 6bc3 bebe
00000160: 7a51 093c 6b3c 153d 7144 9f3c 2b05 fe3d
00000170: 2624 d33c ffce ccbe c9c7 4b3d 6841 07bd
00000180: ce9d 27be 72ad 0abf eec4 c33c 5074 393c
00000190: 3bff 7dbd 80b2 d5be 3621 63bb e8ca c23a
000001a0: 5e3a acbd db3e 95be 0925 6dbd f697 66be
000001b0: 78f0 1bbd 7367 e13d 1895 21bd 616b 1b3b
000001c0: 7ddb fbbc 3471 c3bb 71f1 7f3c 0ccc be3c
000001d0: 624c 743d e6ab 99bc f240 d6bd 2453 8d3c
000001e0: 4e10 1f3d 03e4 89bc c0dc 5bbd 387b f23c
000001f0: 5e48 56bd 97e3 86ba 9519 c93c 1531 c0bd
00000200: 2ed0 09bd eba7 903d 1e11 7c3c 2569 92bc
00000210: 4da4 14bd 008e 2d3b d181 c23c 2cec 7c39
00000220: c416 33bd 6a61 f83d a12a 9439 6a97 b23c
00000230: 70d7 3cbc 5296 bfbc 7fb7 773d 8d2a c23c
00000240: ae59 4cbe 7a29 0abc f0b0 54bd bdae 75bd
00000250: 4ca7 293d 341a 6e3d 89cc c63b 3cd4 1abd
00000260: 66d7 9ebc f320 a73b f8f0 2c3c 2e03 49bd
00000270: b563 babd a888 7ebd 404c 7b3e f194 e6bc
00000280: f7e1 b5bb ce77 82bf a37e dbbc 4ad0 60bd
00000290: 9241 1b3d b91b 523c 795f d8bb 2e52 52bd
000002a0: 26b6 a93c 9a77 693c 420d 0f3d affc f53b
000002b0: 62a0 37bd c559 153e de8e 02bd ffde e6bd
000002c0: 4be3 39be 8b26 8e3b a59f 59bd 3151 fdbe
000002d0: e2e3 60bc 6788 debd f77e 09bc 784b 6dbc
000002e0: 852d f9bc 2d7d 063e 8bbd 0e3e e3a2 abbc
000002f0: 362e c3bc a545 a7be 44e1 47bd ef69 a23d
00000300: 7e21 773d 938c dd3c 0a9a 69bc 7807 343c
00000310: b0fb 67be 0a51 39bd ba77 d83d 44cc cf3c
00000320: 65f0 c23c 443a 10bd 0b99 873c 4c66 613d
00000330: 1518 043d 580b 6abe c0ea 4ebd 2f98 ae3d
00000340: f30c afbc 9485 1abd 584c 68bc c969 303d
00000350: 180d 2c3c 2545 813b b06e 5d3d 3ffb 10bd
00000360: 3276 f8bc e8d2 d03c 034b a6bc d900 193d
00000370: 0684 c23c bf2d ce39 5d72 263e 2bc0 cdbd
00000380: a2cb adbb b12b a5bd 0f32 3fbd 4cb9 b7be
00000390: 809a 74bd a03e 11bd 8ce6 d13c eac2 1dbd
000003a0: 69e5 003e 2b70 28bd 0a5d b2bc 6825 b4b9
000003b0: 90f1 18bd 1fae d23e ee27 81be a04b 3e3c
000003c0: d50f 1bbf 2ed2 573d ea61 4f3d 6c36 913c
000003d0: fb06 1c3d 9c1f 64ba 4efa d0ba 0200 e63c
000003e0: b9e9 413f 00ed f739 e654 85be 6868 293c
000003f0: 9b55 4c3d 6742 85bc afcf 29bc 05d6 8d3c

linear4.weight f4 [256, 256]
0.026823506 0.037481874 0.052170236 -0.06054881 0.03708701 -0.025603808 0.043339137 0.004642028
-0.056314442 0.053961 0.023743965 0.016280107 0.021683859 -0.025913818 -0.054163557 -0.038452525
0.04448185 -0.04081952 0.019496873 -0.044011954 -0.0647689 0.03412251 -0.00034121933 0.0038401932
-0.033023886 0.033952836 0.03866966 -0.042218033 -0.016833663 -0.05966021 -0.025502592 0.044551548
0.055508457 0.0043793246 0.11706708 -0.05002413 0.013887897 -0.049270336 0.013546102 -0.014616877
-0.02471807 -0.018690677 -0.013776475 0.056281384 0.012112542 0.003375294 0.0016208118 0.01627842
0.00077209907 0.018313037 -0.008783862 0.04100273 0.027222633 -0.103702225 0.03737765 0.0045068352
-0.049342003 -0.026185013 -0.014399491 -0.025542838 -0.011240911 -0.030692844 0.018961815 0.024045967
0.007746248 -0.06552854 -0.0045723114 -0.0061076107 0.036364876 0.060360253 -0.014947697 -0.023870625
-0.013099109 -0.035695992 0.04053843 0.005869398 0.02089309 0.030072488 -0.060534637 -0.044794455
-0.05703602 0.0050854655 -0.0297665 -0.027790338 0.009380462 -0.009851776 -0.008560421 -0.049537305
0.044543777 0.019139268 -0.05069123 0.020772317 0.0054250974 -0.008749514 0.039913196 -0.00522814
0.0347979 0.017647486 0.023560628 0.013049595 0.014556261 0.03230573 0.049375847 -0.057989676
-0.055452447 -0.04036487 0.04697817 0.04693667 0.027015992 -0.02316052 0.02629968 -0.033078138
-0.053777575 0.04347093 -0.008483565 0.0037286058 -0.011966066 -0.056816205 0.0132702505 0.026196798
-0.022332981 0.02033365 -0.028772458 -0.047958754 0.024676844 -0.039581537 -0.054091927 -0.042620737
0.030739937 -0.06568709 0.056266867 -0.047229767 0.011690054 0.019142158 -0.0041104 -0.055278268
0.052140273 0.021415606 -0.02602506 0.014498134 -0.0060233404 0.0067721973 0.05676856 -0.043277334
0.06537846 -0.015732922 0.05414593 0.046572696 0.02108318 -0.008398212 -0.052997604 0.04810088
0.01981199 0.012258468 0.056766637 0.011743191 0.013809149 -0.030459829 -0.061825555 0.00571463
0.028699331 0.023759993 -0.023578005 -0.004838854 0.04292056 0.025150895 -0.06664815 -0.041257348
0.012261482 0.0321853 0.04409034 -0.0027435988 0.025433965 -0.061231058 -0.051622286 -0.02237254
0.018775491 0.013267261 0.06392243 0.05522509 0.04474324 -0.050541315 -0.06040039 -0.027145222
0.051945712 -0.04588835 0.0048976117 -0.016697966 0.008989482 0.0086539965 -0.0030664327 -0.0431052
0.03200017 0.02849426 -0.026356084 0.058744945 -0.06505003 0.008060049 -0.027962308 -0.005823856
0.02462619 0.0489156 0.0636893 -0.030019095 0.053414196 -0.040482618 -0.028342826 0.037790705
0.043733805 0.049800884 -0.051881526 -0.04920673 -0.040440537 -0.057440907 0.024209358 -0.062868915
0.0051076566 -0.02412372 0.04745149 0.03018438 -0.046050828 0.02605734 -0.0061972854 0.047564
0.017143603 0.02931599 0.040429227 -0.008099654 -0.025840819 0.0109630525 0.0259416 -0.00052948296
-0.05467007 0.034079585 -0.04249537 -0.02214172 -0.019536635 -0.0017940496 -0.0879337 -0.0622638
0.037879232 -0.061696067 0.027887337 0.008967526 -0.029859327 0.036979653 -0.053015158 -0.057681076
0.013920546 0.010856174 -0.008548063 0.013437312 0.0074066445 -0.039388336 -0.023382064 -0.029760404
00000000: f8bc db3c 9886 193d 75b0 553d 0702 78bd
00000010: 8ce8 173d 14bf d1bc 6184 313d 271c 983b
00000020: f9a9 66bd 3606 5d3d b482 c23c dc5d 853c
00000030: 59a2 b13c 3749 d4bc 9bda 5dbd 6580 1dbd
00000040: 9a32 363d 5e32 27bd e8b7 9f3c e145 34bd
00000050: 8fa5 84bd 0cc4 0b3d afe5 b2b9 c0ab 7b3b
00000060: 0e44 07bd 2112 0b3d 1464 1e3d d1ec 2cbd
00000070: c0e6 89bc 445e 74bd d0ea d0bc af7b 363d
00000080: d65c 633d 7080 8f3b dec0 ef3d 1ae6 4cbd
00000090: 108a 633c b1cf 49bd 78f0 5d3c a07b 6fbc
000000a0: 8d7d cabc 311d 99bc b9b6 61bc 4f87 663d
000000b0: af73 463c 0934 5d3b 6b71 d43a 525a 853c
000000c0: b166 4a3a 3905 963c 30ea 0fbc 7bf2 273d
000000d0: 0002 df3c d561 d4bd 4f19 193d 13ae 933b
000000e0: d71a 4abd f481 d6bc d8eb 6bbc 373f d1bc
000000f0: cc2b 38bc 8f6f fbbc cf55 9b3c 0cfc c43c
00000100: 3dd4 fd3b d433 86bd 54d3 95bb 5a22 c8bb
00000110: 56f3 143d 503c 773d 2fe7 74bc 548c c3bc
00000120: a59d 56bc f635 12bd a00b 263d 1454 c03b
00000130: fc27 ab3c 945a f63c 2bf3 77bd 647a 37bd
00000140: 9a9e 69bd faa3 a63b e0d8 f3bc 90a8 e3bc
00000150: 82b0 193c 5869 21bc 0241 0cbc a1e7 4abd
00000160: 8973 363d f4c9 9c3c 9ba1 4fbd b52a aa3c
00000170: 04c5 b13b 1f5a 0fbc 057c 233d d150 abbb
00000180: 3e88 0e3d 7691 903c 3802 c13c f8cd 553c
00000190: 627d 6e3c 0353 043d 543e 4a3d 9586 6dbd
000001a0: 1b22 63bd a255 25bd 2e6c 403d aa40 403d
000001b0: a450 dd3c 21bb bdbc 6d72 d73c f17c 07bd
000001c0: e045 5cbd 930e 323d a7fe 0abc a05b 743b
000001d0: 520d 44bc 1cb8 68bd 776b 593c ab9a d63c
000001e0: a8f3 b6bc c192 a63c 38b4 ebbc 6670 44bd
000001f0: 1827 ca3c 4020 22bd 7f8f 5dbd 1593 2ebd
00000200: 52d2 fb3c f486 86bd 1678 663d 0074 41bd
00000210: a487 3f3c 04d0 9c3c 89b0 86bb 776b 62bd
00000220: 0a91 553d c86f af3c 8232 d5bc 9589 6d3c
00000230: 715f c5bb 4fe9 dd3b 2686 683d 9343 31bd
00000240: 24e5 853d 54e2 80bc 1fc8 5d3d 03c3 3e3d
00000250: a2b6 ac3c a798 09bc 0414 59bd 6e05 453d
00000260: c14c a23c bed7 483c 2284 683d 8366 403c
00000270: c53f 623c e486 f9bc cb3c 7dbd ca41 bb3b
00000280: dc1a eb3c 51a4 c23c a926 c1bc 408f 9ebb
00000290: 78cd 2f3d 4009 ce3c d37e 88bd 77fd 28bd
000002a0: 62e4 483c bcd4 033d 1398 343d f3cd 33bb
000002b0: e45a d03c 6bcd 7abd e471 53bd 9e46 b7bc
000002c0: 0fcf 993c ed5e 593c c3e9 823d b433 623d
000002d0: b044 373d 6904 4fbd 6666 77bd a85f debc
000002e0: 07c5 543d 6cf5 3bbd 257c a03b 2cca 88bc
000002f0: 9f48 133c 7ec9 0d3c 34f6 48bb 148f 30bd
00000300: 9c12 033d cb6c e93c b7e8 d7bc 8a9e 703d
00000310: f338 85bd 4c0e 043c 3611 e5bc 0cd6 bebb
00000320: ddbc c93c b95b 483d 896f 823d 9bea f5bc
00000330: d8c8 5a3d 1ad1 25bd 372f e8bc 6dca 1a3d
00000340: 3822 333d 03fc 4b3d b981 54bd ff8c 49bd
00000350: faa4 25bd 2847 6bbd b452 c63c 6bc1 80bd
00000360: 215e a73b 1c9f c5bc 7e5c 423d 3c45 f73c
00000370: cb9f 3cbd 3476 d53c 9912 cbbb 78d2 423d
00000380: be70 8c3c 1628 f03c 1e99 253d 69b4 04bc
00000390: 20b0 d3bc 609e 333c 7a83 d43c 00cd 0aba
000003a0: b9ed 5fbd 0997 0b3d a00f 2ebd 8d62 b5bc
000003b0: 4b0b a0bc 5126 ebba 9516 b4bd 5408 7fbd
000003c0: 4127 1b3d 04b5 7cbd fc73 e43c 88ec 123c
000003d0: 8c9b f4bc fa77 173d 6c26 59bd fe42 6cbd
000003e0: 0013 643c 18de 313c 2d0d 0cbc 2c28 5c3c
000003f0: 70b3 f23b aa55 21bd be8b bfbc 17cc f3bc

linear4.bias f4 [256]
-0.6554864 -0.62439895 0.31288186 0.08505781 -0.13276882 -0.5836373 -0.08100619 -0.75823563
-0.761984 -0.010242842 -0.48142895 -0.18772197 0.673292 0.74634343 -0.7721197 -0.073068395
-0.026298352 -0.6235557 0.031974986 -0.2757297 -0.30543798 -0.8509679 -0.65347475 -0.044530224
-0.7142318 0.024410246 -0.93765014 0.737392 -0.094584376 -0.9613125 -0.44949654 0.59136945
0.3661057 0.8389957 0.15933028 -0.7249151 0.55079263 -0.79950964 0.4261924 -0.6088263
0.35636204 0.64846027 -0.5644529 -0.34312138 -0.7223098 -0.10496916 0.1509555 -0.06702457
0.14505821 1.0939642 -0.43022287 -0.07109513 -0.058539823 0.31055567 -0.6404757 -0.32165202
-0.1359822 -0.15910174 0.6501566 -0.87436646 0.42101237 0.1676762 0.10468975 -0.17683141
-0.3301592 -0.7290769 0.71434355 0.30305365 -0.46969175 0.14451368 -0.8473675 -0.55471295
-0.11263882 0.39256784 -0.86239606 0.6392565 -0.5228337 -0.5788142 -0.5675586 0.8904178
-0.5248461 0.019534526 0.05039123 0.4125862 0.8370035 0.86090714 0.25298852 0.311381
0.4739064 0.1396388 -0.0022628098 0.47497088 0.35969794 0.9837259 0.8105898 -0.53143394
0.79629093 0.41979077 -0.07764146 -0.2999148 0.019124243 0.14771731 -0.7524811 -0.83307594
0.22768258 -0.5410919 -0.4371682 -0.13412662 -0.7719928 0.10085134 -0.05352023 0.660172
-0.15660766 -0.5017186 -0.1962717 0.42214784 -0.52430326 0.47686827 -0.25526568 -0.7762033
-0.2636225 -0.09680182 0.3980543 0.46949172 -0.6781344 0.014320444 0.41531944 0.9537017
0.3252113 -0.39588526 0.4244784 0.21869376 0.12883186 -0.16353174 -0.5248965 0.35369092
-0.7263192 -0.5683602 0.7349666 -0.7936332 -0.10714059 0.722339 -0.572894 0.35078454
0.13319525 0.71563214 0.09236716 0.16752923 -0.7395129 -0.044097375 0.9240617 0.68069524
-0.893426 0.36800587 0.22511001 0.31417894 -0.18113595 -0.026044907 0.4904753 0.025560759
-0.56158507 -0.19839865 -0.6615293 0.37966928 0.44405013 0.48690858 -0.94092816 0.025261594
-0.3433182 -0.032497086 -0.06523819 0.36241138 0.38817617 -0.03896414 0.103556186 -0.8907824
-0.8277368 0.39886782 0.8616938 0.6579436 0.1491671 0.4392712 0.14964755 -0.535737
0.21473798 0.78185695 -0.611969 -0.30056792 0.31557292 0.7192806 -0.66077846 0.19761224
0.42405605 0.8752213 0.23629566 0.8136753 0.39009875 0.73084974 -0.009789166 0.29611826
0.43776318 0.21118087 0.32053342 0.63429475 -0.23480633 -0.14975274 0.6284744 0.4244418
0.7364653 0.15374313 -0.27749372 -0.6586047 0.3225935 0.324635 -0.80035627 0.47322562
-0.44568476 -0.06686475 0.31500286 -0.15612692 -0.49785525 0.8565855 0.13072439 0.52120286
-0.7253594 0.5684972 -0.6703349 -0.68454933 0.5505443 0.6492267 0.35949984 -0.088833295
-0.46280783 0.39639798 -0.555568 -0.015466604 -0.35737845 0.70259625 0.733614 0.4590895
-0.52638835 0.35235244 -0.3750125 -0.5023858 0.4529226 -0.11794025 0.28881782 0.12792973
0.16205886 0.22928068 0.06578302 -0.56218654 0.8512843 0.40762773 -0.34698743 1.0067904
00000000: f5cd 27bf 9cd8 1fbf 0d32 a03e ca32 ae3d
00000010: 8df4 07be 4169 15bf 93e6 a5bd bb1b 42bf
00000020: 6211 43bf 98d1 27bc db7d f6be 303a 40be
00000030: dd5c 2c3f 5d10 3f3f a3a9 45bf e2a4 95bd
00000040: a46f d7bc 59a1 1fbf 34f8 023d 712c 8dbe
00000050: 5e62 9cbe 08d9 59bf 1f4a 27bf 5365 36bd
00000060: e5d7 36bf fff7 c73c d709 70bf b9c5 3c3f
00000070: 74b5 c1bd 9318 76bf 6924 e6be fd63 173f
00000080: 3572 bb3e 6cc8 563f 7a27 233e 0994 39bf
00000090: bf00 0d3f aaac 4cbf e435 da3e 0adc 1bbf
000000a0: 1675 b63e 7e01 263f fc7f 10bf 9bad afbe
000000b0: 4ce9 38bf 12fa d6bd 1494 1a3e 2e44 89bd
000000c0: 248a 143e 0507 8c3f 2c46 dcbe 539a 91bd
000000d0: 74c7 6fbd 2701 9f3e 37f6 23bf 93af a4be
000000e0: eb3e 0bbe 91eb 22be aa70 263f 7bd6 5fbf
000000f0: ef8e d73e 4fb3 2b3e 9467 d63d 4b13 35be
00000100: a00a a9be c9a4 3abf 38df 363f d929 9b3e
00000110: 707b f0be 65fb 133e 14ed 58bf ab01 0ebf
00000120: 2faf e6bd a7fe c83e fdc5 5cbf 50a6 233f
00000130: 6ed8 05bf 2b2d 14bf 854b 11bf 6cf2 633f
00000140: 505c 06bf df06 a03c 0967 4e3d 803e d33e
00000150: dd45 563f 6964 5c3f b687 813e 556d 9f3e
00000160: dca3 f23e 79fd 0e3e a64b 14bb 622f f33e
00000170: 542a b83e 76d5 7b3f d082 4f3f 0e0c 08bf
00000180: b9d9 4b3f d1ee d63e 7c02 9fbd 6f8e 99be
00000190: 72aa 9c3c 3543 173e 9aa2 40bf 7744 55bf
000001a0: 9f25 693e 0085 0abf 83d4 dfbe 7d58 09be
000001b0: 52a1 45bf 268b ce3d 0738 5bbd 0801 293f
000001c0: c25d 20be a170 00bf 73fb 48be c323 d83e
000001d0: bd38 06bf 1428 f43e 2fb2 82be 42b5 46bf
000001e0: 87f9 86be 0840 c6bd c6cd cb3e 3861 f03e
000001f0: 379a 2dbf 4ca0 6a3c c0a4 d43e cb25 743f
00000200: 1882 a63e 79b1 cabe 3c55 d93e 42f1 5f3e
00000210: 80ec 033e dd74 27be 9e5f 06bf fa16 b53e
00000220: 0ef0 39bf 0e80 11bf c526 3c3f 8c2b 4bbf
00000230: 876c dbbd 35eb 383f 2ea9 12bf 089a b33e
00000240: 5664 083e ab33 373f fe2a bd3d c88c 2b3e
00000250: b850 3dbf 739f 34bd 4f8f 6c3f 0b42 2e3f
00000260: 91b7 64bf 446b bc3e 3d83 663e 10dc a03e
00000270: b47b 39be 215c d5bc 941f fb3e cc64 d13c
00000280: 0ac4 0fbf 0429 4bbe fc59 29bf 0364 c23e
00000290: 8a5a e33e 154c f93e abe0 70bf 67f1 ce3c
000002a0: 67c7 afbe aa1b 05bd 9a9b 85bd fc8d b93e
000002b0: 07bf c63e dd98 1fbd 4415 d43d 510a 64bf
000002c0: 8fe6 53bf 6738 cc3e f797 5c3f fe6e 283f
000002d0: 43bf 183e 28e8 e03e 353d 193e 0f26 09bf
000002e0: 46e4 5b3e c727 483f 00aa 1cbf 0ae4 99be
000002f0: c692 a13e c622 383f c728 29bf dd5a 4a3e
00000300: e01d d93e 810e 603f 7df7 713e 064d 503f
00000310: 06bb c73e f818 3b3f bd62 20bc d09c 973e
00000320: 7f22 e03e cc3f 583e f51c a43e 2461 223f
00000330: 1271 70be c858 19be b3e3 203f 7050 d93e
00000340: fd88 3c3f d76e 1d3e a813 8ebe 519a 28bf
00000350: fa2a a53e 8f36 a63e 26e4 4cbf a14a f23e
00000360: cb30 e4be 63f0 88bd 0e48 a13e bcdf 1fbe
00000370: e2e6 febe 3049 5b3f 9ddc 053e 8d6d 053f
00000380: 27b1 39bf 0889 113f 119b 2bbf a03e 2fbf
00000390: 79f0 0c3f b933 263f 5d10 b83e 3bee b5bd
000003a0: 26f5 ecbe adf4 ca3e b439 0ebf a467 7dbc
000003b0: 4ffa b6be 59dd 333f 21ce 3b3f c70d eb3e
000003c0: 63c1 06bf 8a67 b43e a301 c0be 5b9c 00bf
000003d0: 79e5 e73e a88a f1bd eedf 933e 0300 033e
000003e0: c2f2 253e 8ec8 6a3e 3fb9 863d 75eb 0fbf
000003f0: c5ed 593f 95b4 d03e 56a8 b1be 82de 803f

linear3.weight f4 [1, 256]
-0.44191283 -0.3062504 0.2965464 0.030374689 -0.2083881 -0.09375918 0.163068 0.14510807
-1.5537041 -0.052892365 -0.087811165 -0.41949108 0.1252787 0.8254989 -0.57842493 0.092362285
0.0026927073 -0.060330324 0.060491826 -0.28293216 -0.056913756 -0.7812975 0.07049377 -0.011255538
0.19652279 0.030903172 0.14564893 -0.43235436 -0.00083781534 0.3141389 0.016533459 0.579712
0.6090174 0.5000719 0.02414404 0.087330006 0.92650616 -0.44667873 -0.11586582 -0.3132117
-0.32151935 -0.13601777 0.18027517 0.07986532 -0.3356239 -0.043491174 -0.5827962 -0.7173135
-0.14525016 1.113457 0.091774285 -0.004665394 -0.003209001 0.059979208 0.26126134 0.0053763837
-0.27251884 0.0014572956 0.2965766 0.07912089 -0.14113371 0.7532787 -0.633642 -0.13834645
-0.17525336 -0.7338438 0.3696028 0.20525716 -0.0450235 -0.08160328 0.17609903 0.03860568
0.11212135 -0.08327721 -0.9489074 0.88404393 0.21221909 -0.077250265 0.012536411 0.5034221
-0.34556258 0.002842179 -0.17462131 0.17692107 0.72489566 0.94448954 -0.016731042 -0.7136882
-0.21520393 0.007914913 -0.19797441 0.31889802 -0.2848141 0.7218648 0.7266565 -0.027338667
0.20169677 -0.24363102 0.015984653 -0.045333445 -0.101121925 0.00775093 -1.4290279 0.16062373
-0.0041894126 -0.19308527 -0.044102125 -0.086920545 -0.6996835 0.027587624 -0.014570547 1.0172601
-0.053091194 0.08538224 -0.24476469 0.066446714 0.1426854 0.4260399 0.040740687 -0.5043108
-0.25712764 0.050974112 1.103496 0.18923411 0.049391646 -0.18335602 0.0070458646 0.7968699
0.1635997 -0.091695786 0.019486878 -0.06881238 -0.15225336 -0.17929538 -0.41870853 0.09332319
0.14308265 0.12619339 0.52363604 0.15400082 0.2621453 0.5649189 -0.3222446 0.6733341
0.012623946 0.50706524 0.17448647 0.1469091 -0.5422321 0.0035060528 0.6521977 0.42251948
-0.57436144 0.09346297 0.23905492 0.055357248 -0.12909263 -0.0059418334 -0.095128015 -0.17697117
0.08096269 0.059182618 -0.298619 0.044235192 0.02669989 0.24494617 -1.0072452 0.69623256
-0.080866195 -0.0040768054 0.0037005204 -0.15073319 0.08726734 -0.002378245 0.036428306 -0.9336957
-0.5667399 0.13207048 0.55141854 0.34042394 0.506768 0.37325725 -0.08176609 0.021866994
-0.055524975 0.21265744 -0.59992903 0.061689213 0.26295608 0.57913935 -0.48998147 0.094206624
-0.30569744 0.49579996 0.42505717 0.7389129 0.03259294 0.40451622 0.05424332 -0.26533145
0.17554298 0.0172132 -0.20173246 -0.5672138 0.08053519 -0.20450926 0.3567292 0.70053864
0.40301153 0.72249454 0.008380868 0.04062654 -0.093261026 0.0008315495 -0.6813185 -0.3886912
0.066865906 -0.0026531026 0.5716487 -0.030933747 -0.2985455 0.7374245 0.8685385 0.15652941
-0.21606892 0.36394483 0.10261567 0.14175138 0.38301623 0.30334842 0.09889448 0.023139574
0.09958492 0.3622274 -0.45136195 -0.00805384 -0.4973051 0.4080058 0.44444194 0.9807869
0.012991444 -0.16236064 -0.27518272 0.0983184 0.017499834 0.013222818 -0.5243638 0.6217898
-0.5426259 0.007872948 -0.6933072 0.061333466 0.32205254 -0.28921217 -0.07783303 0.6115921
00000000: 6642 e2be dacc 9cbe eed4 973e 57d4 f83c
00000010: b163 55be d004 c0bd 4cfb 263e 3697 143e
00000020: c7df c6bf aaa5 58bd 57d6 b3bd 89c7 d6be
00000030: 0f49 003e e553 533f a813 14bf 7028 bd3d
00000040: 2278 303b ee1c 77bd 47c6 773d 7cdc 90be
00000050: 661e 69bd 1d03 48bf 0a5f 903d 2669 38bc
00000060: 453d 493e a628 fd3c fe24 153e 8d5d ddbe
00000070: d6a0 5bba d0d6 a03e 2d71 873c 0168 143f
00000080: 90e8 1b3f b604 003f b9c9 c53c 13da b23d
00000090: 822f 6d3f 13b3 e4be 0f4b edbd 495d a0be
000000a0: 2f9e a4be 3e48 0bbe 0e9a 383e 6e90 a33d
000000b0: e5d6 abbe cd23 32bd 2232 15bf dca1 37bf
000000c0: 75bc 14be c285 8e3f 28f4 bb3d 29e0 98bb
000000d0: 1a4e 52bb c2ac 753d 0cc4 853e 602c b03b
000000e0: 9787 8bbe ba02 bf3a e3d8 973e 220a a23d
000000f0: 5b85 10be dfd6 403f 5d36 22bf b1aa 0dbe
00000100: 9e75 33be 30dd 3bbf 943c bd3e ef2e 523e
00000110: 906a 38bd 9f1f a7bd 4e53 343e fd20 1e3d
00000120: e19f e53d 3e8d aabd 98eb 72bf b450 623f
00000130: f64f 593e 6335 9ebd 8565 4d3c 45e0 003f
00000140: 94ed b0be da43 3a3b eecf 32be cc2a 353e
00000150: c392 393f 11ca 713f 8a0f 89bc 45b4 36bf
00000160: 6b5e 5cbe 8dad 013c ceb9 4abe 9a46 a33e
00000170: 27d3 91be 22cc 383f 2906 3a3f 57f5 dfbc
00000180: 9989 4e3e 697a 79be 3ff2 823c 90af 39bd
00000190: 0319 cfbd 83fb fd3b 63ea b6bf 8c7a 243e
000001a0: 5747 89bb 25b8 45be 6ea4 34bd 6603 b2bd
000001b0: 751e 33bf 71ff e13c 4eb9 6ebc 9435 823f
000001c0: 2776 59bd e2dc ae3d 98a3 7abe 3715 883d
000001d0: 1f1c 123e e721 da3e b5df 263d 831a 01bf
000001e0: 3ca6 83be 3bca 503d 5b3f 8d3f 96c6 413e
000001f0: e54e 4a3d aec1 3bbe ffe0 e63b aaff 4b3f
00000200: ae86 273e 00cb bbbd f2a2 9f3c 81ed 8cbd
00000210: 4ee8 1bbe 3599 37be f760 d6be 3b20 bf3d
00000220: 4284 123e d738 013e 030d 063f 64b2 1d3e
00000230: e937 863e 869e 103f 3ffd a4be a05f 2c3f
00000240: abd4 4e3c 07cf 013f 95ac 323e 576f 163e
00000250: b9cf 0abf cec5 653b 6ef6 263f 7954 d83e
00000260: 5a09 13bf 8369 bf3d d0ca 743e 48be 623d
00000270: dc30 04be b6b3 c2bb 7ad2 c2bd ee37 35be
00000280: c4cf a53d 7969 723d 97e4 98be f62f 353d
00000290: bab9 da3c 2bd3 7a3e 69ed 80bf 4c3c 323f
000002a0: 2d9d a5bd b996 85bb 6e84 723b cd59 1abe
000002b0: 38b9 b23d 54dc 1bbb d935 153d ae06 6fbf
000002c0: de15 11bf 7c3d 073e c429 0d3f 0c4c ae3e
000002d0: 8cbb 013f 931b bf3e fb74 a7bd 6922 b33c
000002e0: 286e 63bd dfc2 593e f394 19bf d4ad 7c3d
000002f0: 2ea2 863e 7a42 143f dade fabe 67ef c03d
00000300: 6084 9cbe 7ed9 fd3e 18a1 d93e 6529 3d3f
00000310: 2d80 053d c01c cf3e 3e2e 5e3d 86d9 87be
00000320: 8ac1 333e b202 8d3c f492 4ebe ec34 11bf
00000330: a2ef a43d e06a 51be 36a5 b63e 8056 333f
00000340: 8757 ce3e 67f5 383f e84f 093c 0468 263d
00000350: a3ff bebd 58fc 593a e46a 2ebf 8802 c7be
00000360: fef0 883d addf 2dbb 9257 123f c568 fdbc
00000370: f5da 98be dac7 3c3f 8a58 5e3f 3f49 203e
00000380: 2c41 5dbe fa56 ba3e 2a28 d23d 4627 113e
00000390: b41a c43e 7c50 9b3e 3089 ca3d 348f bd3c
000003a0: 2ef3 cb3d df75 b93e ea18 e7be 41f4 03bc
000003b0: c69e febe 23e6 d03e e58d e33e da14 7b3f
000003c0: 11da 543c de41 26be c0e4 8cbe 285b c93d
000003d0: d05b 8f3c 85a4 583c b53c 06bf 9e2d 1f3f
000003e0: 88e9 0abf 8afd 003c 957c 31bf cd38 7b3d
000003f0: 12e4 a43e 9e13 94be ec66 9fbd 4d91 1c3f
