outputs/Optimal_Control/20220401-225602/models/checkpoint.pt (torch, 533487 bytes, 7 tensors)

linear1.weight f4 [256, 2]
00000000: abe4 d73e 2c56 37bf 7811 1ebe 45df dbbe
00000010: 5665 973e 8763 843d e990 ae3c b92c 623d
00000020: b1fa 9cbe 874a 20bf d902 e13e 6750 953e
00000030: a861 f6bd 1228 c2be 1f91 31bf 98d8 b03d
00000040: 4455 423e ed92 53bf c639 f83e 4228 123f
00000050: 5fae 99be 20b6 f9bc b2fd 413e 1097 5b3e
00000060: 96d2 073d 81fe 34bf 6730 d93e 26c0 3b3e
00000070: 0180 923d bd7e b0bf 57d3 21be a64b 3e3f
00000080: ce78 16bf 8a81 8a3e 07a6 2a3e 8386 ed3d
00000090: f0db 6fbe f023 f7be 8b84 09bf ad0c c1be
000000a0: 68d9 c63e 2781 e2be 2f05 833e 32df 41bf
000000b0: 1820 0cbe 506e 75bd 9109 8a3e 2b2b b93e
000000c0: 0fbb ef3e 3be4 11bf fcf8 21be ad02 c5be
000000d0: c5ad d73e 40b3 97be afd0 1e3e 16f6 ca3e
000000e0: dde1 583d fa8c a5bd 0cdb 833d a3c0 9abf
000000f0: 75ce 99bd 68af 123f dc34 dcbe 3176 b4be
00000100: 70e1 df3d 420f 1f3f 4d91 23bf 3048 27bf
00000110: 3926 12bf 6a69 c23e 3f5a b33e 4fa8 7bbd
00000120: 7e3d a93e b47b 2ebf 4db6 21be ca13 383f
00000130: 1285 a6be d314 ecbe d334 37be ad42 4b3f
00000140: 9b13 043f 6c39 f9be c53a f73c f996 fcbe
00000150: c869 a43e 3a25 efbd 34b6 11bf 461c c6be
00000160: 0476 7d3d 3002 8c3e 53c7 243e 04e0 03bd
00000170: 1051 323e dd4e cb3e 0de8 9a3e 5188 fabe
00000180: 43a8 f7bd edbc a23e 5031 ad3e 425d 5dbe
00000190: 98fe 133e b3db 26bf 0000 8739 6f61 14bf
000001a0: 0c45 9fbe de92 973e f05f ff3d c160 973e
000001b0: 7cb4 e13e ba2a d33e d071 f3bd 7dbe 0cbf
000001c0: a363 0d3f 7124 7f3d 4d95 e3be e08e 8a3d
000001d0: 07b8 18bf ea26 ebbe 031b b23d a60b 77bd
000001e0: a477 fe3e 532c 35bf 1607 993e d377 12bf
000001f0: 8fe7 1ebf 9860 4c3e aa7f bebd 5d47 c63d
00000200: 1784 0b3f bb46 ce3e 7a3f 153e 0842 a53e
00000210: dd02 a4be 70c9 813d 15d8 10bf 683e 42be
00000220: 8e9f 453e 330d f5be 3044 c33e 1d47 30bf
00000230: 0d37 d3be a271 24bf e8ab 11be a0c1 91bc
00000240: 7a40 373d 9544 b33e c3b1 cf3e 480c 23bf
00000250: 5fca 623e 593a 3bbf 01f3 a8be 081b ac3d
00000260: 3f63 07bf 64db 833e 12b8 aebe d8ba eb3d
00000270: 751f 8a3e c96e 38bf 4a8b 653e 85fa 98be
00000280: 4e82 ec3d 8524 f3be 428a fc3e 0962 b7be
00000290: 4587 0c3e 902f 21be 09a0 14bf 61b3 24bf
000002a0: 0f87 aabe 4023 42bd 0bc3 ce3e dcf4 59bf
000002b0: 8412 3f3e da15 33bf f0c0 4f3e 52a4 5b3e
000002c0: b778 1abf 24cd c1be d3c6 b03d 77b9 28be
000002d0: f9a5 d03e 0bcb 183f 7130 24bf 9282 dfbe
000002e0: 1d93 c53e f4d8 2bbf 6032 93bd e39b 93be
000002f0: 9498 96be 405d e73d b1e1 b4be db48 2ebf
00000300: 7817 1d3f 595d b53d 5740 553e 7398 89be
00000310: 689d 2bbf e8bf 20be 1053 d3bd 0504 30bf
00000320: f840 05bf 00a8 f13a d8d4 b4be 08fc f1be
00000330: 5815 d5be a798 dcbe f06e 843e 97ad 643e
00000340: 22b4 07bf 7d6e 32bf 98df b0be 40d7 453e
00000350: a0a6 003f 9042 79bc 9857 c73e 2490 f9be
00000360: 7e5a 41bd 056b a03e 75f5 04bf 47d7 98be
00000370: f014 23be b854 e83e 2ce0 25bf eb6d d7be
00000380: 4428 a53e caa0 223e 2727 0cbe a4dd 0e3f
00000390: 7199 88bd 6b12 453f 35c5 9abe 0ab1 ec3e
000003a0: d23c b53a 64de ba3e 5f4e 2b3b 35bf 0c3f
000003b0: f757 7fbb d185 033f 80d2 f3bb f00b d3bd
000003c0: edaa ea3e 0de1 873e 3143 a83e 2490 913e
000003d0: 7ea3 893e 7dc7 b2bd cb88 d9be 238c 293f
000003e0: 20b5 09bf 5813 783e d17a 2cbf 90fa 30be
000003f0: 470d 03bf c0e1 ee3c f5d9 1e3e de3b 553e
0.42166647 -0.7161586 -0.15436351 -0.4294378 0.295695 0.06464296 0.021309333 0.055218432
-0.30660012 -0.6261372 0.43947485 0.29162905 -0.12030345 -0.37921196 -0.6936206 0.08635062
0.18977839 -0.82646066 0.48481578 0.5709268 -0.30015847 -0.030482352 0.18944433 0.21444345
0.033159815 -0.7070084 0.4241974 0.18335018 0.07153321 -1.3788677 -0.15803276 0.7433418
-0.58778083 0.27051955 0.16664897 0.11597922 -0.23423743 -0.48269606 -0.5371787 -0.37704983
0.38837743 -0.4423916 0.25589892 -0.75731194 -0.13684118 -0.059919655 0.26960424 0.36165747
0.46822402 -0.5698888 -0.15817636 -0.38478604 0.42124763 -0.29628944 0.15509294 0.39640874
0.052949775 -0.0808353 0.06438264 -1.2090038 -0.07510082 0.572989 -0.43009079 -0.35246423
0.10931671 0.62132657 -0.63893586 -0.65344524 -0.57089573 0.3797105 0.3502979 -0.06143981
0.33054727 -0.68157506 -0.15792198 0.71905196 -0.325234 -0.46109638 -0.17891245 0.79398614
0.51592416 -0.48676622 0.03017939 -0.49333933 0.32111955 -0.11677022 -0.56918645 -0.38693446
0.061880127 0.2734542 0.16091661 -0.03219606 0.17413735 0.39708605 0.30255166 -0.48932126
-0.1209264 0.31784764 0.33826685 -0.21617606 0.14452589 -0.65178984 0.00025749207 -0.5796117
-0.31107366 0.29604238 0.124694705 0.29566005 0.4408301 0.41243535 -0.118869424 -0.5497816
0.5523016 0.062290613 -0.44449845 0.067655325 -0.59655803 -0.45928127 0.08696558 -0.060313843
0.49700654 -0.7077076 0.2988822 -0.5721409 -0.6207208 0.19958723 -0.09301694 0.0968158
0.5449843 0.40288338 0.14574996 0.3227694 -0.32033435 0.06337249 -0.56579715 -0.18969119
0.19299147 -0.47861633 0.3813796 -0.6885851 -0.41252938 -0.6423589 -0.14225733 -0.017792523
0.044739224 0.3501326 0.4056531 -0.63690615 0.22147511 -0.73135906 -0.32997897 0.08403593
-0.5288581 0.2575332 -0.3412481 0.11510247 0.26977125 -0.72044045 0.22416416 -0.2987863
0.11548291 -0.474888 0.49324232 -0.35816982 0.13723476 -0.157408 -0.58056694 -0.6433621
-0.33306167 -0.0473969 0.4038318 -0.8513925 0.18659407 -0.6995522 0.20288444 0.21449402
-0.60340446 -0.37851822 0.08631673 -0.16476999 0.40751627 0.5968482 -0.64136416 -0.43654305
0.385888 -0.6712792 -0.07187343 -0.2882987 -0.29413283 0.11297083 -0.3532844 -0.6807992
0.61363935 0.08855695 0.20825325 -0.26874122 -0.6703706 -0.15698206 -0.10318577 -0.68756133
-0.5205226 0.0018436909 -0.35318637 -0.47262597 -0.41617846 -0.43085214 0.2586589 0.22331844
-0.53009236 -0.6969984 -0.34545588 0.19320393 0.5025425 -0.015213624 0.38934016 -0.48742783
-0.04720544 0.3133165 -0.5193704 -0.29851744 -0.15925956 0.45377135 -0.64795184 -0.42076048
0.32257283 0.15881649 -0.1368681 0.55806947 -0.066698916 0.7698123 -0.30228582 0.4622882
0.001382733 0.36497796 0.0026139242 0.5497926 -0.0038962343 0.5137606 -0.007440865 -0.10305011
0.4583353 0.26538888 0.32863763 0.28430283 0.26882547 -0.087294556 -0.42487177 0.66229457
-0.53792 0.24226129 -0.673749 -0.17283082 -0.51192135 0.02916038 0.15512832 0.20823619

linear1.bias f4 [256]
00000000: 8dda 9b3f a5e2 063e cde9 9abf 0506 c6bf
00000010: 6e47 1d3d e1ee e03f 9837 bfbd fa3c 173f
00000020: 4ff4 923e b41d a8bf 0061 abbb 4b19 9dbf
00000030: ec7d 5c3e e085 06c0 cfea d0be 65d3 413f
00000040: 8834 c7bd 5a85 50bf 2f66 adbe 17d4 053f
00000050: 91ad c73f d4d6 c7bf 6e34 9dbe abdf 69bf
00000060: a764 55bf 726a 933e 7712 643f d732 92bf
00000070: 9a75 bdbf c780 b33d a815 c2bf 3f58 303e
00000080: fc56 293e 75ec bf3d 39a6 1f3f de32 2e3e
00000090: 2914 a2bf eea6 853f e260 f73e a6c3 af3d
000000a0: 9c30 d93f 3659 12bf 3262 6f3f 9c29 7a3e
000000b0: e1be de3f 0d1d 04c0 971c cabf 7a04 c33f
000000c0: 7b84 4c3f f21f 7dbf 7fb9 65be 44a4 81be
000000d0: 60e5 9dbd d758 8b3f 4727 d03f 5d84 1d3f
000000e0: 5c13 97bf 8d91 1abf 5029 f1be 5490 80bf
000000f0: 3630 9bbd e16d 903e e0e9 af3e d154 43be
00000100: c20c 5bbf 95fa 60be ed78 f4be 7ca1 cb3e
00000110: ada8 8c3f b7ba f7bf 9fd7 1bbf 6946 8bbe
00000120: 7b9d f0bf 6e33 b8bf e002 b9be 97ea 843e
00000130: 8219 193f 38f3 843e cf00 e0bf f899 ed3f
00000140: e46d 95bf a501 96be c92b a5be c4fa c2be
00000150: acd9 4e3e 7e3a b23e 44f2 8a3f d7cd d4bf
00000160: 7e02 ba3d 1242 d8bf 2ef7 b73f 1891 71ba
00000170: 83f9 75bf 3019 df3e d344 073f 3217 8cbe
00000180: 9ba1 94bf 7516 aebf f316 153f 4ad8 dabe
00000190: 5000 773d 9600 0ebf 3c0c b3ba 74f0 693f
000001a0: 6f77 423e 2f46 c53e 00ab 81bf c2e7 8d3f
000001b0: 13c5 b1be 30c2 d5be 139e 05be 3502 2a3f
000001c0: 6614 d0bf 43fa 4fbe 6ed7 df3f 9562 633f
000001d0: 9b85 92bf 381e dabf a2fa 68bf cca3 09bf
000001e0: 6382 8dbf e0d9 c9bf e2d4 c3bf b810 3cbf
000001f0: 0972 b2be adce 8f3e 025d 99be 2919 22be
00000200: 5cc7 d6bf ff3f 9f3e 8e23 193f eca5 8a3f
00000210: 8afd b5bf c0d8 d4bf c018 d6be 97bd 1f3f
00000220: c55b 8b3f 78e2 dbbf c473 253f 5cb5 d1be
00000230: 1493 67bf 8cf4 89be 950c e6be b6de dfbf
00000240: d447 28bf adcb d6bf 3d9c 0f3f b7d4 923f
00000250: 05eb 53bf 0856 ea3f 4ee6 c0be 8e31 edbe
00000260: 6b3e d73f 19f3 b23f 7a2b 583f 24c5 cdbf
00000270: dffa 5c3f 32f1 ee3f af2b 5f3f e201 02bf
00000280: 69b5 ba3d b8ba 2dbf 6f53 0fbf d57b bfbf
00000290: 14ed 68bf 8b2d 5bbf f060 00bd 7730 4cbe
000002a0: 345d 943e 9026 b6bf e8dd 28be 92e1 d7bf
000002b0: c13e 01c0 a829 dcbe 0b96 663e a80e bb3f
000002c0: f744 b93f aa0b b9bf 80ff 08bf a709 ce3f
000002d0: 1149 ccbf 0153 703f 8069 47bd c15a b5bf
000002e0: 57be f0bf 9a4f 513f b5dc b03f 7e9b c7bf
000002f0: 6d0e 543d 56b0 99bf 2dd2 c5bf 5940 4abf
00000300: ed6d 943f 49df 553e fd20 9e3f 7d4f 903e
00000310: f4ab 0cbe e487 d43e 8fea 463e d53d ac3f
00000320: c3bb c1bf e10e a43f c53b a53f 3e17 f23e
00000330: b434 21be bcbf fdbe 828b f0be ae42 953d
00000340: 42ca 12bf e03f fbbe ab94 c2be d579 6cbf
00000350: 97f6 0e3e cde9 d9bf 0047 673f ea51 b63e
00000360: 6932 febf 0512 2a3f cd21 acbf 807f 80bd
00000370: ba10 92bf 3555 f93e b94b 123e f7d6 e93e
00000380: 8add c53f 186f d93f 1250 a2bf 1cb5 aebe
00000390: 16bb ddbd 5c1d b63f 7e02 513e 7f16 003f
000003a0: a83d c2bf 40ed 74bd 5487 c03f 4879 2dbe
000003b0: 476c d8bf 8235 e0bf 9025 11bd 005d 75be
000003c0: 4f32 963e 9c74 b63f b553 cdbf 4c5b e3bf
000003d0: 04b7 f13e 04c7 0cbf 3eaf bfbe 2663 92be
000003e0: 2e64 05c0 e245 e9bf b413 9bbe 8851 8cbf
000003f0: b78b dcbe 40f6 ec3d 9282 9fbf b29c babf
1.2176071 0.13172396 -1.21026 -1.5470587 0.0383982 1.75729 -0.093367755 0.5907742
0.28702018 -1.3134065 -0.005230069 -1.2273344 0.2153241 -2.101921 -0.40804145 0.7571319
-0.097268164 -0.8145348 -0.33867022 0.5227675 1.5599843 -1.5612435 -0.30704063 -0.91356915
-0.8335671 0.2879215 0.89090675 -1.1421765 -1.4801514 0.08764797 -1.5162859 0.17221163
0.16537088 0.093712725 0.6236301 0.17011592 -1.2662402 1.0441568 0.48316103 0.08582239
1.696796 -0.57167375 0.9350921 0.24429935 1.7402002 -2.064273 -1.5789975 1.5235741
0.7988965 -0.9887687 -0.22434042 -0.25320637 -0.077097654 1.0886487 1.6261986 0.61530095
-1.1802783 -0.6037834 -0.4710183 -1.0044045 -0.07577555 0.2820883 0.3435812 -0.19075324
-0.8556634 -0.2197059 -0.4774851 0.3977164 1.0988976 -1.9353856 -0.60875887 -0.27202156
-1.8798059 -1.4390695 -0.36135006 0.25960228 0.59804547 0.2596681 -1.7500247 1.8562613
-1.1674161 -0.2929813 -0.32259968 -0.38081944 0.20200223 0.3481025 1.0855184 -1.6625317
0.090825066 -1.6895163 1.4372308 -0.0009215041 -0.9608385 0.43573904 0.5283939 -0.27361447
-1.1611818 -1.3600603 0.5823814 -0.4274314 0.060303032 -0.55469644 -0.0013660262 0.9138253
0.18990873 0.38530108 -1.013031 1.1086352 -0.34720668 -0.41749716 -0.13048582 0.6640962
-1.6256225 -0.20310311 1.7487619 0.888223 -1.1447023 -1.7040472 -0.91007435 -0.5376556
-1.1055416 -1.5769615 -1.5299342 -0.7346301 -0.34852627 0.2808737 -0.29953772 -0.1582991
-1.677959 0.31103513 0.5981988 1.0831885 -1.4217999 -1.6628647 -0.41815758 0.62398666
1.0887381 -1.7178488 0.6462977 -0.4095868 -0.904588 -0.26944387 -0.44931474 -1.7489841
-0.657346 -1.6780907 0.56097776 1.1471165 -0.82780486 1.8307505 -0.3767571 -0.4632687
1.6815923 1.3980438 0.8444134 -1.6075788 0.863203 1.8667357 0.8717603 -0.5078412
0.091166325 -0.67863035 -0.55986685 -1.4959666 -0.9098675 -0.8561637 -0.031342447 -0.19940363
0.28977358 -1.4230518 -0.164909 -1.6865714 -2.0194552 -0.4300053 0.22518174 1.4613848
1.4474171 -1.4456685 -0.5351486 1.6096696 -1.5959798 0.93876654 -0.048684597 -1.4168321
-1.8808087 0.8176209 1.3817354 -1.5594327 0.05177157 -1.2006938 -1.5454766 -0.79004437
1.1596047 0.20885958 1.2353817 0.28185645 -0.1373747 0.41509926 0.19425415 1.345637
-1.5135425 1.2817041 1.2908865 0.47283357 -0.15742761 -0.49560344 -0.46981436 0.07288109
-0.5733987 -0.4907217 -0.3800405 -0.923734 0.13961254 -1.7024475 0.9034271 0.3560937
-1.9859134 0.66433746 -1.3447815 -0.06274319 -1.1411355 0.4869782 0.14286698 0.45671818
1.5458233 1.6987028 -1.2680686 -0.3412255 -0.108266994 1.422771 0.20411107 0.50034326
-1.5175066 -0.05979657 1.5041299 -0.16940796 -1.6908044 -1.7516329 -0.035436213 -0.23961258
0.29335257 1.4254336 -1.604117 -1.7762237 0.47209942 -0.54991174 -0.37438387 -0.2859127
-2.0842395 -1.8224452 -0.3028847 -1.0962381 -0.43075344 0.11570406 -1.2461722 -1.457907

linear2.weight f4 [256, 256]
00000000: 7aaa 4b3d c53f 63bd ae9e 58bc 753e 8c3c
00000010: 4892 3ebc 1600 85bd f88e 8dbc 5263 fe3c
00000020: bdf3 79bc 2518 f4bc d034 febc f8c2 533d
00000030: dedf 06bd 187a a63c d7b0 2b3c c209 ad3b
00000040: 7874 1c3c cd6f 473c 422d 35bd 0811 36bd
00000050: d3f1 653c 5784 3dbd fccd 15bd 091e a3ba
00000060: e3d7 dcbc 16de 873c 6899 493d b7ed 063d
00000070: 6761 713c f0e2 663d 54ee 19bd 5c16 79bd
00000080: 2854 793d 3739 64bd 962b f5ba 4b34 f43b
00000090: 0163 46bd 6244 5f3c 239a 35bd 6170 a03b
000000a0: b08d cb3c 6907 a63c a7f5 febc 8f7c 5c3c
000000b0: 3a3c 0a3d 9daa f9bc abc9 84bc 7faf 983b
000000c0: a907 cfbc f02a 29bd 9d41 48bd 3a8b 6b3d
000000d0: 76b2 46bd 28f1 24bd 4d72 59bd 8d0d 69bb
000000e0: 5b88 c5bc 4869 1fbc 3ee8 3c3d 1fd7 a83b
000000f0: 923c b9bc 85fe 0abd 61fc 823c 2721 cf3c
00000100: 1ba3 81bd 22dc 623c 5026 823c 3912 2ebd
00000110: 27af ad3c b0d1 a03c b0de 5f3c 0009 d2ba
00000120: 0b5a 3abc 1743 1f3d 6e5a 1dbd b1da ee3c
00000130: 7bf0 b13c 0fef 62bd 6bdd 0f3b d996 82bd
00000140: 1e18 f53c 936b 743d 4451 5b3d b0db b53c
00000150: 9208 3cbb 8e8f 79bd c19c 81bb 3105 053d
00000160: a65f f3bc 5819 343d 0961 113b aad2 313d
00000170: 821a e3bc 135e 163d e482 5cbd 0c38 69bd
00000180: 20ea 3c3d f859 31bd 5c77 5cbd fa9c 4e3d
00000190: cbd8 56bd 84c2 6c3d a7b2 9fbc 92a2 e73b
000001a0: 2b49 e0bc 0cd0 cf3c b3cc 223d 55ab 4d3b
000001b0: 99e5 3ebd ec39 0ebd cadb 81bb d9e7 53bd
000001c0: 6609 4fbd ed18 823c 0f2c 4d3d 0f00 c83c
000001d0: 8073 1dbd a555 d4bc 772a 69bd 7ab3 4dbd
000001e0: 574d be3c 6eea 093c 493f ee3c 11f6 4e3d
000001f0: 8847 1abc b933 963c c81b abbc d8cf 393d
00000200: 76bc 733c f957 8cbc 6be1 c0bc e14c 193d
00000210: 203c da3c 5dd6 3dbd 8851 c23c 0284 53bc
00000220: 0ddd 683d 9204 1f3c 40a6 e9bc b29c 19bd
00000230: 36c0 67bd ca00 70bd e086 98bc cc5d 733d
00000240: 6805 63bc 63b9 60bd 56de 783b 3c32 adbc
00000250: a76f 2a3b f8b3 b1bb d025 7dbd 663f 5fbd
00000260: ee87 12bd 0549 b6bc c0ba 9d3c 8b5d 95bc
00000270: a3b9 1dbd 49db 20bd 2053 44bb aa45 66bd
00000280: c43e 76bc 5898 cebc c4c6 92bc 70ea a3ba
00000290: 57cf c9bc ca0e 0abd d8fe 5dbd faa6 1f3d
000002a0: 0cd8 d9bb b6f5 42bd 54f8 6fbd 1800 a13c
000002b0: 0c72 13bd f8e0 60bd 78fe 0d3d 92dc 393d
000002c0: b997 35bd 77d4 75bd e49e 553d fd46 4b3d
000002d0: 7940 30bd a705 42bd 4035 503d 8b05 ec3c
000002e0: c38e 453c 8877 02bc 8e72 4b3d d551 703a
000002f0: 626c 49bc efa0 fdbb 681e 75ba fa8e 7abb
00000300: 553c 353d f3d2 543b 12b5 4ebc 5e60 243d
00000310: ec8b 93bc df35 48bd 0e91 7cbd 63d4 85bc
00000320: 341b c2bc 2cf4 56bd 13f9 f73c 05a1 75bc
00000330: 1c7e a43c ecbf 483d 5ec0 1b3d 7851 adbc
00000340: 7e32 37bd 232c c3bc fe13 003d 2614 cabb
00000350: 3739 9d3c 5961 05bd c4d4 443d 6714 453d
00000360: b25b 16bd 304e fd3c 4cf8 d1bc 643a e8bc
00000370: d46e 1dbd ba18 2a3d fa3c 59bd fbfb b93c
00000380: 540a af3c a0d9 acbb 27d0 643d a52a 753d
00000390: 314a 66bd 0473 623d 3ddc e63c 69c4 ffbc
000003a0: f9a0 11bd 286b cd3c 3292 18bd 58a6 91bc
000003b0: 8248 66bd ad0d 44bc 44cc 283d 20ae e8bb
000003c0: fd9c 0cbc 07fe 41bb 669b 01bd bf36 0b3c
000003d0: a82c 043d 8e3d 6c3d 8040 eeba 782b 2a3d
000003e0: 2c17 193c b2b6 7e3c f20f 313d 7e0a f53b
000003f0: 0c67 a8bc 57e7 b33b b486 74bd a774 263d
0.049723126 -0.055480737 -0.013221426 0.017119626 -0.011631556 -0.06494157 -0.017280087 0.031053219
-0.015255866 -0.02979667 -0.031031042 0.05169961 -0.03292834 0.02032189 0.010479174 0.0052807042
0.009549253 0.0121726515 -0.044232614 -0.044449836 0.014034706 -0.046268787 -0.036573395 -0.0012444864
-0.026958412 0.016585391 0.049218565 0.032941546 0.014732695 0.05636877 -0.037580803 -0.06081234
0.060871273 -0.055718627 -0.0018705006 0.007452523 -0.04843426 0.013627144 -0.04433645 0.004896209
0.024847835 0.020267205 -0.031122996 0.013457431 0.033748843 -0.030476863 -0.016209444 0.0046595926
-0.025272207 -0.041300714 -0.0488907 0.057505824 -0.048510037 -0.040269047 -0.05308752 -0.0035561055
-0.02411287 -0.009729691 0.04611992 0.0051525976 -0.02261189 -0.033934135 0.015989484 0.025284363
-0.06329938 0.013846429 0.01588741 -0.042497847 0.021201683 0.019631237 0.013663933 -0.0016024411
-0.011374007 0.03888234 -0.03841632 0.029157015 0.021721115 -0.055403765 0.0021952044 -0.06376428
0.029918727 0.059672903 0.053544298 0.022199482 -0.0028691632 -0.06092792 -0.003955454 0.032475654
-0.029708695 0.043969482 0.0022183082 0.043413796 -0.0277226 0.03671081 -0.053835765 -0.056938216
0.046121716 -0.04329869 -0.053824767 0.050442673 -0.052452844 0.057802692 -0.019494368 0.0070689404
-0.02737864 0.02536776 0.039745998 0.003138264 -0.04660568 -0.034723207 -0.0039629685 -0.05173478
-0.050546072 0.015881026 0.050090846 0.02441409 -0.038440228 -0.025919745 -0.056925263 -0.05021999
0.023230238 0.008417709 0.029082911 0.050527636 -0.009416468 0.01833521 -0.02088727 0.04536423
0.014876476 -0.017131792 -0.023544988 0.037426833 0.026639998 -0.04634701 0.023720518 -0.012909891
0.056851435 0.0097056795 -0.028521657 -0.037502952 -0.05657979 -0.058594503 -0.018619 0.059415624
-0.013856269 -0.0548643 0.003797432 -0.021142118 0.0026006491 -0.0054230653 -0.06180364 -0.05450382
-0.035774164 -0.022251615 0.019254088 -0.018233081 -0.038507115 -0.039271627 -0.0029956773 -0.05621878
-0.015029613 -0.025219128 -0.017917044 -0.0012505781 -0.024635 -0.03370551 -0.054198116 0.0389776
-0.0066480692 -0.04759761 -0.058586434 0.019653365 -0.035997435 -0.054902047 0.03466651 0.045376368
-0.044334147 -0.060017075 0.052153483 0.049628247 -0.043030236 -0.04736867 0.050832033 0.028811237
0.012057963 -0.007963069 0.049669795 0.00091674674 -0.012293907 -0.007740132 -0.0009350539 -0.0038232193
0.04424699 0.0032474368 -0.012616413 0.040130965 -0.018011056 -0.0488795 -0.061661772 -0.016336625
-0.023694612 -0.052478954 0.030270135 -0.014992003 0.020079665 0.049011156 0.038025253 -0.021157011
-0.044725887 -0.023824757 0.031269066 -0.0061669527 0.019192321 -0.03256354 0.04805447 0.04811516
-0.03670854 0.030921072 -0.025631092 -0.028348155 -0.038435772 0.041527487 -0.053036667 0.022703161
0.02136723 -0.0052749664 0.055862572 0.059855122 -0.0562231 0.05528547 0.02818119 -0.031221585
-0.035553906 0.02507551 -0.037248798 -0.017779514 -0.056221493 -0.011966151 0.041210428 -0.0071008354
-0.008582351 -0.0029600875 -0.03164234 0.008496939 0.03226915 0.05767589 -0.0018177181 0.04154536
0.0093439035 0.015546488 0.043228097 0.0074780574 -0.02055695 0.0054902243 -0.059698775 0.040638592

linear2.bias f4 [256]
00000000: 5c2d 3a3d a168 f43d 9602 0e3b a966 e63c
00000010: 00fe 5eb9 501d 21bd 4731 ee3c bb12 673c
00000020: 0294 153a 2b15 3c3c 3c1a 47bf 4a9c 9d3c
00000030: 5fbc 55bf e60e b23e 6e62 1dbd 35f3 633d
00000040: 840c 173d f694 42bd c219 6fbb 6452 0abd
00000050: 8c20 893e 6806 c03c 31f3 02be 61a1 5d3d
00000060: 7e57 083d b7a3 41bd f99d c0bb 88a3 f3bc
00000070: cc36 4ebd f0c2 97bc eb0b 54bc 992b bb3c
00000080: 2e21 2cbd 7ef5 59bd 8196 003f 5c37 55bd
00000090: 0287 0fbd c57e 483d 6f69 a33c b0e4 03bd
000000a0: 1c4f 17bd 4a99 a8be 9c95 e83d 9056 dd3c
000000b0: 95ea d6bc 9376 d2bc ed01 72ba 8e39 853d
000000c0: f762 89bf 12a6 37bd 4ba8 403f 45bb 8fbc
000000d0: 0cd0 1dbd b674 11bc 91ec ebbc 64a6 52bd
000000e0: 9abe 123d c4f0 adbc 42dc 89bc bc1f c13c
000000f0: 9796 acbb 0b76 febe 80ac d9bc 7873 05bc
00000100: 3f96 b13b d9b0 f13c 0d31 813e afb8 6b3b
00000110: 01c6 a8bc d3f6 fc3c 79af 76bc 8a89 693d
00000120: 56a3 b33c 12d5 5abd 8a8f 203d d7d4 e43c
00000130: 560c 9a3e 2681 503d 823f 8d3c d961 97bc
00000140: ab07 d93c f7cb a4bc 6001 18bb c8af 713d
00000150: f34c ae3e bc6b f13c afa2 03bf 815e d83d
00000160: 1974 0c3b 7f0f c33d 7e8a 1dbc 8bbd 3a3e
00000170: 0ecd cf3c 2420 4abd 9b1e 3f3d 3bcd 04bd
00000180: 2a20 573d e349 57bd f1f4 c73c 5074 393c
00000190: 605d 133d afae 10bf 4cc5 3a3b 32c9 8b3c
000001a0: f5d5 75bd 3b0f 2d3b 68d2 6ebd 22e2 38bd
000001b0: 78f0 1bbd 6884 873d eb1a 22bd b93c aa3b
000001c0: e664 2dbb e07e 65bd 8082 7f3c 0ccc be3c
000001d0: 7214 743d 0007 9dbc b6de 8abd 1029 9c3c
000001e0: 4e10 1f3d 4525 43bc c0dc 5bbd 387b f23c
000001f0: 5398 50bd b99d a53d 375f 9bbd 5a98 42bd
00000200: 01d1 09bd df14 a93e 0caa 813c ed0f 0c3c
00000210: 565f 18bd 008e 2d3b bd4f e23c 7027 8139
00000220: 9f0f 40bd 87bb 93bd cb5f 383d 14d8 b73c
00000230: 2bd7 34bc 9abc c4bc cd3e 783d 2dbf cd3d
00000240: 5268 21bd 77b7 29bc ff70 5dbd b159 81bd
00000250: 16c1 273d 0c2c 643d 9e6b c63b 11c0 1abd
00000260: bb25 87bc 4edf ab3b f8f0 2c3c 6566 2dbd
00000270: 9161 a3be a888 7ebd 3897 11bc b31c cf3e
00000280: 3c69 c13d 324c 8fbc 383e 82be 6457 67bd
00000290: dbec 233d eeb4 3e3e 3d74 25bc 510e 53bd
000002a0: 7a3e b93d 2cd2 543c 8e84 f93c 7011 ea3c
000002b0: 62a0 37bd 478d f03c de8e 02bd 19ca de3c
000002c0: 8e98 973c e700 613d f447 4dbd ddad 27bc
000002d0: df0b 02be be5f 7bbc 1798 47bc 784b 6dbc
000002e0: 80c2 fcbc 79a8 823e 3348 f3bd 0049 93bc
000002f0: 956d 3a3a bb09 a1be addd 37bd 3e84 b33e
00000300: 7e21 773d e624 e03c b4cb 293f 7807 343c
00000310: 01cf e2bb fc7b 3cbd 673a 11be 9054 d73c
00000320: 571b c33c 7787 06bd 0e3e 873c a0ef 703d
00000330: f110 0c3d a8ed 8ebe 3da9 f4bc 5c59 7b3d
00000340: 8b9c adbc 7407 edbc ac59 5c3e 5b02 6bbd
00000350: 180d 2c3c 74c2 5abd b06e 5d3d d5f8 15bd
00000360: 2d2e 09bd e8d2 d03c 6080 a6bc 2db5 183d
00000370: c44f fbbd 20d1 693b f19f 46bc 08e8 21bd
00000380: 8440 563e 642d 0ebd f91d f5bc 5501 acba
00000390: 1815 69bd a03e 11bd 4985 573f eac2 1dbd
000003a0: 83a0 923e 5c18 a7bf 6ca7 abbc f587 f9ba
000003b0: ac4f 9cbd 5616 3d3d af62 3fbe a04b 3e3c
000003c0: c2c3 8fbe f19d 54bd 425f 593d 2ba7 a43c
000003d0: d106 1c3d 06c2 04ba 7629 783d a293 e63c
000003e0: 6df7 0d3f 00ed f739 7448 59bd be23 df3c
000003f0: 7350 4c3d 6ee1 87bc b9a9 563d 3616 953c
0.045453414 0.11934019 0.0021669022 0.028125124 -0.00021266192 -0.039334595 0.029076232 0.014103587
0.0005705954 0.011479656 -0.77774405 0.019239563 -0.83490556 0.34776992 -0.038423948 0.055651862
0.03687717 -0.04750534 -0.0036483859 -0.03376998 0.26782644 0.023440555 -0.12788083 0.05410898
0.033286564 -0.04727527 -0.005878207 -0.029741064 -0.050345227 -0.01852557 -0.012942295 0.022847937
-0.04202383 -0.053212635 0.5022965 -0.052054748 -0.035040863 0.04894902 0.019947736 -0.032200515
-0.03694068 -0.3292945 0.11356661 0.027018815 -0.026234904 -0.025691306 -0.00092318543 0.06505118
-1.0733327 -0.04483611 0.75256795 -0.017545352 -0.038528487 -0.008877924 -0.028799327 -0.051428214
0.035826303 -0.02123297 -0.01682866 0.023574702 -0.005266975 -0.49699435 -0.026571512 -0.008145206
0.005419522 0.029503273 0.25232735 0.0035968234 -0.020602228 0.030879414 -0.015056484 0.057015933
0.02192847 -0.053425856 0.03919939 0.027933521 0.30087537 0.050904416 0.017242197 -0.018479275
0.026492914 -0.02011679 -0.002319418 0.05900553 0.34043083 0.029470317 -0.5142011 0.105649
0.0021431504 0.0952444 -0.009615539 0.18236367 0.025366332 -0.049347058 0.046660047 -0.032422286
0.05252091 -0.0525607 0.02440879 0.011319235 0.03597772 -0.56516546 0.0028498946 0.01706371
-0.0600185 0.0026406783 -0.058306128 -0.045137532 -0.038071126 0.06617051 -0.039576452 0.005195227
-0.0026457845 -0.0560292 0.0155950785 0.023290657 0.05958981 -0.019168377 -0.0678076 0.019062549
0.03883391 -0.011910741 -0.05367732 0.02959977 -0.050926518 0.08086724 -0.0758652 -0.047508575
-0.033646587 0.33023736 0.015828155 0.008548719 -0.037200294 0.0026482344 0.027625913 0.0002463418
-0.046889897 -0.072135024 0.04501323 0.022441901 -0.011037628 -0.024015713 0.060606766 0.100462295
-0.03940613 -0.010358683 -0.05406284 -0.063159354 0.040955625 0.05570607 0.0060553094 -0.037780825
-0.016497483 0.005245126 0.010555498 -0.04233398 -0.31910375 -0.062142044 -0.008886151 0.40451583
0.094439 -0.017492387 -0.25438094 -0.056479827 0.040020805 0.18623707 -0.010098514 -0.051527325
0.090451196 0.012989562 0.030458715 0.028572768 -0.044830687 0.029364241 -0.03187453 0.027195977
0.01850536 0.0549325 -0.050117448 -0.010234323 -0.12699841 -0.015342651 -0.012182257 -0.014483325
-0.030854464 0.2551916 -0.11879005 -0.017979145 0.0007111666 -0.31452736 -0.04488914 0.3506183
0.060334675 0.027361345 0.6632645 0.010988109 -0.0069216494 -0.04601668 -0.14182435 0.02628544
0.023816748 -0.032844033 0.016509082 0.058822274 0.034195844 -0.27915692 -0.029865855 0.061364517
-0.02119281 -0.028934218 0.21518582 -0.057375293 0.010501169 -0.0534081 0.054060638 -0.036614258
-0.033491302 0.025491193 -0.020324886 0.037282158 -0.122710735 0.0035677627 -0.012123094 -0.039527923
0.20923048 -0.034711257 -0.029921519 -0.0013122956 -0.056904882 -0.035460114 0.8418775 -0.038515963
0.28638086 -1.3054309 -0.020953856 -0.0019037711 -0.07632384 0.04616388 -0.18689989 0.01161471
-0.2807904 -0.051908437 0.05306936 0.020099243 0.038092438 -0.0005064312 0.060586415 0.028146569
0.55455667 0.0004728809 -0.053047612 0.027238723 0.04988141 -0.016586985 0.052407954 0.018199068

linear4.weight f4 [256, 256]
00000000: 1ab3 af3c d73d 933d bf54 633d b8e5 2dbd
00000010: 8ce8 173d 14bf d1bc e000 383d 4ced 833c
00000020: 2aa7 66bd c107 5d3d 2306 313d 078b 853c
00000030: 3552 233d ceb0 0ebc 5671 a2ba 1959 9fbb
00000040: 6e33 363d ef15 343c 230d 883c fa81 42bd
00000050: 25c8 4fbd 4125 ec3c 10e9 d439 09b0 a33c
00000060: d6eb bfbc 056b 253d 5563 1e3d 7aea 2cbd
00000070: c0e6 89bc 445e 74bd d0ea d0bc 5e3e 4d3d
00000080: d65c 633d 7080 8f3b 6359 893d 1ae6 4cbd
00000090: 108a 633c cacd 49bd 9f0a 983c a07b 6fbc
000000a0: 69c2 b0bc 256a 05bc 065d 31bc 1d88 663d
000000b0: 5e78 463c 2db9 933a 29e6 f3ba 0fa0 9b3c
000000c0: d7fb 67bb deea d93d 6a26 6f3d 1301 653d
000000d0: 0002 df3c c430 7dbd 1484 2c3d 0a4b ae3a
000000e0: 0bf2 3bbd f481 d6bc d8eb 6bbc e2ad aabc
000000f0: fdb5 26bc 8388 a6bb c998 6ebb 0cfc c43c
00000100: 9ccf 5d3b ff2e 82bd ce1b 1c3c 290f 95bb
00000110: 3f51 0e3d 6dc5 4a3d 1b2f 4ebc 548c c3bc
00000120: 2a4b 58bc f635 12bd a00b 263d 99be 583c
00000130: 1baa aebc 6f8e 1e3d e710 6abd 4a88 37bd
00000140: 1bf4 54bd 7066 853b e0d8 f3bc 90a8 e3bc
00000150: ebe3 e23c 5a52 21bc 95f7 0fbb 06af 76bc
00000160: cd0f 263d 9ee6 ee3c 014c 50bd 09f2 d83c
00000170: d957 b03a f8ce 923c 3990 153d adea 0ebc
00000180: 8328 603d 9aa1 9e3c 4735 c03c f8cd 553c
00000190: 8a65 3c3c f9d0 5c3d cce7 5a3d 38b9 26bd
000001a0: 73a1 7dbd fa3f 1ebc 4230 463d fdf4 3d3d
000001b0: a450 dd3c 1f92 553b e797 d73c bf43 f4bc
000001c0: 124f 3fbd 1f9a ac3d 6201 0bbc a05b 743b
000001d0: ad96 b2bb 2dd1 68bd d1d6 8e3c 99d1 bc3c
000001e0: a8f3 b6bc 9781 a63c 38b4 ebbc 6670 44bd
000001f0: 1827 ca3c 018d 16bd e14d c7bd 392f 2fbd
00000200: 52d0 fb3c f053 1fbd 8778 663d ab61 39bd
00000210: 1422 6a3c 04d0 9c3c 7ef9 9bba 4564 62bd
00000220: 0a91 553d f2ad 3f3d 47ae 683c 67ce a13b
00000230: e249 3cbc f9f2 dd3b c886 683d 48e1 39bd
00000240: beb1 743d 54e2 80bc 281f 6b3d b9c1 3e3d
00000250: 01c5 ac3c a8b8 09bc 911d 59bd 6e05 453d
00000260: 2fd7 8b3c 5587 203c 2284 683d db76 b93c
00000270: 7556 983c e486 f9bc 834f 4abd b9ef e03c
00000280: b26b 933c 4b4f 0e3d 5b09 36bc 408f 9ebb
00000290: 0569 2f3d e2c9 2e3d 2644 72bd 97c4 41bd
000002a0: 5dae ee3c 87d5 033d df83 2c3d f4cc c1bb
000002b0: e45a d03c 2795 88bd e471 53bd 2718 0c3b
000002c0: 01ca 9a3c 8944 8d3c 6dd6 783d 0909 583d
000002d0: 7a2a 5c3c 0b84 35bd 4a84 6abd a85f debc
000002e0: a1f0 513d ed60 e7bc 13bf 6abd 2cca 88bc
000002f0: dcbb ab3b 58e4 8d3d 0c93 43bc f355 eabc
00000300: 9c12 033d 8f6e e93c 400f 4cbd 8a9e 703d
00000310: 9fff 2dbd eb3a a93b 1076 babc d2ca bebb
00000320: 92bb c93c fa5a 483d 7ec1 783d 42c8 d3bc
00000330: 2dc9 5a3d 89f2 84bc a739 91bc ec1c 843d
00000340: e87e 533d 3d57 473d 2bf7 0fbe 97b6 db3b
00000350: faa4 25bd 7e34 4f3c b452 c63c 84c1 80bd
00000360: c40e ec3a 1c9f c5bc 6f5f 423d cc47 f73c
00000370: 8356 073d 3476 d53c d687 9c3c 90ef c83c
00000380: 5527 483d a6f9 293c 0292 353d d19d d5bc
00000390: 0081 d3bc 609e 333c c536 cbbd 00cd 0aba
000003a0: 3f33 68bd bd5d 933d a00f 2ebd bde3 c9bc
000003b0: 2f74 0cbe b34e 42bc aa51 18bc 5408 7fbd
000003c0: 70a0 a93b 7013 73bd fc73 e43c 4810 143c
000003d0: 5b9b f4bc 8277 173d a217 1cbd 1fe8 7bbd
000003e0: 338f a4bc 18de 313c a1d0 f0bc 31f1 d63c
000003f0: 19de f13b 4753 21bd 81a0 a1bc dcb9 f3bc
0.021447707 0.071895294 0.055500742 -0.042455405 0.03708701 -0.025603808 0.04492271 0.016104363
-0.056311764 0.053962473 0.043218743 0.016301645 0.03987332 -0.008709146 -0.0012393396 -0.004862916
0.04448264 0.0109915575 0.016607827 -0.047487237 -0.050727982 0.028826358 0.00040609436 0.019981401
-0.023427885 0.040385265 0.03866895 -0.0422158 -0.016833663 -0.05966021 -0.025502592 0.050108306
0.055508457 0.0043793246 0.06706502 -0.05002413 0.013887897 -0.04926852 0.018559752 -0.014616877
-0.021577077 -0.008142983 -0.010825401 0.05628215 0.012113659 0.0011270397 -0.0018608022 0.01899722
-0.003539791 0.106405005 0.058386244 0.055909228 0.027222633 -0.061814085 0.042118147 0.001329751
-0.045885127 -0.026185013 -0.014399491 -0.020834867 -0.010175225 -0.0050821914 -0.0036406985 0.024045967
0.0033845669 -0.0635662 0.0095281135 -0.0045489264 0.03474545 0.049504686 -0.012584473 -0.023870625
-0.013201514 -0.035695992 0.04053843 0.013229036 -0.021321347 0.038710054 -0.057145026 -0.04480771
-0.05199061 0.0040710494 -0.0297665 -0.027790338 0.02769657 -0.009846294 -0.0021967639 -0.015056377
0.040542413 0.029162701 -0.050853733 0.026482599 0.0013453915 0.017920956 0.036514495 -0.008722943
0.054726135 0.019364167 0.023462905 0.013049595 0.011498818 0.05391023 0.053443715 -0.040703982
-0.061921548 -0.009658808 0.048385866 0.046376217 0.027015992 0.0032588316 0.02631755 -0.02981746
-0.046706267 0.08427834 -0.008484216 0.0037286058 -0.005450091 -0.05684011 0.017436417 0.023049163
-0.022332981 0.020325465 -0.028772458 -0.047958754 0.024676844 -0.036755566 -0.09731651 -0.042769644
0.030738983 -0.03889841 0.056267288 -0.04525916 0.014290351 0.019142158 -0.0011899916 -0.055271406
0.052140273 0.046796747 0.014201707 0.004937935 -0.011492224 0.0067733494 0.056769162 -0.04538086
0.05973982 -0.015732922 0.05740276 0.046571467 0.021090033 -0.008405842 -0.053006712 0.04810088
0.017070381 0.009797891 0.056766637 0.022639683 0.018595913 -0.030459829 -0.049392235 0.027458059
0.017995689 0.03474359 -0.011110629 -0.004838854 0.042824764 0.042673 -0.059147023 -0.047306623
0.029135877 0.032186057 0.04211795 -0.005914325 0.025433965 -0.066690736 -0.051622286 0.00213767
0.018895151 0.017244594 0.060751367 0.05274299 0.013437862 -0.04431538 -0.057255067 -0.027145222
0.051254872 -0.02824446 -0.05731113 -0.016697966 0.0052409004 0.06928319 -0.011936914 -0.028605437
0.03200017 0.028495101 -0.04981923 0.058744945 -0.042480107 0.0051644943 -0.022761375 -0.005822518
0.024625573 0.048914887 0.060731404 -0.025852326 0.053414512 -0.016228931 -0.017727686 0.06450829
0.0516347 0.04866718 -0.14059131 0.006705116 -0.040440537 0.012646792 0.024209358 -0.0628691
0.0018009772 -0.02412372 0.047454294 0.030185603 0.03304149 0.02605734 0.01910774 0.024528295
0.048865635 0.010374462 0.044328697 -0.02607623 -0.025818348 0.0109630525 -0.09922556 -0.00052948296
-0.056689497 0.071956135 -0.04249537 -0.024644727 -0.13716196 -0.011859584 -0.009296814 -0.0622638
0.0051765963 -0.05934471 0.027887337 0.009037085 -0.029859236 0.036979206 -0.038108476 -0.061500665
-0.020087814 0.010856174 -0.029396357 0.026238056 0.0073812124 -0.03938606 -0.019729855 -0.02975171

linear4.bias f4 [256]
00000000: 2ae6 31bf e08a 133e 60f5 35bf 13a0 263f
00000010: e2a4 16bf acf9 39bf 769d aebe fa2a 38bf
00000020: c235 c13e 8c32 08bf c44e 17bf e3ab 4cbd
00000030: a0f3 f8bd 55c8 2d3f b3fc c6be 4a28 463f
00000040: 6d10 2ebf dc9c 19bf f3c5 49be 5ddc 1dbf
00000050: 0faa 5f3e cd4f 22bf 2f2e 0ebe 65c3 483f
00000060: ad1f 4abf d8ed 803c 4787 1ebf c752 bbbd
00000070: 4ffd e9be c105 ebbe 0fb6 2cbf f57d 473f
00000080: c7ad 1fbf 956b 1dbe 0d8c 283f 0c72 8abd
00000090: cf9f b13e 30eb a53e 06e9 423f df39 073f
000000a0: 89e6 283f de52 303f 6944 5f3f be9d 13bf
000000b0: 0e84 6cbf c11e 21bf 7b07 33bf 0140 4e3f
000000c0: 23c3 a2bd 7e70 36bf 8835 3cbf 0593 a2bd
000000d0: d3b1 40bf 4179 003d 4122 05bf b3d7 5a3e
000000e0: 4836 30bf b3e2 a43e 4b98 313f 18af dbbe
000000f0: 1453 3f3f 4a21 15bf 81f1 6ebe a9f7 2dbf
00000100: dfcb 283f 6cd5 34bf 3dc4 0abf 74ec 31bf
00000110: 66cc 35bf 8efe 4fbf 8a2c 4fbf 0397 2abf
00000120: 69a9 cebd 0fb6 613f 59bd 243f 0314 2b3f
00000130: 480b 663e 2c16 5d3d e925 08bd 40b8 adbe
00000140: d549 19bf 2162 5a3d ddb6 0b3c 1f8b 723f
00000150: 849f 0c3d 94c6 243e b904 053f d7f1 33bf
00000160: 4439 37bf 0e34 f4be 6b8d 16bd 2451 fd3c
00000170: 401e 613f f4da 3bbd 3cb2 49bf fabc 2b3e
00000180: d993 803f 34f2 493f 3fdc 1ebf cb96 33bc
00000190: 2072 483d bca4 683f d2dc c23c 43e3 13bf
000001a0: a4ae 023f 6290 30bf 13e8 96bc 7d8d c03e
000001b0: 5b7b 49bf 3de0 32bf cf26 20bf 16ae 6dbc
000001c0: 1a52 153f 9df4 9dbe 9311 2dbf 00b6 d9be
000001d0: 21a9 2cbe 6fe3 4c3f ebb1 4abf 6720 ad3c
000001e0: c9d0 933c 9e97 ce3e 4989 27bf 1f51 e03c
000001f0: 2834 1dbf 5227 0e3f 553e c3be 0fdc 543f
00000200: cf98 113f 01c6 3cbf 2caf 72bf a50c f8be
00000210: 0709 39bf bc07 01bf 8ee7 1e3f 87f4 633f
00000220: 51db 0e3f 8cdc e6be d352 48bf 8005 e03e
00000230: 71ff 303f c82f 3b3f 03ac e63e d971 6a3f
00000240: 34b4 563f f85b 1cbf ccef 713f 7caa ad3b
00000250: 252a f33e 4f2d 1c3f 68d7 143f 7899 18bf
00000260: fd7f d2be 3e46 4b3f a47c 25bf 33ab 9bbd
00000270: 349a 96bc 7859 3b3f 98cb 223f 44fa b83e
00000280: eff9 0cbf 93b4 cdbe 4439 023f 7704 433f
00000290: 57bf 393f de9c 843e d086 51be 6a03 aebd
000002a0: 2e45 56bf afd9 e4be 2587 893e a3d9 6a3f
000002b0: 7899 913e 2cf8 46bf 02bd 54bf 6523 70be
000002c0: 2b5d 1cbf e0ab 31bf 9b99 493f 3996 c23e
000002d0: fcf0 603d 61d6 0cbf 5601 a03d 2000 1bbf
000002e0: 61c6 1fbf 32f7 21be 050b d6be 7ab4 10bf
000002f0: 7920 2a3f b1dc 25bf 7853 33bf 94ba fb3e
00000300: 96cb 433f 2683 7abe 3441 41bf 882f 863e
00000310: ba2f 4c3e 751a 11bf e1a2 193f 1b46 9dbd
00000320: e4c7 e83e e67d 3d3f e04b 13bf c4ad 44bf
00000330: 245d 203f 9511 37bf ef82 39bf 9dc4 29bf
00000340: ab60 babd b801 43bf f256 3c3f 6fe3 3abf
00000350: ecff 1ebf 9606 713f 6c4a 7b38 d2ee 3e3f
00000360: 9e62 343f da7f 51bf e9f3 eebe b8dd ac3c
00000370: 3388 e9be 63ad 28bf 1500 6d3f 2595 34bf
00000380: 65b1 693e 0a32 ef3e e67f 2dbf e1c4 3b3f
00000390: 26e8 39bf cd4a 3bbf 0175 2b3f bca9 47bf
000003a0: 70fe 1f3f 5773 463f e3fe 9a3e a259 033d
000003b0: cb20 93bb 7202 553f 2a66 30bf 5f67 b53e
000003c0: a7ba 41bf 3d05 d2be 1702 1e3d 5dd5 333f
000003d0: bdf8 eabe d483 623f 68c6 173f e900 503f
000003e0: 33df 253f a2b7 0a3f e743 5fbf f572 f53e
000003f0: fe13 adbe 75c8 3c3f 3bc3 04bf b063 253f
-0.6949183 0.14408445 -0.7107754 0.65088004 -0.5884534 -0.72646594 -0.34104508 -0.7194058
0.37736326 -0.5320213 -0.5910456 -0.04996861 -0.12155843 0.6788381 -0.3886467 0.77405226
-0.67993814 -0.60004973 -0.19704418 -0.6166437 0.21842216 -0.63403016 -0.13884805 0.7842315
-0.78954583 0.015738413 -0.61925167 -0.09146648 -0.45701072 -0.45902827 -0.674653 0.7792657
-0.6237454 -0.1537307 0.658387 -0.06760034 0.34692237 0.32405996 0.76136816 0.5282268
0.6597677 0.68876445 0.8721376 -0.5766257 -0.92389 -0.6293755 -0.6993329 0.8056641
-0.079473756 -0.712654 -0.7351918 -0.07938198 -0.7527134 0.031365637 -0.5200539 0.21371345
-0.68832827 0.32204208 0.69373006 -0.42907023 0.7473614 -0.5825392 -0.23334314 -0.67956024
0.6593608 -0.70638156 -0.54205686 -0.69501424 -0.7101501 -0.81247795 -0.80927336 -0.66636676
-0.10090906 0.88168424 0.6435142 0.6682741 0.22465241 0.053976223 -0.03323928 -0.33929634
-0.59878284 0.05331624 0.008527485 0.9474353 0.034331813 0.16091377 0.5196033 -0.70290893
-0.71571755 -0.47695965 -0.03675596 0.03092248 0.8793678 -0.045863107 -0.7878759 0.16771308
1.004512 0.788852 -0.6205482 -0.010961245 0.048936963 0.90876365 0.023786936 -0.5776865
0.5104773 -0.6897031 -0.018421208 0.37607947 -0.7870385 -0.6987341 -0.6255922 -0.014506837
0.583284 -0.30850688 -0.6760494 -0.42521667 -0.16861393 0.80034536 -0.7917773 0.021133615
0.018043892 0.4035005 -0.65443856 0.027382432 -0.6140771 0.5552875 -0.38133493 0.8314828
0.5687379 -0.7373963 -0.9479854 -0.48447147 -0.722794 -0.50402427 0.62072074 0.89044994
0.558034 -0.4509014 -0.7825138 0.43754196 0.6913977 0.73119783 0.4505311 0.9157997
0.8386872 -0.61077833 0.94506526 0.0052998643 0.4749309 0.61006635 0.58141184 -0.59609175
-0.41113272 0.79404056 -0.6464331 -0.07601013 -0.018384077 0.73183393 0.6359191 0.36128438
-0.5506887 -0.4017683 0.5086863 0.7617869 0.72557586 0.2590093 -0.20461583 -0.08496745
-0.8369931 -0.4469733 0.2686092 0.9173834 0.284374 -0.7772243 -0.83100903 -0.23451002
-0.61079663 -0.69402885 0.7875001 0.38005236 0.05491732 -0.55014616 0.07812755 -0.60547066
-0.6241208 -0.15816954 -0.41805282 -0.56525385 0.664558 -0.64789873 -0.7004924 0.49165785
0.7648252 -0.24464092 -0.7549012 0.26208138 0.19940081 -0.56680995 0.6001416 -0.07679387
0.45465004 0.7402023 -0.5753765 -0.76827645 0.6264212 -0.71511203 -0.72465414 -0.66315633
-0.09100469 -0.761745 0.7357017 -0.73003286 -0.62109256 0.94150674 5.9912374e-05 0.7458316
0.7046298 -0.8183571 -0.46670464 0.021101817 -0.45611724 -0.6588957 0.9257825 -0.70540076
0.22821577 0.46717864 -0.6777328 0.7334729 -0.72619855 -0.7316101 0.6697541 -0.7799337
0.62497616 0.77519745 0.30272588 0.032067902 -0.004489993 0.83206856 -0.6890589 0.35430428
-0.75675434 -0.41019621 0.03857621 0.7024744 -0.45892897 0.88482404 0.5928712 0.8125139
0.647937 0.5418645 -0.87212986 0.47939268 -0.33804315 0.73743373 -0.518604 0.64605236

linear3.weight f4 [1, 256]
00000000: 2166 c2bd 5373 533c 5e07 75bd 9b55 4cbe
00000010: d2dd a8bd b580 f6be e3e8 273d a3d3 75be
00000020: c0c9 7a3e 5794 463e 050e 0abd 662f 353d
00000030: 26bc 163d 6843 0b3f 318c 3dbd 2b33 b63e
00000040: 42c7 0ebe 06f1 85be 4529 f8ba 2e2a 52be
00000050: 9243 f43d 39fa 76bd 0946 81bd 4857 013f
00000060: c785 86be 30e9 ef3e 6597 6ebe 5ce5 6abe
00000070: 3292 82be 3af2 02be 9af5 92be 7f4c c73e
00000080: ee8d 56be 439c 0dbe 3c87 473e 632e dc3c
00000090: d9c4 333f 244a b83d 3ace b43e 8c7d 8c3c
000000a0: 8c46 2a3e 6791 373e be3b 083f b1ef 3b3d
000000b0: d79a 923e 5d7b e4bc 48b2 163e b8c1 bc3e
000000c0: 27c1 793d 04e6 14be a721 d3be 1f96 f3ba
000000d0: ec13 c2be 520a 283e 0f77 a8be 4255 843c
000000e0: 7505 9abd 8bbf 383e 625e 28bd cdb4 a8bd
000000f0: 5f2d 863e a25f 8dbd 44a3 29bd 4598 27be
00000100: 5c90 503e a69b 03bd 23df 9e3d 2b80 f7bc
00000110: c492 94bd 9e8a 9bbe 0553 a8be b983 95bd
00000120: 2bad a23c 0d84 083f 78ef c63e cc65 c3bd
00000130: 765d 433f 0edd cb3e 36ca 8d3b e36d 303d
00000140: 482d 93bd 9cab 2fbd 54e7 0fbc b88a 1c3f
00000150: 49df c83e a410 793e 0524 6d3e ce36 9fbe
00000160: 8c13 8cbe e9d2 b13d 5c6f f33a 5509 0d3f
00000170: f84c f23e 8fc4 efba aedb a3be 71fe 043f
00000180: c3a7 713f c7ad 3a3f dee9 99bd 64fa 9c3b
00000190: 9531 d9bd b9a7 053f f3ab 0abc ef6b 503d
000001a0: 879a 373f dcf3 aabd ad27 20bd 5b2f 973d
000001b0: da25 34be 6db3 0b3e 7e54 903d aca6 973d
000001c0: 972a afbd 491d 4ebd 59b7 45be 4014 3fbe
000001d0: 622c b6bc f893 e43e 093d aebe 6f80 373d
000001e0: 922e 6abc 2582 693f 31e7 32be e813 d7bb
000001f0: c426 4f3e 7d11 593d 331b 623d 3e7f 083e
00000200: 3105 0a3e c54a 92be 0b83 9f3e 1102 45be
00000210: 7d19 b7bd 9531 023d 8223 473e 7e07 d83e
00000220: 869d e53d 09ae 673d 3e17 183e 18c1 c33e
00000230: bfdc 373e 74e2 a13e aa3e 9bbb 1b88 133f
00000240: c31b 3f3e 9ddd eebd 7475 a43e bf7d 5fbb
00000250: fb67 483f 7463 133e 2652 babc 56ba a2be
00000260: bf6e 85bd 93ba b13e 15d4 693e aefb 93ba
00000270: bdbc 063b 5bb5 1d3d 098f 153e 9974 3d3e
00000280: 40bc 9dbd 61e6 45be 7315 2f3e cda4 ac3e
00000290: 8424 163f 3473 053f 108d 28bd 1351 14bb
000002a0: e135 edbe 7e6c 8fbd ab83 613f 71f9 ea3e
000002b0: 3e0f 063f f83f 96be c826 d5be c68f 4aba
000002c0: 07dd 51be 9b0b 26be 48b5 c73e 8cc1 4d3e
000002d0: 126b 60bc e0f3 0bbe 3ebf ad3c 3c6f 0cbd
000002e0: 8b48 54bb 6a43 80bc d567 42be 3223 513e
000002f0: 1505 e43e 951f 42bc 76a2 a4bd 5ca5 3dbd
00000300: b806 cc3e 216c 363b 3a53 b1be 922f a63c
00000310: e5e3 e63d 8899 9e3a 30aa f13e bf05 dcbd
00000320: 21b5 66bd 5615 6c3e bb88 af3d 5dd1 083e
00000330: 031b ccbd f2f4 31bd 516b c9bd 437b ea3c
00000340: e9aa d33e 3862 91be 1c14 663e 5667 febd
00000350: bd9e c03d dcd1 053f 2b17 7a3c 60cf e03e
00000360: 27a5 a1bd 28f0 a7be 7fed 3ebd 0004 6d3e
00000370: 98f0 42be f93f b53c d2df 2a3f 8a91 9cbd
00000380: 31fd 173e d82e 043e 3d3b 56bd a2d9 a93e
00000390: 3de7 45be 4030 d9be 945b d0bd 77dd 78be
000003a0: 4d71 833e d8ba bf3e c036 263e 69bf e0bd
000003b0: 89c5 0dbe ec02 e83e af3c 093e 4092 793d
000003c0: a726 373e 54fe 16be 013e 0dbe 3c4f 2a3e
000003d0: b329 5a3d 641f a33e 4211 683e 1baa 6f3e
000003e0: aa3d a53e 6a46 46bd 88cf 21be f409 f73d
000003f0: 862a f63d ba46 fdbd fd03 6dbe 54dd 393d
-0.09492136 0.012905913 -0.05982148 -0.19954531 -0.08245434 -0.4814507 0.040993582 -0.24006514
0.24491024 0.19392525 -0.033704776 0.044234656 0.036800526 0.5439973 -0.046276275 0.35585913
-0.13943198 -0.2616045 -0.0018933198 -0.20523903 0.119269505 -0.060297225 -0.06312186 0.50523806
-0.2627394 0.46857595 -0.2329994 -0.22939056 -0.25502163 -0.12787715 -0.28703004 0.3892555
-0.2095258 -0.1382914 0.19485182 0.026877588 0.7022224 0.08998516 0.35313588 0.01714971
0.16628474 0.1792656 0.5321616 0.045882884 0.28633758 -0.027890855 0.14716446 0.36866546
0.06097522 -0.14540869 -0.41236612 -0.0018584168 -0.37905824 0.16410187 -0.32903334 0.016153935
-0.07520572 0.18041818 -0.041105635 -0.0823761 0.2620649 -0.06903006 -0.041415468 -0.1636668
0.20367569 -0.03213086 0.07757404 -0.030212482 -0.07254556 -0.30379194 -0.3287584 -0.07300515
0.019857964 0.53326494 0.38854575 -0.095409006 0.76314485 0.3981709 0.004327084 0.043073546
-0.07186371 -0.04288827 -0.00878318 0.6114917 0.39232853 0.24322754 0.23158272 -0.310965
-0.27358663 0.08682806 0.0018572616 0.55092365 0.47324347 -0.0018292832 -0.3200354 0.51950747
0.9439661 0.72921413 -0.0751531 0.004790591 -0.1060516 0.5220905 -0.008463847 0.050884183
0.71720165 -0.08347294 -0.039100338 0.07382079 -0.17592564 0.13642664 0.070473656 0.07404837
-0.08553045 -0.050320897 -0.19308223 -0.18660069 -0.02223796 0.4464414 -0.3403094 0.04480022
-0.01429333 0.9121421 -0.17471005 -0.0065636523 0.20229632 0.052995194 0.05520172 0.13329789
0.13478543 -0.2857267 0.31154665 -0.1923907 -0.089404084 0.031785566 0.19447139 0.42193216
0.11211686 0.056562457 0.14852616 0.38233256 0.17955302 0.31618083 -0.0047376947 0.57629555
0.18662934 -0.11663363 0.3212086 -0.003410205 0.7828366 0.14393407 -0.02274425 -0.31782788
-0.06515264 0.34712657 0.22834809 -0.0011290216 0.0020559274 0.038503032 0.14605345 0.1850151
-0.077019215 -0.19326164 0.17098026 0.33719483 0.5864947 0.5212891 -0.041150153 -0.0022631332
-0.4633017 -0.07003115 0.88091534 0.45893434 0.5236701 -0.2934568 -0.4163115 -0.00077271124
-0.20494471 -0.16215365 0.39005494 0.20093364 -0.013697403 -0.1366725 0.021209355 -0.03428577
-0.0032391872 -0.015657146 -0.18984921 0.20423582 0.44535127 -0.01184835 -0.080387995 -0.046300277
0.39848876 0.0027835446 -0.3463381 0.020286355 0.11273936 0.0012100199 0.47200155 -0.107432835
-0.05632508 0.23055014 0.08571001 0.13361116 -0.099660896 -0.04344649 -0.09834922 0.028623229
0.41341332 -0.28395247 0.22468609 -0.124220535 0.09405277 0.52273345 0.015264313 0.43908215
-0.078928284 -0.32800412 -0.046613213 0.23146057 -0.19037092 0.022125231 0.6674777 -0.07644947
0.14842679 0.12908494 -0.052302588 0.33173853 -0.19326492 -0.42419624 -0.10173717 -0.24303232
0.2567238 0.37447238 0.16231823 -0.109740086 -0.13844885 0.4531473 0.13402055 0.06093049
0.17885838 -0.14745456 -0.13793184 0.16631788 0.053262424 0.31859887 0.22662833 0.23404734
0.32273608 -0.048406996 -0.15801823 0.12062445 0.120198295 -0.12367006 -0.23146053 0.04537709
