outputs/Optimal_Control/20220331-131154/models/checkpoint.pt (torch, 533487 bytes, 7 tensors)

linear1.weight f4 [256, 2]
0	0x3ee93207	0.4554598
1	0xbf23a7b9	-0.639278
2	0xbe1e1178	-0.15436351
3	0xbedbdf45	-0.4294378
4	0x3e57eca9	0.21086372
5	0xbc958f0b	-0.018256685
6	0x3d8e39ec	0.069446415
7	0x3dc15df0	0.09441745
8	0xbe9cfab1	-0.30660012
9	0xbf204a87	-0.6261372
10	0x3eb48399	0.3525665
11	0x3e962c58	0.29330707
12	0xbdf661a8	-0.12030345
13	0xbec22812	-0.37921196
14	0xbf31911f	-0.6936206
15	0x3db0d898	0.08635062
16	0x3e8fd955	0.280955
17	0xbf2143a7	-0.62993854
18	0x3eec3763	0.46136007
19	0x3f0b98cc	0.54530025
20	0xbe99ae5f	-0.30015847
21	0xbcf9b620	-0.030482352
22	0x3e4a6666	0.19765624
23	0x3e7b1ec8	0.24523461
24	0x3d6b43f1	0.05743784
25	0xbe6bcd5c	-0.23027557
26	0x3efc4b0b	0.49276003
27	0x3ea9d080	0.33166885
28	0x3df85fbf	0.12127637
29	0xbfaf6500	-1.3702698
30	0xbee67662	-0.45012194
31	0x3eec08c3	0.46100435
32	0xbf1678ce	-0.58778083
33	0x3e8a818a	0.27051955
34	0x3eb99d29	0.36252716
35	0x3ec41b2d	0.38301983
36	0xbe6fdbf0	-0.23423743
37	0xbef723f0	-0.48269606
38	0xbf09848b	-0.5371787
39	0xbec10cad	-0.37704983
40	0x3f0369a2	0.5133306
41	0xbec7dcf8	-0.39035773
42	0x3eb882eb	0.36037382
43	0xbf154574	-0.583091
44	0xbe0c2018	-0.13684118
45	0xbd756e50	-0.059919655
46	0x3eac943d	0.33706847
47	0x3ebb6dde	0.3660726
48	0x3f0e79e6	0.5565475
49	0xbf06004d	-0.5234421
50	0xbe21f8fc	-0.15817636
51	0xbec502ad	-0.38478604
52	0x3eec9af4	0.4621197
53	0xbeb55e5e	-0.3542356
54	0x3e02c69b	0.12771074
55	0x3e97cf79	0.29650477
56	0x3d9cb866	0.07652359
57	0xbd007051	-0.031357113
58	0x3de8678e	0.113478765
59	0xbf38ffbd	-0.72265226
60	0x3c073809	0.008253106
61	0x3f09e939	0.53871495
62	0xbedc34dc	-0.43009079
63	0xbeb47631	-0.35246423
64	0x3da2e771	0.079543
65	0x3eede041	0.46460155
66	0xbf23914d	-0.63893586
67	0xbf274830	-0.65344524
68	0xbf122639	-0.57089573
69	0x3ec2696a	0.3797105
70	0x3ea308ca	0.31842643
71	0xbd9f5770	-0.07780349
72	0x3eb466cb	0.35234675
73	0xbf2cf7ed	-0.67565805
74	0xbeea0d98	-0.45713496
75	0x3ef561b2	0.47926098
76	0xbea68512	-0.325234
77	0xbeec14d3	-0.46109638
78	0xbea76c5e	-0.32699865
79	0x3f2acaff	0.66716
80	0x3f0678c1	0.52528006
81	0xbee19739	-0.44060686
82	0x3d92daea	0.07170661
83	0xbf0548d5	-0.5206426
84	0x3ebb8c0e	0.3663029
85	0x3c6fed2f	0.014643951
86	0xbf11b634	-0.56918645
87	0xbec61c46	-0.38693446
88	0x3d56dfe4	0.052459612
89	0x3e8a4fe5	0.2701408
90	0x3e1ca55d	0.15297456
91	0xbcbf0a9e	-0.023320492
92	0x3e29e4e5	0.16591223
93	0x3eb01c36	0.34396523
94	0x3e816668	0.25273442
95	0xbf08096e	-0.5313939
96	0xbe2efdf1	-0.17089058
97	0x3e86a3d0	0.26296854
98	0x3edcdc8a	0.43137008
99	0x3d91eabd	0.07124851
100	0x3e0b3b5b	0.13596861
101	0xbeeeeeab	-0.46666464
102	0x39870000	0.00025749207
103	0xbf14616f	-0.5796117
104	0xbe9f450c	-0.31107366
105	0x3e9792de	0.29604238
106	0x3e1dc471	0.15406968
107	0x3eb805ae	0.35941833
108	0x3ecec507	0.40384695
109	0x3ed6ef3a	0.4197939
110	0xbdf371d0	-0.118869424
111	0xbf0cbe7d	-0.5497816
112	0x3f10829c	0.56449294
113	0x3d75a6ae	0.05997341
114	0xbee3954d	-0.44449845
115	0x3d8a8ee0	0.067655325
116	0xbf18b807	-0.59655803
117	0xbeeb26ea	-0.45928127
118	0x3dd77a8e	0.10521422
119	0xbd2f8773	-0.042853784
120	0x3f0334e9	0.5125261
121	0xbf2e4c8a	-0.6808554
122	0x3e9cbf64	0.3061477
123	0xbec00601	-0.3750458
124	0xbf1ee78f	-0.6207208
125	0x3e4c6098	0.19958723
126	0x3c204c6d	0.009783846
127	0x3de8cec3	0.11367562
128	0x3ef07696	0.46965474
129	0x3eb33f51	0.35009244
130	0x3e53a22a	0.2066733
131	0x3e8c1e9e	0.2736711
132	0xbea402dd	-0.32033435
133	0x3d81c970	0.06337249
134	0xbf10d815	-0.56579715
135	0xbe423e68	-0.18969119
136	0x3e2ac56b	0.16676871
137	0xbef96585	-0.48710266
138	0x3ed7df19	0.42162398
139	0xbf1e3154	-0.6179402
140	0xbed3370d	-0.41252938
141	0xbf2471a2	-0.6423589
142	0xbe11abe8	-0.14225733
143	0xbc91c1a0	-0.017792523
144	0x3dbe9e06	0.09307484
145	0x3ec95e55	0.39329782
146	0x3ef06b0d	0.46956673
147	0xbf09b860	-0.5379696
148	0x3ee6e8ad	0.45099393
149	0xbf02d0ce	-0.5109986
150	0xbea8f301	-0.32997897
151	0x3dac1b08	0.08403593
152	0xbf07633f	-0.5288581
153	0x3e83db64	0.2575332
154	0xbeaeb812	-0.3412481
155	0x3debbad8	0.11510247
156	0x3eaaaf7c	0.3333701
157	0xbf14249c	-0.5786836
158	0x3e25e64a	0.1620113
159	0xbec079b2	-0.37592846
160	0x3da26f04	0.07931331
161	0xbf37e525	-0.7183402
162	0x3f2118ad	0.6292828
163	0xbe4d951e	-0.20076415
164	0x3eaa6610	0.33280993
165	0x3e120b10	0.14262033
166	0xbf14a009	-0.58056694
167	0xbf24b361	-0.6433621
168	0xbeaa870f	-0.33306167
169	0xbd422340	-0.0473969
170	0x3ef917c9	0.4865096
171	0xbf4eb165	-0.8073943
172	0x3ddee3e9	0.10883314
173	0xbf764c3b	-0.9621007
174	0x3e6e06f4	0.2324484
175	0x3e7b6b56	0.24552664
176	0xbf1a78b7	-0.60340446
177	0xbec1cd24	-0.37851822
178	0x3ddc080a	0.10743721
179	0xbd53d1a0	-0.051713586
180	0x3ed23024	0.41052353
181	0x3f15f7f3	0.58581465
182	0xbf243071	-0.64136416
183	0xbedf8292	-0.43654305
184	0x3e9f10ff	0.31067654
185	0xbf2ed604	-0.6829531
186	0xbd933260	-0.07187343
187	0xbe939be3	-0.2882987
188	0xbe969894	-0.29413283
189	0x3de75d40	0.11297083
190	0xbeb4e1b1	-0.3532844
191	0xbf2e48db	-0.6807992
192	0x3ef3ce9a	0.47618562
193	0xbd05bfc1	-0.032653574
194	0x3e95c80c	0.29254186
195	0xbd372219	-0.044710252
196	0xbf2b9d68	-0.6703706
197	0xbe20bfe8	-0.15698206
198	0xbdd35310	-0.10318577
199	0xbf300405	-0.68756133
200	0xbf0540f8	-0.5205226
201	0x3af1a800	0.0018436909
202	0xbeb4d4d8	-0.35318637
203	0xbef1fc08	-0.47262597
204	0xbed51558	-0.41617846
205	0xbedc98a7	-0.43085214
206	0x3e9e04e1	0.30863097
207	0x3e83a15e	0.2570905
208	0xbf07b422	-0.53009236
209	0xbf326e7d	-0.6969984
210	0xbeb0df98	-0.34545588
211	0x3e45d740	0.19320393
212	0x3ef0ab2a	0.47005588
213	0xbe3c552d	-0.18391867
214	0x3ea0261b	0.31279072
215	0xbecf5df2	-0.40501362
216	0xbd88a472	-0.066719905
217	0x3e78555f	0.24251316
218	0xbf04f575	-0.5193704
219	0xbe98d747	-0.29851744
220	0xbe72d065	-0.23712309
221	0x3eb6a503	0.3567277
222	0xbf25e02c	-0.64795184
223	0xbed76deb	-0.42076048
224	0x3ee8ff3a	0.45507222
225	0x3eda5343	0.4264165
226	0xbe29c0b8	-0.16577423
227	0x3f042944	0.51625466
228	0xbdaed5c3	-0.085368656
229	0x3f585373	0.84502333
230	0xbeaf810f	-0.3427815
231	0x3ec446cd	0.38335267
232	0x3b817d40	0.0039516985
233	0x3e71d5e7	0.23616754
234	0x3c2044cc	0.009782027
235	0x3f0476ee	0.5174397
236	0x3b2d7970	0.0026470087
237	0x3ee1d55a	0.44108087
238	0xbbf3d280	-0.007440865
239	0xbdd30bf0	-0.10305011
240	0x3eb606f7	0.3555219
241	0xbd5b43a8	-0.05353132
242	0x3e85624d	0.2605156
243	0x3e21ffe7	0.15820275
244	0x3e476575	0.19472297
245	0xbe4e2167	-0.2012993
246	0xbea7eb60	-0.32796764
247	0x3f2bcd10	0.67109776
248	0xbf09b520	-0.53792
249	0x3e781358	0.24226129
250	0xbf2c7ad1	-0.673749
251	0xbe30fa90	-0.17283082
252	0xbf030d47	-0.51192135
253	0x3ceee1c0	0.02916038
254	0x3e662b59	0.22477473
255	0x3e9243e7	0.2856743

linear1.bias f4 [256]
0	0x3fbdfcc6	1.4842765
1	0x3e202997	0.15640865
2	0xbf800499	-1.0001403
3	0xbf96b969	-1.1775333
4	0x3d858613	0.06519713
5	0x3fc71cc3	1.5555652
6	0xbdbf3798	-0.093367755
7	0x3f1ae90f	0.6051187
8	0x3fb51372	1.4146559
9	0xbf7a0347	-0.9766125
10	0xbbab6100	-0.005230069
11	0x3f40f8e9	0.75379807
12	0x3f9e0a84	1.2346959
13	0xbfa35263	-1.2759517
14	0x3d0d5239	0.03450224
15	0xbe97f493	-0.29678783
16	0xbdc73488	-0.097268164
17	0xbfb84686	-1.4396522
18	0xbead662f	-0.33867022
19	0x3f090a93	0.5353176
20	0x3f96ce2f	1.1781672
21	0xbfaccbb8	-1.349967
22	0xbe9d346e	-0.30704063
23	0xbf6ac242	-0.91702664
24	0xbf447747	-0.767445
25	0x3e82b0d1	0.25525525
26	0xbe80f594	-0.2518736
27	0xbf951c36	-1.1649234
28	0xbf9d6384	-1.2295995
29	0x3f83f5a4	1.0309339
30	0xbfd557b0	-1.6667385
31	0x3e4ad790	0.19808793
32	0xbf94f256	-1.1636455
33	0x3dcaeb2e	0.09908138
34	0x3f240c60	0.6408138
35	0x3f4c325f	0.7976436
36	0xbf8951af	-1.0728053
37	0x3f37be05	0.7177432
38	0x3ef94ead	0.48692837
39	0xbf52b5e1	-0.82308775
40	0x3fd44eaf	1.6586512
41	0x3ed79192	0.4210325
42	0x3fa15e17	1.2606839
43	0x3e887e05	0.26658645
44	0x3fc37e79	1.5272971
45	0xbfc5e2a0	-1.5459785
46	0xbfc6bece	-1.5526979
47	0x3fad2dcb	1.35296
48	0x3f52fbec	0.8241565
49	0x3f8495cd	1.0358216
50	0x3fb38418	1.4024687
51	0xbe81a444	-0.25320637
52	0xbd9de560	-0.077097654
53	0x3f0c811f	0.54884523
54	0x3fb72ab4	1.4309907
55	0x3f22f9a5	0.6366218
56	0xbfdbf087	-1.7182778
57	0xbf1a918d	-0.6037834
58	0xbef12950	-0.4710183
59	0x3f953fcb	1.1660093
60	0xbf2362f4	-0.63822865
61	0x3fbc769a	1.4723694
62	0x3eb9f1c0	0.36317253
63	0xbf7777c3	-0.96667117
64	0x3f7ae110	0.9799967
65	0xbf8a13f3	-1.0787338
66	0xbef478ed	-0.4774851
67	0x3ecf8081	0.40527728
68	0x3f541ae3	0.82853526
69	0xbf5c1d64	-0.85982347
70	0xbf1bd79f	-0.60875887
71	0xbe8b4669	-0.27202156
72	0xbfc95390	-1.5728626
73	0xbfc3b97b	-1.5290979
74	0x3eb2ca70	0.34920073
75	0x3e888470	0.26663542
76	0x3f15c4d1	0.58503443
77	0x3e8778ff	0.264595
78	0xbfa790e0	-1.3091087
79	0x3fc88bf1	1.5667707
80	0x3e30eb87	0.17277347
81	0xbfe8e8b2	-1.8196013
82	0x3f71d9f3	0.9447319
83	0xbec2fac4	-0.38081944
84	0x3e2f6745	0.17129238
85	0x3f4d1498	0.8010955
86	0x3ef49d55	0.47776285
87	0xbfbaaa94	-1.4583306
88	0x3dc7b5b6	0.097514555
89	0xbfb7519b	-1.4321779
90	0x3fd718bd	1.6804425
91	0xba85c95d	-0.0010207106
92	0x3f8bd888	1.0925455
93	0x3eeac7f5	0.4585568
94	0x3f0aa548	0.5415845
95	0xbe8c1732	-0.27361447
96	0xbf61cece	-0.88206184
97	0xbfc30586	-1.5236061
98	0x3f192f67	0.59837955
99	0xbedad84a	-0.4274314
100	0x3db37195	0.087618984
101	0xbf0e0096	-0.55469644
102	0xbaa3b244	-0.001248904
103	0x3f241ab8	0.6410327
104	0x3e52374c	0.20528907
105	0x3ebde94e	0.3709206
106	0xbfa37f02	-1.2773135
107	0x3f8d5b9c	1.1043582
108	0xbf176bad	-0.59148675
109	0xbed5c230	-0.41749716
110	0xbf1ef3b2	-0.620906
111	0x3f2eff44	0.68358254
112	0xbfbbfd22	-1.4686625
113	0xbf3e21a8	-0.74270105
114	0x3fe8be96	1.8183162
115	0x3f6268e9	0.8844133
116	0xbf855ffa	-1.0419915
117	0xbfd09c82	-1.6297762
118	0xbf6a3567	-0.91487736
119	0xbf09a3cc	-0.5376556
120	0xbf6f6ea1	-0.9352818
121	0xbf682737	-0.9068484
122	0xbfb9d105	-1.4516913
123	0xbf900455	-1.1251322
124	0xbeb27209	-0.34852627
125	0x3e9fff66	0.3124954
126	0xbe995d02	-0.29953772
127	0xbf8bd0e1	-1.092312
128	0xbfb7c1d3	-1.4356025
129	0x3ed09690	0.4073987
130	0x3f1c765d	0.6111811
131	0x3fcd971a	1.6061738
132	0xbf8927f3	-1.0715317
133	0xbfccc390	-1.5997181
134	0xbed618c0	-0.41815758
135	0x3f211d85	0.6293567
136	0x3f40a5b1	0.75252825
137	0xbfca4a98	-1.5804014
138	0x3f769013	0.9631359
139	0xbf5f8eef	-0.87327474
140	0xbe3b0242	-0.1826258
141	0xbe89f48c	-0.26944387
142	0xbee60c95	-0.44931474
143	0xbfe58d93	-1.793383
144	0xbf2847d4	-0.657346
145	0xbfd13ad7	-1.6346081
146	0x3f124bde	0.57147014
147	0x3f65f2db	0.89823693
148	0x3f0762b2	0.5288497
149	0x3f02c76f	0.5108556
150	0xbec0e64e	-0.3767571
151	0xbeed318e	-0.4632687
152	0x3e0656e4	0.13119084
153	0x3f9ebd40	1.2401505
154	0xbfb492cf	-1.4107302
155	0xbee3d304	-0.4449693
156	0x3f8e7b3a	1.1131356
157	0x3fd740d3	1.6816658
158	0x3f9be794	1.2180047
159	0xbf0201e2	-0.5078412
160	0x3db20894	0.086930424
161	0x3f956348	1.1670923
162	0xbf0f536f	-0.55986685
163	0xbfabf02d	-1.3432671
164	0xbf34dd11	-0.7064982
165	0xbfd2111c	-1.6411471
166	0xbd0060f0	-0.031342447
167	0x3f37f816	0.71862924
168	0x3e911587	0.28336737
169	0xbf859836	-1.0437076
170	0xbe28dde8	-0.164909
171	0xbfd81863	-1.6882442
172	0xbfc74082	-1.5566561
173	0xbedc29a8	-0.4300053
174	0x3e78c3df	0.24293469
175	0x3ecd1764	0.40056908
176	0x3f9c496d	1.2209908
177	0xbfa2d540	-1.2721329
178	0xbf08ff80	-0.5351486
179	0x3fb877ec	1.4411597
180	0xbfb258ec	-1.3933387
181	0x3f9deb09	1.2337352
182	0xbd476980	-0.048684597
183	0xbfb1e55d	-1.3898121
184	0xbf970e99	-1.180133
185	0x3e9b9a41	0.30391124
186	0x3f4f79be	0.8104514
187	0xbfc771a5	-1.5581557
188	0xbf61eca4	-0.8825171
189	0xbfb59b02	-1.418793
190	0xbfb5b9ad	-1.4197289
191	0xbf831ba9	-1.0242816
192	0x3fbcb79a	1.4743531
193	0x3e5c6dad	0.21526213
194	0x3f2bd990	0.6712885
195	0x3f996d83	1.1986545
196	0xbe0cabf4	-0.1373747
197	0x3f9cedbe	1.2260053
198	0x3f1e1dc7	0.61764187
199	0x3fad0271	1.351637
200	0xbfbe0711	-1.4845906
201	0x3fa6b8c9	1.3025142
202	0x3f37f539	0.71858555
203	0x3ef218f0	0.4728465
204	0xbe2134b4	-0.15742761
205	0xbfafa97d	-1.3723599
206	0xbef08b82	-0.46981436
207	0x3dd621b5	0.10455648
208	0xbf12ca42	-0.5733987
209	0xbe5ed8c1	-0.21762373
210	0xbec294ab	-0.3800405
211	0xbf937496	-1.1519954
212	0xbf9ddde2	-1.2333338
213	0xbfc5777a	-1.5427086
214	0xbfad7a2f	-1.3552912
215	0x3fc1aa54	1.5130105
216	0xbfbc67d5	-1.4719187
217	0x3f2dc029	0.6787134
218	0xbfbb5783	-1.4636081
219	0xbd807f80	-0.06274319
220	0xbf1265a7	-0.5718636
221	0x3ef7c9f5	0.48396268
222	0x3e2af34a	0.1669437
223	0x3ef7e88f	0.48419616
224	0x3fac559f	1.346363
225	0x3fc52035	1.5400454
226	0xbf8f38f0	-1.1189251
227	0xbf2ebe81	-0.68259436
228	0xbf04dce3	-0.51899546
229	0x3faa8137	1.3320683
230	0x3e7713a6	0.24128589
231	0x3f7154b5	0.9426988
232	0xbfaeff0a	-1.3671582
233	0xbd74ed40	-0.05979657
234	0x3fb6b81d	1.4274937
235	0x3f915800	1.135498
236	0xbfddc54a	-1.7325833
237	0xbf56b267	-0.8386597
238	0xbd112590	-0.035436213
239	0xbe755d00	-0.23961258
240	0xbf86ab77	-1.0521077
241	0x3e722583	0.23647122
242	0xbfce2a7e	-1.6106718
243	0xbfd82e91	-1.6889211
244	0x3fa1ded1	1.2646123
245	0xbf0cc704	-0.54991174
246	0xbebfaf3e	-0.37438387
247	0xbf0e46c7	-0.5557675
248	0x3c0f39a2	0.008741768
249	0xbfd34eec	-1.650846
250	0xbe9b13b4	-0.3028847
251	0xbfd0cc86	-1.6312416
252	0xbedc8bb7	-0.43075344
253	0x3e006395	0.12537988
254	0xbef30978	-0.47468162
255	0xbf150345	-0.58208114

linear2.weight f4 [256, 256]
0	0x3d4f829d	0.050661672
1	0xbd61b657	-0.055105533
2	0xbc51fbc8	-0.012816377
3	0x3c8c56ad	0.017131174
4	0xbc31a325	-0.010842119
5	0xbd836ee2	-0.064176336
6	0xbc8d8ef8	-0.017280087
7	0x3d014c68	0.031567007
8	0xbc6d4829	-0.014482536
9	0xbcf38ab7	-0.02972923
10	0xbcfe34d0	-0.031031042
11	0x3d5493b4	0.051898673
12	0xbd0391c8	-0.03212145
13	0x3ca89e65	0.02058334
14	0x3c33238a	0.010933766
15	0x3b9103f7	0.0044255215
16	0x3c1c7478	0.009549253
17	0x3c49047e	0.012269137
18	0xbd352d42	-0.044232614
19	0xbd33fe78	-0.043943852
20	0x3c79947e	0.015233157
21	0xbd38f59d	-0.04515611
22	0xbd15cdfc	-0.036573395
23	0x38c0f2e8	9.200518e-05
24	0xbcceaca6	-0.02522881
25	0x3c8b6de1	0.017020168
26	0x3d5211b0	0.0512864
27	0x3d061ba9	0.032741223
28	0x3c7fc6f4	0.015611399
29	0x3d690146	0.05688598
30	0xbd2df603	-0.042470943
31	0xbd7788ad	-0.06043308
32	0x3d778251	0.060427014
33	0xbd62f6d7	-0.055411186
34	0xbab2d224	-0.0013642949
35	0x3c1fc9d4	0.009752709
36	0xbd3832eb	-0.044970434
37	0x3c678a43	0.014132085
38	0xbd339908	-0.043847114
39	0x3b8e0605	0.0043342137
40	0x3cd12826	0.02553184
41	0x3cd64430	0.026155561
42	0xbcf067e4	-0.029346414
43	0x3c6393b0	0.013890192
44	0x3d0a1128	0.033707768
45	0xbcf49661	-0.029856863
46	0xbc865af6	-0.016400795
47	0x3bade87b	0.005307255
48	0xbccb0b8a	-0.024785776
49	0xbd1ebdfc	-0.038755402
50	0xbd444b53	-0.047923397
51	0x3d6b8b3a	0.057505824
52	0xbd46b276	-0.048510037
53	0xbd210eed	-0.039320875
54	0xbd548210	-0.05188185
55	0xbb471ca0	-0.0030382052
56	0xbcc0490e	-0.023472335
57	0xbc1f6948	-0.009729691
58	0x3d3ce83e	0.04611992
59	0x3bbb221c	0.0057108533
60	0xbca8f4cf	-0.020624546
61	0xbd08a7eb	-0.033363264
62	0x3c86b5af	0.016444055
63	0x3cd5deee	0.026107278
64	0xbd7d2059	-0.061798427
65	0x3c81e20c	0.015854858
66	0x3c822650	0.01588741
67	0xbd2c1f6e	-0.04202216
68	0x3cb377d1	0.021907719
69	0x3cb478e3	0.0220303
70	0x3c5fdeb0	0.013663933
71	0xbad20900	-0.0016024411
72	0xbc44ecd5	-0.012019356
73	0x3d28832f	0.04114073
74	0xbd161535	-0.03664132
75	0x3cf2743e	0.029596444
76	0x3cb61323	0.022225922
77	0xbd6141f8	-0.054994553
78	0x3ba7810c	0.005111819
79	0xbd81ccd0	-0.06337893
80	0x3d0beb80	0.034160137
81	0x3d788f53	0.06068356
82	0x3d60ef44	0.05491568
83	0x3cb5dbb0	0.022199482
84	0xbb2409be	-0.002503022
85	0xbd6acc05	-0.057323474
86	0xbb3c3496	-0.0028717867
87	0x3d05a100	0.032624245
88	0xbcf12367	-0.029435826
89	0x3d4da8c9	0.050209794
90	0x3b4d677d	0.0031342201
91	0x3d31d1c6	0.043412946
92	0xbcd34084	-0.0257876
93	0x3d185a2e	0.037195377
94	0xbd5a7766	-0.053336523
95	0xbd69380c	-0.056938216
96	0x3d3f8364	0.046756163
97	0xbd2e4ac7	-0.042551782
98	0xbd5a6699	-0.0533205
99	0x3d4e9cfa	0.050442673
100	0xbd560c9e	-0.052258126
101	0x3d6cc284	0.057802692
102	0xbc9fcb36	-0.019506078
103	0x3c141639	0.009038501
104	0xbcdd08cc	-0.026981734
105	0x3cd39b3f	0.025830863
106	0x3d26139f	0.040546056
107	0x3b7c6faf	0.0038518717
108	0xbd4f8fa8	-0.05067411
109	0xbd0e39ec	-0.034723207
110	0xbb6976ef	-0.0035623868
111	0xbd51ccab	-0.051220577
112	0xbd4e63da	-0.050388195
113	0x3c4c9008	0.012485512
114	0x3d4c291b	0.04984389
115	0x3ccc2d7b	0.02492403
116	0xbd22a135	-0.03970452
117	0xbce52d0d	-0.027975583
118	0xbd633325	-0.055468697
119	0xbd4db37a	-0.05021999
120	0x3cc21e60	0.023696125
121	0x3c0d6a79	0.008631342
122	0x3cf6b3a9	0.030114966
123	0x3d4cb24a	0.049974717
124	0xbc1a4788	-0.009416468
125	0x3c9a4392	0.018831048
126	0xbcab1bc8	-0.02088727
127	0x3d3fb87a	0.04680679
128	0x3c843833	0.01614008
129	0xbc887fdb	-0.016662529
130	0xbcbcb0b2	-0.023033474
131	0x3d1c4c74	0.03815885
132	0x3d07485f	0.033028003
133	0xbd485167	-0.048905756
134	0x3cc25188	0.023720518
135	0xbc491166	-0.0122722145
136	0x3d6f436f	0.05841392
137	0x3c0b92a7	0.008518851
138	0xbcd6f01d	-0.026237542
139	0xbd1a9ca5	-0.037747044
140	0xbd5229fb	-0.051309567
141	0xbd7000ca	-0.058594503
142	0xbc9886e0	-0.018619
143	0x3d72e7e7	0.05930319
144	0xbc630568	-0.013856269
145	0xbd5e62f1	-0.054293577
146	0x3b8cccd2	0.0042968774
147	0xbc9a20b5	-0.018814424
148	0x3b866f94	0.0041026566
149	0xbba1f266	-0.004942226
150	0xbd7d25d0	-0.06180364
151	0xbd5f3f66	-0.05450382
152	0xbd0f59df	-0.034997817
153	0xbcacfb56	-0.02111594
154	0x3ca2e716	0.019885581
155	0xbc84454d	-0.016146326
156	0xbd1569a6	-0.036477707
157	0xbd1eba40	-0.03875184
158	0xbafb0f73	-0.0019154384
159	0xbd6645aa	-0.05621878
160	0xbc0d753e	-0.00863391
161	0xbcbd1046	-0.023079049
162	0xbc92c6c4	-0.017917044
163	0xbb15e043	-0.0022869266
164	0xbcb0321a	-0.021508265
165	0xbd0a33d7	-0.033740845
166	0xbd5dfed8	-0.054198116
167	0x3d2cc6e0	0.04218185
168	0xbbcb7a26	-0.0062096296
169	0xbd405ef0	-0.04696554
170	0xbd6ff854	-0.058586434
171	0x3cab77ea	0.020931203
172	0xbd0b651d	-0.034031976
173	0xbd60e0f8	-0.054902047
174	0x3d0fb57d	0.03508519
175	0x3d3d0dea	0.046155848
176	0xbd341818	-0.04396829
177	0xbd756208	-0.059907943
178	0x3d559ee4	0.052153483
179	0x3d4e5dc3	0.050382387
180	0xbd30f5d1	-0.04320318
181	0xbd39ce6b	-0.04536287
182	0x3d503540	0.050832033
183	0x3cebc0a0	0.028778374
184	0x3c567d0c	0.013091337
185	0xbb970b80	-0.004609525
186	0x3d50f37d	0.05101346
187	0x3b192763	0.0023369424
188	0xbc55c574	-0.013047565
189	0xbbd17aa3	-0.0063927933
190	0x3aa2a12c	0.0012407652
191	0xbab2e1f6	-0.0013647664
192	0x3d357b36	0.044306956
193	0x3b6f6170	0.0036526583
194	0xbc3d48d8	-0.011553012
195	0x3d28366b	0.041067522
196	0xbc938bec	-0.018011056
197	0xbd482b7a	-0.048869587
198	0xbd7aef40	-0.061263323
199	0xbc80a003	-0.0157013
200	0xbce674ee	-0.028131928
201	0xbd5866bc	-0.05283235
202	0x3d031307	0.032000568
203	0xbc6d98a1	-0.014501722
204	0x3ca47e1c	0.020079665
205	0x3d423734	0.047415927
206	0x3d1bc05e	0.038025253
207	0xbcab50fe	-0.020912644
208	0xbd37327e	-0.044725887
209	0xbcb77e84	-0.022399195
210	0x3d0013fe	0.031269066
211	0xbbd66a92	-0.006543466
212	0x3ca225a9	0.019793348
213	0xbd04050e	-0.032231383
214	0x3d444de5	0.04792585
215	0x3d470b3c	0.0485947
216	0xbd143a63	-0.036188494
217	0x3d00bb46	0.031428598
218	0xbcd23855	-0.025661627
219	0xbce83a64	-0.028348155
220	0xbd08a576	-0.03336092
221	0x3d2c19d1	0.042016808
222	0xbd57782a	-0.05260483
223	0x3cbe1556	0.023203533
224	0x3cb6e9f1	0.022328349
225	0xbb9c7141	-0.004774243
226	0x3d5bd125	0.053666253
227	0x3d77213e	0.060334437
228	0xbd66d82b	-0.056358498
229	0x3d65333a	0.055957057
230	0x3cea667a	0.028613318
231	0xbcfb995d	-0.030712778
232	0xbd0f4a86	-0.03498318
233	0x3ccd6b28	0.02507551
234	0xbd1615c9	-0.03664187
235	0xbc860b5d	-0.01636284
236	0xbd6288ec	-0.05530636
237	0xbc349575	-0.011021961
238	0x3d28cc44	0.041210428
239	0xbbe8ae20	-0.0071008354
240	0xbc07a1f7	-0.0082783615
241	0xbb029b53	-0.0019929006
242	0xbcfb15a1	-0.030649962
243	0x3bcb59f8	0.0062057935
244	0x3d061c39	0.03274176
245	0x3d6c3d8e	0.05767589
246	0xbaee4080	-0.0018177181
247	0x3d2a9cd1	0.041653458
248	0x3c1f5ebf	0.009727179
249	0x3c71f318	0.014767431
250	0x3d310ff2	0.043228097
251	0x3bfef6a4	0.0077808667
252	0xbca8670c	-0.02055695
253	0x3bc3ef57	0.0059794593
254	0xbd7619b8	-0.06008312
255	0x3d3b388f	0.045708235

linear2.bias f4 [256]
0	0x3d3c1861	0.045921687
1	0xbdd11c3a	-0.10210462
2	0x3a9f0d6c	0.0012134737
3	0x3c17acd5	0.009257515
4	0xb95efe00	-0.00021266192
5	0xbd211d50	-0.039334595
6	0x3ce826c7	0.028338803
7	0x3b6c658a	0.0036071264
8	0xbdf413b4	-0.119178206
9	0x3caac2d0	0.020844847
10	0xbf3a6df9	-0.72824055
11	0x3c7c6443	0.015404764
12	0x3d71e6dd	0.05905806
13	0x3c7d5303	0.015461686
14	0xbef5c64b	-0.48002848
15	0xbf0ec0d8	-0.55763006
16	0x3cb9f874	0.02270148
17	0x3ca68e58	0.020331547
18	0xbb820aa9	-0.003968556
19	0xbcfc165b	-0.030772379
20	0x3d826343	0.06366589
21	0x3cadd6ac	0.021220528
22	0x3bbced58	0.0057655983
23	0x3c14a2cf	0.00907202
24	0x3d2ac206	0.04168894
25	0xbf3a9c55	-0.72894794
26	0xbbc02100	-0.005863309
27	0xbcea0e59	-0.028571295
28	0xbd4e36cc	-0.050345227
29	0xbc97c2f0	-0.01852557
30	0xbc2002e8	-0.009766318
31	0x3cd3be41	0.025847556
32	0xbd2c212e	-0.04202383
33	0xbd59f57e	-0.053212635
34	0x3ea50bae	0.32235473
35	0xbd55375c	-0.052054748
36	0xbd0f8702	-0.035040863
37	0x3d2ebdf6	0.04266163
38	0x3ca11851	0.019664915
39	0xbd03e4b0	-0.032200515
40	0xbd269136	-0.040665828
41	0xbf2124e6	-0.6294693
42	0xbef638d2	-0.48090225
43	0x3ce5fc3a	0.028074373
44	0xbccf205b	-0.025283983
45	0xbcf29c35	-0.029615501
46	0x3cbdf484	0.023187883
47	0xbd73e2ad	-0.059542347
48	0xbc0c873a	-0.008577162
49	0xbb1f67b6	-0.002432329
50	0xbcfb25d0	-0.030657679
51	0xbcb14690	-0.021640092
52	0xbd1dd00c	-0.038528487
53	0xbf0638e6	-0.5243057
54	0xbcbc7a16	-0.023007434
55	0xbd6955ad	-0.056966472
56	0x3cf8845f	0.030336557
57	0xbcadf0c4	-0.02123297
58	0xbc87c6b4	-0.016574241
59	0x3c9667e4	0.018360086
60	0xbb232615	-0.0024894525
61	0xbc99a996	-0.018757623
62	0xbd91ac1a	-0.07112904
63	0xbc057378	-0.008145206
64	0xbcdd91b3	-0.027047014
65	0xbd21698e	-0.039407305
66	0xbc0405b0	-0.008057997
67	0x3f356bc2	0.7086755
68	0xbcb2eb48	-0.021840706
69	0x3b95c0ea	0.0045701163
70	0xbc319030	-0.0108376
71	0x3d69898a	0.057015933
72	0x3cb18b08	0.02167274
73	0xbd5ad512	-0.053425856
74	0x3d208f8a	0.03919939
75	0x3cc6d544	0.024271615
76	0x3d0f740f	0.03502279
77	0xbf295423	-0.6614401
78	0x3c99c502	0.018770698
79	0xbc9b0024	-0.018920965
80	0x3cefc9e6	0.029271077
81	0xbd98dc89	-0.07463939
82	0xbb180160	-0.002319418
83	0x3d71afc8	0.05900553
84	0xbd04abac	-0.03239028
85	0x3d03d444	0.032184854
86	0x3cc3cc3d	0.0239011
87	0x3c2a6349	0.010399648
88	0x3c5f57e3	0.013631794
89	0x3f64a34e	0.89311683
90	0xbc1f6c30	-0.009730384
91	0x3d08223a	0.033235766
92	0x3ce4648d	0.027879978
93	0xbf2db218	-0.67849874
94	0x3f1fd7e2	0.62438786
95	0x3e71d79a	0.23617402
96	0xbf373fe2	-0.7158185
97	0xbd5e63d4	-0.054294422
98	0xbb6d4869	-0.003620649
99	0x3c397450	0.011319235
100	0xbf00b55f	-0.5027675
101	0x3c0cc4f2	0.008591877
102	0xbb697f8a	-0.0035628998
103	0x3ca9aede	0.020713266
104	0xbcfff932	-0.031246755
105	0xb9a4febf	-0.00031470318
106	0xbd6c3d8b	-0.05767588
107	0xbd30c63c	-0.0431578
108	0xbd1bf078	-0.038071126
109	0xbe225c7d	-0.15855594
110	0xbd417223	-0.04722799
111	0x3af37127	0.0018573151
112	0xbf201c4b	-0.6254317
113	0x3a9b182d	0.0011832766
114	0x3c801ed7	0.015639706
115	0x3caafaed	0.020871604
116	0x3d7fbdc6	0.06243684
117	0xbc9977bf	-0.018733857
118	0xbd8e1b61	-0.06938816
119	0xbddc46be	-0.107556805
120	0x3d18c72a	0.037299313
121	0x3c9afdf4	0.018919922
122	0xbd5bdcc0	-0.05367732
123	0x3cf27b38	0.02959977
124	0xbd54fc99	-0.05199871
125	0x3c1722d0	0.009224609
126	0x3f07cd9c	0.5304811
127	0xbf0ad3b4	-0.54229283
128	0xbd09fa40	-0.033685923
129	0xbaefd064	-0.0018296358
130	0x3c806051	0.015670927
131	0xbc635389	-0.013874897
132	0xbd1acba6	-0.03779187
133	0x3b2d8e00	0.0026482344
134	0xbd14c2b1	-0.036318485
135	0x3e1c6e75	0.15276511
136	0xbd3316c4	-0.043722883
137	0xbd6f44e8	-0.058415323
138	0x3ec28a35	0.3799607
139	0x3f654f33	0.89573973
140	0x3ea05bf3	0.31320152
141	0xbcb51229	-0.022103386
142	0x3d799618	0.060934156
143	0x3ce51ea9	0.027968721
144	0xbde57323	-0.11203601
145	0xbbf828fa	-0.007573244
146	0xbd506eec	-0.050887033
147	0xbd75ae25	-0.05998053
148	0x3d2f499f	0.04279482
149	0x3d6bc837	0.057563987
150	0x3bc77aa3	0.0060876175
151	0xbd0ddaf6	-0.034632646
152	0xbc626e53	-0.013820249
153	0x3f09bc01	0.53802496
154	0x3c2cf0f8	0.010555498
155	0xbd417887	-0.047234084
156	0xbd275163	-0.0408491
157	0xbd7e88a8	-0.062142044
158	0xbc72dd72	-0.0148233045
159	0xbc8c7102	-0.01714373
160	0xbdb4a852	-0.08821167
161	0xbf7a6539	-0.97810704
162	0xbf1bf79b	-0.6092469
163	0xbd6dd18b	-0.058061164
164	0x3f853825	1.0407759
165	0x3a9c352d	0.0011917703
166	0xbbe1bd08	-0.0068889894
167	0xbd4549aa	-0.048165955
168	0x3ca37fc7	0.01995839
169	0x3c732a5a	0.01484164
170	0x3d0fc209	0.035097156
171	0xb9b7e918	-0.00035078148
172	0xbd37a062	-0.044830687
173	0x3d017c17	0.031612482
174	0xbd028ede	-0.03187453
175	0x3cfb9550	0.030710846
176	0x3c66c440	0.014084876
177	0x3d4fa861	0.050697688
178	0xbd4d4db6	-0.05012294
179	0xbc3d1c50	-0.011542395
180	0xbef85494	-0.48502028
181	0xbd6a8482	-0.057255276
182	0xbc139500	-0.009007692
183	0xbc6d4b78	-0.014483325
184	0xbd88a4ad	-0.066720344
185	0x3d8a2e84	0.067471534
186	0x3cfd4aee	0.030919518
187	0xbc9a9a14	-0.018872298
188	0x3ab5e2ca	0.0013876793
189	0xbf03b159	-0.51442486
190	0xbd32416b	-0.04351942
191	0x3d6827cd	0.056678582
192	0x3d77217e	0.060334675
193	0x3efbd244	0.49183857
194	0xbb5757a0	-0.0032858625
195	0x3c340778	0.010988109
196	0xbdf5b24e	-0.119968995
197	0xbf517607	-0.8182072
198	0x3d6dcf5d	0.058059085
199	0x3f03d42d	0.5149563
200	0x3cc541b4	0.024079181
201	0xbd136284	-0.035982624
202	0x3c9f0ef0	0.019416302
203	0x3d69c2ba	0.05707047
204	0x3d042689	0.032263312
205	0xbca2257d	-0.019793266
206	0xbd08505d	-0.033279765
207	0x3d4c205d	0.04983555
208	0x3f398c85	0.7248004
209	0xbeda11fc	-0.42591846
210	0xbe1b4671	-0.1516359
211	0x3d1ded3f	0.038556334
212	0x3c2c0d18	0.010501169
213	0xbd4d06bc	-0.05005525
214	0x3d5d6eb0	0.054060638
215	0xbd1c73bb	-0.038196307
216	0x3efaf8c9	0.49017933
217	0x3cd0d2e8	0.025491193
218	0xbc9d434c	-0.019197129
219	0x3d1a58c2	0.037682302
220	0xbd6688f8	-0.056282967
221	0x3b69d120	0.0035677627
222	0xbc5fabb5	-0.013651778
223	0xbd89cf17	-0.067289524
224	0xbdff9bee	-0.12480913
225	0xbd0a6724	-0.03378977
226	0xbd3574ca	-0.04430083
227	0xbbcbce57	-0.006219666
228	0xbd691518	-0.056904882
229	0xbd113ea0	-0.035460114
230	0x3eda1bf6	0.42599458
231	0xbd1dc2ea	-0.038515963
232	0x3dd7edb6	0.10543387
233	0xbf4274dd	-0.7595957
234	0xbcaba76c	-0.020953856
235	0x3f6d7224	0.9275229
236	0xbcec8ad9	-0.028874801
237	0x3d44d7b3	0.04805727
238	0xbd1cc3bc	-0.038272604
239	0x3c3e4ba0	0.01161471
240	0xbf5b1ef9	-0.85594136
241	0xbd579eea	-0.052641787
242	0x3d4fc52d	0.05072515
243	0x3c8b9419	0.017038392
244	0x3d1c0743	0.038092863
245	0xbb344ea7	-0.00275127
246	0x3c8ef95d	0.01745289
247	0x3ce552cf	0.027993588
248	0xbeb556b4	-0.35417712
249	0x39f7ed00	0.0004728809
250	0xbcd53146	-0.026024472
251	0xbe0c5d67	-0.13707505
252	0x3d4d293c	0.050088152
253	0x3ed2286a	0.41046458
254	0xb81a7a8f	-3.6830603e-05
255	0x3f4d6867	0.8023743

linear4.weight f4 [256, 256]
0	0x3c8986c1	0.016787888
1	0x3d90be9d	0.070676066
2	0x3d55cad5	0.05219539
3	0xbd188300	-0.037234306
4	0x3d17e88c	0.03708701
5	0xbcd1bf14	-0.025603808
6	0x3d42ad36	0.047528468
7	0x3d0ade8f	0.033903655
8	0xbd83bba7	-0.06432276
9	0x3d1a6cf8	0.037701577
10	0x3b92d483	0.0044809
11	0x3c91c147	0.017792357
12	0x3d0b5da1	0.03402484
13	0xbc29d980	-0.010366797
14	0xbd2d4282	-0.042299755
15	0xbd235973	-0.039880227
16	0x3d08e1a9	0.03341833
17	0xbcf8b032	-0.030357454
18	0x3c9fb7e8	0.019496873
19	0xbd343d7b	-0.044003945
20	0xbd9856e1	-0.07438446
21	0x3cc8ace7	0.024496509
22	0x3bd1185d	0.006381078
23	0x3c89cc5c	0.016821079
24	0xbc8e437a	-0.01736616
25	0xbe17795e	-0.14792392
26	0x3d1e6921	0.038674477
27	0xbd46592f	-0.048424896
28	0xbc89e6c0	-0.016833663
29	0xbd745e44	-0.05966021
30	0xbcd0ead0	-0.025502592
31	0x3d5dc392	0.05414159
32	0x3d635cd6	0.055508457
33	0x3b8f8070	0.0043793246
34	0x3d02ef77	0.031966653
35	0xbd4ce61a	-0.05002413
36	0x3c638a10	0.013887897
37	0xbd630491	-0.055424277
38	0x3c9641fa	0.018342007
39	0xbc6f7ba0	-0.014616877
40	0xbcb08fcc	-0.021552943
41	0xbcb03406	-0.021509182
42	0xbc288d0d	-0.010287535
43	0x3d4cff8e	0.050048403
44	0x3b4d5180	0.0031329095
45	0x3b604fbf	0.003422722
46	0x3c132886	0.0089818295
47	0x3ce0a5bc	0.027422778
48	0x3a5e8100	0.00084878504
49	0x3cab3f81	0.020904304
50	0x3c5c11c3	0.013431969
51	0x3d650f00	0.05592251
52	0x3cdf0200	0.027222633
53	0xbd5127da	-0.051063396
54	0x3d39350f	0.045216616
55	0x3b560967	0.0032659413
56	0xbd0413e0	-0.032245517
57	0xbcd681f4	-0.026185013
58	0xbc6bebd8	-0.014399491
59	0xbba60517	-0.0050665247
60	0xbc81e800	-0.015857697
61	0xbcb43c2a	-0.022001345
62	0xbbcad967	-0.006190467
63	0x3cc4fc0c	0.024045967
64	0xbc12fde1	-0.008971662
65	0xbd80a7be	-0.06281994
66	0x3bb4a59e	0.005512907
67	0xbd9d42fb	-0.07678791
68	0x3d0f7917	0.03502759
69	0x3d6a47dc	0.057197437
70	0xbca94886	-0.020664465
71	0xbcc38c54	-0.023870625
72	0xbc57ff4f	-0.013183429
73	0xbd1235f6	-0.035695992
74	0x3d260ba0	0.04053843
75	0x3c60fbf1	0.0137319425
76	0xbca85f59	-0.020553278
77	0x3bb2a30e	0.0054515665
78	0xbd81b3cb	-0.06333121
79	0xbd377a0a	-0.04479412
80	0xbd699e9a	-0.05703602
81	0x3cb0a91a	0.021565009
82	0xbcf3d8e0	-0.0297665
83	0xbce3a890	-0.027790338
84	0x3ccd8ba3	0.025090998
85	0xbc512e4e	-0.012767388
86	0xba2b8688	-0.0006543179
87	0xbcad0c61	-0.021124067
88	0x3d42cf9e	0.04756128
89	0xbc74be0d	-0.01493789
90	0xbd50392a	-0.050835766
91	0x3cbebfcd	0.023284817
92	0xbb96bbb0	-0.004600011
93	0x3c335593	0.010945695
94	0x3d80c2fa	0.06287189
95	0xbc940c2d	-0.018072212
96	0x3cc80095	0.02441434
97	0x3c9f3541	0.019434573
98	0x3c5227da	0.012826884
99	0x3c55cdf8	0.013049595
100	0xbd9cbe2e	-0.076534614
101	0x3d669bc4	0.056300893
102	0x3d4a46d9	0.04938397
103	0xbd54e8df	-0.051979896
104	0xbd78e6d2	-0.060767002
105	0xbc1d227c	-0.009590741
106	0x3d48e721	0.049048547
107	0x3d50e6fc	0.051001534
108	0x3cdd50a4	0.027015992
109	0xbd649596	-0.05580672
110	0x3cb7fc95	0.022459308
111	0xbcf44e52	-0.029822502
112	0xbd98fddd	-0.074702956
113	0x3d361eb0	0.04446286
114	0xbc0ad91d	-0.008474615
115	0x3b745ba0	0.0037286058
116	0xbc0dccb0	-0.008654758
117	0xbd6896bd	-0.05678438
118	0x3c8f89f3	0.017521834
119	0x3c908d06	0.01764537
120	0xbcb2917b	-0.021797886
121	0x3cab7f9c	0.020934872
122	0xbcebb438	-0.028772458
123	0xbd447066	-0.047958754
124	0x3cca2718	0.024676844
125	0xbcd05259	-0.025429891
126	0xbd88cf28	-0.06680137
127	0xbcd41638	-0.025889501
128	0x3cfbd6bf	0.030742047
129	0xbd44bc49	-0.048031125
130	0x3d668638	0.056280345
131	0xbd3dfc55	-0.04638322
132	0x3c72069c	0.014772084
133	0x3c9cd004	0.019142158
134	0x3c3334da	0.010937894
135	0xbd873b1d	-0.06603072
136	0x3d55910a	0.052140273
137	0x3d340afd	0.04395579
138	0xbce9a395	-0.028520385
139	0xbdc57f72	-0.09643449
140	0xbc9774d1	-0.01848832
141	0x3a07c547	0.0005179238
142	0x3d53d628	0.051717907
143	0xbcd64c77	-0.026159508
144	0x3d9bcbc7	0.07607227
145	0xbc80e254	-0.015732922
146	0x3d5e7606	0.054311775
147	0x3d3ec2a0	0.046572328
148	0x3c4635b7	0.012097768
149	0xbcea3668	-0.028590396
150	0xbd590a45	-0.05298831
151	0x3d45056e	0.04810088
152	0x3c955a14	0.01823143
153	0xbd9c26b2	-0.07624568
154	0x3d688422	0.056766637
155	0x3ca2236d	0.019792283
156	0x3cc4b7fe	0.024013516
157	0xbcf986e4	-0.030459829
158	0xbd4a1857	-0.04933962
159	0x3cc34e1f	0.023840962
160	0x3d3a1ccb	0.045437615
161	0x3d1774f5	0.036976773
162	0xbd2bf4c5	-0.041981477
163	0xbb9e8f40	-0.004838854
164	0x3d91209b	0.07086297
165	0x3d32f156	0.043687187
166	0xbd81aba5	-0.06331567
167	0xbd35f4b1	-0.04442281
168	0x3d24adfc	0.040204987
169	0x3cbee7de	0.023303922
170	0x3d3e72fb	0.046496373
171	0xbb36418e	-0.002781007
172	0x3cd05ae4	0.025433965
173	0xbd8ed60b	-0.06974419
174	0xbd5371e4	-0.051622286
175	0x3c20fa92	0.009825366
176	0x3c9b274d	0.018939639
177	0x3d067a09	0.032831226
178	0x3d78d28b	0.060747664
179	0x3d5839dc	0.052789554
180	0x3d636861	0.055519465
181	0xbd0159c8	-0.031579763
182	0xbd776666	-0.06040039
183	0xbcde5fa8	-0.027145222
184	0x3cfdd448	0.030985013
185	0xbd435c2b	-0.04769532
186	0x3c35a8e1	0.011087627
187	0xbc88ca2c	-0.016697966
188	0x3c285ca1	0.010275991
189	0x3d15dcd6	0.03658756
190	0xbc60d8d0	-0.013723567
191	0xbccbb966	-0.024868678
192	0x3d03129c	0.03200017
193	0x3b82eebb	0.003995744
194	0xbc8a2a65	-0.016865918
195	0x3d709e8a	0.058744945
196	0xbce2b82c	-0.02767571
197	0xbd195b33	-0.03744049
198	0xbd4330af	-0.04765385
199	0xbcd3359a	-0.025782395
200	0x3ccac804	0.024753578
201	0x3d48635e	0.04892289
202	0x3d78c17e	0.060731404
203	0xbc88d7cb	-0.01670446
204	0x3d5ad889	0.05342916
205	0xbc2759f0	-0.010214314
206	0xbc8fcf66	-0.01755495
207	0x3ca28b05	0.01984168
208	0x3cb791dc	0.022408418
209	0x3d52afdf	0.051437255
210	0xbd5dedc5	-0.054181833
211	0xbd3fcab8	-0.046824187
212	0xbd25a4fa	-0.040440537
213	0xbc83ff30	-0.016112894
214	0x3cc652b4	0.024209358
215	0xbd7e2f42	-0.062056787
216	0x3c81abb0	0.015828937
217	0xbcc59f1c	-0.02412372
218	0x3d426e84	0.047468677
219	0x3cbb6e9f	0.022879897
220	0xbc9d5d8d	-0.019209648
221	0x3cd57634	0.02605734
222	0x3c9cc10e	0.019135024
223	0x3cebb4f4	0.028772809
224	0x3d0dcef2	0.034621187
225	0x3c62dcb3	0.013846564
226	0x3d1a642d	0.03769319
227	0xbcdeba93	-0.027188575
228	0xbcd38100	-0.025818348
229	0x3c339e60	0.0109630525
230	0x3d289482	0.041157253
231	0xba0acd00	-0.00052948296
232	0xbd48b8cd	-0.049004365
233	0x3d262c4e	0.040569596
234	0xbd2e0fa0	-0.04249537
235	0xbd96ccde	-0.07363294
236	0xbc9a8074	-0.01886008
237	0xbc09685e	-0.0083866995
238	0xbd76be1f	-0.060239907
239	0xbd7f0854	-0.0622638
240	0x3d110dd1	0.035413567
241	0xbd72df4a	-0.059294976
242	0x3ce473fc	0.027887337
243	0x3c135399	0.008992099
244	0xbcf49e92	-0.029860768
245	0x3d1789c6	0.036996625
246	0xbd05e230	-0.032686412
247	0xbd86bbc3	-0.065787815
248	0x3b27eca7	0.0025623234
249	0x3c31de18	0.010856174
250	0xbce3745f	-0.027765451
251	0x3cc94380	0.02456832
252	0x3bf3c893	0.007439682
253	0xbd9c0892	-0.07618822
254	0xbc9be0e2	-0.01902813
255	0xbbef87f0	-0.007309906

linear4.bias f4 [256]
0	0xbf30fa18	-0.6913161
1	0xbe5de8ba	-0.2167081
2	0x3ac07eb0	0.0014686193
3	0x3f241014	0.64087033
4	0xbf70f587	-0.94124645
5	0xbefe1c2d	-0.4963087
6	0x3bde2194	0.006778905
7	0xbe974f24	-0.29552567
8	0xbc4cde87	-0.0125042265
9	0xbd49ea6c	-0.049295828
10	0xbd8d62f6	-0.06903641
11	0xbf3ed255	-0.7453969
12	0xbbd35560	-0.0064493865
13	0xbc3ced33	-0.011531162
14	0x3dc57ce9	0.09642965
15	0xbe362bff	-0.1779022
16	0xbcfaf94b	-0.03063645
17	0xbf3a1684	-0.72690606
18	0xbf37d764	-0.71813035
19	0x3df5a72f	0.11994778
20	0xbd0ad928	-0.033898503
21	0x3f2201f0	0.63284206
22	0xbea89da6	-0.32932776
23	0xbd1b201d	-0.037872422
24	0xbf03fed0	-0.5156069
25	0xbf06a5a5	-0.52596503
26	0xbf656b7a	-0.8961712
27	0xbeb31800	-0.34979248
28	0xbb1cebc5	-0.002394424
29	0xbed75b0c	-0.4206165
30	0xbf11e71c	-0.5699327
31	0x3e90634c	0.28200758
32	0x3c5bf143	0.0134242205
33	0xbea51fa7	-0.3225071
34	0x3ca662b8	0.020310745
35	0xbe67f18f	-0.22650741
36	0x3ce73f95	0.02822856
37	0x3f15cce7	0.5851578
38	0xbd2349b2	-0.039865203
39	0x3f071d25	0.52778846
40	0x3f12fd36	0.5741762
41	0xbe4fe44e	-0.20301935
42	0x3ef46f22	0.47741038
43	0x3eef14f0	0.46695662
44	0xbeb98525	-0.36234394
45	0xbeaa830f	-0.33303115
46	0xbef5e7ef	-0.48028514
47	0xbf07d22b	-0.53055066
48	0xbe7ddf97	-0.24792324
49	0xbcba4207	-0.022736562
50	0xbf29de19	-0.6635452
51	0xbebc27c3	-0.36749086
52	0xbe0f06db	-0.13967459
53	0xbee22853	-0.4417139
54	0xbd59993c	-0.05312465
55	0x3ebaabd6	0.36459225
56	0xbeb197e7	-0.34686205
57	0x3e927f61	0.28612807
58	0x3d816e7e	0.06319903
59	0xbf4a83be	-0.7910727
60	0x3eae28c5	0.3401548
61	0xbee1cb95	-0.44100633
62	0x3d6a2f12	0.057173796
63	0x3e3e12b3	0.1856182
64	0x3f0a97a8	0.5413766
65	0xbf319192	-0.6936275
66	0xbd5c9597	-0.053853597
67	0xbdac566a	-0.0841492
68	0xbf4cad79	-0.799522
69	0x3e91b839	0.28460863
70	0x3f02d6f5	0.5110925
71	0xbf604a70	-0.8761358
72	0x3f371e57	0.7153067
73	0x3f3a8d22	0.728716
74	0xbecf666f	-0.40507838
75	0x3eab1dd8	0.33421206
76	0x3f491ba3	0.78557795
77	0x3eebfeff	0.46092984
78	0xbb9cc420	-0.004784122
79	0xbf54d244	-0.8313334
80	0x3ef5c61a	0.48002702
81	0xbecba75d	-0.39776126
82	0xbed08856	-0.40729016
83	0x3f280e24	0.65646577
84	0xbf16c6e1	-0.58897215
85	0x3d8a41a0	0.06750798
86	0x3f64b2c8	0.893353
87	0xbf554cb2	-0.8332015
88	0xbf2bf5f0	-0.67172146
89	0xbef02cec	-0.46909273
90	0xbd78c557	-0.060735073
91	0xbf18e73b	-0.5972783
92	0x3f014d37	0.50508446
93	0xbd267d73	-0.04064698
94	0x3dccdc0a	0.100029066
95	0xbea5439d	-0.32278147
96	0x3ba8b62e	0.0051486706
97	0x3e93b284	0.28847134
98	0xbf34f18e	-0.70681083
99	0xbeb30a93	-0.34969005
100	0xbd1ef115	-0.038804132
101	0x3ecb0068	0.39648747
102	0x3cfda70e	0.030963447
103	0xbf5608f7	-0.8360743
104	0xbbfeaa70	-0.0077717826
105	0xbf5518a7	-0.8324074
106	0xbe24dc40	-0.16099644
107	0xbef2da71	-0.47432283
108	0xbeb12db6	-0.34605187
109	0x3c6e2dfd	0.014537332
110	0xbf24ac0e	-0.64325035
111	0xbda80366	-0.08203773
112	0xbef7774c	-0.48333204
113	0xbf0da46e	-0.55329025
114	0xbea7d6ab	-0.32780966
115	0x3edccaae	0.43123382
116	0x3e83fe13	0.2577978
117	0x3f0e5a21	0.55606276
118	0xbea838da	-0.32855874
119	0xbf0a6da6	-0.5407356
120	0xbea67e84	-0.325184
121	0x3f2e8bbf	0.68181986
122	0xbb83a79d	-0.004017784
123	0xbee17b53	-0.440394
124	0xbdc20cbd	-0.09475086
125	0x3f4a0a17	0.78921646
126	0xbf084948	-0.5323682
127	0x3f19952a	0.5999323
128	0x3f28e5cf	0.6597566
129	0xbf273a89	-0.6532369
130	0xbef2e079	-0.47436884
131	0x3f0df5ff	0.55453485
132	0x3f68083d	0.9063757
133	0xbf21c4fd	-0.63191205
134	0xbe8742b3	-0.26418075
135	0x3eede955	0.4646708
136	0x3ed2be86	0.41160983
137	0x3ee2baa9	0.44283035
138	0x3edfd498	0.43716884
139	0x3f3ef10f	0.74586576
140	0x3f406ba5	0.7516425
141	0x3eac8068	0.33691716
142	0xbf2ed424	-0.6829245
143	0x3ed323dd	0.412383
144	0x3f15941f	0.5842914
145	0x3dab7a95	0.0837299
146	0x3f3bb654	0.73325086
147	0x3c2f8fb9	0.0107154185
148	0xbdc8ef3b	-0.098112546
149	0xbf24793e	-0.642475
150	0x3f529f99	0.82274777
151	0xbe617d8d	-0.2202055
152	0xbf5f1cc1	-0.8715325
153	0x3f49861e	0.7872027
154	0x3f302ff7	0.6882319
155	0xbf001729	-0.5003534
156	0x3d69c22d	0.057069946
157	0x3d882071	0.06646813
158	0x3f1992fb	0.599899
159	0xbe8ff546	-0.28116816
160	0xbd31e742	-0.043433435
161	0xbf26ba77	-0.6512827
162	0xbf47b815	-0.7801526
163	0x3e806420	0.2507639
164	0xbf40c901	-0.7530671
165	0xbf2e9438	-0.68194914
166	0xbf29bb01	-0.6630097
167	0xbee024b9	-0.43778017
168	0xbf23b807	-0.6395268
169	0x3ca0b711	0.019618543
170	0x3e8b0985	0.271557
171	0x3f4914ff	0.7854766
172	0x3f4ea398	0.80718374
173	0xbf536798	-0.82579947
174	0xbf1c2ead	-0.6100872
175	0xbee67c88	-0.45016885
176	0xbf5d8353	-0.8652851
177	0xbf2b3778	-0.66881514
178	0xba8d0281	-0.0010758193
179	0x3ef12677	0.4709966
180	0xba88dfa5	-0.0010442628
181	0xbf15de21	-0.58542067
182	0xbd154339	-0.03644106
183	0xbf5ee8c7	-0.8707394
184	0xbe876cca	-0.26450187
185	0xbeae5c14	-0.34054625
186	0xbf0bc81d	-0.54602224
187	0x3f255f0d	0.6459816
188	0x3f56c5e5	0.83895713
189	0xbf31ada1	-0.6940556
190	0x3d570060	0.052490592
191	0xbe772210	-0.24134088
192	0x3f32f66c	0.6990726
193	0x3e60f970	0.21970153
194	0xbeb5a3ca	-0.35476524
195	0xbd063fbe	-0.032775633
196	0x3f4117cd	0.7542694
197	0xbf060e4a	-0.52365553
198	0xbe9ec09e	-0.3100633
199	0xbf4176ad	-0.7557171
200	0x3f6273fb	0.8845822
201	0xbdd2d3c3	-0.102942966
202	0xbf0476f3	-0.51744
203	0xbe49638c	-0.1966688
204	0x3d7759e9	0.06038848
205	0xbd70c83a	-0.0587847
206	0xbf3471e5	-0.7048629
207	0x3ddb9e01	0.10723496
208	0xbee23812	-0.44183403
209	0xbf41a08f	-0.7563562
210	0x3cb20598	0.021731183
211	0xbe07f794	-0.13278037
212	0xbd10f75c	-0.03539215
213	0x3e9137f1	0.28362992
214	0x3f0e09b5	0.5548356
215	0x3f4d803f	0.80273813
216	0xbec4cd66	-0.38437957
217	0xbf1eb04b	-0.6198775
218	0xbd971c36	-0.07378428
219	0xbe89b210	-0.26893663
220	0x3f01b54f	0.5066728
221	0x3e6e31cf	0.23261188
222	0x3f25e41a	0.6480118
223	0x3e7a3c38	0.24437034
224	0xbf0a34ee	-0.53987014
225	0x3e9a7373	0.30166206
226	0x3d816014	0.063171536
227	0xbf2174f9	-0.6306911
228	0xbed176a4	-0.40910828
229	0xbf007cc9	-0.5019041
230	0xbe80b6dd	-0.25139514
231	0xbd7b99e7	-0.06142607
232	0x3e8d1ad5	0.27559534
233	0x3f3e411d	0.74318105
234	0xbeedf93f	-0.46479222
235	0xbf407712	-0.75181687
236	0xbf519e3e	-0.81882083
237	0x3ea64300	0.32472992
238	0x3c74f744	0.014951531
239	0xbdc6860b	-0.096935354
240	0xbf17f93e	-0.5936469
241	0x3dce7046	0.10080008
242	0xbe85e451	-0.26150754
243	0xbd7f6c7d	-0.06235932
244	0xbbdd657f	-0.006756484
245	0x3f348e98	0.7053008
246	0x3f28b397	0.6589903
247	0x3f41dd02	0.75727856
248	0xbee54fd5	-0.4478747
249	0x3e0f52c2	0.13996413
250	0xbd829d88	-0.06377703
251	0xbf1aac8b	-0.6041953
252	0x3f1fdd37	0.6244692
253	0x3f081dd4	0.53170514
254	0xbee1bdc2	-0.44090086
255	0x3e851fe1	0.26000884

linear3.weight f4 [1, 256]
0	0xbe94f0aa	-0.29089862
1	0xbc863aee	-0.016385522
2	0xbe0740b5	-0.13208278
3	0x3e1a6259	0.15076579
4	0x3e79ab43	0.24381737
5	0x3e9d198d	0.30683556
6	0x3f323162	0.696066
7	0x3d67f28f	0.056627806
8	0x3d3f1330	0.046649158
9	0x3a2e1851	0.00066411967
10	0xbad7358e	-0.0016419159
11	0xbf8e4adc	-1.1116595
12	0xbad00a1e	-0.0015872156
13	0x3a8d7819	0.0010793238
14	0xbda1cab5	-0.078999914
15	0xbddf293d	-0.108965375
16	0xba2c891c	-0.000658171
17	0xbc3138d0	-0.010816768
18	0xbf08dc27	-0.53460926
19	0x3d6940cd	0.056946564
20	0x3d986645	0.07441381
21	0x3e346a06	0.1761857
22	0x3d275a23	0.040857445
23	0x3e8ae27b	0.27125916
24	0xbd9ca6c3	-0.07648995
25	0xbc382f07	-0.011241681
26	0x3e3c447a	0.18385497
27	0x3c0a59b2	0.008444237
28	0x3d938bd6	0.07204406
29	0x3de5444f	0.111946695
30	0xbe6a9d83	-0.22911648
31	0x3cb4803b	0.022033801
32	0xbba55be0	-0.0050463527
33	0x3d5bfe1e	0.053709142
34	0x3e6cb493	0.23115759
35	0x3c398a06	0.011324411
36	0x3f206eac	0.6266887
37	0x3e2f0c2a	0.17094484
38	0x3becba47	0.0072243544
39	0x3e021657	0.12703834
40	0x3e71212b	0.23547809
41	0x3daa9e90	0.08331025
42	0x3f06d015	0.5266126
43	0x3f89371b	1.0719942
44	0xbddc9719	-0.10771007
45	0x3d61a684	0.055090442
46	0x3e2458cc	0.16049498
47	0xbecf0f6b	-0.4044145
48	0x3dad4923	0.08461215
49	0x3dd9cef4	0.10635176
50	0xbdb0ed51	-0.086390145
51	0x3d5541e3	0.052064788
52	0xbb638828	-0.0034718607
53	0xbcc6fc33	-0.02429018
54	0xbeb34db4	-0.3502022
55	0x3ddd7d44	0.10814908
56	0x3e8a2ae6	0.26985854
57	0x3e98cd98	0.29844356
58	0x3d6c688b	0.057716887
59	0xc0110b89	-2.266329
60	0xbe15a3df	-0.14613293
61	0xbd6891f2	-0.05677981
62	0xbc1841ef	-0.009293064
63	0xbd6fccaa	-0.058544792
64	0xbf1a00ad	-0.6015728
65	0x3e0f019c	0.13965458
66	0x3a78ee9c	0.0009496005
67	0xbd7364a3	-0.059422147
68	0x3e5b1e2c	0.21398228
69	0xbca4bffc	-0.020111077
70	0x3ebba344	0.36648
71	0xc005033c	-2.0783224
72	0xbe343a68	-0.17600405
73	0x3d9767ad	0.073928215
74	0x3ea8b858	0.32953143
75	0x3e50c2fc	0.2038688
76	0x3ea04952	0.3130594
77	0x3f561b8c	0.83635783
78	0x3d099193	0.033586096
79	0x3e3b8ab8	0.18314636
80	0x3d2fe6f7	0.042944875
81	0x3b6eeb29	0.0036456084
82	0x3e8ae108	0.2712481
83	0xbdf08399	-0.1174385
84	0xbebfca5b	-0.37459072
85	0x3dcf069f	0.10108685
86	0x3deaec38	0.114708364
87	0xc01aecf8	-2.4207134
88	0xbd621cb2	-0.055203147
89	0xbeab07aa	-0.33404285
90	0x3dac5b4f	0.08415853
91	0x3e0dc61a	0.13845101
92	0xbee9f41d	-0.45694056
93	0x38f28313	0.00011563874
94	0x3dc08f54	0.09402338
95	0x3b3fcc20	0.0029265955
96	0x38b9fa0a	8.868061e-05
97	0xbec36918	-0.38166118
98	0xbf4efcd1	-0.8085452
99	0x3ce126ac	0.02748426
100	0x3c840e0a	0.016119976
101	0xbed5d572	-0.41764408
102	0x3e397eef	0.18114828
103	0xbf2ffcfa	-0.68745387
104	0x3ed195ea	0.40934688
105	0x3e8a2957	0.26984665
106	0x3ea3f501	0.3202286
107	0xbe708f15	-0.23492081
108	0xbe5f6d76	-0.218191
109	0x3e07c2e1	0.13257934
110	0xbee1a5f7	-0.44071934
111	0xbdaf403c	-0.085571736
112	0xbf32ce06	-0.69845617
113	0xbe6aaf3f	-0.22918414
114	0xbe6ee038	-0.2332772
115	0xbe030287	-0.12793933
116	0x3f845e86	1.0341346
117	0x3e8f9084	0.28039944
118	0x3e09b490	0.13447785
119	0xbe19f7bd	-0.15035911
120	0xbe835b52	-0.2565561
121	0x3efd1ef5	0.4943768
122	0xbe20e44d	-0.1571209
123	0x3e6ac385	0.22926147
124	0x3de813cc	0.11331901
125	0x3e42961d	0.19002576
126	0xbe8a588f	-0.2702069
127	0x3e3f9fed	0.1871335
128	0x3e8acdc6	0.27110118
129	0xbe9b3b9a	-0.3031891
130	0xbe941f85	-0.28930297
131	0x3f89a681	1.0753938
132	0x3f03eb66	0.51531065
133	0xbf17b2b3	-0.5925705
134	0xbcdfa605	-0.027300844
135	0x3fb4221e	1.4072912
136	0x3e458fca	0.19293132
137	0x3dcd6958	0.10029858
138	0x3e474d23	0.19463019
139	0x3ed1e570	0.4099536
140	0x3efade97	0.48997948
141	0x3e59e551	0.21278884
142	0xbd69d15c	-0.057084426
143	0xbdbaffcc	-0.09130821
144	0x3f1c72ee	0.6111287
145	0xbd456c0d	-0.04819875
146	0x3f13b26f	0.57694143
147	0x3b2a6e81	0.0026005807
148	0xbe3d8bcf	-0.18510364
149	0x3d37d1f7	0.044877972
150	0x3eb674e0	0.35636044
151	0x3cdcf8ac	0.026974045
152	0xbf32f42d	-0.6990383
153	0x3f0f70a8	0.56031275
154	0xbdd1228f	-0.1021167
155	0xbeab248b	-0.33426318
156	0x3bcbf020	0.0062236935
157	0x3b04f46b	0.0020287286
158	0x3f16d6d1	0.58921534
159	0x3c84af63	0.016196912
160	0x3ef14b46	0.47127742
161	0xbe8a1866	-0.2697174
162	0xbf242e74	-0.6413338
163	0x3f1b3e49	0.60641915
164	0xbe6351f0	-0.22199225
165	0xbf1079ce	-0.5643586
166	0xbd940777	-0.07227986
167	0x3e073d58	0.13206995
168	0xbe4a0f97	-0.1973251
169	0xbb7c373a	-0.0038485066
170	0xbec5a9da	-0.3860615
171	0x3de659da	0.112476066
172	0x3f563f6d	0.8369053
173	0xc00380c9	-2.0547354
174	0x3e58b2c9	0.21161951
175	0x3e839718	0.25701213
176	0xbfe759e5	-1.8074309
177	0xbcff11dc	-0.031136446
178	0xba940c4d	-0.001129517
179	0x3e503301	0.20331956
180	0x3d4357aa	0.047691025
181	0xbe7940e9	-0.24341168
182	0xbcb3c4ce	-0.02194443
183	0x3de4c929	0.11171181
184	0x3e67ba87	0.22629748
185	0x3e03c272	0.12867144
186	0xbeb50fdb	-0.3536366
187	0x3d3cf043	0.04612757
188	0x3f136600	0.57577515
189	0x3e5387d3	0.20657282
190	0xbe0c8524	-0.13722664
191	0x3c29587c	0.010336038
192	0x3eb84525	0.35990253
193	0xbafb5f87	-0.001917825
194	0x3cd02caa	0.025411922
195	0xbc17e98d	-0.009271991
196	0x3e66478b	0.22488229
197	0xbdfe019f	-0.12402653
198	0x3ddcfa4c	0.10789928
199	0x3e680d17	0.22661243
200	0x3e6d2c03	0.2316132
201	0xbe2173c5	-0.15766819
202	0xbe819f57	-0.2531688
203	0x3dc44d9e	0.09585117
204	0xbddf96b0	-0.10917413
205	0xba660c65	-0.00087756506
206	0x3e55c24a	0.20874897
207	0x3e95c675	0.29252973
208	0x3cefd4c5	0.029276261
209	0x3d8ccac1	0.0687461
210	0x3edd02f0	0.43166304
211	0xbe1cc686	-0.15310106
212	0x3e58d37f	0.2117443
213	0x3f22d3b8	0.6360431
214	0x3e35632a	0.1771361
215	0x3eaec8d6	0.341376
216	0x3cf696e5	0.030101249
217	0xbeb01a6b	-0.34395155
218	0x3d92dde6	0.0717123
219	0x3dae7376	0.08518116
220	0x3f41a6f6	0.7564539
221	0x3f92443a	1.1427071
222	0x3f7c8bde	0.9865092
223	0x3d5081cc	0.050905034
224	0xbea0c974	-0.31403697
225	0xbe91e13e	-0.2849216
226	0xbe674c05	-0.22587593
227	0x3e399ddd	0.18126626
228	0x3cae6004	0.021286018
229	0x3d719321	0.058978204
230	0xbc495619	-0.012288594
231	0xbd0e81cc	-0.034791753
232	0x3eb56f9b	0.3543671
233	0x3ef3551e	0.47525877
234	0x3da8f009	0.08248908
235	0xbfc20b9e	-1.5159795
236	0x3e4bad70	0.1989038
237	0x3f053477	0.5203318
238	0x3c3f735a	0.011685217
239	0x3cd78eeb	0.026313266
240	0xbc9963e2	-0.018724386
241	0x3f6b30d6	0.9187139
242	0xbe177544	-0.14790827
243	0x3ce99829	0.028514938
244	0x3b8a5ce2	0.0042224983
245	0x3d79186c	0.060814306
246	0x3e06042b	0.13087527
247	0x3edd46f6	0.432182
248	0xbd9b94e9	-0.07596762
249	0xbdcd2fa4	-0.10018852
250	0x3af78e91	0.0018887093
251	0x3e3ada13	0.18247251
252	0x3ef4b948	0.47797608
253	0x3eba3e5a	0.36375695
254	0xbe893e3a	-0.26805288
255	0xbdecef46	-0.11569075
