outputs/Optimal_Control/20220401-193940/models/checkpoint.pt (torch, 533487 bytes, 7 tensors)

linear1.weight f4 [256, 2]
0	0x3ec391f2	0.38197285
1	0xbf49f22d	-0.78885156
2	0xbe1e1178	-0.15436351
3	0xbedbdf45	-0.4294378
4	0x3eab671e	0.3347711
5	0x3e0cb3c3	0.13740449
6	0x3db3dd63	0.087824605
7	0x3e3be209	0.18347944
8	0xbe9cfab1	-0.30660012
9	0xbf204a87	-0.6261372
10	0x3ea4b8ed	0.32172337
11	0x3e746944	0.2386828
12	0xbdf661a8	-0.12030345
13	0xbec22812	-0.37921196
14	0xbf31911f	-0.6936206
15	0x3db0d898	0.08635062
16	0x3e8efe3c	0.2792834
17	0xbf2af7d4	-0.66784406
18	0x3e04ab43	0.12955956
19	0x3d1142f2	0.035464235
20	0xbe99ae5f	-0.30015847
21	0xbcf9b620	-0.030482352
22	0x3ea1a953	0.31574497
23	0x3e96b76c	0.29436815
24	0x3e145d4a	0.14488712
25	0xbea7c0a5	-0.32764164
26	0x3f0a6479	0.5405956
27	0x3ef994bc	0.48746288
28	0x3dd846bb	0.10560366
29	0xbf9c4cda	-1.2210953
30	0xbe89ce7d	-0.2691535
31	0x3f250d34	0.6447327
32	0xbf1678ce	-0.58778083
33	0x3e8a818a	0.27051955
34	0x3eb52b43	0.3538457
35	0x3ef00564	0.46879113
36	0xbe6fdbf0	-0.23423743
37	0xbef723f0	-0.48269606
38	0xbf09848b	-0.5371787
39	0xbec10cad	-0.37704983
40	0x3f14427f	0.57913965
41	0xbe9e3087	-0.30896398
42	0x3ea8d6c2	0.32976347
43	0xbf1983ad	-0.59966546
44	0xbe0c2018	-0.13684118
45	0xbd756e50	-0.059919655
46	0x3e86299f	0.2620363
47	0x3ebbb0b0	0.3665824
48	0x3ec868e1	0.39142516
49	0xbf25441b	-0.64557046
50	0xbe21f8fc	-0.15817636
51	0xbec502ad	-0.38478604
52	0x3ee516a5	0.4474384
53	0xbec037de	-0.37542623
54	0x3e307298	0.17231214
55	0x3ee59401	0.4483948
56	0x3c49bca6	0.012313044
57	0xbdffa8c8	-0.12483364
58	0x3e06b7a8	0.13155997
59	0xbf729300	-0.94755554
60	0xbea31092	-0.3184858
61	0x3ed03abc	0.4066981
62	0xbedc34dc	-0.43009079
63	0xbeb47631	-0.35246423
64	0x3e13e130	0.14441371
65	0x3f1f359d	0.6219118
66	0xbf23914d	-0.63893586
67	0xbf274830	-0.65344524
68	0xbf122639	-0.57089573
69	0x3ec2696a	0.3797105
70	0x3eabd480	0.33560562
71	0xbdab3c09	-0.0836106
72	0x3e94e7c1	0.29083064
73	0xbf29aba5	-0.66277534
74	0xbe8adb62	-0.271205
75	0x3f26c142	0.6513864
76	0xbea68512	-0.325234
77	0xbeec14d3	-0.46109638
78	0xbea5d0ff	-0.32386014
79	0x3f2eeaa4	0.68326783
80	0x3eb6ef4b	0.3572944
81	0xbf2991cf	-0.6623811
82	0x3dd45ba2	0.1036904
83	0xbef2a9b0	-0.47395086
84	0x3e9b626b	0.30348524
85	0xbdbcdbd9	-0.0922162
86	0xbf11b634	-0.56918645
87	0xbec61c46	-0.38693446
88	0xbccddeb2	-0.025130603
89	0x3e05141e	0.12995955
90	0x3e347223	0.17621665
91	0x3dddc90a	0.10829361
92	0x3dd57274	0.10422221
93	0x3ed57cbf	0.41696736
94	0x3e7a88f0	0.244663
95	0xbf2ea4c6	-0.68220174
96	0xbd603e08	-0.054746658
97	0x3eb342ba	0.35011846
98	0x3e975378	0.2955587
99	0xbe2ac4a4	-0.16676575
100	0x3e159192	0.14606312
101	0xbf3db404	-0.7410281
102	0x39870000	0.00025749207
103	0xbf14616f	-0.5796117
104	0xbe9f450c	-0.31107366
105	0x3e9792de	0.29604238
106	0x3e001fe1	0.12512161
107	0x3e8a43bb	0.270048
108	0x3e17903e	0.14801118
109	0xbb86fe69	-0.0041196835
110	0xbdf371d0	-0.118869424
111	0xbf0cbe7d	-0.5497816
112	0x3ea1fa96	0.31636494
113	0xbe1063bc	-0.14100546
114	0xbee3954d	-0.44449845
115	0x3d8a8ee0	0.067655325
116	0xbf18b807	-0.59655803
117	0xbeeb26ea	-0.45928127
118	0x3d0fac04	0.035076156
119	0xbe3ba1ed	-0.18323489
120	0x3f1777a7	0.5916695
121	0xbf2288e5	-0.63490134
122	0x3ebd1d37	0.36936352
123	0xbeec8b67	-0.46200106
124	0xbf1ee78f	-0.6207208
125	0x3e4c6098	0.19958723
126	0x3af0c5c0	0.0018369481
127	0x3e0044c9	0.1252624
128	0x3f0bfc58	0.5468192
129	0x3ec650c1	0.38733485
130	0xbdacb572	-0.084330454
131	0x3db03693	0.08604159
132	0xbea402dd	-0.32033435
133	0x3d81c970	0.06337249
134	0xbf10d815	-0.56579715
135	0xbe423e68	-0.18969119
136	0x3e4af672	0.19820574
137	0xbee18aac	-0.4405111
138	0x3ee0565c	0.43815887
139	0xbf18add0	-0.59640217
140	0xbed3370d	-0.41252938
141	0xbf2471a2	-0.6423589
142	0xbe11abe8	-0.14225733
143	0xbc91c1a0	-0.017792523
144	0x3d9adc1f	0.07561516
145	0x3eebbc91	0.46042302
146	0x3ede5552	0.4342447
147	0xbf0ea36e	-0.55718124
148	0x3efad051	0.48987058
149	0xbed9cc9f	-0.42538926
150	0xbea8f301	-0.32997897
151	0x3dac1b08	0.08403593
152	0xbf07633f	-0.5288581
153	0x3e83db64	0.2575332
154	0xbeaeb812	-0.3412481
155	0x3debbad8	0.11510247
156	0x3d929253	0.071568154
157	0xbf524848	-0.8214154
158	0x3e595070	0.2122209
159	0xbef6dfb5	-0.4821755
160	0x3de35377	0.11099904
161	0xbf153450	-0.5828295
162	0x3f0c4af0	0.54801846
163	0xbe5895ac	-0.21150845
164	0x3ea66c73	0.32504615
165	0x3e1ae733	0.15127258
166	0xbf14a009	-0.58056694
167	0xbf24b361	-0.6433621
168	0xbeaa870f	-0.33306167
169	0xbd422340	-0.0473969
170	0x3ef3e4ec	0.4763559
171	0xbf574eaa	-0.84104407
172	0x3e1f8862	0.1557937
173	0xbf832231	-1.0244809
174	0x3e75c160	0.23999548
175	0x3e98a5e6	0.2981407
176	0xbf1a78b7	-0.60340446
177	0xbec1cd24	-0.37851822
178	0x3db43cef	0.08800685
179	0xbf5ca30f	-0.8618631
180	0x3ecf82af	0.4052939
181	0x3effa084	0.4992715
182	0xbf243071	-0.64136416
183	0xbedf8292	-0.43654305
184	0x3eb9af8e	0.3626675
185	0xbf3990dc	-0.7248666
186	0xbd933260	-0.07187343
187	0xbe939be3	-0.2882987
188	0xbe969894	-0.29413283
189	0x3de75d40	0.11297083
190	0xbeb4e1b1	-0.3532844
191	0xbf2e48db	-0.6807992
192	0x3ef33582	0.4750176
193	0x3d8d6697	0.06904333
194	0x3e9fb39d	0.31191722
195	0x3d6869eb	0.056741636
196	0xbf2b9d68	-0.6703706
197	0xbe20bfe8	-0.15698206
198	0xbdd35310	-0.10318577
199	0xbf300405	-0.68756133
200	0xbf0540f8	-0.5205226
201	0x3af1a800	0.0018436909
202	0xbeb4d4d8	-0.35318637
203	0xbef1fc08	-0.47262597
204	0xbed51558	-0.41617846
205	0xbedc98a7	-0.43085214
206	0x3e8d03ca	0.27541953
207	0x3e99b1f3	0.30018577
208	0xbf07b422	-0.53009236
209	0xbf326e7d	-0.6969984
210	0xbeb0df98	-0.34545588
211	0x3e45d740	0.19320393
212	0x3ed6ef07	0.41979238
213	0xbd7d19a5	-0.061792035
214	0x3e9fd8cd	0.31220093
215	0xbedf4ff0	-0.43615675
216	0xbd9e7181	-0.07736493
217	0x3e9404d1	0.28909925
218	0xbf04f575	-0.5193704
219	0xbe98d747	-0.29851744
220	0xbe4aac14	-0.19792205
221	0x3ee3a9aa	0.4446538
222	0xbf25e02c	-0.64795184
223	0xbed76deb	-0.42076048
224	0x3ebca46f	0.36844203
225	0x3ec4aa44	0.38411152
226	0xbe8ce97e	-0.2752189
227	0x3eef35f2	0.46720845
228	0xbddb893c	-0.10719535
229	0x3f460c8d	0.773629
230	0xbe49bc13	-0.19700651
231	0x3ef69671	0.48161653
232	0x3ac74cde	0.0015205403
233	0x3ecdad8b	0.40171465
234	0xbb9dd340	-0.0048164427
235	0x3f1cd39e	0.612604
236	0xbdeabe3c	-0.114620656
237	0x3f03218b	0.5122306
238	0xbbf3d280	-0.007440865
239	0xbdd30bf0	-0.10305011
240	0x3f053949	0.52040535
241	0x3e7bbde0	0.2458415
242	0x3ee8cd53	0.4546915
243	0x3ef9861d	0.48735133
244	0x3dd2a08c	0.10284528
245	0xbe40c6f2	-0.18825892
246	0xbe8744db	-0.2641972
247	0x3f406471	0.7515326
248	0xbf09b520	-0.53792
249	0x3e781358	0.24226129
250	0xbf2c7ad1	-0.673749
251	0xbe30fa90	-0.17283082
252	0xbf030d47	-0.51192135
253	0x3ceee1c0	0.02916038
254	0xbd5ea8c7	-0.054360177
255	0x3e405a00	0.18784332

linear1.bias f4 [256]
0	0x3e63b866	0.22238311
1	0x3e0bd372	0.13654879
2	0x3ed885b9	0.42289522
3	0xbf6428a3	-0.89124507
4	0x3d4d2084	0.050079837
5	0x3fb7586d	1.432386
6	0xbdbf3798	-0.093367755
7	0x3f19428e	0.5986718
8	0x3f4a412b	0.7900569
9	0xbf0e48b0	-0.5557966
10	0xbbab6100	-0.005230069
11	0xbfa06172	-1.2529738
12	0xbe91efc2	-0.28503233
13	0xbf94e259	-1.1631576
14	0xbe81ff52	-0.25390106
15	0x3ef406bd	0.4766139
16	0xbdc73488	-0.097268164
17	0xbf9cfbb2	-1.2264311
18	0xbead662f	-0.33867022
19	0x3f0994cc	0.5374267
20	0x3fc0c29e	1.5059392
21	0xbee74e94	-0.45177138
22	0xbe9d346e	-0.30704063
23	0xbf087681	-0.5330582
24	0xbfb7bde9	-1.4354831
25	0x3e6fd1ab	0.23419826
26	0x3ef4f3b5	0.47842184
27	0xbf868b88	-1.0511332
28	0x3edc27cb	0.4299911
29	0x3eb3c931	0.35114434
30	0xbfc41f87	-1.5322121
31	0x3e38e480	0.18055916
32	0xbf6543e4	-0.8955672
33	0x3ddb1622	0.10697581
34	0x3f1d3453	0.61407965
35	0xbf34fa18	-0.7069411
36	0xbd6f29e1	-0.05838955
37	0x3f608716	0.87706125
38	0x3ef23e6f	0.47313258
39	0xbf6678d6	-0.9002813
40	0x3f5675ca	0.8377348
41	0x3eaf0295	0.34181657
42	0x3f42b294	0.7605374
43	0x3e8087f9	0.2510374
44	0x3f34a374	0.7056191
45	0xbfd51140	-1.6645889
46	0xbfbb82b1	-1.4649259
47	0xbe200147	-0.15625487
48	0x3fab7c03	1.339722
49	0xbf5b233c	-0.8560064
50	0x3f410583	0.75399035
51	0xbe81a444	-0.25320637
52	0xbd9de560	-0.077097654
53	0x3ea5762d	0.32316723
54	0x3f5bfa15	0.8592847
55	0x3f20f468	0.62872934
56	0xbfa8ec23	-1.3197063
57	0xbf1a918d	-0.6037834
58	0xbef12950	-0.4710183
59	0x3eb76135	0.3581635
60	0x3ec595a4	0.3859073
61	0xbe654b8e	-0.22392103
62	0x3eb1c606	0.34721392
63	0xbf97cb8f	-1.1858996
64	0xbf32d10a	-0.6985022
65	0xbd4f1396	-0.050555788
66	0xbef478ed	-0.4774851
67	0x3eccac31	0.39975122
68	0x3f700234	0.9375336
69	0xbedce20f	-0.4314122
70	0xbf1bd79f	-0.60875887
71	0xbe8b4669	-0.27202156
72	0xbfab14e3	-1.3365749
73	0xbe4b7119	-0.19867362
74	0x3e86321d	0.26210108
75	0x3e86db21	0.26339057
76	0x3f1178d1	0.56824976
77	0x3e7c1f70	0.24621367
78	0xbf81c45d	-1.013805
79	0x3f6e18c7	0.9300656
80	0x3e95d110	0.29261065
81	0xbfc36dba	-1.5267861
82	0xbf785f29	-0.970202
83	0xbec2fac4	-0.38081944
84	0x3e16ee6b	0.14739387
85	0x3f119372	0.5686561
86	0x3e85631b	0.26052174
87	0xbfa36af8	-1.2767019
88	0x3d9cf5ea	0.07664092
89	0xbfa6f1f5	-1.304259
90	0x3f81b5a6	1.013356
91	0xba6f44cb	-0.00091273774
92	0x3f45a345	0.77202255
93	0x3edfeb15	0.4373404
94	0x3f09dcaf	0.5385236
95	0xbe8c1732	-0.27361447
96	0xbe8b8266	-0.27247924
97	0xbf5fbb8d	-0.87395555
98	0x3f162fde	0.5866679
99	0xbedad84a	-0.4274314
100	0x3d907a3f	0.070545666
101	0xbf0e0096	-0.55469644
102	0xbabc05f0	-0.0014345031
103	0x3d139954	0.036034897
104	0x3e38247f	0.17982672
105	0x3eb36aef	0.3504252
106	0x3dccd62a	0.10001786
107	0xbf10679c	-0.56408095
108	0xbf364a23	-0.71206874
109	0xbed5c230	-0.41749716
110	0xbe89de01	-0.26927188
111	0x3f2a1f38	0.66453886
112	0xbf8e31a9	-1.1108905
113	0xbf609339	-0.87724644
114	0x3fcf163f	1.6178664
115	0x3fa81b1e	1.3133276
116	0xbf5fb3ea	-0.873839
117	0xbfa4a3de	-1.2862508
118	0x3d789c5c	0.06069599
119	0xbf09a3cc	-0.5376556
120	0xbf53ad4e	-0.82686317
121	0xbf770f45	-0.96507674
122	0xbf8ec30c	-1.1153274
123	0xbfa0b38a	-1.2554791
124	0xbeb27209	-0.34852627
125	0x3e8ea3b9	0.27859285
126	0xbe995d02	-0.29953772
127	0x3f19f46d	0.6013859
128	0x3ee356ba	0.44402105
129	0x3f83277e	1.0246427
130	0x3f1b2756	0.60606897
131	0x3e5888be	0.21145913
132	0xbf8541a7	-1.041066
133	0xbf9bbfc2	-1.2167895
134	0xbed618c0	-0.41815758
135	0xbed1d6ab	-0.4098409
136	0xbf1b68c5	-0.6070674
137	0xbfa1134f	-1.2584018
138	0x3f73ace1	0.9518567
139	0xbf85e1b6	-1.0459507
140	0xbf978291	-1.1836721
141	0xbe89f48c	-0.26944387
142	0xbee60c95	-0.44931474
143	0xbe8e6261	-0.27809432
144	0xbf2847d4	-0.657346
145	0xbfba59b4	-1.4558625
146	0x3f0ec050	0.55762196
147	0xbf2fae59	-0.6862541
148	0x3f9609f0	1.1721783
149	0x3e979183	0.29603204
150	0xbec0e64e	-0.3767571
151	0xbeed318e	-0.4632687
152	0x3f9b9792	1.215563
153	0x3e092bfb	0.13395683
154	0xbf9077f6	-1.1286609
155	0x3ec06cb9	0.3758295
156	0xbecfc71a	-0.4058159
157	0x3f7f7f91	0.99804026
158	0x3f7abefc	0.9794767
159	0xbf0201e2	-0.5078412
160	0xbda055ad	-0.07828841
161	0xbf18ec0e	-0.5973519
162	0xbf0f536f	-0.55986685
163	0xbf8809cb	-1.0627989
164	0xbf0798ee	-0.5296773
165	0xbfb3ac83	-1.4037021
166	0xbd0060f0	-0.031342447
167	0x3e91d101	0.2847977
168	0x3e81cb39	0.2535036
169	0xbf72cdbc	-0.94845176
170	0xbe28dde8	-0.164909
171	0xbfb6a534	-1.4269166
172	0xbcec01d8	-0.028809473
173	0xbedc29a8	-0.4300053
174	0x3e6de472	0.23231676
175	0x3e85f9f7	0.2616727
176	0x3f4fbc90	0.811471
177	0xbf8021eb	-1.0010351
178	0xbf08ff80	-0.5351486
179	0x3e450590	0.19240403
180	0x3dd19af7	0.10234635
181	0xbf00f915	-0.5038007
182	0xbd476980	-0.048684597
183	0xbf88397a	-1.064254
184	0xbff9911c	-1.9497409
185	0x3f205e3a	0.6264378
186	0xbf6a57d1	-0.9154025
187	0x3eb4b5ee	0.3529505
188	0xbf261c3f	-0.6488685
189	0x3df62b50	0.1201998
190	0xbfaa53dc	-1.3306842
191	0x3f02ef16	0.51146066
192	0x3fbe4df1	1.4867536
193	0x3e52fd96	0.20604548
194	0x3f793e95	0.9736112
195	0x3f92f293	1.1480278
196	0xbe0cabf4	-0.1373747
197	0x3f83be31	1.0292417
198	0x3fc65ca2	1.5497019
199	0xbf273802	-0.65319836
200	0xbfb2555a	-1.3932297
201	0x3fa351e8	1.2759371
202	0xbf7db93f	-0.9911079
203	0x3eeb973a	0.46013814
204	0xbe2134b4	-0.15742761
205	0xbfae7ffe	-1.363281
206	0xbef08b82	-0.46981436
207	0x3d96c36a	0.07361491
208	0xbf12ca42	-0.5733987
209	0xbfb00954	-1.3752847
210	0xbec294ab	-0.3800405
211	0xbf9a13aa	-1.2037251
212	0xbddc0163	-0.10742452
213	0xbf5035b1	-0.81331927
214	0xbfa9cd02	-1.3265688
215	0x3fac9e28	1.3485765
216	0xbfa8af06	-1.3178413
217	0x3f2a1ff9	0.66455036
218	0xbf9119f2	-1.1336043
219	0xbd807f80	-0.06274319
220	0xbf2d50f7	-0.6770167
221	0x3ef6d180	0.4820671
222	0x3e16f7c8	0.14742959
223	0x3eefdc77	0.4684789
224	0x3fa09b91	1.2547475
225	0x3fa88cdb	1.3167986
226	0xbf591f1d	-0.848131
227	0xbf2c0a42	-0.6720315
228	0xbf125f76	-0.5717691
229	0x3e048dbe	0.12944695
230	0x3e55fb11	0.20896555
231	0x3f01e2f3	0.5073692
232	0xbf91ae4a	-1.1381314
233	0xbd74ed40	-0.05979657
234	0x3f6c410a	0.9228674
235	0x3f36806f	0.71289724
236	0xbf843b68	-1.0330629
237	0xbf5fe844	-0.87463784
238	0xbd112590	-0.035436213
239	0xbe755d00	-0.23961258
240	0xbf59e906	-0.8512119
241	0x3ecd27b3	0.4006935
242	0xbf96b07b	-1.1772608
243	0xbfaf5022	-1.369633
244	0x3fab74da	1.3395035
245	0xbf0cc704	-0.54991174
246	0xbebfaf3e	-0.37438387
247	0xbf1c8e51	-0.6115466
248	0xbfdabeed	-1.7089516
249	0xbfb3fbf9	-1.4061271
250	0xbe9b13b4	-0.3028847
251	0xbfc91a1a	-1.571109
252	0xbedc8bb7	-0.43075344
253	0x3e063c9f	0.13109063
254	0xbf650e2d	-0.89474756
255	0xbf910db1	-1.1332303

linear2.weight f4 [256, 256]
0	0x3d83d554	0.064371735
1	0xbd646f46	-0.05577018
2	0xbca04cc8	-0.019567862
3	0x3c076c87	0.008265621
4	0xbc566391	-0.013085262
5	0xbd6c43a6	-0.057681702
6	0xbc8d8ef8	-0.017280087
7	0x3cfc4cd5	0.030798355
8	0x3a294159	0.0006456576
9	0xbd1c58d1	-0.03817064
10	0xbcfe34d0	-0.031031042
11	0x3d34ee25	0.044172425
12	0xbc8a5fa9	-0.016891317
13	0x3c57e5a2	0.013177307
14	0x3cea359b	0.028590014
15	0x3c3c8329	0.01150588
16	0x3c1c7478	0.009549253
17	0x3b832de8	0.004003275
18	0xbd352d42	-0.044232614
19	0xbd371a40	-0.04470277
20	0x3ccfb227	0.025353504
21	0xbd29f1cf	-0.041490372
22	0xbd15cdfc	-0.036573395
23	0x3b08f860	0.0020899996
24	0xbce019b2	-0.027356002
25	0x3c85efd7	0.016349716
26	0x3d777d28	0.060422093
27	0x3cb8aa67	0.022542192
28	0x3c386e62	0.011256786
29	0x3d828d84	0.06374648
30	0xbd4111a1	-0.047135953
31	0xbd7a7229	-0.061144028
32	0x3d45d2de	0.0482968
33	0xbd65e941	-0.05613065
34	0xbb088be8	-0.0020835344
35	0x3c875ec4	0.01652468
36	0xbd0c250d	-0.034215022
37	0x3be653b6	0.007029022
38	0xbd366fe1	-0.04454029
39	0xbbca009d	-0.006164624
40	0x3d1aaef1	0.037764493
41	0x3cd2b7b5	0.025722364
42	0xbcaf3b5f	-0.021390615
43	0x3c5714b1	0.013127492
44	0x3d1b9fd3	0.037994217
45	0xbd12a0f4	-0.035798028
46	0xbcd81924	-0.026379175
47	0x3ca58246	0.02020372
48	0xbcd40ef5	-0.025886038
49	0xbd041bd1	-0.03225309
50	0xbd042e80	-0.03227091
51	0x3d6b8b3a	0.057505824
52	0xbd46b276	-0.048510037
53	0xbd10c053	-0.035339665
54	0xbd3b98c0	-0.04579997
55	0xbb7a8722	-0.0038227518
56	0xbcef583a	-0.029216874
57	0xbc1f6948	-0.009729691
58	0x3d3ce83e	0.04611992
59	0x3c6d7056	0.014492115
60	0xbcb5c364	-0.022187896
61	0xbcb2eb2b	-0.021840652
62	0x3c80f60f	0.01574233
63	0x3c7352fe	0.01485133
64	0xbd6f49ca	-0.05841998
65	0x3c9654b8	0.018350944
66	0x3c822650	0.01588741
67	0xbd2f056b	-0.042729776
68	0x3d17877b	0.03699444
69	0x3cb5eb98	0.022207066
70	0x3c5fdeb0	0.013663933
71	0xbad20900	-0.0016024411
72	0xbcd4e9ed	-0.02599045
73	0x3d23fea8	0.04003778
74	0xbce469e2	-0.02788252
75	0x3cec7387	0.028863681
76	0x3cafa369	0.021440225
77	0xbd62d34f	-0.0553773
78	0x3bed05e6	0.007233369
79	0xbd4a4341	-0.049380545
80	0x3d0fae9b	0.035078626
81	0x3d66ae2c	0.056318447
82	0x3d7279ef	0.059198316
83	0x3cb5dbb0	0.022199482
84	0xbb518578	-0.0031970423
85	0xbd37d562	-0.044881232
86	0x3c65d564	0.014027927
87	0x3cca8893	0.024723327
88	0xbcf5ee7a	-0.030020941
89	0x3d40288f	0.04691368
90	0x3c087000	0.008327484
91	0x3d31d4af	0.04341572
92	0xbc39a8c4	-0.011331741
93	0x3d15559b	0.036458593
94	0xbd5d7c25	-0.05407347
95	0xbd69380c	-0.056938216
96	0x3d27dc1a	0.04098139
97	0xbd442eed	-0.047896314
98	0xbd5d802f	-0.054077324
99	0x3d4e9cfa	0.050442673
100	0xbd58fa34	-0.052972987
101	0x3d6cc284	0.057802692
102	0xbc9fae58	-0.019492313
103	0x3c623444	0.013806406
104	0xbce23f7b	-0.02761816
105	0x3cce389d	0.02517348
106	0x3d10fed1	0.03539926
107	0x3c78fdb6	0.015197208
108	0xbd642730	-0.055701435
109	0xbd0e39ec	-0.034723207
110	0xbc87229a	-0.016495991
111	0xbd54eb16	-0.051982008
112	0xbd6ee273	-0.058321428
113	0x3bd77d3c	0.0065762084
114	0x3d59ba32	0.053156085
115	0x3cb7c601	0.022433283
116	0xbd5120e2	-0.05105675
117	0xbd1ae51a	-0.037816145
118	0xbd61a5c3	-0.055089723
119	0xbd4db37a	-0.05021999
120	0x3c8cdad2	0.017194185
121	0x3a77e73d	0.00094567594
122	0x3cd351aa	0.025795776
123	0x3d232796	0.039832674
124	0xbc1a4788	-0.009416468
125	0x3c943d6c	0.018095694
126	0xbcab1bc8	-0.02088727
127	0x3d478160	0.048707366
128	0x3c4e8009	0.012603768
129	0xbc9c59e5	-0.019085834
130	0xbcc2f779	-0.023799645
131	0x3d54100e	0.051773123
132	0x3d05cff2	0.032669015
133	0xbd6bd093	-0.05757196
134	0x3cc25188	0.023720518
135	0x3bf5b0f5	0.0074979016
136	0x3d74b1d2	0.059739895
137	0xbc1d6c39	-0.009608322
138	0xbcae5ad1	-0.021283539
139	0xbd463c26	-0.048397206
140	0xbd50894d	-0.05091219
141	0xbd7000ca	-0.058594503
142	0xbc9886e0	-0.018619
143	0x3d4c5e83	0.04989482
144	0xbc630568	-0.013856269
145	0xbd77029a	-0.060305215
146	0x3b6895a3	0.003548958
147	0xbc6a9fd7	-0.014320335
148	0x3c201a41	0.009771884
149	0x3b95e73d	0.004574685
150	0xbd7d25d0	-0.06180364
151	0xbd5f3f66	-0.05450382
152	0xbcc53cf7	-0.024076922
153	0xbbcf3c68	-0.0063243397
154	0x3c66cfda	0.014087642
155	0xbc6c78ff	-0.014433145
156	0xbcfd2313	-0.030900514
157	0xbd0a487b	-0.03376053
158	0x3c13ff08	0.009032972
159	0xbd6645aa	-0.05621878
160	0xbc06fa91	-0.008238451
161	0xbc955d6e	-0.018233027
162	0xbc92c6c4	-0.017917044
163	0xbca2cb29	-0.019872265
164	0xbc330d3e	-0.01092845
165	0xbd2efc04	-0.04272081
166	0xbd5dfed8	-0.054198116
167	0x3d586f85	0.05284073
168	0xbbe21e14	-0.0069005582
169	0xbd56f8fb	-0.05248354
170	0xbd6ff854	-0.058586434
171	0x3c8dc358	0.017305061
172	0xbd11ca50	-0.03559333
173	0xbd60e0f8	-0.054902047
174	0x3d0cc040	0.03436303
175	0x3d761e5d	0.06008755
176	0xbd112138	-0.03543207
177	0xbd8bd220	-0.068271875
178	0x3d559ee4	0.052153483
179	0x3d860ae8	0.06545049
180	0xbd59692c	-0.053078815
181	0xbd25ddeb	-0.04049484
182	0x3d503540	0.050832033
183	0x3ca28977	0.019840939
184	0x3c0fe585	0.008782749
185	0x3bb7c0b4	0.005607689
186	0x3d667d85	0.05627205
187	0xba361022	-0.0006945153
188	0xbcf40fda	-0.029792715
189	0xbc1e855b	-0.009675349
190	0x39dc68e9	0.00042039834
191	0xb99be442	-0.0002973397
192	0x3d33d11e	0.0439006
193	0x3b46a3bd	0.0030309998
194	0xbc3204d8	-0.010865413
195	0x3d3a9a50	0.04555732
196	0xbc938bec	-0.018011056
197	0xbd3a7248	-0.045519143
198	0xbd70fa6d	-0.058832575
199	0xbbf49ec4	-0.0074652154
200	0xbd03afc4	-0.032150045
201	0xbd4ccef6	-0.05000206
202	0x3d224bd9	0.039623115
203	0xbc793202	-0.015209677
204	0x3ca47e1c	0.020079665
205	0x3d21312f	0.039353546
206	0x3d1bc05e	0.038025253
207	0xbcb0217f	-0.021500347
208	0xbd37327e	-0.044725887
209	0xbcd05ea3	-0.025435751
210	0x3d0013fe	0.031269066
211	0xbc82fd06	-0.015989792
212	0x3c62338b	0.013806234
213	0xbd216857	-0.039406147
214	0x3d1cfc6d	0.03832667
215	0x3d332a29	0.04374138
216	0xbd2df195	-0.04246672
217	0x3cfb4df6	0.030676823
218	0xbd0e2fba	-0.034713484
219	0xbce83a64	-0.028348155
220	0xbce87984	-0.028378256
221	0x3d292132	0.041291423
222	0xbd5a74f4	-0.05333419
223	0x3cb7c913	0.022434747
224	0x3cf76952	0.030201588
225	0x3c12ed43	0.0089677
226	0x3d36a326	0.044589184
227	0x3d419bdd	0.047267783
228	0xbd8cda6e	-0.068776
229	0x3d8d08b0	0.06886423
230	0x3ce4bf40	0.027923226
231	0xbd0187dc	-0.031623706
232	0xbd2821e4	-0.041047946
233	0x3ccd6b28	0.02507551
234	0xbcb20d2d	-0.021734798
235	0xba847ed6	-0.0010108601
236	0xbd760e6b	-0.060072344
237	0xbc81275c	-0.015765838
238	0x3d28cc44	0.041210428
239	0xbbe8ae20	-0.0071008354
240	0xbc1def74	-0.00963961
241	0x3b9643b2	0.0045857066
242	0xbd0fd89d	-0.035118688
243	0xbb53214a	-0.0032215887
244	0x3ced204a	0.02894606
245	0x3d6c3d8e	0.05767589
246	0xbaee4080	-0.0018177181
247	0x3cef12e0	0.029183805
248	0x3b3fef4a	0.0029286915
249	0x39bb871d	0.00035768087
250	0x3d310ff2	0.043228097
251	0x3a0ea2f3	0.00054411514
252	0xbca8670c	-0.02055695
253	0x3ba8a812	0.0051469887
254	0xbd92d04b	-0.07168635
255	0x3d3df71a	0.046378233

linear2.bias f4 [256]
0	0x3d385c14	0.045009688
1	0xbd356704	-0.044287696
2	0x3b8d73e2	0.004316793
3	0x3c4910cc	0.012272071
4	0xb95efe00	-0.00021266192
5	0xbd211d50	-0.039334595
6	0x3e6bbb7b	0.23020737
7	0x3b3f37f2	0.0029177633
8	0x3a0b1f0d	0.0005307056
9	0x3c5b58ae	0.013387842
10	0xbe4ace89	-0.1980535
11	0x3ca90157	0.020630522
12	0xbe3583bf	-0.17726038
13	0x3d881aee	0.066457614
14	0x3d8cb4e6	0.06870441
15	0xbccfeefa	-0.025382508
16	0x3d1c4bed	0.038158346
17	0x3c801ae0	0.015637815
18	0xba506300	-0.00079493225
19	0xbd09ea31	-0.033670608
20	0x3dc86a90	0.0978595
21	0x3d01c0f1	0.031678144
22	0x3c02bbaa	0.007979313
23	0x3c93455f	0.017977415
24	0x3d1af369	0.03782979
25	0xbeb1f3ac	-0.3475622
26	0xbbc01d1f	-0.0058628465
27	0xbcf9c257	-0.030488176
28	0xbd59ef3e	-0.053206675
29	0xbc97c2f0	-0.01852557
30	0x3db5db73	0.08879747
31	0x3cb716bc	0.022349708
32	0xbd2c212e	-0.04202383
33	0xbd59f57e	-0.053212635
34	0x3e8ab692	0.27092415
35	0xbd602606	-0.054723762
36	0xbd0f8702	-0.035040863
37	0x3d4a924b	0.049455922
38	0xbe562c24	-0.20915276
39	0xbd03e4b0	-0.032200515
40	0x3cb32c27	0.02187164
41	0xbd7d4593	-0.06183393
42	0x3f72d780	0.94860077
43	0x3cda6571	0.0266597
44	0xbcc2a730	-0.023761362
45	0xbc9fa0c4	-0.019485839
46	0x3b82d920	0.0039931685
47	0xbdb0f46a	-0.08640368
48	0xbc207b5b	-0.009795035
49	0xbd3c0cb3	-0.04591055
50	0x3d74183b	0.05959342
51	0x3d6acd5d	0.057324756
52	0xbd1dd00c	-0.038528487
53	0xbec4c301	-0.38430026
54	0xbcae810d	-0.02130177
55	0xbec0a918	-0.37629008
56	0x3d14b998	0.03630981
57	0xbcadf0c4	-0.02123297
58	0xbc87c6b4	-0.016574241
59	0xbc9390fe	-0.018013474
60	0xbad509e3	-0.0016253557
61	0xbc9bda76	-0.019025069
62	0xbcdab097	-0.026695533
63	0xbc057378	-0.008145206
64	0xbc92ea26	-0.017933916
65	0xbcede472	-0.029039595
66	0x3d972c0e	0.0738145
67	0xbbbcf414	-0.005766401
68	0xbeb01b93	-0.34396037
69	0x3bfcc512	0.0077139223
70	0xbc3ee403	-0.011651042
71	0x3d70e885	0.058815498
72	0x3ca43e8f	0.020049362
73	0xbd5ad512	-0.053425856
74	0x3d208f8a	0.03919939
75	0x3c99fb87	0.018796695
76	0x3ddba7a8	0.10725337
77	0x3d4fa5ef	0.050695356
78	0x3d348e99	0.044081304
79	0xbc8a2360	-0.016862571
80	0x3d04e0d0	0.03244096
81	0xbe6228ca	-0.22085872
82	0xbb180160	-0.002319418
83	0x3d64bc23	0.055843484
84	0x3caf926c	0.021432124
85	0x3cf9ed9b	0.030508807
86	0x3cb2f528	0.021845415
87	0x3e82d339	0.25551775
88	0x3c110c5e	0.008853046
89	0x3cef4cdd	0.029211456
90	0xbc0e5aa3	-0.008688602
91	0x3da20aad	0.079121925
92	0x3d19f832	0.037590213
93	0xbeec594a	-0.46161872
94	0x3d440521	0.047856454
95	0xbc6b6f85	-0.01436985
96	0xbddc7331	-0.107641585
97	0xbf06a70d	-0.5259865
98	0x3d2a1a68	0.04152909
99	0x3c397450	0.011319235
100	0xbcdd789a	-0.027035046
101	0xba2d3c25	-0.00066083885
102	0xb9ae2a4f	-0.0003321939
103	0x3cba7eba	0.022765506
104	0xbf5e1fc3	-0.86767215
105	0x3b43e547	0.0029891299
106	0xbf118d96	-0.5685667
107	0xbd355035	-0.044265945
108	0xbd1bf078	-0.038071126
109	0xbcff39c7	-0.03115548
110	0xbd1925a0	-0.037389398
111	0x3b393149	0.0028258136
112	0xbb43dd00	-0.0029886365
113	0x3b193f6b	0.0023383747
114	0x3c7f642d	0.015587849
115	0x3ca4c65f	0.020114122
116	0x3d7fbdc6	0.06243684
117	0xbc9b44b1	-0.018953653
118	0x3d80abc3	0.06282761
119	0x3cfee108	0.031113163
120	0x3d1f104e	0.03883391
121	0xbc7777c8	-0.015104242
122	0xbd5bdcc0	-0.05367732
123	0x3cf27b38	0.02959977
124	0xbd6330c9	-0.055466447
125	0x3e0f678b	0.14004342
126	0x3cd718d4	0.026256956
127	0xbd4ddaed	-0.050257612
128	0xbd0a27ba	-0.033729292
129	0xbf05174e	-0.51988685
130	0x3c818464	0.0158102
131	0xbca44f03	-0.020057207
132	0xbd26abf8	-0.040691346
133	0x3b2d8e00	0.0026482344
134	0x3d2ece2b	0.042677086
135	0x3c6ef301	0.014584304
136	0xbd3316c4	-0.043722883
137	0x3d21bbaa	0.03948561
138	0xbca7fdff	-0.020506857
139	0x3cc5b6fd	0.024135107
140	0xbc593844	-0.013258044
141	0xbcbab310	-0.022790462
142	0x3d77c7cd	0.06049328
143	0x3da9766c	0.0827454
144	0xbd2d1609	-0.042257342
145	0xbc2d0e51	-0.010562495
146	0xbd5d08d8	-0.053963512
147	0xbd7f97ca	-0.062400617
148	0x3d253e15	0.04034241
149	0x3d75a757	0.05997404
150	0x3bb3096f	0.005463771
151	0xbd16b3e5	-0.036792655
152	0xbe498016	-0.19677767
153	0x3b765683	0.0037588186
154	0x3c2cf0f8	0.010555498
155	0xbd29a3d1	-0.041415993
156	0xbd27d968	-0.04097882
157	0xbd7f6dc9	-0.06236056
158	0xbc0b27a8	-0.0084933415
159	0x3c9078fb	0.017635813
160	0xbb339e04	-0.0027407417
161	0xbca34875	-0.019932011
162	0xbcd55fcf	-0.026046662
163	0xbd60d04a	-0.05488614
164	0x3d649d44	0.055814043
165	0x3c8d1698	0.017222688
166	0xbe22a7a4	-0.15884262
167	0xbd224a1a	-0.03962145
168	0x3d76fb66	0.060298346
169	0x3c6dad9d	0.014506725
170	0x3d111295	0.03541811
171	0xbbd45960	-0.006480381
172	0xbd37a062	-0.044830687
173	0x3d9baae7	0.076009564
174	0xbd028ede	-0.03187453
175	0x3c082d65	0.008311604
176	0xbe0ca0cc	-0.13733214
177	0x3dbe9226	0.09305219
178	0xbd4d46d5	-0.05011638
179	0xbea38d14	-0.31943572
180	0xbe6801de	-0.22656962
181	0xbe2c328b	-0.16816156
182	0xbc139500	-0.009007692
183	0xbc78e1c9	-0.01519055
184	0xbcf6ec7d	-0.030142063
185	0x3dce9246	0.10086493
186	0x3d069623	0.032858025
187	0xbcad492b	-0.021153053
188	0xbde35f51	-0.111021645
189	0xbea377fb	-0.31927475
190	0xbd3b556b	-0.045735758
191	0x3df4a190	0.11944878
192	0x3d77217e	0.060334675
193	0x3ceb8c81	0.02875352
194	0xbb1a5f93	-0.0023555502
195	0x3c340778	0.010988109
196	0x3d4a143e	0.04933571
197	0xbd39a0ed	-0.045319486
198	0x3d8d691a	0.06904812
199	0x3cdc9a38	0.026929006
200	0x3cc35c6e	0.023847785
201	0xbd0678f4	-0.032830194
202	0x3c910f68	0.017707542
203	0x3df6c818	0.120498836
204	0x3d0b65b4	0.03403254
205	0xbc9de924	-0.01927621
206	0xbe4cc86c	-0.1999833
207	0x3d63832d	0.05554502
208	0xbca82ee6	-0.020530175
209	0xbe25871b	-0.1616482
210	0xbc36b8c7	-0.011152453
211	0x3d7dff88	0.06201127
212	0x3c2c0d18	0.010501169
213	0xbcc5c13f	-0.024139998
214	0x3d5d6eb0	0.054060638
215	0xbd3c739d	-0.046008695
216	0xbd02d3ff	-0.031940456
217	0x3cb6d78f	0.022319583
218	0xbc9f159f	-0.01941949
219	0x3d1688a8	0.03675142
220	0xbe221bdb	-0.15830939
221	0x3b69d120	0.0035677627
222	0xbe96de54	-0.29466498
223	0xbe2a1a91	-0.16611697
224	0x3cc85dce	0.024458792
225	0xbd378a72	-0.044809766
226	0xbcad6bcb	-0.021169564
227	0xbcb10ce2	-0.021612588
228	0xbd691518	-0.056904882
229	0xbd113ea0	-0.035460114
230	0x3d828e27	0.0637477
231	0xbd1dc2ea	-0.038515963
232	0x3e1b9447	0.15193282
233	0xbe99e45d	-0.3005704
234	0xbcb63bdf	-0.022245346
235	0x3d33890b	0.043831866
236	0xbcece182	-0.028916124
237	0x3e104208	0.14087689
238	0xbe516821	-0.20449878
239	0x3c39392d	0.011305136
240	0xbd2df845	-0.042473096
241	0xbd744dbd	-0.05964445
242	0x3d526735	0.051367957
243	0x3c9c3fc5	0.019073376
244	0x3d0f0c8e	0.034924082
245	0xb9ff355a	-0.0004867714
246	0x3d277f89	0.04089311
247	0x3caf98e4	0.021435209
248	0x3f3a14fc	0.7268827
249	0x39f7ed00	0.0004728809
250	0xbe4a0b32	-0.19730833
251	0x3ce7db26	0.02830274
252	0x3d4c3d1f	0.049862977
253	0xbc711499	-0.0147143835
254	0xbc38ca49	-0.011278697
255	0x3c9a6aed	0.018849814

linear4.weight f4 [256, 256]
0	0x3d03aafd	0.03214549
1	0x3d8e605d	0.069519736
2	0x3d55a28f	0.05215698
3	0xbd00e8b4	-0.031471923
4	0x3d17e88c	0.03708701
5	0xbcd1bf14	-0.025603808
6	0x3d9e377f	0.07725429
7	0x3c9ff4f4	0.019525982
8	0xbd669a38	-0.05629942
9	0x3d549d8a	0.051908053
10	0x3d6726d6	0.05643352
11	0x3c2d6bab	0.010584752
12	0x3d8144da	0.063119605
13	0xbc22d56e	-0.009938581
14	0xbd30117c	-0.042985424
15	0xbc8d0e02	-0.017218594
16	0x3d1b8e28	0.037977368
17	0xbcab19c4	-0.02088631
18	0x3c9fb7e8	0.019496873
19	0xbd3444cb	-0.04401092
20	0xbd7cc9a7	-0.06171575
21	0x3d0e40af	0.034729656
22	0x3bed0580	0.0072333217
23	0x3ccfb038	0.025352582
24	0xbc4c5859	-0.012472236
25	0x3cf9c88f	0.030491142
26	0x3d1e6517	0.038670626
27	0xbd29b6af	-0.041433986
28	0xbca24079	-0.019806134
29	0xbd745e44	-0.05966021
30	0xbc872769	-0.016498284
31	0x3d4eab8b	0.050456565
32	0x3d635cd6	0.055508457
33	0x3b8f8070	0.0043793246
34	0x3d8027d7	0.06257599
35	0xbd3a4410	-0.045475066
36	0x3c638a10	0.013887897
37	0xbd63b810	-0.055595458
38	0x3c81a14c	0.015823983
39	0xbc6f7ba0	-0.014616877
40	0x3a42643b	0.0007415448
41	0xbb9189de	-0.004441484
42	0x3e5db9ec	0.21652955
43	0x3d668df7	0.056287732
44	0x3bf2b363	0.0074066385
45	0x3b66af4f	0.0035199707
46	0x3ada19db	0.0016639786
47	0x3d119f02	0.035552032
48	0x3b8129bb	0.0039417422
49	0x3d15a880	0.036537647
50	0x3c40ad6f	0.0117601
51	0x3d77f8b0	0.0605399
52	0x3cdf0200	0.027222633
53	0xbd2fd175	-0.042924363
54	0x3d2d409f	0.042297956
55	0xbc38626d	-0.011253935
56	0xbd28f32c	-0.04124753
57	0xbcd681f4	-0.026185013
58	0xbc6bebd8	-0.014399491
59	0xbc42441f	-0.011857062
60	0xbc612fb6	-0.013744285
61	0xbc9cdf4f	-0.01914945
62	0xbb6e5dd6	-0.0036371849
63	0x3cc4fc0c	0.024045967
64	0xbb3dd5c3	-0.0028966523
65	0xbd6e8d8c	-0.05824046
66	0x3c75db00	0.015005827
67	0x3c7d9e22	0.015479596
68	0x3d32f968	0.043694884
69	0x3d6a41cd	0.05719166
70	0xbc4a9cd1	-0.0123664895
71	0xbcc38c54	-0.023870625
72	0xbc8c52cc	-0.017129324
73	0xbd1235f6	-0.035695992
74	0x3d260ba0	0.04053843
75	0x3cd0d090	0.025490075
76	0xbca42ad8	-0.02003996
77	0x3d35397e	0.044244282
78	0xbd74aea2	-0.059736855
79	0xbd378e08	-0.044813186
80	0xbd699e9a	-0.05703602
81	0x3ccb2961	0.024800004
82	0xbcf3d8e0	-0.0297665
83	0xbcfbc394	-0.030732907
84	0x3cd69789	0.026195304
85	0xbc58395b	-0.013197268
86	0xbc3971f5	-0.011318673
87	0xbbf38f39	-0.007432845
88	0x3d37522b	0.044756096
89	0x3ced981a	0.029003192
90	0xbd6416fa	-0.055685975
91	0x3cd30e2c	0.025763594
92	0x3a200e28	0.0006105625
93	0x3cc591bb	0.024117341
94	0x3cf89b8a	0.030347604
95	0xbc7fff69	-0.015624859
96	0x3d799da7	0.060941365
97	0x3cd434ab	0.02590402
98	0x3c809d67	0.015700055
99	0x3c55cdf8	0.013049595
100	0x3ca7863a	0.020449746
101	0x3d70d235	0.05879422
102	0x3d4a3fe4	0.049377337
103	0xbd4ba953	-0.049722027
104	0x3c80f9c3	0.015744096
105	0xbc01df10	-0.007926717
106	0x3ddaef0a	0.10690124
107	0x3d38d6af	0.045126613
108	0x3cdd50a4	0.027015992
109	0x3aef2eef	0.001824824
110	0x3ca98576	0.020693522
111	0xbcf5002a	-0.029907305
112	0xbd23ee02	-0.040021904
113	0x3d3b6f63	0.045760524
114	0xbc0afc94	-0.008483071
115	0x3b745ba0	0.0037286058
116	0xbc0dccb0	-0.008654758
117	0xbd68eb94	-0.05686529
118	0x3cf6682b	0.030078968
119	0x3ca035b9	0.019556867
120	0xbcb6f3a8	-0.022332981
121	0x3ca68a93	0.02032975
122	0xbcebb438	-0.028772458
123	0xbd447066	-0.047958754
124	0x3cd04173	0.025421834
125	0xbbbb46a0	-0.0057152063
126	0xbd5d96b7	-0.05409881
127	0xbcc7391f	-0.02431923
128	0x3cfbd974	0.030743338
129	0xbc470273	-0.01214658
130	0x3d667f1f	0.056273576
131	0xbd020205	-0.031740207
132	0x3c91ef18	0.017814204
133	0x3c9cd004	0.019142158
134	0x3d048ec6	0.03236272
135	0xbd7d1ec0	-0.061796904
136	0x3d55910a	0.052140273
137	0x3d4bc28c	0.04974608
138	0xbbb0299a	-0.005376053
139	0x3bab9cff	0.0052372213
140	0xbc3cc9c6	-0.011522716
141	0x3c15111c	0.0090983175
142	0x3d710442	0.05884195
143	0xbcbdf420	-0.023187697
144	0x3d9506e2	0.072767034
145	0xbc88fa4f	-0.016720919
146	0x3d82b229	0.063816376
147	0x3d3eb7b7	0.046561923
148	0x3ccc8ca8	0.024969414
149	0xbc486325	-0.012230669
150	0xbd5919da	-0.05300317
151	0x3d49a003	0.049224865
152	0x3d403ff8	0.046936005
153	0x3ba1a0c8	0.0049324967
154	0x3d688422	0.056766637
155	0x3c8bc1a2	0.017060105
156	0x3ca08cf1	0.019598456
157	0xbd06d219	-0.03291521
158	0xbd3b59c2	-0.045739897
159	0x3ccb247e	0.024797674
160	0x3d5551a6	0.05207982
161	0x3d6829e6	0.056680582
162	0xbcbde616	-0.023181003
163	0xbb9e8f40	-0.004838854
164	0x3d0b2c26	0.03397765
165	0x3d0160dc	0.031586513
166	0xbd52a955	-0.05143102
167	0xbd3b573a	-0.045737483
168	0x3d21d8a2	0.039513238
169	0x3cd46bdc	0.025930338
170	0x3d3166d1	0.043310944
171	0xbb33d4e6	-0.002744013
172	0x3cd05ae4	0.025433965
173	0xbd808df3	-0.06277075
174	0xbd5371e4	-0.051622286
175	0x3c49881f	0.01230052
176	0x3cd8676e	0.026416507
177	0x3d1eeeb3	0.03880186
178	0x3d78d4ae	0.060749702
179	0x3cd2c569	0.025728898
180	0x3db96924	0.09053257
181	0xbd0e93e5	-0.034809012
182	0xbd776666	-0.06040039
183	0xbcde607a	-0.027145613
184	0x3d386631	0.045019332
185	0xbd25fd16	-0.040524565
186	0x3c3584aa	0.011078993
187	0xbc88ca2c	-0.016697966
188	0x3cf290b5	0.029610017
189	0x3d4e9883	0.050438415
190	0xbc52424d	-0.01283319
191	0xbcedba62	-0.029019538
192	0x3d03129c	0.03200017
193	0x3cb97285	0.022637615
194	0xbba272e5	-0.004957544
195	0x3d709e8a	0.058744945
196	0xbced87b1	-0.028995367
197	0x3c041a3b	0.008062894
198	0xbd047953	-0.032342266
199	0xbc45595e	-0.012045233
200	0x3cc9bfd3	0.024627602
201	0x3d485cc5	0.048916597
202	0x3d6bc04a	0.057556428
203	0xbbae681f	-0.005322471
204	0x3d5aceda	0.053419925
205	0xbbcb8a03	-0.0062115206
206	0xbc6c785b	-0.014432992
207	0x3d487a06	0.048944496
208	0x3d44c98a	0.048043765
209	0x3d88fa3e	0.06688355
210	0xbd580ed8	-0.05274853
211	0xbd4b715e	-0.049668662
212	0xbd25a4fa	-0.040440537
213	0xbc8b1392	-0.016977105
214	0x3cc652b4	0.024209358
215	0xbd980229	-0.07422287
216	0xbb952a81	-0.004552186
217	0xbcc2cdc2	-0.023779754
218	0x3d28e3b4	0.04123278
219	0x3cf757f1	0.0301933
220	0xbcf9773f	-0.030452369
221	0x3cd57634	0.02605734
222	0x3c9e46bf	0.019320844
223	0x3cfe3121	0.031029286
224	0x3d340165	0.043946642
225	0x3c493c0a	0.012282381
226	0x3d477123	0.04869188
227	0xbc732100	-0.014839411
228	0xbcd38100	-0.025818348
229	0x3c339e60	0.0109630525
230	0x3d55b594	0.05217512
231	0xba0acd00	-0.00052948296
232	0xbd580889	-0.052742515
233	0x3d5cfb45	0.053950567
234	0xbd2e0fa0	-0.04249537
235	0xbc3e7da3	-0.011626634
236	0xbcad0db5	-0.0211247
237	0x3c81a7e5	0.015827129
238	0xbd7ab07b	-0.06120346
239	0xbd7f0a54	-0.06226571
240	0x3cb01f66	0.021499347
241	0xbd5e9e82	-0.054350384
242	0x3ce473fc	0.027887337
243	0x3c163ad8	0.009169303
244	0xbcf498b1	-0.029857965
245	0x3d177bf2	0.036983438
246	0xbd0186fc	-0.03162287
247	0xbd5c16b9	-0.053732608
248	0x3d018b53	0.03162701
249	0x3c31de18	0.010856174
250	0xbc6b4bc8	-0.014361329
251	0x3d03fb91	0.032222334
252	0x3bf1067f	0.0073555107
253	0xbd3a7b30	-0.045527637
254	0xbc699be5	-0.01425836
255	0xbd14520a	-0.03621105

linear4.bias f4 [256]
0	0xbf00a4c5	-0.5025142
1	0xbefadda6	-0.4899723
2	0xbda0f567	-0.07859307
3	0xbe05dfc4	-0.13073641
4	0xbf340bdf	-0.70330614
5	0xbeb3b200	-0.3509674
6	0xbf45558d	-0.77083665
7	0xbec301c4	-0.38087285
8	0x3c69a0e2	0.014259549
9	0xbd6121fb	-0.054964047
10	0xbd4f5601	-0.05061913
11	0xbe93451f	-0.28763673
12	0xbd8b89e5	-0.06813411
13	0xbec966c9	-0.3933623
14	0x3e026b45	0.12736233
15	0xbe4d58ee	-0.20053455
16	0x3efed73e	0.49773592
17	0xbd8c0b02	-0.06838037
18	0xbe9bd19a	-0.3043335
19	0xbf4f374f	-0.8094377
20	0x3e5b23cd	0.21400376
21	0xbf45a900	-0.77211
22	0xbf03b286	-0.5144428
23	0x3e2cc91e	0.16873595
24	0xbe602647	-0.21889602
25	0x3f23da11	0.6400462
26	0xbf5243cc	-0.821347
27	0x3f39fb44	0.72649026
28	0xbf11c106	-0.56935155
29	0x3c82fad3	0.015988743
30	0x3ea59937	0.32343456
31	0xbea1f241	-0.31630138
32	0x3f6d17b4	0.92614293
33	0xbdb137e1	-0.08653236
34	0x3eb688f4	0.35651362
35	0xbeaaeaf5	-0.33382383
36	0xbeeff774	-0.4686848
37	0xbdc51198	-0.09622496
38	0xbf2a6f8f	-0.66576475
39	0x3f3426da	0.7037178
40	0x3da96a3f	0.08272218
41	0x3f319f44	0.69383645
42	0x3dd10e06	0.10207753
43	0xbdcb0ff5	-0.09915153
44	0xbe66cc2f	-0.22538827
45	0xbec2036e	-0.37893242
46	0x3ef17019	0.47155836
47	0xbedb3b29	-0.42818573
48	0xbf290839	-0.6602817
49	0x3f583159	0.844503
50	0xbebaeb3b	-0.36507592
51	0xbda41f38	-0.08013767
52	0xbd0ad9e0	-0.033899188
53	0x3e787db6	0.24266705
54	0xbf0dfc5b	-0.5546319
55	0xbcc5dd92	-0.024153505
56	0xbeb52825	-0.3538219
57	0xbec92d2e	-0.39292282
58	0x3f302431	0.68805224
59	0xbd18ea0a	-0.037332572
60	0x3ec0521b	0.37562642
61	0xbf398594	-0.7246945
62	0x3eab970b	0.33513674
63	0xbd17f804	-0.03710176
64	0xbd88804a	-0.06665094
65	0xbd618e13	-0.055067133
66	0xbd9c9fea	-0.07647689
67	0x3cab2304	0.02089072
68	0xbf243866	-0.6414856
69	0x3f223f99	0.6337829
70	0xbee10485	-0.4394876
71	0xbf13aac1	-0.57682425
72	0x3ee0a9a5	0.43879429
73	0x3ec14b7d	0.37752905
74	0x3d12d098	0.03584346
75	0x3e468516	0.19386706
76	0x3e2c536d	0.168287
77	0xbf2b0842	-0.66809475
78	0xbf09d76f	-0.5384435
79	0xbf1ccf4a	-0.612538
80	0xbc851612	-0.016245876
81	0x3e03f4f8	0.12886417
82	0x3eaea6c5	0.3411161
83	0x3f2bcec4	0.67112374
84	0xbec50447	-0.38479826
85	0xbf313dc0	-0.6923485
86	0x3ecf6ff4	0.405151
87	0xbf40a36e	-0.75249374
88	0xbed787f7	-0.4209592
89	0x3eb7b182	0.35877615
90	0x3e7a8aa4	0.2446695
91	0xbde29c52	-0.11064972
92	0x3ed1b7ef	0.40960643
93	0x3c3f6577	0.011681906
94	0x3f020352	0.50786316
95	0xbf19d830	-0.600955
96	0x3f59918a	0.849877
97	0xbda1b48a	-0.07895763
98	0xbf0344e2	-0.5127698
99	0xbf0a684e	-0.54065406
100	0x3e84ba4d	0.25923386
101	0x3f021787	0.5081715
102	0x3f69bc1a	0.91302645
103	0xbf0e0327	-0.5547356
104	0xbddeef2b	-0.108854614
105	0xbee6af36	-0.4505555
106	0x3d5d801d	0.054077256
107	0xbec645c2	-0.38725096
108	0xbf41cfde	-0.75707805
109	0x3e867993	0.2626463
110	0xbf0ad7b0	-0.54235363
111	0xbeae2670	-0.340137
112	0x3edd5653	0.43229923
113	0x3d788e21	0.06068242
114	0xbec7c458	-0.39016986
115	0xbec3baa7	-0.38228342
116	0x3f1552e7	0.58329624
117	0xbea70c1a	-0.3262642
118	0xbf15262d	-0.58261377
119	0x3f530055	0.8242238
120	0xbcc3af7d	-0.02388739
121	0x3f35cf12	0.7101909
122	0x3f1dc62b	0.61630505
123	0x3ec9d489	0.39419964
124	0xbd5704a6	-0.052494667
125	0xbf2a1d8a	-0.66451323
126	0xbe7d6566	-0.24745712
127	0x3f4253c9	0.75909096
128	0x3e914a71	0.28377107
129	0xbee8377f	-0.4535484
130	0xbcf4fe97	-0.029906554
131	0x3d273d92	0.040830202
132	0xbf3118b0	-0.69178295
133	0x3f23acca	0.6393553
134	0xbea4e674	-0.32207072
135	0x3f28e242	0.6597024
136	0x3e30789b	0.17233507
137	0xbf6357e9	-0.88806015
138	0x3ef2df66	0.47436064
139	0xbe9c1cb5	-0.30490652
140	0x3f093fb2	0.53612816
141	0xbdab9f12	-0.0837995
142	0x3ea13d05	0.31491867
143	0x3ec0178b	0.37517962
144	0xbf065a64	-0.52481675
145	0x3e5c2f62	0.2150245
146	0x3e9c237c	0.30495822
147	0xbdd4f650	-0.10398543
148	0xbed3341b	-0.4125069
149	0xbf27094f	-0.6524858
150	0x3ed39d2d	0.41330853
151	0xbc165d32	-0.009177493
152	0xbf29cf7f	-0.6633224
153	0x3ede9019	0.43469313
154	0xbdf059d5	-0.11735884
155	0x3da8df75	0.08245746
156	0x3f22dbb9	0.6361652
157	0x3d795570	0.060872495
158	0x3f2637ed	0.64929086
159	0x3eaa8fed	0.33312932
160	0xbf2a021b	-0.6640946
161	0x3dcc9768	0.09989816
162	0x3f587c95	0.845651
163	0x3e9d881d	0.3076791
164	0xbec0905e	-0.37610143
165	0xbd0eca77	-0.034861054
166	0xbd8cfec9	-0.06884534
167	0x3eede54b	0.46464
168	0xbf310f62	-0.691641
169	0x3ecd4cf9	0.40097788
170	0xbed07241	-0.4071217
171	0x3e0c8eee	0.13726398
172	0x3ece8c16	0.40341252
173	0xbf011317	-0.50419754
174	0xbed064c5	-0.4070188
175	0xbf0e3975	-0.5555642
176	0x3e14a8c6	0.14517507
177	0xbf441c79	-0.76605946
178	0x3f4491b4	0.76784825
179	0xbf2560f1	-0.64601046
180	0x3f137d80	0.5761337
181	0x3cd65465	0.02616329
182	0xbd3ca17d	-0.046052445
183	0xbea53b74	-0.32271922
184	0xbf095c9a	-0.53656924
185	0xbf56d960	-0.8392544
186	0xbe966442	-0.29373366
187	0x3eebcfa7	0.46056864
188	0x3e44661d	0.19179578
189	0x3c3593fc	0.0110826455
190	0xbe27e63f	-0.16396426
191	0x3f272e15	0.6530469
192	0x3efc5c32	0.4928909
193	0xbf088863	-0.5333311
194	0xbf81515d	-1.0102955
195	0x3d78bedf	0.060728904
196	0x3e28e8eb	0.16495101
197	0xbf1526be	-0.5826224
198	0x3ea81818	0.32830882
199	0xbf2b4bf5	-0.66912776
200	0x3dfdf746	0.12400679
201	0x3f1f9454	0.62335706
202	0xbde4aac1	-0.11165381
203	0xbf01b63c	-0.5066869
204	0x3d84d6ea	0.06486304
205	0xbf2912bd	-0.6604422
206	0xbed805e0	-0.42191982
207	0x3f4258b6	0.7591661
208	0xbe1279af	-0.14304231
209	0xbf817c63	-1.0116085
210	0xbef2c8fe	-0.4741897
211	0xbe985cad	-0.29758206
212	0xbf2b0993	-0.66811484
213	0xbf2173cb	-0.6306731
214	0xbe8ff875	-0.28119245
215	0x3f208b19	0.62712246
216	0xbf80255d	-1.0011402
217	0xbf4525df	-0.7701091
218	0xbf186df6	-0.5954279
219	0x3f423808	0.75866747
220	0x3e6a0668	0.22854006
221	0x3ed53016	0.4163825
222	0x3ebf9273	0.3741642
223	0xbf0e155a	-0.5550133
224	0xbef6c318	-0.4819572
225	0xbf3ab4ab	-0.7293193
226	0xbe2ec8cf	-0.1706879
227	0x3ea352fa	0.31899244
228	0xbf1d56fc	-0.6146085
229	0xbef4d86b	-0.47821364
230	0x3cab2485	0.020891437
231	0xbf0554e7	-0.52082676
232	0x3e0b0337	0.13575445
233	0x3f61bf86	0.88182867
234	0xbf4580e4	-0.77149796
235	0x3eadc9fe	0.3394317
236	0xbe9fd1a0	-0.3121462
237	0x3c9f1aa2	0.01942188
238	0x3f4ffc0e	0.8124398
239	0x3f4b2006	0.7934574
240	0xbee497d1	-0.44647077
241	0x3e27b46f	0.16377424
242	0xbed0f034	-0.4080826
243	0xbf2c9f3e	-0.67430484
244	0x3f17deda	0.5932442
245	0x3ec535bc	0.3851756
246	0x3f1ed589	0.6204458
247	0x3f447014	0.7673352
248	0x3e1610d6	0.1465486
249	0x3dddec74	0.108361155
250	0xbf04d8d8	-0.5189338
251	0x3f38783c	0.72058463
252	0xbd417082	-0.047226436
253	0x3ed152e9	0.40883568
254	0x3f4fd481	0.8118363
255	0xbf02c5ec	-0.51083255

linear3.weight f4 [1, 256]
0	0xbb4db662	-0.0031389226
1	0xbaf59ad1	-0.0018738155
2	0xbd5ab35b	-0.053393703
3	0xbe0313a9	-0.12800469
4	0x3e920a74	0.285236
5	0xbda473ec	-0.08029923
6	0x3ecba5a2	0.39774805
7	0xbe36e535	-0.17860873
8	0x39cf870c	0.00039582734
9	0x3c14cd17	0.0090821
10	0xbc17d64b	-0.0092674
11	0xbe3e839f	-0.18604897
12	0xba316fbb	-0.00067686633
13	0xbc835d85	-0.016035805
14	0xbef21f9b	-0.47289738
15	0x3c29840c	0.010346424
16	0x3eeebaca	0.46626884
17	0x38346ab5	4.3014723e-05
18	0xbdccd6cc	-0.10001907
19	0x3e9458a2	0.2897387
20	0xbd4e9977	-0.050439324
21	0xbf0e2351	-0.5552264
22	0xbe4d0811	-0.20022608
23	0x3f2794a7	0.654612
24	0xbd11165c	-0.035421714
25	0x3dc8b4e3	0.098001264
26	0x3eb24d9f	0.34824845
27	0x3f8ce4dc	1.1007342
28	0xbf25121c	-0.6448076
29	0x3e66f488	0.22554219
30	0xbd8ec93a	-0.06971975
31	0xbde8d47f	-0.113686554
32	0x3f862440	1.0479813
33	0xbebbb081	-0.366581
34	0xbc80c85b	-0.015720537
35	0x3d34094e	0.043954186
36	0xbe517ba2	-0.20457318
37	0x3e1a06a9	0.15041603
38	0xbe840def	-0.2579188
39	0x3f537d49	0.82613045
40	0x3e6d1e46	0.2315608
41	0x3ee2fdf1	0.44334367
42	0x3ead9804	0.3390504
43	0xbc9aa1a3	-0.018875903
44	0xbd10c675	-0.035345513
45	0xbcf7075d	-0.030154878
46	0xbcfa128a	-0.030526418
47	0xbd5d5cd9	-0.054043625
48	0xbed3f6d3	-0.4139925
49	0x3f85cac0	1.0452499
50	0xbe1fa19b	-0.15588991
51	0xbba70778	-0.005097326
52	0x3a3aa7a3	0.0007120317
53	0xba1c42dd	-0.0005960891
54	0xbeec4364	-0.46145165
55	0xbc054c57	-0.008135877
56	0xbd57b89f	-0.052666303
57	0x3cdedcb0	0.027204841
58	0x3f2cd025	0.67505103
59	0x397682b4	0.00023509079
60	0xbd1b986a	-0.03798715
61	0xbf394455	-0.7236989
62	0xbaeb9602	-0.0017973783
63	0xbab17b03	-0.0013540689
64	0xbd4ca81f	-0.04996502
65	0x3c103bc3	0.008803311
66	0x3e3aa978	0.1822871
67	0x3a53cef6	0.0008079851
68	0xbeeab7ee	-0.45843452
69	0x3eca5ed2	0.39525467
70	0xbd09a850	-0.03360778
71	0x3e57855a	0.21046963
72	0x3dbe4ab6	0.09291594
73	0x3e3c59e5	0.18393667
74	0x3df8e247	0.12152534
75	0x3f289a5e	0.65860546
76	0x3e82f821	0.25579932
77	0xbe441674	-0.1914919
78	0x3e581d4d	0.21104927
79	0xbf1ec2c8	-0.6201596
80	0xbb2d8813	-0.0026478812
81	0x3e0f79b7	0.14011274
82	0xbd313ed1	-0.043272797
83	0x3f69672d	0.9117306
84	0xbaf803dd	-0.001892205
85	0xbf1366fa	-0.57579005
86	0xbdd2de16	-0.10296266
87	0xbe874119	-0.26416853
88	0xbe4454f7	-0.19173037
89	0x3e7069cb	0.23477857
90	0xbbcf2156	-0.0063211126
91	0x3e7f7e2f	0.24950479
92	0x3d4f93c6	0.050678037
93	0xbda4a98f	-0.08040153
94	0x3e093109	0.13397612
95	0xbf0a683a	-0.5406529
96	0x3f075fc6	0.52880514
97	0x3e405bdc	0.18785042
98	0xbecd7d45	-0.40134636
99	0x3c507363	0.012722823
100	0x3f231712	0.6370708
101	0x3f83045e	1.0235708
102	0x3f7abac3	0.97941226
103	0xbe148ade	-0.14506099
104	0x3e6c7403	0.2309113
105	0xbd71b7fd	-0.059013356
106	0x3b830e35	0.0039994963
107	0xbdac9c96	-0.08428304
108	0xbfd44764	-1.6584287
109	0x3e1107c7	0.14163123
110	0xbda48de4	-0.08034876
111	0xbc8f6ced	-0.017507995
112	0x3da83625	0.08213452
113	0xbce323e8	-0.027727082
114	0xbd9e99ba	-0.07744165
115	0xbdca48ad	-0.09877143
116	0xbe021a05	-0.12705238
117	0xbe9133ea	-0.2835992
118	0xbe3d0172	-0.18457583
119	0x3fa1f16e	1.2651803
120	0xbb9927a2	-0.004673914
121	0x3ed59b5c	0.41720092
122	0x3f1a4196	0.60256326
123	0x3e6c2315	0.23060258
124	0x39a6ec76	0.00031838164
125	0xbf08e76a	-0.5347811
126	0xbc8b11cd	-0.016976262
127	0x3f56e20b	0.83938664
128	0xbd44b833	-0.04802723
129	0xbdf1b8d6	-0.11802833
130	0xbdcce243	-0.100040935
131	0x3e9bd24a	0.30433875
132	0xbf285fca	-0.6577116
133	0x3e6c4248	0.2307216
134	0xbd9514cd	-0.07279358
135	0x3defaa09	0.117023535
136	0x3df4aeea	0.11947425
137	0x3eab0cc9	0.33408192
138	0x3de6691a	0.11250515
139	0xbc9bc5a3	-0.019015139
140	0xbe13efe8	-0.14446986
141	0xbb722ddf	-0.003695361
142	0xbd252614	-0.040319517
143	0xbc32a848	-0.010904379
144	0x3e3f3c65	0.18675382
145	0x3f45b638	0.7723117
146	0x3e9bd00e	0.3043217
147	0xbe0dc293	-0.13843755
148	0xbe965a0a	-0.2936557
149	0xbf2af79a	-0.6678406
150	0xbd0f0d72	-0.03492493
151	0x3e60be02	0.21947482
152	0xbf0b3e9c	-0.5439241
153	0xbd9fae08	-0.07796866
154	0xbdce7971	-0.10081757
155	0x3d44936d	0.04799216
156	0x3f28cfe6	0.6594223
157	0xbd623f43	-0.055236112
158	0x3f260830	0.64856243
159	0x3dea964c	0.11454448
160	0xbf388d50	-0.72090626
161	0xbd4ba528	-0.049718052
162	0x3f5a0628	0.85165644
163	0xbd3978ff	-0.045281406
164	0xbd3f83c8	-0.046756536
165	0xbaa5f3eb	-0.0012661194
166	0x3c238af6	0.009981861
167	0xbe895a6d	-0.26826802
168	0xbe2f8097	-0.17138897
169	0x3fa0e31d	1.256931
170	0x3e0be197	0.13660274
171	0x3e839843	0.25702104
172	0x3e9b30ed	0.30310765
173	0xbdd63824	-0.10459927
174	0xbc53a574	-0.012917865
175	0xbf59a2c0	-0.8501396
176	0x3ed6c1ca	0.41944724
177	0xbff2b9ca	-1.8962948
178	0x3f81d9b2	1.014456
179	0xbece8846	-0.40338343
180	0x3e7924ab	0.24330394
181	0x3df1475d	0.117811896
182	0xbbe77384	-0.007063331
183	0xbc0beb55	-0.008539994
184	0x3c8b5c18	0.017011687
185	0x3e90f756	0.28313702
186	0xba0ca78b	-0.0005365542
187	0x3dabf17c	0.08395669
188	0xbdd8160b	-0.10551079
189	0xb8d954af	-0.0001036314
190	0xbe0c8584	-0.13722807
191	0x3f96577b	1.1745447
192	0x3e8d90ee	0.27649635
193	0xbde482b2	-0.11157741
194	0x3f0c0f6a	0.5471102
195	0xbe913b7e	-0.283657
196	0x3ed3ef16	0.41393346
197	0xbd9ec33f	-0.07752084
198	0xbd853658	-0.06504506
199	0x3e1c8955	0.15286763
200	0x3edc2088	0.4299357
201	0x3f117299	0.5681549
202	0xb9f2925a	-0.00046266877
203	0x3d2b0f59	0.041762684
204	0x3e807138	0.2508638
205	0xbf491257	-0.7854361
206	0xbd9065d3	-0.070506714
207	0xbed3eb98	-0.4139068
208	0xbe2656ab	-0.16243999
209	0x3ebdc65a	0.37065393
210	0x3dd23781	0.10264493
211	0xbd3feb06	-0.046854995
212	0xbf165ddf	-0.58736986
213	0xbed0405c	-0.40674102
214	0xbe3f3547	-0.18672667
215	0xbdc53791	-0.09629739
216	0x3eb49935	0.35273138
217	0xbe442233	-0.19153671
218	0x3cae4302	0.021272186
219	0x3f902243	1.1260456
220	0x3e4feb84	0.20304686
221	0x3d38c619	0.045110796
222	0x3eea6430	0.45779562
223	0xbebea92c	-0.37238443
224	0xbe6dc7cb	-0.23220746
225	0x3dfecdc2	0.12441589
226	0xbd5a99f1	-0.053369466
227	0x3f37d742	0.7181283
228	0xbeb4df6b	-0.35326704
229	0xbcfc17d9	-0.03077309
230	0xbc1bf5c7	-0.009519047
231	0xbf218c35	-0.63104564
232	0x3ee42973	0.44562873
233	0x3fcd900c	1.6059585
234	0xbf1ad95c	-0.60487914
235	0x3ee909a7	0.45515177
236	0xbd49334b	-0.049121182
237	0x3aa1f633	0.0012356698
238	0x3ee10df4	0.43955958
239	0x3f2ea76c	0.68224216
240	0xbe9980c3	-0.2998105
241	0x3eb1d731	0.3473449
242	0x3d3404ba	0.04394982
243	0xbf3a5b33	-0.7279541
244	0x3e645585	0.22298248
245	0x3dadcc48	0.08486229
246	0xbdcf7f5b	-0.10131713
247	0x3f9689f5	1.1760851
248	0x3e97506d	0.29553548
249	0x3dffd595	0.124919094
250	0xbd992ad9	-0.07478876
251	0x3f5927b2	0.84826195
252	0xbe8337b2	-0.2562843
253	0xbcc6b8c4	-0.024258025
254	0x3fce72ce	1.6128786
255	0xbeb956e6	-0.3619911
