outputs/Optimal_Control/20220324-154759/models/checkpoint.pt (torch, 533487 bytes, 7 tensors)

linear1.weight f4 [256, 2]
0	0xbf09e46f	-0.53864187
1	0x3d7bdb20	0.06148827
2	0xbf222010	-0.63330173
3	0x3f2b8fa7	0.6701607
4	0x3e6e5ab6	0.23276791
5	0x3e9723de	0.29519552
6	0x3e3af6ef	0.1825826
7	0xbea15783	-0.3151208
8	0x3e1d638c	0.15370005
9	0xbf124650	-0.5713854
10	0x3f1acfa3	0.6047308
11	0x3ed4a06e	0.41528648
12	0x3ee9f872	0.4569736
13	0xbe8757a0	-0.2643404
14	0x3e90962f	0.2823958
15	0xbe412da2	-0.18865064
16	0x3ea67920	0.32514286
17	0xbf14cae0	-0.5812206
18	0xbe86b125	-0.26307026
19	0xbe17a0c8	-0.14807427
20	0x3f0d0c97	0.55097336
21	0xbd81d6b9	-0.06339783
22	0x3f01c06d	0.50684243
23	0xbd689bfa	-0.056789376
24	0xbf0cc1ad	-0.54983026
25	0xbe5a6d7e	-0.2133083
26	0x3f2bee21	0.6716023
27	0xbf22190f	-0.63319486
28	0xbefda6ee	-0.4954142
29	0x3e614fe0	0.22003126
30	0x3f041e96	0.5160917
31	0xbd0fb0b6	-0.035080634
32	0x3ee969f7	0.45588657
33	0xbe39d2a9	-0.18146767
34	0x3e4e740f	0.2016146
35	0xbf1508dc	-0.58216643
36	0x3f321ebd	0.6957815
37	0x3e7995c7	0.24373542
38	0x3efd5845	0.49481407
39	0x3efbb7ee	0.49163765
40	0x3edfe5d2	0.43730026
41	0xbee7410c	-0.45166814
42	0xbea8972a	-0.3292783
43	0x3f30e85f	0.6910457
44	0xbf2b7d9d	-0.66988546
45	0xbe72725c	-0.23676437
46	0xbecfbd73	-0.40574226
47	0x3f25359d	0.6453493
48	0x3eb9b7e9	0.36273125
49	0x3f316ee8	0.69309855
50	0x3e045cba	0.12925997
51	0xbec7e395	-0.3904082
52	0x3f15c236	0.5849947
53	0xbf29002c	-0.6601589
54	0x3ecbf301	0.39833835
55	0xbe830463	-0.25589284
56	0x3e699bac	0.2281329
57	0xbee54ef6	-0.44786805
58	0xbeb165d8	-0.34648013
59	0xbeea8b00	-0.45809174
60	0xbf28e237	-0.65970176
61	0x3e839c06	0.25704974
62	0x3f153c07	0.5829472
63	0xbf257901	-0.6463776
64	0x3ec786f8	0.3897016
65	0x3f23af8d	0.63939744
66	0xbf02c8bc	-0.51087546
67	0xbe897efe	-0.268547
68	0x3f0b753d	0.54475766
69	0x3f2cb3ce	0.6746186
70	0xbee4890b	-0.44635805
71	0xbea1ca01	-0.3159943
72	0xbdea9dd0	-0.114558816
73	0x3cea0540	0.028566957
74	0xbd8f6fc8	-0.070037425
75	0xbd8f80d0	-0.07006991
76	0xbd4cb780	-0.049979687
77	0xbdbc1a60	-0.09184718
78	0xbdca6336	-0.09882204
79	0x3eb1e73c	0.3474673
80	0xbf303354	-0.6882832
81	0xbe0c7128	-0.1371504
82	0xbf05e51e	-0.5230273
83	0xbe4d66cc	-0.20058745
84	0x3f0a3678	0.5398936
85	0x3ec5c45a	0.38626367
86	0xbea7cc5c	-0.327731
87	0x3e88a092	0.26685005
88	0x3f199048	0.5998578
89	0xbe13a1d6	-0.14417204
90	0xbee51351	-0.447413
91	0x3f00ae8c	0.5026634
92	0x3d3317db	0.043723922
93	0x3f08f39a	0.53496706
94	0xbf11c13e	-0.5693549
95	0xbee38ab7	-0.4444177
96	0xbec5962d	-0.38591138
97	0xbf0418ef	-0.51600546
98	0x3c326a64	0.010889623
99	0x3f05e64e	0.5230454
100	0xbf1c8ed3	-0.6115543
101	0xbf292e5f	-0.6608638
102	0xbd8dea30	-0.06929433
103	0x3d3b7a38	0.045770854
104	0xbea1ca20	-0.31599522
105	0x3eeb09cf	0.4590592
106	0xbf037088	-0.51343584
107	0xbf22f370	-0.63652706
108	0x3d179a2a	0.037012257
109	0xbea8ef87	-0.32995245
110	0x3f211f87	0.6293873
111	0x3f241117	0.6408858
112	0xbeb06001	-0.34448245
113	0xbf0e4acc	-0.5558288
114	0xbedf10e7	-0.43567583
115	0xbf221f16	-0.63328683
116	0xbf0544a8	-0.52057886
117	0x3f30fe19	0.6913772
118	0x3f046190	0.5171137
119	0x3c99736c	0.018731795
120	0x3d3d4169	0.046204958
121	0x3f0dca48	0.5538678
122	0xbd291050	-0.041275322
123	0xbe780690	-0.24221253
124	0x3f050761	0.51964384
125	0xbe855dad	-0.2604803
126	0x3f309f2e	0.6899289
127	0xbf25e762	-0.6480619
128	0xbf200d4d	-0.62520295
129	0xbf0a6a46	-0.5406841
130	0xbee2673e	-0.44219393
131	0xbca85e60	-0.020552814
132	0x3ed458db	0.4147404
133	0xbf0a4ccd	-0.5402344
134	0x3e3435d2	0.17598656
135	0x3eb363b8	0.35037017
136	0x3e94abf5	0.29037443
137	0xbe9da885	-0.30792633
138	0x3ea428a0	0.32062244
139	0xbc1a1c19	-0.009406113
140	0xbf1f0b6c	-0.62126803
141	0x3ef6f896	0.4823653
142	0xbeace31b	-0.33767018
143	0xbe53b760	-0.20675421
144	0x3edf8d8f	0.43662688
145	0x3ead4ade	0.33846182
146	0xbf088207	-0.53323406
147	0x3ee733da	0.45156747
148	0x3e6f424a	0.23365131
149	0x3e60cf88	0.21954167
150	0x3efc6e70	0.49303007
151	0x3e30bf97	0.17260586
152	0xbee97d97	-0.4560363
153	0xbf0d63a0	-0.5523014
154	0xbebd0af7	-0.36922428
155	0x3efb0602	0.4902802
156	0x3dee457a	0.11634345
157	0xbda7b41c	-0.0818865
158	0x3e559830	0.20858836
159	0x3f0d11c2	0.5510522
160	0x3e4cbb59	0.19993342
161	0x3e7cc3e0	0.24684095
162	0x3e627723	0.2211576
163	0x3e725fe7	0.23669396
164	0x3f31e713	0.69493216
165	0xbf3123f0	-0.6919546
166	0xbf214cd3	-0.6300785
167	0x3e9b5ba6	0.3034336
168	0xbef9c7d2	-0.48785263
169	0xbf2378ed	-0.63856393
170	0x3e7def6d	0.24798365
171	0x3f3041ab	0.688502
172	0x3eddc3b9	0.43313387
173	0x3f184bb1	0.59490496
174	0xbf011970	-0.5042944
175	0x3dfe8168	0.12427026
176	0x3ef278dd	0.47357836
177	0xbeada8d2	-0.33917862
178	0x3e9fc088	0.31201577
179	0xbd2a5f9c	-0.041595086
180	0x3d1dbf83	0.038512718
181	0x3f03a51a	0.514238
182	0xbf0ad47c	-0.54230475
183	0x3ebf166a	0.37321788
184	0x3c4257f0	0.011861786
185	0xbdc2b9d4	-0.095081
186	0xbe89b89c	-0.26898658
187	0xbec97b9b	-0.39352116
188	0x3f172ab5	0.5904954
189	0xbe49b491	-0.19697787
190	0xbeb0b6f9	-0.34514597
191	0x3f0cad3d	0.5495184
192	0x3dc11cbb	0.09429308
193	0x3ea3ef7f	0.3201866
194	0xbe44ebf9	-0.19230641
195	0x3eb2729a	0.3485306
196	0xbea2d8d1	-0.31806043
197	0xbe9817c6	-0.29705638
198	0xbf28e9de	-0.65981853
199	0x3dbcb268	0.09213716
200	0x3e45b9f8	0.19309223
201	0xbddfd525	-0.10929326
202	0xbe73afdf	-0.23797558
203	0x3ee0d08c	0.4390911
204	0x3e75d17e	0.24005696
205	0xbee305a2	-0.44340235
206	0xbf207207	-0.6267399
207	0xbf009f84	-0.502434
208	0x3e261882	0.16220286
209	0xbf16d062	-0.58911717
210	0x3f071e13	0.52780265
211	0xbeaaf5cb	-0.3339065
212	0xbf239410	-0.638978
213	0xbf0ebe05	-0.55758697
214	0x3e5349de	0.20633647
215	0x3f1de067	0.61670536
216	0xbe1d04fe	-0.15333936
217	0x3ee52301	0.44753268
218	0xbed8c8fd	-0.42340842
219	0xbeba230b	-0.3635486
220	0x3ed54eae	0.4166159
221	0x3f2f3430	0.68439007
222	0xbe1bf844	-0.15231425
223	0xbeec9a64	-0.4621154
224	0x3f2c58b2	0.6732284
225	0x3d4b297a	0.049600102
226	0xbbefa429	-0.0073132706
227	0x3e3d43ee	0.18482944
228	0x3e940f8e	0.28918117
229	0x3eef3ee6	0.46727675
230	0x3e685be1	0.22691299
231	0x3f29d212	0.66336167
232	0x3eb3bd39	0.35105303
233	0x3ea1155c	0.31461608
234	0xbf311735	-0.69176036
235	0x3ec8e176	0.39234513
236	0x3ec97288	0.39345193
237	0x3f0d95bb	0.55306596
238	0xbe45b29c	-0.19306415
239	0xbdc3f600	-0.09568405
240	0xbeb87338	-0.36025405
241	0x3f09e94f	0.53871626
242	0xbdfba420	-0.12287164
243	0x3df6ea90	0.12056458
244	0x3f165af4	0.58732533
245	0xbf201ecc	-0.6254699
246	0x3f10f983	0.56630725
247	0xbe5b46df	-0.21413754
248	0x3f1931ef	0.5984182
249	0x3e09e9af	0.1346805
250	0x3d37eb2e	0.04490202
251	0xbecb915d	-0.3975934
252	0xbd91f2e7	-0.07126408
253	0x3f1cc015	0.61230594
254	0x3d70889d	0.058724035
255	0x3e816a3e	0.2527637

linear1.bias f4 [256]
0	0x3ec0791a	0.37592393
1	0x3e2095ec	0.1568219
2	0xbe64bf82	-0.2233868
3	0x3eef9d46	0.46799678
4	0xbf2a1f97	-0.6645445
5	0x3ed86902	0.42267615
6	0x3e99ebea	0.300628
7	0xbeb684dd	-0.35648242
8	0xbf05c2b0	-0.52250195
9	0xbe177d08	-0.1479379
10	0x3e960f71	0.29308656
11	0x3f05f2f3	0.52323836
12	0xbf19bc6b	-0.6005313
13	0x3ee4ce6e	0.44688743
14	0x3e164f34	0.14678651
15	0x3d221a9d	0.03957616
16	0xbe3d8371	-0.18507172
17	0x3e2e9cf5	0.17052062
18	0x3ee05eae	0.43822235
19	0x3e88692d	0.26642743
20	0x3e380080	0.1796894
21	0x3f2c88f5	0.6739648
22	0x3eee0c56	0.46493787
23	0x3e5798ea	0.21054426
24	0x3eca3beb	0.3949884
25	0x3ee642ce	0.44972843
26	0x3db87a2d	0.09007678
27	0xbef8f0cf	-0.48621222
28	0xbe9d97da	-0.30779916
29	0xbf225b41	-0.6342049
30	0xbdec1a90	-0.11528504
31	0xbe1ebbc7	-0.15501319
32	0x3ed6a30c	0.4192127
33	0xbdebe320	-0.1151793
34	0x3d3f8e65	0.046766657
35	0xbe975716	-0.2955863
36	0x3e3e2578	0.1856898
37	0xbd863b90	-0.065543294
38	0x3f045737	0.5169558
39	0x3e7ad093	0.24493627
40	0xbe549ff4	-0.20764142
41	0x3e295708	0.16537106
42	0x3e39e955	0.18155415
43	0x3c831de0	0.016005456
44	0x3dc483eb	0.09595474
45	0xbea7f9e3	-0.32807836
46	0xbebcfabd	-0.36910048
47	0x3e49ba64	0.19700009
48	0xbf104c31	-0.5636626
49	0x3e67a9a8	0.22623312
50	0xbea5f2ff	-0.32411954
51	0x3f2c2b8f	0.67253965
52	0x3e9b25dc	0.30302322
53	0x3f16f6f1	0.5897055
54	0x3ce3bb6e	0.027799334
55	0x3d991857	0.074753456
56	0x3f0e31df	0.5554485
57	0x3ea9fac2	0.33199126
58	0xbe8cab48	-0.27474427
59	0x3d7e8f42	0.06214834
60	0xbe89e157	-0.26929733
61	0xbd8666a8	-0.06562549
62	0xbe1b02dc	-0.1513781
63	0x3db269d7	0.087115936
64	0x3ebd23e2	0.3694144
65	0xbe961b2a	-0.293176
66	0xbf283ba6	-0.65716016
67	0x3eecfe17	0.46287605
68	0xbdc8ee37	-0.09811061
69	0x3ee11243	0.43959245
70	0xbe7afeca	-0.24511257
71	0xbe8a2a7f	-0.26985547
72	0xbefe91a6	-0.49720496
73	0x3e2c2718	0.16811788
74	0x3c8251ab	0.015908083
75	0xbec91b7e	-0.39278787
76	0x3dd78338	0.10523075
77	0xbec4e7a4	-0.38457978
78	0xbd9ae1ac	-0.07562575
79	0x3ecafaa5	0.39644352
80	0xbf2fe015	-0.687013
81	0xbe299148	-0.16559327
82	0xbeb6b71f	-0.35686585
83	0xbe93c880	-0.28863907
84	0xbf129a85	-0.5726703
85	0x3f117805	0.5682376
86	0x3f1b2a87	0.60611767
87	0xbe3f09d8	-0.18656099
88	0xbe12855b	-0.14308684
89	0xbf1228a5	-0.5709327
90	0xbd8dab81	-0.069174774
91	0xbe8be309	-0.27321652
92	0xbe1d2cc3	-0.15349106
93	0xbf31559a	-0.6927124
94	0xbf1b95d6	-0.60775506
95	0xbedd2cd5	-0.43198267
96	0x3eb6c0e1	0.3569403
97	0x3ef31941	0.47480205
98	0xbea9badc	-0.33150375
99	0xbeeca3a9	-0.46218613
100	0xbdc5df25	-0.09661702
101	0xbcd8f22e	-0.026482668
102	0x3f2c3523	0.6726858
103	0xbf2f0773	-0.6837074
104	0x3d99bdd0	0.07506907
105	0xbedd5a8d	-0.43233147
106	0x3e4af80c	0.19821185
107	0xbf305dd3	-0.68893164
108	0xbe2a72e4	-0.1664539
109	0x3eb4b3c6	0.35293406
110	0x3ed0552f	0.4068999
111	0x3eef6156	0.4675395
112	0x3d3de814	0.046363905
113	0xbe312694	-0.17299873
114	0x3eec9068	0.46203923
115	0x3f2808e4	0.65638566
116	0x3e7866a1	0.242579
117	0x3f284169	0.6572481
118	0x3f364d92	0.7121211
119	0xbeac9db8	-0.3371408
120	0x3eb35525	0.35025898
121	0x3e3534b8	0.17695892
122	0x3ef6e143	0.48218736
123	0x3e8ac05d	0.27099887
124	0xbe8523d1	-0.26003888
125	0x3f16442d	0.5869778
126	0xbeecfbad	-0.46285763
127	0x3e62faa0	0.22165918
128	0xbe0c0e18	-0.13677251
129	0x3f338399	0.7012268
130	0xbd62ef20	-0.05540383
131	0x3f04e691	0.51914316
132	0x3dae782c	0.08519015
133	0xbe26b624	-0.16280419
134	0x3de9dcbc	0.11419055
135	0xbd1f9270	-0.038958013
136	0xbe418546	-0.18898496
137	0x3f21aa34	0.63150334
138	0xbee0fa0a	-0.43940765
139	0xbe84f7f9	-0.25970438
140	0x3ed97683	0.4247323
141	0x3ecd4cbe	0.40097612
142	0x3f1c40a5	0.6103614
143	0x3e0b892d	0.13626547
144	0x3f327f71	0.6972571
145	0xbe18b329	-0.14912094
146	0x3f051021	0.51977736
147	0xbeffe550	-0.4997964
148	0x3ebc3f2a	0.3676694
149	0x3f206ec6	0.62669027
150	0xbecca6c1	-0.39970973
151	0xbea0ae94	-0.31383193
152	0x3e1d0fa8	0.15338004
153	0xbe1d7ac8	-0.15378869
154	0xbecaeb9a	-0.39632875
155	0x3eb6f4d6	0.3573367
156	0xbe8e1d9e	-0.2775697
157	0x3f2de633	0.6792938
158	0x3e68cb0e	0.22733709
159	0xbe15bc9b	-0.14622729
160	0xbe47f882	-0.19528392
161	0xbce762fb	-0.02824544
162	0x3eb05db7	0.344465
163	0x3e9a5c6b	0.30148634
164	0x3eacdea6	0.33763617
165	0xbeaeb6c5	-0.34123817
166	0x3f1292ec	0.57255435
167	0xbdd478e7	-0.10374623
168	0xbd41d510	-0.047322333
169	0xbd98c5fa	-0.07459636
170	0x3e466a54	0.19376498
171	0xbee96cb3	-0.45590743
172	0xbf3203ee	-0.69537246
173	0x3f168d3f	0.58809274
174	0xbe3fcd25	-0.187306
175	0xbe16336c	-0.14668053
176	0xbef31e1a	-0.47483903
177	0x3f1b9ba0	0.6078434
178	0x3ef7bada	0.48384744
179	0xbe90d589	-0.28287914
180	0xbeaaa2d2	-0.33327347
181	0x3db3b63c	0.08774993
182	0xbf11f991	-0.57021433
183	0x3d8c4868	0.06849748
184	0xbf282021	-0.65674025
185	0xbd600662	-0.054693587
186	0x3f0d6d31	0.5524474
187	0xbdba4a7e	-0.090962395
188	0xbeeb8a74	-0.4600407
189	0x3ef86422	0.48513895
190	0xbf23eef2	-0.64036477
191	0x3f1f1ee9	0.6215654
192	0xbf1859cf	-0.5951204
193	0x3f048f1b	0.5178086
194	0xbf149edc	-0.580549
195	0xbd8af454	-0.06784883
196	0xbeb1095a	-0.34577447
197	0xbee6ede8	-0.45103383
198	0x3e368442	0.1782389
199	0x3eba5212	0.3639074
200	0x3d946be4	0.07247141
201	0x3e144068	0.14477694
202	0xbf316fc9	-0.69311196
203	0xbef85d95	-0.48508897
204	0x3eb34dbc	0.35020244
205	0x3da84416	0.08216111
206	0x3f2d295d	0.6764124
207	0xbe27219e	-0.16321418
208	0x3e97e2a8	0.29665112
209	0xbeb87e91	-0.36034063
210	0xbf089711	-0.5335551
211	0x3eaa59fa	0.33271772
212	0xbec0eea2	-0.37682062
213	0x3f2ff692	0.6873561
214	0x3e8d2b91	0.275723
215	0xbf0da044	-0.5532267
216	0xbd8f5b3f	-0.06999826
217	0x3e4e5ae5	0.20151861
218	0x3dd9c3d6	0.10633056
219	0x3f1dc5c8	0.61629915
220	0xbdbe43a9	-0.09290249
221	0xbeef1f71	-0.46703675
222	0xbf126836	-0.57190263
223	0x3e6f0660	0.23342276
224	0xbe32b1b3	-0.174506
225	0x3f07d226	0.53055036
226	0x3f3349b7	0.70034355
227	0x3f11b930	0.569232
228	0xbf228372	-0.6348182
229	0x3da3ceac	0.07998404
230	0xbeda2c27	-0.4261181
231	0x3e52e552	0.20595291
232	0xbe82878a	-0.25494033
233	0xbebf8fd0	-0.37414408
234	0xbee2c027	-0.44287226
235	0x3d30c6f0	0.04315847
236	0xbf2be401	-0.6714478
237	0xbee02e6d	-0.4378542
238	0x3f1bd0b6	0.6086534
239	0x3f0b0f99	0.54320675
240	0xbeac07f8	-0.3359983
241	0x3efa784d	0.48919907
242	0x3ed6614a	0.418711
243	0xbe282e29	-0.16423859
244	0x3f299d48	0.6625562
245	0xbf282e57	-0.6569571
246	0xbecbbb76	-0.3979146
247	0xbf2f571c	-0.68492293
248	0xbf036174	-0.51320577
249	0xbefc9739	-0.49334124
250	0xbe0ffa74	-0.14060384
251	0x3e7be188	0.24597752
252	0x3e767b98	0.24070585
253	0x3f039d6f	0.514121
254	0xbe555490	-0.2083304
255	0xbdaee678	-0.08540052

linear2.weight f4 [256, 256]
0	0x3d23f8a6	0.04003205
1	0x3cd3265c	0.025775127
2	0xbd1b3353	-0.037890743
3	0xbcc27f4b	-0.023742339
4	0xbcc6bf27	-0.02426107
5	0xbd35908b	-0.0443273
6	0x3ccdef54	0.025138535
7	0xbc6eeff4	-0.0145835765
8	0xbd58b975	-0.05291124
9	0x3d0311f0	0.03199953
10	0x3c88d654	0.016703762
11	0x3d3e6418	0.046482176
12	0x3c823294	0.015893258
13	0x3d0bff3f	0.03417897
14	0xbd6982fe	-0.05700969
15	0x3c4d379c	0.012525465
16	0xbd44d942	-0.048058756
17	0x3d370c73	0.044689607
18	0x3d254142	0.040345438
19	0x3cd42c7c	0.025900118
20	0xbd358e8d	-0.0443254
21	0xbd34e69c	-0.04416524
22	0x3d7bf686	0.0615144
23	0xbbb1fde0	-0.0054318756
24	0x3d5397bf	0.05165839
25	0x3d24ebf9	0.040264104
26	0xbd08d3df	-0.03340518
27	0x3c3ab21a	0.011395002
28	0x3cad3784	0.021144636
29	0xbcbaaafc	-0.02278661
30	0x3d1897f0	0.037254274
31	0xbd3a24de	-0.045445316
32	0x3d109713	0.035300326
33	0xbd14dc9a	-0.036343195
34	0xbc5c3867	-0.013441182
35	0xbd234ebc	-0.03987001
36	0x3d561746	0.05226829
37	0x3d296ba6	0.041362427
38	0x3d011ed4	0.03152354
39	0x3d2171dd	0.03941523
40	0x3bdfeef0	0.0068339035
41	0x3c966ba4	0.018361874
42	0x3d630fcc	0.055434987
43	0x3c653a28	0.013990916
44	0x3d0f04d4	0.034916714
45	0xbd0b6f90	-0.03404194
46	0x3cea5f9f	0.028610049
47	0x3d6557ce	0.05599194
48	0xbaea7800	-0.0017888546
49	0xbca330ca	-0.019920725
50	0xbd0d682e	-0.03452318
51	0x3d55881e	0.052131765
52	0x3c3ff440	0.011715949
53	0xbd16911c	-0.03675948
54	0x3bdde884	0.006772103
55	0xbd70a9c3	-0.058755647
56	0x3d235e94	0.03988512
57	0x3bb5f380	0.005552709
58	0xbd4cc83e	-0.049995653
59	0x3c7a8e9c	0.01529279
60	0x3c3a3fba	0.011367733
61	0xbc4e3d88	-0.012587912
62	0x3c9f4da1	0.019446196
63	0x3d6b1812	0.057396002
64	0xbbde7ae0	-0.00678955
65	0xbcc96eec	-0.024589024
66	0xbc8b3eac	-0.016997658
67	0xbd1ade29	-0.037809525
68	0x3bd91ef5	0.006626005
69	0x3d328ad1	0.043589417
70	0x3ccea63c	0.025225751
71	0x3d3acfce	0.045608334
72	0x3c7f3bb6	0.015578201
73	0x3bfb4a50	0.007668771
74	0xbc35d0bc	-0.011097129
75	0xbd2bec34	-0.041973308
76	0x3caeeff4	0.021354653
77	0xbd411492	-0.047138758
78	0x3c940fe1	0.018073978
79	0x3c8401e9	0.016114192
80	0xbd39f13c	-0.045396075
81	0xbd4fb2a6	-0.05070748
82	0x3bab4585	0.0052267932
83	0x3c95dc88	0.018293634
84	0xbc38fba8	-0.011290468
85	0xbd23cdde	-0.039991252
86	0xbc2a52c3	-0.0103957085
87	0xbd0ce0b8	-0.034393996
88	0xbd828247	-0.06372505
89	0xbd5bb55a	-0.053639747
90	0xbd38dc4c	-0.045131966
91	0xbd22c97e	-0.03974294
92	0x3d23ab30	0.03995818
93	0xbd6e33a0	-0.058154702
94	0x3d4181e6	0.04724302
95	0xbc5fc930	-0.013658807
96	0x3d040d62	0.032239325
97	0x3ced5d94	0.028975286
98	0x3d725992	0.059167452
99	0x3d2d0b0e	0.04224687
100	0xbc8280d0	-0.015930563
101	0xbc8c3074	-0.017112948
102	0x3cce15e6	0.025156926
103	0x3ccdd538	0.025126085
104	0x3bd94304	0.0066303033
105	0xbd290fd8	-0.041274875
106	0x3d1135e4	0.035451785
107	0xbcccfde2	-0.025023405
108	0x3b9959b9	0.004679885
109	0xbc4a2018	-0.012336753
110	0x3c41a6a3	0.011819514
111	0x3d039834	0.032127574
112	0x3b81e93a	0.0039645704
113	0xbcfc2b36	-0.030782323
114	0x3c5162a8	0.012779869
115	0xbd61c8ae	-0.055123024
116	0xbce914c3	-0.028452283
117	0xbd02402a	-0.031799473
118	0xbd233af5	-0.039851148
119	0xbc96bb84	-0.018399961
120	0xbd6a47ac	-0.057197258
121	0xbd49d082	-0.049271114
122	0x3d627ef3	0.05529685
123	0x386a67c2	5.588658e-05
124	0xbd311603	-0.043233883
125	0xbcdc9aae	-0.026929226
126	0xbce5f25b	-0.028069666
127	0x3d6a4e16	0.057203375
128	0xbc96f7e8	-0.018428758
129	0xbd6032de	-0.05473601
130	0x3c357cb8	0.011077099
131	0xbd16b2d4	-0.036791638
132	0xbd3be944	-0.045876756
133	0xbd0a273e	-0.03372883
134	0xbd60e093	-0.05490167
135	0xbcbdb704	-0.023158558
136	0xbd221bf2	-0.039577432
137	0xbc2e1294	-0.010624547
138	0x3d06179d	0.032737363
139	0xbc5d75af	-0.0135168275
140	0xbd2b1a5d	-0.04177319
141	0xbd5b3c7a	-0.05352447
142	0x3d6a5102	0.05720616
143	0x3d6b83cf	0.05749875
144	0x3d34a2d6	0.044100605
145	0x3d674f4c	0.056472108
146	0x3d17596a	0.036950506
147	0xbc2fcded	-0.010730249
148	0x3d5499de	0.05190455
149	0x3d024797	0.031806555
150	0xbd1ae2b5	-0.03781386
151	0x3d354b12	0.044261046
152	0x3cc8aafc	0.024495594
153	0x3d223128	0.03959766
154	0xbd25ca35	-0.040476043
155	0xbd1a5894	-0.03768213
156	0x3d036aa8	0.032084137
157	0x3d04dc04	0.032436386
158	0x3cedffc9	0.029052632
159	0xbcb62421	-0.022234024
160	0x3c94d352	0.018167172
161	0xbd03bd64	-0.03216304
162	0xbd01eca4	-0.03171982
163	0x3d57c8c9	0.052681718
164	0xbcf08854	-0.029361881
165	0xbc311e80	-0.010810494
166	0xbd1ec5e7	-0.038762953
167	0xbd4cbb52	-0.04998333
168	0x3bd6dc80	0.0065570474
169	0xbb5efa17	-0.0034023577
170	0x3d07521a	0.033037283
171	0xbcd2e92e	-0.025745954
172	0xba664f59	-0.00087856274
173	0xbd7ae890	-0.061256945
174	0xbcbfa17b	-0.02339243
175	0xbcf9cf58	-0.030494377
176	0xbd435d58	-0.04769644
177	0xbd2e7d5a	-0.042600013
178	0xbbfd9450	-0.0077386275
179	0x3c387ce0	0.011260241
180	0x3d27898e	0.040902667
181	0xbd22db5e	-0.039759986
182	0xbc1f0533	-0.009705829
183	0xbd060d6a	-0.032727636
184	0x3d54fb56	0.051997505
185	0xbbeb30d9	-0.007177454
186	0xbd0624e1	-0.032750014
187	0xbd4f2931	-0.050576393
188	0xbcfb3ba0	-0.03066808
189	0x3c36f830	0.011167571
190	0x3b31c340	0.0027124435
191	0xbd68b73c	-0.05681537
192	0x3d635152	0.055497475
193	0x3d015c9c	0.03158246
194	0xbc2bd9c5	-0.010488932
195	0xbb003eac	-0.0019568605
196	0x3d4afbd8	0.049556583
197	0x3d52911a	0.05140791
198	0xbc9af892	-0.018917356
199	0xbd78da4c	-0.06075506
200	0x3caaa5a5	0.020830939
201	0xbd739918	-0.059472173
202	0x3d4849ba	0.048898436
203	0xbd4f90a6	-0.050675057
204	0x3c7cc15b	0.015426959
205	0xbd0dd3b5	-0.034625728
206	0x3d0f4524	0.034978047
207	0x3c37f210	0.011227146
208	0x3cfbb7d3	0.030727303
209	0xbd5e67ea	-0.05429832
210	0xbd2a2284	-0.041536823
211	0xbd05bc8c	-0.032650515
212	0x3d285700	0.041098595
213	0xbc727e43	-0.014800611
214	0xbc94a724	-0.018146105
215	0xbbce9f18	-0.0063055865
216	0x3c584e40	0.01320225
217	0xbd2c40f4	-0.04205413
218	0x3cf7a7ba	0.030231345
219	0xbd2e7355	-0.042590458
220	0x3cb2fc0e	0.021848705
221	0xbd486b37	-0.048930373
222	0x3a123a00	0.00055781007
223	0x3d2a6f32	0.04160995
224	0x3d300533	0.04297371
225	0xbd1d5224	-0.038408414
226	0x3d588386	0.052859806
227	0xbd3dbd23	-0.046322953
228	0xbd060a10	-0.03272444
229	0x3d69703f	0.05699181
230	0x3d4b57af	0.04964417
231	0xbd6cbe3f	-0.05779862
232	0x3ca16cc3	0.019705182
233	0xbcd41e5a	-0.025893379
234	0x3d12904a	0.035782136
235	0xbd61be76	-0.05511328
236	0x3d28c75a	0.04120574
237	0x3d3edc28	0.046596676
238	0xbd77a9f2	-0.060464807
239	0x3aea1a5c	0.0017860639
240	0x3d5f4790	0.054511607
241	0x3d1fb3ac	0.038989708
242	0xbcf374f8	-0.029718861
243	0xbd08e335	-0.033419807
244	0xbd180fa0	-0.037124276
245	0x3d732c32	0.05936832
246	0xbd4c3e6f	-0.04986423
247	0x39782fbd	0.00023668907
248	0x3c7cc396	0.015427491
249	0xbd445578	-0.04793307
250	0xbbf8bcb0	-0.0075908527
251	0x3d754968	0.05988446
252	0x3d1ce3cc	0.03830318
253	0xbcab6704	-0.020923145
254	0xbcb665a3	-0.022265261
255	0xbcd21c8f	-0.025648383

linear2.bias f4 [256]
0	0xbd65446f	-0.055973466
1	0x3d6efb38	0.05834505
2	0xbd539cd2	-0.051663227
3	0xbb4a22a2	-0.0030843397
4	0xbcb42fc0	-0.021995425
5	0x3d8c814a	0.068605974
6	0xbc830359	-0.015992807
7	0x3d035a2d	0.03206842
8	0x3d085070	0.033279836
9	0x3d230b1a	0.03980551
10	0x3c8b2fb0	0.016990513
11	0xbc09a170	-0.008400306
12	0xbd4e0a76	-0.050302945
13	0xbcc2e055	-0.02378861
14	0x3d884f48	0.06655747
15	0x3d3ee005	0.04660036
16	0xbd54b645	-0.05193164
17	0xbd2bc9af	-0.041940387
18	0x3d1884e9	0.037236128
19	0x3d6ea248	0.058260232
20	0x3d1b4ac7	0.03791311
21	0x3d32232a	0.043490566
22	0xbc4eabe8	-0.012614228
23	0x3cb58030	0.022155851
24	0x3d1d97f0	0.038474977
25	0xbc2c3b79	-0.010512226
26	0x3d36d70d	0.044638682
27	0x3d12136e	0.03566306
28	0x3c3c54d6	0.011494836
29	0x3d518b1d	0.05115806
30	0xbd6161e8	-0.05502501
31	0xbd4f76cc	-0.050650403
32	0x3baacc48	0.0052123405
33	0x3c969354	0.018380798
34	0xbd1758d2	-0.03694994
35	0xbd4c56a0	-0.0498873
36	0x3cfc40fc	0.030792706
37	0x3d4fd9b3	0.050744724
38	0xbbfa016b	-0.0076295636
39	0xbc517c88	-0.012786038
40	0x3d819aba	0.0632834
41	0xbb58e536	-0.0033095605
42	0xbbb15138	-0.0054112934
43	0x3c8f3049	0.017479079
44	0xbcd1f36d	-0.02562877
45	0xbd803d86	-0.06261735
46	0xbd1d2510	-0.038365424
47	0x3d0c2e9d	0.03422414
48	0xbd1d6519	-0.038426492
49	0xbbb013aa	-0.005373438
50	0xbcb183e2	-0.021669332
51	0x3cfb8fbc	0.030708186
52	0xbd35085e	-0.044197433
53	0xbce20264	-0.02758903
54	0x3d2d5f56	0.042327248
55	0xbbdedeb0	-0.0068014488
56	0x3ceebaa6	0.029141735
57	0xbd5a0072	-0.05322308
58	0xbd800996	-0.06251828
59	0x3d58f93d	0.052972067
60	0x3d5db77f	0.054130074
61	0xbd524a9c	-0.051340684
62	0x3cddc897	0.027073188
63	0xbd26b2fa	-0.04069803
64	0x3d67db13	0.05660541
65	0xbc5d4d80	-0.013507247
66	0xbd498d9f	-0.049207326
67	0xbd747151	-0.05967838
68	0x3d138212	0.036012717
69	0x3cf2afdb	0.02962487
70	0xbc96ff54	-0.018432297
71	0x3d0a9d27	0.03384128
72	0x3be27706	0.0069111614
73	0xbd0ef97f	-0.034905907
74	0x3cce67a0	0.025195897
75	0xbd3d9b92	-0.04629094
76	0xbc21d288	-0.009876855
77	0x3d1b608c	0.03793387
78	0xbd5152ed	-0.051104475
79	0xbd7e3416	-0.06206139
80	0x3c7a6bc9	0.015284487
81	0xbd5ebfd9	-0.05438218
82	0x3cc53c73	0.024076676
83	0xbc66ffec	-0.0140991025
84	0x3d5c0010	0.053710997
85	0xbc2cb824	-0.010541949
86	0xbcbfdd78	-0.023421034
87	0xbcafc828	-0.021457747
88	0xbce33e50	-0.027739674
89	0x3d536ce6	0.051617526
90	0xbd6d8d9a	-0.05799637
91	0xbd3602fc	-0.04443644
92	0x3d0e15d2	0.03468878
93	0xbc553c5d	-0.01301488
94	0xbb8858ab	-0.0041609607
95	0xbc770308	-0.015076406
96	0xbc34dd1e	-0.011039047
97	0x3d0fca66	0.03510513
98	0xbc780c30	-0.0151396245
99	0xbd68ddb2	-0.05685205
100	0x3bb55f2a	0.005535026
101	0xbd74112d	-0.059586693
102	0xbd7b18ea	-0.061303057
103	0x3bdb3d00	0.0066906214
104	0x3caa43c8	0.020784274
105	0x3d528ab2	0.0514018
106	0xbd54772e	-0.05187147
107	0xbd847264	-0.06467131
108	0xbcd9e253	-0.026597178
109	0xbc2f32c8	-0.01069326
110	0xbc3710f4	-0.0111734755
111	0x3d39fbb0	0.045406044
112	0xbd3c9f06	-0.046050094
113	0x3bfe56a0	0.0077617913
114	0x3d5ea553	0.054356884
115	0xbca79f23	-0.020461624
116	0xbd3abe85	-0.04559185
117	0x3ce70e5d	0.028205091
118	0x3c9c4cd8	0.01907961
119	0xbd692606	-0.056921028
120	0x3d60bdb8	0.05486843
121	0xbd2a3f55	-0.041564304
122	0x3ccef63e	0.025263902
123	0x3d35bbe2	0.044368632
124	0x3b25aa60	0.0025278553
125	0x3d7ef890	0.062248766
126	0x3b0e6960	0.002173029
127	0xbc695915	-0.01424243
128	0x3d2598aa	0.040428795
129	0x3d49d958	0.04927954
130	0xbd773c46	-0.060360216
131	0x3c0e529e	0.00868669
132	0x3ce77790	0.028255254
133	0x3a242180	0.00062610954
134	0xba39eb74	-0.0007092275
135	0x3d6df890	0.058098376
136	0x3d4af70e	0.049552016
137	0x3c5994d3	0.013280111
138	0xbc3da4e3	-0.011574957
139	0xbbb2132b	-0.005434414
140	0x3b728ec2	0.003701136
141	0x3b0b1ae4	0.0021225745
142	0x3d609b55	0.054835636
143	0xbd7990ca	-0.060929097
144	0x3d08fa88	0.03344205
145	0xbc032f7e	-0.0080069285
146	0x3cf1ac83	0.029501205
147	0x3d732cc4	0.059368864
148	0xbd0a6f52	-0.03379757
149	0x3c62ba34	0.01383834
150	0xbd294834	-0.041328624
151	0xbc775e68	-0.015098192
152	0xbb9c1d80	-0.004764259
153	0x3d704c3b	0.05866645
154	0xbd0d78e2	-0.03453911
155	0x3d6fd0b8	0.05854866
156	0xbd51e1be	-0.051240675
157	0x3d62524e	0.055254273
158	0x3aded628	0.0017001079
159	0x3d0d6760	0.034522414
160	0x3d3df010	0.04637152
161	0x3d164db4	0.036695197
162	0xbd075d64	-0.03304805
163	0xbd1bc067	-0.038025286
164	0xbd198906	-0.03748419
165	0xbd539f61	-0.051665667
166	0x3d48d482	0.04903079
167	0xbd0e43fa	-0.034732796
168	0x3d7f583d	0.06234001
169	0xb7d885dc	-2.581154e-05
170	0xbd3db9ca	-0.04631976
171	0x3ab8996e	0.0014083812
172	0xbd17c92b	-0.037057083
173	0x3c698bd0	0.014254525
174	0xbd204cf0	-0.039135873
175	0xbd502357	-0.050814953
176	0xbd283be8	-0.041072756
177	0xbcca8fa7	-0.024726702
178	0x3d57bb4a	0.052668847
179	0x3d379e23	0.044828545
180	0x3bf87eb4	0.0075834636
181	0x3cf84c9c	0.030309968
182	0x3d7a1cf0	0.061062753
183	0x3d7b18cd	0.06130295
184	0xbcdc6d10	-0.026907474
185	0x3d7312ef	0.05934423
186	0x3d7b0164	0.061280623
187	0xbcd09aa3	-0.025464362
188	0xbae916c0	-0.0017783269
189	0x3d73ce2a	0.059522785
190	0xbc9bada8	-0.019003704
191	0x3d334b5e	0.043773048
192	0x3cd2d91f	0.025738297
193	0xbb0e0da0	-0.0021675602
194	0xbd1198d6	-0.035546146
195	0xbd49bbb6	-0.04925128
196	0xbd5c7b3a	-0.053828456
197	0xbd51dfd4	-0.05123885
198	0x3cfceed8	0.030875608
199	0x3c53542b	0.012898485
200	0xbc298dd1	-0.010348753
201	0x3ca04870	0.01956579
202	0x3d789875	0.06069227
203	0x3d40eff3	0.047103833
204	0xbd85389b	-0.06504937
205	0xbd55200a	-0.052032508
206	0xbc8a63d4	-0.016893305
207	0x3d5ac072	0.053406186
208	0xbcc5f705	-0.02416564
209	0x3d55c11a	0.05218611
210	0x3cdb0c16	0.026739161
211	0x3d661e78	0.0561814
212	0x3c142a58	0.009043299
213	0x3afcc9a6	0.001928617
214	0x3c9ccbce	0.01914015
215	0x3c5ec050	0.013595656
216	0xbc53bc80	-0.01292336
217	0xbd22dc8a	-0.039761104
218	0x3d2befc4	0.041976705
219	0xbc7f36fc	-0.015577074
220	0x3d53a902	0.05167485
221	0xbd189ee2	-0.037260897
222	0x3cdafdbf	0.026732324
223	0x3cd0ba7a	0.025479544
224	0x3d4d89cc	0.05018024
225	0x3bbdbc48	0.005790267
226	0x3d3956aa	0.045248665
227	0x3d4d026c	0.050051138
228	0xbd4280b6	-0.04748603
229	0x3bb98869	0.0056620133
230	0x3c573d5f	0.013137191
231	0x3d323461	0.043506984
232	0xbb82fc73	-0.0039973794
233	0xbd35c276	-0.044374906
234	0x3d5ea3e9	0.054355536
235	0x3d48f592	0.04906232
236	0x3cc2bf7c	0.023772947
237	0xbd4be771	-0.049781267
238	0x3b89f516	0.0042101247
239	0x3caaaf3c	0.020835511
240	0xbd7d0ca2	-0.061779626
241	0xbd56e9fe	-0.052469246
242	0x3d3e731d	0.0464965
243	0xbabff32e	-0.0014644617
244	0x3d0d7a0e	0.03454023
245	0x3d0132a8	0.03154245
246	0xbbbf5770	-0.005839281
247	0xbc3f2252	-0.011665897
248	0xbaeb78c0	-0.0017965063
249	0x3cf880e8	0.030334905
250	0xbcec0c1a	-0.028814364
251	0xbd75e3f6	-0.060031854
252	0x3cbeec44	0.02330602
253	0xbc969809	-0.018383043
254	0xbb8fb370	-0.0043854043
255	0x3cbd5981	0.023113968

linear4.weight f4 [256, 256]
0	0x3d289990	0.041162074
1	0xbbc16930	-0.005902432
2	0xbd3f642e	-0.0467264
3	0x3d82af42	0.06381084
4	0x3d5d5679	0.054037545
5	0x3cbfa6ef	0.02339503
6	0x3ccad0b0	0.024757713
7	0x3ac7b739	0.00152371
8	0xbd71b7c4	-0.059013143
9	0x3bd2d2e4	0.0064338315
10	0xbd4d7ce2	-0.050167926
11	0xba014a80	-0.0004932061
12	0xbd139c0e	-0.036037497
13	0x3c2caae3	0.010538789
14	0xbc70b3d6	-0.014691314
15	0xbaf06735	-0.0018341305
16	0x3d9dd533	0.0770668
17	0x3c8511e2	0.016243879
18	0x3d4f7cf6	0.05065628
19	0x3d105350	0.035235703
20	0x3c23cac8	0.009997077
21	0x3a1d1ec0	0.0005993657
22	0xbd74e016	-0.059784018
23	0xbca8bc90	-0.020597726
24	0x3ca785a5	0.020449469
25	0x3da3c1d2	0.07995953
26	0xbd660bb4	-0.056163505
27	0x3d3dfa08	0.046381027
28	0xbcc2a0d4	-0.02375833
29	0xbd15d6b0	-0.036581695
30	0xbbcc6abe	-0.0062383106
31	0x3c406d00	0.011744738
32	0xbc9cf0c4	-0.019157775
33	0xbd2003fa	-0.039066292
34	0xbd56e080	-0.052460194
35	0x3d245552	0.04012043
36	0xbc920e68	-0.017829135
37	0x3d8ac8fe	0.067766175
38	0x3d03b789	0.032157455
39	0x3a93fd00	0.001129061
40	0xbd1f9311	-0.038958613
41	0x3d4071d4	0.046983555
42	0xbd3bf997	-0.045892324
43	0x3b24e978	0.0025163572
44	0x3d7bbcee	0.061459474
45	0xbd675d0a	-0.056485213
46	0xbcf855fd	-0.03031444
47	0xbc613cc9	-0.0137474025
48	0xbc13fb69	-0.009032109
49	0x3d2b1fbc	0.04177831
50	0x3c1aa53b	0.009438808
51	0xbb668f80	-0.0035180748
52	0xbba69b5b	-0.005084438
53	0x3c689748	0.0141962245
54	0x3d0c1ecf	0.03420907
55	0xbd6632ec	-0.056200907
56	0x3d8c9a07	0.06865316
57	0xbb3c6455	-0.0028746326
58	0xbd0b7a52	-0.0340522
59	0x3b91bc5d	0.0044475035
60	0x3cd989d8	0.026554987
61	0x3d405460	0.046955466
62	0x3d1f1843	0.038841497
63	0xbd230eee	-0.03980916
64	0x3c32bf46	0.010909861
65	0x3cf4bcec	0.029875241
66	0xbd366b5e	-0.044535987
67	0x3d7bfe76	0.06152197
68	0x3d39eec2	0.045393713
69	0x3d9bef34	0.07613984
70	0xbca6f2e4	-0.020379491
71	0x3d90ecd9	0.07076425
72	0x3d5adc60	0.053432822
73	0xbcb21382	-0.021737818
74	0xbd43aa1a	-0.047769643
75	0x3c5ec8c0	0.013597667
76	0xbd136f3a	-0.035994746
77	0x3ca34348	0.019929543
78	0xbd5524a8	-0.05203691
79	0x3d77d8e4	0.060509577
80	0x3d3d9bfd	0.04629134
81	0x3c41e8a3	0.01183525
82	0xb8344428	-4.297882e-05
83	0xbba4cf90	-0.005029626
84	0x3cca81cd	0.024720097
85	0x3809ea26	3.2881413e-05
86	0xbc2cf290	-0.010555878
87	0x3caa1a84	0.020764597
88	0x3d319c38	0.043361872
89	0xbd062ba8	-0.032756478
90	0x3d38080d	0.044929553
91	0xbd48ee06	-0.04905512
92	0xbbf22bf0	-0.0073904917
93	0x3d9bd27a	0.076085046
94	0xbd174894	-0.03693445
95	0xbd7db24e	-0.061937623
96	0x3cc2bd57	0.023771925
97	0x3d46f00c	0.04856877
98	0xbd57216c	-0.052522108
99	0xbd273776	-0.040824376
100	0x3d8eb25c	0.06967613
101	0x3cfb3b84	0.030668028
102	0x3d7575a3	0.05992664
103	0x3d000252	0.031252213
104	0xbd5d8f86	-0.054091953
105	0x3c014aea	0.007891396
106	0x3cefb686	0.029261839
107	0x3d4cfbb6	0.050044738
108	0xbd77613a	-0.060395457
109	0x3d741eac	0.059599563
110	0x3d8fcb28	0.07021171
111	0x3d5016b0	0.050802886
112	0xbce22776	-0.027606707
113	0x3cd0dc1c	0.025495581
114	0x3be52c79	0.006993827
115	0x3d9c3cca	0.07628782
116	0x3d5cfef2	0.053954072
117	0xbd0c204b	-0.034210484
118	0x3d1a9b80	0.037745953
119	0xbd48a48c	-0.04898505
120	0x3d454aa6	0.048166893
121	0xbcea4948	-0.028599396
122	0x390d24bb	0.00013460491
123	0x3d3d5558	0.04622397
124	0x3caaff28	0.020873621
125	0xbb9a6153	-0.004711309
126	0xbd5d4400	-0.054019928
127	0xbd2422f6	-0.040072404
128	0x3d376922	0.044777997
129	0x3c91c38d	0.017793441
130	0xbd7384d2	-0.05945284
131	0x3cca9f74	0.024734236
132	0x3c338be0	0.010958642
133	0x3c9b8e08	0.018988624
134	0x3d9b1112	0.07571615
135	0x3d479660	0.048727393
136	0x3cde68b0	0.027149528
137	0xbd295d5b	-0.041348796
138	0x3b12c91b	0.00223977
139	0xbc58759f	-0.013211637
140	0xbd7a51fe	-0.06111335
141	0x3c379c4a	0.011206696
142	0xbd13bca0	-0.03606856
143	0xbcef03c4	-0.0291766
144	0xbc740660	-0.014894098
145	0x3d0fd03e	0.035110705
146	0x3d17d0b4	0.03706427
147	0xbd3cad46	-0.046063684
148	0xbd4c467a	-0.0498719
149	0x3d11d5cf	0.035604294
150	0x3ce6a854	0.028156437
151	0xbcb2105c	-0.021736316
152	0xbcf80fc4	-0.030280955
153	0xbca63491	-0.020288737
154	0x3c9f35d0	0.01943484
155	0x3d77cf52	0.06050045
156	0x3d03c1f2	0.032167383
157	0xbd1a109e	-0.037613504
158	0xbc00aa58	-0.007853113
159	0x3d985340	0.07437754
160	0xbca4bcaf	-0.020109503
161	0x3d1e1ee4	0.03860368
162	0x3d34d9c2	0.044152983
163	0x3c4ebd6e	0.012618406
164	0x3ab4bb00	0.001378864
165	0xbbf90083	-0.007598938
166	0x3c019eb7	0.007911376
167	0xbd6be894	-0.05759485
168	0x3cf54fdd	0.029945308
169	0xbb4fa39c	-0.0031683212
170	0x3c9e4d10	0.019323856
171	0x3cadeae3	0.021230167
172	0x3d0480d4	0.032349423
173	0xba9e7f40	-0.0012092367
174	0xbb254ed5	-0.002522399
175	0x3cbd1540	0.023081422
176	0xbd1f0087	-0.038818862
177	0xbc3be50b	-0.011468182
178	0x3c149700	0.009069204
179	0x3bed4e50	0.0072420016
180	0xbcf3ed01	-0.029776098
181	0x3d0ad078	0.033890218
182	0x3d7f1fdd	0.062286247
183	0x3d94d0ad	0.07266364
184	0xbc265310	-0.01015164
185	0xbd0f7740	-0.035025835
186	0x3d75b8c0	0.059990644
187	0x3cb22511	0.02174619
188	0xbcee03ac	-0.029054485
189	0xbcfb2ead	-0.030661905
190	0xbcb4667c	-0.022021525
191	0x3d50e91a	0.051003553
192	0x3c262ddb	0.010142769
193	0xbd7bb46c	-0.06145136
194	0x3d201d88	0.039090663
195	0xbcf8460c	-0.030306838
196	0x3d5c61a2	0.053804047
197	0x3d7783b4	0.060428336
198	0xb6098000	-2.0489097e-06
199	0xbccf4435	-0.025301078
200	0xbac79540	-0.0015226975
201	0x3d5b7ee6	0.053587817
202	0xbd7dbda0	-0.06194842
203	0xbd3dfb2e	-0.04638212
204	0x3ce57958	0.028011963
205	0xba94a9c0	-0.0011342093
206	0x3c9f8cf4	0.019476391
207	0xbcddc59c	-0.027071767
208	0x3b3f7480	0.0029213727
209	0xbca4f970	-0.020138472
210	0xbcf75217	-0.03019051
211	0x3d268a7a	0.040659405
212	0xbbc78f70	-0.006090097
213	0x3d8d7c67	0.069084935
214	0x3d1734fd	0.036915768
215	0x3cd0f009	0.025505083
216	0x3ce0fb40	0.027463555
217	0x3c01b918	0.007917665
218	0xbce9d9d0	-0.028546244
219	0x3d0b7203	0.034044277
220	0xbcd4b7d0	-0.025966555
221	0xbd39d829	-0.045372162
222	0xbcac0dac	-0.021002613
223	0xbd0a88f0	-0.033822
224	0x3d4af94c	0.049554154
225	0xbc2b2a28	-0.010447063
226	0xbd163912	-0.03667552
227	0xbd4fee04	-0.0507641
228	0xbd22cca0	-0.039745927
229	0xbd2b19bb	-0.041772585
230	0xbd4343c4	-0.04767205
231	0xbd5dc814	-0.054145887
232	0x3d810824	0.06300381
233	0x3a8ee7c9	0.0010902818
234	0x3d7dcb8e	0.061961703
235	0xbbc0f070	-0.0058880374
236	0x3d4cf2d0	0.05003625
237	0x390d5d51	0.00013481571
238	0xbd04aba9	-0.03239027
239	0x3c2843c8	0.010270067
240	0x3c103ef8	0.008804075
241	0x3d3a952a	0.04555241
242	0x3d9042b5	0.07043973
243	0x3d17ffa1	0.03710902
244	0xbd522bfc	-0.051311478
245	0x3cfd37ef	0.03091046
246	0x3cf30838	0.029667005
247	0x3d03a27b	0.032137375
248	0x3d384b96	0.04499396
249	0xbd77412a	-0.06036488
250	0x3c892690	0.01674202
251	0xbd370a82	-0.044687755
252	0x3d49d3f0	0.049274385
253	0xbccfac65	-0.025350759
254	0x3d515d1e	0.051114194
255	0xbbd48830	-0.0064859614

linear4.bias f4 [256]
0	0xbce94c87	-0.028478874
1	0x3bdedee3	0.0068014725
2	0xbbf1170a	-0.007357483
3	0x3c84bf8d	0.01620462
4	0x3cd6c0b0	0.026214927
5	0x3cfb9876	0.030712347
6	0x3d47c81f	0.048774835
7	0x3c955008	0.018226638
8	0xbd7236a6	-0.059134148
9	0xbc716b9f	-0.0147351315
10	0x3d4f5848	0.0506213
11	0xbd82755e	-0.06370042
12	0xbccdcb28	-0.025121287
13	0x3ce4247e	0.027849432
14	0xbaa0d726	-0.001227115
15	0xbd464074	-0.04840131
16	0xbc1d4230	-0.0095983
17	0xbbc50c72	-0.0060134465
18	0xbd391153	-0.045182537
19	0xbd310138	-0.043214053
20	0x3ae22c04	0.0017255549
21	0x3d6e23c0	0.058139563
22	0x3c7c2ef5	0.015392055
23	0xbd51457c	-0.051091656
24	0x3b83a560	0.004017517
25	0x3d0b1507	0.0339556
26	0x3bd98cec	0.0066391136
27	0xbd82bc8f	-0.06383621
28	0x3cfdcc6a	0.030981261
29	0x3cfe68c8	0.031055823
30	0x3d5ef888	0.054436237
31	0x3d394896	0.04523524
32	0xbd419eac	-0.047270462
33	0xbd0f6552	-0.035008736
34	0xbd055876	-0.032555066
35	0x3d585a94	0.052820757
36	0xbd5080f1	-0.050904218
37	0x3cfc1eff	0.030776499
38	0xbd1eba10	-0.03875166
39	0x3c4dfb7c	0.012572166
40	0x3d5f7170	0.05455154
41	0xbca564e4	-0.02018971
42	0xbd21efd2	-0.03953535
43	0xbceed594	-0.029154576
44	0xbd73f7c5	-0.059562463
45	0x3d516da9	0.05112997
46	0x3d24cd6c	0.040234968
47	0x3cf4df5e	0.029891666
48	0x3d2ea267	0.042635348
49	0x3c21f4a4	0.009884987
50	0xbd51f15b	-0.051255565
51	0x3c630d1b	0.013858105
52	0x3b8c83f2	0.00428819
53	0xbd753522	-0.059865125
54	0x3bcc4f03	0.006235005
55	0x3c0880fb	0.008331533
56	0xbd281d46	-0.041043542
57	0x3ccb0262	0.02478141
58	0x3d5bc2e2	0.05365265
59	0x3d2cb96f	0.04216903
60	0x3d5868f9	0.052834485
61	0x3c780f15	0.015140315
62	0x3d235709	0.039877925
63	0x3cb0db51	0.021588953
64	0x3c3f69f7	0.011682979
65	0x3d65896e	0.056039266
66	0x3c8aae6c	0.016928874
67	0xbce25450	-0.027628094
68	0x3ce24884	0.027622469
69	0xbc3e3e31	-0.011611507
70	0x3c9667ce	0.018360045
71	0xbd3e8d5f	-0.04652154
72	0x3c629d8d	0.013831508
73	0x3d2533e5	0.040332694
74	0x3cf5dd90	0.030012876
75	0xbc7f956e	-0.015599592
76	0xbd6c7532	-0.057728954
77	0x3c0833bc	0.008313116
78	0x3c78792e	0.01516561
79	0xbcb907e7	-0.022586776
80	0xbd35b4f7	-0.044362035
81	0x3c94ac31	0.018148514
82	0xbd2dcfdd	-0.042434562
83	0x3be8fa31	0.0071099033
84	0xbc714c13	-0.01472761
85	0x3d606c76	0.054790936
86	0xbcde46a9	-0.027133303
87	0x3d0bf151	0.034165684
88	0x3cc71c98	0.024305627
89	0x3d88b1a6	0.06674509
90	0x3c171f42	0.009223761
91	0x3cc8d3ce	0.024515059
92	0x3cc133a1	0.023584189
93	0xbd6163ae	-0.055026703
94	0xbd1c34a6	-0.038136147
95	0xbc71658b	-0.014733682
96	0xbc8c2d65	-0.01711149
97	0xbd003b24	-0.0313064
98	0xbd038505	-0.03210928
99	0x3d3d5496	0.046223246
100	0xba445cf2	-0.00074906566
101	0xbd2bcac5	-0.041941423
102	0xbd79495e	-0.060860984
103	0x3d68283e	0.056679003
104	0xbd0a6d6d	-0.033795763
105	0x3d466a5c	0.048441276
106	0xbc1ec739	-0.009691053
107	0xbcceb73b	-0.025233855
108	0x3d4464fe	0.047947876
109	0x3d33e653	0.043920826
110	0xbc0665f0	-0.008203015
111	0x3bd9397b	0.0066291667
112	0xbce02130	-0.027359575
113	0xbcfbbdda	-0.030730177
114	0xbc1fbda4	-0.009749804
115	0xbd68cf12	-0.056838103
116	0xbccde00d	-0.02513125
117	0xbce613fc	-0.028085701
118	0x3cb1ba87	0.021695388
119	0xbc2f324f	-0.010693147
120	0xbd059831	-0.032615844
121	0x3c4fbcf3	0.012679326
122	0x3d10abe6	0.035320185
123	0xbce98762	-0.028506938
124	0xbd2c802c	-0.04211442
125	0x3cdfc9d7	0.027317924
126	0x3c03e5f6	0.008050432
127	0x3d0aa8ce	0.03385239
128	0x3c1e1f80	0.009651065
129	0xbd6b64b8	-0.0574691
130	0x3d4a96d3	0.049460243
131	0x3d052db0	0.032514274
132	0xbd27f095	-0.04100092
133	0x3ca50d12	0.020147834
134	0x3c8158d4	0.015789427
135	0xbc7b6050	-0.015342787
136	0x3d08c74d	0.033393193
137	0x3cb9ecea	0.022695977
138	0x3bcf4b31	0.006326102
139	0xbd09f825	-0.033683915
140	0xbc906a07	-0.017628683
141	0xbce1dd44	-0.027571328
142	0xbd4f9f7e	-0.050689213
143	0xbcd263ed	-0.025682414
144	0xbce1d934	-0.02756939
145	0xbc9355ee	-0.01798531
146	0x3c58b769	0.013227322
147	0xbd21d324	-0.039508
148	0x3bf4156f	0.007448844
149	0x3d2f6af5	0.04282661
150	0xbca5c8e4	-0.020237394
151	0xbd41dd33	-0.047330093
152	0x3d2f6bc8	0.042827398
153	0xbc11fb01	-0.008909942
154	0x3d32a3bb	0.043613177
155	0xbc7da94a	-0.015482256
156	0x3d397ea0	0.045286775
157	0xbd0e0f6f	-0.034682687
158	0x3d20bd14	0.03924282
159	0xbd4da53c	-0.050206408
160	0xbd41f2fb	-0.047350865
161	0xbccb886c	-0.024845324
162	0xbd103e43	-0.035215627
163	0xbbafe234	-0.0053675417
164	0xbd583683	-0.05278636
165	0xbccacb32	-0.024755094
166	0x3d0bffdc	0.034179553
167	0x3d4040e6	0.046936892
168	0xbd452ce4	-0.048138514
169	0xbcacefe8	-0.02111049
170	0x3d28197e	0.041039936
171	0x3d527987	0.05138543
172	0xbd79b08c	-0.060959384
173	0x3d7157f7	0.05892178
174	0xbc8a95b6	-0.01691709
175	0xbd634281	-0.055483345
176	0xbd70be96	-0.058775507
177	0xbd2f9f20	-0.042876363
178	0xbcd71b83	-0.026258236
179	0x3bf969a5	0.0076114708
180	0xbd2e4d77	-0.042554345
181	0x3d080180	0.033204556
182	0xbd420b06	-0.047373794
183	0x3cda0e2c	0.026618086
184	0x3d03fc71	0.03222317
185	0x3d664d30	0.056225955
186	0xbd3803a0	-0.044925332
187	0x3d08ac00	0.033367157
188	0xbc52a9a9	-0.012857833
189	0x3d33283c	0.043739542
190	0x3d63de0d	0.055631686
191	0xbae7b568	-0.0017677965
192	0xbd3c200e	-0.045929007
193	0x3d33ca51	0.043894116
194	0xbbb6bdc9	-0.0055768234
195	0xbd1d82b8	-0.03845474
196	0x3d1db837	0.03850576
197	0xbce2960e	-0.027659442
198	0x3c9971c5	0.018731007
199	0x3d392069	0.045196924
200	0xbd14f094	-0.036362246
201	0x3c5b7022	0.013393434
202	0x3d5e896f	0.054330286
203	0xbceef78c	-0.029170774
204	0x3c89c9e0	0.016819894
205	0xbc1d8c19	-0.009615921
206	0x3d3f2f88	0.04667619
207	0xbca5b6d3	-0.020228779
208	0xbd5167c9	-0.051124368
209	0x3d246a71	0.040140573
210	0x3d281e12	0.041044302
211	0xbd70d9e6	-0.058801554
212	0xbcc03354	-0.023461975
213	0x3d18e9b0	0.037332237
214	0x3cce7959	0.025204347
215	0x3d3d86be	0.04627108
216	0x3d16e6e4	0.03684129
217	0xbbdbc3bb	-0.0067066825
218	0x3acc7cdd	0.0015601177
219	0xba3835d3	-0.00070270634
220	0x3d1a4f98	0.037673563
221	0xbd08aa1f	-0.033365365
222	0x3cc91d00	0.024549961
223	0xbc4c4c8a	-0.01246942
224	0xbb08e84b	-0.002089041
225	0xbcd1fd0b	-0.025633356
226	0xbd13d9d2	-0.0360964
227	0x3d4a8995	0.049447615
228	0xbcca655b	-0.024706533
229	0x3d308cf6	0.04310318
230	0x3d2eb132	0.042649455
231	0xbcf5b164	-0.029991813
232	0x3d43ce66	0.04780426
233	0x3c9f28b0	0.019428581
234	0x3cb93359	0.022607492
235	0x3d3650fe	0.044510834
236	0x3c9331ee	0.017968144
237	0xbd6a6425	-0.05722441
238	0xbd4d1e19	-0.05007753
239	0xbc998659	-0.01874082
240	0x3d3a127a	0.045427777
241	0xbb6764a2	-0.0035307785
242	0xbb851068	-0.0040607937
243	0x3d08a394	0.033359125
244	0xbd37ce03	-0.044874202
245	0xbc26a474	-0.010171045
246	0x3d272b10	0.040812552
247	0xbc04ee2b	-0.008113424
248	0xbd433eda	-0.04766736
249	0x3caa90a8	0.02082093
250	0xbc84b15f	-0.016197858
251	0x3d2cb78f	0.042167243
252	0x3cdbe17b	0.026840916
253	0x3d28c446	0.041202806
254	0xbcfaf233	-0.030633068
255	0x3d107f77	0.03527781

linear3.weight f4 [1, 256]
0	0x3cd5ceb1	0.026099535
1	0xba8a413e	-0.0010548008
2	0x3ba8207b	0.005130825
3	0x3b4e9e16	0.0031527332
4	0x3ae04de1	0.0017113053
5	0x3c6a8c63	0.014315697
6	0xba0238e9	-0.0004967587
7	0x3aa18e04	0.0012325649
8	0x3940c55f	0.00018384073
9	0x3b002b1c	0.0019556945
10	0x3af0a9c0	0.0018361136
11	0x3a8a5b90	0.0010555852
12	0x3cb2bc79	0.021818386
13	0x3b8f0904	0.0043650884
14	0x3b91dabd	0.0044511245
15	0x3b0ee406	0.0021803393
16	0x3ae35d01	0.0017346443
17	0x3bea029d	0.007141425
18	0xb9c16b34	-0.000368917
19	0x3a5c364c	0.0008400425
20	0xba82c98b	-0.0009978277
21	0xba4774c3	-0.00076086464
22	0xb6826dde	-3.887092e-06
23	0x3aa0b67c	0.0012261416
24	0x3b1ae4e6	0.002363497
25	0xba7c7053	-0.0009629775
26	0x3ce55adb	0.027997425
27	0x38d80746	0.000103010374
28	0xb7bf685b	-2.2817569e-05
29	0x3a99027a	0.0011673712
30	0x3b386248	0.0028134752
31	0x3b234122	0.0024910648
32	0xbb19011b	-0.0023346606
33	0xb772fbc8	-1.4482946e-05
34	0x3aad7c2c	0.0013235859
35	0x3ba592b3	0.0050528883
36	0x3a35d2d6	0.0006936019
37	0x3b14e37a	0.0022718594
38	0xbb06455d	-0.002048812
39	0xb90e7abd	-0.00013587899
40	0x3b4aef56	0.003096541
41	0x3a254dd4	0.0006305848
42	0x3c2a3ad0	0.010389999
43	0xbacf5caa	-0.0015820463
44	0xba89231c	-0.0010462734
45	0x3a0ee61d	0.00054511597
46	0x3962433c	0.00021578086
47	0x3cad17eb	0.021129569
48	0x3be65ae6	0.007029879
49	0xb7e0b746	-2.6788224e-05
50	0x3af12b35	0.0018399718
51	0x3a258fcc	0.0006315678
52	0x3ab8e00d	0.0014104858
53	0xbb20499b	-0.0024457935
54	0x3c48c528	0.012254037
55	0x39c820e8	0.0003817149
56	0x3b05feaf	0.0020445993
57	0x3b3348d2	0.0027356637
58	0xba2ef3b0	-0.00066738855
59	0x3b0a5e1c	0.0021113222
60	0x3a655021	0.0008747597
61	0x3ae665bf	0.001757793
62	0x3aae18fe	0.0013282595
63	0xb9d6f796	-0.00041001727
64	0x3cc043b4	0.023469783
65	0xba4fd344	-0.00079279044
66	0xbb31207a	-0.0027027414
67	0xbac9f8c9	-0.0015409227
68	0x391cccf0	0.00014953665
69	0x3af2136b	0.0018468922
70	0x3ad78fb4	0.0016446025
71	0x3c356e19	0.011073613
72	0x39e597fe	0.00043791527
73	0x3bbd3805	0.0057745003
74	0x3ad406a6	0.0016176298
75	0x3bbd8596	0.005783747
76	0x3b23f8c4	0.0025020102
77	0x3aa142ae	0.0012303197
78	0x3a8ba660	0.0010654442
79	0x3ba642fc	0.005073903
80	0x3b38bac9	0.0028187505
81	0x3bf33e1b	0.007423175
82	0xb996dacc	-0.00028773246
83	0x3ac4c816	0.0015013244
84	0x3b25ed76	0.002531854
85	0x3b1a7542	0.0023568426
86	0x3b8e4493	0.004341671
87	0xb8b3fa8d	-8.582054e-05
88	0x3af61e5f	0.0018777362
89	0x3ba0bc42	0.0049052546
90	0x3baa558d	0.0051981867
91	0xbae819f4	-0.001770793
92	0x3b26243e	0.0025351192
93	0xbaae7952	-0.0013311303
94	0x3cb601c5	0.02221764
95	0x3ba87151	0.0051404615
96	0x3b4f0af2	0.0031592217
97	0xbb2235e0	-0.002475135
98	0x3afb2042	0.0019159394
99	0x3a703f3d	0.00091646967
100	0x3aa4c409	0.001257063
101	0xb83e2227	-4.5331337e-05
102	0x3b159c44	0.0022828737
103	0x3c0b1a00	0.008490086
104	0x3ccae66f	0.024768082
105	0x3a76b205	0.0009410682
106	0x3cd7dd81	0.026350738
107	0x3a8224f1	0.0009929222
108	0x3adf47b3	0.0017034918
109	0xb8ed6e5c	-0.00011321597
110	0x397f4440	0.0002434412
111	0xbb0c4c52	-0.0021407795
112	0x39fe99ad	0.00048561153
113	0x39ee4caa	0.00045452017
114	0xba088907	-0.0005208407
115	0x3b8630cb	0.004095172
116	0xba41442f	-0.0007372526
117	0xba3a0ae0	-0.00070969574
118	0x3cb91416	0.022592586
119	0x3cf1ade0	0.029501855
120	0x3a237b5e	0.00062363397
121	0xb9c871e3	-0.00038231825
122	0x3cd09585	0.025461921
123	0x3b1cda4d	0.0023933828
124	0xb989cfb8	-0.0002628544
125	0x3c1d5ab9	0.0096041495
126	0x3bc0f927	0.0058890763
127	0xbaa42ed1	-0.0012526159
128	0x3b209930	0.002450537
129	0x3a52af7d	0.0008037014
130	0x39ea7e1e	0.00044725923
131	0x3a17e5fa	0.0005794462
132	0x3b324398	0.0027200934
133	0xba1434a8	-0.00056535983
134	0x3af08c93	0.0018352441
135	0x3a7d3be6	0.00096601096
136	0x3aa67a1c	0.0012701186
137	0x3b903245	0.004400524
138	0x39b253ff	0.00034013388
139	0x3ca9e009	0.020736711
140	0x3b9f7d85	0.004867258
141	0xbaad2e3a	-0.0013212629
142	0xba611d90	-0.0008587474
143	0x3b8413c8	0.0040306784
144	0x3a2df4fa	0.00066359306
145	0xb9fc2622	-0.00048093597
146	0xba20feeb	-0.00061415014
147	0xba591112	-0.0008280437
148	0x39b293be	0.00034060882
149	0xbac730a5	-0.0015196992
150	0x3a635957	0.00086726755
151	0x3be79bbe	0.0070681265
152	0x3b838800	0.004014015
153	0x3aae5731	0.0013301132
154	0xba43f4ca	-0.0007475136
155	0xb88d15db	-6.727475e-05
156	0x3cab3b5a	0.020902324
157	0x3c3cbbdb	0.011519398
158	0x3ac7f168	0.001525444
159	0xb988ceba	-0.00026093965
160	0x3bd6766e	0.0065448796
161	0x39c608b8	0.00037772
162	0xb8818183	-6.175323e-05
163	0xb9274665	-0.00015952585
164	0xb9a7ae1e	-0.0003198245
165	0x3acb408a	0.0015506905
166	0x3b6e7e58	0.0036391225
167	0x3b47fb43	0.0030514754
168	0x3a8a23b8	0.001053921
169	0x3aabee84	0.0013117348
170	0x3bdecba3	0.0067991777
171	0x3ae0eeae	0.0017160976
172	0x3aa472e8	0.0012546452
173	0x3cdfccb1	0.027319284
174	0x3ab56dc2	0.0013841914
175	0xbaa75cc1	-0.0012768732
176	0xbb3e7178	-0.0029059332
177	0x3b988318	0.0046542995
178	0x39139f93	0.00014078458
179	0x3b9acf3d	0.0047244118
180	0x3a2074e7	0.00061209354
181	0x3b72ed30	0.0037067644
182	0xb925dfab	-0.00015818949
183	0x39a2341f	0.0003093788
184	0xb8f07c29	-0.000114672184
185	0xbacb9208	-0.0015531192
186	0x3b838fbf	0.0040149386
187	0x3a7a30ff	0.0009544044
188	0x3b3f8b8f	0.002922747
189	0x3a984a14	0.0011618757
190	0xb9ee9ee8	-0.00045513292
191	0x3b84fe8e	0.0040586656
192	0x399e83e0	0.00030234363
193	0x3c5211dd	0.012821642
194	0x39fdb860	0.0004839329
195	0x3babda99	0.0052445647
196	0xbae21cf1	-0.0017251057
197	0x3b816bf6	0.0039496375
198	0xba1170a0	-0.00055480935
199	0x3cbf7384	0.023370512
200	0xbb0f3ef5	-0.0021857594
201	0x3ae9f909	0.0017850708
202	0xbaa4367c	-0.0012528445
203	0xba138034	-0.0005626709
204	0xb96df970	-0.00022695004
205	0x3af7494f	0.0018866452
206	0x3b8a6f5d	0.0042247013
207	0x3b8c7a45	0.0042870366
208	0x3ce31384	0.027719267
209	0xba128b86	-0.00055902486
210	0xba5222df	-0.00080160605
211	0xbaec409a	-0.0018024624
212	0xbb3ff450	-0.0029289909
213	0x3ad30c33	0.0016101658
214	0x3967c753	0.00022104131
215	0x3817c4d3	3.6184512e-05
216	0x3a2d9e04	0.00066229724
217	0x3c0761eb	0.008263092
218	0xbb2483c4	-0.0025102952
219	0x3af68228	0.00188071
220	0x3ad89df1	0.0016526562
221	0x3bb3a012	0.0054817284
222	0x3b25cfe5	0.0025300917
223	0x3b97d6a6	0.0046337424
224	0x3a79ab13	0.0009524088
225	0x3ba6cb62	0.005090163
226	0x3b183ada	0.0023228438
227	0x3ba372d3	0.0049880533
228	0x3b0aee1c	0.0021199053
229	0x39945cbb	0.0002829785
230	0x3adf4472	0.0017033948
231	0xba8e1724	-0.0010840637
232	0x3b334b44	0.0027358094
233	0x3b263a0e	0.0025364193
234	0x3cb63a09	0.02224447
235	0x3d1d37a2	0.038383134
236	0xbb1f545d	-0.002431176
237	0x3a5f2a0a	0.0008513039
238	0x3a39569e	0.0007070097
239	0x3b7698b2	0.0037627635
240	0x3af7c043	0.0018901903
241	0x3a9bbb9e	0.0011881476
242	0x3c946e23	0.018118924
243	0x38d09520	9.9459896e-05
244	0x3ba827a4	0.0051316787
245	0x3aea1266	0.0017858266
246	0x3ac44c47	0.0014976346
247	0x3a1fbd4d	0.00060935767
248	0x3b1ea3cf	0.0024206524
249	0x3a95e054	0.0011434653
250	0x39658d50	0.00021891785
251	0xb9e07c30	-0.00042817136
252	0x3c19cb2f	0.009386822
253	0x3b550a50	0.0032507367
254	0x3a50a4b2	0.0007959112
255	0x3aa729af	0.0012753512
