outputs/Optimal_Control/20220329-100735/models/checkpoint.pt (torch, 533487 bytes, 7 tensors)

linear1.weight f4 [256, 2]
000000 32 bf a3 3d f9 cf d3 be b3 a5 18 3e 4f 71 64 3e
       0.07995452 -0.41369608 0.14906959 0.22308849
000010 05 d1 07 bf fc c3 e0 be 1d 99 1e bf 4d 84 bc be
       -0.53053313 -0.43899524 -0.6195238 -0.36819687
000020 4a c1 0c 3f b6 75 ae bd 72 97 0b 3f 80 9d 44 bf
       0.54982436 -0.08518545 0.5452796 -0.76802826
000030 f1 89 c0 3c d0 68 49 3c f2 8e 56 be 32 90 11 bf
       0.023503276 0.012293056 -0.20952967 -0.5686065
000040 c1 93 1e bf 5a 13 39 3f 9d 0d df be 36 8c 81 3e
       -0.61944205 0.72295153 -0.43565074 0.25302285
000050 7f 7f 28 bf c8 25 88 3d 0c 54 14 3e 9c 9a aa 3e
       -0.65819544 0.06647831 0.14485186 0.33321083
000060 b9 f9 e8 bc da dd 38 3e 36 0f 1b bf 98 61 de 3d
       -0.02843939 0.1805338 -0.60570085 0.10858458
000070 ab 1b 95 be 70 ca c1 bd 97 47 e2 be 78 f0 99 3d
       -0.2912267 -0.0946244 -0.44195244 0.07516569
000080 db 5a 6f bd 39 5e 24 3f bd 0d b0 3e e0 e7 9b 3d
       -0.058436256 0.6420627 0.3438548 0.07612586
000090 8c 74 d2 3e 27 d0 b0 be 68 66 89 be 48 d7 1d 3e
       0.41104543 -0.34533808 -0.26835942 0.15414155
0000a0 5c e9 2b bf 3e cd 8c 3e 09 d1 19 bd ec 96 3b 3f
       -0.67152953 0.27500337 -0.037552867 0.73277164
0000b0 8c 2f cc 3e a3 13 18 3f e7 48 a0 3e 2b ba 37 bf
       0.39880025 0.59404963 0.3130562 -0.71768445
0000c0 09 7a ba 3d 84 dd d4 be 7f 6d 26 bf 14 3b 27 bf
       0.091053076 -0.41575253 -0.6501083 -0.6532452
0000d0 ca 90 5d be 3d a3 ab be bd ea 21 bf 83 8e 1d 3f
       -0.21637264 -0.33522978 -0.6324881 0.6154558
0000e0 28 f2 23 be b0 2c 44 3f 1d 98 ba be 20 b1 2e be
       -0.16010344 0.7663069 -0.36444178 -0.17059755
0000f0 fa 4d 11 3f 52 31 12 bf 86 56 18 bf 6c 3a 02 3e
       0.5675961 -0.57106507 -0.59507024 0.12717599
000100 aa 6b 0b bf a4 c7 f1 be eb 57 7f 3e 7b 8c 92 be
       -0.5446116 -0.47222626 0.24935882 -0.28622803
000110 fb 68 99 3e 6f 56 06 bf 7d ce 10 3f b6 12 e4 3e
       0.29962906 -0.5247564 0.56565076 0.44545525
000120 bc 65 21 bf 38 e2 88 bd b2 d8 0f bf 0a 83 cb 3e
       -0.6304586 -0.06683773 -0.56190026 0.39748412
000130 90 d2 b7 3e 0a 8f 8f be 4b 24 e1 be 98 ad df 3d
       0.35902834 -0.28038818 -0.43973002 0.10921782
000140 72 e0 6f bd 5f fa 25 3f 9a a4 a3 3e e8 31 13 3f
       -0.058563657 0.6483516 0.3196152 0.57498026
000150 bf 84 a0 be 3b 53 8f be 86 82 bd 3e e5 8f 7d bc
       -0.31351277 -0.27993187 0.37013644 -0.015476202
000160 b7 86 03 be a6 24 c4 3d 2d 8c da 3e b5 e1 52 bf
       -0.12844358 0.09577303 0.4268507 -0.8237565
000170 4a c1 6f be f0 d5 1c 3d d7 60 0c bf ce 2f 62 be
       -0.23413578 0.038289964 -0.54835266 -0.22088549
000180 ee ff 2a bd 75 8b fe 3e 94 d8 33 bf f0 bc 3f 3e
       -0.04174798 0.49715772 -0.70252347 0.18724418
000190 f6 ce 18 3f 56 57 1b 3f 76 ae 04 3e ec 08 2f bf
       0.596908 0.6068014 0.12957177 -0.6837299
0001a0 cf 87 00 bd 4b f6 15 3f 72 ef ef 3d 69 e9 9f bc
       -0.031379517 0.5857894 0.117155924 -0.019520478
0001b0 14 f4 04 bf 36 9c ae 3e 42 29 de 3e 3b 3d fa 3e
       -0.51934934 0.34103554 0.43390852 0.4887484
0001c0 ef a3 a6 3e bd ed df be dc bb c0 3d 4c 79 86 be
       0.32546946 -0.43736067 0.09410831 -0.26264417
0001d0 29 14 eb 3b c3 a0 06 3e 9b 3f 8f be b0 01 2f bf
       0.007174034 0.13147263 -0.27978215 -0.6836195
0001e0 90 4a 86 bd f0 69 84 bd 40 22 ca bd 06 54 25 bf
       -0.065571904 -0.064655185 -0.09869814 -0.64581335
0001f0 d6 c8 16 bd 51 89 d0 3e 00 38 45 3e cb fd 85 3e
       -0.036812626 0.40729764 0.19259644 0.2617019
000200 85 be 30 bf ab 62 2d 3f 04 14 37 be a8 43 cf be
       -0.6904071 0.6772868 -0.17878729 -0.40481305
000210 0b 8c d4 be a2 f9 ac be d2 2a 90 3d 9f a9 1a be
       -0.41513094 -0.33784205 0.07039417 -0.15103768
000220 71 cc 34 bf 9a f4 ac 3e e6 36 08 bf bd 55 08 3f
       -0.7062445 0.33780366 -0.5320877 0.53255826
000230 80 20 28 3e b0 1f a6 be 52 60 df 3d c9 9a 97 3d
       0.16418648 -0.3244605 0.109070435 0.0740257
000240 d6 e6 2f bf d2 73 c7 3e 2a 35 ea be 24 3d 13 be
       -0.687116 0.3895555 -0.45743686 -0.14378792
000250 39 e6 a7 3e 3e 28 97 3e 02 77 ae 3e 90 2e 00 bf
       0.32792833 0.2952289 0.3407517 -0.5007105
000260 26 59 0e 3d 2a a9 f3 3e bf ca 9d 3e e7 70 a7 be
       0.034752987 0.4759 0.30818745 -0.32703325
000270 39 07 cd 3d 12 c9 02 3f 1d a4 c2 be 1c 66 89 be
       0.10011143 0.5108806 -0.38015833 -0.26835716
000280 ae d7 a8 3e 05 90 8e 3e b4 c5 c7 3e 08 94 26 be
       0.3297705 0.27844253 0.39018023 -0.16267407
000290 51 d6 ce be a5 0f 35 3f 2e e7 8d be 60 d7 e5 3d
       -0.40397885 0.70726997 -0.2771544 0.1122272
0002a0 c7 cb 02 bf e8 6a 0a bf 92 e7 d8 be 58 5a 14 bf
       -0.5109219 -0.54069376 -0.42364174 -0.57950354
0002b0 2b e4 72 3e 89 c4 69 bf c4 73 f4 be 38 e6 bd bd
       0.23719852 -0.91315514 -0.47744572 -0.09272426
0002c0 50 b1 00 bf e4 c6 14 bf 5c 65 4f be d0 13 e8 3d
       -0.5027056 -0.58115983 -0.2025351 0.11331904
0002d0 1f 06 e6 3e 14 b1 df be 08 ea db bd d8 3e 1f be
       0.44926545 -0.43689787 -0.10737997 -0.15551317
0002e0 2a cc 72 be b8 8d 32 be 1d 3f f4 3d 94 5f a9 3e
       -0.23710695 -0.17436874 0.119261004 0.33080733
0002f0 b0 4a 20 3f 36 fe 14 bf eb 1a 3c 3e 69 d5 36 be
       0.62613964 -0.58200395 0.18369643 -0.17854847
000300 86 3f a5 be 89 39 09 bf b6 a4 08 bf ab e2 00 3f
       -0.32275027 -0.53603417 -0.5337633 0.5034587
000310 03 25 be 3e 87 1a cc be bd a5 f4 3e c4 a0 89 be
       0.37137613 -0.3986399 0.47782698 -0.26880467
000320 ec e2 be be d2 e2 a3 3e a4 a5 04 bf ec aa 25 be
       -0.37282503 0.32008988 -0.5181525 -0.16178483
000330 3b 36 df 3e ec e1 8f be 18 19 ef be c2 10 dd 3e
       0.43596062 -0.28102052 -0.46698833 0.43176848
000340 79 98 09 3f 29 dc c7 be 00 f2 dc bb a0 0a 2e bf
       0.5374828 -0.39035156 -0.006742716 -0.6798496
000350 3d a9 d8 3e e4 ff 5c 3e 89 48 d0 3d 1a 74 2a bf
       0.4231662 0.2158199 0.10170085 -0.66583407
000360 95 62 b4 3e 24 8f ed be e3 14 f9 3e ea 98 37 bf
       0.35231462 -0.4639827 0.48648748 -0.71717703
000370 e7 03 e1 be 96 7b b1 be ea 4a e0 be e6 63 32 bf
       -0.4394829 -0.346646 -0.43807155 -0.6968368
000380 84 38 16 3e d8 0e 08 3f dc 67 09 3e 36 22 1a bf
       0.14669997 0.5314765 0.13418525 -0.6020845
000390 03 a3 40 3e bc 4b c0 be d2 75 07 bf 18 f0 0a bf
       0.18812184 -0.3755778 -0.52914155 -0.54272604
0003a0 17 f3 f3 bc 06 65 0f 3f 7b 6b 1f bf 03 a4 a7 be
       -0.029779 0.56013525 -0.6227338 -0.3274232
0003b0 4a 4e 94 3e 65 75 a4 3e da ca 34 3e 65 83 95 3c
       0.2896598 0.32120815 0.17655507 0.01825113
0003c0 43 d9 01 bf 3d ea 06 3f 41 96 ac 3e 72 c2 1c bf
       -0.5072214 0.5270117 0.33708385 -0.612342
0003d0 1b 85 ef be b0 f9 69 3e 3d 4a d6 be f2 b3 85 3e
       -0.4678124 0.22849154 -0.41853514 0.2611385
0003e0 e4 c9 b2 3e 73 3a 63 bf 70 4b 86 3e b2 72 9a bd
       0.34919655 -0.8876106 0.2622943 -0.07541408
0003f0 df d7 92 be ac fd 83 3e d2 95 22 bf f6 b5 1f 3f
       -0.28680322 0.25779474 -0.6350986 0.62387025

linear1.bias f4 [256]
000000 2b 82 12 3f 83 57 83 bf 25 8d 87 3e 94 7e 31 3f
       0.5722987 -1.0261081 0.26474872 0.6933377
000010 05 87 a7 be 9f ad 05 3f 5e 3f 9b 3e f8 83 f1 bd
       -0.327202 0.5221805 0.30321783 -0.11792749
000020 67 65 d6 3e 16 4d f2 be d6 18 02 bf 42 e8 5f bf
       0.4187424 -0.47324437 -0.50819147 -0.8746377
000030 e7 5f e0 3d 44 db 27 bf 66 90 d6 3e 88 95 2a 3f
       0.10955792 -0.6556895 0.41907042 0.66634417
000040 01 e7 8a 3f 30 e4 4b bf a4 f0 8b bf c2 8b 00 bf
       1.0851747 -0.7964506 -1.0932813 -0.50213253
000050 31 b7 10 bf ee a8 5b 3f 06 5b 82 3f 65 69 7b bf
       -0.5652953 0.8580464 1.0184028 -0.98207694
000060 a5 0f 0a be 51 5b a4 be cf 35 c1 be c0 76 ca bc
       -0.1348253 -0.3210092 -0.37736365 -0.024714828
000070 ea ed 69 bf ee 08 f1 be 46 c9 91 3f 4c 35 cf 3e
       -0.91378653 -0.47077125 1.1389549 0.4047035
000080 15 b2 7e 3e 96 b4 5c 3f 8f 28 4b bf f6 51 8a bf
       0.2487262 0.8621305 -0.7935876 -1.0806262
000090 1d 97 2c bf 8d 78 08 3e 9d a1 4a bf 4b 2e df 3e
       -0.6741808 0.13327236 -0.7915285 0.43590006
0000a0 b8 c6 62 3f 68 31 c7 be b2 7e 59 be 00 c7 aa bf
       0.8858447 -0.3890488 -0.21239737 -1.334198
0000b0 9f 94 9b 3e 72 a6 87 bf 40 3c 0c be 7c 6b 9f be
       0.30386826 -1.059767 -0.13694859 -0.31136692
0000c0 57 93 20 3f dc 20 36 be 56 2a 07 3e 21 c9 9e 3e
       0.6272482 -0.17785972 0.13199744 0.31012824
0000d0 1d 25 a8 bf af 00 91 bf 23 d2 a2 3e 80 2b d1 be
       -1.3136326 -1.1328334 0.31800947 -0.408535
0000e0 e4 6b fb 3e b6 5a 86 3f 15 cf 38 3f 14 7d 7f 3e
       0.49105752 1.0496433 0.7219098 0.24950057
0000f0 fa 6e c7 3e 75 b7 23 3f 9f b6 a8 3f be 36 6f 3f
       0.38951856 0.6395181 1.3180732 0.93442905
000100 00 40 d6 b8 00 a2 22 3f a5 27 c9 3d 9f a5 ee 3e
       -0.00010216236 0.6352844 0.09822015 0.46610734
000110 1f e9 85 be 84 bb 49 be e8 8e 77 3f 05 00 92 bf
       -0.2615442 -0.19700438 0.9670243 -1.1406256
000120 c8 36 cc bd 86 c9 24 3f 65 10 47 bf 18 46 6b 3f
       -0.09971386 0.6437 -0.7775939 0.9190383
000130 74 f9 9a bf cb 52 d0 3e 37 a7 87 bf 25 93 76 3e
       -1.2107377 0.40688166 -1.0597905 0.24079569
000140 e5 f5 6b be f2 e4 3e bf 8a 73 36 3e 48 c2 2c be
       -0.2304302 -0.7456809 0.17817512 -0.16870987
000150 5c 0b bd 3e c5 39 c8 3e cd e7 ed bd ac 12 25 be
       0.3692273 0.39106575 -0.11616478 -0.16120404
000160 8d b1 27 3f 50 df 32 be 81 6a 38 3f b1 a5 04 bf
       0.65505296 -0.17468 0.7203751 -0.51815325
000170 6e 21 01 3f 81 74 04 bf 4d c3 8d 3f 18 bd 9f be
       0.50441635 -0.5174027 1.1075226 -0.31198955
000180 3a 00 66 be 7a cf 02 bf a4 66 20 3f f1 75 9f bf
       -0.22461024 -0.51097834 0.6265662 -1.2457868
000190 38 54 40 be 4a d7 0c bf d5 09 4e bf f2 90 fc be
       -0.18782127 -0.55016005 -0.8048375 -0.49329334
0001a0 9f 63 2e 3f 0b 0b 98 3d 61 33 ed 3d b8 b8 07 bf
       0.6812076 0.07423981 0.115820654 -0.53016233
0001b0 04 61 f6 bd 74 3e 72 bf fe 4f 56 be 93 92 1d bf
       -0.12030223 -0.94626546 -0.20928952 -0.6155178
0001c0 96 75 81 bf 56 13 40 3f e7 17 32 bf 4f ca 9a be
       -1.0114009 0.75029504 -0.6956772 -0.30232474
0001d0 23 80 97 bf a3 9a aa 3e 81 7f b1 bf 8a c9 84 3f
       -1.1835979 0.33321103 -1.3867036 1.0374005
0001e0 6f 8a 06 bf 4a 47 19 3f 30 87 a5 bd bb 14 0d 3e
       -0.5255498 0.59874403 -0.080824256 0.1377744
0001f0 4d 2d 10 bf 6a 42 a2 3f 4c e5 ea 3d bd 02 b2 3d
       -0.56319124 1.2676518 0.11469516 0.086919285
000200 e1 ab c7 3d 44 e9 63 bf 2c 2b d6 3d 5e 2b 4e 3f
       0.0974958 -0.8902781 0.10457453 0.80534923
000210 c7 c4 4f bf e0 24 f3 bc 01 25 e6 3e 2e e8 dc 3d
       -0.81159633 -0.02968067 0.44950107 0.10786472
000220 1a 7c 7b bf b0 33 8c bf e8 20 f0 bc 53 98 1f bf
       -0.9823624 -1.0953274 -0.029312566 -0.62341803
000230 66 30 b2 bf 64 86 50 be f0 c6 17 3f b0 ef 27 be
       -1.392102 -0.20363766 0.5928793 -0.16400027
000240 32 d8 0c 3f 43 68 45 3f 8a d2 15 3f 23 c9 12 3f
       0.5501739 0.77112216 0.5852438 0.5733816
000250 67 b4 65 bf b5 d5 53 3f bc ca c3 bf 60 b5 94 bc
       -0.897284 0.82747966 -1.5296245 -0.018152893
000260 0a 8e 18 bf 4f 75 27 3f 93 1d 84 3f 83 84 86 3d
       -0.59591734 0.65413374 1.0321525 0.06568243
000270 22 77 83 3f 28 70 87 3f ce ae 1e bf df cc ee be
       1.0270731 1.0581102 -0.6198548 -0.4664068
000280 f1 2e c0 be 8d c0 47 3f e2 7d f2 3e 80 66 1d bc
       -0.37535813 0.78028184 0.47361666 -0.009606957
000290 24 91 36 3f 7a e1 ac 3e 1f 84 a8 3e 37 33 59 3f
       0.71315217 0.33765775 0.329133 0.8484377
0002a0 b7 6c 5f bf 9e ef 96 be 8d 82 e9 be eb fa 72 bf
       -0.8727526 -0.29479688 -0.45607415 -0.9491412
0002b0 85 5d c5 be 35 8e b8 3e f9 ed a0 be bb 68 a9 bf
       -0.38547912 0.36045995 -0.3143156 -1.3235086
0002c0 0b 37 03 3e bc e3 86 be 72 99 c5 be 57 89 90 3f
       0.12813966 -0.26345623 -0.38593632 1.1291913
0002d0 ce 7c 20 3f 68 a8 2c bf cb ad 29 bf 5a 81 11 3e
       0.62690437 -0.6744447 -0.6628081 0.142095
0002e0 d4 0c 66 3e 97 b2 33 3f 67 6e cf 3e 6b 4d d6 3e
       0.22465831 0.7019438 0.40513918 0.4185594
0002f0 73 2b 6c 3f 67 22 8b be 38 c4 2a 3f e4 a4 89 3e
       0.922538 -0.27174684 0.66705656 0.26883614
000300 56 7e ab 3f b8 87 a2 3f a0 fa e0 be e9 2a 33 3f
       1.339793 1.2697668 -0.43941212 0.6998735
000310 80 f3 00 3f 22 3f 72 3f b7 3c 43 3f 59 d5 4a bf
       0.5037155 0.94627583 0.7626452 -0.7923179
000320 9b 16 8b bf a2 16 91 bf c5 b8 a3 3d c9 7f 85 3f
       -1.0866274 -1.1335032 0.07994226 1.0429622
000330 ae 66 7d be c4 36 39 bf 75 cd 50 3e aa d1 b2 3f
       -0.247462 -0.7234919 0.20390876 1.3970234
000340 b8 4a 88 be 57 a9 89 3f 51 57 f9 3e 6e 89 11 3f
       -0.26619506 1.0754803 0.4869943 0.56850326
000350 11 74 88 bf c9 d7 cd be e9 bb ec bd a4 b1 12 be
       -1.0660421 -0.40203694 -0.115592785 -0.14325577
000360 e4 9b 17 bf f0 3d 4d bf 6e d8 0c bf 4b c0 9a 3f
       -0.59222245 -0.80172634 -0.55017745 1.2089933
000370 a3 0c 72 bf 37 ba 69 bf 72 1a e3 be 6e b0 9b 3e
       -0.9455053 -0.91299766 -0.44356114 0.30408043
000380 17 da 23 3e 4c 62 3c bf 1c a5 33 3d 14 6d 22 be
       0.16001163 -0.7358749 0.043858632 -0.15861923
000390 f5 9e 84 be fd 1d 53 3f 37 5f 8b be 3f 6d a2 3f
       -0.25902525 0.82467633 -0.2722108 1.2689589
0003a0 00 4c 80 bf d3 f4 35 be 2d 71 dc be b8 83 d9 be
       -1.0023193 -0.17769174 -0.43055096 -0.42483306
0003b0 d4 36 65 bf ca 60 3c 3f 41 bc 9f 3e c9 4a 9c be
       -0.89536786 0.7358519 0.31198314 -0.30525807
0003c0 a7 a8 41 bf 2d f2 80 bf 60 5e e4 bc 83 e3 c2 bd
       -0.7564797 -1.0073906 -0.027877033 -0.09516051
0003d0 cf da eb 3e 25 c2 74 bf 03 ee 05 bf a8 41 71 bf
       0.46065375 -0.9560874 -0.523163 -0.9424081
0003e0 94 4f a5 bf 52 bf 1e 3e 89 ff 75 3e 79 7c 8f bf
       -1.291491 0.1550267 0.2402326 -1.1209861
0003f0 7c f4 75 bf 1c 80 c6 be 2e 5b 83 3f 99 c3 0a 3e
       -0.9607618 -0.38769615 1.0262201 0.13551177

linear2.weight f4 [256, 256]
000000 73 9b bf 3c e9 22 9e bd f2 ed 95 3d 07 96 15 3d
       0.023389554 -0.07721502 0.07320775 0.03652003
000010 3b 6e e7 bc b5 2b 56 3d fe 7c 5b bd c0 a0 14 3d
       -0.028250804 0.052287776 -0.053586 0.036286116
000020 cb b8 f4 3d 20 40 75 bb c6 29 1c bd 86 6f 9f bc
       0.11949309 -0.0037422255 -0.038125776 -0.019462358
000030 56 6e 3f bd c8 c6 ad bc db ff ec 3c 61 d0 71 bc
       -0.046736084 -0.02121295 0.028930595 -0.014759154
000040 8e 01 9d 3d 57 ec 4b bd ae f2 c8 3c e0 ef 1d 3d
       0.07666312 -0.049785938 0.024529781 0.03855884
000050 a8 e3 77 3d 76 04 b8 3d 2f 2f 19 bd 8c f8 99 3c
       0.060519844 0.08985226 -0.037398513 0.018795274
000060 42 74 81 bc c0 03 30 bb a4 0f d3 3c ec b8 34 bd
       -0.015802506 -0.0026857704 0.025764294 -0.044121668
000070 4e e6 9e bb 54 40 15 bd b4 af 2c bd 64 11 58 3d
       -0.004849232 -0.0364383 -0.04215975 0.05275096
000080 dc 5c 9f 3d 48 c5 43 bd 94 e0 19 3d 2f fb b9 bc
       0.077813834 -0.047795564 0.03756769 -0.022702781
000090 00 46 51 3a f9 4e 76 3d 70 bc d5 3c e0 3b 98 3d
       0.0007983148 0.060133908 0.02609083 0.07433295
0000a0 78 ec 41 bd 44 b6 09 3d 10 92 de bc d2 43 7f bd
       -0.047344655 0.033621088 -0.027169257 -0.062320538
0000b0 67 8e 86 bc ed 60 43 3b 98 8d 5f bd a6 37 7d 3d
       -0.016425325 0.002981241 -0.054578394 0.06182065
0000c0 de 3b 31 bd fc f0 2b 3d d4 a6 81 3c da a8 03 3e
       -0.043269984 0.041977867 0.01582662 0.1285738
0000d0 a7 32 8d bd 94 45 a7 3c 48 8d 24 3b 56 0f 27 bd
       -0.06894427 0.02041892 0.0025108624 -0.04078611
0000e0 39 0a c1 3b f2 42 fc 3d f9 e3 5b 3d bc 4c f1 3b
       0.005891111 0.12317456 0.05368421 0.007363884
0000f0 8c 3a 52 3d 63 c7 0d 3d 07 d4 b7 3d 73 4e 1f bc
       0.051325366 0.034613978 0.08975988 -0.009723294
000100 14 78 6a 3d ec 7a 2c 3d 93 c3 a7 3d 22 d6 9a bc
       0.05724342 0.042109415 0.081916 -0.018900935
000110 8c 44 e1 3c 08 28 4e 3d 19 bb 2d bd 76 79 0a bd
       0.027498506 0.050331146 -0.04241476 -0.03380724
000120 90 57 1c 3d de 9e a5 3d 18 21 5c bd 10 78 59 3d
       0.038169444 0.08086942 -0.0537425 0.053093016
000130 d6 e3 81 bc 6d 2d 44 3d e5 4e b8 3c 80 38 0b bd
       -0.015855711 0.047894884 0.022498557 -0.03398943
000140 0e 00 a2 bc b1 80 2b 3b cf f5 3c bc be 46 3a bd
       -0.019775417 0.0026169235 -0.011533215 -0.04547762
000150 bc 95 b9 3c 32 c2 a8 3d ef 4d e4 bb 70 c8 4a 3d
       0.022654407 0.08240165 -0.006967298 0.04950756
000160 f3 8d fd ba 9c 39 04 3d 3a 73 7c 3d 7c 1b 27 3d
       -0.0019344672 0.032281503 0.061633326 0.040797696
000170 3b 41 45 3c 99 38 29 bb 5b 90 1a 3d 55 10 40 bd
       0.012039478 -0.0025821088 0.037735324 -0.046890575
000180 8c a0 68 3d 64 a5 da 3c d2 c0 4f bd 95 f1 73 bc
       0.056793734 0.026690193 -0.050720997 -0.014889141
000190 f0 10 f7 bb 10 2c b5 bc cd 1e 4b bd 4a 0d 16 bd
       -0.007539861 -0.022115737 -0.04958992 -0.036633767
0001a0 a4 0e 37 3d e0 ec ab 3d 62 d9 0c 3d 14 e1 27 3e
       0.044691697 0.0839479 0.034387 0.16394454
0001b0 9d bf 84 3c 61 a9 47 bd a0 a5 72 bb 54 55 2c bd
       0.01620465 -0.048745517 -0.003702499 -0.042073563
0001c0 60 bf 0e 3d fc 1c 00 bb fc f3 30 3d 44 1f a7 3c
       0.03485048 -0.0019548526 0.04320143 0.02040065
0001d0 23 ab f4 bd f6 ad 47 3c 3d 15 f4 bc a3 c7 b4 bc
       -0.11946704 0.012187472 -0.029795283 -0.02206785
0001e0 5e d3 b0 bc 72 db 8c 3c a0 34 87 3b bd 49 4c 3d
       -0.021585163 0.017194483 0.0041261464 0.04987501
0001f0 73 b1 07 bc ee 66 87 3c ab 43 23 3d 14 5c 37 3d
       -0.008282053 0.016528573 0.039859455 0.044765547
000200 4b aa 0e 3d 6d 3e 8d 3c 04 a1 87 3c f2 9a 81 bc
       0.034830373 0.017241681 0.01655627 -0.015820954
000210 0b 61 87 3c 10 4b d3 3c 1f 23 3d 3c d5 aa 1b bd
       0.016525766 0.025792629 0.011544018 -0.038004715
000220 5d 40 87 bd 99 f3 6f bd 32 b8 a8 3b 92 92 3f 3d
       -0.06604073 -0.058581922 0.005148911 0.04677064
000230 5e 72 05 bd c4 7d 10 3d 8f 6c 83 3d f7 35 36 bd
       -0.032579772 0.03527619 0.0641719 -0.04448506
000240 3d d0 dc ba 76 92 6f 3d b8 48 d3 3c 32 01 24 bc
       -0.0016846728 0.058489285 0.025791511 -0.010010051
000250 8f d2 1a 3d fc 2b 18 3d b4 a8 a6 bc b8 9b 6c 3d
       0.03779846 0.03715132 -0.020344116 0.057765692
000260 fa e7 4a 3d 77 78 33 3c 23 47 54 3d 84 25 aa 3c
       0.049537636 0.010954014 0.051825654 0.020769842
000270 ab 26 4f 3d 92 31 d4 3c 8f 99 93 bb 62 d6 2c 3d
       0.050573986 0.025902543 -0.0045043896 0.04219664
000280 c8 61 75 3d 94 0c 7c 3c 94 60 9c 3d be 5c 6c 3d
       0.059907705 0.015383858 0.07635608 0.057705633
000290 3a af 28 3d 4f cb 09 3d 41 98 a5 3b be b0 30 bd
       0.041182734 0.033641156 0.0050535505 -0.043137304
0002a0 92 58 09 3d 98 25 40 bd e8 e9 64 3c 95 41 38 bc
       0.033531733 -0.046910852 0.013971783 -0.011246105
0002b0 78 89 5c 3d b1 f9 6c 3d a8 c5 ef 3c eb a5 c5 bc
       0.053842038 0.05785531 0.029269055 -0.024126967
0002c0 5c e6 3c 3d 98 d5 8e 3c 4c 8d 7d 3d f5 19 82 bc
       0.046118125 0.017435834 0.06190233 -0.015881518
0002d0 04 07 b2 3c 7e 60 ac bb 4c 82 82 3b 71 24 7c 3b
       0.021731861 -0.005260526 0.0039828178 0.003847387
0002e0 12 1c 06 bc 15 7e 60 3d 68 ea 98 3d b0 68 8f 3d
       -0.008185403 0.05480774 0.074665844 0.070023894
0002f0 3e 4c bf 3c e0 c5 f6 3b fe 3f c4 3c 19 22 95 3d
       0.023351785 0.0075309128 0.023956295 0.07281894
000300 1c d5 f6 bc 1c c4 e2 bc 13 99 56 bd 97 ef f2 3d
       -0.030130915 -0.027681403 -0.052392077 0.118621044
000310 17 5c aa ba 16 4e 06 bb 23 52 50 3d 1b 41 c8 bc
       -0.0012997416 -0.002049332 0.05085958 -0.024445107
000320 f6 ee 8e bd 9f 11 38 bd a8 4d 0d bd c2 f5 70 3d
       -0.06979172 -0.04493868 -0.034497887 0.058828123
000330 e8 66 2e bd a5 c7 88 bd bf 1d 83 3d 17 f2 83 3a
       -0.042578608 -0.06678704 0.06402158 0.0010066655
000340 03 f0 d2 3c 3c bd 44 3d 35 63 92 3c d6 bd 6c 3d
       0.025749212 0.04803203 0.017869571 0.05779823
000350 b3 fc 86 bd 92 8d 5e 3d 45 aa 6a 3d e0 1a 47 3b
       -0.06591167 0.05433423 0.057291288 0.003038101
000360 10 52 2a 3d 3b 42 41 3d de 2a b7 bc 2e bb 24 3d
       0.041582167 0.047182303 -0.022359308 0.04021757
000370 ae 70 09 bd a7 31 63 bd 30 be 1b bd 46 52 6e bc
       -0.033554725 -0.055467274 -0.038023174 -0.014545983
000380 35 44 86 3d ce 9c 6f bd 77 5e 30 3c e8 6f d7 3c
       0.06555978 -0.05849915 0.01076471 0.026298478
000390 1e 1c 88 3d fb 56 3e bd 80 6c ed bb 46 50 ae 3d
       0.06645988 -0.04646967 -0.0072456 0.08511405
0003a0 5d f9 99 bd 61 5f 77 bc 68 90 fd bc 8c 2e 79 3d
       -0.075182654 -0.015098424 -0.030952647 0.060835406
0003b0 44 d8 18 3c d6 0f ab 3d ce 9f 46 bd 8c bd 91 bc
       0.0093289055 0.0835263 -0.048492245 -0.017790578
0003c0 f6 da 26 3d 07 4c cb bc f0 17 15 bd c4 22 0f bd
       0.04073616 -0.024816526 -0.03639978 -0.034945264
0003d0 27 3c 83 3d 77 76 ab bc 19 18 b1 3c 94 d7 91 bd
       0.064079575 -0.020930512 0.021617936 -0.071211964
0003e0 64 dd 84 bd b9 6c b0 3d 92 d8 cd 3c 38 74 47 be
       -0.064875394 0.08614487 0.025127683 -0.19477928
0003f0 0c b8 86 bd 00 31 72 3c 40 69 3e 3c ca 6e 93 3c
       -0.06578073 0.01478219 0.011621773 0.017997164

linear2.bias f4 [256]
000000 36 c7 cb 3d bd cb a2 3e cb 37 51 bd 17 e4 94 bd
       0.09950106 0.31796065 -0.0510786 -0.07270067
000010 40 37 49 3d 88 cb 94 3c 2a 61 25 3d 56 8f 89 bc
       0.049124956 0.018163458 0.040375866 -0.01679198
000020 e0 2d c3 3c 66 8b 2e 3e 23 f0 d0 3c 69 a1 ce 3c
       0.023825586 0.17045364 0.025505131 0.02522345
000030 80 c2 a9 bc 56 90 ba bd d1 07 db 3d 6c 4a 83 3e
       -0.020722628 -0.09109561 0.1069485 0.25642717
000040 15 8b c7 3c 11 3a dd bc 8b 72 4f 3d ba f2 eb bc
       0.024358312 -0.027005227 0.050646346 -0.028802264
000050 c4 49 24 3d 80 19 1f 3b 99 58 d2 bc eb c0 aa be
       0.04010941 0.0024276674 -0.025677012 -0.3335031
000060 d2 54 15 3c 89 33 5d 3d 94 6b 11 bf a0 68 02 bb
       0.009114461 0.054004226 -0.56804776 -0.0019898787
000070 d0 3b ee 3c c5 ee 8d 3e fa 79 12 3d 70 6d fa 3b
       0.029081255 0.2772123 0.035760857 0.0076424405
000080 28 ac 1b bd 37 c9 9a 3c 5e 77 4d 3c 5c 8c 17 3d
       -0.038005978 0.018894775 0.012540666 0.03699909
000090 89 ab fb 3c ae d0 63 3d cb a5 c6 3b 24 0a 39 3d
       0.030721443 0.055618934 0.0060622445 0.045175686
0000a0 a9 66 f8 3d 62 e9 ed 3d 21 5f 35 3d 22 78 1e bd
       0.12128956 0.1161678 0.044280175 -0.038688786
0000b0 aa a5 64 bd da ad 1a bd 4d ec 83 3d 4e c6 0e bd
       -0.055822052 -0.037763454 0.06441555 -0.034857087
0000c0 73 3f 72 bd 4d 1f fb 3d ac bb a8 3c a7 de 00 3d
       -0.05914254 0.122618295 0.020597301 0.031462338
0000d0 26 5a 2d 3d 4f 97 55 bd 84 f4 85 3e 34 a1 67 bd
       0.0423223 -0.052146252 0.26163113 -0.05655022
0000e0 56 b3 49 bd cf 6e 79 3d 18 c3 08 bc 31 28 17 3d
       -0.049243294 0.06089669 -0.008347295 0.036903564
0000f0 17 17 48 3d ef 33 78 3d ee dc 5e bd 31 39 2d 3d
       0.048850145 0.060596403 -0.054409914 0.04229087
000100 6a fa bd 3d 39 cb 68 3d 18 b6 87 bc aa b8 ac 3d
       0.09276278 0.056834433 -0.016566321 0.084336594
000110 d2 99 6b 3d 15 59 12 bf 68 05 f7 bc 10 29 78 3d
       0.05751974 -0.5716718 -0.030153945 0.060586035
000120 9c d4 b9 3e b5 ea b4 bb ef b3 a3 3d 7c e5 26 bd
       0.3629502 -0.0055211433 0.07993304 -0.040746197
000130 de 61 68 bd 85 54 bf ba 2e 2e c3 3e 02 05 28 3d
       -0.05673396 -0.0014597332 0.3812117 0.0410204
000140 ca c0 0c bd af d0 06 bd 2e 29 fc 3c c7 ee df bc
       -0.034363545 -0.03291386 0.030781355 -0.027335538
000150 8b d6 df 3d 09 22 66 3d 94 87 14 bd 38 06 ab bc
       0.10929593 0.056184802 -0.03626211 -0.020876989
000160 e0 33 db bc 70 9a 5f 3c 22 4c 12 3e 0e d2 be bc
       -0.026758134 0.013647661 0.14286855 -0.023293521
000170 b3 09 b5 3c db 25 f0 3b 5d 5e 11 bf 9e e0 6e bd
       0.022099352 0.0073287315 -0.5678461 -0.05831968
000180 e0 5f e3 bc 53 4d d8 3c 59 cf 31 3c 07 a9 03 3d
       -0.027755678 0.026404059 0.010852658 0.03214362
000190 84 78 8a 3c b1 fb c9 3b cd cc ec 3c 0c 03 c5 3c
       0.01690317 0.006164037 0.02890625 0.024049304
0001a0 bb dc b0 3c 81 e2 01 3f 1d 4d 56 3c 57 2f 3d 3d
       0.021589627 0.5073624 0.013079909 0.046187725
0001b0 49 ff ac 3d a0 b7 56 bc 70 3f 68 bc 79 3c bc 3c
       0.08447129 -0.013105303 -0.014175281 0.022978054
0001c0 b1 ad b2 3c dc 66 15 3d 5d 72 8a 3d ca a0 3b 3d
       0.021811338 0.036475047 0.06760094 0.045807637
0001d0 83 30 b4 3b ce e2 ac 3d b7 e8 9d 3d 6e 39 30 3d
       0.005498947 0.08441697 0.077104025 0.04302352
0001e0 10 5b ca 3b 38 47 d4 3d 04 b8 62 bd a0 c7 3e bd
       0.0061754063 0.103651464 -0.055351272 -0.046577096
0001f0 c2 64 1c bd 3e 41 06 3d f7 3a 31 bd bb 41 e1 bb
       -0.038182028 0.032777064 -0.043269124 -0.0068742908
000200 17 49 2e bd 77 fc b9 3b 2a bc 2d bf 56 73 61 3d
       -0.042550173 0.005675848 -0.6786524 0.055041634
000210 d1 a1 31 3c 66 ce 58 be b4 95 5a be c2 0f 1e bc
       0.010841803 -0.21172485 -0.2134617 -0.009647312
000220 29 4e f7 bd 02 f6 22 bd 6a 58 82 bd 78 c4 e7 3c
       -0.12075455 -0.039785393 -0.0636452 0.028291926
000230 0f 30 1b 3d d9 06 6a bd 3c e3 c6 bc 00 07 18 bc
       0.03788763 -0.057135437 -0.024278276 -0.009279013
000240 04 04 b9 bc ff 7a 99 bc bd 02 37 bd 9c 91 43 3d
       -0.022584923 -0.018735407 -0.044680346 0.047746286
000250 7d 54 db 3d d9 96 83 3c 1d e9 5a 3d 30 bc 01 bd
       0.10709474 0.01606314 0.05344497 -0.03167361
000260 83 26 d4 3a ae c9 f3 bc 42 66 30 bd 68 0d 9a 3b
       0.0016185794 -0.029759254 -0.04306627 0.004701305
000270 bb 3e 9f bc d8 45 60 3d bd d3 3e 3d 7a 07 e6 3c
       -0.019439092 0.05475411 0.046588648 0.028079737
000280 66 c9 29 bf c5 ad 06 bc 44 6c 50 bd 2a d8 3f 3d
       -0.66322935 -0.008220141 -0.0508845 0.04683701
000290 07 90 3a bf 4e e1 aa 3c ea ee 8f be 10 fb 82 3c
       -0.7287602 0.020859387 -0.28111964 0.015988857
0002a0 9f d4 36 bd ee f5 26 bd b5 61 0f 3d 6c e2 70 bf
       -0.044636365 -0.04076188 0.03500529 -0.9409549
0002b0 59 d0 05 3d 76 d3 a5 3d f7 99 a8 bc 02 aa e3 3d
       0.0326694 0.080969736 -0.020581229 0.11116411
0002c0 00 3c b8 3c 20 9c 90 3c c6 2c b4 bc 5e 6c ff bd
       0.022489548 0.017652571 -0.021994006 -0.12471841
0002d0 2b 28 6e 3d ba 09 ea bc fd bf 49 be 95 c6 64 3c
       0.058143776 -0.028569091 -0.19702144 0.013963361
0002e0 04 b2 c1 bd 8b 2d 75 bd ba c5 16 bd 84 10 13 3c
       -0.09457782 -0.059857886 -0.03680966 0.008976106
0002f0 7b 14 e6 3b 70 c0 8d bc 40 6b 18 3d fd 9c 10 bc
       0.0070214844 -0.017303675 0.037211657 -0.008826491
000300 b3 3e bf be b9 db f8 3d fb 37 8d bd 33 77 79 3d
       -0.37352523 0.12151284 -0.06895443 0.060904693
000310 21 64 33 3d fa 95 02 3c 3b 6f b5 3d 17 22 b5 bb
       0.043796662 0.0079703275 0.08859106 -0.0055277455
000320 c4 c6 ce 3d ce 46 00 3d fc 58 c3 bc fd 2f 33 3e
       0.10096505 0.031317525 -0.023846142 0.17498775
000330 47 dd a8 bb aa 33 57 3e d8 42 cc bc 19 10 27 3d
       -0.0051533314 0.21015802 -0.024934217 0.040786836
000340 69 80 bf 3c 5f 69 80 bd 1a 75 ac 3d 91 2b 9e bb
       0.02337666 -0.06270098 0.08420773 -0.004826971
000350 8c cb 63 bd 0b cf bb bb 80 87 8c bc 8f 8d 81 bd
       -0.05561404 -0.0057314686 -0.017154455 -0.06325828
000360 28 2f 28 bb f7 f7 50 bd 10 c5 b1 3d ad ad 08 3f
       -0.0025662873 -0.051017728 0.08680165 0.5339001
000370 87 79 57 bd ba f9 ca bc 04 14 19 3e af 01 94 3c
       -0.052606132 -0.024777282 0.14949042 0.018067209
000380 c6 db 5b 3d 1f f6 4a bd 3f 8c 83 3b 70 ec 33 bd
       0.05367639 -0.049551126 0.0040145214 -0.043926656
000390 ac bf 01 3d 6d e2 ef 3d bc 46 e7 3c 29 1d ad bc
       0.031676933 0.11713109 0.028231971 -0.021132069
0003a0 e7 88 06 bc 84 bf be bc bc fb 22 bd ee ab 5a 3d
       -0.008211351 -0.023284681 -0.039790854 0.05338662
0003b0 0c 51 7d 3e a4 c4 8b 3c 40 12 2c 3d 8b 83 d8 3b
       0.24737948 0.017061539 0.042009592 0.006607478
0003c0 c2 1c 1f 3f 38 32 f0 bc c9 3a 00 bd 80 2e 03 ba
       0.62153256 -0.029320821 -0.031306062 -0.00050041825
0003d0 43 a1 c1 bc 7c eb ee bc 7f 17 99 be fd 4c 8b 3d
       -0.023636466 -0.029165022 -0.2990074 0.06801794
0003e0 c7 db 2a bc ee 0f 0c 3d c0 c3 f4 3e 4c 04 27 3d
       -0.010428376 0.03419488 0.47805595 0.040775582
0003f0 dc e5 5c 3d ae aa e4 bc a0 7e 12 bd 46 81 f7 bc
       0.05393015 -0.027913418 -0.03576529 -0.03021301

linear4.weight f4 [256, 256]
000000 00 ea 08 3b 41 b0 38 bd 75 ca cd bc 08 15 13 3c
       0.0020891428 -0.045089964 -0.025120953 0.008977182
000010 04 2d cf bc 5b ba c8 3b ba c0 63 3d 7a c9 c2 3c
       -0.02529002 0.006125731 0.05560372 0.023777712
000020 34 5b fe bc e0 ab db bc 53 ee 34 bd a7 c8 61 bd
       -0.031049348 -0.026815355 -0.044172596 -0.055122998
000030 8d b3 82 3c cf 11 74 bd 41 2c 1f bd b5 a7 cf 3c
       0.015954757 -0.059587296 -0.038860563 0.025348524
000040 ce cb 6f 3d 4b 26 50 bc a8 96 cf bb d8 ef 44 bd
       0.058543973 -0.012704442 -0.0063350983 -0.048080295
000050 e0 da 3e 3d c0 6f 6e 3b a0 fc ca bb f9 41 a4 39
       0.046595454 0.0036382526 -0.006194666 0.0003132967
000060 63 7e 36 bd ae b1 8e bc 27 8d 4d 3c b6 14 77 bd
       -0.044554126 -0.017418709 0.01254586 -0.060322486
000070 28 38 27 3c 4b 09 d9 bc 08 e9 88 3c 84 7b a0 3c
       0.01020626 -0.026493689 0.01671268 0.019590147
000080 4c 47 b3 3c f3 71 86 bd bf 2b 8c bd 5a d7 05 bd
       0.021884583 -0.06564703 -0.068442814 -0.03267608
000090 78 17 88 3c 70 eb 4d bd db c3 7c bb e8 17 31 bd
       0.016612753 -0.05027336 -0.0038568887 -0.04323569
0000a0 57 0f 94 bc 29 45 26 bd 9e d2 62 bd 88 8d 35 bd
       -0.01807372 -0.0405933 -0.05537664 -0.044324428
0000b0 de 6e 1d bd a8 fd 35 bc a7 89 25 3d da e3 7d bd
       -0.03843581 -0.01110784 0.04041448 -0.061984874
0000c0 dd e3 19 bd 47 12 45 3d 36 e9 c1 3c 24 5f 24 3d
       -0.037570823 0.048113134 0.023670774 0.040129796
0000d0 7d f0 64 bd 9b c1 6a 3d 4b 91 6f 3c 1a bd 39 3d
       -0.05589341 0.057313543 0.014622043 0.045346357
0000e0 18 e0 2b bc cd 73 89 bc 36 05 52 3d 70 76 56 bd
       -0.01049044 -0.01677885 0.0512745 -0.052359045
0000f0 cf 36 9a bb 8d f0 3d 3d bf 20 43 3d 34 de c2 3c
       -0.0047062407 0.046371985 0.04763865 0.023787595
000100 3b ef 15 bd 46 9c fc 3c cf 2a 4c bd bc e5 43 3d
       -0.0366051 0.030836236 -0.049845513 0.047826514
000110 9d 60 4b 3d dd e5 b2 bc c8 75 28 bc a5 61 37 bd
       0.049652684 -0.021838123 -0.0102819875 -0.044770855
000120 89 79 7e bd e9 cc f7 ba 45 d5 bd 3c 60 1d fa bb
       -0.062127624 -0.0018905672 0.023172984 -0.0076328963
000130 09 c3 09 bc 46 07 4e 3d 0e 96 ab bc e4 db 1a 3d
       -0.008408316 0.050299905 -0.020945575 0.03780736
000140 a0 04 5f 3b c5 12 75 3c 0e 9f 10 3c cb c0 39 3c
       0.0034029856 0.014958088 0.008826984 0.011337469
000150 a4 e2 96 3c bf 15 25 bd fd 0e df bc c4 28 06 3d
       0.018418618 -0.04030394 -0.027228827 0.03275372
000160 b8 2c 7e bd 9b b9 c8 3c 70 f4 3f 3d 85 e4 16 3b
       -0.062054366 0.024502566 0.046863973 0.0023024392
000170 52 06 16 3d d8 02 5f 3c 81 38 df bc 00 90 2e 3d
       0.03662712 0.013611518 -0.027248623 0.042617798
000180 f0 43 18 3d 72 62 92 3c 90 4a 5e bd 9f 8f 33 bd
       0.037174165 0.017869208 -0.054270327 -0.04383814
000190 4b cd 1e 3c 2d ef 5d bd a9 b1 73 bc 69 f3 16 3d
       0.0096925 -0.054183174 -0.0148739 0.036853228
0001a0 44 77 89 3c b7 9b 80 bd e4 57 52 bb b5 15 39 bd
       0.016780503 -0.062797 -0.0032095844 -0.045186717
0001b0 e8 8a 91 bd 40 77 46 3d 82 1e 01 bd aa 37 25 bd
       -0.071065724 0.04845357 -0.031523235 -0.04033629
0001c0 52 a8 34 3d ea 3e 33 3d de 90 8f bd 07 2c 3e 3b
       0.044105835 0.04376117 -0.07010053 0.0029017942
0001d0 f5 b1 13 3d 18 2e 3b 3c 22 93 fb 3b e6 07 55 bd
       0.036058385 0.011424564 0.0076774517 -0.052009486
0001e0 1c ee 88 bc 4d d8 49 bd 74 54 3e bc cc e1 3c bd
       -0.016715102 -0.049278546 -0.011616815 -0.046113774
0001f0 dd 62 97 3c 5d aa c1 3c 16 0c 60 bc 9a 60 02 3c
       0.018479759 0.023640806 -0.0136747565 0.007957602
000200 df 27 2f bd 84 d7 ad 3c 87 67 09 3d cc 07 37 bd
       -0.042762633 0.02122093 0.033545997 -0.04468517
000210 35 5f 09 bd f3 ac 64 bd 88 31 ee bc ce d7 42 3d
       -0.033538062 -0.055829 -0.029076353 0.04756909
000220 33 da 3c bd 42 20 a2 3c 74 e7 3d 3c 08 f7 bd bc
       -0.04610653 0.019790772 0.011590827 -0.023189083
000230 de 73 20 3d 6d d9 05 bd 64 57 cd bc 37 50 22 3d
       0.039173 -0.032678057 -0.025066085 0.03962728
000240 c8 ed 83 3c d7 ab 29 3c f8 13 ee bc d5 2e 1e bd
       0.016104594 0.010355911 -0.029062256 -0.03861888
000250 d8 e7 6d 3d d7 c0 86 bd 63 6b 5e bc 5a 78 67 bc
       0.05808243 -0.0657975 -0.013575408 -0.014127815
000260 fd df 20 3d 72 b1 da 3c c6 9e 0b bd 1a 7f e1 bc
       0.039276112 0.02669594 -0.034086965 -0.027526427
000270 79 29 b9 3c fb fa ee bc aa 43 80 3d f0 dc 82 bc
       0.022602784 -0.029172411 0.06262906 -0.015974492
000280 bb 4f bc 3c a8 33 74 3d 80 da e9 bc 2b 4d 78 bd
       0.022987237 0.059619576 -0.028546572 -0.060620468
000290 36 0c e8 bd 70 86 04 bd 6a 93 13 bc 5b 41 22 bc
       -0.11330454 -0.032354772 -0.009007314 -0.009903277
0002a0 a0 a2 fe bb 89 66 3c 3d d8 9a 65 3d 73 29 4e bd
       -0.0077708513 0.045996223 0.056055874 -0.050332498
0002b0 40 e6 16 3c f0 65 83 bd 6e 36 3d 3d 3a 78 55 3d
       0.009210169 -0.064159274 0.046194486 0.05211661
0002c0 cd 3f 2b 3d b0 cf 34 3c 9e c9 47 bd 19 a0 31 3d
       0.041808892 0.011035845 -0.04877626 0.04336557
0002d0 f6 e3 4c 3d 30 92 bf 3c 95 2e 68 bb 78 dc 62 bd
       0.050022088 0.023385137 -0.0035428156 -0.055386037
0002e0 42 d2 25 bd 76 88 68 bd 10 c3 63 bc a5 5c 7c bd
       -0.04048372 -0.056770764 -0.013901487 -0.06161179
0002f0 fc 97 68 3d 90 e6 58 3d f3 e2 d1 ba a3 e5 84 3c
       0.05678557 0.052954257 -0.0016013071 0.01622278
000300 2c a7 2e bc 60 ef 6a bd 05 54 fa 3c c0 21 a3 3b
       -0.010659974 -0.057357192 0.030557642 0.0049783885
000310 fe a5 20 bd cd 3f 5d bc d1 35 86 bc 37 e2 10 3d
       -0.039220802 -0.013503981 -0.016383084 0.035371985
000320 54 2e f0 bc 4e 7e 6f bd 60 93 7b bd 32 fe 82 bd
       -0.029318966 -0.058470063 -0.061419845 -0.0639614
000330 68 71 27 3c 6b ce 9f 3c 04 42 19 bd 97 4b 00 bd
       0.010219909 0.019507607 -0.037416473 -0.031322088
000340 b9 7e 2f 3d 5c 17 21 3d ad 9c 28 3d 91 7a b0 3c
       0.04284546 0.039328918 0.041165043 0.02154282
000350 21 c4 75 3c 46 0f fa 3c 17 b3 46 bd 82 d1 98 3c
       0.015000374 0.030524861 -0.048510637 0.018654589
000360 96 1f 67 bd 45 b1 9b 3c c0 b0 01 3d 74 07 d3 3c
       -0.056426607 0.019005427 0.031662703 0.02576039
000370 67 79 25 bd 3d 82 53 3d 8b c5 b4 bc d0 77 de bb
       -0.04039898 0.051637877 -0.022066852 -0.006789185
000380 7e bc 0c 3d 4c aa c9 3c 24 81 31 bd 38 36 4d bc
       0.034359448 0.024617337 -0.04333605 -0.012525134
000390 a0 5a 1d bb d5 1b 3c bd 4a 3f ba 3c 78 03 2c bd
       -0.0024010316 -0.04592498 0.022735257 -0.041995496
0003a0 e8 85 2a 3d ab 32 20 3d 5c 34 94 bc 73 82 d5 bc
       0.04163161 0.03911082 -0.018091373 -0.02606318
0003b0 ec f0 af bc 6e 4e 3b 3d b9 3b b2 bc 5b 38 8c bc
       -0.021477185 0.045729093 -0.021756994 -0.017116716
0003c0 f6 90 a8 bd 2c 67 8b bc 70 f2 5e 3d 24 97 c8 3c
       -0.08230774 -0.01701697 0.054430425 0.024486132
0003d0 28 35 23 3d 29 3d 96 3b 11 cf 29 bd cf ec b1 3c
       0.039845616 0.0045849276 -0.04145724 0.021719364
0003e0 0c a7 c8 bc 4f a1 53 3d 27 0d 38 3c 7d fe 82 3c
       -0.024493717 0.051667508 0.0112336045 0.01599049
0003f0 c0 d1 db 3a ac 3d 76 bc 08 ec 47 3d 1c 60 32 bd
       0.0016770884 -0.015029352 0.04880908 -0.04354869

linear4.bias f4 [256]
000000 82 4e 0f bb fe d4 3e bd af 02 72 bd 61 33 81 3e
       -0.0021866863 -0.046589844 -0.05908459 0.25234511
000010 98 68 0f bd e2 26 9d 3e 4c 77 23 be b5 c4 d5 3d
       -0.035011858 0.30693728 -0.15963477 0.104379095
000020 ff e2 ee 3c dd 5e c8 be 65 88 ce be 62 d0 96 3d
       0.029160975 -0.39134875 -0.40338436 0.073639646
000030 f8 8c ba 3e d3 01 fa bd 3a f5 1d 3e af 71 23 3d
       0.36435676 -0.12207379 0.15425578 0.03990334
000040 d9 0a d2 be 57 57 7b 3d d1 b7 d5 bc 53 6c 05 bf
       -0.410239 0.06136259 -0.026088627 -0.52118415
000050 b4 c9 d7 3c 58 ca 0c bf cd b7 1f be e5 04 aa 3c
       0.026341297 -0.5499625 -0.15597458 0.020754287
000060 c4 83 a6 be 05 07 dc bd b4 26 1f 3e 55 c9 00 3d
       -0.32522404 -0.10743526 0.15542108 0.031442005
000070 83 45 35 3d e5 f4 8e 3d 4e bd e9 bb 8f 8f 11 be
       0.044255745 0.06980304 -0.0071331626 -0.1421492
000080 73 8d c2 3c 9c fb 0a 3e 27 26 e6 3e 68 db df 3c
       0.023749089 0.13572544 0.44950983 0.0273263
000090 8a 0f 40 ba b7 57 3d 3d a8 9a 52 be aa 20 16 bf
       -0.0007326534 0.04622623 -0.20566809 -0.5864359
0000a0 54 b2 48 3e fd 87 8c bc 03 26 f7 3c dc a0 ed 3c
       0.19599277 -0.017154688 0.030169493 0.029007368
0000b0 6a 5d a5 3d ba b9 73 bd 78 80 50 3e a8 c1 ef 3c
       0.08074458 -0.059503295 0.20361507 0.029267147
0000c0 4f 8e 01 3e f7 6c 07 be 86 d3 b3 3c 8f 53 15 3e
       0.12651943 -0.1322516 0.021951448 0.14582656
0000d0 a1 2e 0f bd 69 bb 90 bd 7a 11 7a bd bb 34 81 3e
       -0.03495658 -0.07066996 -0.061051823 0.25235543
0000e0 3c 33 b3 3d 1e 06 c7 be 7a 83 29 3e 75 dc 1d bd
       0.087500066 -0.38871855 0.1655406 -0.038540322
0000f0 31 ef 0d be 8a 03 3b 3c 15 c7 92 bd ed 7d 8f bb
       -0.13860776 0.011414418 -0.07166878 -0.004379025
000100 a3 88 87 3d 94 50 69 bd bd 62 a2 bd 42 d3 3d 3d
       0.06617858 -0.05696161 -0.07928989 0.04634405
000110 08 30 83 3e 26 1b 86 3e c7 76 91 3e 35 6e d1 be
       0.25622582 0.26192588 0.28410932 -0.40904394
000120 b0 26 8c 3d 97 38 bc 3d 1a 40 9b 3d ea 15 2a bc
       0.068433166 0.09190481 0.07580586 -0.010381201
000130 8e 10 ee 3c 64 f1 6f be 59 67 cb 3d ce f0 a4 3e
       0.029060628 -0.23431927 0.099318214 0.3221497
000140 94 96 fb be ea 22 35 bd b9 79 9e bb 53 22 09 3f
       -0.4913832 -0.04422275 -0.004836288 0.53568
000150 6e ce 3a be cb c8 5e 3d 7e 42 88 3e 26 53 09 bf
       -0.18242809 0.05439071 0.2661323 -0.536425
000160 2e 9e 38 bd 87 4a 40 3e c3 ad be bd 04 0d 79 3c
       -0.045072727 0.1877843 -0.09310486 0.015200857
000170 96 bf 2f bc 58 72 93 3c 33 93 5b 3e ec dc 49 bb
       -0.01072683 0.01799886 0.21442871 -0.0030801846
000180 27 ea 9d 3d 79 eb 32 3d 57 f9 1e be 4d ea c6 bb
       0.07710677 0.043681595 -0.15524803 -0.0060704113
000190 f8 f0 e2 3d 97 ff 6a 3e 82 c4 a8 3c b3 c7 ce 3e
       0.110811174 0.22949062 0.020601515 0.40386733
0001a0 20 d6 2e be 16 fc 39 3e 49 9f c4 3d 55 bd 8a 3b
       -0.1707387 0.1816257 0.09600694 0.004233996
0001b0 6d 78 26 3e 7d c0 26 3d 20 6f 99 be 55 36 e4 bc
       0.16256876 0.040710915 -0.29967594 -0.027857939
0001c0 9f 83 04 b9 af 04 1f 3e 2f 9b 5a 3e 95 a7 4d 3e
       -0.00012637534 0.1552913 0.2134826 0.20083459
0001d0 fc 26 02 be 64 e0 38 3e 13 cd a2 3e 23 c1 dc 3e
       -0.12710184 0.18054348 0.31797084 0.43116102
0001e0 c6 59 e5 3d a8 1c 06 bf 64 42 ca 3d 33 f5 5d bd
       0.111987635 -0.52387476 0.09875944 -0.05418892
0001f0 48 2f a5 3e cf 19 0d 3d 46 5d 0a bf 0a 40 cd be
       0.32262635 0.03444844 -0.54048574 -0.4008792
000200 3f 94 0f bd 15 1f ed 3d c3 76 64 3e c6 6e 64 be
       -0.035053488 0.11578194 0.22310929 -0.22307882
000210 32 1a a0 be 4b 6e 46 bc 35 c9 0b bc 25 4c b2 bd
       -0.31269985 -0.012111257 -0.008531858 -0.0870593
000220 e5 67 8b 3e eb 8a 46 bd a9 42 7f be d1 70 4f be
       0.27227703 -0.048472326 -0.24927773 -0.2025788
000230 c7 38 ae 3d 7c a5 13 3e f1 ea 3a 3e 2c cb 8d be
       0.08506923 0.14418596 0.18253686 -0.2769407
000240 7a 80 c7 be 10 4d 06 bc c0 57 c9 3e 22 b0 0f 3f
       -0.38965207 -0.008197084 0.3932476 0.5612813
000250 3c df 0e 3d 26 fb 45 3e de b1 fc 3c 41 cf 32 3e
       0.03488086 0.19334087 0.030846532 0.17461874
000260 fa 83 73 3e 19 cd 06 be db 8b 6a ba bd 61 c9 3d
       0.23780814 -0.13164176 -0.00089472317 0.09833095
000270 29 c2 22 3e 2a c2 24 3e a6 b3 93 3d 20 7c 05 be
       0.15894379 0.16089693 0.072119996 -0.13035631
000280 8b 9c a9 bc b4 f4 7e 3e 0d 5a b8 3b b2 a1 c1 3e
       -0.020704528 0.24898034 0.0056259693 0.37818676
000290 14 6c 1a 3f 88 10 79 3e 7f 97 36 bc b1 cb 71 3d
       0.60321164 0.24322712 -0.011144518 0.059032146
0002a0 b0 cb 4d 3e ec 56 30 3e fc 22 ce 3d 0a e9 89 3d
       0.20097232 0.17220658 0.100652665 0.06733902
0002b0 bb 6c 26 bf d9 52 f5 bc a7 d0 8a 3e 40 d8 31 3e
       -0.6500966 -0.029946731 0.27112314 0.17367649
0002c0 cf 9f 5b bd 78 cc 75 bd b6 3e 3c 3e 63 a9 e2 be
       -0.053619202 -0.06000945 0.18383297 -0.44269857
0002d0 a1 b0 d9 3b a4 12 92 bd 4b d1 55 3e 3d e4 ca 3e
       0.0066433703 -0.07132462 0.2088062 0.39627257
0002e0 50 fb ca be 13 67 d3 be f4 b3 37 bc 3e 1b 5d 3e
       -0.3964486 -0.41289577 -0.011212338 0.21592423
0002f0 19 67 17 be 1d a9 5c bd b9 c1 1c 3c 6c ca 6d 3e
       -0.14785422 -0.053872216 0.009567671 0.23221749
000300 f1 2d 94 3e b8 bc 31 be 0f 12 2f 3e 33 8c 92 3e
       0.289413 -0.17357147 0.17096733 0.2862259
000310 0b e7 fb 3e 3c 8b 32 bc b1 b1 64 bc 6c 55 01 3e
       0.4919971 -0.010897454 -0.013958381 0.12630242
000320 8d 71 b7 3d ba 37 bf be a0 95 74 3d 69 9d 1c bf
       0.08957205 -0.37347203 0.059713006 -0.6117769
000330 9b 2f 83 bc 82 47 17 bd 7d 45 a7 bd f4 39 a9 3e
       -0.016013911 -0.03693343 -0.08167551 0.33052027
000340 69 3f 91 bb f2 8f 92 be e2 85 b0 3d 6f 0d 67 bd
       -0.004432608 -0.28625447 0.08619286 -0.056409296
000350 3c 50 5e 3e 89 b3 14 bd d5 0a c5 bd c1 97 01 3e
       0.21710294 -0.03630403 -0.09621207 0.12655546
000360 66 48 16 3e 17 8a 70 3e 6d 32 3b bd 2d 96 6b 3c
       0.14676055 0.23490177 -0.045702387 0.014379066
000370 e4 71 20 bd a3 d7 df bd 21 6d 78 3e 89 eb 97 3e
       -0.039171115 -0.10929801 0.2426038 0.29671887
000380 41 1c 43 3e bc 0b 74 3c 2d 8d c1 bc 67 ee 05 bf
       0.19053747 0.014895376 -0.023626888 -0.523169
000390 69 ca 0a 3e 3e c3 0b bf 97 a9 cb 3c 58 97 07 3e
       0.13553776 -0.5459479 0.02486114 0.13241327
0003a0 9c ca 6b bd 4d 70 b6 be 6c 3c 22 3d 57 c3 09 bf
       -0.05756627 -0.35632554 0.039608404 -0.5381369
0003b0 a5 cb 79 3e ad 2f 3f 3d f2 76 9c 3c c4 a5 5d 3a
       0.2439409 0.046676327 0.019099686 0.0008455182
0003c0 94 c7 80 3e 79 54 9a 3c e4 5c 81 3e d8 71 e1 bb
       0.25152266 0.018839108 0.25266182 -0.0068800263
0003d0 02 5c a6 3e 68 92 79 3d 3d 31 87 3e a0 bb 67 3d
       0.3249207 0.06093064 0.26404753 0.056575418
0003e0 b9 45 c5 3e b7 47 cd 3d 41 e8 f2 bd 9f b9 0e bc
       0.38529757 0.10023444 -0.11860705 -0.008711248
0003f0 b7 89 6f 3d 97 a0 31 bd 20 1c 04 bf 99 76 45 3e
       0.058480944 -0.04336604 -0.51605415 0.19283523

linear3.weight f4 [1, 256]
000000 09 6b 11 bd 05 42 55 be ea 39 b9 bd b6 80 44 3f
       -0.035502467 -0.20825966 -0.09044249 0.767589
000010 76 28 89 3b d0 62 cd 3d fb 31 f7 bc 84 68 c1 3c
       0.0041857315 0.100286126 -0.0301752 0.023609407
000020 9a 37 5b 3d ce 58 21 bd 9c ab 65 be 03 bf 9a 3e
       0.053519823 -0.03939133 -0.22428745 0.30223855
000030 65 5e ab 3d 93 e1 70 bd 27 ab 1f 3d 34 98 16 3e
       0.08367614 -0.058808874 0.038981583 0.14706498
000040 62 48 09 be e6 5e c8 3b 7c c6 f6 3c c4 d3 15 be
       -0.13406518 0.0061148284 0.030123942 -0.14631563
000050 89 db 23 3d 7e 9f e3 bd 2a 8d b0 bc e4 56 55 bd
       0.040004287 -0.11114405 -0.021551687 -0.05208482
000060 12 49 20 be b5 68 03 bd d2 70 c5 3e fb 21 83 bd
       -0.15652874 -0.03208228 0.38562638 -0.06402966
000070 59 87 01 be b1 3e 5a 3e 9b 27 77 3d dc 9f 9a bd
       -0.12649287 0.21312977 0.060340505 -0.07550022
000080 6a 50 12 3c db df fa 3e c0 10 fb 3e 0d 02 c1 3d
       0.008930305 0.48998913 0.49036217 0.09424219
000090 21 27 a8 3d 4f 98 73 3d db 0e c7 bd 80 53 0f bf
       0.08210588 0.059471425 -0.0971963 -0.55986786
0000a0 0f c9 01 3f e4 04 fd 3c 01 3c 2e 3d 25 f6 d8 3d
       0.50697416 0.030886121 0.042537693 0.10593823
0000b0 ac 5c 80 3d 0c a2 36 bb 0a 14 81 3e 74 69 30 3d
       0.06267676 -0.0027867584 0.252106 0.043069318
0000c0 bd dc 13 3d 9f 99 7f bd 88 0e 63 bc 7c 88 fc 3d
       0.036099184 -0.062402364 -0.013858445 0.1233072
0000d0 5e 4f 17 3b 6e 5b e5 bc 0f 53 c2 3a 34 81 40 3d
       0.0023088078 -0.027997699 0.0014825779 0.046998218
0000e0 f4 9f bf 3e 2a 93 0d be 33 f4 9b 3d 0e 71 d5 3b
       0.37426722 -0.1382567 0.07614937 0.0065137213
0000f0 d7 1e 2f bd 6f a9 0d 3b 08 76 c4 bd 85 e3 77 bc
       -0.04275402 0.0021615883 -0.09592825 -0.0151299285
000100 14 70 ab 3d 35 72 3f bd 9e 57 44 bd 71 cf 69 3e
       0.083709866 -0.046739776 -0.04793512 0.22833039
000110 e6 e4 a3 3c 86 a6 5b be ed f5 91 3d b4 b6 1d be
       0.020006608 -0.21450242 0.07126985 -0.15401727
000120 a5 8e 78 3d 89 54 4f 3e 62 b6 9d 3e 27 16 8a 3d
       0.06068291 0.20247091 0.3080321 0.067425065
000130 64 89 a8 bd 1e 22 48 be 72 e9 f5 3d 38 59 bd 3d
       -0.0822933 -0.19544265 0.12007417 0.09245533
000140 f9 3d 1b be 57 11 71 3d cb 06 6c bd fe b6 ba 3e
       -0.1516036 0.058854427 -0.057623666 0.36467737
000150 50 5d a3 bd 04 4f 4e 3e 00 46 09 3f d1 36 ac bd
       -0.07976782 0.2014733 0.53622437 -0.08408893
000160 d1 89 7d 3d ef 6e 12 3f 2e f0 67 bd dd 4d ec 3d
       0.06189901 0.5720052 -0.056625538 0.11538289
000170 59 76 d0 3d ed b1 47 3d a8 85 10 3f 86 cd 4d bd
       0.10178823 0.048753668 0.56453943 -0.05024483
000180 20 4b d6 3d 8c 12 2f bd 7b f0 66 bd 18 1c b0 bd
       0.10463548 -0.042742297 -0.056381684 -0.085991085
000190 1c 71 99 3d e8 f2 f8 3e 6f 56 c7 bd 48 51 85 3e
       0.07492277 0.48622823 -0.09733283 0.26038575
0001a0 87 38 b0 bd 59 96 a3 3d 65 5b 7e be 55 17 82 bd
       -0.08604532 0.07987661 -0.24839552 -0.063521065
0001b0 22 4c c7 3e 4a 46 9c 3d 40 52 23 bd df 21 30 bd
       0.38925272 0.07630594 -0.03987336 -0.043001052
0001c0 57 b3 2e bd d2 d3 d5 3e 58 2a 0d 3f c9 af 0b 3f
       -0.0426515 0.4176317 0.55142736 0.545651
0001d0 85 dc 3d bd 31 36 bf 3e 7d 3b e4 3d 72 d8 20 3d
       -0.046352882 0.37346032 0.11144159 0.03926892
0001e0 fe c0 b3 3d 4d 50 a7 bd 78 89 f1 3d bb 63 70 3b
       0.08777045 -0.08169613 0.11793798 0.0036680538
0001f0 8a 6a 21 3f 0b d1 29 3e e5 28 cd bd 24 be e6 bd
       0.6305319 0.1658365 -0.10017566 -0.11266735
000200 80 be b5 bb 2e 1f 30 3e e0 20 f7 3e 1a 87 98 bd
       -0.005546391 0.17199394 0.4826727 -0.074476436
000210 08 75 8f bd 13 00 fd bb 27 d3 07 be 13 b9 80 bd
       -0.07004744 -0.007720956 -0.13264142 -0.062853
000220 79 a8 42 3d 20 81 2f bd 7f 83 4e be d5 2f 30 be
       0.04752395 -0.042847753 -0.2016735 -0.17205746
000230 95 b2 f4 3e 12 06 3b be f3 b5 d0 3e 96 e0 51 bc
       0.47792497 -0.18264034 0.40763816 -0.012809893
000240 78 ec f4 bd 2b e2 21 3d 36 8f 9d 3e 4b c5 c7 3e
       -0.11959165 0.03952233 0.30773324 0.3901771
000250 87 d4 5b bd 57 c3 76 3e da c5 c4 3d 25 0b 9e 3d
       -0.05366948 0.24097954 0.0960805 0.077169694
000260 46 08 96 3e de 72 d8 bc 62 cb a9 3b 51 25 0c 3e
       0.29303187 -0.02642196 0.005181716 0.1368611
000270 fc d6 43 3e 13 c8 e7 3d f7 a4 c1 3d 89 b7 6d bd
       0.19124979 0.11317458 0.09455293 -0.05803636
000280 6d 9f a0 3d 91 66 82 3d d5 44 64 3e 86 bc 3c 3d
       0.07842908 0.06367219 0.22291882 0.046078227
000290 01 4e df 3d f2 4a d0 3e 7f 58 1e bd da 3e 80 3d
       0.1090355 0.4068218 -0.038658615 0.06261988
0002a0 f0 d1 31 3f 50 89 c5 3e 4c 19 34 bd ef 2c 4e 3e
       0.69460964 0.38581324 -0.043969437 0.20134328
0002b0 4b ef 36 be b0 ca cb 3a 71 4e 17 3f 6a 0f 36 3e
       -0.1786472 0.0015548076 0.5910407 0.17779317
0002c0 55 b9 0c bc 7a c2 b2 bb 05 aa 20 3e a7 11 28 be
       -0.0085891085 -0.0054553123 0.15689857 -0.16412984
0002d0 af 3d a3 3d cb b1 26 3b 0f d6 4f 3e 1e 07 f6 3e
       0.079707496 0.0025435563 0.202965 0.48052305
0002e0 ea 45 22 be 15 7f 27 be f1 e4 86 3e 76 a3 ed 3e
       -0.15846983 -0.16357072 0.26346543 0.46413773
0002f0 d4 ad 9d bd fc 67 bd bd 50 6a 6e bd fa 53 56 3d
       -0.07699171 -0.09248349 -0.058206856 0.05232618
000300 dc 8f d5 3e bd f9 9c bd 20 44 02 3e a7 64 a8 3e
       0.41711318 -0.07664821 0.127213 0.32889292
000310 ef b4 bd 3d c3 ff 69 3c 51 98 18 bd 86 5d d2 3d
       0.09263026 0.01428217 -0.037254635 0.102717444
000320 8e f9 f2 3d 04 39 0e be 49 1d 6f 3e 7d 9e d0 bd
       0.11864005 -0.13888937 0.23351015 -0.10186479
000330 ff 1a d5 3d 97 7d 17 3c 59 c9 e6 bd e7 52 1c 3f
       0.1040554 0.009246252 -0.11268873 0.61064
000340 ee f3 6c bc ac b3 4e be 4d 05 1e 3d 39 60 0f bd
       -0.014462454 -0.20185727 0.038579274 -0.035003874
000350 72 bc 7b be 80 42 86 bc 37 96 05 bd b8 a9 e6 bd
       -0.24583605 -0.016389132 -0.03261396 -0.1126284
000360 44 50 b4 3e 30 9d d6 bb 4f d4 32 bd db 02 bb bc
       0.35217488 -0.0065495 -0.043659505 -0.02282851
000370 cd fa e6 bd 9e 72 2d 3a 35 ea 17 be 07 da 20 3e
       -0.11278305 0.00066165056 -0.14835437 0.15708171
000380 ff d4 34 3e e2 7b 40 3e 54 33 c3 3d 59 57 42 be
       0.17659377 0.18797258 0.095312744 -0.18978633
000390 a6 23 d2 3e 40 33 85 be 89 63 37 3e 7b 6a ca 3d
       0.41042823 -0.26015663 0.17909063 0.09883591
0003a0 0e cb bb 3d 1e 66 b1 bd 03 be f2 3d 39 a8 ec bd
       0.09169589 -0.086620554 0.11852648 -0.115555234
0003b0 c6 35 0a 3f 41 f9 a0 bd bf fd dc 3b 3a da 73 3c
       0.539883 -0.078600414 0.006744116 0.014883572
0003c0 42 ec 0b 3d b1 0d 8a 3d 3a 2f 93 3e 01 c2 2e bd
       0.03416086 0.06740893 0.28746969 -0.042665485
0003d0 57 b3 42 3e 36 65 85 3d 90 40 f4 3e 6e ee 80 3e
       0.19013725 0.06513445 0.47705507 0.25181907
0003e0 82 39 f2 3e 40 f7 25 3e 02 99 20 bc 5c 2d d1 3d
       0.473095 0.162076 -0.009802105 0.1021373
0003f0 85 b5 5e 3d 8f 64 7b 3c 7d 0f 1c be 75 8c 94 3e
       0.05437233 0.015343799 -0.15240283 0.2901341
