outputs/Optimal_Control/20220401-144755/models/checkpoint.pt (torch, 533487 bytes, 7 tensors)

linear1.weight f4 [256, 2]
000000 db 3f 04 3f 6f be 18 bf 78 11 1e be 45 df db be
       0.51659936 -0.5966558 -0.15436351 -0.4294378
000010 82 4a 8f 3e a6 68 01 3e 86 55 46 3d d5 4e bb 3d
       0.27986532 0.12637576 0.048421405 0.091458954
000020 b1 fa 9c be 87 4a 20 bf 2c b8 da 3e a6 0d be 3e
       -0.30660012 -0.6261372 0.42718637 0.37119788
000030 a8 61 f6 bd 12 28 c2 be 1f 91 31 bf 98 d8 b0 3d
       -0.12030345 -0.37921196 -0.6936206 0.08635062
000040 50 3f 3d 3e 63 b8 3f bf c4 26 ea 3e 19 75 23 3f
       0.18481183 -0.74890727 0.457327 0.6385055
000050 5f ae 99 be 20 b6 f9 bc 14 a0 3c 3e e2 4a 04 3e
       -0.30015847 -0.030482352 0.1842044 0.1291919
000060 f8 8b cc 3d b3 9c f5 be 4b 12 12 3f ff 8b e0 3e
       0.099876344 -0.47971115 0.5705916 0.4385681
000070 74 2b 05 3e 21 1c 97 bf e0 ef 60 be bd 02 37 3f
       0.13004857 -1.1805459 -0.21966505 0.71488553
000080 ce 78 16 bf 8a 81 8a 3e 9b 65 a3 3e 2b c3 b2 3e
       -0.58778083 0.27051955 0.31913456 0.34914526
000090 f0 db 6f be f0 23 f7 be 8b 84 09 bf ad 0c c1 be
       -0.23423743 -0.48269606 -0.5371787 -0.37704983
0000a0 09 7a 1c 3f 8f 49 7f be 25 7e ad 3e 97 35 18 bf
       0.6112371 -0.24930404 0.33885303 -0.5945677
0000b0 18 20 0c be 50 6e 75 bd 03 00 e2 3e e1 84 19 3f
       -0.13684118 -0.059919655 0.44140634 0.5996838
0000c0 fd 82 0b 3f 8a 36 e9 be fc f8 21 be ad 02 c5 be
       0.5449675 -0.45549423 -0.15817636 -0.38478604
0000d0 3b 4f fa 3e ac d3 92 be 56 28 12 3e 35 35 ac 3e
       0.48888573 -0.28677118 0.142732 0.33634344
0000e0 5c 21 5d 3d 74 ef 7d bd 67 10 c3 3d 3d c2 80 bf
       0.053986892 -0.06199594 0.09524613 -1.0059277
0000f0 60 c1 b2 bd a0 af 1a 3f dc 34 dc be 31 76 b4 be
       -0.087282896 0.6042423 -0.43009079 -0.35246423
000100 21 c4 cb 3d 0f ed e9 3e 4d 91 23 bf 30 48 27 bf
       0.09949518 0.45688674 -0.63893586 -0.65344524
000110 39 26 12 bf 6a 69 c2 3e 75 0f f2 3e 36 8e d7 bd
       -0.57089573 0.3797105 0.47277418 -0.105251715
000120 be ca 97 3e fd 7b 36 bf bd 24 64 be 67 1e 33 3f
       0.29646868 -0.7128294 -0.2227964 0.69968265
000130 12 85 a6 be d3 14 ec be dc 4b 9c be 3e 2c 32 3f
       -0.325234 -0.46109638 -0.30526626 0.6959876
000140 d7 6d 0a 3f 30 78 e5 be db 40 b2 3d 7a ca 9c be
       0.5407385 -0.44818258 0.087037764 -0.30623227
000150 43 b0 86 3e a2 e2 8a be 34 b6 11 bf 46 1c c6 be
       0.26306352 -0.27126032 -0.56918645 -0.38693446
000160 5a b9 d6 3d e2 74 7a 3e bc 8a 42 3e 88 19 a8 3c
       0.10484572 0.2445865 0.18998235 0.020519987
000170 f8 03 f1 3d cd 98 91 3e a1 f2 8d 3e c9 43 06 bf
       0.11768335 0.2843689 0.27724174 -0.5244718
000180 74 9d 90 bd 3e 03 a5 3e ab 9a ef 3e 0d be fc 3c
       -0.07061282 0.32229036 0.4679769 0.030852342
000190 cc 13 24 3e db c8 16 bf 00 00 87 39 6f 61 14 bf
       0.16023177 -0.5890023 0.00025749207 -0.5796117
0001a0 0c 45 9f be de 92 97 3e 7c f2 4a 3e f0 4d d3 3e
       -0.31107366 0.29604238 0.19819063 0.412704
0001b0 f5 b5 eb 3e 46 79 e2 3e d0 71 f3 bd 7d be 0c bf
       0.4603726 0.4423315 -0.118869424 -0.5497816
0001c0 bc 60 11 3f 2f b3 b3 3d 4d 95 e3 be e0 8e 8a 3d
       0.5678823 0.08774411 -0.44449845 0.067655325
0001d0 07 b8 18 bf ea 26 eb be 99 70 f7 3d 48 3d fc 3b
       -0.59655803 -0.45928127 0.12082023 0.007697735
0001e0 6d 90 11 3f 62 ac 2c bf d5 7a d2 3e fa 7c 9b be
       0.56861 -0.67450535 0.41109338 -0.30368787
0001f0 8f e7 1e bf 98 60 4c 3e 62 cd 90 b8 45 54 09 3e
       -0.6207208 0.19958723 -6.9047106e-05 0.13411053
000200 a2 15 04 3f ec 1b d5 3e 03 a8 4b 3e ba 62 86 3e
       0.5159551 0.41622865 0.1988831 0.26247197
000210 dd 02 a4 be 70 c9 81 3d 15 d8 10 bf 68 3e 42 be
       -0.32033435 0.06337249 -0.56579715 -0.18969119
000220 de 27 37 3e 5d 7a 46 bf c8 3e e4 3e 90 ca 29 bf
       0.17886302 -0.7753046 0.44579148 -0.6632471
000230 0d 37 d3 be a2 71 24 bf e8 ab 11 be a0 c1 91 bc
       -0.41252938 -0.6423589 -0.14225733 -0.017792523
000240 0c ea ba 3d b2 3a d4 3e 91 e1 ea 3e f1 fd 02 bf
       0.09126672 0.4145103 0.4587522 -0.51168734
000250 b2 b9 d7 3e ed a1 d8 be 01 f3 a8 be 08 1b ac 3d
       0.42133862 -0.4231104 -0.32997897 0.08403593
000260 3f 63 07 bf 64 db 83 3e 12 b8 ae be d8 ba eb 3d
       -0.5288581 0.2575332 -0.3412481 0.11510247
000270 11 ed 8f 3e 5e 78 1f bf 12 32 38 3e 1e 29 bc be
       0.28110555 -0.6229304 0.1798785 -0.3675012
000280 e5 5f f3 3d 5c c5 15 bf a8 1d 1b 3f eb d4 5c be
       0.11883525 -0.5850427 0.60592127 -0.21565597
000290 df 1e a1 3e 32 6a f3 3c 09 a0 14 bf 61 b3 24 bf
       0.31468865 0.029713724 -0.58056694 -0.6433621
0002a0 0f 87 aa be 40 23 42 bd 61 86 f5 3e 09 76 47 bf
       -0.33306167 -0.0473969 0.47954085 -0.7791448
0002b0 c1 87 3a 3e d1 f6 2f bf 55 4c 5e 3e 6e 7a 77 3e
       0.18215849 -0.68735987 0.21708806 0.24167797
0002c0 b7 78 1a bf 24 cd c1 be 57 61 c4 3d bf cc 1d be
       -0.60340446 -0.37851822 0.095888786 -0.15410136
0002d0 8d 55 d5 3e 59 f7 12 3f 71 30 24 bf 92 82 df be
       0.41666833 0.5740867 -0.64136416 -0.43654305
0002e0 4e 95 ac 3e c8 52 52 bf 60 32 93 bd e3 9b 93 be
       0.3370766 -0.82157564 -0.07187343 -0.2882987
0002f0 94 98 96 be 40 5d e7 3d b1 e1 b4 be db 48 2e bf
       -0.29413283 0.11297083 -0.3532844 -0.6807992
000300 f3 36 ff 3e 47 4f 02 bc 8d 93 96 3e 70 40 d6 bc
       0.4984661 -0.0079534715 0.29409447 -0.026153773
000310 68 9d 2b bf e8 bf 20 be 10 53 d3 bd 05 04 30 bf
       -0.6703706 -0.15698206 -0.10318577 -0.68756133
000320 f8 40 05 bf 00 a8 f1 3a d8 d4 b4 be 08 fc f1 be
       -0.5205226 0.0018436909 -0.35318637 -0.47262597
000330 58 15 d5 be a7 98 dc be 95 70 cb 3e fe 35 f8 3e
       -0.41617846 -0.43085214 0.3973433 0.48478693
000340 22 b4 07 bf 7d 6e 32 bf 98 df b0 be 40 d7 45 3e
       -0.53009236 -0.6969984 -0.34545588 0.19320393
000350 e2 a0 f7 3e 0c 5f 11 bd 96 1e d1 3e dd 58 9a be
       0.4836493 -0.035491034 0.40843648 -0.30145922
000360 9e cb 9f bd 13 6e 85 3e 75 f5 04 bf 47 d7 98 be
       -0.07802509 0.26060542 -0.5193704 -0.29851744
000370 30 22 c2 bd bc 0c f4 3e 2c e0 25 bf eb 6d d7 be
       -0.09479177 0.47665966 -0.64795184 -0.42076048
000380 3c a6 c8 3e 5f 6d a3 3e 25 f0 08 be f1 d4 17 3f
       0.39189327 0.3191938 -0.13372858 0.593093
000390 04 71 91 bd ea 06 46 3f ec d7 ce be 49 10 ad 3e
       -0.07101634 0.773543 -0.4039911 0.33801487
0003a0 88 81 ca bb a7 fa 91 3e f9 42 02 3c b2 b1 04 3f
       -0.006179992 0.28511545 0.007950538 0.5183364
0003b0 33 05 a0 bd 6e 59 40 3e 80 d2 f3 bb f0 0b d3 bd
       -0.07813492 0.18784115 -0.007440865 -0.10305011
0003c0 8f 4c c3 3e 7b f3 84 3d 8d c1 7b 3e 6a d4 3a 3e
       0.38144347 0.06491753 0.24585553 0.18245092
0003d0 1c 82 82 3e 88 e5 00 be b3 f4 8e be 55 06 41 3f
       0.2548989 -0.12587559 -0.27921066 0.75400287
0003e0 20 b5 09 bf 58 13 78 3e d1 7a 2c bf 90 fa 30 be
       -0.53792 0.24226129 -0.673749 -0.17283082
0003f0 47 0d 03 bf c0 e1 ee 3c 25 d3 33 3e f6 6e 9a 3e
       -0.51192135 0.02916038 0.17561014 0.3016278

linear1.bias f4 [256]
000000 d6 aa b7 3f 8c 3a 02 3e 67 54 00 3f e4 ad 9b bf
       1.434901 0.12717646 0.5012879 -1.2162442
000010 9c 0b e2 3c 47 25 bd 3f 98 37 bf bd 04 e5 17 3f
       0.027593426 1.4777001 -0.093367755 0.59333825
000020 73 ad 7b 3f 07 6d b6 3e 00 61 ab bb ad 91 a9 bf
       0.9831154 0.35630056 -0.005230069 -1.3247582
000030 6a fd db be 17 a2 c5 bf 65 99 2e 3e 75 a8 2b 3f
       -0.42966777 -1.5440091 0.17050703 0.6705392
000040 88 34 c7 bd 23 0b bc bf 2f 66 ad be 55 29 07 3f
       -0.097268164 -1.4690899 -0.33867022 0.5279744
000050 f0 e2 ba 3f 85 ec a1 bf 6e 34 9d be 41 7c 66 3f
       1.4600506 -1.2650305 -0.30704063 0.90033346
000060 88 f0 59 3f 30 f4 7b 3e 6e bd 61 3f de 18 a4 bf
       0.85132647 0.24604869 0.8817967 -1.2820089
000070 d2 ef 9f bf b2 97 42 3f 6f ae bc bf 70 9e 2b 3e
       -1.2495062 0.7601272 -1.4740733 0.16759658
000080 6f e1 80 bf 06 0b ca 3d fc 7b 1c 3f 70 6c 9e bd
       -1.0068797 0.09865384 0.61126685 -0.077355266
000090 7f d5 5a bf 65 8b 92 3f 0e 0a f2 3e 85 70 3f bf
       -0.8548202 1.144879 0.47273296 -0.74781066
0000a0 15 6b c4 3f 47 dd 4e 3f fa db 4d bf 69 43 77 3e
       1.5345179 0.8080639 -0.8041378 0.24146809
0000b0 27 08 a9 3f 79 7a e8 bf 11 83 c7 bf 2e 59 b3 3f
       1.3205613 -1.8162376 -1.5586873 1.401159
0000c0 fa fa 8c 3f b1 96 60 bf a7 2f 8c 3f 44 a4 81 be
       1.1014092 -0.87729937 1.0952042 -0.25320637
0000d0 60 e5 9d bd 87 85 8d 3f 2e f6 92 3f ba 24 1d 3f
       -0.077097654 1.1056374 1.1481378 0.61384165
0000e0 a1 88 df bf 8d 91 1a bf 50 29 f1 be 6d 13 97 3f
       -1.7463571 -0.6037834 -0.4710183 1.1802803
0000f0 0b 51 77 bf 9b 6a c5 3f 8a 90 ab 3e 4a 7a 6b bf
       -0.96608037 1.5423158 0.33508712 -0.91983473
000100 c1 a4 69 3f 01 ef 88 bf ed 78 f4 be 96 a1 cc 3e
       0.9126702 -1.0697938 -0.4774851 0.3996703
000110 2e 75 7f 3e cf 03 ad bf 9f d7 1b bf 69 46 8b be
       0.24947044 -1.3516787 -0.60875887 -0.27202156
000120 7d 17 cc bf b0 8d b6 bf 39 e9 2c 3f 52 37 88 3e
       -1.5944668 -1.426199 0.6754337 0.26604706
000130 4c 79 0e 3f 6f 23 86 3e f3 81 b0 bf b4 a2 83 3f
       0.55653834 0.2619891 -1.3789657 1.0284028
000140 70 81 29 bf 2d a1 d7 bf d4 ac 54 3e c4 fa c2 be
       -0.6621313 -1.6846062 0.20769054 -0.38081944
000150 d3 2c 3e 3e 76 8d 73 3f 32 ad 73 3f f1 16 bf bf
       0.18571787 0.9513773 0.9518615 -1.4928876
000160 1e ba b9 3d 42 77 b1 bf 19 9a 90 3f 0c 8e 75 ba
       0.09068702 -1.386452 1.1297027 -0.0009367175
000170 c8 30 0b bf f9 29 df 3e ed a2 07 3f 32 17 8c be
       -0.5437131 0.4358671 0.5298298 -0.27361447
000180 13 49 62 be f4 94 c8 bf b8 51 14 3f 4a d8 da be
       -0.22098188 -1.5670457 0.5793719 -0.4274314
000190 6b 9b ae 3d 96 00 0e bf 37 d3 b3 ba 9d 5d 92 3f
       0.085257374 -0.55469644 -0.0013719563 1.1434819
0001a0 e9 b7 36 3e 7f c9 cf 3e 92 fc 98 3c 7c a3 ae 3f
       0.17843594 0.40583417 0.018675122 1.3643641
0001b0 66 52 f7 be 30 c2 d5 be 6b b3 f7 be 97 fc 29 3f
       -0.48305053 -0.41749716 -0.48379073 0.66401047
0001c0 d1 a1 b0 bf b6 f5 06 bf 82 b3 d5 3f 30 20 16 3f
       -1.3799382 -0.52718675 1.6695406 0.58642864
0001d0 92 56 90 bf 7c 5e d7 bf 2b 9c a1 be cc a3 09 bf
       -1.1276419 -1.6825709 -0.3156446 -0.5376556
0001e0 0f d7 3d be 32 d3 f5 be 59 ed bd bf 88 13 88 bf
       -0.1853907 -0.48012692 -1.4838058 -1.063096
0001f0 09 72 b2 be a3 1a 8d 3e 02 5d 99 be 6e 13 17 3f
       -0.34852627 0.27559385 -0.29953772 0.5901402
000200 2b cb a0 bf 6c 63 38 3e 61 ca 18 3f a4 86 c4 3f
       -1.2562002 0.18006676 0.59683806 1.5353589
000210 b4 4d a5 bf e5 0e d3 bf c0 18 d6 be 9c c4 07 3f
       -1.2914338 -1.648892 -0.41815758 0.5303438
000220 e7 e1 87 3e ce 43 d5 bf 03 53 75 bf f4 79 4c bf
       0.26539537 -1.6661317 -0.9582979 -0.79873586
000230 c5 17 64 bf 8c f4 89 be 95 0c e6 be a7 34 e5 bf
       -0.8909877 -0.26944387 -0.44931474 -1.7906693
000240 d4 47 28 bf 8b 83 d5 bf 5a 34 15 3f 9e 02 82 3f
       -0.657346 -1.6680769 0.5828301 1.0157049
000250 58 1a 95 3f c5 67 d5 3f 4e e6 c0 be 8e 31 ed be
       1.1648664 1.6672293 -0.3767571 -0.4632687
000260 25 d9 95 3f d9 46 b7 3f aa 29 7f bf a7 a1 10 3f
       1.1706892 1.4318496 -0.9967295 0.5649666
000270 a7 88 81 3f 99 db dc 3f c5 de 93 3f e2 01 02 bf
       1.0119828 1.7254516 1.1552359 -0.5078412
000280 45 e0 85 be d3 99 5f 3f 6f 53 0f bf 6c a7 be bf
       -0.26147667 0.8734409 -0.55986685 -1.4894843
000290 1d d6 63 bf ea 30 ce bf f0 60 00 bd c1 c8 6c 3f
       -0.88998586 -1.6108677 -0.031342447 0.92493826
0002a0 c0 64 8d 3e 94 d3 90 bf e8 dd 28 be a4 0f c2 bf
       0.2761593 -1.1314569 -0.164909 -1.5161023
0002b0 27 0f ce bf a8 29 dc be 21 2b 81 3e f7 38 88 3f
       -1.6098374 -0.4300053 0.25228217 1.0642384
0002c0 ab ca 84 3f bd 2b a5 bf 80 ff 08 bf f1 65 d0 3f
       1.0374349 -1.2903973 -0.5351486 1.628111
0002d0 c6 af bc bf 51 26 8e 3f 80 69 47 bd e0 f9 b9 bf
       -1.4741142 1.1105443 -0.048684597 -1.4529381
0002e0 e1 58 d2 bf aa a9 61 bf ac 59 85 bf 21 6b c1 bf
       -1.6433374 -0.8814951 -1.0417991 -1.5110818
0002f0 ad 56 8f bf 76 2b b0 bf 0b 4f 58 bf dc 5b 12 3f
       -1.1198326 -1.3763263 -0.8449561 0.57171416
000300 72 bd a1 3f 76 d9 50 3e b2 d7 8c 3f 6d c6 70 3f
       1.2635939 0.20395455 1.1003325 0.94052774
000310 f4 ab 0c be b4 50 40 3f 35 55 a0 3f 64 43 b5 3f
       -0.1373747 0.75123143 1.2526003 1.4161191
000320 11 f0 bb bf 87 ae 9c 3f df 92 56 bf 10 72 ed 3e
       -1.4682637 1.2240762 -0.8381786 0.46376085
000330 b4 34 21 be 84 c8 46 bf 82 8b f0 be 7c 42 94 3d
       -0.15742761 -0.7764971 -0.46981436 0.072392434
000340 42 ca 12 bf f1 c8 a7 3e ab 94 c2 be 52 34 93 bf
       -0.5733987 0.32770494 -0.3800405 -1.1500342
000350 d7 83 b1 bf 52 4e e5 bf ae 19 ae bf ee f2 9a 3f
       -1.3868359 -1.7914526 -1.3601587 1.2105386
000360 bd 33 ca bf 3e ca 29 3f 94 4b ac bf 80 7f 80 bd
       -1.5797039 0.6632422 -1.3460565 -0.06274319
000370 a6 a8 39 bf 9e 2b ff 3e 2b 95 11 3e 52 ba ea 3e
       -0.7252296 0.49837965 0.1421706 0.45845276
000380 19 77 c5 3f ac a9 c6 3f 15 d0 b0 bf e1 00 17 bf
       1.5426971 1.552053 -1.3813502 -0.58985716
000390 d0 ad a2 be b0 6b d3 3f b0 29 50 3e e4 20 92 3f
       -0.31773233 1.6517239 0.20328403 1.1416287
0003a0 f3 08 bb bf 40 ed 74 bd e2 a3 c6 3f 57 9e a5 3f
       -1.4612106 -0.05979657 1.5518763 1.2938946
0003b0 13 3d e4 bf 57 58 d6 bf 90 25 11 bd 00 5d 75 be
       -1.7831138 -1.6745709 -0.035436213 -0.23961258
0003c0 dd 55 8a bf 77 e8 eb be 76 b4 ba bf 57 da df bf
       -1.0807453 -0.46075794 -1.4586322 -1.7488507
0003d0 b7 7c 83 3f 04 c7 0c bf 3e af bf be 15 c3 22 bf
       1.0272435 -0.54991174 -0.37438387 -0.6357892
0003e0 f7 82 e9 bf d6 87 db bf b4 13 9b be 24 f3 de bf
       -1.8243092 -1.7150829 -0.3028847 -1.7417951
0003f0 b7 8b dc be 2d 38 f8 3d 14 9a 7c bf bb 6a 8f bf
       -0.43075344 0.1212009 -0.98672605 -1.1204447

linear2.weight f4 [256, 256]
000000 46 91 52 3d 63 72 5c bd f6 e3 57 bc 24 08 8a 3c
       0.051408075 -0.053820025 -0.013176909 0.016849585
000010 ed 53 27 bc d7 1d 82 bd f8 8e 8d bc df 2f 06 3d
       -0.010212881 -0.06353348 -0.017280087 0.032760497
000020 d0 a5 5d bc 6e 7c f5 bc d0 34 fe bc bb 60 53 3d
       -0.013528302 -0.02996656 -0.031031042 0.05160592
000030 02 6d ff bc d1 1e a6 3c b6 96 47 3c f2 cf d5 3b
       -0.031179909 0.020278366 0.012181928 0.006525033
000040 78 74 1c 3c 0d b8 44 3c 42 2d 35 bd c5 16 2f bd
       0.009549253 0.012006772 -0.044232614 -0.042746324
000050 6a 1d 7d 3c 8a dd 2d bd fc cd 15 bd ff d5 08 39
       0.015448907 -0.042447604 -0.036573395 0.0001304969
000060 53 a7 d2 bc 10 c6 95 3c fe 60 4e 3d a4 66 05 3d
       -0.025714552 0.01828292 0.050385468 0.03256859
000070 c9 b0 75 3c 38 e3 6d 3d 63 61 2b bd 1e 49 72 bd
       0.014995762 0.05807802 -0.041840922 -0.05915176
000080 29 2b 77 3d 36 8f 5d bd cd da 21 b9 00 a4 0b 3c
       0.060343895 -0.054091655 -0.00015435666 0.008522987
000090 bb 07 47 bd 41 32 7a 3c 38 93 2e bd 74 e3 af 3a
       -0.048591357 0.0152707705 -0.042620867 0.0013419227
0000a0 1a 09 d9 3c 80 29 b1 3c 17 87 f4 bc d9 44 78 3c
       0.026493598 0.021626234 -0.029849572 0.015153133
0000b0 9b e4 10 3d 89 65 f8 bc 38 c6 87 bc 3b 85 d3 3b
       0.035374265 -0.030321853 -0.01657401 0.0064550913
0000c0 53 28 c1 bc be 66 25 bd c6 0b 41 bd 3a 8b 6b 3d
       -0.023578798 -0.040381186 -0.04713037 0.057505824
0000d0 76 b2 46 bd 34 7c 1f bd 7a 27 54 bd 40 e5 f1 ba
       -0.048510037 -0.03893681 -0.05179546 -0.0018455163
0000e0 20 ae c3 bc 48 69 1f bc 3e e8 3c 3d 18 27 d9 3b
       -0.02388674 -0.009729691 0.04611992 0.006626975
0000f0 53 9b ac bc f9 46 04 bd 6a d3 90 3c 47 c7 b0 3c
       -0.021070158 -0.032294247 0.017678935 0.021579398
000100 1c 19 7e bd a6 d5 7a 3c 50 26 82 3c 4b 18 27 bd
       -0.062035665 0.015309727 0.01588741 -0.040794652
000110 e8 4a bb 3c 73 b2 b8 3c b0 de 5f 3c 00 09 d2 ba
       0.022862867 0.022546029 0.013663933 -0.0016024411
000120 a6 fb 45 bc fa 6f 27 3d 2b 5c 20 bd a3 cb fc 3c
       -0.012083923 0.040878274 -0.0391504 0.03085882
000130 3b ed bf 3c 4b ff 5b bd f2 06 bf 3b 9b cb 7d bd
       0.02342855 -0.053710263 0.0058296854 -0.06196175
000140 28 b7 07 3d fd 74 76 3d 91 97 5f 3d b0 db b5 3c
       0.033133656 0.060170162 0.054587904 0.022199482
000150 70 b6 9e ba 3f 66 75 bd 0a 6c 14 bb 72 70 04 3d
       -0.0012108814 -0.059911963 -0.0022647404 0.0323338
000160 2f fd e5 bc 4a 4a 39 3d 23 1a 69 3b 99 d2 31 3d
       -0.028074829 0.045236863 0.0035568557 0.043413732
000170 55 9e d6 bc f1 4f 1d 3d f1 87 55 bd 0c 38 69 bd
       -0.026198545 0.038406316 -0.052131597 -0.056938216
000180 24 d8 3d 3d 69 33 30 bd c8 6e 55 bd fa 9c 4e 3d
       0.046348706 -0.04301778 -0.052107602 0.050442673
000190 de 45 50 bd 84 c2 6c 3d 95 b4 9f bc 7f df 06 3c
       -0.05084788 0.057802692 -0.019495288 0.008231997
0001a0 ea b1 d2 bc 92 a5 dd 3c ef 35 24 3d 6a 64 9b 3b
       -0.025719602 0.02705649 0.040090498 0.004742195
0001b0 1a cd 4d bd ec 39 0e bd 43 21 06 bc 35 e3 4c bd
       -0.05024443 -0.034723207 -0.008186641 -0.05002137
0001c0 db 7d 4f bd 1d 41 49 3c d4 b0 53 3d 21 d7 d5 3c
       -0.050657135 0.012283591 0.05168231 0.026103558
0001d0 1e 07 22 bd e6 5b e1 bc 27 6a 63 bd 7a b3 4d bd
       -0.03955757 -0.02750964 -0.055521157 -0.05021999
0001e0 dd 11 bf 3c 2e ad 08 3c ec 5b f2 3c f1 6a 40 3d
       0.023323948 0.0083420705 0.029584847 0.046976987
0001f0 88 47 1a bc 76 2b a4 3c c8 1b ab bc ab 82 3f 3d
       -0.009416468 0.020040255 -0.02088727 0.046755474
000200 4e 91 7f 3c 62 57 7e bc 5f d4 b2 bc a5 50 20 3d
       0.015598608 -0.015523763 -0.021829782 0.03913941
000210 21 4f e4 3c 1c 5b 46 bd 88 51 c2 3c 1b 8e 43 bc
       0.027869763 -0.048426732 0.023720518 -0.011935736
000220 7a 5e 6d 3d bb 7e 0c 3c 72 fb e2 bc 29 f5 27 bd
       0.057951428 0.008575137 -0.02770779 -0.041005287
000230 80 b1 62 bd ca 00 70 bd e0 86 98 bc 4c 1c 72 3d
       -0.05534506 -0.058594503 -0.018619 0.059109017
000240 68 05 63 bc 37 4d 60 bd e4 7f b4 3b 23 e9 a5 bc
       -0.013856269 -0.054761138 0.00550841 -0.02025277
000250 df 61 78 3b 70 81 7b bb d0 25 7d bd 66 3f 5f bd
       0.0037900133 -0.0038376711 -0.06180364 -0.05450382
000260 2a 3f 0c bd b5 6a a8 bc 86 7b 9f 3c 17 0c 6a bc
       -0.034239925 -0.020558694 0.01946808 -0.014285109
000270 f4 3d 19 bd c5 d7 19 bd 78 46 d4 ba aa 45 66 bd
       -0.0374126 -0.03755929 -0.0016195318 -0.05621878
000280 37 a6 5e bc a5 ff c5 bc c4 c6 92 bc 87 6d 14 bb
       -0.013589433 -0.024169752 -0.017917044 -0.0022648291
000290 7e b2 c8 bc f8 14 0b bd d8 fe 5d bd 37 70 1d 3d
       -0.024499174 -0.033955544 -0.054198116 0.038437095
0002a0 87 0d a2 bb 40 5d 45 bd 54 f8 6f bd be d8 a6 3c
       -0.0049454602 -0.048184633 -0.058586434 0.020367023
0002b0 d8 ce 0c bd f8 e0 60 bd bc db 14 3d 3e d2 40 3d
       -0.03437695 -0.054902047 0.036342368 0.047075503
0002c0 fa 78 2f bd f8 b4 76 bd e4 9e 55 3d c6 a6 52 3d
       -0.04283998 -0.06023118 0.052153483 0.05142858
0002d0 4d ab 31 bd f5 b8 3d bd 40 35 50 3d 24 fa e9 3c
       -0.043376256 -0.046318967 0.050832033 0.02856166
0002e0 31 fd 4d 3c fd 9e 06 bc 18 d8 50 3d 49 21 eb 3a
       0.012572573 -0.008216617 0.050987333 0.0017938997
0002f0 ed ef 55 bc f7 71 e6 bb c1 e0 85 3a 46 8d 7d 3c
       -0.013057691 -0.0070326286 0.0010214077 0.015475577
000300 ae 02 3c 3d c7 85 a1 3b 96 6c 3b bc 79 bd 29 3d
       0.045900993 0.0049292776 -0.011439463 0.04144046
000310 ec 8b 93 bc dc cc 41 bd e3 cf 76 bd 4b 3b 74 bc
       -0.018011056 -0.04731451 -0.06025685 -0.014906715
000320 88 a9 e1 bc 7c b3 50 bd 14 93 00 3d 2b b6 59 bc
       -0.02754666 -0.05095242 0.031390265 -0.013288061
000330 1c 7e a4 3c 4d c5 39 3d 5e c0 1b 3d 0a d5 9f bc
       0.020079665 0.045354176 0.038025253 -0.019510765
000340 7e 32 37 bd 86 19 bc bc fe 13 00 3d 63 00 1d bc
       -0.044725887 -0.02296139 0.031269066 -0.009582612
000350 1f 9f 9e 3c 8f 86 05 bd 85 12 43 3d e3 ed 4b 3d
       0.019362984 -0.03259903 0.047625083 0.049787413
000360 67 da 15 bd cc a8 05 3d 67 13 d4 bc 64 3a e8 bc
       -0.036585238 0.03263168 -0.025888158 -0.028348155
000370 63 1b 1c bd 69 10 31 3d 09 79 52 bd ab d4 c7 3c
       -0.038112056 0.04322854 -0.05138496 0.0243934
000380 b6 87 ba 3c a7 e8 6a bb 1d 44 5e 3d 1e 98 67 3d
       0.02276979 -0.0035844238 0.054264177 0.056541555
000390 6c 7f 74 bd 73 2e 69 3d 04 ae f4 3c 39 e3 f1 bc
       -0.05969183 0.056929063 0.029868133 -0.029527294
0003a0 51 f3 10 bd 28 6b cd 3c c2 2a 11 bd 59 76 83 bc
       -0.035388295 0.02507551 -0.035441168 -0.016047643
0003b0 91 86 64 bd 45 36 3d bc 44 cc 28 3d 20 ae e8 bb
       -0.055792395 -0.011548583 0.041210428 -0.0071008354
0003c0 de e8 e6 bb 65 0a cf ba 27 5d ff bc 4e 06 de 3b
       -0.007046803 -0.0015795944 -0.031172348 0.006775654
0003d0 94 04 0b 3d 8e 3d 6c 3d 80 40 ee ba cb 1d 1c 3d
       0.033939913 0.05767589 -0.0018177181 0.03811435
0003e0 87 75 19 3c 71 9f 70 3c f2 0f 31 3d 07 b8 f4 3b
       0.0093664 0.014686451 0.043228097 0.007468227
0003f0 0c 67 a8 bc b6 cf e8 3b c2 c5 76 bd 1f 24 30 3d
       -0.02055695 0.007104839 -0.06024719 0.043003198

linear2.bias f4 [256]
000000 e7 3c 41 3d c0 e7 e5 bc a4 fc 8c 3b 2b c9 03 3c
       0.04717722 -0.028064609 0.004302578 0.008043568
000010 00 fe 5e b9 50 1d 21 bd 5a 83 bb be 13 bb 36 3c
       -0.00021266192 -0.039334595 -0.3662365 0.011153
000020 7a d7 30 3b ae 7b 4f 3c f6 ef 68 bd c9 0f a4 3c
       0.0026983903 0.012663765 -0.05686947 0.020027058
000030 7a fd 61 3d 43 a1 c8 3d 1e f1 01 3e f1 3f 9f bd
       0.055173375 0.09796383 0.12689635 -0.07775868
000040 12 dc 1e 3d b0 b2 c1 3c 01 1c 82 bb 6c 5d fc bc
       0.038784094 0.023644775 -0.0039706235 -0.030806266
000050 fd 49 fa 3d 2c dc b6 3c 1b 99 a5 3b 8d 7b 4c 3e
       0.122211434 0.022321783 0.005053652 0.19969006
000060 3d 7b 31 3d 10 c1 8a bf 90 9e c0 bb 95 d9 eb bc
       0.04333042 -1.0840168 -0.005878277 -0.028790275
000070 cc 36 4e bd f0 c2 97 bc e8 02 20 bc bf ea d3 3c
       -0.050345227 -0.01852557 -0.009766318 0.025868772
000080 2e 21 2c bd 7e f5 59 bd 9f 6e 80 3f 31 98 61 bd
       -0.04202383 -0.053212635 1.0033759 -0.05507678
000090 02 87 0f bd 55 d3 49 3d 9c c0 90 3c b0 e4 03 bd
       -0.035040863 0.049273808 0.017669968 -0.032200515
0000a0 06 cb 11 bd 9f 2f f3 bc b8 96 4e bc 8f e7 e6 3c
       -0.03559401 -0.029685793 -0.012609176 0.028186588
0000b0 f3 fa c7 bc 35 3b 9f bc c9 5e c8 be e9 37 73 bd
       -0.024411654 -0.019437412 -0.39134815 -0.059379492
0000c0 e0 13 e2 bb 94 1e 30 3d e5 74 e5 3d ef 5c 2c 3e
       -0.006899342 0.04299791 0.112039365 0.16832326
0000d0 0c d0 1d bd ef 64 3e bb a1 e1 b9 bc 18 5c 51 bd
       -0.038528487 -0.002905186 -0.022690596 -0.051113218
0000e0 40 76 ee 3c c4 f0 ad bc b4 c6 87 bc 90 82 98 3c
       0.02910912 -0.02123297 -0.016574241 0.018616945
0000f0 3b fb 1b bb b1 5f 66 bc b1 d6 d9 bc 78 73 05 bc
       -0.0023800868 -0.014060901 -0.02659163 -0.008145206
000100 ab 0c 88 bc 9a 79 14 3d 6e 6c f4 3d 04 5f 3a 3f
       -0.016607603 0.03624878 0.11934744 0.7280123
000110 9f 71 aa bc 60 b0 d6 3b 07 58 38 bc 9a b5 62 3d
       -0.020806132 0.0065517873 -0.011251456 0.05534897
000120 91 eb 98 3c 12 d5 5a bd 8a 8f 20 3d 0b 20 eb 3c
       0.018667014 -0.053425856 0.03919939 0.028701803
000130 e6 dd ce 3d 3d e2 65 3d 0f bc a2 3c 25 89 81 bc
       0.101009175 0.05612396 0.019865064 -0.015812466
000140 71 bd ef 3c 37 4c 31 3d 60 01 18 bb c8 af 71 3d
       0.029265137 0.043285575 -0.002319418 0.05900553
000150 3b a2 58 3c fd cd f9 3c 9e b7 06 3d c0 84 f0 3c
       0.0132222725 0.03049373 0.032889955 0.029360175
000160 7c 26 63 3c 65 18 16 bc 00 48 13 bc 75 3a ab 3d
       0.013864156 -0.00916109 -0.008989334 0.08360759
000170 58 2c d4 3c 27 d4 4c bd c4 8d 52 3d 14 0e 06 bd
       0.025900051 -0.05000701 0.05140473 -0.03272827
000180 7c 9b 4f 3d d4 9c 59 bd 5d c3 c2 3c 50 74 39 3c
       0.05068539 -0.05312808 0.023774797 0.011319235
000190 b1 1c 35 3d 71 56 0e 3c f5 ec 61 bb 20 41 ac 3c
       0.044216815 0.008687601 -0.0034473513 0.021027148
0001a0 68 fb 24 bd 8a ef 98 ba a2 41 6b bd ba 05 34 bd
       -0.040278822 -0.0011668068 -0.05743564 -0.043950774
0001b0 78 f0 1b bd ad ef e2 bc a8 33 19 bd be 95 3f 38
       -0.038071126 -0.027702177 -0.03740278 4.5677407e-05
0001c0 a1 31 44 bf 4a 75 96 3b 57 0d 80 3c 25 81 a7 3c
       -0.7663823 0.0045916187 0.015631361 0.020447323
0001d0 c6 bd 7f 3d da c7 a3 bc 62 4f 8a bd 43 5b 98 3c
       0.06243684 -0.019992758 -0.06753422 0.018598204
0001e0 4e 10 1f 3d dd ca 82 bc c0 dc 5b bd 38 7b f2 3c
       0.03883391 -0.015965873 -0.05367732 0.02959977
0001f0 90 47 49 bd 3b 05 e2 3d 6b 8f 09 3f 1c 79 3e bf
       -0.049140513 0.11036154 0.53734463 -0.7440355
000200 fe cf 09 bd b5 3f eb 3d 9c 09 54 3c 45 6c 65 bc
       -0.033645622 0.114867605 0.012941744 -0.014002864
000210 0c c3 25 bd 00 8e 2d 3b 56 7e 0b 3d aa 44 18 3b
       -0.040469214 0.0026482344 0.03405603 0.0023234286
000220 c4 16 33 bd b0 07 ae 3c 7d df 72 3b 13 ef 18 3d
       -0.043722883 0.0212439 0.003705948 0.037337374
000230 95 fe 4d bc a5 36 b2 bc d7 8b 89 3d dd 67 db 3d
       -0.012572904 -0.021754572 0.067161255 0.1071317
000240 5d 4f 10 bd 90 48 f2 bb 1e 90 55 bd 18 87 7d bd
       -0.035231937 -0.007393904 -0.052139394 -0.061896414
000250 79 fc 2e 3d 4e c3 72 3d a1 1b c7 3b f6 da 0d bd
       0.042721245 0.05926829 0.0060762917 -0.034632646
000260 4b 30 ec be 62 fd 1b 3c f8 f0 2c 3c 05 49 26 bd
       -0.46130595 0.00952086 0.010555498 -0.04059698
000270 07 3b 8a bf a8 88 7e bd 2b 1a 44 bc fc 1f 55 3d
       -1.0799264 -0.062142044 -0.01196913 0.052032456
000280 f8 17 a5 bd 00 82 84 bf 51 b6 f2 be 4a d0 60 bd
       -0.08061212 -1.0352173 -0.4740472 -0.05488614
000290 c8 5e 2c 3d ce 9c a2 3c d2 e1 ff bb b5 4f 45 bd
       0.042082578 0.01985016 -0.0078089023 -0.048171718
0002a0 a0 80 47 bd f2 b2 73 3c 05 3a 1d 3d b6 9e e2 3c
       -0.04870665 0.014874207 0.03838541 0.02766357
0002b0 62 a0 37 bd 0a 0d 02 3d de 8e 02 bd 95 91 9c 3b
       -0.044830687 0.031750716 -0.03187453 0.004778097
0002c0 41 ce 93 3c aa 25 51 3d 81 49 4d bd 4d c8 28 bc
       0.018042685 0.05106131 -0.050118927 -0.010301662
0002d0 fe c6 a3 be f5 76 83 bd 00 95 13 bc 78 4b 6d bc
       -0.31987756 -0.06419174 -0.009007692 -0.014483325
0002e0 cc ad f5 bc 98 b3 57 3d e6 71 59 bb af f6 92 bc
       -0.0299901 0.05266151 -0.003317946 -0.017939894
0002f0 ca ec 6f ba 26 fd e5 be 63 c8 30 bd 1e 66 80 3e
       -0.0009152411 -0.449197 -0.043159854 0.2507791
000300 7e 21 77 3d 52 04 ec 3c ca 15 ce bb 78 07 34 3c
       0.060334675 0.028810654 -0.0062892186 0.010988109
000310 33 45 cb bd 8e 20 fb be 09 da 6a 3d fa 4b e5 3c
       -0.09925308 -0.49048275 0.05733684 0.02799033
000320 6a dd c7 3c b2 ba 11 bd 6c 40 7d 3c 06 e5 59 3d
       0.02439757 -0.035578437 0.015457254 0.05319693
000330 58 4a 0b 3d a9 91 0b bc f3 87 fb bc 53 ff f0 3c
       0.034006447 -0.008518615 -0.030704474 0.029418623
000340 6e 87 9e bc 39 aa 03 bd 2c 07 d6 3e 81 95 22 3d
       -0.019351687 -0.03214476 0.41802347 0.03969336
000350 18 0d 2c 3c 49 91 49 bd b0 6e 5d 3d af 67 21 bd
       0.010501169 -0.04921082 0.054060638 -0.03940552
000360 96 ac 02 bd e8 d2 d0 3c 16 f6 b4 bc b4 5c 1e 3d
       -0.031902872 0.025491193 -0.02209 0.038662627
000370 e3 5d 0a bd 20 d1 69 3b 84 d7 46 bc ff 8a 0c bd
       -0.033780944 0.0035677627 -0.012136344 -0.034312245
000380 75 b9 29 3d 34 1d 02 bd 72 c5 18 bd c7 4a 77 bb
       0.04143663 -0.03176613 -0.037297674 -0.003773378
000390 64 81 59 bd a0 3e 11 bd ed 48 12 3d 38 20 1e bd
       -0.053101912 -0.035460114 0.03571408 -0.038604945
0003a0 e4 d4 38 3e cb 28 b8 bc 6a a3 c5 bc 88 9f 6a 3a
       0.18049961 -0.02248039 -0.024125773 0.00089501636
0003b0 37 67 eb bc 6e f5 38 3d a9 c0 dd 3d a0 4b 3e 3c
       -0.02873574 0.045155935 0.10827763 0.01161471
0003c0 00 53 4b bf c8 22 56 bd fc c7 5c 3d e0 75 aa 3c
       -0.7942352 -0.052279264 0.053901657 0.02080816
0003d0 e9 33 0e 3d a0 f3 59 ba 20 a4 d0 3c b5 2c d9 3c
       0.034717474 -0.0008314196 0.025468886 0.026510576
0003e0 89 14 5d 3f 00 ed f7 39 4d dc 05 bf c5 25 06 3d
       0.8635946 0.0004728809 -0.5228928 0.032750864
0003f0 39 3e 4c 3d 14 40 80 bc 19 0b af ba ca 3f 80 3c
       0.049864028 -0.015655555 -0.0013354748 0.015655417

linear4.weight f4 [256, 256]
000000 85 f4 bb 3c 96 eb ed 3d ce b6 55 3d 07 50 2b bd
       0.022943744 0.116172 0.05217629 -0.041824367
000010 8c e8 17 3d 14 bf d1 bc ae ae 62 3d f0 b9 93 3c
       0.03708701 -0.025603808 0.05534237 0.018032998
000020 0c 97 66 bd e5 0e 5d 3d 79 17 cb 3c f5 f2 5e 3c
       -0.056296393 0.053969283 0.024791466 0.01360773
000030 bf 11 e8 3c 65 80 10 bc fd 88 15 bd 4a c8 e8 bc
       0.028328774 -0.008819674 -0.036507595 -0.028415818
000040 48 e7 35 3d c2 2b 21 bd c9 03 b9 3c c6 45 34 bd
       0.04441002 -0.03934837 0.022584813 -0.044011854
000050 a9 e1 4a bd ca b6 f7 3c af 55 08 3b 57 f2 17 3d
       -0.049531613 0.030238528 0.0020803025 0.037096348
000060 b1 d0 bf bc 14 e5 22 3d da 63 1e 3d 48 de 2c bd
       -0.023414942 0.039769247 0.038669445 -0.04220417
000070 c0 e6 89 bc 44 5e 74 bd d0 ea d0 bc 37 6c 4d 3d
       -0.016833663 -0.05966021 -0.025502592 0.05015203
000080 d6 5c 63 3d 70 80 8f 3b 7a 14 b4 3d 0d ec 3f bd
       0.055508457 0.0043793246 0.08792968 -0.046855975
000090 10 8a 63 3c 91 c4 49 bd 66 46 85 3c a0 7b 6f bc
       0.013887897 -0.049259726 0.01626892 -0.014616877
0000a0 15 be b0 bc 1c 00 2d 3c e4 39 b0 3a 1d 8b 66 3d
       -0.021575013 0.010559108 0.0013444987 0.056285013
0000b0 c6 95 46 3c 09 6a 0a 3d 86 ff 1e bd 4c 42 e0 3c
       0.01212067 0.03379253 -0.038817905 0.027375363
0000c0 5f 8c 46 3a fb 7b ef 3c 10 1b 40 bb 63 94 86 3d
       0.00075740175 0.029233923 -0.0029313006 0.06571271
0000d0 00 02 df 3c dc 63 70 bd 1b 5c 22 3d 74 0c 1a 3c
       0.027222633 -0.058688983 0.03963862 0.009402383
0000e0 0a e7 19 bd f4 81 d6 bc d8 eb 6b bc d2 b3 a7 bc
       -0.03757385 -0.026185013 -0.014399491 -0.020471487
0000f0 93 b0 24 bc 7f 6e b6 bc 2d 9b 6e bb 0c fc c4 3c
       -0.010051864 -0.022269486 -0.003640841 0.024045967
000100 18 4d 5f 3b c8 36 83 bd dd 9c bb 3b ab f0 86 3c
       0.003407305 -0.06406933 0.0057254867 0.016472181
000110 c9 40 0e 3d c2 3f 69 3d 79 34 76 bc 81 0c db bc
       0.034729753 0.05694557 -0.015027159 -0.02673936
000120 70 35 58 bc f6 35 12 bd a0 0b 26 3d f0 b9 6f 3c
       -0.013196334 -0.035695992 0.04053843 0.014631733
000130 cd 23 f6 bc 97 93 1e 3d 94 09 6a bd e9 7a 37 bd
       -0.030046368 0.03871497 -0.05713804 -0.04479495
000140 f2 b2 5c bd 75 c4 b2 3d e0 d8 f3 bc 90 a8 e3 bc
       -0.053881593 0.087288775 -0.0297665 -0.027790338
000150 d6 31 83 3b 8b e4 20 bc 4f a0 39 bc 6c 12 36 bc
       0.0040037436 -0.009820114 -0.011329724 -0.011112791
000160 18 b3 22 3d 91 c9 92 3c 0d 46 50 bd be 5f 0a 3d
       0.03972158 0.01791838 -0.050848056 0.033782713
000170 fb 96 8d b9 aa 7b 93 3c 3a 51 22 3d 31 04 ab bb
       -0.00027006105 0.018003304 0.039628245 -0.0052190055
000180 bf 24 60 3d a1 9c 9e 3c 2b 3d 96 3c f8 cd 55 3c
       0.054722544 0.019361796 0.018339714 0.013049595
000190 6f c5 0f 3c 85 d0 48 3d 67 3e 4a 3d db d4 32 bd
       0.008775099 0.049026985 0.049375918 -0.043660026
0001a0 65 77 7d bd f5 2e 1e bc 8b d3 48 3d f7 fb 3d 3d
       -0.06188144 -0.00965475 0.049029868 0.04638287
0001b0 a4 50 dd 3c 6c 2d b3 ba 90 2b d8 3c 64 aa 01 bd
       0.027015992 -0.0013670153 0.02638796 -0.031656638
0001c0 33 e6 9a bd 80 f3 4d 3d da fd 0a bc 98 ad 5f 3a
       -0.07563438 0.050281048 -0.0084833745 0.00085326424
0001d0 b0 cc 0d bc f0 b2 68 bd c4 c3 8e 3c 08 d4 d6 3c
       -0.008654758 -0.056811273 0.017427333 0.026224151
0001e0 a8 f3 b6 bc ed 97 a6 3c 38 b4 eb bc 66 70 44 bd
       -0.022332981 0.020336116 -0.028772458 -0.047958754
0001f0 18 27 ca 3c 99 f6 ed bc f5 27 bc bc 5d 89 2b bd
       0.024676844 -0.029048251 -0.022968272 -0.041879047
000200 18 d1 fb 3c f3 68 32 bd 1a 7c 66 3d cc 0a 2d bd
       0.030739352 -0.04355712 0.056270696 -0.042246625
000210 21 51 ee 3b 04 d0 9c 3c da 1c 9f 3d 43 4e 62 bd
       0.007272855 0.019142158 0.07769175 -0.055250417
000220 0a 91 55 3d bc d4 44 3d d8 83 ff 3c 27 4e 23 3c
       0.052140273 0.04805444 0.031190798 0.009967363
000230 5b bc 41 bc b6 18 de 3b 7b 38 68 3d bd 07 9d bc
       -0.011824693 0.006777848 0.05669449 -0.019168729
000240 fa b2 aa 3d 54 e2 80 bc 22 0b 6c 3d 78 cb 3e 3d
       0.08334918 -0.015732922 0.057627805 0.04658076
000250 9b e5 ac 3c fb a1 09 bc 13 11 59 bd 6e 05 45 3d
       0.021105578 -0.008400436 -0.0529948 0.04810088
000260 50 4b 00 3d 21 96 8f 3b 22 84 68 3d cb b7 b9 3c
       0.031321824 0.0043819104 0.056766637 0.022670647
000270 ac c4 00 3d e4 86 f9 bc d8 48 52 bd dd cb a6 3c
       0.03143756 -0.030459829 -0.051339 0.020360881
000280 5b 35 34 3d b2 02 c2 3a 11 53 43 3c 40 8f 9e bb
       0.043996196 0.0014801829 0.01192166 -0.004838854
000290 b2 75 30 3d c4 14 0f 3d 07 e1 81 bd 2a f7 35 bd
       0.043080993 0.034931913 -0.06341749 -0.044425167
0002a0 ea e0 16 3d c4 da 03 3d b0 6b 3e 3d 56 cd bf bb
       0.03683559 0.032191053 0.046489418 -0.0058533354
0002b0 e4 5a d0 3c 7a ec 85 bd e4 71 53 bd c9 f1 d8 3a
       0.025433965 -0.06539245 -0.051622286 0.001655155
0002c0 57 c6 9a 3c a5 f1 8c 3c 4e d5 78 3d 5e 05 58 3d
       0.018893404 0.017205069 0.0607503 0.052739494
0002d0 c1 3c 6b 3d 19 90 94 3c 66 66 77 bd a8 5f de bc
       0.057430986 0.018135117 -0.06040039 -0.027145222
0002e0 96 0c 52 3d 2f 2d 2d bd d2 76 7a 3d 2c ca 88 bc
       0.051281534 -0.04227942 0.061148472 -0.016697966
0002f0 f7 5e e7 3b 5d 55 1f 3d 7e cd 4c bc 5b 5c be bc
       0.0070608812 0.03889977 -0.012500165 -0.023237398
000300 9c 12 03 3d 40 76 e9 3c bb b6 e1 bc 8a 9e 70 3d
       0.03200017 0.028498769 -0.027552953 0.058744945
000310 12 c8 d4 bc f6 fe c4 3c c5 fe 20 bd 78 7d be bb
       -0.025974307 0.024047356 -0.039305467 -0.005813297
000320 44 af ae 3c d9 13 59 3d 7e c1 78 3d 08 64 7d 3d
       0.021323808 0.052997444 0.060731404 0.061862975
000330 74 cb 5a 3d 49 dc bb 3c 5d 04 91 bc 50 94 66 3d
       0.053416684 0.022932189 -0.017702276 0.056293786
000340 a5 aa 53 3d bf 0c 40 3d 4f 3c 26 bd 21 1a 40 bd
       0.05167641 0.046887156 -0.04058486 -0.04689992
000350 fa a4 25 bd ce da ef bc b4 52 c6 3c db c0 80 bd
       -0.040440537 -0.029279139 0.024209358 -0.06286784
000360 a3 6d ee 3a 1c 9f c5 bc e7 68 42 3d 58 57 f7 3c
       0.0018190633 -0.02412372 0.047463324 0.030193016
000370 a9 78 b1 3c 34 76 d5 3c ab 8f 9c 3c 15 6a 32 3d
       0.02166398 0.02605734 0.019111475 0.0435582
000380 2d 2a 1c 3d 07 4b 2a 3c 91 97 35 3d 84 5e a6 bc
       0.03812616 0.0103938645 0.044333998 -0.02030874
000390 02 53 a2 bc 60 9e 33 3c 26 05 e5 3d 83 c3 09 ba
       -0.019814972 0.0109630525 0.111826226 -0.0005255269
0003a0 8f 88 04 bd 54 db 16 3d a0 0f 2e bd bc 87 be bc
       -0.032356795 0.03683026 -0.04249537 -0.023258083
0003b0 e2 7b 88 bc 70 bb 22 bc bb 65 ff bc 54 08 7f bd
       -0.016660634 -0.009932384 -0.031176439 -0.0622638
0003c0 00 c2 53 3c fc 15 73 bd fc 73 e4 3c fd 6d 17 3c
       0.012924671 -0.059347138 0.027887337 0.009242532
0003d0 cc 9b f4 bc bc 79 17 3d 26 fa 2d bd 20 37 6a bd
       -0.029859446 0.03698133 -0.04247489 -0.057181478
0003e0 9c 65 28 3d 18 de 31 3c fe 2f c2 bc 3d 00 7b 3c
       0.041112527 0.010856174 -0.023704525 0.015319881
0003f0 3b e2 f2 3b 29 4c 21 bd ee 80 a1 bc 8d 66 f3 bc
       0.0074122227 -0.039379273 -0.019714799 -0.029711986

linear4.bias f4 [256]
000000 a9 4b 1b bf 02 0b 18 bf 9f 7d 96 be 36 fb a0 3e
       -0.60662323 -0.59391797 -0.29392716 0.3144166
000010 bc d8 51 bf 14 aa d3 3d 65 f8 32 bc c5 ea 13 bf
       -0.81971335 0.10335174 -0.01092348 -0.57780105
000020 e8 c7 bb 3c 28 27 3b 3f 49 0e 22 bf 34 05 4e 3c
       0.022922471 0.7310662 -0.6330305 0.012574483
000030 45 df 2f 3f a8 01 25 bf b4 13 4a bf b0 f5 f1 be
       0.6870006 -0.6445565 -0.78936315 -0.47257757
000040 a4 6f d7 bc 97 62 68 be dc a1 3a 3f 01 65 59 bf
       -0.026298352 -0.22693859 0.7290323 -0.84919745
000050 e9 9d ab be 66 ba 46 bf 44 29 0f bf 9e 2e 93 bb
       -0.33518913 -0.7762817 -0.5592234 -0.004491641
000060 89 29 52 bf 15 df b2 be 7c 4c 35 bf fe 89 3a bf
       -0.8209463 -0.34935823 -0.7081983 -0.7286681
000070 c6 7e b2 3e 06 e5 58 bf c0 98 5e 3f 6f dd c1 be
       0.34862345 -0.8472446 0.8695183 -0.37864253
000080 c3 06 26 be f7 3e 0e bf a9 8a 52 3f e3 c5 03 3f
       -0.16213517 -0.55564827 0.8224283 0.51473826
000090 94 45 75 bd f5 51 ac 3e 9d ee 08 3d 17 38 26 bf
       -0.059880808 0.33656278 0.033430684 -0.64929336
0000a0 0f 88 c3 3e dc c2 35 bc 3c 53 4c 3f ae 56 b3 3e
       0.38189742 -0.011093821 0.79814506 0.3502707
0000b0 7c 45 25 bf 08 73 16 3e 35 b2 69 3f a6 39 41 bf
       -0.6455915 0.14692318 0.9128755 -0.7547859
0000c0 47 1f 55 3d ff 17 23 bd fe 63 3d bf a9 bb b9 be
       0.05203178 -0.039817806 -0.739807 -0.36275986
0000d0 bc ea 3a bf 6b 20 b0 3e 0e 16 32 3c be e7 f1 be
       -0.73014426 0.34399733 0.010869516 -0.47247118
0000e0 8b cb 8b bc b9 4b f5 3e af b7 ed 3e d9 89 be 3e
       -0.01706483 0.47909334 0.46429202 0.37214544
0000f0 86 bc 2b 3f 5f f5 c6 3c d3 12 a5 bd 43 04 6c 3c
       0.6708454 0.024286924 -0.08060231 0.014405313
000100 f7 78 8d 3e 01 45 cf bc 28 8b 54 bf 52 0b 93 3a
       0.2763135 -0.025301458 -0.83024836 0.0011218584
000110 55 f6 48 3f 29 ad f6 be 5b 39 33 bf 96 fd 42 bf
       0.7850087 -0.48178986 -0.7000939 -0.7616819
000120 dc 64 f1 3d 44 00 15 3f dd c3 37 bd 23 81 61 3f
       0.117868155 0.5820353 -0.044864524 0.8808767
000130 46 54 12 3f 3e 9d c6 bc 45 b2 00 bf 1a 8c cd 3b
       0.5715984 -0.0242449 -0.5027202 0.006272805
000140 17 d6 28 3c 47 45 14 3e 63 40 de 3d 04 8d 37 3f
       0.010304949 0.14479552 0.108521245 0.7169955
000150 be 88 1a bf 16 00 86 3d ab 55 fe 3e 32 6b 63 3d
       -0.603649 0.06542985 0.49674734 0.05552215
000160 b6 cd 0e bf 87 bd 7e 3e ad bc f2 3e a9 a1 af 3e
       -0.5578264 0.24876986 0.47409573 0.34303024
000170 39 06 92 bd a4 28 f2 3e 44 39 52 3f 1f 98 88 bd
       -0.07130093 0.4729663 0.8211863 -0.0666964
000180 72 32 fb be 6d 36 ad 3d c5 16 33 bf b9 ef 33 bf
       -0.49061924 0.084576465 -0.6995662 -0.7028766
000190 01 e4 a5 3e 9c b7 1b 3f 44 b4 8b 3e 9f 81 09 bf
       0.32400516 0.6082704 0.2728597 -0.5371341
0001a0 d4 bb e3 3d 61 d6 41 bf 6b db 85 bc a9 23 39 bf
       0.1111981 -0.7571774 -0.016339978 -0.7232004
0001b0 4b 84 c0 be 89 a7 48 3f a8 6e 8d be be 57 38 3f
       -0.37600932 0.7838064 -0.27623487 0.72008884
0001c0 e4 2d ad 3e 19 75 2b bf 07 ec 0a bf e9 ff 20 bf
       0.33824074 -0.6697555 -0.542664 -0.6289049
0001d0 ec 45 d5 bd f9 d5 e9 bd 75 0e 86 bd 83 c8 15 bf
       -0.10413727 -0.11417765 -0.06545726 -0.5850908
0001e0 bb 47 9d 3c a5 df ef 3e 20 68 0d bf 33 1f 75 3f
       0.019199243 0.46850315 -0.5523701 0.9575073
0001f0 e0 98 07 be fb ad c9 be 5a cb 13 bf 9e 54 63 3f
       -0.13241911 -0.3939055 -0.57732165 0.8880099
000200 a8 6f 30 3c e7 44 59 3e b2 21 cb bc 3c 09 1e bf
       0.010768808 0.2121769 -0.02479634 -0.6173284
000210 e5 5c 07 3f 2f 31 9a 3d 36 c3 81 3c 17 63 a6 3b
       0.5287612 0.07528912 0.015840154 0.0050777304
000220 ff c7 3c 3e 27 e9 da be e9 f1 88 3c 6d 7e b9 be
       0.18435667 -0.42756006 0.016716914 -0.36229268
000230 23 9f 72 3e c0 9e 96 be 92 f1 04 3f b9 4c 15 3e
       0.23693518 -0.29417992 0.5193111 0.14580049
000240 43 b1 c9 bd 3d 96 69 3f 0c 0b 1a 3f 03 29 39 bf
       -0.09848263 0.9124487 0.60173106 -0.72328204
000250 0b c0 14 3f 87 6c 10 bd 69 54 0a 3f f2 ae 1a 3f
       0.58105534 -0.03525975 0.5403505 0.60423195
000260 b2 bc 21 bf ae 8b ff 3e 6d 6b 3c 3f 87 67 f4 3e
       -0.6317855 0.49911255 0.7360142 0.47735235
000270 58 06 51 bc b2 8f 13 3f 84 aa b6 3e 92 7b 06 3f
       -0.01275786 0.57641137 0.35676968 0.52532303
000280 f2 03 36 bf 21 1b 1c bf 11 37 04 3f c0 b0 89 3e
       -0.7109977 -0.60978895 0.51646525 0.26892662
000290 10 f1 2f bf e1 f1 f7 be f6 20 27 bf a3 80 7f bd
       -0.6872721 -0.48426726 -0.6528467 -0.062378537
0002a0 e6 2e 32 bf 90 b6 2f 3d 4d b3 06 3f 8e fd 1a 3f
       -0.6960281 0.042898715 0.5261734 0.60543144
0002b0 52 f6 01 3f 87 d4 0e bd 32 a4 12 bf 4b 0f 4b be
       0.5076648 -0.03487065 -0.5728179 -0.19830053
0002c0 e5 ab a8 be 1d 86 3a bf 6e 6f 56 3f 9d 8c 2c 3f
       -0.32943645 -0.7286089 0.8376378 0.6740206
0002d0 68 20 66 be f1 b5 f6 be 29 5c 31 3f 47 64 3c bf
       -0.224733 -0.48185685 0.6928125 -0.7359051
0002e0 6c d7 77 be 1e a8 c6 3e 44 6a 28 bf 5b c7 59 3f
       -0.2420327 0.38800138 -0.6578715 0.8506982
0002f0 17 22 1d 3f 29 17 3c 3d d4 40 25 bf d4 bc 28 3f
       0.6138014 0.045920525 -0.64552045 0.6591313
000300 f4 d7 36 3f 81 79 3e bd 16 aa 0a be 59 ee d6 be
       0.7142327 -0.046502594 -0.13541445 -0.4197872
000310 79 1a a3 3c 47 7c 06 3e 20 58 57 bf 2e bc ec 3e
       0.019910084 0.13133346 -0.84118843 0.4623732
000320 ec 86 16 bf d4 4a 1d 3e 88 67 0c 3f 52 77 1d bf
       -0.58799624 0.15360576 0.54845476 -0.61510193
000330 62 a0 7d be bc 9c 2c bf 6a 5f 42 3e 42 39 a7 3e
       -0.24768212 -0.6742666 0.1898171 0.32660872
000340 3a 9b 2c bf 7f ad da 3e fd 15 bd 3d c0 4c 3c be
       -0.67424357 0.42710492 0.092327096 -0.18388653
000350 7c e4 7b 3c 74 d9 e6 3e b2 c9 47 bf 79 75 62 3f
       0.015374299 0.4508778 -0.7804214 0.884605
000360 6c f6 f0 3e f0 cc 7c 3e 4b a2 25 be c3 03 1a bf
       0.47063005 0.24687552 -0.16175191 -0.6016199
000370 e6 0c 0b 3f ba 82 be 3e 65 0c 81 3e 2e a5 ac be
       0.54316556 0.3720911 0.2520477 -0.33719772
000380 12 03 1c bf e7 50 e5 be 3f d9 34 bf 0f 5f 06 bf
       -0.60942185 -0.44788286 -0.7064399 -0.524888
000390 33 9e 04 bf 7f d8 1c 3d 09 37 0c 3b f8 2c 81 3e
       -0.5180389 0.038292404 0.0021395108 0.2522962
0003a0 65 bb d9 be 96 4a 1b 3f 6e b8 26 3f 12 10 5c bf
       -0.42525783 0.60660684 0.6512517 -0.8596202
0003b0 f5 21 1f bf 57 95 e9 3e ea e8 1a 3f 96 0b 16 bf
       -0.6216119 0.4562175 0.6051165 -0.5861143
0003c0 1d 0c b4 be 0f e1 84 3b dc 72 ee be e9 3f 9d 3c
       -0.35165492 0.0040551494 -0.46572006 0.019195514
0003d0 a5 97 46 bf e9 21 e9 3e 50 8f d8 3e d4 92 19 3f
       -0.7757514 0.45533684 0.4229684 0.59989667
0003e0 55 31 3d bf d3 c7 22 3f a0 26 12 bf be 35 1b 3f
       -0.739034 0.6358616 -0.5709019 0.6062888
0003f0 b4 d9 ec 3e fb 1a 60 bd 2f 14 94 be 95 33 49 3f
       0.46259844 -0.05471323 -0.2892165 0.7859433

linear3.weight f4 [1, 256]
000000 39 c3 57 bd f3 48 29 bd 29 a8 f8 bc ce cb 4e 3f
       -0.052676413 -0.041329335 -0.030353623 0.8077973
000010 fe 5e 7f 3e f9 ee 95 3c 38 d2 48 3e 4a 6c 4e be
       0.2493858 0.018302428 0.19611442 -0.20158496
000020 91 3c d3 37 97 32 4c 3e 96 00 69 bd 1f bd e8 bb
       2.5181364e-05 0.19941173 -0.056885324 -0.007102623
000030 f6 aa 90 3f 23 4e 9a be 41 35 d2 be 66 e9 89 be
       1.1302173 -0.3013774 -0.41056255 -0.2693588
000040 22 78 30 3b b9 08 84 bd da 8f d4 3e 9f fd 4e bf
       0.0026927073 -0.06446976 0.41516 -0.80855745
000050 5f 98 ca be 57 77 f0 bf 8e b6 17 be 11 c6 a6 bb
       -0.39569375 -1.878642 -0.14815733 -0.0050895293
000060 19 04 e0 be 2f 38 d8 3d 3b b7 6e be 52 34 69 be
       -0.43753126 0.10557591 -0.23312084 -0.22773865
000070 2d d0 19 be f1 04 0c bf e7 52 96 3e a0 a2 47 3d
       -0.15020819 -0.5469504 0.29360124 0.048739076
000080 eb b7 bc 3d f9 fd 83 bd fa da 12 3f e1 10 07 3f
       0.09214767 -0.06444926 0.5736538 0.5276013
000090 5d dd 29 3f af f1 44 3f 22 d7 07 3e 4c 05 a6 be
       0.663534 0.7693128 0.1326566 -0.32425916
0000a0 6b 37 8c 3e 9e 10 ea bc 11 82 a2 3e bd 65 05 3f
       0.2738603 -0.028572377 0.31739858 0.52108365
0000b0 23 6a 1b be 97 47 3e 3d 75 75 c0 3e 51 84 cf 3d
       -0.15177207 0.046454992 0.37589613 0.10132659
0000c0 a5 55 b6 bd 86 32 3b bd 5b 67 ab bf 4c 2b 41 be
       -0.08903054 -0.04570248 -1.3390917 -0.18864173
0000d0 6d 5c 71 be 28 3a 42 3f d8 56 9b ba 5f 63 c8 bc
       -0.23570414 0.7586999 -0.0011851443 -0.024461446
0000e0 89 a1 b9 ba 9b f9 7b 3d c9 87 91 3e 5f f1 9c 3d
       -0.0014162521 0.06151734 0.28423908 0.076632254
0000f0 5f 11 5f 3e b7 04 27 3d ed 83 0c bb c0 9e 0d 3a
       0.2178397 0.04077598 -0.0021440939 0.0005402379
000100 9c 01 7b be 84 c2 af bd f3 9b a6 be fb d1 28 3c
       -0.24512333 -0.08582023 -0.32540855 0.0103039695
000110 40 98 82 3e dd 25 19 be b9 f6 a1 be 20 c8 57 be
       0.25506783 -0.1495585 -0.31633547 -0.21072435
000120 00 31 79 3d 1f de 94 3e 6e bc fc 3b 02 2e e5 3e
       0.060837746 0.29075715 0.0077128923 0.44761664
000130 55 38 a3 3d 25 49 15 bf 6c 9e 5f bd 20 32 2a bb
       0.07969729 -0.58314735 -0.054594442 -0.0025969818
000140 4e 8c f9 3c b5 a4 1f 3e 26 55 1a 3f 15 1a 94 3e
       0.03046241 0.15590174 0.60286176 0.2892615
000150 13 1f 5f bd 1a 80 8a 3e a2 e7 be 3e ad d0 16 b9
       -0.054472994 0.2705086 0.37286097 -0.00014382853
000160 6c 5f 9c be 8f 78 94 3d a9 9d 58 3f 0e 5c 21 3f
       -0.3054155 0.07249557 0.8461557 0.6303109
000170 fa 15 c0 bc 54 fa e6 3e 9f 8a b6 3e ff a2 cd 3a
       -0.02344798 0.4511286 0.35652635 0.0015688835
000180 07 5b 25 be 75 a0 85 bc aa f7 ae be 30 e7 9e be
       -0.16148005 -0.016311863 -0.34173328 -0.31035757
000190 05 9b 26 3e 93 ca 80 3e 3c c9 b7 bd 84 78 53 bd
       0.16270073 0.25154552 -0.08973929 -0.051628605
0001a0 a6 85 7d 3e 08 c3 8e 3e 9f fa d2 bd ae 00 70 be
       0.24758014 0.27883172 -0.103017084 -0.2343776
0001b0 2d 51 9e 3e f6 d9 6c 3e c3 7c 8a 3d 04 79 e8 3e
       0.30921307 0.2313002 0.06762078 0.45404828
0001c0 76 03 d7 3e 4e 35 61 be 4d d2 f7 bc a2 4d 88 be
       0.41994828 -0.2199299 -0.030251646 -0.2662173
0001d0 4c d6 a3 be 00 1f ab be ec be bb 3a bc 7a 58 bd
       -0.31999433 -0.3342209 0.0014323867 -0.052851424
0001e0 37 83 16 3c 7e 4d 89 3c f5 24 ca 3d 41 80 9c 3e
       0.0091865575 0.016760584 0.0987033 0.305666
0001f0 8e ba ae bd 4e 04 30 bd 24 76 01 bf d1 1d 9a 3e
       -0.08531676 -0.042972855 -0.50570893 0.30100873
000200 68 5c fa 3e 55 eb 1b 3f 95 2a f4 3d de 94 ab be
       0.48898625 0.60905963 0.119221844 -0.33512014
000210 46 7b 33 3e 17 4d 0d bd 3a aa 59 3c f8 52 a8 bd
       0.17527494 -0.034497347 0.013285214 -0.0821895
000220 56 58 59 3e d2 cc b3 3d aa 80 42 3b 09 ca f0 3d
       0.21225104 0.08779301 0.002967874 0.11757285
000230 5b 9d 0f 3f bc e5 d7 be f6 0f 32 3e b3 3e b5 bd
       0.5609948 -0.4216746 0.17388901 -0.088498496
000240 2c b2 bb 3e f5 9b bb 3e 59 ca a7 3e 33 e6 ae be
       0.36659372 0.36642423 0.32771567 -0.34160003
000250 d0 7b a0 3e 5d 84 4a ba 82 4b 31 3e 83 8b 86 3e
       0.3134446 -0.0007725412 0.1731396 0.26278314
000260 e0 98 47 bc 67 02 07 3d f3 fc 65 3e 01 a8 24 3e
       -0.012182444 0.032961275 0.22459774 0.16079713
000270 51 4a 8a 39 87 8f f8 3d 4e f4 61 3e 51 65 7e 3f
       0.0002637678 0.12136751 0.22065851 0.99373347
000280 17 33 a8 be 62 f7 f0 bc 75 6a a3 be 85 00 39 3f
       -0.32851478 -0.029414836 -0.31917158 0.7226642
000290 f0 7c cc bc 5e 87 9a bd 3a 26 47 be 20 88 20 bb
       -0.024961919 -0.075453505 -0.19448176 -0.00244952
0002a0 d5 71 e6 bd 8e 39 0b bd 19 3b 8f 3f b8 2b 65 3e
       -0.112521805 -0.033990435 1.118991 0.22379959
0002b0 9d 59 11 3e b3 fb 48 bb 0b 6d cc bd 94 be 86 bd
       0.14194341 -0.0030667603 -0.09981736 -0.06579319
0002c0 f2 83 f2 3d 56 2c 3d be 78 39 c6 3e dc 7b 66 bd
       0.11841573 -0.18473944 0.3871572 -0.056270465
0002d0 de d6 c1 be 35 f5 ca bc e4 22 28 3f 6d ae eb 3d
       -0.37859243 -0.024775127 0.6567824 0.115078785
0002e0 b0 78 b3 3d 9f c9 99 3e 13 55 9e be 52 39 ab 3e
       0.08763254 0.30036637 -0.3092428 0.3344217
0002f0 fd e2 11 3e 71 28 7b bb b5 96 19 3e 98 8a 48 3e
       0.14246745 -0.0038323666 0.14998896 0.1958412
000300 49 33 40 3e 32 49 5c 3c c2 2e f2 3c 8f ab 03 3e
       0.18769564 0.0134451855 0.029563311 0.12858413
000310 9f 1f 6b ba 07 e2 45 3e 61 a4 8e bf 07 83 50 3e
       -0.00089692505 0.19324504 -1.1143914 0.20362483
000320 cf f9 a9 be c6 37 e6 bd d2 d8 9c 3e 1f 32 29 be
       -0.331984 -0.11241107 0.3063417 -0.16523026
000330 e6 c9 6a 3d 19 0d a2 be bb 31 0d bc 00 1f ce 3d
       0.05732145 -0.31650618 -0.008617814 0.100645065
000340 53 ae 89 be 95 a2 05 3f 10 56 8b 3d 7a 8b 7d be
       -0.2689081 0.52201205 0.068035245 -0.24760237
000350 ab 08 86 bd 90 e3 29 3f fa d7 76 bf 6f a0 d3 3e
       -0.06544622 0.6636286 -0.96423304 0.4133334
000360 8f 3b 46 3e 41 32 37 3f 07 ff 5a be ad d6 9f bd
       0.19358657 0.71561056 -0.21386348 -0.07804618
000370 f9 5e 7d 3e 74 29 8a 3e 5e 2e ad ba 5f f2 2a bc
       0.2474326 0.2698475 -0.0013212671 -0.010433762
000380 f4 bb 55 be a9 8d 20 bd ff 33 09 bf 4c 70 86 bd
       -0.2087248 -0.039197598 -0.53594965 -0.06564388
000390 f0 9d 5e bd dd c3 e1 ba b1 2b d7 3e 76 79 bf 3d
       -0.05434984 -0.001722451 0.4202552 0.09349339
0003a0 8c b3 b1 3e 50 7f d7 3e 30 0f 3c 3e 2e 0f 44 bf
       0.34707296 0.4208932 0.18365169 -0.7658566
0003b0 28 9e 2c be 7c ed a3 3e ea 81 a3 3c aa 41 2c bd
       -0.16857207 0.32017124 0.019959409 -0.04205481
0003c0 de 13 d0 be 77 7e 89 3a 15 bb 7c bb 87 eb 96 3b
       -0.40640157 0.001048996 -0.0038563658 0.0046057138
0003d0 b8 0c 88 bf 02 ea 77 3e e4 15 2e be 8d c6 a4 3e
       -1.0628881 0.2421036 -0.17000538 0.32182732
0003e0 5f e5 91 bf fe d9 54 3e cd 84 83 bd 8b d5 2f 3e
       -1.1398124 0.20786282 -0.06421814 0.17171304
0003f0 a3 34 71 be 68 40 2c bd 11 37 68 bd e8 2f a5 3e
       -0.23555236 -0.04205361 -0.05669314 0.32263112
