outputs/Optimal_Control/20220325-154417/models/checkpoint.pt (torch, 533487 bytes, 7 tensors)

linear1.weight f4 [256, 2]
0	0x3caa2e5e	0.020774063
1	0x3ee06f16	0.43834752
2	0x3f040632	0.51571953
3	0xbf0d9ab6	-0.55314195
4	0xbed9ff68	-0.42577672
5	0x3ed39e5a	0.4133175
6	0x3ef0a804	0.47003186
7	0x3f1da433	0.61578673
8	0xbf09729c	-0.53690505
9	0xbe81da56	-0.2536189
10	0xbf2b9040	-0.67016983
11	0x3f1c673b	0.6109502
12	0x3e42e9c9	0.19034494
13	0xbf26e3b9	-0.6519123
14	0xbdc29e98	-0.095029056
15	0x3ea6785c	0.32513702
16	0x3e4e6463	0.20155482
17	0x3eb9325e	0.3617124
18	0x3f2d4d79	0.6769634
19	0xbf14bdf7	-0.58102363
20	0x3e7c4d62	0.24638894
21	0x3ee972be	0.45595354
22	0x3e74fa25	0.23923548
23	0x3eb8a465	0.36062923
24	0xbebcac1c	-0.3685006
25	0xbe91ac0c	-0.28451574
26	0x3cf802cd	0.030274773
27	0xbe702ec7	-0.23455344
28	0x3f24f824	0.6444113
29	0x3e072664	0.13198239
30	0x3f1b0851	0.60559565
31	0x3e7f408d	0.24926968
32	0xbf0f6f60	-0.5602932
33	0x3f18ff35	0.59764415
34	0xbea8771b	-0.3290337
35	0xbf2050d3	-0.6262333
36	0x3e9c3835	0.30511633
37	0xbe5b7f6b	-0.21435325
38	0xbf116178	-0.5678935
39	0x3e28220c	0.16419238
40	0xbe38263c	-0.17983335
41	0x3ea92b9c	0.33041084
42	0xbef059f8	-0.4694364
43	0xbe10c054	-0.14135867
44	0xbeff7d06	-0.49900073
45	0x3e40de1c	0.18834728
46	0xbf18ee0f	-0.5973825
47	0xbf00e29c	-0.5034578
48	0xbf1dde39	-0.6166721
49	0xbe049ba0	-0.12949991
50	0xbf30b13f	-0.69020456
51	0x3e904cea	0.2818368
52	0x3eb6dfbf	0.3571758
53	0xbc039e54	-0.008033354
54	0x3c3a24fd	0.011361358
55	0xbf093026	-0.53589094
56	0xbdf79520	-0.1208899
57	0xbef1bcbc	-0.47214305
58	0x3dfab6c0	0.12241888
59	0xbd483c8b	-0.048885863
60	0x3e17247b	0.1476001
61	0xbeedf53e	-0.46476167
62	0xbd4fc589	-0.050725494
63	0x3eb83f84	0.3598596
64	0x3e182272	0.1485689
65	0x3ecf3898	0.40472865
66	0x3f164243	0.5869486
67	0xbefd905b	-0.49524197
68	0xbe68182f	-0.22665475
69	0x3f13cfea	0.57739127
70	0xbb9e2280	-0.00482589
71	0xbf20659c	-0.62655044
72	0x3ecf2021	0.404542
73	0xbe51d391	-0.20490862
74	0x3eb1b6db	0.3470982
75	0xbed164e7	-0.40897295
76	0x3e6c73a6	0.23090991
77	0xbe3d7a81	-0.18503763
78	0xbf319705	-0.6937106
79	0xbef677d0	-0.48138285
80	0x3ee6d78e	0.4508633
81	0x3f1850cf	0.59498304
82	0xbf0aed3d	-0.54268247
83	0x3f078ecd	0.5295227
84	0x3e328dce	0.17436907
85	0xbe665054	-0.2249158
86	0x3f107362	0.5642606
87	0x3f0ff86f	0.56238455
88	0xbe8463d7	-0.25857422
89	0x3f217042	0.63061917
90	0x3f1f2e63	0.62180156
91	0xbd8caee4	-0.06869295
92	0x3ebdf442	0.37100416
93	0xbeb688ef	-0.35651347
94	0x3f2167ab	0.6304881
95	0xbf1b8269	-0.60745865
96	0xbddb9700	-0.1072216
97	0xbe8cf0e5	-0.27527538
98	0xbf075d0e	-0.52876365
99	0x3f0765cd	0.5288971
100	0x3ea6eea7	0.32603952
101	0x3ec75da3	0.38938627
102	0x3db447f2	0.08802785
103	0xbd67b0fd	-0.056565274
104	0x3d6e6028	0.05819717
105	0x3d746e73	0.059675645
106	0x3f1769fc	0.59146094
107	0xbf2a5c36	-0.6654695
108	0xbe94d381	-0.29067615
109	0x3ef8240b	0.48465
110	0x3f2cd1e5	0.67507774
111	0xbf29985e	-0.6624812
112	0x3f11d0d6	0.56959283
113	0x3f2e3282	0.6804582
114	0xbc96e180	-0.018418074
115	0xbe9c5dd5	-0.30540338
116	0x3ef79557	0.48356125
117	0x3eb2f6e4	0.34953988
118	0x3f200cc7	0.62519497
119	0x3ed61744	0.41814625
120	0x3e67859b	0.2260956
121	0x3e938a33	0.28816375
122	0xbe744da0	-0.23857737
123	0xbd41aa80	-0.047281742
124	0x3f18e858	0.5972953
125	0x3e359b54	0.17735034
126	0xbe6676a6	-0.22506198
127	0xbf210f08	-0.6291356
128	0x3ef6b74f	0.48186728
129	0xbf15e9dc	-0.58559966
130	0x3ed51488	0.41617227
131	0xbe0caf76	-0.13738808
132	0xbef1dfe4	-0.47241127
133	0xbecff25e	-0.406146
134	0xbd0299f6	-0.03188511
135	0x3de6017a	0.112307504
136	0x3f290296	0.6601957
137	0x3edeea47	0.43538114
138	0xbe14cb82	-0.14530757
139	0x3e850992	0.25983864
140	0x3f35b6d7	0.70982116
141	0xbe0c83d9	-0.13722171
142	0xbf0a0839	-0.53918797
143	0x3f18bd5a	0.5966393
144	0x3e4cb3b3	0.19990425
145	0xbd89baa9	-0.06725056
146	0x3f042c1a	0.51629794
147	0x3f06fdf5	0.5273126
148	0xbf320cc4	-0.6955073
149	0x3e536940	0.20645618
150	0xbe9d34ba	-0.3070429
151	0xbf250200	-0.64456177
152	0x3d7e1ea7	0.06204095
153	0xbe815879	-0.25262812
154	0xbee991de	-0.456191
155	0xbe6045d8	-0.21901643
156	0x3ec9be7d	0.39403144
157	0xbdb761e2	-0.089542165
158	0xbf1440a8	-0.5791116
159	0x3f1ace69	0.60471207
160	0xbf033499	-0.5125213
161	0xbe8af1fd	-0.27137747
162	0xbeab41b1	-0.33448556
163	0x3e7e41e8	0.24829829
164	0xbeaa33c4	-0.3324262
165	0xbf2cda6f	-0.67520803
166	0xbe9bc768	-0.30425572
167	0xbe8c4e76	-0.2740361
168	0xbea7c197	-0.32764885
169	0xbf0f345f	-0.55939287
170	0xbe96ba68	-0.29439092
171	0xbf012280	-0.5044327
172	0xbed4462c	-0.41459787
173	0x3e34fa8c	0.17673701
174	0x3dcdd4b0	0.100503325
175	0xbf1c2457	-0.6099295
176	0x39890b8e	0.00026139285
177	0x3d9b9773	0.07597246
178	0xbf324086	-0.69629705
179	0xbe82a859	-0.25519064
180	0xbed0ec7f	-0.40805432
181	0xbcfacde0	-0.030615747
182	0x3ea5ac2b	0.32357916
183	0xbe83f92c	-0.2577604
184	0xbf01ae1e	-0.50656307
185	0xbf32f800	-0.6990967
186	0xbebd3eb7	-0.3696191
187	0x3d8495c8	0.06473881
188	0x3eefe56f	0.4685473
189	0xbf17ab39	-0.5924564
190	0xbeee00c2	-0.46484953
191	0x3dfccca8	0.123437226
192	0xbeef949c	-0.46793067
193	0x3f0ef181	0.55837256
194	0xbee70800	-0.4512329
195	0x3e8f6b86	0.2801172
196	0xbeaa3cb5	-0.3324944
197	0x3f1e3e23	0.61813563
198	0x3f06a18f	0.5259027
199	0xbee34cae	-0.4439444
200	0xbe46ba90	-0.19407105
201	0xbe3d578c	-0.18490428
202	0x3ba62c22	0.005071179
203	0x3ee22e5f	0.44176003
204	0x3f01e20b	0.5073554
205	0xbf1079b7	-0.5643572
206	0x3f21970d	0.6312111
207	0xbea6eed6	-0.32604092
208	0xbebc16f9	-0.36736277
209	0x3ec02adf	0.37532708
210	0x3e7259cf	0.23667072
211	0x3dd16b3e	0.10225533
212	0xbf30d075	-0.6906808
213	0xbe4f8f58	-0.20269525
214	0xbe179daa	-0.14806238
215	0x3ed3c862	0.41363817
216	0xbd957c6a	-0.07299121
217	0x3f1038fa	0.5633694
218	0xbf1b9a60	-0.6078243
219	0xbe9c496d	-0.3052477
220	0x3f158489	0.5840536
221	0xbde842d5	-0.11340872
222	0xbebec1e0	-0.3725729
223	0xbd946b68	-0.072470486
224	0x3bb517ee	0.0055265343
225	0xbeb1b35a	-0.34707147
226	0x3eb2fc00	0.34957886
227	0xbdcc013f	-0.09961175
228	0x3f291fb3	0.66063994
229	0x3f31367c	0.6922376
230	0xbf2dea03	-0.679352
231	0xbe6edbe0	-0.23326063
232	0xbe2e59d0	-0.17026448
233	0xbe9fcb88	-0.3120997
234	0x3f0bb330	0.54570293
235	0xbf1e2bea	-0.6178576
236	0xbe9bc867	-0.30426332
237	0xbe06df44	-0.13171107
238	0xbee9ac9a	-0.45639497
239	0xbf238cac	-0.63886523
240	0xbf204e57	-0.6261954
241	0xbec3137e	-0.3810081
242	0x3e4b3634	0.19844896
243	0xbf12bd24	-0.57319856
244	0xbf24c4d3	-0.6436283
245	0xbee0d13b	-0.4390963
246	0x3f2a4e3c	0.66525626
247	0x3f28355f	0.6570644
248	0xbe0dd8e0	-0.13852262
249	0xbdf107e0	-0.1176908
250	0xbea1fdee	-0.31639045
251	0x3eb36dab	0.35044608
252	0x3ebdcaa8	0.37068677
253	0x3e429a47	0.19004165
254	0xbf2868ee	-0.6578511
255	0x3ec004c6	0.37503642

linear1.bias f4 [256]
0	0x3ed4cf80	0.4156456
1	0xbe0f1c11	-0.1397555
2	0xbc4778c0	-0.012174785
3	0xbea08a37	-0.3135545
4	0x3edbb04f	0.4290795
5	0xbe295708	-0.16537106
6	0x3f34f618	0.7068801
7	0xbeac2450	-0.33621454
8	0xbecf788a	-0.40521652
9	0xbef5fa3e	-0.48042482
10	0x3f09c18f	0.5381097
11	0xbeccd928	-0.40009427
12	0x3ecf7e63	0.40526113
13	0xbf28f3dc	-0.659971
14	0x3eca2bb7	0.39486477
15	0xbd04b517	-0.032399263
16	0x3f25c862	0.64758885
17	0x3f29863f	0.6622047
18	0xbd15a169	-0.036530886
19	0xbf007c22	-0.5018941
20	0x3f0a68fc	0.54066443
21	0xbefcb182	-0.49354178
22	0xbeefe6b6	-0.46855706
23	0xbe55ef84	-0.20892149
24	0x3f05769a	0.52134097
25	0xbf2be1c2	-0.67141354
26	0xbe1ae127	-0.15124951
27	0xbeae9235	-0.34095922
28	0xbec0cdbb	-0.3765696
29	0xbea5163a	-0.3224352
30	0x3f083a16	0.5321363
31	0x3e9f75e4	0.3114463
32	0xbebaabe4	-0.36459267
33	0xbeedcc55	-0.46444955
34	0xbe49e7dd	-0.19717355
35	0xbe7c128a	-0.24616447
36	0xbeb0da9c	-0.34541786
37	0x3eea00df	0.4570379
38	0xbf2aa373	-0.66655654
39	0xbd9394e8	-0.07206136
40	0xbf30fa22	-0.6913167
41	0xbf33df5e	-0.70262706
42	0xbe3717db	-0.17880194
43	0x3f2fcae2	0.6866895
44	0xbe8cee46	-0.27525538
45	0x3eece1c1	0.46265987
46	0x3f04f543	0.5193674
47	0x3f1dc46b	0.61627835
48	0xbdeabbf0	-0.114616275
49	0xbd641d8e	-0.055692248
50	0x3ea8e16a	0.32984477
51	0x3f344711	0.7042094
52	0xbf0f7f61	-0.5605374
53	0xbf1056b9	-0.5638233
54	0xbf04b38d	-0.5183647
55	0x3db79ce6	0.08965473
56	0x3f04348f	0.516427
57	0x3f0e9118	0.55690145
58	0x3f357bea	0.708922
59	0xbf1548bb	-0.583141
60	0x3eb724b0	0.35770178
61	0x3e5b62d5	0.2142442
62	0x3eab65ac	0.33476007
63	0xbf1cdbb1	-0.6127272
64	0x3f218c24	0.6310446
65	0x3eef8425	0.46780506
66	0x3f0f0cc4	0.55878854
67	0xbed34ba5	-0.4126865
68	0x3f32b90d	0.69813615
69	0xbf073eb0	-0.5283003
70	0xbef30812	-0.47467095
71	0x3ee07f62	0.43847185
72	0x3dc026f8	0.09382433
73	0x3b9302b8	0.004486408
74	0xbf1aa784	-0.6041186
75	0xbe54e83c	-0.20791715
76	0x3ddc2930	0.107500434
77	0x3f2bd860	0.6712704
78	0x3eeadd03	0.45871744
79	0x3e553a2e	0.20822975
80	0x3eecabc0	0.46224785
81	0xbf1c6f97	-0.6110777
82	0x3e8458a4	0.25848877
83	0x3e2875e9	0.16451229
84	0x3ee3fc9b	0.4452866
85	0xbe54be62	-0.2077575
86	0x3f285fb1	0.65771013
87	0x3f1597d3	0.5843479
88	0xbe85e451	-0.26150754
89	0x3f30347a	0.6883007
90	0x3ec034f9	0.37540415
91	0x3d0390af	0.032120403
92	0xbeb784fe	-0.35843652
93	0x3e59eda1	0.21282054
94	0x3e47001d	0.19433637
95	0xbf24c0ba	-0.6435658
96	0xbe63a65f	-0.22231434
97	0xbe68478c	-0.22683543
98	0xbef3e65f	-0.47636697
99	0x3e57e986	0.21085176
100	0x3dd8384e	0.10557614
101	0x3e03e16a	0.12878957
102	0x3f22e94a	0.6363722
103	0xbc344abc	-0.011004146
104	0x3f1e140d	0.61749345
105	0xbd808b88	-0.062766135
106	0x3ec17da1	0.3779116
107	0xbd59bdfa	-0.05315969
108	0xbeefc600	-0.4683075
109	0x3e412947	0.18863402
110	0xbe573dc4	-0.21019655
111	0x3d66e762	0.056373008
112	0xbe2e7e59	-0.17040385
113	0xbf09d6f2	-0.53843606
114	0xbeeaecf9	-0.4588392
115	0x3ec2b7f9	0.38030985
116	0xbec5ede4	-0.3865806
117	0x3e89e454	0.26932013
118	0xbf2a4a50	-0.6651964
119	0x3f1bdcb9	0.6088367
120	0xbf05966f	-0.5218267
121	0xbee7beee	-0.45262855
122	0xbd654360	-0.055972457
123	0xbf2dd864	-0.6790831
124	0xbe828efb	-0.2549971
125	0xbeefc2bc	-0.46828258
126	0x3ef9d2d0	0.4879365
127	0xbe2961dc	-0.16541237
128	0x3f39a83f	0.7252235
129	0xbe9456bd	-0.28972426
130	0x3e3e3abc	0.18577093
131	0x3ecb4651	0.39702085
132	0x3efe20fc	0.4963454
133	0xbd19639c	-0.03744851
134	0x3ebbe1cb	0.36695704
135	0x3f168690	0.58799076
136	0x3e93982c	0.28827035
137	0x3ec12e4a	0.37730628
138	0x3d850339	0.06494755
139	0x3dc27204	0.09494403
140	0xbea8bb22	-0.3295527
141	0x3f39d3d2	0.7258884
142	0xbf0ecbc3	-0.55779666
143	0xbee283b7	-0.44241115
144	0x3ee207cc	0.44146574
145	0x3f0fe74b	0.562123
146	0xbef9c1d2	-0.48780686
147	0xbf273809	-0.6531988
148	0xbf2d245f	-0.6763362
149	0xbe281fbc	-0.16418356
150	0x3e71779c	0.23580784
151	0x3f15c36f	0.58501333
152	0x3e488c0f	0.19584678
153	0xbe322347	-0.1739627
154	0x3f005ff7	0.5014643
155	0x3ec1d1de	0.37855428
156	0xbebf80b1	-0.3740287
157	0xbd8265ea	-0.06367095
158	0xbeb32229	-0.34987
159	0xbe096658	-0.13417947
160	0x3edfbe5f	0.4369993
161	0x3f11d8e5	0.5697158
162	0x3edf34d4	0.43594992
163	0x3ed4e3a6	0.41579932
164	0xbdc9d5d8	-0.098552406
165	0x3ec53c87	0.3852274
166	0xbd7b13e2	-0.06129826
167	0x3ecc4fb3	0.39904556
168	0x3eb6d179	0.3570669
169	0x3eb19004	0.34680188
170	0x3dcb5f7f	0.09930324
171	0xbeae959d	-0.3409852
172	0xbd917ca0	-0.071038485
173	0xbe42be78	-0.1901797
174	0xbd2ff5a0	-0.042958856
175	0xbf0a538a	-0.5403372
176	0xbc5b3e7d	-0.013381598
177	0x3daa4902	0.083147064
178	0xbeb98a79	-0.3623846
179	0x3f06a471	0.5259467
180	0xbe48b234	-0.19599229
181	0x3e5ed8bc	0.21762365
182	0x3f243d48	0.6415601
183	0x3e3dc871	0.18533494
184	0xbea9f5e5	-0.33195415
185	0xbe8190c4	-0.2530576
186	0x3f14a7eb	0.5806872
187	0xbec74fe6	-0.38928145
188	0x3e04e2bd	0.12977119
189	0x3ee9e523	0.4568263
190	0x3f1a0c5d	0.60175115
191	0xbebd81d5	-0.37013116
192	0xbf122778	-0.57091475
193	0x3f0969fe	0.53677356
194	0x3ef4688d	0.47736016
195	0xbe3d03fb	-0.1845855
196	0x3f0cc55a	0.54988635
197	0x3f09ad2e	0.53779876
198	0x3f2e27f8	0.6802974
199	0xbed73782	-0.42034537
200	0xbf1e7b1e	-0.6190661
201	0x3e85e5eb	0.26151976
202	0xbd92e17d	-0.07171915
203	0x3eedf50a	0.46476012
204	0xbc9353f0	-0.01798436
205	0xbe8b276c	-0.27178514
206	0xbe8c122c	-0.27357614
207	0x3e662c37	0.22477804
208	0x3dcad18c	0.09903249
209	0xbe5e1399	-0.21687163
210	0xbea745f6	-0.32670563
211	0xbf1c663c	-0.610935
212	0x3dc2eeb6	0.09518187
213	0x3f0b9656	0.5452627
214	0xbdbaa940	-0.09114313
215	0x3e1e57de	0.15463206
216	0x3f1815db	0.5940835
217	0xbe8fa4d5	-0.28055444
218	0x3ebb80d1	0.36621717
219	0xbe1534b0	-0.1457088
220	0x3f371ed8	0.7153144
221	0x3f118d12	0.5685588
222	0xbeda724b	-0.42665324
223	0x3ee08449	0.43850926
224	0x3e6126ce	0.21987459
225	0xbe46d49f	-0.19417046
226	0x3f364e21	0.71212965
227	0xbf10fe72	-0.5663825
228	0xbe24c16c	-0.1608941
229	0xbebeecd5	-0.37290064
230	0x3e9243c1	0.28567317
231	0x3ebc52d6	0.3678195
232	0x3eec5ad0	0.46163034
233	0x3f046b83	0.5172655
234	0x3e85b0d3	0.2611147
235	0x3f207b8a	0.62688506
236	0x3e859f03	0.2609788
237	0x3e9469bc	0.2898692
238	0xbef28220	-0.47364902
239	0x3eddd0ec	0.43323457
240	0xbdcd86a8	-0.10035449
241	0xbf28e707	-0.6597752
242	0xbec589ab	-0.38581595
243	0x3f2b5f75	0.6694253
244	0xbf329a71	-0.6976691
245	0x3f23abad	0.6393383
246	0x3f368cd6	0.7130865
247	0xbe9335ec	-0.28752077
248	0x3f333152	0.6999713
249	0xbeedfc06	-0.4648134
250	0xbee99dd0	-0.45628214
251	0x3f1f7cd5	0.62299854
252	0xbe993e21	-0.29930213
253	0xbebc4d01	-0.367775
254	0x3e655004	0.22393805
255	0x3ea28324	0.31740677

linear2.weight f4 [256, 256]
0	0xbd3ccf67	-0.04609623
1	0xbd6c11a0	-0.057633996
2	0x3ca94580	0.020663023
3	0xbd0d4edb	-0.03449903
4	0x3cbe7da3	0.023253268
5	0x3d673b14	0.056452826
6	0xbc94bb2d	-0.018155659
7	0xbd29ca8b	-0.041452926
8	0x3d0327e5	0.03202047
9	0xbc8b9412	-0.017038379
10	0x3d7cbf96	0.061706148
11	0x3d78c3a8	0.060733467
12	0x3dbf02c3	0.09326699
13	0xbcce3c2e	-0.02517518
14	0x3d712bf5	0.05887981
15	0x3cc1dc4a	0.023664612
16	0xbcbac60e	-0.022799518
17	0x3d674f77	0.056472268
18	0xbbd06ff9	-0.0063610044
19	0xbd0413ae	-0.03224533
20	0x3dacd10f	0.08438312
21	0x3d6f5b2a	0.05843655
22	0xbd398b40	-0.045298815
23	0xbd2cb5a2	-0.042165406
24	0x3d027e16	0.031858526
25	0xbacbe100	-0.0015554726
26	0x3cbae873	0.022815919
27	0xbb91b5f6	-0.0044467403
28	0xbc6385a0	-0.013886839
29	0x3b561787	0.0032667832
30	0xbd07355f	-0.033009883
31	0x3cbdce17	0.02316956
32	0x3c9b6726	0.018970083
33	0x3d1ebcd4	0.0387543
34	0xbcd78de6	-0.02631278
35	0x3d59cda6	0.053174637
36	0xbd13a88e	-0.03604942
37	0x3d587a8d	0.05285125
38	0xbcf0007a	-0.029297102
39	0xbd6ca562	-0.05777491
40	0x3d66fafd	0.056391705
41	0x3d05d63e	0.03267502
42	0xbd1814bc	-0.03712915
43	0x3c600b01	0.013674499
44	0xbd3027cf	-0.043006714
45	0x3cbb9976	0.022900324
46	0x3bd74af8	0.0065702163
47	0xbbd463ff	-0.006481647
48	0x3d737cf8	0.05944535
49	0xbd3ae7f2	-0.045631357
50	0xbd2cb2b6	-0.04216262
51	0x3c44b2b1	0.012005494
52	0x3d14b0ee	0.036301546
53	0xbcb747e1	-0.022373142
54	0xbc23ffe2	-0.010009738
55	0xbd7d9f8e	-0.06191974
56	0x3c924538	0.017855272
57	0x3d1e382d	0.038627792
58	0x3d66af8e	0.056319766
59	0xbbf4c57b	-0.0074698306
60	0xbcb3d5ba	-0.021952499
61	0xbc290414	-0.010315914
62	0x3cc4b3e8	0.024011567
63	0xbb86df80	-0.0041159987
64	0x39c1e71e	0.00036984024
65	0xbd2a897d	-0.041635025
66	0xbca98103	-0.0206914
67	0x3cbcc2b5	0.023042062
68	0xbd30a080	-0.043121815
69	0xbce379d2	-0.02776805
70	0x3bd8afc4	0.00661275
71	0x3da01317	0.07816141
72	0x3c0977dc	0.008390393
73	0x3d09ba69	0.03362504
74	0xbd5c5284	-0.05378963
75	0xbd6f0fdc	-0.058364734
76	0x3da783c0	0.08179426
77	0xbce41ad3	-0.027844822
78	0xbd340795	-0.043952543
79	0x3d1656d1	0.03670389
80	0x3da867b3	0.08222904
81	0xbc13fe28	-0.009032764
82	0x3ce26ab0	0.027638763
83	0xbc989d8f	-0.018629817
84	0xbc081e08	-0.008307941
85	0x3d3bcd0a	0.045849837
86	0x3d863b5f	0.06554293
87	0xbce1036d	-0.027467454
88	0xbd1b40c0	-0.037903547
89	0x3d9ad4da	0.075601295
90	0x3d217f4d	0.039428044
91	0xbd342737	-0.04398271
92	0x3c765a08	0.015036114
93	0x3d85ddd0	0.06536448
94	0xbc05a632	-0.0081573
95	0xbccc58a8	-0.024944618
96	0x3d85b96d	0.06529508
97	0xbb563b60	-0.00326892
98	0xbd2b3fcd	-0.041808892
99	0xbb480166	-0.0030518412
100	0x3d002dec	0.031293795
101	0xbcc1ca2f	-0.023655979
102	0x3d7bd0d5	0.061478455
103	0xbd252511	-0.040318552
104	0xbc391901	-0.011297465
105	0xbc3ca55a	-0.011514032
106	0x3d41fc04	0.04735948
107	0xbcaa0bb0	-0.020757526
108	0xbd1c7a22	-0.038202412
109	0x3d6594b8	0.056050032
110	0xbb68a674	-0.0035499604
111	0x3d888728	0.06666404
112	0xbd0422c5	-0.03225972
113	0x3ccbe391	0.024888786
114	0xbc9f6f5d	-0.019462282
115	0x3d696f94	0.056991175
116	0xbd782b0e	-0.060587935
117	0x3c4a5966	0.012350416
118	0x3d25cf2e	0.040480785
119	0x3d261f39	0.04055712
120	0x3b5369c0	0.0032259077
121	0xbc9addfb	-0.018904677
122	0xbd2d9916	-0.042382322
123	0x3ca2b3b7	0.019861085
124	0x3d41b186	0.04728844
125	0xbd3ffc96	-0.046871744
126	0x3d8093f1	0.062782176
127	0xbd0218b4	-0.03176184
128	0x3dbfd834	0.09367409
129	0x3c787d5a	0.015166605
130	0x3d997358	0.07492703
131	0xbcf40943	-0.029789573
132	0xbd201db3	-0.039090823
133	0xbbca9905	-0.006182792
134	0x3c72f571	0.014829026
135	0x3d46e948	0.048562318
136	0x3d22b033	0.039718818
137	0xbb049a93	-0.0020233735
138	0x3d1ad89f	0.037804242
139	0x3c816f8c	0.01580026
140	0x3d580fbb	0.052749377
141	0x3d547dfb	0.051877957
142	0x3d7e0296	0.062014185
143	0x3d7a4d72	0.061109014
144	0x3d0722ab	0.032992046
145	0xbd50d38b	-0.050982993
146	0x3a266900	0.00063480437
147	0xbd3f4880	-0.0467
148	0xbc1ac89f	-0.009447246
149	0xbd40914c	-0.047013566
150	0xbd498c8c	-0.0492063
151	0x3d4ce18e	0.050019793
152	0x3d3348e6	0.043770693
153	0xbcd31587	-0.025767101
154	0x3db30def	0.08742892
155	0x3c2c4414	0.010514278
156	0xbb662a46	-0.0035120412
157	0x3d34f7df	0.0441817
158	0xbd47fc6c	-0.048824713
159	0xbd742107	-0.05960181
160	0xbc700101	-0.014648677
161	0x3d9ad001	0.07559205
162	0x3d1c9053	0.038223576
163	0xbc5c4186	-0.013443356
164	0x3d2dd856	0.042442642
165	0xbd2420de	-0.040070407
166	0xbc9397ce	-0.018016722
167	0xbd0f9b92	-0.035060473
168	0x3bc82d8f	0.0061089466
169	0x3d6271c7	0.055284288
170	0x3d387170	0.045030057
171	0xbd47bf6b	-0.048766535
172	0xbd002d4e	-0.031293206
173	0xbcf5c80b	-0.030002614
174	0xbce7a188	-0.028275266
175	0x3cca78d8	0.024715826
176	0x3d1fe7bd	0.039039362
177	0x3db48d3e	0.08816002
178	0xbd28fc0a	-0.04125599
179	0x3b769538	0.0037625562
180	0x3d24f54a	0.04027299
181	0x3c78434e	0.015152765
182	0xbc563b5e	-0.013075678
183	0xbc9bfc00	-0.019041061
184	0xbd2c22a0	-0.04202521
185	0x3ba2bbd8	0.0049662404
186	0x3d0bc403	0.03412248
187	0x3b160edc	0.002289704
188	0xbcad9056	-0.021186989
189	0x3d83bb23	0.06432178
190	0x3d0eae95	0.034834463
191	0xbb23e4e0	-0.0025008246
192	0x3d374ede	0.044752948
193	0x3d8d9fe6	0.06915264
194	0x3bae04b5	0.0053106197
195	0x3d79c2df	0.06097686
196	0x3d3c9d81	0.046048645
197	0xbc8fe39c	-0.017564587
198	0x3dadb94c	0.08482608
199	0x3c7b9105	0.0153544
200	0x3ce0121b	0.027352383
201	0x3c632a9e	0.013865141
202	0x3d64ea68	0.05588761
203	0x3cefac5a	0.029256988
204	0xbd2f5281	-0.04280329
205	0xbb59d69b	-0.0033239487
206	0xbd05914f	-0.03260928
207	0x3d9d37e2	0.076766744
208	0x3d4cb3ea	0.049976267
209	0x3cd3e5a1	0.025866332
210	0x3b0ea2ec	0.002176459
211	0x3cacda61	0.021100225
212	0x3c6c7f00	0.014434576
213	0x3da98668	0.08277589
214	0xbc242308	-0.010018118
215	0x3b8508d1	0.004059889
216	0x3cc8a83b	0.024494281
217	0x3d357880	0.04430437
218	0x3ca8b497	0.020593924
219	0xbc5063a8	-0.012719072
220	0xbca17926	-0.019711088
221	0x3db93eed	0.09045205
222	0x3d7134f2	0.058888383
223	0xbcb2b3a6	-0.021814179
224	0x3d667a45	0.05626895
225	0x3c4fb196	0.012676617
226	0x3d81704d	0.06320248
227	0x3c61b478	0.013775937
228	0xbc75a988	-0.014994033
229	0x3d24569e	0.040121667
230	0xba9d404d	-0.0011997313
231	0xbc873f17	-0.016509576
232	0x3b818171	0.003952198
233	0xbbf888d2	-0.0075846696
234	0x3d27cd37	0.040967193
235	0x3d7c0ea4	0.0615374
236	0x3dab6c7a	0.083703
237	0x3d5705f0	0.052495897
238	0x3d6bf249	0.057604108
239	0x3cd6a1ff	0.026200293
240	0x3d63c658	0.055609077
241	0x3ce37a24	0.027768202
242	0x3ce8f397	0.028436465
243	0x3cc3d9b7	0.023907525
244	0xbc91dd50	-0.017805725
245	0x3b82e7c2	0.003994913
246	0x3d9fbf91	0.0780021
247	0x3d93db0a	0.07219513
248	0x3d4f2dc9	0.050580774
249	0x3d49e4be	0.04929041
250	0xbc8978fe	-0.016781326
251	0x3d8cba5d	0.068714835
252	0xbce3722e	-0.027764406
253	0xbd32907e	-0.04359483
254	0x3b58a634	0.003305805
255	0x3d30e200	0.04318428

linear2.bias f4 [256]
0	0xbccbb43d	-0.024866218
1	0x3cd6dd0c	0.02622845
2	0x3c5116c8	0.012761779
3	0x3d8c1af4	0.068410784
4	0xbd475942	-0.048669107
5	0xbbb93338	-0.0056518577
6	0xbcab0ec4	-0.020881064
7	0x3b01ccc0	0.0019805878
8	0xbc2689a0	-0.010164648
9	0xbca46c04	-0.020071037
10	0x3c8b4fb3	0.017005777
11	0xbcf35c90	-0.029707223
12	0xbd77cb59	-0.06049666
13	0x3c32fa48	0.0109239295
14	0xbd41a8d0	-0.047280133
15	0x3d2945ee	0.041326456
16	0x3db433fe	0.08798979
17	0x3c059f78	0.008155696
18	0xbd61b862	-0.05510748
19	0x3d6d6230	0.057954967
20	0xbb8fec67	-0.004392195
21	0x3d98cf0f	0.07461368
22	0xbd10a165	-0.035310168
23	0x3cb66996	0.022267144
24	0x3d2907f7	0.04126736
25	0xbd693138	-0.056931704
26	0x3b490b80	0.003067702
27	0x3daab798	0.08335799
28	0x3d11aaf5	0.035563428
29	0xbca4acf5	-0.020102004
30	0x3d797790	0.06090504
31	0xbd3a45fc	-0.0454769
32	0x3d58245a	0.052769043
33	0x3d7d30f0	0.06181425
34	0x3d2eb982	0.042657383
35	0xbd29998b	-0.041406196
36	0x3da3cd48	0.07998139
37	0xbd3caaf4	-0.04606147
38	0x3d4ac49c	0.049503908
39	0xbd776307	-0.060397174
40	0xbd0662c2	-0.032809027
41	0xbcbccc64	-0.02304668
42	0x3c88c154	0.016693749
43	0x3c6f001e	0.01458743
44	0x3d06ab6f	0.032878336
45	0x3ce73630	0.02822408
46	0xbd49d738	-0.049277514
47	0xbcf0ed99	-0.02941017
48	0x3dd028c2	0.10164024
49	0x3d7ed022	0.06221021
50	0xbbf46300	-0.007458091
51	0xbd04939c	-0.032367334
52	0xbab32c37	-0.0013669793
53	0x3d8741d8	0.066043556
54	0xbcbda459	-0.023149656
55	0x3d3e8e3e	0.04652237
56	0x3c8045ec	0.015658341
57	0x3da8d3ed	0.08243547
58	0xbd58a15b	-0.052888256
59	0x3d00fecc	0.031492993
60	0x3cd09858	0.025463268
61	0xbcd6f2d0	-0.026238829
62	0xbd703439	-0.058643553
63	0x3bfcb8c0	0.0077124536
64	0x3a7d8882	0.00096715253
65	0x3d8a09dd	0.067401625
66	0x3d8bfb2e	0.06835018
67	0xbcd86435	-0.02641497
68	0xba9ce4c6	-0.0011970035
69	0x3daec0c3	0.0853286
70	0xbd372b00	-0.044718742
71	0x3cc8dd8a	0.0245197
72	0x3d9bf954	0.07615915
73	0xbaf83a40	-0.0018938258
74	0x3d06bcbc	0.032894835
75	0xbb9fc5e2	-0.0048758844
76	0x3c1695ce	0.00919099
77	0xbd6bdcd9	-0.057583664
78	0xbd3b6ea0	-0.045759797
79	0x3da06e6a	0.0783356
80	0xbd3f977b	-0.046775322
81	0x3d3f329e	0.04667913
82	0xbcefc454	-0.029268421
83	0x3cfb8c0e	0.030706432
84	0xbc396d48	-0.011317559
85	0xbb2c2dbf	-0.0026272384
86	0x3d57afca	0.05265788
87	0xbc53ae04	-0.0129199065
88	0xbbd99689	-0.0066402596
89	0x3c8b9329	0.017037945
90	0xbcbe50d6	-0.023231905
91	0x3c9e727c	0.0193417
92	0xbd150510	-0.03638178
93	0x3bc11389	0.0058922214
94	0x3cf4a110	0.029861957
95	0x3c939698	0.018016145
96	0x3af41616	0.0018622305
97	0xbd81541f	-0.06314873
98	0x3db99ad4	0.09062734
99	0x3a388980	0.0007039532
100	0xbcf58033	-0.029968357
101	0x3c2a4ef4	0.0103948
102	0x3c493358	0.012280308
103	0xbcf37d3c	-0.029722802
104	0x3cd6a7e0	0.026203096
105	0xbd5a0da3	-0.05323566
106	0x3c5e8347	0.013581104
107	0x3d1888bd	0.03723978
108	0x3c3688c4	0.011141006
109	0xbc3c759e	-0.0115026515
110	0x3bbc1c38	0.0057406686
111	0x3c5c6d46	0.013453787
112	0x3d20d40c	0.039264724
113	0x3da3beaa	0.07995351
114	0x3d83e2d1	0.06439746
115	0x3da287d0	0.079360604
116	0x3dbfa5d5	0.09357802
117	0xbd0c1345	-0.034198064
118	0x3d0113e1	0.0315131
119	0x3d020ecb	0.03175239
120	0x3d5e4c32	0.054271884
121	0xbbf723a9	-0.007542093
122	0xbbc16316	-0.0059017045
123	0xbcb81788	-0.022472158
124	0x3d057c4d	0.032589246
125	0x3db0c4d2	0.086312905
126	0xba393180	-0.0007064566
127	0x3ccf7f19	0.02532916
128	0x3daef105	0.085420646
129	0xbd14e716	-0.036353193
130	0x3c826d2c	0.015921198
131	0x3d0e86f3	0.034796666
132	0x3b8368d0	0.0040102974
133	0xbd1fac4e	-0.038982682
134	0x3d343089	0.0439916
135	0x3d589799	0.05287895
136	0x3d581839	0.052757476
137	0x3d8071b0	0.06271684
138	0x3c4187f3	0.011812198
139	0x3db6f9de	0.08934377
140	0xbd324ef4	-0.043532327
141	0xbd091d99	-0.033475492
142	0x3c26fc19	0.010191941
143	0xbc7ab118	-0.0153010115
144	0x3d9d7421	0.076881655
145	0x3cc5d835	0.024150947
146	0xbcdfaf3c	-0.027305238
147	0xbcca3e4e	-0.024687912
148	0x3d425219	0.047441576
149	0x3d890d6f	0.066920154
150	0x3c851e77	0.016249878
151	0x3da3c263	0.07996061
152	0x3d215600	0.039388657
153	0xbc99c969	-0.018772798
154	0x3d2c6d9a	0.04209671
155	0x3d5a8398	0.053348154
156	0x3d7199aa	0.058984436
157	0xbc0547b0	-0.008134767
158	0xbc680418	-0.014161132
159	0xbd392d04	-0.045208946
160	0x3cfc8fe8	0.030830339
161	0x3d2d5245	0.042314786
162	0xbc630f5e	-0.013858644
163	0x3d295d7f	0.04134893
164	0xbd5531f5	-0.052049596
165	0xbc89464a	-0.01675715
166	0x3d94eecd	0.0727211
167	0x3da81a36	0.08208124
168	0x3d6fa09e	0.058502786
169	0xbc1120e7	-0.008857942
170	0x3bbdfa16	0.005797635
171	0x3d16f472	0.036854215
172	0x3d9bea0e	0.07613002
173	0x3da99b6b	0.08281597
174	0xbc0df0b8	-0.008663349
175	0x3d077a7f	0.033075806
176	0xbd179f1a	-0.037016965
177	0xbd46dbca	-0.04854945
178	0x3d7f800a	0.062377967
179	0xbd6d8d67	-0.05799618
180	0x3d60b543	0.054860365
181	0x3d9b188a	0.0757304
182	0x3cde0065	0.027099798
183	0x3d499d75	0.04922243
184	0x3d0ed199	0.034867857
185	0x3d5241cb	0.051332276
186	0x3d4ba204	0.049715057
187	0x3d246661	0.0401367
188	0x3b9733bb	0.004614321
189	0x3dc2c09d	0.09509394
190	0xbd374c35	-0.04475041
191	0xbcd45d16	-0.025923293
192	0xbaf6ec80	-0.0018838793
193	0xbd29eca6	-0.04148545
194	0xbd1e57a8	-0.038657814
195	0x3cc604ed	0.02417227
196	0x3d31c7e6	0.04340353
197	0xb8d6174e	-0.00010208656
198	0xbd483fe8	-0.04888907
199	0x3d4f1bf8	0.050563782
200	0x3cbd9bb0	0.023145527
201	0xbcdac51c	-0.026705317
202	0x3d4561df	0.04818904
203	0xbcba279a	-0.022723962
204	0xbcc6cbaa	-0.024267036
205	0xbc94f3ec	-0.018182717
206	0xbd1d628a	-0.038424052
207	0x3d3a4cb3	0.045483302
208	0xbd724ee3	-0.059157263
209	0x3cd3a9c9	0.025837796
210	0xbcddd670	-0.02707979
211	0xbd5cb771	-0.05388588
212	0x3d6fbe10	0.058530867
213	0x3ca06a0e	0.01958182
214	0xbd5bc6b2	-0.053656287
215	0xbccbb25b	-0.02486532
216	0xbb84586b	-0.0040388606
217	0xbd0b0f08	-0.03394988
218	0x3dba5ce0	0.09099746
219	0xbc6c127f	-0.014408707
220	0xbd024662	-0.031805404
221	0xbca1eb48	-0.019765511
222	0xbc7cc1e8	-0.01542709
223	0x3ce8cbb1	0.02841744
224	0x3d646ffa	0.05577085
225	0xbc483800	-0.012220383
226	0x3bc25fa5	0.005931812
227	0x3da835f2	0.08213414
228	0x3d09b262	0.033617385
229	0x3d237368	0.03990498
230	0x3c8c4a07	0.017125143
231	0x3db20db6	0.086940214
232	0x3d30a082	0.043121822
233	0xbcaca831	-0.021076294
234	0x3d8e860a	0.0695916
235	0x3c7176c2	0.014737787
236	0x3c6cf311	0.014462248
237	0x3dae0b96	0.084983036
238	0x3ba9db6b	0.0051836274
239	0xbd1a317a	-0.03764484
240	0xbb359dc0	-0.0027712435
241	0x3d70c600	0.058782578
242	0xbcec8188	-0.028870359
243	0xbc9d29aa	-0.019184906
244	0x3cd8e8cb	0.026478192
245	0x3d45e180	0.048310757
246	0x3d70c050	0.058777153
247	0x3cd61ed1	0.026137741
248	0xbc181020	-0.009281188
249	0xbc5fd978	-0.013662688
250	0xbd3d20bd	-0.0461738
251	0xbc6241cc	-0.0138096325
252	0xbcca2e55	-0.024680296
253	0xbd809953	-0.06279244
254	0xbc373717	-0.011182568
255	0x3d7f9c60	0.06240499

linear4.weight f4 [256, 256]
0	0x3d7030e3	0.058640372
1	0xbce887e0	-0.028385103
2	0x3a99dc00	0.0011738539
3	0x3c4828b8	0.012216739
4	0x3d3391e4	0.043840304
5	0xbcbbffb7	-0.022949083
6	0x3ca403b0	0.02002129
7	0xbd5a564c	-0.053304955
8	0x3d1abde0	0.037778735
9	0xbc081ac0	-0.008307159
10	0x3cc51fd8	0.024063036
11	0xbd096954	-0.033547714
12	0x3cd8948e	0.026438024
13	0xbd6e1740	-0.05812764
14	0xbc2d3ab8	-0.010573082
15	0x3d6be72e	0.057593517
16	0x3d9d3eaa	0.07677968
17	0xbd5a6132	-0.05331535
18	0x3cd0cade	0.02548736
19	0xbd65579c	-0.055991754
20	0x3d6d29fa	0.05790136
21	0xbd6e4d18	-0.05817899
22	0x3d0b534d	0.03401499
23	0xbd4b03cc	-0.049564168
24	0x3c857876	0.016292792
25	0x3d5eaa22	0.05436147
26	0xbc1b36c8	-0.00947351
27	0x3d13bace	0.036066823
28	0xbcd40c40	-0.025884748
29	0x3cfbfa36	0.030758958
30	0x3d503f43	0.05084158
31	0xbd547c3c	-0.05187629
32	0xbd153a94	-0.036432818
33	0x3d519e5c	0.051176414
34	0xbb800bce	-0.003907657
35	0xbbbe6fda	-0.0058116736
36	0xbd01c9f3	-0.031686734
37	0xbb807f40	-0.0039214194
38	0x3d653b92	0.055965014
39	0xbcc1f926	-0.023678374
40	0xbc0488c6	-0.00808925
41	0xbbeba260	-0.0071909875
42	0xbd51c52c	-0.05121343
43	0x3d0167b4	0.03159304
44	0x3c2e17b6	0.01062577
45	0xbcac2f90	-0.021018773
46	0x3ad910c5	0.0016560784
47	0xbd2a743e	-0.041614763
48	0x3d4c9389	0.049945388
49	0x3be1b062	0.0068874815
50	0x3ccd6938	0.025074586
51	0xbd542c7b	-0.051800232
52	0x3d491940	0.049096346
53	0xbc784f19	-0.015155577
54	0xbd34e103	-0.0441599
55	0x3d0b93e8	0.0340766
56	0x3d065e86	0.03280499
57	0x3d83336d	0.06406293
58	0x3d73dafb	0.059535008
59	0x3adcfb08	0.0016859481
60	0xbb5fca20	-0.0034147575
61	0xbd824cce	-0.063623056
62	0x3cf28453	0.029604113
63	0x3b09b5e0	0.0021012947
64	0x3daf7f03	0.085691474
65	0x3d93b246	0.07211737
66	0x3bce54cb	0.006296729
67	0x3d71d511	0.059041087
68	0xbc85e5e0	-0.016344965
69	0xbc6603ef	-0.014039024
70	0x3ca09ba0	0.019605458
71	0x3d1fd1cc	0.039018437
72	0xbd4fb893	-0.050713133
73	0xbd164cbc	-0.036694273
74	0x3d5725c3	0.052526247
75	0x3d0a07ef	0.033698972
76	0xbbdf4fc9	-0.006814931
77	0x3d230887	0.039803054
78	0x3c9cb247	0.019127978
79	0xbd4a4e97	-0.049391355
80	0x3bf18214	0.007370243
81	0xbd413434	-0.047168925
82	0x3bb57b7b	0.0055384017
83	0x3c323ef8	0.010879271
84	0x3d126714	0.035742834
85	0xba558ffb	-0.000814676
86	0xbccf23f8	-0.025285706
87	0x3d558496	0.052128397
88	0xbad9c7c0	-0.0016615316
89	0x3d1092d2	0.03529627
90	0x3bf09749	0.0073422533
91	0xbc86cf68	-0.01645632
92	0xbd477b1b	-0.048701387
93	0x3d3bfd37	0.04589578
94	0xbbb98dc0	-0.00566265
95	0x3d284e49	0.041090284
96	0x3c96e842	0.018421296
97	0xbd408689	-0.047003303
98	0xbd3d5f76	-0.046233617
99	0xbd4ac9c0	-0.04950881
100	0x3b940932	0.0045176977
101	0xbc40d90e	-0.0117705
102	0x3c6f0a50	0.014589861
103	0x3c5ae9d9	0.013361418
104	0x3d3af34a	0.045642175
105	0xbd1c08fe	-0.038094513
106	0xbd0ca1ca	-0.03433398
107	0x3c9cac4e	0.01912513
108	0xbc5ab884	-0.013349656
109	0xbc98e26d	-0.018662656
110	0x3ca74ca5	0.02042229
111	0xba82df89	-0.0009984832
112	0x3d6fef8e	0.058578067
113	0x3db0c405	0.08631138
114	0xbccbc0bc	-0.024872176
115	0xbaf2375b	-0.0018479632
116	0x3b1f697b	0.0024324346
117	0x3d04ae63	0.03239287
118	0xbc6810c2	-0.014164152
119	0xbc3ddb38	-0.01158791
120	0xbcc53605	-0.02407361
121	0xbd55c838	-0.052192897
122	0xbcd06dc8	-0.025442973
123	0xbd027eba	-0.031859137
124	0xbc27bbdb	-0.010237659
125	0x3ce44b9f	0.02786809
126	0xbd3be770	-0.045875013
127	0xbd7171bf	-0.058946367
128	0x3d36d0c2	0.04463268
129	0x3d017ec8	0.03161505
130	0x3d390c6a	0.045177855
131	0x3c266229	0.010155239
132	0x3caf701c	0.021415763
133	0x3d449d67	0.048001673
134	0x3d6b8219	0.057497118
135	0xbb94fbd6	-0.0045466227
136	0x3d0aa691	0.033850256
137	0xbd412103	-0.047150623
138	0x3d172f60	0.036910415
139	0x3d5c00c0	0.053711653
140	0x3d51c360	0.051211715
141	0xbd0cc36f	-0.034366067
142	0xbc861919	-0.01636939
143	0x3ba8e330	0.005154036
144	0xbd73b4fe	-0.05949878
145	0xbd20b84d	-0.039238263
146	0xbbaf8b20	-0.005357161
147	0xbd221979	-0.039575074
148	0x3d4d3fdd	0.050109733
149	0x3c7642a9	0.015030541
150	0x3d6ff3d2	0.058582135
151	0x3d293ed8	0.041319698
152	0x3ca4fa97	0.020139022
153	0x3ad60ca2	0.0016330669
154	0xbc139be0	-0.009009331
155	0xbd2812cd	-0.041033555
156	0x3c7d175d	0.015447465
157	0xbd491504	-0.049092308
158	0xbcc42da8	-0.023947552
159	0xbba34d3c	-0.0049835723
160	0x3d27cc33	0.040966224
161	0x3cc355e8	0.023844674
162	0x3d183101	0.03715611
163	0xbd642923	-0.055703294
164	0xbcccee08	-0.025015846
165	0xbd771499	-0.060322378
166	0x3dabac92	0.083825245
167	0xbd1f59af	-0.03890389
168	0xbc8c908c	-0.01715877
169	0x3d826eb1	0.06368769
170	0x3bb234e2	0.005438433
171	0x3d5218cf	0.05129319
172	0x3c2cb763	0.01054177
173	0x3d189735	0.037253577
174	0xbd638b38	-0.05555269
175	0x3cecbc7f	0.028898476
176	0xbc467048	-0.012111731
177	0xbd3b601a	-0.045745946
178	0xbb90cd18	-0.0044189803
179	0x3d1c3108	0.038132697
180	0x3d67060e	0.05640226
181	0xbbcb8b34	-0.0062116627
182	0xbce4a87b	-0.027912369
183	0x3db834cf	0.089944474
184	0xbcaf0f2f	-0.021369545
185	0xbd4e1f4d	-0.05032282
186	0x3c52e468	0.012871839
187	0xbb242b65	-0.002505028
188	0x3d125576	0.035726033
189	0x3d9ce98a	0.076617315
190	0xbcadee0b	-0.021231672
191	0xbd062fad	-0.03276031
192	0xbcd009c8	-0.025395289
193	0xbd2bae90	-0.041914523
194	0xbd7de3ef	-0.061984953
195	0xbd48d495	-0.04903086
196	0xbd1879a2	-0.037225373
197	0x3cde51f0	0.02713868
198	0xba625bdf	-0.00086349057
199	0xbd781c2a	-0.060573734
200	0x3cdc783a	0.026912797
201	0x3c8f1f0d	0.01747086
202	0x3d324aba	0.043528296
203	0x3d69a5e6	0.05704298
204	0x3d766d22	0.06016267
205	0xbd49959e	-0.04921495
206	0xbd63a2eb	-0.055575293
207	0x3c31ffc1	0.010864199
208	0x3d278808	0.040901214
209	0x3c2d86ee	0.010591252
210	0x3d399bdc	0.045314655
211	0xbd7d754a	-0.061879434
212	0x3d0829d8	0.03324303
213	0x3cb01c05	0.021497736
214	0xbd27c9ba	-0.040963866
215	0xbd45a713	-0.048255038
216	0x3b8d6bbe	0.0043158224
217	0xbd461262	-0.048357375
218	0x3d4898d0	0.04897386
219	0x3d6a485f	0.057197925
220	0xbd554b2d	-0.052073646
221	0x3d48df56	0.049041115
222	0x3d41f17a	0.04734943
223	0xbbe22c70	-0.00690227
224	0x3d4faac9	0.050699983
225	0xbb0fb2c9	-0.0021926633
226	0xbc658fce	-0.0140113365
227	0x3d3051b0	0.043046653
228	0xbd3b42cb	-0.045717996
229	0x3cf36505	0.029711256
230	0xbd1cad03	-0.038250934
231	0xbd158c3a	-0.036510684
232	0x3d7db134	0.061936572
233	0xbc554737	-0.013017467
234	0x3d22f94d	0.039788533
235	0xbd09f17a	-0.033677556
236	0x3caefed7	0.021361751
237	0x3dbc4975	0.09193698
238	0x3c8e731a	0.01738887
239	0xbc9b9f04	-0.018996723
240	0x3cac3ab8	0.021024093
241	0x3befa070	0.007312827
242	0xbd15f794	-0.036613062
243	0xbba322ec	-0.0049785282
244	0xbd72ef19	-0.059310053
245	0x3d1ca044	0.03823878
246	0x3d5f6c08	0.054546386
247	0x3dad4ec2	0.084622875
248	0xbd3f3364	-0.04667987
249	0xbcbc5732	-0.022990797
250	0xbcf603e0	-0.030031145
251	0xbd084e78	-0.03327796
252	0xbcd1b189	-0.02559735
253	0x3c991ec1	0.018691422
254	0x3d982808	0.0742951
255	0xbd33fa24	-0.043939725

linear4.bias f4 [256]
0	0x3d400ceb	0.04688732
1	0x3c08d080	0.0083504915
2	0x3d132f70	0.03593391
3	0xbd64a0c3	-0.055817377
4	0x3d869d1d	0.06572936
5	0x3ce430b0	0.027855247
6	0xbcf0114f	-0.029305128
7	0x3ba58bc1	0.0050520604
8	0x3dc206e7	0.09473973
9	0xba2d3d8f	-0.0006608599
10	0xbc56fa90	-0.013121262
11	0xbba95d5e	-0.005168601
12	0xbd1663e4	-0.036716357
13	0x3c594c57	0.01326283
14	0xbd8d3b2d	-0.068960525
15	0x3bd88351	0.006607451
16	0xbd0ec45d	-0.034855235
17	0x3dbcfffc	0.09228513
18	0xbcd1b84c	-0.025600575
19	0x3d139c5a	0.03603778
20	0xbd283c33	-0.041073035
21	0x3ce55612	0.027995143
22	0xbb9d1991	-0.0047943075
23	0x3ccabd2d	0.02474841
24	0x3d4992cd	0.049212266
25	0x3da2e966	0.079546735
26	0x3d1846bb	0.03717683
27	0x3db48f76	0.088164255
28	0xbd41e9be	-0.047342055
29	0x3be7a8a8	0.007069666
30	0x3c8e73ac	0.017389141
31	0xbaee110d	-0.001816304
32	0xbc793851	-0.015211181
33	0x3d1bec9d	0.03806745
34	0xbd7a39b6	-0.061090194
35	0x3d186025	0.037201066
36	0xbd585a54	-0.05282052
37	0xbd7877ad	-0.060661007
38	0xbd74ca5e	-0.059763305
39	0xbd569bcd	-0.052394677
40	0xbcf5cbf8	-0.030004486
41	0xbc9b6ce8	-0.018972829
42	0xbd18545f	-0.037189838
43	0xbc5f628c	-0.013634335
44	0x3d27d217	0.04097184
45	0x3ca47df2	0.020079587
46	0x3d3eadbb	0.0465524
47	0x3d776eda	0.06040845
48	0xbd59f13c	-0.053208575
49	0x3d055c58	0.03255877
50	0x3d761af6	0.060084306
51	0x3c8ba117	0.017044587
52	0xbc3213b8	-0.010868959
53	0x3d19c0ec	0.0375375
54	0x3d47cdb6	0.048780166
55	0xbcc50b3b	-0.024053207
56	0xbd6adcf4	-0.057339624
57	0x3dbce621	0.09223581
58	0xbc67fc06	-0.014159208
59	0x3ae402bd	0.0017395836
60	0x3dae4a5f	0.08510279
61	0x3d761c9d	0.06008588
62	0x3cbccfb5	0.023048261
63	0xbd663ef7	-0.05621239
64	0xbcfe8e00	-0.03107357
65	0x3cd1ba1b	0.025601437
66	0x3cd73483	0.026270157
67	0x3d21516d	0.039384294
68	0x3b0873c0	0.0020820946
69	0x3c02fe2e	0.0079951715
70	0x3d2874e5	0.041127104
71	0xbceb7ad4	-0.028745092
72	0x3cbb7f50	0.022887856
73	0xbd79bc6c	-0.06097071
74	0xbcf7a736	-0.0302311
75	0x3bda6499	0.006664824
76	0xbd6da253	-0.058016133
77	0xbd1cc090	-0.03826958
78	0xbca5edf8	-0.020255074
79	0x3c2ab198	0.010418318
80	0x3d303d53	0.043027233
81	0x3d2cc08f	0.042175826
82	0xbd42c133	-0.04754753
83	0xbd5b600f	-0.053558405
84	0x3d508f63	0.050917994
85	0xbc3bb305	-0.011456256
86	0x3c9cc8b9	0.01913868
87	0xbd12e3e1	-0.035861854
88	0xbc58ca4a	-0.013231823
89	0x3d862e67	0.06551819
90	0xbd8c3566	-0.068461224
91	0xbd726952	-0.059182473
92	0x3d89a316	0.06720559
93	0x3dacbacc	0.08434066
94	0xbcceaf88	-0.025230184
95	0xbceda1d8	-0.029007837
96	0xbc318881	-0.010835768
97	0x3d504702	0.05084897
98	0xbc1076f0	-0.008817419
99	0xbca0495c	-0.01956623
100	0xbc760234	-0.015015174
101	0xbcb11b87	-0.021619571
102	0x3d5180b2	0.051148124
103	0x3d6303cb	0.05542354
104	0xbd2fbd71	-0.042905275
105	0x3cfab014	0.030601539
106	0xbd39d18c	-0.045365855
107	0xbd765272	-0.06013722
108	0x3cc752f4	0.024331547
109	0x3d973235	0.07382623
110	0x3cacd118	0.021095797
111	0xbca9bb82	-0.020719294
112	0x3d2f2251	0.042757336
113	0xbc4be458	-0.012444578
114	0xbd3f0180	-0.04663229
115	0x3d5f3002	0.054489143
116	0xbc8baafe	-0.017049309
117	0x3d2cbf18	0.04217443
118	0x3d7c75fc	0.061635956
119	0xbd821b12	-0.063528195
120	0xbd80a016	-0.06280534
121	0x3d850d8b	0.06496724
122	0xbcbe8a78	-0.023259386
123	0x3d6bd440	0.057575464
124	0x3d0fb907	0.035088565
125	0x3d2873a3	0.041125905
126	0x3d3125cb	0.043248933
127	0x3d099a56	0.03359445
128	0x3cc5fda5	0.024168799
129	0x39a9b6b6	0.00032370322
130	0xbcebc817	-0.028781934
131	0xbcf14ad5	-0.029454628
132	0x3dab934b	0.08377703
133	0x3c110f30	0.008853719
134	0xbceaec40	-0.028677106
135	0x3dc3526a	0.095372036
136	0x3d74ae4c	0.059736535
137	0x3c8559c9	0.016278164
138	0xbd31d152	-0.043412514
139	0xbc324e71	-0.01088296
140	0x3d62fb05	0.055415172
141	0x3d67083c	0.056404337
142	0xbc445758	-0.011983715
143	0xbcadbae8	-0.021207288
144	0xbd4b583f	-0.049644705
145	0x3cf36dee	0.029715504
146	0xbd334c8b	-0.04377417
147	0x3cdf19e1	0.02723402
148	0xbcbe280d	-0.023212457
149	0x3c035e9c	0.008018162
150	0x3c9d504c	0.019203328
151	0xbd476c2e	-0.048687153
152	0x3da77e78	0.08178419
153	0x3d8facf4	0.0701541
154	0x3d3c3f34	0.045958713
155	0xbd045cba	-0.032314993
156	0xbd0cae34	-0.03434582
157	0x3c71625a	0.0147329215
158	0x3c1b7553	0.0094884215
159	0x3bfb8373	0.007675582
160	0x3d2aac9f	0.04166853
161	0x3d381d53	0.04494984
162	0x3bcb62cd	0.0062068463
163	0x3c889f3d	0.016677493
164	0x3d67f250	0.05662757
165	0xbd16b6a3	-0.03679527
166	0x3d44cb6d	0.048045564
167	0xbcb066c6	-0.021533381
168	0xbcbc5105	-0.022987852
169	0xb89b5a6b	-7.4078176e-05
170	0x3ca0eac1	0.01964319
171	0xbd77166a	-0.06032411
172	0x3d5202ba	0.05127213
173	0x3cc9356e	0.02456161
174	0x3d10774e	0.035270028
175	0xbd14787c	-0.036247715
176	0xbab187c0	-0.0013544485
177	0x3c923559	0.017847704
178	0x3d841611	0.06449521
179	0x3d4ca3e7	0.049960997
180	0xbd005a93	-0.03133638
181	0xbd501a7d	-0.05080651
182	0x3c44d3c6	0.012013381
183	0xbd21eb63	-0.039531123
184	0x3ccc26bf	0.02492082
185	0x3d2f6785	0.042823333
186	0x3d5a85cb	0.05335025
187	0x3ce2a882	0.027668241
188	0x3d0d10a0	0.034439683
189	0x3dbb5ee9	0.09148962
190	0xbcc778bb	-0.024349561
191	0x3c4dc6c6	0.012559598
192	0x3dacf769	0.08445627
193	0x3d19b068	0.03752175
194	0x3c0112e8	0.007878043
195	0xbce96700	-0.028491497
196	0x3d5ba9a1	0.053628568
197	0x3d2f063a	0.042730547
198	0x3c02f100	0.007992029
199	0xbd71d38d	-0.05903964
200	0x3d94c052	0.07263245
201	0x3d070a01	0.032968525
202	0xbc982600	-0.018572807
203	0xbbc584f0	-0.0060278103
204	0x3dbeb22b	0.093113266
205	0xbd43b20b	-0.047777217
206	0xbb93317a	-0.004491982
207	0xbd2fdd52	-0.042935677
208	0xbd651e41	-0.055937055
209	0xbc624f30	-0.013812825
210	0x3d1c43f1	0.03815073
211	0xbd16cf90	-0.03681904
212	0x3d23e19f	0.04001009
213	0xb974847d	-0.00023319009
214	0xbd49d3fe	-0.049274437
215	0x3d74df06	0.059783004
216	0xbc03bc62	-0.008040519
217	0x3d25d536	0.040486537
218	0xbd72757e	-0.05919408
219	0xbd2c0b9b	-0.042003255
220	0x3d007a4d	0.031366635
221	0xbc685480	-0.014180303
222	0xbd793f82	-0.06085158
223	0xbc92121b	-0.017830899
224	0x3caf86f3	0.021426653
225	0x3d76f190	0.060288966
226	0xbd49f0e2	-0.04930199
227	0x3d8acda4	0.06777504
228	0x3d2761f8	0.040864915
229	0xbd629962	-0.05532206
230	0xbc890f07	-0.016730798
231	0xbc60ddd8	-0.013724767
232	0x3caaa49f	0.02083045
233	0x3c86d1d0	0.016457468
234	0xbb1d9159	-0.0024042933
235	0x3c4c855d	0.012482968
236	0xbcf0dbe3	-0.029401725
237	0xbd561ce9	-0.052273665
238	0x3d7364ff	0.05942249
239	0xbcf46400	-0.02983284
240	0x3dc5f5c9	0.096660204
241	0x3d002864	0.03128852
242	0xbd0975b5	-0.03355952
243	0x3ce0a4ab	0.02742227
244	0xbd71e3af	-0.059055027
245	0xbcd3ef04	-0.025870807
246	0x3d519594	0.05116804
247	0x3d59b56b	0.05315153
248	0x3b97948e	0.0046258634
249	0xbca58654	-0.020205654
250	0xbcad78c3	-0.021175748
251	0x3d297545	0.041371603
252	0x3cfc511b	0.030800393
253	0x3c83f113	0.016106164
254	0x3d2da2ea	0.042391695
255	0xbd4cec64	-0.050030127

linear3.weight f4 [1, 256]
0	0x3c134a91	0.008989946
1	0x3c19d4f4	0.009389151
2	0xbb43b492	-0.0029862267
3	0xbc1aec08	-0.009455688
4	0x3d1bd466	0.038044356
5	0x3d0b80e4	0.034058467
6	0x3c1d16b2	0.0095879305
7	0xbbb97ccf	-0.0056606303
8	0x3d182975	0.03714891
9	0x3be8fbf8	0.007110115
10	0x3cfb1844	0.03065122
11	0xbb2a7733	-0.002601099
12	0xbba845cf	-0.005135275
13	0x3adb7a2a	0.0016744782
14	0xbbce7c6a	-0.0063014524
15	0x3d1ec179	0.03875873
16	0xbaee8b92	-0.0018199554
17	0x3d21a13a	0.0394604
18	0xbb5c2c9f	-0.0033595932
19	0xbaf90922	-0.0018999914
20	0x3c27d305	0.010243182
21	0xba403fd1	-0.0007333728
22	0xbb13764c	-0.002250093
23	0xbbfa2b57	-0.007634561
24	0x38bd1d28	9.017653e-05
25	0x3d324a62	0.04352797
26	0xbb2a2cb7	-0.0025966594
27	0x3d084649	0.033270154
28	0x39944830	0.00028282544
29	0xbb82f793	-0.0039967983
30	0xbb25fcbe	-0.0025327648
31	0xbba0d088	-0.0049076714
32	0xbb428467	-0.0029680969
33	0xbafc7bb9	-0.0019262946
34	0xbb90b41b	-0.0044160015
35	0x3d1b7b83	0.037959587
36	0x3ad77b74	0.001643999
37	0xbb94057a	-0.0045172544
38	0xbb2cde80	-0.0026377738
39	0xbbb09e7d	-0.005389987
40	0xba734c1f	-0.0009281057
41	0x3bcdfba0	0.0062860996
42	0xbb6e0b9b	-0.0036322835
43	0xbb93714b	-0.0044995896
44	0xbb0cb668	-0.0021471027
45	0xbbef7abd	-0.0073083327
46	0xbb220b82	-0.0024726097
47	0xbbfa1ab8	-0.0076325797
48	0x3a4e9e94	0.00078819063
49	0xbb653c0a	-0.0034978413
50	0xbabf76aa	-0.0014607508
51	0xbc167d51	-0.009185151
52	0xbaa83500	-0.0012833178
53	0xbb193a81	-0.0023380818
54	0x3caceaeb	0.021108111
55	0xbb83d427	-0.0040230933
56	0x3b34a974	0.0027566822
57	0x3d137b91	0.036006514
58	0x3bd062c5	0.0063594305
59	0x3d10053a	0.035161234
60	0x3d04cf28	0.032424122
61	0x3cb4e801	0.022083284
62	0x3d1129f2	0.035440393
63	0xbb8e7d51	-0.004348435
64	0xba3b62e8	-0.0007148222
65	0xbb982906	-0.0046435622
66	0xbb6a6c9d	-0.0035770305
67	0xbab398d7	-0.0013702166
68	0xbb7af427	-0.0038292499
69	0xbb9dfd9a	-0.0048214914
70	0x3d07054c	0.032964036
71	0xbbd18504	-0.0063940305
72	0x3b7db104	0.0038710246
73	0xbad1ef7a	-0.0016016804
74	0xbb77bece	-0.0037802937
75	0x3cdb52d7	0.0267729
76	0xbd4dd032	-0.05024738
77	0xbb89c7e4	-0.004204737
78	0xbaaae1a7	-0.001303722
79	0x3a0261ac	0.00049736607
80	0xbab32ec0	-0.0013670549
81	0x3b577b61	0.0032879936
82	0xbbd0de39	-0.0063741473
83	0xbd2ba0c7	-0.041901376
84	0x3cbb541f	0.02286726
85	0xbb96eadf	-0.0046056355
86	0xbc1d33d5	-0.009594877
87	0xbd042765	-0.032264132
88	0x3bc4225d	0.0059855417
89	0x3ba02b38	0.0048879646
90	0xbb2b0db9	-0.0026100709
91	0x3a01fc24	0.00049585314
92	0x3c46674b	0.012109588
93	0x3cb573cd	0.022149945
94	0x3c41407d	0.01179516
95	0x3a9f799c	0.001216698
96	0xbb9c51ff	-0.004770517
97	0xbbb4d814	-0.0055189226
98	0xbcad1633	-0.02112875
99	0xbaa12148	-0.0012293244
100	0xbb7304f0	-0.00370818
101	0xbc793627	-0.015210665
102	0xba8fdff6	-0.001097678
103	0xbb5f3de2	-0.0034063985
104	0x3a4cb4fc	0.0007808951
105	0xbbac2115	-0.005252967
106	0xba1943e4	-0.00058466033
107	0xbacbc52d	-0.0015546434
108	0xbb8e76a7	-0.0043476406
109	0x3d1b1cd3	0.037869286
110	0x3d14554f	0.03621417
111	0xbbd8f46a	-0.0066209333
112	0x3a026a87	0.000497498
113	0xbac5bf1e	-0.0015086865
114	0xbbf47d75	-0.0074612447
115	0x3d11df63	0.03561343
116	0xbbcc63b6	-0.0062374724
117	0xba8761d7	-0.0010328841
118	0xbb9d4a31	-0.004800104
119	0xbb01fc9c	-0.0019834405
120	0xbb57dc01	-0.003293753
121	0x3cf5d216	0.030007403
122	0x3b0a97ce	0.0021147612
123	0x3c3f95e2	0.01169345
124	0xbb852d25	-0.0040642195
125	0xbc20ab8f	-0.009806528
126	0xbae5b0a8	-0.0017523961
127	0xbb9cd231	-0.004785799
128	0xbb1966ab	-0.0023407142
129	0xb8c4a9cd	-9.377636e-05
130	0x3c6d0dc1	0.014468611
131	0x3b1db2cd	0.0024062872
132	0x3cd8cdeb	0.026465377
133	0x3a5f92c4	0.00085286447
134	0x3b51b14c	0.0031996546
135	0x3d0dc971	0.034615938
136	0x3d0302a2	0.031984933
137	0xbab105ae	-0.0013505721
138	0xbb1239ca	-0.0022312277
139	0xbb1bdcc6	-0.0023782714
140	0xbb776739	-0.0037750734
141	0x3bd86003	0.0066032424
142	0xbb83adef	-0.0040185372
143	0x3b08b533	0.0020859956
144	0xbbaf11cf	-0.005342699
145	0x3d27837c	0.040896878
146	0xbc0df64b	-0.008664678
147	0xbbd22467	-0.006413031
148	0xbc84b93a	-0.016201604
149	0xbb3cc86e	-0.002880599
150	0xb9d29010	-0.00040161656
151	0xbaaf7831	-0.001338726
152	0x3d02ed05	0.03196432
153	0x3d043951	0.032281224
154	0xbb826845	-0.003979715
155	0xbb786e90	-0.0037907697
156	0x3b36fe00	0.0027922392
157	0x3c1dfe97	0.0096432185
158	0x3cc43022	0.023948733
159	0x3cfc7ec9	0.030822175
160	0x3c9cc475	0.019136647
161	0xbb2d03d1	-0.002639998
162	0xb948f65c	-0.00019165262
163	0xbb0bec54	-0.002135058
164	0xbba5a2c5	-0.005054804
165	0xbb28caa0	-0.002575554
166	0x3b218c33	0.0024650216
167	0xbb1ab277	-0.0023604908
168	0xb9d7bb62	-0.00041147607
169	0xbaf82e4c	-0.0018934696
170	0xbae5f23e	-0.0017543507
171	0x390a623c	0.000131973
172	0xbb46b8c3	-0.003032253
173	0xbb8501a1	-0.004059032
174	0xbb19f10e	-0.0023489627
175	0xbb0815f2	-0.0020765034
176	0x3b305492	0.0026905877
177	0x3c0050b4	0.007831741
178	0x3d22c564	0.039739028
179	0xb83d73ab	-4.5168836e-05
180	0xbb88bef4	-0.004173154
181	0xbbab9926	-0.0052367626
182	0xbb906214	-0.004406223
183	0xbbf75451	-0.007547893
184	0xb8a8ddfd	-8.052213e-05
185	0xbba154d9	-0.0049234447
186	0x3cf2af5e	0.029624637
187	0xbb6d8780	-0.0036244094
188	0xbacd71dc	-0.0015674192
189	0x3d0adbdb	0.033901077
190	0xbce42edc	-0.027854376
191	0xbc09b2d5	-0.008404453
192	0x3ca15bf7	0.019697173
193	0xbab833fd	-0.001405358
194	0x3b22250c	0.002474132
195	0xbb0880d8	-0.002082875
196	0xbb9ab0cd	-0.0047207833
197	0x3a86733d	0.0010257732
198	0x3b38c342	0.0028192555
199	0xbaacb5ac	-0.0013176701
200	0x3c650fa9	0.013980784
201	0x3aa4cfb7	0.0012574111
202	0xbacb970c	-0.0015532686
203	0xbacb8fd0	-0.001553053
204	0x3d1bbc19	0.03802118
205	0xbb73b2fe	-0.0037185545
206	0xbbbd94be	-0.0057855537
207	0xbb3c5439	-0.0028736724
208	0xbb26c6a6	-0.0025447994
209	0xbac8d226	-0.0015321418
210	0xbb9a11e6	-0.0047018407
211	0xbb15901c	-0.0022821492
212	0xb9d15be3	-0.00039932047
213	0xbb9c5b89	-0.004771654
214	0x37df1200	2.6592053e-05
215	0x3d06b7b9	0.032890055
216	0xbcc27a06	-0.023739826
217	0xbbd33841	-0.006445915
218	0xbb0e3a42	-0.0021702205
219	0xba337266	-0.0006845355
220	0xbb646ec0	-0.0034856051
221	0x3d152eb0	0.036421478
222	0x3b0a3920	0.0021091178
223	0x3d09ed4e	0.033673577
224	0x396432fc	0.00021762768
225	0x3c9ad535	0.018900493
226	0x39adf367	0.0003317848
227	0x3da57d2e	0.08080517
228	0x3bc26c8d	0.0059333504
229	0x3aac9fe4	0.001317021
230	0x3c4f637a	0.012657994
231	0x3b268dfa	0.0025414214
232	0x3aa9a996	0.0012944217
233	0xbb344194	-0.0027504908
234	0x39ee477c	0.00045448157
235	0xbbb79484	-0.0056024212
236	0xb9b523be	-0.0003454964
237	0xbba02657	-0.004887383
238	0xbbc25097	-0.005930017
239	0xbb7b4cef	-0.0038345417
240	0x3d093a99	0.03350315
241	0xba0386a0	-0.0005017314
242	0xbb875461	-0.004129932
243	0xbb1f6429	-0.0024321175
244	0x3a134e5f	0.0005619283
245	0xbb9b240d	-0.004734522
246	0xbba49215	-0.005022297
247	0xb9fb95b2	-0.00047985982
248	0x3c903325	0.017602513
249	0x3b40aac0	0.002939865
250	0xbbdea492	-0.0067945207
251	0xbb4f0e71	-0.00315943
252	0xba990045	-0.0011673054
253	0xbbd0f00a	-0.006376271
254	0x399bb1a5	0.0002969626
255	0xbb885854	-0.00416092
