outputs/Optimal_Control/20220329-214438/models/checkpoint.pt (torch, 533487 bytes, 7 tensors)

linear1.weight f4 [256, 2]
00000000: f06f e43e b5d0 30bf 7811 1ebe 45df dbbe
00000010: 3dd7 ca3d 6f89 d9bc 76f3 573d 01ac ad3d
00000020: b1fa 9cbe 874a 20bf 867f e33e 311a c93e
00000030: a861 f6bd 1228 c2be 1f91 31bf 98d8 b03d
00000040: 6487 793e cf68 27bf ef97 b83e c1f6 b93e
00000050: 5fae 99be 20b6 f9bc e9d0 5f3e c4a7 213e
00000060: 88b3 913d 01f3 81be 4bb7 923e c906 50bd
00000070: 99e5 1a3e fb39 cdbf c26b 6dbe a234 2c3f
00000080: ce78 16bf 8a81 8a3e 6db8 8d3e 3458 953e
00000090: f0db 6fbe f023 f7be 8b84 09bf ad0c c1be
000000a0: cfe1 d73e 2b5b cbbe 8ae7 a73e 4e57 38bf
000000b0: 1820 0cbe 506e 75bd b723 b73e b03e 143f
000000c0: 2f9f f13e ec6e 1fbf fcf8 21be ad02 c5be
000000d0: 2408 053f c30a c7be a23b ac3d 265b 503e
000000e0: 0e16 873d 8dd7 05be 5052 1c3e 5147 9fbe
000000f0: 4f9b 773c add7 0e3f dc34 dcbe 3176 b4be
00000100: 9d5e a83c 5947 b23e 4d91 23bf 3048 27bf
00000110: 3926 12bf 6a69 c23e 8c0c d83e 5392 e6bc
00000120: 6c01 d53e ce53 18bf 1379 babe ae97 223f
00000130: 1285 a6be d314 ecbe d1fe 52be 28e0 333f
00000140: b116 013f e086 e1be 796a eb3d fcb2 b8be
00000150: 3ab7 123e ce05 67be 34b6 11bf 461c c6be
00000160: 7e97 d13d 4c50 a53e 1c3c 1f3e 8cdd d7bc
00000170: 3a30 013d e773 763d e2b5 563e af02 13bf
00000180: 0112 2abd a65a bc3e 268d 373e c7ed 9dbe
00000190: 74fb 403e 3f3d ffbe 0000 8739 6f61 14bf
000001a0: 0c45 9fbe de92 973e 07d4 da3d 4aba 4c3e
000001b0: c465 a13e a667 963e d071 f3bd 7dbe 0cbf
000001c0: 6b37 143f 86a9 293d 4d95 e3be e08e 8a3d
000001d0: 07b8 18bf ea26 ebbe 7325 5b3d a876 87bd
000001e0: ec8b cc3e bef3 03bf 5327 8b3e e0ec f2be
000001f0: 8fe7 1ebf 9860 4c3e 289a 3cba b215 053e
00000200: 0fa4 f23e 1293 d43e 7e65 f63d 0538 c03d
00000210: dd02 a4be 70c9 813d 15d8 10bf 683e 42be
00000220: 8427 303e b151 eebe 67b4 db3e fb36 35bf
00000230: 0d37 d3be a271 24bf e8ab 11be a0c1 91bc
00000240: 61c6 8a3d ea6f af3e f6b8 733e ace7 5cbf
00000250: 12a9 ce3d b02c 48bf 01f3 a8be 081b ac3d
00000260: 3f63 07bf 64db 833e 12b8 aebe d8ba eb3d
00000270: e90e 9a3e 6cc5 1dbf 71cf 113e feef debe
00000280: 22c8 a03d bae4 26bf 055f d23e 0332 9abe
00000290: ae9e 903e 1f7b 79bd 09a0 14bf 61b3 24bf
000002a0: 0f87 aabe 4023 42bd 0ed8 993e 2a44 80bf
000002b0: 350c c33d 0b31 7ebf d520 083e 1f23 d93d
000002c0: b778 1abf 24cd c1be 91ea 183e ac3f bdbf
000002d0: 8031 e13e d5d5 313f 7130 24bf 9282 dfbe
000002e0: 9884 8f3e 5bfd 35bf 6032 93bd e39b 93be
000002f0: 9498 96be 405d e73d b1e1 b4be db48 2ebf
00000300: 18e1 953e 2902 8bbe 64ef 873e 36aa d9bd
00000310: 689d 2bbf e8bf 20be 1053 d3bd 0504 30bf
00000320: f840 05bf 00a8 f13a d8d4 b4be 08fc f1be
00000330: 5815 d5be a798 dcbe 5654 4a3e b8fc 943e
00000340: 22b4 07bf 7d6e 32bf 98df b0be 40d7 453e
00000350: a23e 833e f0fe b1be fe5a 963e 7549 05bf
00000360: 8435 e7bc 986f 913e 75f5 04bf 47d7 98be
00000370: 4716 97be 6a60 993e 2ce0 25bf eb6d d7be
00000380: 6df8 ce3e 714d 863e 353a 13be fc88 053f
00000390: f1a4 d5bd e314 503f cf72 cfbe bb35 0a3f
000003a0: 99e5 213c 5acf 963e f47d 8c3c 7f4e fc3e
000003b0: ff4c 22bc 61bd fa3e 80d2 f3bb f00b d3bd
000003c0: c791 993e 8e4a 33bb daf9 9c3e 499c 603e
000003d0: 7e99 0d3e 50df c0be b698 64be 4c5b 3a3f
000003e0: 20b5 09bf 5813 783e d17a 2cbf 90fa 30be
000003f0: 470d 03bf c0e1 ee3c 9d20 f13d d098 043e
0.44616652 -0.6906846 -0.15436351 -0.4294378 0.09904335 -0.026554791 0.052722417 0.08480073
-0.30660012 -0.6261372 0.4443323 0.39277795 -0.12030345 -0.37921196 -0.6936206 0.08635062
0.24368054 -0.653943 0.36053416 0.3632107 -0.30015847 -0.030482352 0.21857037 0.15786654
0.07114321 -0.2538071 0.28655466 -0.05078772 0.15126647 -1.6033319 -0.23185638 0.6726781
-0.58778083 0.27051955 0.27679768 0.29168856 -0.23423743 -0.48269606 -0.5371787 -0.37704983
0.42164466 -0.39717993 0.32793838 -0.72008216 -0.13684118 -0.059919655 0.35769436 0.57908154
0.4719176 -0.6227863 -0.15817636 -0.38478604 0.51965547 -0.38875398 0.084098116 0.2034727
0.065960035 -0.13070507 0.15265775 -0.31109098 0.015112712 0.55797845 -0.43009079 -0.35246423
0.020552928 0.3482006 -0.63893586 -0.65344524 -0.57089573 0.3797105 0.42197073 -0.028145945
0.41602647 -0.59502876 -0.36420497 0.63512695 -0.325234 -0.46109638 -0.20605017 0.7026391
0.5042525 -0.44048214 0.114949174 -0.36074054 0.14327708 -0.22560808 -0.56918645 -0.38693446
0.10233973 0.32287824 0.15550274 -0.026350759 0.031540133 0.060169127 0.2096782 -0.5742597
-0.041521076 0.3678791 0.17924938 -0.30845472 0.18845922 -0.49851415 0.00025749207 -0.5796117
-0.31107366 0.29604238 0.10684972 0.19992939 0.31522954 0.29375952 -0.118869424 -0.5497816
0.5789706 0.041421436 -0.44449845 0.067655325 -0.59655803 -0.45928127 0.05350251 -0.06614429
0.39950502 -0.51543796 0.2717844 -0.47446346 -0.6207208 0.19958723 -0.0007194602 0.12996557
0.47390792 0.41518456 0.12031077 0.09385685 -0.32033435 0.06337249 -0.56579715 -0.18969119
0.17202574 -0.465467 0.42911074 -0.7078702 -0.41252938 -0.6423589 -0.14225733 -0.017792523
0.06776119 0.3426507 0.23801026 -0.86291003 0.10090841 -0.7819319 -0.32997897 0.08403593
-0.5288581 0.2575332 -0.3412481 0.11510247 0.300895 -0.61629367 0.14239289 -0.43542475
0.07850672 -0.6519276 0.4108812 -0.3011628 0.28246063 -0.060908433 -0.58056694 -0.6433621
-0.33306167 -0.0473969 0.3004765 -1.0020802 0.09523813 -0.99293584 0.13293774 0.10602402
-0.60340446 -0.37851822 0.1493323 -1.4785056 0.43983078 0.69466907 -0.64136416 -0.43654305
0.28030849 -0.71089715 -0.07187343 -0.2882987 -0.29413283 0.11297083 -0.3532844 -0.6807992
0.29273295 -0.27150086 0.26549828 -0.10628168 -0.6703706 -0.15698206 -0.10318577 -0.68756133
-0.5205226 0.0018436909 -0.35318637 -0.47262597 -0.41617846 -0.43085214 0.19758734 0.2909906
-0.53009236 -0.6969984 -0.34545588 0.19320393 0.25633723 -0.34764814 0.29366297 -0.5206521
-0.02822376 0.28405452 -0.5193704 -0.29851744 -0.29509184 0.2995637 -0.64795184 -0.42076048
0.4042391 0.26230958 -0.14377673 0.52162147 -0.10431851 0.8128187 -0.4051728 0.53988236
0.0098814005 0.29455072 0.017149903 0.49278638 -0.009906053 0.4897261 -0.007440865 -0.10305011
0.29994032 -0.002735767 0.30659372 0.21934618 0.13828084 -0.37670374 -0.2232388 0.7279556
-0.53792 0.24226129 -0.673749 -0.17283082 -0.51192135 0.02916038 0.117737986 0.12948918

linear1.bias f4 [256]
00000000: 5972 d23f c49a 113e 29af fe3e 83f0 c5bf
00000010: a2f2 973d cda6 0340 9837 bfbd fb57 1e3f
00000020: bb99 a43f 549f ddbf 0061 abbb afea dabf
00000030: 8940 bb3f de20 0dc0 5c4f bcbd 8aec ddbd
00000040: 8834 c7bd 058d e9bf 2f66 adbe 21d7 093f
00000050: 925b d23f 1afb d7bf 6e34 9dbe 6995 373f
00000060: bbd2 dbbf f555 873e e6bf 93bf c065 e4bf
00000070: 3d09 dabf 5691 f33f 20b8 eebf 80ed 2c3e
00000080: 00a3 29bf 281e e33d b370 283f 706f 3ebf
00000090: 2df4 b0bf c43c 973f d91d ff3e 302c 4cbf
000000a0: 3bbd ff3f dbe9 873f 1e92 a73f 1a71 863e
000000b0: cd6c f83f 2e65 11c0 47a1 f7bf 5a1d c33f
000000c0: f1fc a73f de2e 38bf 5e15 c73f 44a4 81be
000000d0: 60e5 9dbd 3892 963f e622 b33f 7cc4 273f
000000e0: 762e 0dc0 8d91 1abf 5029 f1be ea51 bc3f
000000f0: 5929 2a3f d259 bd3f eba1 ad3e 5c3c 8bbf
00000100: 41bb bd3f e6fa b2bf ed78 f4be 33f8 d43e
00000110: a4e0 983f 56ca c1bf 9fd7 1bbf 6946 8bbe
00000120: 90cc 04c0 b572 d2bf b405 46be ef09 8f3e
00000130: 6a46 163f 1826 8d3e 50a7 e5bf 70c5 eb3f
00000140: 8680 e73e bf52 10bf bcd4 c5bf c4fa c2be
00000150: 0a81 263e dbd5 fc3d d84c 2c3f 81b7 ffbf
00000160: ba10 ce3d 2892 93bf d9bb fa3f 2ee8 cdba
00000170: a190 af3f 9a9e e63e 217f 0c3f 3217 8cbe
00000180: 5c8f a7bd fbf2 f4bf 3d2e 1a3f 4ad8 dabe
00000190: 2df5 c83d 9600 0ebf fbae 35bb 34f4 9b3f
000001a0: b435 493e f98b c73e 4974 7fbf f640 f63e
000001b0: d411 61bf 30c2 d5be d489 aabe 19cd 2e3f
000001c0: 80c5 04c0 f34b 7fbf 7735 ef3f d0d1 913f
000001d0: 7ba0 94bf fb21 f1bf 90ec 91bf cca3 09bf
000001e0: beae a3bf 5061 c8bf ba7c 76bf 24ed a1bf
000001f0: 0972 b2be dd5f 973e 025d 99be 0a3c b7bf
00000200: c147 cdbf bc20 ad3d 92e5 1b3f 9ba3 e63f
00000210: 275c edbf 0be0 e8bf c018 d6be ce4a 023f
00000220: 9b18 b13f 6e00 02c0 01bb 443f da98 85bf
00000230: 878b 7a3f 8cf4 89be 950c e6be 9add 11c0
00000240: d447 28bf 47dc 05c0 2f76 133f 225b 553f
00000250: 77ed e93e a0dc fe3f 4ee6 c0be 8e31 edbe
00000260: a9fd 47bf 1762 ae3f aa5e b7bf d807 0cbe
00000270: 7340 bc3f ed99 0840 1b82 b23f e201 02bf
00000280: d429 68bf 1887 b53f 6f53 0fbf a7db fbbf
00000290: 89c7 ff3e b7ce f53e f060 00bd 5528 3a3f
000002a0: 8990 943e 9d46 b3bf e8dd 28be 12d0 cebf
000002b0: 229b f7bf a829 dcbe c4f5 7a3e cb7c cb3f
000002c0: 7db8 c43f 81e6 d4bf 80ff 08bf 2df5 d83f
000002d0: 9003 afbe 211d b33f 8069 47bd 9328 fbbf
000002e0: b1bd f6bf fb2f 81bf 9b59 7a3f 6a33 f2bf
000002f0: 2a1f c3bf 7eff e0bf 4951 dfbf 1539 98bf
00000300: 0724 e33f 443d 6c3e 63f7 463f 64ed ca3f
00000310: f4ab 0cbe b7be cdbc c0ec a33e d310 e13f
00000320: 82fd e5bf c379 da3f cede 253f e17e f93e
00000330: b434 21be 3137 a1bf 828b f0be bf9d c43d
00000340: 42ca 12bf 09b4 dbbf ab94 c2be 1a77 a9bf
00000350: 1f65 21bf 3c0b f8bf 7d4b e4bf 9632 683e
00000360: 769e 06c0 7c89 2b3f e271 d0bf 807f 80bd
00000370: e149 64bf d6c6 fb3e 1659 273e b126 f33e
00000380: 7d69 d03f 8e60 69be d6a1 3dbf 7487 39bf
00000390: 5a56 24bf 627c a53f dda7 523e cf79 093f
000003a0: 5882 e8bf 40ed 74bd 717b e83f 6e92 22bf
000003b0: 6b10 dcbf 8441 0cc0 9025 11bd 005d 75be
000003c0: 6709 bcbf 9351 3b3f acc9 eebf bd81 04c0
000003d0: 10d4 ad3f 04c7 0cbf 3eaf bfbe 3f40 11bf
000003e0: 0188 17c0 8dee 0ac0 b413 9bbe c6b1 88bf
000003f0: b78b dcbe 9637 063e a2dc dfbf 96ce c1bf
1.6441146 0.14219195 0.49743012 -1.5464023 0.074193254 2.0570557 -0.093367755 0.61853
1.2859415 -1.7314248 -0.005230069 -1.710287 1.462907 -2.205131 -0.09194824 -0.10836132
-0.097268164 -1.8246161 -0.33867022 0.53843886 1.6434195 -1.6873505 -0.30704063 0.71712357
-1.7173685 0.26432768 -1.1542938 -1.7843552 -1.7034069 1.9028728 -1.864994 0.16887474
-0.66264343 0.11089736 0.65796965 -0.7438879 -1.3824517 1.1815419 0.4982746 -0.79754925
1.9979624 1.0618242 1.3091466 0.26258165 1.9408203 -2.2718005 -1.9346093 1.5243332
1.3124067 -0.71946514 1.5553396 -0.25320637 -0.077097654 1.1763372 1.3995025 0.65534186
-2.2059608 -0.6037834 -0.4710183 1.4712498 0.6646934 1.4793036 0.33912596 -1.0877795
1.482277 -1.3982818 -0.4774851 0.4159561 1.1943555 -1.5139873 -0.60875887 -0.27202156
-2.0749855 -1.6441256 -0.19338113 0.27937266 0.58701193 0.27568126 -1.7941685 1.8419628
0.45215243 -0.5637626 -1.5455546 -0.38081944 0.16260162 0.12345477 0.67304754 -1.9977876
0.10061784 -1.1528978 1.9588577 -0.0015709454 1.3716012 0.45042878 0.54881483 -0.27361447
-0.081816405 -1.9136652 0.60226804 -0.4274314 0.098123886 -0.55469644 -0.0027722705 1.21839
0.19649392 0.38973978 -0.9978681 0.48096436 -0.8791783 -0.41749716 -0.3330828 0.68281704
-2.0745544 -0.99725264 1.8688191 1.1392155 -1.1611475 -1.8838495 -1.1400318 -0.5376556
-1.2787702 -1.5654697 -0.9628407 -1.2650495 -0.34852627 0.29565325 -0.29953772 -1.4315197
-1.6037523 0.08453509 0.6089717 1.8018678 -1.8543748 -1.8193372 -0.41815758 0.5089539
1.3835634 -2.0312762 0.76847845 -1.0437272 0.9786915 -0.26944387 -0.44931474 -2.2791505
-0.657346 -2.0915697 0.5760221 0.8334218 0.45688984 1.991108 -0.3767571 -0.4632687
-0.7812143 1.3623685 -1.4325764 -0.13674867 1.4707168 2.134395 1.3945955 -0.5078412
-0.90688825 1.4181852 -0.55986685 -1.9676408 0.4995692 0.48009273 -0.031342447 0.7271779
0.29016522 -1.4005924 -0.164909 -1.6157248 -1.9344218 -0.4300053 0.24507815 1.5897459
1.5368801 -1.6632844 -0.5351486 1.6949822 -0.34182405 1.3993264 -0.048684597 -1.9621757
-1.9276639 -1.0092767 0.9779298 -1.892194 -1.5243886 -1.757797 -1.7446681 -1.189242
1.774537 0.23070246 0.7772123 1.5853696 -0.1373747 -0.025115354 0.32016563 1.7583259
-1.796799 1.7068409 0.647931 0.48729613 -0.15742761 -1.2594968 -0.46981436 0.096004
-0.5733987 -1.7164317 -0.3800405 -1.3239472 -0.63044924 -1.9378428 -1.7835537 0.22675547
-2.1034217 0.6700666 -1.6284754 -0.06274319 -0.8917523 0.49175137 0.16342577 0.47490457
1.6282192 -0.22790739 -0.7407507 -0.7247231 -0.6419426 1.2928584 0.20571847 0.5370149
-1.8164778 -0.05979657 1.8162671 -0.63504684 -1.719251 -2.1914988 -0.035436213 -0.23961258
-1.4690369 0.7317135 -1.8655295 -2.0704186 1.3580341 -0.54991174 -0.37438387 -0.56738657
-2.367676 -2.17081 -0.3028847 -1.0679252 -0.43075344 0.13107142 -1.7489207 -1.514117

linear2.weight f4 [256, 256]
00000000: ed3f 4c3d 5a8c 61bd f85c 5cbc 6c04 893c
00000010: e342 34bc abbd 84bd f88e 8dbc 638d 003d
00000020: f495 78bc ccce f7bc d034 febc 8e4d 523d
00000030: 554d 06bd a8ad a33c 200b 313c fbb3 1a3c
00000040: 7874 1c3c 105f 403c 422d 35bd 91bf 34bd
00000050: 3a16 693c 0e6f 33bd fccd 15bd fdba c53a
00000060: 6054 d6bc 348c 8a3c 35ba 4b3d d88d 043d
00000070: 8894 753c ed3e 683d 7809 27bd 35ad 77bd
00000080: 145f 763d 867f 62bd a999 caba 4f01 083c
00000090: 20c9 3dbd a09e 643c 2247 34bd 205c a53b
000000a0: 4c27 cc3c a4fd b93c 3c25 fcbc dbfa 613c
000000b0: ce42 0a3d 5c45 fabc ec9f 89bc 79b7 9a3b
000000c0: 6c4d ccbc 5145 24bd 3b96 47bd 3a8b 6b3d
000000d0: 76b2 46bd b01d 24bd 1950 58bd 9d9c 53bb
000000e0: fc40 c6bc 4869 1fbc 3ee8 3c3d 0306 ab3b
000000f0: 88f6 b0bc fbbb 0abd 9cae 853c 1c75 df3c
00000100: d118 76bd 2520 873c 5026 823c 82ba 2cbd
00000110: 9751 ae3c 382d af3c b0de 5f3c 0009 d2ba
00000120: 2842 48bc ca9c 243d cc43 13bd 5ab1 f13c
00000130: 5f9e b43c 0485 61bd 70ac a23b a575 82bd
00000140: f075 073d 3e1d 753d dd26 683d b0db b53c
00000150: a7f8 24bb b2fb 75bd 64ac 78bb 6472 033d
00000160: ce6d efbc b4bf 423d 72a5 1d3b f389 293d
00000170: 2d12 e0bc 67b8 173d c030 5bbd 0c38 69bd
00000180: dc93 3c3d 8849 31bd 211f 5bbd fa9c 4e3d
00000190: ba6e 54bd 84c2 6c3d 8110 b6bc 1da2 fa3b
000001a0: 7446 ddbc 347a d23c bcec 223d 6050 543b
000001b0: fc48 46bd ec39 0ebd a0f7 06bb de8e 52bd
000001c0: 30a9 50bd 4835 703c cbd6 4d3d 79b9 ca3c
000001d0: babb 21bd 1422 e0bc c381 63bd 7ab3 4dbd
000001e0: 489c bc3c 6814 043c c42e f03c de6a 4f3d
000001f0: 8847 1abc c8f2 983c c81b abbc c113 463d
00000200: 4833 7a3c f2ef 89bc 3733 bebc 5eb7 193d
00000210: dcce ef3c f48b 44bd 8851 c23c e99b 51bc
00000220: beab 6b3d 0860 0d3c ae4b dfbc 04c1 15bd
00000230: 4e21 5dbd ca00 70bd e086 98bc 0c04 713d
00000240: 6805 63bc 302b 61bd 040a 873b b0e4 9fbc
00000250: cfa3 3f3b 1ad0 afbb d025 7dbd 663f 5fbd
00000260: df48 12bd b723 b5bc b00b 9d3c 0ce9 83bc
00000270: 94dd 1abd 9682 1fbd 2535 40bb aa45 66bd
00000280: a84a 4dbc e4af c7bc c4c6 92bc c0a3 14bb
00000290: ad91 bfbc 0233 0cbd d8fe 5dbd b193 233d
000002a0: 96fb cebb 9137 52bd 54f8 6fbd 201c a43c
000002b0: f22f 0fbd f8e0 60bd b15f 0f3d 5457 3a3d
000002c0: d9d2 35bd c854 77bd e49e 553d 6aca 4b3d
000002d0: 04b1 32bd 97c9 3ebd 4035 503d 38ea e73c
000002e0: 58dd 483c bf86 b4bb e7cf 4c3d 8051 bc3a
000002f0: 382e 57bc d021 eebb 0045 ca39 0230 bf3b
00000300: 6023 363d 3152 6b3b c643 4bbc 603f 253d
00000310: ec8b 93bc 3b50 47bd c433 7cbd 406e 85bc
00000320: a81a d8bc 9ab0 56bd 5577 fc3c 4c3c 70bc
00000330: 1c7e a43c 481e 523d 5ec0 1b3d eec8 a8bc
00000340: 7e32 37bd 9c14 bfbc fe13 003d a048 b4bb
00000350: 0c80 9c3c 2089 06bd caf0 423d 4c5e 463d
00000360: b606 17bd d7ef ff3c 4c1f d6bc 643a e8bc
00000370: 3e98 12bd 696e 2b3d bac3 57bd daa4 bc3c
00000380: 9d60 b03c dec3 abbb c0e8 5e3d e613 7b3d
00000390: e2f0 61bd 1da1 623d 207c e93c 0223 fdbc
000003a0: a01f 12bd 286b cd3c 5713 18bd 0cff 8fbc
000003b0: 42dc 65bd c0fe 41bc 44cc 283d 20ae e8bb
000003c0: b291 c4bb c190 38bb cee1 00bd b0cd e33b
000003d0: 5c8d 053d 8e3d 6c3d 8040 eeba 1efb 2e3d
000003e0: 08e1 143c 182d 703c f20f 313d f0c7 ea3b
000003f0: 0c67 a8bc cd97 c23b 18f7 76bd 862c 323d
0.049865652 -0.05506549 -0.0134499 0.016725741 -0.011002275 -0.06481489 -0.017280087 0.031384837
-0.01517247 -0.030249976 -0.031031042 0.051343493 -0.032788593 0.019980267 0.010805875 0.009442325
0.009549253 0.011741415 -0.044232614 -0.044128004 0.014226491 -0.043807082 -0.036573395 0.0015085634
-0.02616328 0.016912557 0.049738128 0.032361835 0.014989026 0.056700636 -0.040780514 -0.060467917
0.060149267 -0.055297397 -0.0015457171 0.008301093 -0.046334386 0.013953835 -0.04401315 0.0050463825
0.024921082 0.022703953 -0.030779473 0.013792719 0.033755116 -0.030550651 -0.01679989 0.0047215787
-0.024939261 -0.040105168 -0.048727255 0.057505824 -0.048510037 -0.040067375 -0.052810762 -0.0032289394
-0.024200909 -0.009729691 0.04611992 0.0052192225 -0.02160193 -0.03387068 0.016318612 0.027277522
-0.06008226 0.01649482 0.01588741 -0.042170055 0.02127914 0.021383867 0.013663933 -0.0016024411
-0.012222804 0.04018859 -0.035953328 0.029503513 0.022048173 -0.055058494 0.004964404 -0.06370095
0.03307146 0.05984234 0.056677688 0.022199482 -0.0025172622 -0.06005449 -0.003794455 0.032091513
-0.029227164 0.047546104 0.0024054912 0.041391324 -0.027352417 0.037041094 -0.05351329 -0.056938216
0.046039447 -0.043283015 -0.053496484 0.050442673 -0.05186341 0.057802692 -0.022224667 0.00764872
-0.027011134 0.025693037 0.03977655 0.003239654 -0.048409447 -0.034723207 -0.0020594373 -0.05140578
-0.0509426 0.014661141 0.05025367 0.024746643 -0.03948567 -0.02736 -0.055543672 -0.05021999
0.02302374 0.008061506 0.029319175 0.050639026 -0.009416468 0.018670455 -0.02088727 0.048358683
0.015271015 -0.016838048 -0.02321778 0.03752839 0.029273443 -0.047985032 0.023720518 -0.0127935195
0.057536833 0.008628853 -0.027257767 -0.036561027 -0.05398684 -0.058594503 -0.018619 0.05884175
-0.013856269 -0.054972827 0.004121067 -0.019518226 0.0029241925 -0.005365384 -0.06180364 -0.05450382
-0.035714027 -0.022111757 0.019170612 -0.016102336 -0.03780897 -0.038942896 -0.0029328552 -0.05621878
-0.0125300065 -0.024375863 -0.017917044 -0.002268061 -0.023384893 -0.034228332 -0.054198116 0.03993577
-0.0063166125 -0.051322524 -0.058586434 0.020032942 -0.034957834 -0.054902047 0.035003368 0.04549344
-0.044390533 -0.060383588 0.052153483 0.049753584 -0.043625847 -0.04657897 0.050832033 0.028309926
0.012259804 -0.005509227 0.05000296 0.0014367551 -0.013133578 -0.0072672144 0.0003857985 0.0058345804
0.04446733 0.0035907144 -0.012406295 0.040343642 -0.018011056 -0.048660498 -0.061572805 -0.016287923
-0.026379898 -0.052414514 0.03081862 -0.014662813 0.020079665 0.05129841 0.038025253 -0.020603623
-0.044725887 -0.023325257 0.031269066 -0.0055018216 0.019104026 -0.032845616 0.047592916 0.048429772
-0.036871634 0.031242294 -0.02613797 -0.028348155 -0.03578972 0.041853342 -0.052676894 0.023027826
0.021530444 -0.005241855 0.054421186 0.061298274 -0.055161364 0.05532943 0.02850157 -0.030900482
-0.03567469 0.02507551 -0.03712782 -0.01757767 -0.056118257 -0.011840522 0.041210428 -0.0071008354
-0.0059988135 -0.0028162452 -0.031465344 0.00695201 0.032605514 0.05767589 -0.0018177181 0.042719953
0.009086855 0.014659189 0.043228097 0.0071649477 -0.02055695 0.005938506 -0.06029424 0.043499492

linear2.bias f4 [256]
00000000: 4e7d 3b3d a221 adbc 432c 873b 611c 573a
00000010: 00fe 5eb9 501d 21bd 0fe8 163d a124 0cbc
00000020: 01ae 35bc 954b 083c 78bf 2fbf 963f 753c
00000030: 0350 733d b6ce b13c bbc5 73bd a7ab 9b3c
00000040: 6591 133d 307a 0a3d 828c 7abb e070 fdbc
00000050: e205 1b3c f706 a83c 8335 7e3f 3f2f 0abe
00000060: 8b91 d23d 0844 37bd 5f11 d9bb 9bd6 0ebd
00000070: cc36 4ebd f0c2 97bc e802 20bc e24c b9be
00000080: 96cb 14bd 7ef5 59bd 2791 df3c 5c37 55bd
00000090: 0287 0fbd e0ab 4c3d fb4e 9e3c b0e4 03bd
000000a0: f8ac 32be bae9 40bf b7a9 0bbf 202b c53c
000000b0: 89ed d0bc fed5 b1bc 7434 413e b3e6 a5bd
000000c0: 1960 f5bb 5a1e 193d 7e07 0cbd c2ed 89bc
000000d0: 0cd0 1dbd e92c 6fbf 1306 a0bc eb1c 5dbd
000000e0: 521d ef3c c4f0 adbc b4c6 87bc f9ec d33c
000000f0: a20f b3bb a6ec 86bc 8f8b d9bc 7873 05bc
00000100: e6eb 8c3d 7a32 c63c 3570 0dbc 4efe 4b3f
00000110: e158 d7be 9b48 763b dfef 77bd c086 5c3d
00000120: 2334 e13c 12d5 5abd 8a8f 203d 7b9e 923d
00000130: a6d5 d33d 939b aa3d 8f56 823c cbe9 80bc
00000140: 0ce2 ef3c 26ad 723b 6001 18bb c8af 713d
00000150: f313 11bd 6632 d23c b602 fdbe 0ee3 17bf
00000160: c61e 05bf 9264 52bc 0c8c 22bc 1ce1 a03c
00000170: 5552 c63c dfb7 7dbc c1ea 3b3d 2e71 0dbd
00000180: 0fa8 aabe 3750 60bd fc8c ba3c 5074 393c
00000190: 0bd4 0c3d 79e1 47bf b549 993d 63a5 963c
000001a0: 5326 0ebe 6db1 38bf 83b1 6abd fdbc 2abd
000001b0: 78f0 1bbd 3b74 e53c 28bc 23bd 5bf9 213b
000001c0: 71ce 35bf 7444 4c3b d107 1f3c 039f aa3c
000001d0: 65ec 4a3d a599 a1bc 1e10 8dbd f951 823c
000001e0: 4e10 1f3d 46bc 75bc c0dc 5bbd 387b f23c
000001f0: 9047 49bd ab46 783b 3d46 f03d 532c a3bf
00000200: 35b1 09bd 3415 173e b29c b43b f1e6 10bd
00000210: 0210 8fbd 008e 2d3b bac6 903d af07 923a
00000220: c416 33bd 2d85 42bd 65e8 4b3a 67b9 903c
00000230: 1f7e 55bc c4f5 a9bc a879 823d 4523 073d
00000240: 2f0c 0abe a5d1 22bc 452a 5abd 7d49 7fbd
00000250: 054e b23d d78b 753d 6242 853b f6da 0dbd
00000260: 5203 91bc 4e7e 3abe f8f0 2c3c 6884 43bd
00000270: 7f61 1abd a888 7ebd c86e 643c 4067 8bbc
00000280: 724b 9b3d bc33 12bf 63b4 c7bf 4ad0 60bd
00000290: 68c9 343f c568 bb3d a02a 32be 556e 45bd
000002a0: d0d7 9a3e 66d5 823c 7a80 f43c c736 8c3b
000002b0: 62a0 37bd 5a70 173d de8e 02bd bef3 76bf
000002c0: 9b15 05bf d9fd 533d 0bb4 4dbd 71e5 08bf
000002d0: 0c24 0dbe 46b9 3b3f 3d8c 15bc 784b 6dbc
000002e0: c5ef 1d3e 311d 963e 01a4 9c3d 92b0 54bc
000002f0: 9230 9a3a e631 64be 8858 05bd 1ae2 f33d
00000300: 7e21 773d 90cb 8c3e dc4c 3f3c 7807 343c
00000310: bd7c e8bb 7bbc 32bf 216e 5b3d a4e6 db3c
00000320: 2c1e c53c c83d 11bd b26f 853c 0d1f 743d
00000330: 7f06 4e3d e341 e0be 5835 08bd ce6c fe3c
00000340: 1ba3 c5bc 30c3 94be 8506 193e 3bdb b5bc
00000350: 180d 2c3c b7f0 0dbf b06e 5d3d 69eb 25bd
00000360: ecba ddbd e8d2 d03c df2c a4bc fe8a e03c
00000370: 4f4b 9b3a 20d1 693b b456 63bc e86b 0cbd
00000380: 81d2 893e d292 423e 2e61 0bbd b414 4fbc
00000390: 1815 69bd a03e 11bd 24e7 0e3e 7dcf 1dbd
000003a0: 8a09 fa3d 85e1 67bd 6ca7 abbc d1ba 36ba
000003b0: b130 eebc 1e0a 253d 4596 bbbb a5c0 0e3c
000003c0: 58d4 28bd e633 46bd dec8 5b3d 80a7 823c
000003d0: bf21 1c3d 5b28 87bc cfb5 783c 61aa 5c3c
000003e0: 2e92 fb3c 00ed f739 1733 2abd 3d6d a53c
000003f0: 1891 493d 243c 7c3d a35c 30bf e5a2 893c
0.045773797 -0.021134201 0.0041251495 0.0008205828 -0.00021266192 -0.039334595 0.036842402 -0.008553655
-0.011088849 0.008318801 -0.68651533 0.014968773 0.059402477 0.021705013 -0.059514742 0.019002749
0.03602733 0.033807933 -0.0038230722 -0.030937612 0.009461852 0.020511134 0.993004 -0.13494585
0.10281666 -0.044742614 -0.0066243852 -0.034872632 -0.050345227 -0.01852557 -0.009766318 -0.3619147
-0.036326967 -0.053212635 0.027290894 -0.052054748 -0.035040863 0.0499686 0.01932477 -0.032200515
-0.17448795 -0.7535664 -0.5455584 0.024068415 -0.02550389 -0.021708485 0.18867666 -0.08100643
-0.0074882624 0.03738246 -0.034186833 -0.016837005 -0.038528487 -0.934279 -0.019534146 -0.053982656
0.029188786 -0.02123297 -0.016574241 0.025869833 -0.00546451 -0.016470265 -0.026555805 -0.008145206
0.068809316 0.024193991 -0.008632709 0.79684913 -0.42059997 0.0037579897 -0.060531493 0.053839445
0.027490681 -0.053425856 0.03919939 0.07159134 0.103434846 0.08330455 0.015910415 -0.015736481
0.029282592 0.0037029474 -0.002319418 0.05900553 -0.035419416 0.025658797 -0.4941613 -0.5933083
-0.5200008 -0.012841361 -0.009921085 0.01963859 0.02420918 -0.015485733 0.045878176 -0.034531765
-0.33331344 -0.054764 0.022772305 0.011319235 0.034381907 -0.7807842 0.074847616 0.01838941
-0.13881807 -0.7214573 -0.057298195 -0.04168414 -0.038071126 0.028009525 -0.03997436 0.0024715278
-0.7101813 0.003116873 0.009706453 0.020827776 0.04954185 -0.019726584 -0.0688784 0.015908228
0.03883391 -0.014998501 -0.05367732 0.02959977 -0.049140513 0.0037883918 0.11732147 -1.2747902
-0.033616263 0.14754182 0.0055118436 -0.035376493 -0.06985475 0.0026482344 0.07069154 0.0011141206
-0.043722883 -0.047490288 0.0007778465 0.017666532 -0.013030558 -0.020747073 0.0637086 0.03299262
-0.1348121 -0.009937678 -0.053262968 -0.062325943 0.08706287 0.059947815 0.0040667513 -0.034632646
-0.017701779 -0.18212244 0.010555498 -0.047733694 -0.037690636 -0.062142044 0.013942428 -0.017017007
0.075827494 -0.5711019 -1.5601925 -0.05488614 0.7061982 0.091508426 -0.17399073 -0.048200924
0.30242777 0.015970897 0.029846419 0.004278991 -0.044830687 0.03697238 -0.03187453 -0.9646567
-0.5198609 0.05175576 -0.05022053 -0.534751 -0.13783282 0.7332958 -0.009127674 -0.014483325
0.15423496 0.29319146 0.07648469 -0.012981551 0.0011763743 -0.2228466 -0.032555133 0.1190836
0.060334675 0.27499056 0.01167604 0.010988109 -0.007094948 -0.6981885 0.053571824 0.026843376
0.024062239 -0.03545931 0.016288612 0.059599925 0.050299164 -0.43800268 -0.033253998 0.031057741
-0.024125626 -0.29055166 0.14943893 -0.022199264 0.010501169 -0.55445427 0.054060638 -0.040507708
-0.10826668 0.025491193 -0.020040927 0.027410027 0.0011848005 0.0035677627 -0.013875652 -0.034282595
0.26918414 0.1900132 -0.034028225 -0.012639213 -0.056904882 -0.035460114 0.1395536 -0.038527954
0.12208851 -0.056611557 -0.020953856 -0.0006970587 -0.029075952 0.04029285 -0.0057247006 0.008712922
-0.04121813 -0.048389338 0.05365836 0.01594901 0.03811812 -0.016498735 0.015180065 0.013468356
0.030709352 0.0004728809 -0.04155263 0.02019369 0.049210638 0.061580792 -0.6889135 0.016801307

linear4.weight f4 [256, 256]
00000000: 750f 2a3d 02a0 773d 556d 563d 7fc0 42bd
00000010: 8ce8 173d 14bf d1bc ed52 413d d46d 553c
00000020: 6e92 66bd 6bfb 6a3d 9989 b73c c966 913c
00000030: 6aeb d43c fc44 5f39 cb36 45bd 17c9 f4bc
00000040: 920a 3d3d f6a3 18bd e8b7 9f3c a768 34bd
00000050: 7dd1 2dbd 0ba7 603d 6554 90bd c6da dc3c
00000060: 09b0 abbc 8eff 2b3d b845 1e3d b2ba 1fbd
00000070: c0e6 89bc 445e 74bd d0ea d0bc 42ab b33c
00000080: ab8c 633d 7080 8f3b 0a99 783d 1ae6 4cbd
00000090: 108a 633c 8a63 3dbd 014a 833c a07b 6fbc
000000a0: f1cb dcbc 2480 82bd d42f 03bc deb9 673d
000000b0: 1afd 773c 0c41 283c 4088 d33c 87c0 cc3c
000000c0: 6c3c 633b 67df fa3c d41b bd3c 8bb5 5a3d
000000d0: 0002 df3c e021 acbd 1484 2c3d c77f 923b
000000e0: 0730 16bd f481 d6bc d8eb 6bbc 1f9f 93bc
000000f0: 5206 f4bb 2dd0 9cbc 3c27 6fbb 0cfc c43c
00000100: 970c c3bc 468e 8ebd f26e 8a3c c9b1 a83d
00000110: a16d f23b c91f 6a3d 8e15 c9bc 548c c3bc
00000120: 4d5f 2ebc f635 12bd a00b 263d 96e0 2d3d
00000130: 340f 08bc 1342 f33d 727e 63bd f730 37bd
00000140: 9a9e 69bd 3584 a1b9 e0d8 f3bc 90a8 e3bc
00000150: 28fb 133d 9f69 dbbb 7a3e c0bc 1294 01bd
00000160: 4e1e 683c b80d 223d 7898 4cbd d164 153d
00000170: 7622 973c 731c 903c 0171 2f3d f386 d8ba
00000180: 0042 b3bc 5ba2 663c af32 1d3d f8cd 553c
00000190: aeb9 433c 614c d13c a1ed 723d 1e91 23bd
000001a0: 142e c0bb 3419 cfbc 0d9f 433d 4b98 543d
000001b0: a450 dd3c 36b9 a2bb c84f ef3c f741 f5bc
000001c0: 1615 2dbd 1c94 563d 2fb9 0bbc a05b 743b
000001d0: b0cc 0dbc 2a0d 6ebd 07e2 413c 4e48 ef3c
000001e0: a8f3 b6bc 8e95 a73c 38b4 ebbc 6670 44bd
000001f0: 1827 ca3c 54b8 2dbc 3803 6ebd e46d 5abd
00000200: 7676 fb3c b500 c8bc ce19 6d3d 4c03 48bd
00000210: ca19 cc3b 04d0 9c3c 797a 483a 4fa4 56bd
00000220: 0a91 553d 94b2 333d 5d5d 59bc 2d0c f8ba
00000230: a7ed 3f3c a83a 223c 5c2e 763d 6a26 a9bc
00000240: a74b 6b3d 9141 99bc 0676 5e3d 06b7 2d3d
00000250: c578 853c 5592 0cbb 9288 58bd 6e05 453d
00000260: 9abd 4b3c 3ee8 f8bb 2284 683d eaa6 cd3c
00000270: 128c ba3c e486 f9bc 15a6 43bd 89d8 fb3c
00000280: 464b 213d 43dd 283d 5731 56be 408f 9ebb
00000290: 4767 c03d 2342 18bd 7dd2 aebd 2f0a 36bd
000002a0: fee1 df3c 3c97 0d3d 8311 243d 30f3 d6ba
000002b0: e45a d03c e5d4 2fbd e471 53bd 0a2b 32bd
000002c0: 562c c8bb 487c f53c 03ad 783d 133b 8c3c
000002d0: 3062 173d 3a3e e23c 6666 77bd a85f debc
000002e0: dfcc 6f3d 83ca 09bd 8bcd 073c 7c8d 8abc
000002f0: d814 e03c a928 6f3d 7e06 1ebc 9e21 c5bc
00000300: 9c12 033d 9ce9 f6bc dda2 08bd 8a9e 703d
00000310: ba0c 39bd 62c5 323c de8a 25bd 2cc8 42bb
00000320: e976 c93c 369f 383d 7ec1 783d ad02 5fbc
00000330: 07cb 393d 42f3 52bd 6777 c0bc cedf 6f3d
00000340: 1651 5e3d 6082 2c3d a1b2 02be c931 4ebd
00000350: faa4 25bd 934f a8bc b452 c63c cada 86bd
00000360: efe3 6438 1c9f c5bc 1856 4d3d 5a1a f73c
00000370: ec39 21bd 3476 d53c 3f43 7c3c d997 d43c
00000380: 2114 383d 9d78 59bc 9604 3f3d 2329 c3bc
00000390: 0081 d3bc 609e 333c eeb6 0e3d 00cd 0aba
000003a0: 3fae 11bd a12b 2a3d a00f 2ebd 2751 ba3a
000003b0: 7480 9abc c670 3e3c a5a7 83bd 5408 7fbd
000003c0: 99d2 343c 046a 7abd ba0c d63c 2392 6d3c
000003d0: 809b f4bc f234 053d dc50 c0bc 9a49 2ebd
000003e0: 073a cf3a 18de 313c 4519 1abd 410e b73c
000003f0: ffb2 b63b 7815 0fbd 9982 29bd a236 dcbc
0.041518647 0.06045533 0.05235036 -0.04754686 0.03708701 -0.025603808 0.047198225 0.013026673
-0.05629199 0.057368677 0.022404479 0.017749207 0.02599116 0.00021292636 -0.048147958 -0.029881043
0.04615266 -0.03726574 0.019496873 -0.044045117 -0.04243611 0.054846805 -0.07047347 0.026959788
-0.020957964 0.041991763 0.038640708 -0.038996406 -0.016833663 -0.05966021 -0.025502592 0.021932248
0.055554073 0.0043793246 0.060692824 -0.05002413 0.013887897 -0.046237506 0.016026499 -0.014616877
-0.026952716 -0.06372097 -0.008007009 0.05657374 0.015136028 0.010269415 0.025821805 0.024994148
0.0034673465 0.030624105 0.023084559 0.05339579 0.027222633 -0.08404899 0.042118147 0.0044707987
-0.036666896 -0.026185013 -0.014399491 -0.01802021 -0.0074470425 -0.019142235 -0.0036491891 0.024045967
-0.023809714 -0.0696073 0.016898606 0.08237035 0.0073983227 0.05715922 -0.02454641 -0.023870625
-0.010642839 -0.035695992 0.04053843 0.04245051 -0.008304406 0.11877837 -0.05554051 -0.04472443
-0.05703602 -0.00030806815 -0.0297665 -0.027790338 0.036128193 -0.0066959406 -0.023467291 -0.03163535
0.014167381 0.039563864 -0.049950093 0.0364731 0.01844905 0.01759169 0.04283238 -0.001651971
-0.021882057 0.0140767945 0.038378414 0.013049595 0.011946125 0.025549116 0.05930865 -0.039933316
-0.005864868 -0.025280572 0.047759105 0.05190305 0.027015992 -0.0049659265 0.029212847 -0.029938681
-0.042256437 0.05238734 -0.008528038 0.0037286058 -0.008654758 -0.058118023 0.011833674 0.029209282
-0.022332981 0.020457055 -0.028772458 -0.047958754 0.024676844 -0.010603029 -0.05810854 -0.053327456
0.030696135 -0.0244144 0.057885937 -0.04883127 0.0062286602 0.019142158 0.00076476444 -0.05240279
0.052140273 0.043871477 -0.013266888 -0.0018924527 0.011714376 0.00990168 0.060102805 -0.0206482
0.057445195 -0.018708022 0.054311775 0.042410873 0.016292939 -0.0021449525 -0.05286462 0.04810088
0.012435341 -0.007596045 0.056766637 0.025104005 0.022771869 -0.030459829 -0.04776581 0.0307429
0.039378427 0.041226637 -0.20917259 -0.004838854 0.093946986 -0.037172448 -0.08536241 -0.044443306
0.027329441 0.034568056 0.040055763 -0.001639938 0.025433965 -0.04292764 -0.051622286 -0.043498076
-0.006108801 0.029966488 0.06071187 0.017118013 0.036958873 0.027617563 -0.06040039 -0.027145222
0.05854499 -0.033640396 0.008288751 -0.016913168 0.02735369 0.058388386 -0.009645103 -0.024063881
0.03200017 -0.03014069 -0.033358444 0.058744945 -0.045178153 0.010911318 -0.040415637 -0.0029721363
0.024592834 0.04507371 0.060731404 -0.013611478 0.045359638 -0.05150152 -0.023494435 0.058563046
0.05427655 0.042116523 -0.12763454 -0.050340448 -0.040440537 -0.020545756 0.024209358 -0.065846995
5.4571716e-05 -0.02412372 0.050130934 0.030163933 -0.03936188 0.02605734 0.015396892 0.025951313
0.04494107 -0.013273385 0.046635233 -0.023823326 -0.025818348 0.0109630525 0.034842424 -0.00052948296
-0.035566565 0.041545514 -0.04249537 0.0014214859 -0.01886008 0.011623567 -0.0642846 -0.0622638
0.0110365385 -0.06113626 0.026129115 0.014500174 -0.029859304 0.032521196 -0.023476057 -0.04255066
0.001581014 0.010856174 -0.037621755 0.022345664 0.005575537 -0.034932584 -0.041384313 -0.02688152

linear4.bias f4 [256]
00000000: 3930 9cbe d9e0 9cbe 1038 bb3c 4b0c b63e
00000010: 691c 543f 10cf 233d 7507 6ebf 1ae5 28bf
00000020: be66 963d d6e3 8b3e 7dc0 89bd c520 2e3f
00000030: 655f 55bf 938e ab3e efea 46be 0882 263f
00000040: bbcf aabd e060 76bf 9ccd 533f 66a8 29bf
00000050: 7481 dcbe a55a 233e 196f 5ebf 1ba3 673f
00000060: 96f8 af3d 4a4d 343f 992a e3be 1c45 1f3f
00000070: 77fa 643d fe3f ecba fd1c 593f 5460 3bbf
00000080: 3b83 033f 42c1 15bf 2130 5e3c dbc7 2ebf
00000090: da47 84be dca0 4e3f 96cf 813e b56d 35bf
000000a0: dc32 553f 6017 fa3c 6a1d 1e3f 93f3 e73e
000000b0: 9313 db3d f0dc 17bd 3ae6 53bf f3b5 f0be
000000c0: 4416 b6b9 ff3b 12bd 9a18 01bf fa28 f3be
000000d0: 14d2 29bd 203e 9a3e d6a7 debe 37bf 91be
000000e0: f4c4 8a3e b302 133f f31b 833d 2094 01bf
000000f0: 1ace 1a3f 3088 59bf 4e0b 383e 2826 373b
00000100: b569 8ebe 69b5 5fbf b057 893d a25d 443d
00000110: 8db3 2dbe a6b9 d8be ea66 6ebf fcc7 56be
00000120: e745 7a3f 026b 7d3f 79db 8f3f 3baf cfbd
00000130: fd5e 9a3e 1906 83bf a4a0 ca3c 7a85 263e
00000140: 5206 ad3c 514e f6be 5c59 413e 7724 8d3f
00000150: 6fac eb3e ca2a 05bd f3bd 283f be60 87bf
00000160: 5942 1d3f 4739 6a3f 5a87 0d3e 0cc8 313e
00000170: 53d6 093f ec1e 90bd 40d4 183f 4589 053f
00000180: 8c13 0dbf fd54 973e 46da 0d3f b705 e7bb
00000190: b42f 35bf 9e63 eebc fbcd 0b3e 2694 35bf
000001a0: eec5 3cbd 13a4 4abf cddc e6bd 7a21 26bf
000001b0: 0155 ae3e 0930 da3e abb8 bd3d c626 35be
000001c0: 81d3 123f 7ae8 a23e 4f5b 18bf f998 9d3e
000001d0: b5c9 1fbd a7c6 75bf 1845 b4be b055 c6be
000001e0: 7847 d03e 3455 8abb b892 6abf 6a12 593f
000001f0: 92ab 563e 4b97 123f 8fb7 263f 8163 1a3f
00000200: 93d9 6d3f 2446 1dbf 8f4f 513f 814b 11bf
00000210: ecae 26bf 6af4 a73e 92e6 01bf 5cff 6d3e
00000220: 23d5 253e e2c4 19be fdd9 6bbf bd24 99be
00000230: 9613 dc3e 8838 af3d 6e0f 5ebe 4f5c 3a3f
00000240: b757 ce3e 24e4 00bf 8163 36bf 854a 0abd
00000250: 08f4 52bd c09a e83e f621 323f 2126 dc3e
00000260: 418b 48bd 5c20 f4bd d006 2e3c f696 243e
00000270: d9bb 483f fd98 abbe bd4f 393f af6f 2f3e
00000280: 42d1 74bf 130b 01bf 06a4 513d aa48 f63e
00000290: 6b92 993e 0471 683d 124a 66be c3d7 66bd
000002a0: 0cf5 48bf 830c 0f3f f329 473f 40e8 e5bd
000002b0: 7f02 283f eda7 4dbe 1269 1b3f d3f2 32bf
000002c0: 8004 e93e 0ea1 aabe 85c2 313f 96cc 443f
000002d0: 8621 d8be 667b e1bc 607b e83c f664 2d3d
000002e0: f9cd 8a3c 5bd9 59bd 6941 aa3e 6387 4a3f
000002f0: c598 323f 475d 613d 4299 263e a493 823e
00000300: 3558 11bd cbef edbe e76f 963b 766a 2cbf
00000310: 4158 8ebc 106e 493f db85 5d3f 766b 723e
00000320: a21b 74bf 68df 133e 77fc 86bd 1576 22bd
00000330: 5982 453f 58fd 383e 4011 d43c 3029 243f
00000340: 1809 833f 24e4 09bf 8c6f f23c 1f3d 69bf
00000350: acc9 a3be 7aa7 6b3f 9cd9 fb3e 4027 7d3f
00000360: b161 91bf 5b2c 133f 3d87 ca3e 1ac0 22bf
00000370: d65d 65bf 0200 763f feca 353f 37ff 94bf
00000380: e4b7 95be da91 23bd d6a1 50be 4129 833f
00000390: 6163 033f 0163 743c 578e fabd cc9b e33e
000003a0: e191 69bf 78e0 613d eb2c 503f 2e49 123f
000003b0: 4166 69bf 0a1f bd3e 3c82 02bf d124 8e3d
000003c0: 2bcc febe 57fa a1be f24b 5fbf f80a 4d3f
000003d0: beee 4dbf 0f09 5c3f f9a0 6a3f b865 203f
000003e0: 89fd e5bb 5ac0 bc3e c9b9 31be ee98 583f
000003f0: 43ca 3cbf 9469 2dbf 9d3c 38bf f8f8 a43e
-0.3050554 -0.30640295 0.022853881 0.35556254 0.8285585 0.039992392 -0.9298013 -0.6597458
0.07343815 0.27322263 -0.06726167 0.6801875 -0.83348686 0.33507213 -0.19425558 0.6504216
-0.08340403 -0.9624157 0.8273561 -0.6627258 -0.43067515 0.15952547 -0.8688827 0.90483254
0.08592336 0.70430434 -0.44368437 0.6221483 0.055902924 -0.0018024442 0.8480986 -0.7319386
0.51372117 -0.58498013 0.0135612795 -0.68273705 -0.25836068 0.807142 0.25353688 -0.70870525
0.8328073 0.030528724 0.6176363 0.4530302 0.10697093 -0.037075937 -0.8277317 -0.47013816
-0.00034730334 -0.035701748 -0.50428164 -0.474922 -0.04146011 0.30125523 -0.43487424 -0.28466198
0.27103388 0.57425994 0.06401815 -0.50616646 0.60470736 -0.8497343 0.17973062 0.0027946327
-0.27815023 -0.87386185 0.06706178 0.047940858 -0.16963024 -0.4232914 -0.93125784 -0.20974725
0.9776291 0.98991406 1.1238853 -0.101408444 0.30150595 -1.0236236 0.024734803 0.16261855
0.021121178 -0.48106626 0.18881744 1.1026753 0.46029994 -0.03251151 0.6591484 -1.0576398
0.61429363 0.9149365 0.13821164 0.17361468 0.5384266 -0.07037148 0.5969887 0.5216258
-0.5510795 0.29557028 0.55411184 -0.007050242 -0.70775914 -0.029100236 0.13652794 -0.7092918
-0.046087198 -0.7915661 -0.11272583 -0.6489483 0.34049228 0.42614773 0.09263738 -0.17690572
0.5735398 0.3181799 -0.59514326 0.3078077 -0.039010722 -0.96006244 -0.35208964 -0.3873725
0.40679526 -0.004221583 -0.91630125 0.8479372 0.20963886 0.57262105 0.6512384 0.6030808
0.92910117 -0.6143515 0.8176202 -0.56755835 -0.6511066 0.3280366 -0.5074245 0.23241943
0.16194586 -0.15016511 -0.921295 -0.29910842 0.42983693 0.08555704 -0.21685573 0.727971
0.40301296 -0.50348115 -0.7124558 -0.033762474 -0.051502258 0.45430565 0.6958307 0.4299784
-0.048960928 -0.119202346 0.010621741 0.16073212 0.7841163 -0.33515158 0.72387296 0.17132448
-0.956318 -0.5040752 0.051181816 0.48102313 0.2999452 0.056748405 -0.22489193 -0.05635811
-0.7849891 0.55878466 0.77798384 -0.11225939 0.6562881 -0.2008359 0.607072 -0.6990177
0.45511246 -0.33326 0.6943744 0.76874673 -0.42213076 -0.027524661 0.028379142 0.042332612
0.016943919 -0.053185802 0.3325303 0.79112834 0.6976436 0.055020597 0.162694 0.25503266
-0.03548451 -0.4647201 0.0045909765 -0.67349946 -0.017376067 0.7868357 0.8653237 0.23673806
-0.95354664 0.14440691 -0.065911226 -0.039663393 0.7715202 0.18065393 0.025887132 0.6412535
1.023715 -0.5386374 0.029594205 -0.9110889 -0.319898 0.92052424 0.4918946 0.98888016
-1.1357938 0.57489556 0.39556304 -0.63574374 -0.8959631 0.9609376 0.71012866 -1.1640385
-0.2924186 -0.039934017 -0.20374236 1.0246965 0.51323515 0.0149161825 -0.122341804 0.444548
-0.9123822 0.05514571 0.8131854 0.57142913 -0.9117165 0.36937743 -0.5097997 0.06940616
-0.49765143 -0.31636307 -0.8722526 0.8009486 -0.80442417 0.8595132 0.91651875 0.6265521
-0.007018749 0.36865503 -0.17356028 0.8460835 -0.73746127 -0.67739224 -0.7196749 0.32221198

linear3.weight f4 [1, 256]
00000000: 934d 97be a331 743e a9b3 a93e 572c d2bc
00000010: 3526 763f 4178 733f 83b0 913e 0a6f 0d3f
00000020: 0d66 26bd 0940 6e3f 81f7 8a3e b90a dd3e
00000030: fbb9 23be 0ecc 4a40 9533 53be 453b f43e
00000040: ee2e a1bd ec72 12bf 1768 093f 5e19 2abf
00000050: 11ae 2abd 58b6 fdbc 8b69 a6bc 8399 643e
00000060: 4ce7 533c aee5 c03e 8b47 933d 7b8c 533f
00000070: c1e8 7dbf 508a 3639 925e 383f fa9d 07bf
00000080: 64b1 7a3e 47f8 7138 daab 323e a4e8 de3e
00000090: 4df3 afbd c83e c33e 56b8 0240 2818 a0bd
000000a0: 1b98 8c3f a7ed e23d ca52 ddbd 397c 553f
000000b0: a7fc abbe 4828 103e 5dc4 733e ff8a 203e
000000c0: 3b08 4c3e 7ce5 c2bc f385 ac3d 384e d23d
000000d0: d876 bf3c 541c 3c3f c420 cdbe baa9 093d
000000e0: 03b0 febb 8ef3 a03e f3ea 113e e78b c8bb
000000f0: dfe6 3740 6180 c8be 8c3e 243f be55 fdbe
00000100: 4519 b5be ce4b a9bd f19b a13e 90d0 4db9
00000110: 50b6 54be da82 3d3e 8436 c9be 3f3e f83d
00000120: 3dda 353f f73c 263f ff7d ca3f f099 a93e
00000130: 7f12 9a3f d894 0d3f ab9c 94bf bc4e 14be
00000140: 78f7 ac3e daab 9dbe 171a 533f 9ac2 bc3f
00000150: 1a74 eb3e 80fb 03be c807 c13e 776f 2e3e
00000160: 1e63 443f d8ea 213f 1175 bebd 1ecf 2a3f
00000170: 9ab1 9e3e c501 8f39 7224 9c3e 81d6 273e
00000180: fc63 6e3d 524d 8abe 8541 003e 1665 6c3c
00000190: dabc 65bf f6f6 9aba f97e f4bc 67c1 30be
000001a0: bfb8 c8bd bb27 d6bd 00d9 f8bd bfe5 c0be
000001b0: 3327 1f40 7420 d03e 52c9 cfbd f292 813e
000001c0: 53fa 7840 41e3 c43f 8cbd 1bbf 4201 a8bd
000001d0: 77f7 25bb ca81 64be 4f71 6c3d 378c 393d
000001e0: 4b93 b5be 6e27 e73b 1040 fabe ffaf f23e
000001f0: 67bf 1bbe 0a70 1abe 17d5 2bbe 01d8 56be
00000200: 540a 073f 0fa7 6d3e 34ce 5d3f 299c e53e
00000210: 344e f7be b663 3dbd 6676 9d3e 1c3d 7f3f
00000220: b4ae c63d e20c 87be 7a4f 25be 1f74 0b3e
00000230: 83ab 2fbe d43b a13d b0e3 653e 9b12 a63e
00000240: eb90 83be f33e b93e 29e0 ecbe 0901 993e
00000250: 8ac1 21bb 5939 b03e 9004 d6bd 34ed 833e
00000260: ebeb 1fbe 7dc1 df3d 002f 2a3d 953d 2c3e
00000270: f7ba 4dbe 21f5 113e 93b8 6dbe a752 dfbd
00000280: 0128 24be a165 5fbd 678e a4bb 3ede 25be
00000290: 3f41 193f 2b82 1abe 336f a2be 4edf 193a
000002a0: a5a7 12bf 13e7 03be 07c3 82be be9c b3bd
000002b0: 1ffc 383e ffd1 d3bd ddc4 103e 2f3c d13d
000002c0: be27 913f 39ab e63d c47c 573f 05f0 2640
000002d0: b167 9b3d b698 79bc 9343 9b3c 409f 293f
000002e0: 63d7 d7bb 686a c9ba bae0 f63f c852 df3e
000002f0: b9a7 883e 1c76 1ebe cb6d 15be c0ee b33f
00000300: 2041 163b c993 33be 76f2 9ebe ff57 acbe
00000310: 0093 c83d 44d1 103f e929 083f e6e2 bd3e
00000320: e5a7 2dbf e188 113d 6cf4 87bb 5657 cf3e
00000330: 885f 8fbd 00d8 9c3e 415c bdba 1480 013f
00000340: 5a73 923e 3e2b babd 9b68 9a3e 7302 463e
00000350: 0302 383d 6519 993f c3d5 fe3d ab95 3d3f
00000360: 7c91 2e3f 3332 373e bce3 a33e fad7 47bf
00000370: a3e9 ce3e 9fbd f83e 3c6d 1d3f bccc 143f
00000380: 5963 c23d 8aeb c6ba 96bd babd 1d01 dc3e
00000390: 96af 633e 605a 253e 15b5 a13d d298 21be
000003a0: 1abb 40bf 7cd9 33bc 3840 553f a0d6 903e
000003b0: 2881 53bf a448 9bbe 5e61 16bb 93d6 103f
000003c0: dd3f 20be c731 83be 8531 f3bd 7269 8e3e
000003d0: c70d f73d 3eba cb3e 29c9 133f 7429 fc3d
000003e0: 1160 2bbd 389e debc 82c8 c83d 3fbf 823e
000003f0: c858 3cbd 3d72 6f3b 51f6 1a3e 27ef 0140
-0.29551372 0.2384706 0.33144882 -0.025655909 0.9615205 0.9510537 0.2845498 0.5524756
-0.040624667 0.9306646 0.27141955 0.43172243 -0.15988915 3.1687045 -0.20625146 0.4770147
-0.07870279 -0.57206607 0.53674453 -0.6644496 -0.04166991 -0.030970737 -0.020313999 0.22324185
0.012933563 0.37675232 0.0719138 0.8263623 -0.9918328 0.00017408398 0.720193 -0.5297543
0.24481732 5.7690104e-05 0.17448369 0.43536866 -0.08591328 0.38133836 2.042501 -0.078171074
1.0983919 0.11080485 -0.108068064 0.83392674 -0.33591196 0.14077866 0.23805375 0.15678023
0.19925015 -0.023791067 0.08423986 0.10268825 0.023372099 0.73480725 -0.4006406 0.03360913
-0.007772447 0.31435817 0.14249782 -0.0061201933 2.8734663 -0.39160445 0.6415794 -0.4947948
-0.35370842 -0.08266412 0.31564286 -0.00019628019 -0.20772672 0.18506947 -0.39299405 0.121212475
0.7103613 0.64936775 1.5819701 0.33125257 1.2036895 0.5530524 -1.1610311 -0.1448316
0.33782554 -0.30795175 0.82461685 1.4746888 0.45987016 -0.12888908 0.3770125 0.17034708
0.7671374 0.6324897 -0.092996724 0.66722286 0.30994874 0.00027276404 0.30496556 0.1639042
0.05820082 -0.27012116 0.12524994 0.014428398 -0.8974129 -0.0011822868 -0.029845702 -0.17261277
-0.098008625 -0.10456797 -0.121507645 -0.37675282 2.4867675 0.4064976 -0.10145821 0.25307423
3.8902786 1.5381852 -0.608361 -0.08203365 -0.0025324502 -0.22315136 0.057725247 0.045299735
-0.35463938 0.007054261 -0.48877 0.473999 -0.15209733 -0.15081802 -0.16780506 -0.20980836
0.52750134 0.23208259 0.86642766 0.44845703 -0.48301852 -0.04623767 0.30754393 0.9970262
0.09701291 -0.26377016 -0.16143599 0.13618515 -0.1715527 0.078727394 0.22450137 0.3243607
-0.256965 0.3618084 -0.4626477 0.29883602 -0.0024682009 0.34418753 -0.10450089 0.2576691
-0.1561734 0.10925577 0.04154873 0.16820367 -0.20090853 0.14253666 -0.2321494 -0.109044366
-0.16030885 -0.05454028 -0.0050218585 -0.1619806 0.5986518 -0.15088718 -0.31725463 0.0005869762
-0.57287055 -0.12881117 -0.2553942 -0.087701306 0.18064927 -0.10342788 0.14137597 0.10216557
1.1340253 0.11263127 0.8417475 2.6083996 0.07588137 -0.015234163 0.01895312 0.6625862
-0.0065869554 -0.0015366795 1.9287331 0.43617845 0.26690462 -0.15474743 -0.14592664 1.4057236
0.0022927 -0.17536844 -0.31044358 -0.33660886 0.09793663 0.56569314 0.5318895 0.37087172
-0.6783431 0.03553093 -0.0041490104 0.4049632 -0.07000643 0.30633545 -0.001444705 0.50586057
0.2860363 -0.09090279 0.30157933 0.19336872 0.044923794 1.1960875 0.124431156 0.740565
0.6819074 0.17890243 0.32009685 -0.7806393 0.40412626 0.4858217 0.61494803 0.581249
0.09491605 -0.0015176397 -0.09118192 0.429696 0.2223495 0.16147757 0.07895867 -0.15780953
-0.75285494 -0.010977145 0.83301115 0.28288746 -0.8261895 -0.30328858 -0.002294622 0.56577414
-0.15649362 -0.25623915 -0.118746795 0.27814823 0.12063175 0.3979053 0.5772882 0.12312594
-0.041839663 -0.027175054 0.09803869 0.25536534 -0.045983106 0.0036536597 0.15133025 2.0302217
