outputs/Optimal_Control/20220331-100728/models/checkpoint.pt (torch, 533487 bytes, 7 tensors)

linear1.weight f4 [256, 2]
000000 aa 8a 0d 3f 4e ae 17 bf 78 11 1e be 45 df db be
       0.5528971 -0.5925034 -0.15436351 -0.4294378
000010 d0 7a 99 3e 58 c4 06 3e 34 23 9e 3d f4 a6 11 3e
       0.2997651 0.13160837 0.07721558 0.14223844
000020 b1 fa 9c be 87 4a 20 bf b6 c0 f1 3e 63 28 c7 3e
       -0.30660012 -0.6261372 0.4721734 0.38898
000030 a8 61 f6 bd 12 28 c2 be 1f 91 31 bf 98 d8 b0 3d
       -0.12030345 -0.37921196 -0.6936206 0.08635062
000040 2f 3e 92 3e 2d f8 16 bf eb 90 04 3f e1 b6 24 3f
       0.28563067 -0.58972436 0.5178363 0.6434155
000050 5f ae 99 be 20 b6 f9 bc 17 81 1b 3e d8 ea a9 3d
       -0.30015847 -0.030482352 0.15185963 0.08296746
000060 9c 90 e9 3d 6a 74 76 be a0 b7 04 3f e2 1c d3 3e
       0.11404535 -0.24067846 0.5184269 0.41232973
000070 99 34 19 3e 37 f1 ac bf 8b 70 8e be db 4c 20 3f
       0.1496147 -1.3511113 -0.27820238 0.6261727
000080 ce 78 16 bf 8a 81 8a 3e ca 4c b9 3e bc 70 dc 3e
       -0.58778083 0.27051955 0.36191398 0.4305476
000090 f0 db 6f be f0 23 f7 be 8b 84 09 bf ad 0c c1 be
       -0.23423743 -0.48269606 -0.5371787 -0.37704983
0000a0 fe 77 ac 3e 47 12 14 bf 97 54 b7 3e bc a9 18 bf
       0.33685297 -0.5784039 0.35806724 -0.59633994
0000b0 18 20 0c be 50 6e 75 bd 61 32 d2 3e f8 97 02 3f
       -0.13684118 -0.059919655 0.4105406 0.51013136
0000c0 50 4c e8 3e 38 a9 22 bf fc f8 21 be ad 02 c5 be
       0.45370722 -0.6353946 -0.15817636 -0.38478604
0000d0 29 2a 13 3f 48 cf 2b be 26 76 43 3a 84 dc cd 3d
       0.57486206 -0.1677829 0.0007456265 0.10051826
0000e0 8f 29 62 3d 65 c5 57 bd 5e 6b 17 3e 57 54 aa be
       0.055215415 -0.052678484 0.14787051 -0.3326747
0000f0 f9 6c 2a 3b 71 9b 1a 3f dc 34 dc be 31 76 b4 be
       0.0026004894 0.60393435 -0.43009079 -0.35246423
000100 8e ea 3c 3e 67 a5 1b 3f 4d 91 23 bf 30 48 27 bf
       0.1844885 0.6079926 -0.63893586 -0.65344524
000110 39 26 12 bf 6a 69 c2 3e d4 1d ff 3e 57 4c 33 3e
       -0.57089573 0.3797105 0.49827445 0.1750959
000120 fb ec ae 3e e6 0a 1d bf e2 01 ab be 8e ad 0f 3f
       0.34165177 -0.61344755 -0.33399874 0.561242
000130 12 85 a6 be d3 14 ec be 55 c1 ac be 2c 48 27 3f
       -0.325234 -0.46109638 -0.3374125 0.653445
000140 2f b3 11 3f 83 eb df be e8 29 15 3e 3b 1e fe be
       0.5691404 -0.4373437 0.14566767 -0.4963244
000150 fb 5d b8 3e e5 a7 18 bd 34 b6 11 bf 46 1c c6 be
       0.360092 -0.03726949 -0.56918645 -0.38693446
000160 b6 4c f8 3d 70 e1 98 3e e6 7a 1f 3e 7c 05 eb 3c
       0.121240065 0.29859495 0.15574226 0.028689139
000170 67 ba 6a 3e 40 aa ec 3e 54 cc 93 3e 62 7d 03 bf
       0.2292267 0.4622364 0.28866827 -0.51363194
000180 b6 b6 6a be b4 59 3a 3e e1 46 0a 3f 84 cf 0f 3e
       -0.22921261 0.18198282 0.540144 0.14044005
000190 6e c5 67 3e 82 af f0 be 00 00 87 39 6f 61 14 bf
       0.22633907 -0.47008902 0.00025749207 -0.5796117
0001a0 0c 45 9f be de 92 97 3e 5c 51 53 3e 0c ef ef 3e
       -0.31107366 0.29604238 0.20636505 0.46862066
0001b0 e0 75 f2 3e 6f bd f2 3e d0 71 f3 bd 7d be 0c bf
       0.47355556 0.4741015 -0.118869424 -0.5497816
0001c0 6b b7 ec 3e 46 96 c7 bb 4d 95 e3 be e0 8e 8a 3d
       0.46233687 -0.006090912 -0.44449845 0.067655325
0001d0 07 b8 18 bf ea 26 eb be 09 a3 e1 3d ec 05 63 bb
       -0.59655803 -0.45928127 0.110174246 -0.003464098
0001e0 07 41 07 3f 9f ba 28 bf f6 49 9f 3e 50 a2 ed be
       0.528336 -0.6590976 0.31111115 -0.46412897
0001f0 8f e7 1e bf 98 60 4c 3e 40 62 c3 bd a9 66 df 3d
       -0.6207208 0.19958723 -0.09540224 0.10908253
000200 67 a9 0d 3f 22 b2 dc 3e fd a3 35 3e fb a2 8d 3e
       0.5533661 0.43104655 0.17738338 0.27663407
000210 dd 02 a4 be 70 c9 81 3d 15 d8 10 bf 68 3e 42 be
       -0.32033435 0.06337249 -0.56579715 -0.18969119
000220 8f 99 50 3e 49 5a fd be 1a e1 dd 3e d7 bb 2b bf
       0.20371078 -0.49482945 0.433358 -0.67083496
000230 0d 37 d3 be a2 71 24 bf e8 ab 11 be a0 c1 91 bc
       -0.41252938 -0.6423589 -0.14225733 -0.017792523
000240 9a ed 73 3d 7b 41 de 3e 31 a5 fd 3e 11 58 01 bf
       0.059552766 0.43409333 0.49540094 -0.50525004
000250 0e 55 01 3f a5 2f b0 be 01 f3 a8 be 08 1b ac 3d
       0.5052041 -0.3441135 -0.32997897 0.08403593
000260 3f 63 07 bf 64 db 83 3e 12 b8 ae be d8 ba eb 3d
       -0.5288581 0.2575332 -0.3412481 0.11510247
000270 19 2d 9a 3e 1b 87 25 bf 1b 37 81 3e d8 92 b1 be
       0.30112532 -0.6465928 0.25237355 -0.34682345
000280 ed cf fa 3d e1 f2 db be 4a a3 1c 3f ee 81 05 be
       0.1224669 -0.4295874 0.6118666 -0.13037845
000290 46 b3 ae 3e 16 6d c9 3d 09 a0 14 bf 61 b3 24 bf
       0.3412115 0.098352596 -0.58056694 -0.6433621
0002a0 0f 87 aa be 40 23 42 bd 0f 56 00 3f ac 19 56 bf
       -0.33306167 -0.0473969 0.50131315 -0.8363292
0002b0 5e a1 3c 3e fd 0e 21 bf 4c cc d8 3d 32 ee 0b 3e
       0.18420932 -0.62913495 0.105858415 0.13665083
0002c0 b7 78 1a bf 24 cd c1 be 8b 4f e9 3d df 7e 12 be
       -0.60340446 -0.37851822 0.11392125 -0.1430621
0002d0 82 ec e8 3e 26 97 1e 3f 71 30 24 bf 92 82 df be
       0.4549294 0.61949384 -0.64136416 -0.43654305
0002e0 af 01 ca 3e b2 c3 33 bf 60 32 93 bd e3 9b 93 be
       0.3945441 -0.7022048 -0.07187343 -0.2882987
0002f0 94 98 96 be 40 5d e7 3d b1 e1 b4 be db 48 2e bf
       -0.29413283 0.11297083 -0.3532844 -0.6807992
000300 ec aa 10 3f fc f6 88 3d 31 cc 95 3e 7d fe 8b bd
       0.56510806 0.066877335 0.29257348 -0.06835649
000310 68 9d 2b bf e8 bf 20 be 10 53 d3 bd 05 04 30 bf
       -0.6703706 -0.15698206 -0.10318577 -0.68756133
000320 f8 40 05 bf 00 a8 f1 3a d8 d4 b4 be 08 fc f1 be
       -0.5205226 0.0018436909 -0.35318637 -0.47262597
000330 58 15 d5 be a7 98 dc be 45 ba c5 3b fc e2 b3 3c
       -0.41617846 -0.43085214 0.006034168 0.02195882
000340 22 b4 07 bf 7d 6e 32 bf 98 df b0 be 40 d7 45 3e
       -0.53009236 -0.6969984 -0.34545588 0.19320393
000350 96 c9 18 3f 68 c0 fe 3c 5c de b2 3e b7 d8 0d bf
       0.59682596 0.031097606 0.34935272 -0.55408806
000360 b0 d0 36 be 1e 3f 37 3e 75 f5 04 bf 47 d7 98 be
       -0.17853045 0.17895171 -0.5193704 -0.29851744
000370 c4 5a 41 be 63 12 d8 3e 2c e0 25 bf eb 6d d7 be
       -0.1888228 0.42201528 -0.64795184 -0.42076048
000380 f2 84 fa 3e a0 1f 01 3f f6 bd 3d be 69 77 07 3f
       0.48929554 0.5043888 -0.18529496 0.5291658
000390 3f 04 9e bd f4 e6 47 3f 68 39 c8 be 92 b0 a3 3e
       -0.07715654 0.7808678 -0.39106297 0.3197065
0003a0 f5 c4 25 bd f9 6a 83 3e bb ae 4d bb 34 77 04 3f
       -0.040471036 0.2566755 -0.0031384665 0.5174439
0003b0 2d b9 a9 bb 47 5e ee 3e 80 d2 f3 bb f0 0b d3 bd
       -0.0051795454 0.46556303 -0.007440865 -0.10305011
0003c0 a6 97 e4 3e 9c 56 44 3e ee 74 ac 3e aa d8 83 3e
       0.4464695 0.19173664 0.3368296 0.2575124
0003d0 e5 38 7e 3e aa c4 e9 bd d4 4c fa be 21 4b 15 3f
       0.24826391 -0.11414464 -0.4888674 0.5831776
0003e0 20 b5 09 bf 58 13 78 3e d1 7a 2c bf 90 fa 30 be
       -0.53792 0.24226129 -0.673749 -0.17283082
0003f0 47 0d 03 bf c0 e1 ee 3c 5f a6 82 3e e9 ef b7 3e
       -0.51192135 0.02916038 0.25517556 0.35925224

linear1.bias f4 [256]
000000 a9 b0 ba 3f af b2 32 3e 46 36 90 bf 55 f9 97 bf
       1.4585162 0.17450975 -1.1266563 -1.1872965
000010 6b 10 8e ba 89 d8 ae 3f 98 37 bf bd 33 39 23 3f
       -0.0010838633 1.3659831 -0.093367755 0.63759154
000020 cf 13 bb 3f a5 0c a7 bf 00 61 ab bb e8 f6 0c bf
       1.461542 -1.3050734 -0.005230069 -0.5506425
000030 dd 39 99 3f 45 f0 af bf 83 8c 10 be 63 1c 4c be
       1.1970783 -1.37452 -0.14116101 -0.19932704
000040 88 34 c7 bd 52 f1 af bf 2f 66 ad be 73 5a 0a 3f
       -0.097268164 -1.374552 -0.33867022 0.54044265
000050 36 d0 34 3f 72 4f 93 bf 6e 34 9d be 15 bf 78 bf
       0.70630205 -1.150862 -0.30704063 -0.9716657
000060 37 83 32 bf b4 15 94 3e c1 b9 98 3f 48 ff 28 bf
       -0.6973147 0.28922808 1.1931688 -0.6601453
000070 40 f1 62 bf 28 23 c5 3f 09 b5 bc bf 42 f2 48 3e
       -0.8864937 1.5401354 -1.4742748 0.19623664
000080 1b 5b 8f bf 5c af 0d 3e af 94 1e 3f 06 cb 8a 3f
       -1.1199678 0.13836426 0.61945623 1.0843208
000090 72 88 7b 3f e2 e2 56 3f 44 4a 05 3f 15 75 22 bf
       0.98255074 0.83939946 0.52066445 -0.63459903
0000a0 ba 07 ce 3f 88 22 0f bf 62 e1 94 3f 71 9e 81 3e
       1.6096108 -0.55912066 1.1631281 0.25316194
0000b0 68 90 cf 3f 9e 28 d2 bf 5f ab b5 bf fa 60 b1 3f
       1.6215944 -1.6418645 -1.4192923 1.385772
0000c0 e6 95 ed 3e 6c 0b 8e 3f 37 de b6 3f 44 a4 81 be
       0.46403426 1.1097236 1.4286565 -0.25320637
0000d0 60 e5 9d bd ac 10 aa 3f a9 23 92 3f 4e 7e 26 3f
       -0.077097654 1.3286338 1.1417133 0.65036476
0000e0 b5 b8 67 bf 8d 91 1a bf 50 29 f1 be e3 e8 9d 3f
       -0.90516216 -0.6037834 -0.4710183 1.2336696
0000f0 dc 9a 14 be 49 0c 8c 3f d2 13 ca 3e 00 e3 db be
       -0.14512199 1.0941249 0.39468247 -0.42946625
000100 bc 79 52 3f a3 f7 8c bf ed 78 f4 be 5c 0e dd 3e
       0.82217 -1.1013073 -0.4774851 0.43175018
000110 ef 76 ee be 0d 98 93 bf 9f d7 1b bf 69 46 8b be
       -0.46575114 -1.1530777 -0.60875887 -0.27202156
000120 6a 59 c2 bf 99 2c b0 bf 08 02 5e 3f e6 a1 9b 3e
       -1.5183537 -1.376361 0.8672185 0.30396956
000130 9c 3d 1e 3f 30 19 98 3e fc 55 bc bf 3f c8 c6 3f
       0.6181276 0.29706717 -1.471374 1.552986
000140 f8 a4 3e 3f 6f 08 dc bf 3c e6 84 bf c4 fa c2 be
       0.7447047 -1.7190074 -1.0382762 -0.38081944
000150 ea aa 54 3e 15 f7 46 bf b2 80 8e 3f e7 c6 b8 bf
       0.20768324 -0.7772077 1.1133025 -1.44357
000160 a4 9f 04 3e 5d 48 b1 bf c2 65 c1 3f 7f 9a 6c ba
       0.12951523 -1.3850209 1.5109179 -0.0009025707
000170 d9 48 9a 3f 0d c0 da 3e a3 00 0e 3f 32 17 8c be
       1.2053481 0.42724648 0.5546972 -0.27361447
000180 14 10 27 3d d8 c9 a9 bf ca 55 16 3f 4a d8 da be
       0.040786818 -1.3264723 0.58724654 -0.4274314
000190 ff 82 f1 3d 96 00 0e bf 8a 58 b3 ba 31 7e 04 bf
       0.11792564 -0.55469644 -0.0013683003 -0.5175505
0001a0 71 f2 61 3e 2a d3 cf 3e 4a 85 b3 bf 50 0b 08 3e
       0.2206514 0.40590793 -1.4025052 0.13285565
0001b0 20 71 4c be 30 c2 d5 be 37 37 d1 be 3f 1e 33 3f
       -0.19965029 -0.41749716 -0.40862438 0.69968027
0001c0 1b e0 b4 bf 1e ca 02 bf 1e 84 db 3f a1 84 36 3f
       -1.4130892 -0.51089656 1.7149694 0.71296126
0001d0 68 d1 ec be a1 3a d2 bf 49 1c 2e 3e cc a3 09 bf
       -0.46253514 -1.6424142 0.17002977 -0.5376556
0001e0 3f f7 a2 bf e7 42 87 bf 60 54 bc bf 07 f0 50 bf
       -1.2731704 -1.0567292 -1.4713249 -0.8161625
0001f0 09 72 b2 be f9 c9 8b 3e 02 5d 99 be 24 06 7c bf
       -0.34852627 0.2730253 -0.29953772 -0.9844687
000200 ac c4 91 bf 7e 27 75 3e aa ae 1b 3f f8 c7 ca 3f
       -1.1388144 0.23940846 0.6081339 1.5842276
000210 93 7a a4 bf 1e 42 ca bf c0 18 d6 be ff f2 4f 3f
       -1.2849907 -1.5801427 -0.41815758 0.8123016
000220 55 5c 32 3f 43 28 cb bf eb 5b a3 3e 9f 51 31 bf
       0.6967214 -1.5871662 0.31906065 -0.6926517
000230 00 38 87 bf 8c f4 89 be 95 0c e6 be 22 bb e4 bf
       -1.0563965 -0.26944387 -0.44931474 -1.7869608
000240 d4 47 28 bf ee 10 cf bf d4 61 0d 3f 2d 51 6d bf
       -0.657346 -1.6177042 0.552274 -0.9270199
000250 44 55 86 3f 75 3c c8 3f 4e e6 c0 be 8e 31 ed be
       1.0494771 1.564345 -0.3767571 -0.4632687
000260 eb d4 c9 be c1 39 a6 3f 0c d7 9f bf cd e3 77 bf
       -0.39420256 1.2986375 -1.2487502 -0.9683197
000270 1b bf a4 3f 1a 7a e5 3f af c1 94 3f e2 01 02 bf
       1.2870821 1.7927887 1.1621608 -0.5078412
000280 2c da 54 bf 13 0f 9f 3f 6f 53 0f bf cb 7c bb bf
       -0.83145404 1.2426475 -0.55986685 -1.4647459
000290 b1 a1 01 3f 08 d3 c5 bf f0 60 00 bd e8 7e 7d 3f
       0.50637347 -1.5455027 -0.031342447 0.9902177
0002a0 83 c0 9d 3e 95 d6 98 bf e8 dd 28 be 2b 76 bd bf
       0.30810937 -1.1940485 -0.164909 -1.4801687
0002b0 e9 c7 a1 bf a8 29 dc be 2c 16 92 3e 6b a0 eb 3e
       -1.2639133 -0.4300053 0.2853254 0.46020827
0002c0 01 b8 a1 3f cf 12 95 bf 80 ff 08 bf a0 98 ca 3f
       1.2634279 -1.1646365 -0.5351486 1.5827827
0002d0 37 5d af bf c0 86 80 3f 80 69 47 bd d7 38 ab bf
       -1.3700322 1.0041122 -0.048684597 -1.3376721
0002e0 92 cc b8 bf f2 bc 59 bf 76 2d 85 3f 94 3b a5 bf
       -1.443743 -0.8505393 1.0404499 -1.2908807
0002f0 f4 24 8d bf f1 21 92 bf d3 19 71 bf 68 5f 53 3e
       -1.1026902 -1.1416608 -0.9418003 0.20641863
000300 6c 0d c7 3f 77 e2 5d 3e 80 ae 8c 3f 83 29 98 3f
       1.5550971 0.2166842 1.0990753 1.1887668
000310 f4 ab 0c be cb 52 87 3f 1a 15 a4 3f 93 9a b1 3f
       -0.1373747 1.0572141 1.281894 1.3875297
000320 ae c3 b6 bf ab 0d 9a 3f 1f fe 96 3f 0b 8e 01 3f
       -1.4278467 1.2035421 1.1796302 0.50607365
000330 b4 34 21 be 2f 32 41 bf 82 8b f0 be 1b 81 ea 3d
       -0.15742761 -0.754672 -0.46981436 0.11450406
000340 42 ca 12 bf 2c 3a 95 bf ab 94 c2 be 17 ff 3a bf
       -0.5733987 -1.1658378 -0.3800405 -0.73045486
000350 ac 30 c2 3d 27 90 d4 bf 8a b7 9a bf e3 a9 df 3e
       0.0948194 -1.6606492 -1.2087262 0.436843
000360 00 48 30 be 37 b5 35 3f 79 7e af bf 80 7f 80 bd
       -0.17214966 0.70979637 -1.3710471 -0.06274319
000370 05 f2 60 bf 60 e1 04 3f ed d5 17 3e cf 80 f8 3e
       -0.8786929 0.51906395 0.148277 0.48535773
000380 0b f5 8e 3f 3f 82 b5 3f 7f a0 09 3e e0 80 15 bf
       1.1168531 1.4180373 0.1344013 -0.5839977
000390 0b 7a a7 be d8 cb dd 3e 1a a7 7a 3e 6f 02 0e 3f
       -0.327103 0.43319583 0.24477807 0.55472463
0003a0 62 92 b6 bf 40 ed 74 bd c7 ac c8 3f 14 ca 9c 3f
       -1.4263422 -0.05979657 1.5677727 1.2249169
0003b0 d4 f2 70 3d 11 ca ca bf 90 25 11 bd 00 5d 75 be
       0.05882533 -1.5842916 -0.035436213 -0.23961258
0003c0 37 0a 51 bf 67 e9 b0 3f f3 e5 45 bf ec c4 db bf
       -0.8165621 1.3821229 -0.77304 -1.7169471
0003d0 58 cb b4 3e 04 c7 0c bf 3e af bf be 89 51 f9 be
       0.3531139 -0.54991174 -0.37438387 -0.4869502
0003e0 78 2b e6 bf 2b 2c d2 bf b4 13 9b be 77 c8 da bf
       -1.7982016 -1.6419729 -0.3028847 -1.7092427
0003f0 b7 8b dc be 66 7f fd 3d fe c2 99 bf bd 37 98 bf
       -0.43075344 0.12377815 -1.2012632 -1.189201

linear2.weight f4 [256, 256]
000000 48 e9 5e 3d a2 57 80 bd 53 fd 9b bc e1 d6 ff 3b
       0.054421693 -0.06266715 -0.019041693 0.007807598
000010 87 ec 6e bc 2d 54 7d bd f8 8e 8d bc 79 4c c1 3c
       -0.01458276 -0.061847854 -0.017280087 0.023596035
000020 0e 54 12 bc 0a b8 1d bd d0 34 fe bc cb ac 35 3d
       -0.008931173 -0.03850559 -0.031031042 0.04435424
000030 fa b9 dd bc da 9e 59 3c a0 78 d4 3b ff 35 10 3c
       -0.02706622 0.013282502 0.006484106 0.008801936
000040 78 74 1c 3c 63 b2 6e 3b 42 2d 35 bd 97 0d 54 bd
       0.009549253 0.0036422245 -0.044232614 -0.051770773
000050 4c a2 a5 3c 47 fa 07 bd fc cd 15 bd f7 ca 1e 3b
       0.02021899 -0.033197667 -0.036573395 0.0024229863
000060 02 5f b8 bc fd 93 15 3c bf cc 6a 3d 39 86 b0 3c
       -0.02250624 0.009129521 0.057324167 0.021548377
000070 49 7b 50 3c b4 2e 4b 3d f0 fb c6 bd 1f 0c 8b bd
       0.012724706 0.049605086 -0.09716022 -0.06789421
000080 a9 c4 40 3d 24 09 81 bd ec 75 16 bc b0 b3 70 3c
       0.04706255 -0.063005716 -0.009183388 0.014691278
000090 e8 17 22 bd fb 43 fa 3b 83 10 54 bd 43 c4 8b bc
       -0.03957358 0.0076374984 -0.05177356 -0.017061358
0000a0 1d 7f ef 3c 21 9b 44 3d 65 bd c6 bc c2 18 cf 3b
       0.029235417 0.047999505 -0.024260232 0.00632009
0000b0 55 23 02 3d 35 c0 0c bd b0 34 e0 bc 83 1f 16 3c
       0.031771977 -0.03436299 -0.027368873 0.009162786
0000c0 59 37 06 bd 3e aa 08 bd 39 a4 2a bd 3a 8b 6b 3d
       -0.032767627 -0.03336548 -0.04166052 0.057505824
0000d0 76 b2 46 bd ef 4b 1c bd 28 7b 48 bd 8f c5 32 bc
       -0.048510037 -0.038158353 -0.048945576 -0.010911359
0000e0 fb 5c e4 bc 48 69 1f bc 3e e8 3c 3d 14 5f 10 3c
       -0.027876368 -0.009729691 0.04611992 0.008811731
0000f0 0e f8 89 bc 6d 41 f5 bc 05 1d 0b 3c bb 8a f0 3b
       -0.016841915 -0.029938424 0.0084908055 0.0073407567
000100 bf 4f 6b bd 04 8a 95 3c 50 26 82 3c 65 12 4c bd
       -0.0574491 0.018254288 0.01588741 -0.04982223
000110 0a c6 dc 3c 1c 25 f2 3c b0 de 5f 3c 00 09 d2 ba
       0.026949901 0.02955871 0.013663933 -0.0016024411
000120 d1 2c e2 bc 5b d8 3d 3d 22 a3 e1 bc fa f6 b0 3c
       -0.02760926 0.04634891 -0.027543608 0.021602143
000130 a1 83 69 3c a3 08 81 bd e3 41 8b 3c cf 73 7d bd
       0.014252574 -0.063004754 0.01699919 -0.06187802
000140 d6 a6 4e 3d 69 1b 70 3d 6b 33 76 3d b0 db b5 3c
       0.050452076 0.05861989 0.06010763 0.022199482
000150 96 cb 2b bc 32 f4 56 bd 64 cf 3f 3c 95 f6 c8 3c
       -0.01048555 -0.052478977 0.011707161 0.024531642
000160 af 07 17 bd e6 1b 8b 3d fe bb a0 3b a2 d3 31 3d
       -0.036872562 0.067924306 0.004905223 0.04341472
000170 7b e1 99 bc d1 67 f1 3c 85 6a 7a bd 0c 38 69 bd
       -0.018784275 0.029468449 -0.06113674 -0.056938216
000180 a7 7d 2d 3d 93 a5 3d bd 21 55 7a bd fa 9c 4e 3d
       0.04235616 -0.046300482 -0.06111634 0.050442673
000190 b8 9a 74 bd 84 c2 6c 3d a7 be 9f bc 5a de 43 3c
       -0.059717864 0.057802692 -0.01950009 0.011954868
0001a0 11 3a 0e bd 81 7d 92 3c aa 3c 18 3d 18 a3 00 3c
       -0.034723345 0.01788211 0.03716723 0.007851385
0001b0 4f e7 8a bd ec 39 0e bd 66 2d 65 bc 10 58 72 bd
       -0.067824 -0.034723207 -0.013987875 -0.059166014
0001c0 3c 78 6f bd d4 3a 0c bc c2 cb 35 3d 30 a1 8c 3c
       -0.058464274 -0.008558948 0.04438377 0.017166704
0001d0 0d 30 7c bd 75 67 6c bd 6b 4a 7d bd 7a b3 4d bd
       -0.061569262 -0.05771585 -0.06183855 -0.05021999
0001e0 3f 8b 93 3c 6b 57 7f 3a 5a 52 ea 3c 63 7f f0 3c
       0.018010734 0.00097405043 0.028603721 0.029357618
0001f0 88 47 1a bc 72 b2 37 3c c8 1b ab bc 85 09 4a 3d
       -0.009416468 0.011211978 -0.02088727 0.049325485
000200 5a 55 81 3c 3b c3 a9 bc 66 d8 fc bc 5f 48 2a 3d
       0.01578777 -0.020722976 -0.030864906 0.041572925
000210 0e e3 79 3d 16 e4 ac bd 88 51 c2 3c 33 88 8b 3c
       0.06100755 -0.084419414 0.023720518 0.017032718
000220 8a ab 6f 3d f8 de 42 bc 24 08 b5 bc 68 bc 6d bd
       0.0585132 -0.01189398 -0.022098608 -0.058041006
000230 d9 ba f6 bc ca 00 70 bd e0 86 98 bc 9e 8f 48 3d
       -0.030118393 -0.058594503 -0.018619 0.04896509
000240 68 05 63 bc 98 b5 73 bd 8d 59 60 bb 7e 91 78 bc
       -0.013856269 -0.059499353 -0.0034233064 -0.015171407
000250 ca 66 e2 3b 6e 54 0a bb d0 25 7d bd 66 3f 5f bd
       0.006909226 -0.0021107453 -0.06180364 -0.05450382
000260 e9 8b fd bc 31 57 7e bc d1 48 7a 3c 94 29 ef bb
       -0.030950503 -0.015523718 0.01527615 -0.0072986577
000270 4d 92 06 bd 3d ad 3e bd 38 f1 37 3b aa 45 66 bd
       -0.032854367 -0.04655193 0.0028067362 -0.05621878
000280 d1 f6 c2 3c e1 44 a3 bc c4 c6 92 bc c8 50 b9 bc
       0.023799332 -0.019930305 -0.017917044 -0.022621527
000290 09 8d 54 bc 94 f9 31 bd d8 fe 5d bd 42 f7 43 3d
       -0.0129730785 -0.043450907 -0.054198116 0.047843225
0002a0 7b 91 66 bc 9e b4 51 bd 54 f8 6f bd 7b a1 a9 3c
       -0.014072771 -0.05119764 -0.058586434 0.020706883
0002b0 ea 42 f3 bc f8 e0 60 bd b3 75 de 3c 1e 36 4b 3d
       -0.029694993 -0.054902047 0.027155733 0.049612157
0002c0 c8 c7 2c bd a3 36 8c bd e4 9e 55 3d b6 5a 61 3d
       -0.042182714 -0.068463586 0.052153483 0.05501815
0002d0 f2 98 5d bd ad a9 2c bd 40 35 50 3d a9 e1 9c 3c
       -0.05410094 -0.042154003 0.050832033 0.019150572
0002e0 47 4c 3a 3c c3 6b 8e 3b df 5c 5a 3d d8 e3 52 3b
       0.011370725 0.0043463423 0.053311225 0.0032179262
0002f0 30 44 f3 bc 28 ae db bb dd ab d3 3b 6d 78 d7 bb
       -0.0296956 -0.0067041107 0.0064596967 -0.006575635
000300 d8 85 1c 3d 57 d7 80 bb 7e b3 49 bc de 3b 2e 3d
       0.03821358 -0.0039319205 -0.012310861 0.042537563
000310 ec 8b 93 bc bd 7d 57 bd 8a 2e 7e bd 8b ba 53 bc
       -0.018011056 -0.052610148 -0.0620561 -0.012922893
000320 41 99 9d bd 30 63 83 bd cf e8 16 3d c8 bc b7 bc
       -0.076952465 -0.06415403 0.036843117 -0.022428885
000330 1c 7e a4 3c 3d f2 53 3d 5e c0 1b 3d c5 f9 da bc
       0.020079665 0.05174469 0.038025253 -0.026730428
000340 7e 32 37 bd ae b7 b3 bc fe 13 00 3d d9 40 d7 bc
       -0.044725887 -0.021938171 0.031269066 -0.026276039
000350 eb 1a 77 3c f2 1f 20 bd a2 a6 17 3d 9a ce 27 3d
       0.015082101 -0.039092965 0.037024148 0.040968515
000360 c0 0e 2a bd 89 49 c0 3c da e5 10 bd 64 3a e8 bc
       -0.041517973 0.023472564 -0.035375454 -0.028348155
000370 a7 a9 4e 3b 6f e8 0b 3d 22 a7 75 bd 4f b3 7c 3c
       0.0031534226 0.034157213 -0.059973843 0.01542361
000380 32 a7 d3 3c af bc 05 bb bf 8e c1 3c 68 01 2d 3d
       0.02583656 -0.0020406654 0.023627637 0.04223767
000390 47 27 99 bd f8 95 74 3d 47 e6 ac 3c 25 a6 1e bd
       -0.07478195 0.059713334 0.021105899 -0.038732667
0003a0 0e 4d 23 bd 28 6b cd 3c 3e 3b 09 bd 81 77 01 bc
       -0.039868407 0.02507551 -0.033503763 -0.007902027
0003b0 52 19 6d bd 0d 67 5b bc 44 cc 28 3d 20 ae e8 bb
       -0.057885475 -0.013391268 0.041210428 -0.0071008354
0003c0 bc 4b 0b bc 89 36 55 3a 2e d7 06 bd e4 16 d9 bc
       -0.008501943 0.00081334315 -0.032920055 -0.026500173
0003d0 ce 23 d3 3c 8e 3d 6c 3d 80 40 ee ba 66 21 b0 3c
       0.025773909 0.05767589 -0.0018177181 0.0215003
0003e0 70 f7 5b 3b 30 dd e7 ba f2 0f 31 3d dd d2 73 3a
       0.0033564232 -0.001768982 0.043228097 0.00093011354
0003f0 0c 67 a8 bc a0 1e b8 ba be b3 95 bd 4a c8 8f 3d
       -0.02055695 -0.0014047213 -0.07309674 0.07020624

linear2.bias f4 [256]
000000 e5 91 20 3d 6f bf 1e bf 99 f1 8d 3b 4a 5b f6 3d
       0.039201636 -0.62010854 0.004331779 0.12029131
000010 00 fe 5e b9 50 1d 21 bd 7c 34 fd 3c e7 cc 39 bd
       -0.00021266192 -0.039334595 0.030908816 -0.045361426
000020 e0 df 14 3b 14 6d 99 bb 1f 7a 9d bd 59 d3 70 3e
       0.0022716448 -0.0046821926 -0.076893084 0.23518123
000030 83 be 71 3d 86 89 ff 3d c1 a7 0e be 01 f6 4f 3d
       0.059019577 0.124774024 -0.1393118 0.050771717
000040 f0 de 08 3d 9f 75 fa 3d 53 ab 3c bb bd 5d fc bc
       0.033415735 0.12229466 -0.002878864 -0.030806417
000050 79 38 2a 3c 46 31 f6 3d 05 d6 02 bf a3 d3 96 bf
       0.010389441 0.12021117 -0.5110782 -1.1783336
000060 67 f3 57 3e 7b bf 3c bd 61 4c c0 bb 3c 50 ea bc
       0.21088944 -0.046081048 -0.00586848 -0.028602712
000070 cc 36 4e bd f0 c2 97 bc f9 1f 53 bc f1 b8 1e bf
       -0.050345227 -0.01852557 -0.012886041 -0.6200095
000080 2e 21 2c bd 7e f5 59 bd 5d 69 2a 3e 5c 37 55 bd
       -0.04202383 -0.053212635 0.16641755 -0.052054748
000090 02 87 0f bd a8 62 47 3d e8 36 a3 3c b0 e4 03 bd
       -0.035040863 0.04867807 0.019923642 -0.032200515
0000a0 40 9f ce 3e 8a 35 fc 3d 53 73 1f bd 9b 2e 50 bd
       0.40355873 0.12314899 -0.03892834 -0.050825696
0000b0 3d e2 cc bc 0b 20 ee bc 75 eb ab 3b b9 41 00 3e
       -0.025010223 -0.029068014 0.0052465745 0.12525071
0000c0 d0 b3 70 bc a7 c5 f7 3d 14 90 07 3f 04 6e 91 bc
       -0.014691308 0.12098246 0.5295422 -0.017752655
0000d0 0c d0 1d bd 24 b9 20 bf 57 f1 8f bc 7e a3 52 bd
       -0.038528487 -0.627825 -0.017571134 -0.05142545
0000e0 38 3d f1 3c c4 f0 ad bc 2a 1f 8c bc e7 7c 33 3d
       0.029448137 -0.02123297 -0.017104704 0.043820288
0000f0 46 64 d0 bb 80 93 81 bc 09 b1 d9 bc 78 73 05 bc
       -0.00635961 -0.015817404 -0.026573675 -0.008145206
000100 32 1e a8 bc de 24 46 3e 44 d8 49 3f 9e 77 df 3e
       -0.02052221 0.19350001 0.7884562 0.43645948
000110 ac 31 b9 bc 0c 74 e3 3d df 66 6d bc 8a 89 69 3d
       -0.022606693 0.111061186 -0.014489858 0.057015933
000120 0e 60 45 3d 12 d5 5a bd 8a 8f 20 3d 94 cd b7 3d
       0.048187308 -0.053425856 0.03919939 0.08974758
000130 de 65 d4 3e 11 dc 08 bf e0 f1 d5 3e f6 71 81 bc
       0.41483968 -0.53460795 0.41786098 -0.015801411
000140 63 d4 04 3d 77 16 c3 be 60 01 18 bb c8 af 71 3d
       0.03242911 -0.38103077 -0.002319418 0.05900553
000150 74 04 ea 3d 49 76 f5 3c 71 24 bf 3c 6f 13 c5 bc
       0.114266306 0.02996363 0.023332806 -0.024057118
000160 4b 66 32 3c 42 0f 90 3d db f4 27 3f 72 26 60 3e
       0.010888646 0.0703416 0.65607995 0.21889666
000170 80 f0 f9 3e 6a 3d cf be bf 75 50 3d eb 1f 08 bd
       0.488163 -0.40476543 0.05089354 -0.033233564
000180 7e 1d cc be 96 57 56 bd 41 de c1 3c 50 74 39 3c
       -0.3986625 -0.052329622 0.02366555 0.011319235
000190 60 ad 6a 3d 65 2d 0d bf 93 78 b4 b9 07 13 8a 3c
       0.05729425 -0.5514739 -0.0003442211 0.016854776
0001a0 03 29 22 bd 83 2e 8a 3e 44 6c 00 bf 03 a4 59 bd
       -0.039589893 0.2698861 -0.501652 -0.05313493
0001b0 78 f0 1b bd dc 90 a5 3e e0 7a 2d bd aa 5c ef 3b
       -0.038071126 0.3233708 -0.04235351 0.0073047476
0001c0 d7 c8 40 bf 75 de 04 3d 07 78 7f 3c 0c cc be 3c
       -0.7530646 0.032438714 0.015592582 0.023290657
0001d0 c6 bd 7f 3d d1 1a a9 bc 9a 52 8b 3e c1 47 92 3c
       0.06243684 -0.02064267 0.27211457 0.01785648
0001e0 12 0e 12 3d 99 a7 51 3f c0 dc 5b bd 38 7b f2 3c
       0.03565795 0.8189636 -0.05367732 0.02959977
0001f0 90 47 49 bd 2e 04 2c 3d 96 97 e0 3e fd 06 c7 3d
       -0.049140513 0.041996174 0.4386565 0.0971813
000200 98 1b 0a bd d2 89 dd 3d 89 89 9c 3c 0a 7c 83 bc
       -0.03371772 0.10817303 0.01910855 -0.016050357
000210 b0 85 0b bd 00 8e 2d 3b 6f 71 c8 3c b0 8c 0a bb
       -0.03406304 0.0026482344 0.024468152 -0.0021140985
000220 42 0e 25 bd 9f bc 69 bd e5 cd 25 3d 94 e6 dc be
       -0.0402968 -0.05706465 0.04047956 -0.43144667
000230 6b 29 71 3f 7d b1 f5 bc c7 00 50 3d 80 ae 42 3e
       0.94203824 -0.02999186 0.05078199 0.19011879
000240 74 fa 5c 3e ea 2a 2d bc ec 6e 50 bd d6 12 80 bd
       0.21579915 -0.010569314 -0.050887033 -0.06253593
000250 ae 82 22 3d 83 63 74 3d 69 e2 c7 3b f6 da 0d bd
       0.039675407 0.059665214 0.0060999882 -0.034632646
000260 e4 d0 94 bc 25 85 8d 3b f8 f0 2c 3c 0e 77 a3 3d
       -0.018166013 0.0043188506 0.010555498 0.07981692
000270 d3 61 27 bd a8 88 7e bd b6 55 ed 3d 0a 69 49 3e
       -0.040864777 -0.062142044 0.11588614 0.19668975
000280 2b 6a 35 3d 7d 99 9d bc a1 63 c4 bc 4a d0 60 bd
       0.044290703 -0.019238228 -0.023973288 -0.05488614
000290 a2 ce 8e 3f 82 2d f0 3d 3a b6 ad bd 8d 46 45 bd
       1.1156809 0.1172743 -0.084820226 -0.048162986
0002a0 4a 80 ab bd fc 57 8a 3d 46 42 1d 3d a2 c6 ce bb
       -0.083740786 0.06755063 0.03839328 -0.0063103
0002b0 62 a0 37 bd f2 c9 db 3c de 8e 02 bd 11 a1 97 be
       -0.044830687 0.026829693 -0.03187453 -0.2961507
0002c0 bb 41 9e 3c 14 92 5d 3d e9 50 4d bd 76 60 18 bc
       0.019318452 0.05409439 -0.05012599 -0.009300342
0002d0 51 cb 16 be 79 86 60 bd 00 95 13 bc 78 4b 6d bc
       -0.14725997 -0.054815743 -0.009007692 -0.014483325
0002e0 56 92 32 bd 71 f5 58 3e f3 da 02 3d 09 3e 60 bc
       -0.043596588 0.21187378 0.031947087 -0.013686665
0002f0 fa d2 a2 bd 25 dc fc be 58 35 28 3e 09 30 c1 3e
       -0.07950397 -0.49386707 0.16426599 0.3773196
000300 7e 21 77 3d 23 c4 9c 3d f9 26 43 3e 78 07 34 3c
       0.060334675 0.076545976 0.19057836 0.010988109
000310 a0 37 60 3e 5f b5 34 bf 02 cb 9d 3d 31 b9 cc 3c
       0.21896219 -0.7058925 0.07704736 0.02499065
000320 90 00 dd 3c 92 85 06 bd 68 c4 9f 3c eb b3 cc 3d
       0.026977807 -0.032842226 0.019502833 0.09995254
000330 3b 14 62 3d b3 c4 a1 3e 5d f0 07 bf 1f 14 8a 3d
       0.055195075 0.31595382 -0.5310114 0.06742119
000340 05 53 42 3c 9f 70 1a bd 7a b6 38 bc 68 c0 2f 3d
       0.011860614 -0.03770506 -0.011273975 0.042908102
000350 18 0d 2c 3c 89 f8 18 bc b0 6e 5d 3d d0 01 1c bd
       0.010501169 -0.009336599 0.054060638 -0.038087666
000360 82 9b 15 bd e8 d2 d0 3c d6 d8 c5 bc eb 18 1c 3d
       -0.036525257 0.025491193 -0.024151247 0.0381097
000370 c3 37 0e bf 20 d1 69 3b 4e da 36 bc 9c b4 2b bd
       -0.55553836 0.0035677627 -0.011160446 -0.04192029
000380 cf d6 de 3d 58 be d3 bc 61 a0 10 bd 0c b3 3c bf
       0.10880815 -0.025847599 -0.0353092 -0.73710704
000390 40 e1 72 bd a0 3e 11 bd 17 07 02 3d ea c2 1d bd
       -0.059296846 -0.035460114 0.031745043 -0.038515963
0003a0 2f db be 3d 1f 67 cd bc 31 07 ac 3c 84 da cb 3e
       0.0931915 -0.025073586 0.020999523 0.39815152
0003b0 0b bb ec bc 0c ed 26 3f 92 6b 07 bf a0 4b 3e 3c
       -0.028897783 0.65205455 -0.52898514 0.01161471
0003c0 a4 df bf 3d a4 38 09 bf fc c7 5c 3d a4 ed 97 3c
       0.09368828 -0.5360205 0.053901657 0.018545933
0003d0 5f 06 1c 3d 55 9c 41 be 0f 72 36 3c 37 70 b9 3c
       0.038092013 -0.18907292 0.011135592 0.022636516
0003e0 d9 0c 22 3f 00 ed f7 39 02 38 09 bf 73 65 1e be
       0.63300854 0.0004728809 -0.53601086 -0.15468387
0003f0 ae 24 4c 3d 84 23 8e bc 36 0c 1a bf a4 12 c7 3e
       0.049839668 -0.01735092 -0.6017488 0.3888141

linear4.weight f4 [256, 256]
000000 a5 9b f8 3c 3c be 5b 3d 27 d5 55 3d e6 75 36 bd
       0.030347655 0.05364822 0.05220523 -0.04454603
000010 8c e8 17 3d 14 bf d1 bc c5 0b 3f 3d 77 20 80 3c
       0.03708701 -0.025603808 0.046642084 0.01564048
000020 c3 54 6f bd 4b 22 5c 3d 42 d9 b8 3c 7d da 92 3c
       -0.058430444 0.05374364 0.022564534 0.017926449
000030 f3 f9 d2 3c c4 d8 82 bc 13 b1 5e bd 71 6c 01 bd
       0.02575395 -0.015972503 -0.05436809 -0.03159756
000040 68 f2 2d 3d e0 77 19 bd e8 b7 9f 3c e9 42 34 bd
       0.042467505 -0.037467837 0.019496873 -0.044009123
000050 f9 20 81 bd aa 54 1d 3d fe 69 49 bc 66 f4 00 3d
       -0.06305117 0.03841082 -0.012293337 0.031483077
000060 af 56 d5 bc b0 1e 1a 3d 5e 67 1e 3d d4 8f 35 bd
       -0.02604231 0.037626922 0.038672797 -0.04432662
000070 c0 e6 89 bc 44 5e 74 bd d0 ea d0 bc 35 c5 71 3d
       -0.016833663 -0.05966021 -0.025502592 0.059025962
000080 d6 5c 63 3d 70 80 8f 3b 0a 62 38 3d 1a e6 4c bd
       0.055508457 0.0043793246 0.045015372 -0.05002413
000090 10 8a 63 3c 1e 7c 52 bd 1b 5d 9c 3c a0 7b 6f bc
       0.013887897 -0.0513879 0.019087365 -0.014616877
0000a0 69 bd eb 3c 3f 24 4f bc e0 d0 b1 bb 71 6c 5b 3d
       0.028776841 -0.012642919 -0.005426511 0.053570215
0000b0 6c b4 24 3c e2 f4 9b 3b 3b 63 d4 3a e4 d3 1c 3d
       0.010052782 0.004759417 0.0016203889 0.038288012
0000c0 0d cf 4d 3a fd ca dc 3c 35 9d 84 bd 99 03 65 3d
       0.00078509824 0.026952261 -0.06475297 0.055911634
0000d0 00 02 df 3c 7f 0e a6 bd 14 84 2c 3d 8d ca 93 3b
       0.027222633 -0.08108234 0.042118147 0.00451023
0000e0 38 d9 03 bd f4 81 d6 bc 33 c9 67 bc ee 6a b8 bc
       -0.032189578 -0.026185013 -0.014147091 -0.022511926
0000f0 d1 b8 46 bc 40 4d ca bc 1e d0 6e bb 0c fc c4 3c
       -0.012129025 -0.024695039 -0.0036439965 0.024045967
000100 e7 bd a8 3a 74 06 85 bd c0 60 04 be 28 3f 75 bc
       0.0012873978 -0.064953715 -0.12927532 -0.014968671
000110 a7 94 03 3d f7 d9 f4 3d 01 c4 84 bc 54 8c c3 bc
       0.032124188 0.11955636 -0.016206743 -0.023870625
000120 8d c9 63 bc f6 35 12 bd a0 0b 26 3d 40 89 d7 3c
       -0.013903034 -0.035695992 0.04053843 0.026310563
000130 2d cf 60 bd 80 f4 9d bb cc ca 86 bd 4d 74 37 bd
       -0.05488508 -0.0048204064 -0.06581649 -0.044788647
000140 9a 9e 69 bd 16 c6 77 3c e0 d8 f3 bc 90 a8 e3 bc
       -0.05703602 0.015122911 -0.0297665 -0.027790338
000150 75 7e 99 3c d2 b0 45 bc 9f 25 0c bc 8d d1 dc bc
       0.018737057 -0.012066083 -0.008553891 -0.02695539
000160 e6 85 36 3d ac cb d6 3c 05 e2 ba bd 77 b1 b1 3c
       0.04456129 0.026220165 -0.09125141 0.021691067
000170 17 fe 73 bc c0 86 7c 3c fa 54 1a 3d cb a5 f0 bb
       -0.014892123 0.015412986 0.037678696 -0.007343983
000180 2d 79 55 3d dd 27 9f 3c b8 2c ab 3c f8 cd 55 3c
       0.052117515 0.019428188 0.020895347 0.013049595
000190 0b a7 6b 3c 2f 66 97 3d 8e 41 4a 3d e0 27 3c bd
       0.014383088 0.07392537 0.049378924 -0.045936465
0001a0 fd 74 81 bd e4 49 42 bc b6 64 2f 3d 5b 46 33 3d
       -0.06321142 -0.011858437 0.042820655 0.043768268
0001b0 a4 50 dd 3c 9c 86 35 bb a3 64 c6 3c 44 f9 f4 bc
       0.027015992 -0.0027698642 0.02421791 -0.029904015
0001c0 24 65 47 3c f8 af 41 3d da f5 0a bc a0 5b 74 3b
       0.01217011 0.047286958 -0.008481467 0.0037286058
0001d0 b0 cc 0d bc 72 b1 68 bd b3 29 52 3c 14 5d c5 3c
       -0.008654758 -0.05680985 0.012827325 0.024092235
0001e0 a8 f3 b6 bc f8 7f 07 3d 38 b4 eb bc 66 70 44 bd
       -0.022332981 0.033081025 -0.028772458 -0.047958754
0001f0 18 27 ca 3c fa 0c d4 bc c5 6b 95 bd 90 a4 21 bd
       0.024676844 -0.025885094 -0.07295946 -0.03946358
000200 84 d8 fb 3c db 42 6d bd 87 58 5e 3d 8d 1e 33 bd
       0.030742891 -0.057925086 0.054283645 -0.043730307
000210 38 6a 37 3c 04 d0 9c 3c ad 2f dd 3b b0 0b 6b bd
       0.011194758 0.019142158 0.006750068 -0.057384193
000220 a2 b3 55 3d 53 ff 33 3d 1c e3 9f bc 22 30 49 3c
       0.052173264 0.043944668 -0.019517474 0.012279542
000230 7b a3 70 be 71 95 45 3b ae 74 5d 3d 3f 3e f3 bc
       -0.23499863 0.0030148888 0.054066353 -0.029692767
000240 72 f5 64 3d 54 e2 80 bc 06 76 5e 3d cf c6 3e 3d
       0.055898137 -0.015732922 0.054311775 0.046576317
000250 0b 98 9c 3c 0d b5 29 bc 47 00 59 bd 6e 05 45 3d
       0.019115468 -0.010358107 -0.05297878 0.04810088
000260 d9 66 95 3c 79 81 11 3c 22 84 68 3d 81 6a c3 3c
       0.018237518 0.008880966 0.056766637 0.023854496
000270 8f 28 a5 3c e4 86 f9 bc 0a 29 54 bd 05 c0 96 3c
       0.020160941 -0.030459829 -0.05179695 0.018402109
000280 97 00 26 3d 16 3e 44 3d 18 fc c0 bc 40 8f 9e bb
       0.040527906 0.047910772 -0.023557708 -0.004838854
000290 02 58 4b be 00 ea fe 3c 4e 83 87 bd 15 f5 35 bd
       -0.19857791 0.03111744 -0.06616841 -0.04442318
0002a0 41 f8 bd 3c 37 19 25 3d dd 70 3e 3d 38 b4 33 bb
       0.023189666 0.04030725 0.046494354 -0.0027420651
0002b0 e4 5a d0 3c ac 35 76 bd e4 71 53 bd 01 db c3 bc
       0.025433965 -0.06010978 -0.051622286 -0.02390814
0002c0 ae 1c 9b 3c dc df f7 3c 0a d1 78 3d 3e 34 58 3d
       0.018934574 0.030258112 0.06074623 0.052784197
0002d0 1a 56 5f 3d 61 ee 31 bd 66 66 77 bd a8 5f de bc
       0.054525472 -0.043440226 -0.06040039 -0.027145222
0002e0 d4 3d 47 3d 0a e8 36 bd 3b ca 29 3c ed ce 70 bc
       0.04864295 -0.044654883 0.010363157 -0.014697772
0002f0 93 df 79 3c ac da 23 3d 2c 7b b0 bb 40 4f 1d bd
       0.015251058 0.040003464 -0.005385777 -0.038405657
000300 9c 12 03 3d eb db d1 3c 24 55 ab bc 8a 9e 70 3d
       0.03200017 0.02561756 -0.020914622 0.058744945
000310 9d f2 b1 bc 5f fa 6a bd e2 92 2a bd 7a 10 02 bc
       -0.021722132 -0.05736768 -0.041643985 -0.007938499
000320 b1 c2 c9 3c 92 5e 48 3d 7e c1 78 3d 97 77 b6 bc
       0.024628969 0.048918314 0.060731404 -0.022273822
000330 86 12 64 3d df 76 50 bd f8 f6 1b bd 64 d7 66 3d
       0.055681728 -0.050894614 -0.038077325 0.056357756
000340 34 8b 59 3d af d9 7f 3d ae 0c 58 bd bd 1b 4b bd
       0.05311127 0.06246346 -0.052746467 -0.049587
000350 fa a4 25 bd 46 dc 04 bd b4 52 c6 3c 8e c0 80 bd
       -0.040440537 -0.03243663 0.024209358 -0.06286727
000360 61 b1 95 ba 1c 9f c5 bc d8 ba 34 3d a5 5d e6 3c
       -0.0011420661 -0.02412372 0.0441235 0.028120825
000370 31 45 08 bd 34 76 d5 3c 96 a2 9c 3c c3 95 c3 3c
       -0.03326911 0.02605734 0.019120496 0.023875123
000380 dc eb d6 3c b1 8b 09 3c bd a6 2f 3d bb 82 54 bc
       0.026235513 0.008395121 0.042883623 -0.012970622
000390 00 81 d3 bc 60 9e 33 3c 5b 5f 15 3d 00 cd 0a ba
       -0.025818348 0.0109630525 0.03646789 -0.00052948296
0003a0 ec 45 51 bd 25 49 3a 3d 22 18 35 3d c6 3b 9e bc
       -0.051092073 0.045479912 0.044212468 -0.019315612
0003b0 74 80 9a bc 5f 7e 1e be 8b 6d 6b bd 54 08 7f bd
       -0.01886008 -0.15477894 -0.057477515 -0.0622638
0003c0 24 03 01 3c d6 13 85 bd fc 73 e4 3c 45 8e d6 3b
       0.007874284 -0.06497924 0.027887337 0.0065477216
0003d0 6f 9b f4 bc 9e d6 18 3d f9 b1 16 bd 5f f7 5a bd
       -0.029859273 0.03731405 -0.03679082 -0.053458568
0003e0 91 3a f1 bc 18 de 31 3c 35 9a 02 bd 14 f3 95 3c
       -0.029446872 0.010856174 -0.031885345 0.018304385
0003f0 eb ed f2 3b c8 5a 29 bd 5e 90 a1 bc 0d 26 ea bc
       0.007413616 -0.04134634 -0.01972216 -0.028582597

linear4.bias f4 [256]
000000 34 b4 be be 48 ce d6 bd 1f 6d 88 be 5b cb 60 3d
       -0.3724686 -0.10488564 -0.26645753 0.054881435
000010 70 e2 0a be 1a 56 12 bd b2 15 a8 3d 01 18 b8 be
       -0.13562942 -0.035726644 0.08207263 -0.35955814
000020 2c 20 eb 3e 46 31 38 3f 70 fa 4e 3e 29 10 4d bc
       0.45922983 0.71950185 0.20212722 -0.01251606
000030 00 5f d3 be 46 25 af 3e 1a f6 ac bc e8 b6 02 3f
       -0.41283417 0.34208125 -0.021113444 0.5106034
000040 b5 ec 88 3e 64 7a e3 3d 0b 86 34 3d fd 35 a7 3d
       0.26743093 0.111073285 0.044073146 0.08164594
000050 36 a9 3e bd ba 0c e8 be 75 ba 9c 3d b0 96 0f 3f
       -0.04654809 -0.4532221 0.07652751 0.56089306
000060 76 78 aa bd 19 cb 12 bc a3 76 67 bd a3 47 33 3f
       -0.08323757 -0.008959555 -0.056509625 0.70031184
000070 ad af 92 3e ec 73 6a bf 49 83 ee bc 66 23 57 3f
       0.28649655 -0.9158313 -0.029115336 0.8403839
000080 0f 0c 69 3f 59 36 8a 3c a5 d6 03 bf ae b9 e4 be
       0.91034025 0.016871618 -0.51499397 -0.44672912
000090 4b 2b 0e bd 79 85 be bd 03 e0 49 be 65 6d 52 3f
       -0.034709256 -0.09302802 -0.1971436 0.8219817
0000a0 ce 58 2b 3f bf 43 96 3e 57 04 10 3f 4d 80 67 bd
       0.6693238 0.2934856 0.5625662 -0.05651884
0000b0 e3 78 26 be af 23 ae bd 93 99 d8 3d db 85 3d be
       -0.16257052 -0.085029 0.10576167 -0.18508093
0000c0 d5 65 ac 3e 28 e4 22 3f 35 f0 fe 3c e3 16 2b be
       0.33671442 0.6362939 0.031120399 -0.1670795
0000d0 6a 77 18 3e 18 c3 d7 3e 1a 28 ed bd 22 20 a0 bb
       0.14889303 0.42141032 -0.115799144 -0.004886643
0000e0 e4 a1 99 bd fb 89 03 3f e6 31 16 3f 96 9d df be
       -0.07501581 0.51382416 0.5866989 -0.43674916
0000f0 e5 52 b8 3e b4 3b dc 3a 38 3a f0 bd 8e 61 39 3f
       0.36000744 0.0016802461 -0.11729854 0.7241448
000100 e3 85 99 bb 85 f7 03 3f 5b 60 24 bf a6 e0 d5 3e
       -0.00468515 0.5154956 -0.64209527 0.41772956
000110 47 57 ca be 7f c9 f6 3d 1f 3e df be 2b ab 72 bd
       -0.39519712 0.12050151 -0.43602082 -0.05924527
000120 2d 4c c0 3e 7f 41 87 3e eb 54 3f bf ed 00 df 3e
       0.37558118 0.26417157 -0.7473895 0.43555394
000130 1f ca ee 3e 74 e9 1b be a5 c0 12 3f 89 dd f4 3b
       0.4663858 -0.15225774 0.573252 0.007472698
000140 7d 1f aa 3d c4 c0 29 3f 0b ce 6c be 47 46 eb 3e
       0.08306787 0.6630976 -0.23125474 0.45952055
000150 e0 01 6c bd 9c c5 32 3e 19 92 c6 3e 67 bc 8c 3e
       -0.057618976 0.17458194 0.3878334 0.2748749
000160 9a 99 32 be 52 9f bc 3e a5 7f b5 3e 04 aa cf bd
       -0.17441407 0.36840302 0.35448948 -0.1013985
000170 f2 d7 e4 3e dc ff 95 3d 45 0c 0d bf 11 27 9b bd
       0.44696003 0.07324192 -0.55096847 -0.07575811
000180 c4 ea 0c 3f a8 73 d3 3e d6 42 bf bd b8 33 5f bc
       0.55045724 0.41299176 -0.0933892 -0.013623171
000190 4b bb d9 bc 7b 65 ec 3e dd 5d 9e 3e 98 fa 2f bd
       -0.026578566 0.46171173 0.30930987 -0.042963594
0001a0 03 2c b4 3e 9f 5c 8d bd e0 da 0e bf 3e a7 35 bd
       0.35189828 -0.06902432 -0.55802727 -0.044348948
0001b0 0c 56 66 3e 39 f6 dc bd 1b 2a 19 bf c7 e0 c1 be
       0.22493762 -0.10789151 -0.5982987 -0.37866804
0001c0 4c 20 1c be 31 5a 18 3f da 60 95 3e aa e0 1c 3d
       -0.15246695 0.5951262 0.29175454 0.038300194
0001d0 e4 af c2 bd f1 71 02 be 64 1d 46 bd 78 ae 0e bf
       -0.09506205 -0.12738778 -0.048367873 -0.5573497
0001e0 ac 51 05 3c 9f 4e d9 3e 52 b8 b3 be 14 2f 15 3f
       0.008137148 0.42442796 -0.35101563 0.5827496
0001f0 d3 bd 20 be 6a 4a 1a bd e5 87 40 be f1 bd 0e 3f
       -0.15697412 -0.037668623 -0.1880184 0.5575858
000200 23 a9 08 3f 04 bf bd bd b1 82 3e bf 2b 13 e8 3e
       0.5338308 -0.09264949 -0.7441817 0.45327124
000210 86 8c 34 bf 0a ab 2e 3d 27 61 19 bb 17 9d fe 3e
       -0.7052692 0.042643584 -0.0023403855 0.49729225
000220 f3 bd 31 3e 72 1f da 3e 50 b4 8c 3c 9c fe e3 bd
       0.17357616 0.42602116 0.017175823 -0.11132547
000230 ce 12 15 3f 86 d3 fe 3e c4 70 25 be 41 57 f8 3e
       0.5823182 0.49770755 -0.16156298 0.4850407
000240 83 30 97 3e fe e9 28 be 5f 1a e6 3e ab 54 52 bc
       0.295292 -0.16495511 0.44941995 -0.012837569
000250 81 7e 15 bd 4e 71 3d bf a4 85 71 3f 54 b2 d2 3d
       -0.036497597 -0.74001014 0.94344544 0.1028792
000260 76 83 14 bf 28 97 d4 3e 2b 4b 68 be d4 b9 3c 3f
       -0.58013093 0.41521573 -0.22684924 0.7372105
000270 b1 c3 af bd fe 7f 11 3f 9c c0 25 3f 1e 2e f4 bc
       -0.08582247 0.56835926 0.64747024 -0.029807147
000280 1c 57 b4 bd 90 7d 99 3d 6c 69 28 3f d4 b1 0b 3f
       -0.08805677 0.07494652 0.6578586 0.5456822
000290 1a e7 3b bf 32 43 1e 3e 82 7e 08 bd b7 b2 75 be
       -0.7339951 0.1545532 -0.033323772 -0.23993956
0002a0 a9 1c 13 3f 99 d0 c3 be f8 15 15 3f ee e8 cc 3e
       0.57465607 -0.38245085 0.58236647 0.4002146
0002b0 a4 b4 90 3e 43 33 e6 be b2 dd ea be 2c 41 8f bd
       0.28262818 -0.44960985 -0.45872265 -0.069948524
0002c0 ac 9e 02 bd 03 89 a1 3e 53 24 a4 3b 8d a3 4f 3f
       -0.031889603 0.31549844 0.005009213 0.81108934
0002d0 f2 f1 cd be e5 d5 ce bd b8 16 0c bf 6b bc 5a be
       -0.40223652 -0.10099391 -0.54722166 -0.21360938
0002e0 c9 01 22 bb ed 92 a3 be 54 67 09 bf f8 4e 14 3f
       -0.0024720302 -0.31948033 -0.5367329 0.57932997
0002f0 32 3c 84 3e 4f ac 4b 3f 39 a4 4a 3e fc 27 4d 3e
       0.25827175 0.795598 0.19789208 0.20034784
000300 4d ba a5 bc 0d af f6 be 72 11 09 3d 6b 8a 21 3f
       -0.020230437 -0.48180428 0.033463903 0.63101834
000310 14 a9 2f 3f 09 d4 ef 3c 15 b7 08 bf 25 51 71 bc
       0.6861737 0.02927591 -0.5340436 -0.014728819
000320 d4 28 c3 3e 73 eb fe 3e 0f d3 cf bb e2 67 ee 3e
       0.38117087 0.49789008 -0.006342299 0.4656363
000330 b3 13 b1 3e 4c 79 5c bf 80 27 05 3f 21 f3 7d bd
       0.34585342 -0.86122584 0.520134 -0.061999444
000340 e5 83 80 3c 6f c2 99 be a4 7b 79 be 9c 67 81 bd
       0.015687892 -0.30031154 -0.24363571 -0.0631859
000350 f2 cb 68 bc df 59 4a bf 02 e2 6d bc ce 3d 1c 3f
       -0.014208781 -0.7904338 -0.0145192165 0.61031806
000360 dc 5c c4 3e a3 75 ee bb 83 ca 86 bd e6 60 18 3f
       0.38352096 -0.007277207 -0.06581595 0.59522855
000370 90 ec ba 3e b9 d5 b9 3e 08 e0 0d 3f 00 b5 85 3c
       0.36508608 0.3629587 0.5541997 0.01632166
000380 47 68 3e be 7b a9 ca bd cd 9a 7c be 0e 7d ea bd
       -0.18594466 -0.09895607 -0.24668427 -0.114496335
000390 df 76 bd be b6 65 34 bf 9d 0d 3f 3e 77 ca 06 bf
       -0.37004754 -0.704677 0.18657537 -0.52652687
0003a0 27 d4 37 3e 76 4a 3f 3f 22 3f e6 3e 39 c6 bd 3d
       0.17952023 0.74722993 0.44970042 0.092663236
0003b0 27 47 49 3e 55 2b d5 3e 97 df 63 bd cb 8d db 3e
       0.19656049 0.41634622 -0.055633154 0.42881617
0003c0 a4 ed 71 3e 2b be 15 be 09 c3 a5 3e ab 80 e2 3c
       0.23625809 -0.14623325 0.32375363 0.027649244
0003d0 8c d1 27 bd 82 f1 15 3f 47 11 15 3f 92 b2 41 3f
       -0.040971324 0.58571637 0.5822949 0.756631
0003e0 55 86 20 bf b4 0b 07 3f 76 5b 31 be 86 8a 9d 3e
       -0.62704974 0.5275223 -0.17320046 0.30769747
0003f0 77 99 60 3d 73 0f 80 be d8 48 bf 3d 3a fa 54 3e
       0.054833855 -0.25011787 0.09340066 0.20798579

linear3.weight f4 [1, 256]
000000 b4 db 98 3d bc 94 8c 3d b0 63 31 3d 05 b1 5a 3f
       0.0746378 0.06864306 0.04330796 0.8542636
000010 57 27 17 be 3d f7 1e 3d fa 74 a9 bc e7 30 f8 3d
       -0.147611 0.038810004 -0.020685662 0.121187024
000020 68 ac 1a 3e a2 8a 9c 3d 40 83 53 bd 27 d3 86 3e
       0.1510483 0.076436296 -0.05163884 0.2633297
000030 98 6d a4 3c 88 b0 ff 3e ca 1a 72 bd 51 9c 08 3e
       0.02007179 0.4993937 -0.05910758 0.1334088
000040 6c 68 18 bd b9 10 e7 3e 84 d1 f1 ba ca 69 a9 3e
       -0.03720896 0.45129946 -0.0018449281 0.33088523
000050 3e 0b 87 b9 cb b8 d3 bc b1 22 96 bc 49 e9 8f bd
       -0.00025757583 -0.025844952 -0.018327089 -0.070269175
000060 f9 c8 02 bd 43 f0 95 bd 27 a9 42 3b 8b dd 17 3e
       -0.031929944 -0.07321217 0.0029702873 0.14830606
000070 92 a7 cb bd 42 29 b6 3e b7 4c 30 3f c9 97 dd 3d
       -0.09944071 0.35578352 0.6886706 0.10819966
000080 51 f4 4a 3e 2d 42 80 be be 3d 62 3d c8 bf ab 3d
       0.19819762 -0.25050488 0.055234663 0.08386189
000090 48 23 02 be 8a fd 02 3e 11 2a 0e 3e 1f 17 6d 3e
       -0.12708771 0.1279203 0.13883235 0.23153351
0000a0 66 54 32 3e 24 0e 31 3d 3b 3e 7e 3e 98 d5 5a 3a
       0.17415008 0.043226376 0.24828427 0.0008347868
0000b0 9c 8c fb be c7 6a 22 be d7 fa ad bb fb 7d ba be
       -0.49130714 -0.15861045 -0.0053094435 -0.3642424
0000c0 86 97 94 bd 5b 64 e4 3d 74 c5 75 ba d3 81 91 bc
       -0.07255463 0.11151954 -0.0009375431 -0.0177621
0000d0 fb 08 f5 bd 2c 84 81 bd b9 b5 55 be 4f 5b 74 3c
       -0.119646035 -0.06324038 -0.20870103 0.014914348
0000e0 08 4d 32 3e 20 ab 84 3e 9f 17 fb 3d cd e3 f6 3d
       0.17412198 0.25911808 0.12260365 0.12055168
0000f0 17 c3 b6 bd 6c 48 f0 bd f2 5c 15 be de ac 2a 3e
       -0.08923929 -0.117325634 -0.14586237 0.16667506
000100 68 c1 19 3d 28 fb 81 3d 3d 20 53 3e a3 9f 69 bd
       0.037537962 0.063467324 0.20617767 -0.057037007
000110 ae 38 f8 bc f2 79 6e be b6 cf 57 be 2c a0 17 3d
       -0.030300464 -0.23288706 -0.21075329 0.037017986
000120 1b f4 20 3f 87 af 46 bd 3e b8 20 be dd dd 11 be
       0.62872475 -0.04850724 -0.15695283 -0.1424479
000130 e8 e0 6c 3e 0d 44 50 be 17 fb eb 3d 15 ab f0 ba
       0.2313267 -0.2033846 0.11522501 -0.0018361533
000140 42 4a 72 3f 40 b9 b7 3d f2 26 87 bd cc d6 35 3e
       0.9464456 0.089708805 -0.06599225 0.1775772
000150 e5 f4 57 be fd 48 92 be 8d 87 ec 3e 34 a0 6c 3e
       -0.21089514 -0.2857131 0.46197167 0.23107988
000160 ff 1f 2b bd bb 06 8b bd 20 51 78 3c 31 9b bc 3d
       -0.04177856 -0.06788393 0.01515606 0.09209288
000170 29 a9 09 3d 7c b6 72 bc 9c 57 e0 3c a0 ff 93 3c
       0.03360859 -0.0148140155 0.027385525 0.018066227
000180 9c 6b 0f 3d 43 f4 93 3e 5e 63 f8 be 18 a3 65 bb
       0.035014734 0.28897294 -0.4851331 -0.0035039838
000190 16 17 02 ba 2e 49 27 3f cf 58 40 bc 20 1e 62 3d
       -0.00049625465 0.6534604 -0.011739924 0.05520451
0001a0 7b 0a b0 3e 15 78 06 3b 79 1a d3 3d 3a 32 73 ba
       0.34382996 0.0020518352 0.10307784 -0.00092771987
0001b0 dd b1 54 3f 58 4d 1e 3e ec 54 8e be 56 03 1b be
       0.830839 0.15459192 -0.27799165 -0.15137991
0001c0 96 7f 13 bd f5 ef 56 3d f3 24 bd 3d 93 fb 67 bd
       -0.036010347 0.052474935 0.09235563 -0.056636404
0001d0 6d 30 d8 3d 97 20 e7 be 55 a1 c0 3a 33 3f 35 c0
       0.105561115 -0.45142052 0.0014696518 -2.8319824
0001e0 22 50 24 bb 36 55 92 3d 21 7f 92 3e 38 38 0e 3e
       -0.0025072177 0.07145159 0.28612617 0.13888633
0001f0 b8 a0 02 be 04 61 0b bb 4e 9a de bc 34 6f e4 3d
       -0.12756622 -0.0021267543 -0.027173188 0.11154023
000200 4f 4d 57 3e e6 73 8e bb d8 f3 49 3e fe d4 3d 3d
       0.21025585 -0.0043473123 0.19721925 0.046345703
000210 a2 58 af bd 35 ab 78 3b 54 21 03 3a db 9d 11 bd
       -0.08561827 0.0037943844 0.00050022197 -0.035550933
000220 d1 6a c8 3e 40 e7 28 3e 52 7b 0d 3b 67 c2 01 3c
       0.39143994 0.16494465 0.0021588397 0.007919884
000230 37 52 45 3d ca 7d ac 3e 43 f6 c6 bd 9d 20 2c 3f
       0.04817411 0.3368972 -0.097149394 0.67237264
000240 ab fe fb 3e 0b ba a2 3d 93 99 2f 3f 01 f8 61 ba
       0.49217734 0.07945641 0.6859371 -0.00086200243
000250 f5 95 03 3f 65 35 9f bf 2a 3a 72 3e b1 e3 2b bd
       0.5140069 -1.243817 0.23655 -0.04196519
000260 40 a9 45 3d 83 19 25 3c e8 f8 55 3e 7b 94 8c 3d
       0.048257113 0.010076883 0.20895731 0.06864258
000270 b5 ec 5e 3f e7 bb cb bd 80 cd 31 3d ac 1d f8 ba
       0.87079936 -0.09947949 0.04340887 -0.0018929741
000280 4e 33 f2 ba a1 44 b4 3c 0a 8d 6e 3d d7 92 0c 3e
       -0.0018478425 0.022005381 0.058239974 0.1372789
000290 44 14 2f be dd 83 fc 3e 85 85 2a 3d fd a3 c3 3c
       -0.17097574 0.49319354 0.04163124 0.023881907
0002a0 8d fb 0c 3d c0 00 96 3d 6b 48 a4 3e 38 95 04 3f
       0.034419585 0.07324362 0.320865 0.5179019
0002b0 53 76 06 3f e6 af 8e be ff 7a 7b be 92 b7 2e 3c
       0.525243 -0.27868575 -0.24558638 0.010663884
0002c0 f1 1b b3 b9 93 f5 e0 3d bc da fd 3b 00 c1 bc 3e
       -0.00034162358 0.109843396 0.0077470224 0.36865997
0002d0 ea cd 5f bf 84 c6 11 3c 7d 06 45 3d 7f 79 2b 3f
       -0.87423575 0.0088974275 0.04810189 0.66982263
0002e0 d5 4f f7 bc 3f d6 81 3e 47 cb 0a 3d df 2a 2f 3d
       -0.030189434 0.2535877 0.033885267 0.042765494
0002f0 72 bc 59 be ac 4a 89 3e 16 ff b7 3d fc cc 31 be
       -0.21263292 0.26814783 0.08984201 -0.17363352
000300 38 4b 37 bd 44 d5 d4 3d 09 dc 02 be 18 2a a2 3e
       -0.04474947 0.1039224 -0.12779249 0.3167274
000310 b1 b6 27 be c8 ad aa 39 7a 60 25 3d 9b 49 cc bd
       -0.16378285 0.00032554404 0.04037521 -0.09974977
000320 07 32 16 3f 51 7a 19 be f7 3a 15 3c 1a 5c 9f 3e
       0.58670086 -0.14988066 0.009108297 0.31124955
000330 51 7a ac 3e 44 61 5d 3e 65 4c 02 3d 5d f5 8b 3d
       0.3368707 0.21619135 0.031811137 0.06833909
000340 e0 9d 47 3c 2b be f1 bd 61 a4 c2 3d 13 f9 1c 3b
       0.012183636 -0.1180385 0.09504009 0.002395217
000350 60 bd e2 bb 85 71 83 3e 87 dd 9a b8 e8 97 19 3e
       -0.006919548 0.25672546 -7.384555e-05 0.14999354
000360 fb 4b 85 3f 9d 21 25 be 4c 38 f3 b9 11 82 1e 3d
       1.0413812 -0.16126104 -0.00046390516 0.03869826
000370 6d 85 0e 3f 16 1e c4 bc 3a 86 ef 3c 55 83 01 3c
       0.5567234 -0.023940127 0.029238809 0.007904847
000380 47 68 b4 be 16 76 8b 3e 4f d9 8f 3e 05 c9 fe 3d
       -0.35235807 0.2723853 0.2809548 0.12440685
000390 07 f7 85 be 55 97 34 c0 97 92 3e 3e 28 7e 55 bd
       -0.2616503 -2.8217366 0.18610607 -0.052122265
0003a0 30 85 3a 3e e7 90 91 3d 12 4f a7 3e b0 f1 7a bd
       0.1821487 0.07107716 0.32677513 -0.061265647
0003b0 7a c5 8e 3e 0f d0 6f bd 04 b7 4d 3e 3a 11 b6 3c
       0.27885038 -0.05854803 0.20089346 0.022225011
0003c0 03 f8 6d 3f 2c fe 5e 3e 73 ed fa 3e 1e 49 40 bb
       0.9295656 0.21776646 0.49009284 -0.0029340456
0003d0 63 01 c9 3c a9 82 24 3d 5f 65 06 3e a3 2c 60 3e
       0.024536794 0.04016367 0.13124608 0.21892028
0003e0 e1 ec 5d be aa 01 cb bd c9 77 aa bd 7c ff e0 be
       -0.21672393 -0.09912427 -0.083236285 -0.4394492
0003f0 9e 20 fa 3a 61 b9 d8 bc d3 ff 92 bc 33 e2 17 bf
       0.0019083207 -0.026455583 -0.017944252 -0.5932953
