outputs/Optimal_Control/20220324-194121/models/checkpoint.pt (torch, 533487 bytes, 7 tensors)

linear1.weight f4 [256, 2]
00000000: 60a3 b2bc 5205 dcbe b98e 3d3e 99c6 9bbd
00000010: 3154 ee3e e7a6 043f 13fd cf3e 160d d3bd
00000020: d050 83be c4ff 283f c01e 29bc 4ce7 17be
00000030: 87f4 77bd e278 c23e 3694 2a3f fae5 b23e
00000040: f32d 33bf 1e62 23bf b331 d43e 95d9 a9be
00000050: 6b60 c73e cdb6 cfbd 2ae5 69be 8c4f 43be
00000060: eaa7 ffbe ab77 0c3f ea14 103f 297a 16bf
00000070: d34c fa3e 2c25 c4bc 08aa e0bd 5667 2fbf
00000080: 5ce8 2e3f a0b5 eebe cc9a 2a3f 7493 43be
00000090: 2391 a43e 9559 8fbe 1523 1c3e 78ee 053f
000000a0: 7867 b6bd b82f bbbe 9640 d3be e202 a0be
000000b0: 6b8e 14bf b40a 32be 5c5d 31be 007a 86bb
000000c0: 236a 33bd 2782 d13e 1e06 28bf 77d5 1a3f
000000d0: b90e 20bf 6e69 a63e d96d 02bf d4de a8be
000000e0: 5f28 8dbe 08b3 b8bd a8c3 fbbe 2d38 10bf
000000f0: ea60 c53c 917c 073e 3d3b a63e 0a6b 013f
00000100: 5587 9b3e 9ded 1e3f d183 643e 3fd5 f53e
00000110: e459 96bd 0250 3d3e 4e9f f5be 6c51 35be
00000120: 804b 51bd 1ef9 1fbf 3d45 8e3e 029b cabd
00000130: 7844 0abe 4e82 1abf af93 b23e ae76 2b3f
00000140: eb37 8a3d 1306 10bf 9d40 14bf 9deb 9fbe
00000150: 126d c6be 3d74 bebe 00df 07bc e27f 2fbf
00000160: 69cd 7e3d f3c6 29bf a0a9 e7bd a487 37be
00000170: 7e01 dfbe d1fd 0bbf 30b2 213f 7623 1a3f
00000180: ca74 f63d dce6 f73e 3de8 6f3e 23ea a73d
00000190: 9610 29bf b887 b0bd d19f 30bf 18c0 1e3e
000001a0: 4621 c9be 1033 26bd 4451 7abe 1acf 5dbe
000001b0: 7ab6 3dbe 2e11 513e 79e1 163f 6845 b93c
000001c0: 5df3 1e3f 4e89 2e3f b8e1 c3be 5f88 1d3f
000001d0: caad 093f 57f1 8dbe d8d2 f9be c021 06bc
000001e0: fb55 fabe d22b 9f3e f4e6 313f a966 cdbe
000001f0: 7b6f 303f a5f2 473e 3070 8dbe 6cd9 d1be
00000200: c453 04bf 66ca 95be f792 443d a590 023f
00000210: b5b4 8f3c c398 0b3f f841 48be a081 cc3d
00000220: 6b99 13bf f9a7 2b3f c329 8d3d 2ed1 2ebe
00000230: b474 263e 20cf 6bbe 3b93 ca3e b213 143f
00000240: 6549 09bf 0a4c e83e 5d90 95be 51be 12bf
00000250: 6a1d c1be 8cf4 5fbe 10bd 4b3e bb2a 363e
00000260: 6036 babe e8a1 0b3e dd8e b2be f0fd 083d
00000270: 3a12 7e3c 1aa4 eb3e 3946 e6be 46c4 a43e
00000280: 6b59 29bf 3d4c 123f 4083 42bc 245f 10bf
00000290: b996 063f 3aea 313f e766 e2be 56c1 a83e
000002a0: 311b 11bf 9f6f c4be d2f9 17bf 6fd7 8bbe
000002b0: 07e7 293f 7669 083f 65e3 273f 5bfa ef3e
000002c0: 2713 30bf 5352 93be 19d1 213f 6185 a33d
000002d0: 369d f0be 626d bc3e 794d bcbe 77b9 ec3e
000002e0: 63b7 9bbe 609d 12bd 137b ac3e 40a6 ac3e
000002f0: e00e 063f 089b 1f3f af32 7c3e 9203 dfbe
00000300: c1f6 233f 59f8 0cbf d411 10bf 0456 0b3e
00000310: 6ee2 ab3d 7e6a 203f fc12 323f 1add 253f
00000320: 51a4 acbe 8020 5a3c cb57 de3e 8788 25bf
00000330: 0893 2fbf 6f1d 24bf 6a29 2a3e 0c11 84bd
00000340: f4d6 3ebe d5bd 92be d82e afbe 1c36 42be
00000350: 6610 febe 98e6 13bf 1a49 5d3e b4d9 95be
00000360: f17b 0abf b04c 293d 7511 1d3f c823 013e
00000370: cfd8 863d c48e bdbd b38a 9c3e 4302 acbe
00000380: 3faa fe3e ccf8 27bf b84a ccbd 985d e9be
00000390: 02df 833e fddd b83e 74b6 7ebd 37f3 933e
000003a0: cd53 973e f595 553e ed3f 073e 46bb 833e
000003b0: bbc8 f4be f20c 07bf 4062 39bd 705c 56bd
000003c0: 26f7 19bf 4e1e 943e 4fae 1b3f 6fa0 fabd
000003d0: 0292 df3e 6ae9 8dbd acb2 153f b25c f03e
000003e0: 36b3 fbbe 140b 133f c773 0dbf 85d8 1b3f
000003f0: 616f 233e 93c0 32bd 9278 163f 54d6 0abf
-0.021806419 -0.4297281 0.18511476 -0.07606239 0.46548608 0.5181717 0.40622768 -0.1030523
-0.25647593 0.6601527 -0.010322273 -0.14834327 -0.060535934 0.3798285 0.666324 0.34941083
-0.6999199 -0.6382159 0.41444167 -0.33173814 0.3894075 -0.10142288 -0.22841325 -0.19073313
-0.49932796 0.548701 0.5628191 -0.5878015 0.48886737 -0.023943506 -0.10969931 -0.68517053
0.683233 -0.46622944 0.6664245 -0.19099218 0.3214198 -0.27998033 0.15247758 0.52317
-0.08906454 -0.36559844 -0.41260213 -0.312522 -0.5802981 -0.17386895 -0.1732077 -0.004103899
-0.04380239 0.4091961 -0.65634334 0.6048197 -0.62522465 0.3250231 -0.50948864 -0.32982504
-0.27569863 -0.090185225 -0.4917271 -0.5633572 0.024094064 0.13231112 0.3246707 0.50553954
0.30376688 0.6208132 0.22315909 0.48014256 -0.07341364 0.18487552 -0.47973102 -0.17706841
-0.051097393 -0.624895 0.277872 -0.09892847 -0.13502681 -0.6035508 0.348783 0.66977966
0.06748947 -0.5625927 -0.5791109 -0.31234446 -0.3875509 -0.37198058 -0.008292913 -0.6855451
0.062207613 -0.663192 -0.1131165 -0.17922837 -0.43555826 -0.5468417 0.6316252 0.6021036
0.120339945 0.4841832 0.23428436 0.08198955 -0.66040933 -0.08619636 -0.6899386 0.15502965
-0.39283198 -0.04057604 -0.24445063 -0.21661034 -0.1852664 0.2041671 0.58937794 0.022616103
0.6209009 0.6817826 -0.38258147 0.6153621 0.53780806 -0.2772319 -0.48793674 -0.008186758
-0.48893723 0.3108812 0.6949303 -0.40117386 0.68920106 0.19526155 -0.27624655 -0.40986192
-0.51690316 -0.2925598 0.04799172 0.5100196 0.017542223 0.5452997 -0.19556415 0.099856615
-0.5765597 0.6705318 0.06892731 -0.17071983 0.16255456 -0.2302823 0.39565453 0.5784255
-0.53627616 0.45370513 -0.29211703 -0.5732165 -0.37717754 -0.21870631 0.1989634 0.17789738
-0.3636961 0.13635981 -0.3487462 0.0334453 0.015507275 0.46023637 -0.4497545 0.32180995
-0.66152066 0.5714758 -0.011872113 -0.56395173 0.52573735 0.69498026 -0.44219133 0.32960004
-0.56682116 -0.3836641 -0.5936557 -0.273128 0.66368145 0.5328592 0.6558135 0.46870694
-0.68779224 -0.28773746 0.6320968 0.079844244 -0.46994942 0.36802202 -0.36777857 0.46235248
-0.3041335 -0.035794616 0.33687648 0.3372059 0.5236645 0.62345934 0.2462871 -0.4355741
0.6404839 -0.5506645 -0.56277204 0.13607031 0.083927974 0.62662494 0.6956022 0.647905
-0.33719113 0.013313413 0.43426356 -0.6466145 -0.68583727 -0.6410741 0.1661736 -0.06448564
-0.18636686 -0.28660455 -0.34215426 -0.18965954 -0.49621886 -0.57773733 0.21609917 -0.29267657
-0.5409537 0.0413329 0.6135476 0.12611306 0.06584322 -0.09255746 0.3057457 -0.33595476
0.49739262 -0.6561401 -0.09975189 -0.4557922 0.2575608 0.36106864 -0.06218572 0.28896496
0.29556122 0.20857985 0.1320798 0.25728816 -0.47809395 -0.5275413 -0.045259714 -0.05233425
-0.60142744 0.2892937 0.6081285 -0.122376315 0.43666083 -0.06929286 0.58475757 0.4694572
-0.49160165 0.5743878 -0.5525479 0.6087726 0.15960456 -0.043640684 0.58777726 -0.5423329

linear1.bias f4 [256]
00000000: 1123 d9be 5b0c ae3e 7943 77be e8c3 5d3e
00000010: 0cdb 033f 33b3 2cbf bbd3 f73d de3a 223f
00000020: 6b63 34bf 7413 883e cbf5 693e 8831 dfbe
00000030: 6ae6 083f bfea 613e 85b4 833c 2032 89bd
00000040: 5d40 21be a711 2dbd 097e 8fbe f198 b4be
00000050: f219 6fbe 8286 33bf c5c9 2f3f e0fd 13bd
00000060: 189b c53e 6803 7c3e 4cd6 06bf e59b 2e3f
00000070: 30f9 0fbe af49 2a3f c45e e1be 20df f3be
00000080: fe8c 213f fa11 7c3d 8415 bfbe 824d 953e
00000090: 6729 aebe c21d 01be 85c3 0abf a042 d13e
000000a0: 73d4 93be 8652 af3e ca61 e83e 8ed9 9a3e
000000b0: 30e0 b5be 1806 133e a0aa 14be d8c6 003f
000000c0: 35b2 633d 08f2 2a3f b08c afbd 7145 2cbf
000000d0: 5826 153e a27b a23e 1e3b 1b3d 373e c4bd
000000e0: 9026 a3be f8cf 1abf 278f 5a3e 84fd 2d3e
000000f0: db0c 1f3f e15b 16bf 067a d23e ad16 143f
00000100: 47a0 313f 9be4 bfbe 8b18 29be ce5d bbbe
00000110: 73a3 f7be 5a10 cebe 579f c7bd 1625 1f3f
00000120: 8464 75be 4023 1cbe d83c d9bd 382a 2c3f
00000130: 298a 0f3f 2d5e 2dbf 75b7 71be d6d4 ffbe
00000140: 9b77 023f 8268 da3e 1c8b e5be b78b d3be
00000150: 255b 273f 04d6 173e 0a33 47be 03e9 bebd
00000160: becc 883e 5386 adbc e077 953d 9648 363d
00000170: 64fd 733e 9eec 66be 7de6 043e 39b8 c03e
00000180: 123a 4bbe ee0e ebbe d43d 1e3f 4c3b db3e
00000190: fa1d 17bf 36a2 2e3f 5773 123f 702b 253f
000001a0: 8077 f4be 368a b83e 8c7e 90be 5d8e 15bf
000001b0: c800 df3d 612f cbbc 868c a23d 94a8 e53e
000001c0: 7a7b fd3e d42b 233e 9a36 84be 2ef3 e9be
000001d0: f7d9 17bf 4176 34bf b315 b1be 43b0 9bbe
000001e0: 4af4 dc3e 719a 05bf 7fa7 cebe f62c 313e
000001f0: 3d09 dbbd 5739 aebd 4eec 12bf 5db5 9bbe
00000200: 08df 8abd de2f 9f3e 66d0 a83e 4d27 2bbe
00000210: 540f 233f fda2 18be 6113 303f 4a56 2bbe
00000220: 2c47 2dbe 2674 a5be 7638 bb3e bcd8 6f3e
00000230: 8d8b 283f 2b30 783e 9eb6 c53e d348 533e
00000240: fa23 f6be ec73 173e 9659 7fbb 2027 2ebf
00000250: a3e4 34bf c085 9b3e cb6a 263f c162 c9bc
00000260: ac95 11bf 3058 1c3d 04d0 0c3e 7669 bc3e
00000270: f380 d33e 9dff 043e 27a1 0abf 9b14 a5bb
00000280: 9034 bd3d 6490 113e 9f37 fcbe 0efa d53e
00000290: 2e65 273e d430 fc3e b034 b8bd b344 02bf
000002a0: b112 233f 6b19 f73e 8276 b83e f032 163e
000002b0: cd6f dbbe 6b01 063f c7f6 0b3f 60f5 72bd
000002c0: cfde b4be bd1d 013f 87db 2bbf 37a8 343f
000002d0: 9529 bfbe 0ee0 ac3e ecbc 163e e851 15bf
000002e0: 65d0 2abf 5c17 edbe af69 c6be 1643 f43e
000002f0: fbcb fb3e f3f8 e0be 582c 0f3e 2efc f5be
00000300: 880c cc3d c1dc e3be 32c4 273f 8e5d 81bd
00000310: e871 363e 8abc 833e 68a0 2d3f 9405 2d3f
00000320: 3e68 dd3d 6577 29bf 5f28 0ebf 6806 34bf
00000330: 19f1 16bf f758 ec3e ad50 83be 9847 a03e
00000340: e4e1 f5be fb46 d93e 5334 9abe 1440 22be
00000350: 8407 34be 9f47 febd f047 313d e375 223f
00000360: 00ca 323c 7c71 3ebe 9e37 9ebe 0567 4bbe
00000370: 5a17 d43e 1c99 06bf e412 1ebd 0b5a 203f
00000380: aa13 393e 695b dc3e fc80 f53e 3198 98be
00000390: 448f 053e 7169 233f 844f 0fbf f070 783e
000003a0: 7c9f 5e3e 050e 083f 42a3 66be 44df 32be
000003b0: 048f 1e3e e6f4 98be 8eee 12bf de82 eebe
000003c0: e86c de3e 5772 53bd c89c 683e 8849 21bf
000003d0: d300 c03e 8aed b63e 86aa f53e 1c2b 0f3f
000003e0: 2e3a b63e 4655 cb3e f0d2 2abf 8664 d83e
000003f0: 59cf 5c3e 6257 8bbe 272d 143e d332 303d
-0.42409566 0.339938 -0.24146833 0.21656764 0.51506114 -0.67460936 0.12100931 0.63371074
-0.704642 0.26577342 0.22847669 -0.43592477 0.53476584 0.22062205 0.01607729 -0.06699014
-0.15747209 -0.042253163 -0.28025845 -0.35272935 -0.23349741 -0.7012712 0.6866725 -0.036130786
0.3859489 0.24610674 -0.5267074 0.68206626 -0.14059901 0.6651868 -0.44017613 -0.47631168
0.6310576 0.06154058 -0.37321103 0.29160696 -0.34015962 -0.12609008 -0.5420459 0.40871143
-0.28873023 0.34242648 0.45387107 0.30244106 -0.35522604 0.14357793 -0.14518213 0.5030341
0.055589873 0.6677556 -0.08571756 -0.6729346 0.14565408 0.3173495 0.037898175 -0.09582179
-0.31865358 -0.60473585 0.21343671 0.1699124 0.6212899 -0.58733946 0.41108721 0.578471
0.6938519 -0.374791 -0.16513269 -0.36595005 -0.4836689 -0.4024685 -0.097471885 0.62165964
-0.23964125 -0.15247822 -0.10607308 0.6725192 0.5607019 -0.67721826 -0.2360514 -0.49967068
0.50963753 0.42657858 -0.44832695 -0.4131753 0.6537345 0.14827734 -0.19453064 -0.09321787
0.26718706 -0.021182215 0.07298255 0.044502817 0.2382713 -0.225512 0.1297855 0.3764055
-0.19846371 -0.45909828 0.6181309 0.42818677 -0.59030116 0.68216264 0.57207245 0.64519405
-0.4774742 0.36042947 -0.28221548 -0.58420354 0.10888821 -0.024802865 0.07936959 0.44855177
0.49508268 0.15934688 -0.25822908 -0.45693344 -0.5931696 -0.7049294 -0.34586868 -0.30407915
0.43155128 -0.52188784 -0.40362164 0.17302307 -0.106951214 -0.085070305 -0.5739182 -0.30411807
-0.06780821 0.31091207 0.32971495 -0.16714211 0.63695264 -0.14905925 0.6877957 -0.16732135
-0.16921681 -0.32315177 0.36566514 0.23422521 0.6583794 0.24237125 0.38615888 0.20633249
-0.48074323 0.14790314 -0.003896331 -0.6802845 -0.7066137 0.3037548 0.65006703 -0.024583222
-0.56869006 0.03817004 0.13751227 0.3679921 0.41309318 0.12988134 -0.5415215 -0.0050378568
0.09238541 0.14215237 -0.49261186 0.4179234 0.1634719 0.49256003 -0.08994424 -0.50886077
0.63700396 0.4826158 0.36027914 0.14667869 -0.42858735 0.52345914 0.5467343 -0.05931604
-0.3532624 0.50436 -0.6713185 0.70569175 -0.37336412 0.3376469 0.14720505 -0.58328104
-0.66724235 -0.46306884 -0.38752505 0.47707433 0.49179062 -0.43939933 0.1398176 -0.4804396
0.09963328 -0.4450436 0.65533745 -0.06316672 0.1781689 0.2572978 0.67822886 0.67586637
0.10810898 -0.66197807 -0.5553035 -0.70322275 -0.58961636 0.46161625 -0.25647488 0.31304622
-0.48023903 0.42436966 -0.30118045 -0.15844756 -0.17580992 -0.124160044 0.043281496 0.6346113
0.010912418 -0.18597978 -0.30901808 -0.19863518 0.41424066 -0.52577376 -0.038592234 0.62637395
0.18073907 0.4303849 0.4794997 -0.29803613 0.13042933 0.63832766 -0.55980706 0.24261832
0.21740526 0.5314639 -0.22523215 -0.17467982 0.15484244 -0.29874343 -0.57395256 -0.4658422
0.43442464 -0.051622715 0.22716057 -0.63002825 0.3750063 0.35728103 0.47981662 0.55925155
0.35591263 0.39713496 -0.66728115 0.42264193 0.21563472 -0.27215105 0.14470349 0.04301722

linear2.weight f4 [256, 256]
00000000: 6c11 b03c 9ce6 f5bc a0ea 783b 8817 6dbd
00000010: 20a6 f9bc dca9 a73c 8036 983b 30a5 f6bc
00000020: c84c 31bd 1ac2 2abd 3ccb a1bc c4d6 d83c
00000030: 604d 62bd 9a00 263d e0ac 93bb 14b3 73bd
00000040: 6250 24bd b8e0 393d 64cf 44bd a0b8 6cbb
00000050: 7ae7 27bd a2c5 593d 4c61 323d d65f 173d
00000060: 4c28 eebc c0a8 68bc ec71 01bd c8ba ccbc
00000070: 748c 4e3d c852 f7bc 7456 f83c dcb5 f53c
00000080: 1616 1a3d 0012 69bd 082c a9bc 50f3 49bd
00000090: b8a7 743c 7c21 093d baaf 0f3d ec77 c93c
000000a0: 242b 05bd f222 733d 3470 b4bc 50c7 c83c
000000b0: 1c97 39bd 58fb 453d d2e8 0f3d d60a 02bd
000000c0: d06c 753c 20db 9b3c 3870 163c d64d 453d
000000d0: 781d ed3c c869 ffbc 7041 903b 7e9b 53bd
000000e0: a062 11bb 603b debc e427 583d ea3b 3a3d
000000f0: a644 17bd 78c3 683c c86d b33c 58be f1bc
00000100: c8db 0cbd 68e8 adbc d058 dfbb 7c59 34bd
00000110: 9a84 503d d0f2 fb3b eebb 12bd dcb8 a3bc
00000120: 54d6 44bd a045 753c c093 71bc ea6d 253d
00000130: 0874 26bd b8c1 78bc 729c 79bd 4619 7d3d
00000140: b00a a0bb 00e5 0f3c 6cde a93c e08d 3a3d
00000150: 20e2 73bd e4ea 313d b078 2cbc 8020 463a
00000160: 1e2c 43bd 7099 4f3c 8c8c c2bc c4b1 e63c
00000170: 80d2 bb3a d4e6 323d 0aa6 29bd e815 d0bc
00000180: f86e bc3c c8a5 6abd be1d 00bd c00b 5bbb
00000190: e01f 60bd 007c c53b b4b4 dd3c 98c2 c13c
000001a0: 205a 35bc ec40 b3bc d822 9b3c acec 593d
000001b0: a226 6cbd 8cf9 ac3c 40fe 863a 125f 71bd
000001c0: aae9 3b3d a049 693c 7a22 1cbd f0d0 26bd
000001d0: c6ec 133d 6032 e33b c67b 7cbd 8ad5 4a3d
000001e0: bacd 72bd 10e3 0abd b0e5 25bc 3c3e 05bd
000001f0: 8e9b 3ebd 444d 98bc 5499 d3bc e89d 5abc
00000200: e8c7 1bbd f8df 3ebd ca6d 093d 4006 7cbd
00000210: 026b 54bd f0fb 5f3c d637 4b3d 487c 6f3c
00000220: 1881 afbc 3278 13bd 4082 5cbc 4cea bbbc
00000230: 729f 20bd b0b7 cebc 0094 9bbb 0051 123d
00000240: f41c 6a3d 004a c2b9 6c24 cd3c 349d 463d
00000250: 20d4 303b bc5b 4cbd 24d5 87bc 9800 6e3d
00000260: d896 2d3d 563e 5bbd 3a7a 4f3d 0451 24bd
00000270: 1cd8 0a3d 3016 743c 2039 a1bb e490 2cbd
00000280: 94e6 b63c 3cc1 853c 404f 7b3d 60d6 84bc
00000290: ae81 303d 1c6b 8d3c 7c98 a5bc 2c74 02bd
000002a0: 54cf 58bd c408 173d 908d 723c 38e0 763c
000002b0: a478 2b3d e0be d7bb 940d 4bbd 6a79 6b3d
000002c0: 1415 f43c cc7f 03bd a8f7 a03c f0df 02bd
000002d0: 7c42 2dbd 0e48 17bd 6050 433c e06c 533c
000002e0: 309b 833b 547d bd3c 4e48 1c3d 7c8a b53c
000002f0: e4c3 9ebc 00bc 153b b4c7 83bc 80ad 273d
00000300: 56da 41bd c02a 9bbb 3ce4 483d 8479 a8bc
00000310: 9845 1abc 803f e8bb 4823 5fbc 20d1 c33b
00000320: d29c 273d 543a 5abd 78e8 5abd 0892 0b3c
00000330: 884f 2fbc 0ac2 133d ee23 07bd 5260 773d
00000340: 9099 76bd 1ca2 32bd ac59 b43c 90cf 4bbc
00000350: a60e 11bd 10d5 5c3d a46f 063d f804 bc3c
00000360: 8ad3 2c3d e063 aabb 208f 4d3c f033 e4bc
00000370: 2851 9e3c 4c8e 943c 6832 173d 28f9 f53c
00000380: e4f0 653d 18d5 723c d831 acbc b8bf 1dbc
00000390: 186b a9bc 4e61 24bd 8438 1f3d 0049 6ebd
000003a0: 6cf6 28bd e07b 4dbc a25f 1abd b2df 2cbd
000003b0: 60e9 92bb 70f1 71bc 506b 273d f48f edbc
000003c0: ce0e 603d 14be bd3c c056 00bc 183e 27bd
000003d0: 4811 673d a4a9 04bd 542a 003d 9ce5 83bc
000003e0: c820 03bd 94e4 f2bc f4ef 6cbd 3096 fdbb
000003f0: dc12 1e3d 7021 e2bb 5a60 6a3d fa05 6dbd
0.021492682 -0.03001719 0.0037981644 -0.05788377 -0.030474722 0.020466737 0.004645169 -0.030108064
-0.043286115 -0.041689016 -0.01975023 0.026469596 -0.05524957 0.040527917 -0.0045066923 -0.059496954
-0.04011572 0.045380324 -0.048049346 -0.0036120787 -0.040992238 0.053166993 0.04354982 0.03695663
-0.02907195 -0.014200389 -0.031602785 -0.024991408 0.050426915 -0.03019084 0.030314662 0.029993944
0.03761872 -0.05690193 -0.020650879 -0.049304307 0.014932565 0.0334792 0.035079695 0.024593316
-0.032511845 0.0593595 -0.022026159 0.024509102 -0.045310125 0.048335403 0.035134144 -0.031748615
0.014979556 0.019025385 0.0091820285 0.048169933 0.028944716 -0.03117837 0.004402332 -0.05166196
-0.002218403 -0.027127922 0.052772418 0.045467295 -0.036930703 0.01420676 0.021902934 -0.029509708
-0.034389287 -0.021228984 -0.006816007 -0.04403065 0.05090771 0.0076888576 -0.035823755 -0.019985609
-0.04805596 0.014970213 -0.014744699 0.040388025 -0.040638 -0.015182905 -0.060940214 0.06179168
-0.0048840865 0.008782625 0.020735942 0.04554546 -0.05954182 0.0434369 -0.010526821 0.00075579435
-0.047649495 0.01267086 -0.023748659 0.028160937 0.0014329702 0.043677166 -0.041418113 -0.02540107
0.023002133 -0.057287008 -0.031278364 -0.0033423752 -0.0547179 0.006026745 0.027063705 0.02365236
-0.011068851 -0.021881543 0.018937513 0.053204224 -0.05765403 0.021115087 0.0010299161 -0.058928557
0.045877136 0.014238745 -0.038118817 -0.040726602 0.036114477 0.0069334954 -0.061641477 0.049520053
-0.059278227 -0.03390795 -0.010125563 -0.032530054 -0.046535067 -0.01859153 -0.025829948 -0.013343312
-0.038032442 -0.046600312 0.03355197 -0.061529398 -0.051859863 0.013670906 0.049613796 0.014617033
-0.021423861 -0.0360033 -0.013458788 -0.02293887 -0.03921456 -0.025234073 -0.0047478676 0.03572178
0.057156518 -0.00037057698 0.025041781 0.048489764 0.0026981905 -0.049892172 -0.016581126 0.058106035
0.042380184 -0.053526245 0.050653674 -0.040116325 0.033897504 0.014897868 -0.00492014 -0.042130366
0.022326745 0.016327493 0.061354876 -0.016215503 0.043092422 0.017262988 -0.020214312 -0.03184907
-0.0529321 0.036873594 0.014804259 0.015068106 0.0418631 -0.0065840334 -0.049573496 0.057488836
0.029795207 -0.0321043 0.019649342 -0.031951845 -0.042299733 -0.03693395 0.011921018 0.012904376
0.0040163025 0.02313105 0.038154893 0.022160761 -0.019380517 0.0022847652 -0.016086437 0.040936947
-0.047327362 -0.004735321 0.049045786 -0.020565756 -0.0094160065 -0.007087648 -0.013619252 0.0059758574
0.04092104 -0.053278282 -0.053444356 0.008518703 -0.010700114 0.036073722 -0.03299325 0.060394593
-0.060205042 -0.04361163 0.022015415 -0.0124396235 -0.03541436 0.05391413 0.032821313 0.022951588
0.042193927 -0.0051998943 0.012546331 -0.027856797 0.019325808 0.018134259 0.036913306 0.030026034
0.056137934 0.014821313 -0.021019861 -0.009628229 -0.02068095 -0.04013186 0.038872257 -0.058175087
-0.04125063 -0.012541741 -0.03768886 -0.04220552 -0.004483387 -0.014767036 0.040873826 -0.028999306
0.05470162 0.023161925 -0.007833183 -0.0408307 0.056412965 -0.032388344 0.031290367 -0.016100697
-0.032013685 -0.02965001 -0.057846025 -0.007738851 0.038592204 -0.0069009587 0.057220794 -0.057867028

linear2.bias f4 [256]
00000000: 2449 fb3c 32cb 2c3d 3055 ba3c b045 053c
00000010: a74a 81bb b227 9ebb a1e2 ae3c 6ee2 163d
00000020: a70c 5c3c f549 3dbd 2cf7 403c 2033 6bbd
00000030: 04c9 3f3d febd 4bbd 155f f3bc 314e 15bb
00000040: 8c00 7ebd 5585 823d dfb6 0fbc 26cf 3fbd
00000050: d444 623d 7840 b9bc 9978 fabc c304 523c
00000060: d160 19bd e071 813d c0dc 853b ebc5 4f3c
00000070: a66c 753d 181a 38bd 8b0b 563d 64df 12bd
00000080: ceb3 a33c 5d74 1d3d 94af 14bb e8e3 45bc
00000090: 869a 76bd 3fcb 8fbc 34cf 70bd b659 313d
000000a0: 48e1 773c cbf2 c83c a870 5dbc cc59 9d3c
000000b0: 8c9a 25bd 16d4 3cbd 5c32 db3c 933b e0bc
000000c0: ccd0 70bd 87e9 193d 9b07 bcbc f429 e0bc
000000d0: 7aca 2ebd a0cc 6dbd fac9 953b 1abb ff3c
000000e0: 967a 313d 40aa 75bc a870 dc3c 6c7c dc39
000000f0: 07e7 2b3d 5af4 b33c 99f0 86bb 6d6c b1bc
00000100: 8ecf 383d e0fe 18bb d0b7 543d 5a1a 8bbc
00000110: a8f1 5abd 1f72 d93c 9fef 51bd d09e 50bc
00000120: f0b6 b53c d615 cbbc b710 663d 8267 2dbd
00000130: 42e6 0c3d 984a 473d 6d04 21bc 4876 18bd
00000140: 9f27 253d a436 e8bc 7605 ec3c e4c3 bf3c
00000150: 27a1 aabb 1c83 78bb 941c 253d d951 9c3c
00000160: 2037 b43c f654 2b3d 1785 e73b b88f 5c3c
00000170: afbd 4f3d 2a3c 9ebb 60c8 ebbc 95c7 babc
00000180: 2c6a ab3c be15 f1bc 3029 d6bb af81 17bd
00000190: deda 41bd be0f 46bd 586b 7fbd d8df 763c
000001a0: a435 813c 8feb 29bd 84f9 453d 5cc2 a33c
000001b0: 609d e4bc ded0 5bbd 4b80 4abd 4aef 693d
000001c0: bf17 573d dc92 30bd 8035 e2bb ade4 5a3d
000001d0: cdd3 80bc 85f6 c43b 3bc1 27bb 606d d9bb
000001e0: 44bc ac3c c78b 563d 81b6 4b3b ec47 bfbc
000001f0: 6041 23bb 07ed 113d b0b6 423c 8620 163d
00000200: b9e1 8ebc b3e1 163d b046 2c3c c81d 4dbd
00000210: 2223 3e3d 90b7 c3bc 2475 13bd ca26 343d
00000220: 294f 43bd 6c76 e5bc b44b b6bc aee0 6fbd
00000230: d8d6 93bc 469e 46bd 17b2 743d 9d87 8a3d
00000240: f4ab d63c d11d 523c 3c89 673d 0ea1 453d
00000250: 4cbe df3c bab9 1bbb 5a89 5e3d 0c2b 12bd
00000260: eca2 f03c 3467 843d e422 d13c 98ab cf3c
00000270: b423 2d3c 6cec 633c 114f 4b3d 9db4 29bd
00000280: 7ac3 8a3c 281f a3bc 528d 5bbc 29ea 2f3c
00000290: 12da dd3b 103f a8bc 7a96 5a3d a833 34bd
000002a0: a78c 86bc daa9 41bd 90fc f8bc 9868 78bc
000002b0: 8182 1dbd 04f2 633d 94a1 72bd 70e3 a1bc
000002c0: 5f72 1dbc 8f9d 693d a5f1 8cbc 5686 bfbb
000002d0: 4222 053d 2032 2a3b a017 69bd a5ff 2fbc
000002e0: 9464 85bd 4ea5 303d c409 d4bc 8000 f53c
000002f0: dd2e f8bc 48f5 dd3c 0919 b43c 3f50 9ebc
00000300: 3a8d 2e3d ed37 03bd a08d 64bd 9500 24bc
00000310: 001c 813d 56fe 283d 6615 04bd 54ad 5f3d
00000320: 6991 02bc 0a47 0ebd 2374 03bc 51a3 3abd
00000330: f1d9 503d 1c27 26bd 22e6 7c3d 607d 3a3d
00000340: 0f28 0fbb a4ed bdbc 26d4 57bd c434 1abd
00000350: 65b7 4b3b d0f7 f83b 429d 473d 78fd 6cbd
00000360: f1e3 663b d8d7 3fbd 8af7 243d 5025 ffbb
00000370: 40cc 123d 6cc6 68bd fa9a fc3c 25e9 87bc
00000380: 4441 c53c c383 f8bb dbae 9a3b 0258 4bbb
00000390: 1bdb 1c3d fe2b 193d fd5c c9bc 42fe 603d
000003a0: b942 33bd b274 6fbd 4779 72bd 6110 893d
000003b0: a404 9c3c da5d 6a3d c05d a53b dc50 643d
000003c0: ce42 18bd 58f4 64bd e701 cb3c 1ccf 2c3d
000003d0: 00ce 17bb 3db9 4ebd 3eb6 1c3d 68ea 883c
000003e0: b629 7bbc 0da0 3cbd dd69 213d c458 2b3d
000003f0: 1bbf dabb a44b 34bd a06c 2abb 941a c9bc
0.030674525 0.04218597 0.022745699 0.008134291 -0.003945667 -0.0048265094 0.0213483 0.036837034
0.013430751 -0.04621311 0.01177768 -0.057421803 0.046822563 -0.049741738 -0.029708425 -0.0022782201
-0.06201224 0.06373087 -0.008771627 -0.04682841 0.05524142 -0.022613749 -0.030575084 0.012818518
-0.037445847 0.06320548 0.0040851533 0.012681465 0.05991807 -0.04494676 0.052257102 -0.035857573
0.019983198 0.03844105 -0.002268766 -0.012078263 -0.06020596 -0.01755297 -0.058791354 0.043298446
0.015129395 0.024529835 -0.013515629 0.019207858 -0.04043059 -0.0461007 0.026757412 -0.027372157
-0.058792874 0.037576225 -0.022952845 -0.027363755 -0.042673565 -0.058056474 0.0045711966 0.031217147
0.043329798 -0.014994204 0.026909187 0.0004205437 0.04196837 0.021967102 -0.004118037 -0.021658147
0.045119815 -0.0023345277 0.05193311 -0.016980339 -0.053453118 0.026543675 -0.05125391 -0.012733176
0.022181958 -0.024790686 0.056168284 -0.04233504 0.03439928 0.048655123 -0.009827715 -0.037222177
0.04032099 -0.028346367 0.028811198 0.023408838 -0.005207199 -0.0037919944 0.040310457 0.019081997
0.021998942 0.041829072 0.007065426 0.013462 0.050718006 -0.0048289495 -0.02878207 -0.022800246
0.02092465 -0.029429313 -0.0065356717 -0.03698891 -0.04732787 -0.048354857 -0.06235823 0.015068017
0.015772648 -0.04148441 0.04833366 0.019990139 -0.027907073 -0.05366599 -0.049438756 0.05711297
0.05251288 -0.043108806 -0.0069033504 0.05344074 -0.015725994 0.0060108327 -0.0025597352 -0.006635353
0.021085866 0.052379396 0.0031084123 -0.023349725 -0.0024910793 0.035626438 0.011884376 0.03665211
-0.017441617 0.036836337 0.0105149 -0.05007723 0.046420224 -0.02389124 -0.036000386 0.043982305
-0.047682915 -0.02801057 -0.022252895 -0.05856388 -0.018046781 -0.048490785 0.059740152 0.067641474
0.02620504 0.012824492 0.05652736 0.048249297 0.02731242 -0.0023761825 0.054330207 -0.035685584
0.029374562 0.06464997 0.025529332 0.025350377 0.010567594 0.013911348 0.04963595 -0.041432012
0.016938914 -0.019912317 -0.013400393 0.0107369805 0.006770381 -0.020537883 0.053366162 -0.043994576
-0.01642449 -0.047281124 -0.030393869 -0.015161656 -0.038454536 0.055650726 -0.059236124 -0.019761771
-0.009609788 0.057035025 -0.017205069 -0.0058448715 0.032503374 0.0025969818 -0.056907296 -0.010742103
-0.065133244 0.043126397 -0.025883563 0.029907465 -0.030295784 0.027094498 0.021984594 -0.019325374
0.042615153 -0.032035757 -0.055799127 -0.010009904 0.06304169 0.04125818 -0.03224697 0.054608658
-0.007969239 -0.034735717 -0.008023295 -0.045565907 0.050989095 -0.04056464 0.06174291 0.045529723
-0.0021843945 -0.023184605 -0.052692555 -0.037647977 0.0031084653 0.007597901 0.048733957 -0.057858914
0.0035231079 -0.046836704 0.040275134 -0.0077864304 0.03583932 -0.056829855 0.030835617 -0.016590664
0.024078973 -0.0075840666 0.0047205514 -0.0031027799 0.038294893 0.03739547 -0.024580473 0.05492998
-0.043764804 -0.0584609 -0.05919769 0.06692577 0.019045182 0.05721841 0.0050465763 0.055741176
-0.037173085 -0.055897087 0.02478118 0.042189702 -0.0023163557 -0.050469626 0.038259737 0.016713336
-0.015329769 -0.046051074 0.0394076 0.0418327 -0.0066756136 -0.04401745 -0.0026004687 -0.024548806

linear4.weight f4 [256, 256]
00000000: 52f4 153d 3057 833b a70a 49bc c41e 91bc
00000010: 542e 3a3d 1905 103d 5397 f43b ac82 78bd
00000020: e324 d0bc ddd1 453d 0a66 d03c b8e7 863c
00000030: 216b 5f3c 7998 87bc 6632 543d 741e 2ebd
00000040: 665b 663d c43e 6c3b d4a3 67bd a6ff 46bd
00000050: a0e6 74bd 44d4 eabc 7366 57bd ab32 b9bb
00000060: 29a4 273d 6d4f 3c3c e8bf d2bc fac7 8b3b
00000070: c0ea 253c 04ba 1c3d d4b1 e63b b8ea cfbc
00000080: f0d7 4cbd 1d1c 623c 23df 1dbd 3805 f9bc
00000090: f7a4 7c3c d958 98bc 0b46 843a 94c5 23bd
000000a0: 4043 773c 3c1f 3d3c a872 353d 7cdc 8dbc
000000b0: ff5a 5dbc 5e3a 35bd 4a7d 20ba e15a 463d
000000c0: ce64 253d ec8e 173d 02c8 8e3d 88e5 0cbd
000000d0: 2041 653c 7cc6 853c 3c51 053d bb91 7c3d
000000e0: 8304 223c 96ff 26bd 402d 8a3a ab32 0e3d
000000f0: ad70 c2bc 212c b3bc 2762 adbc 5f3c 7f3d
00000100: cd84 133d cc42 77bd 500f 44bc 5922 0b3d
00000110: e415 fb3c 5dcb 2bbd 4db6 bcbc 0ce4 4cbd
00000120: 606d 603c 0367 3fbd dafe fabb 5c1e 4ebd
00000130: cc85 97bc 8ddb 0e3d e127 603d ead0 483d
00000140: 47e8 533c da2e 7b3d d895 2e3d 1ae8 96bc
00000150: 6b71 df3b 613b 6abd 8875 25bc c8f3 0e3c
00000160: 2878 c6bc 1c8b 1d3d a140 a73c e899 7bbd
00000170: 7894 9838 bd28 573d c49f a2bc 181f a73c
00000180: 6e22 393d 37cf 0f3d 7845 f93c e186 d3bc
00000190: 54f0 b6bc 4a35 4abd e0a3 afbc 16f9 683d
000001a0: 782e 593d 77c8 52bc 58bc 98ba f609 683d
000001b0: 6478 be3c c001 f5bb c83b e9bc ccfa e4bc
000001c0: 6a3f 01bd b898 5f3d 5012 eb3c 2ee6 c9ba
000001d0: 5edd 1a3d bfb5 cc3c c6f3 2dbc acd9 82bc
000001e0: 0cb6 f63b 0c3f aebc fdd6 183d abc7 033d
000001f0: 50d4 e5bb f6be 113d cebf 123d 292b 023d
00000200: 456e 10bd 0f9a 47bd 2637 35bd b2b8 22bd
00000210: 14c3 7d3d 7283 6b3d e625 3d3d 9abe 5ebd
00000220: 32f6 733d 22a2 713d 8138 9c3b cc49 a23c
00000230: d0fa 3abd 9ace 453d 5992 5bbd 2bc0 c83a
00000240: e891 07bd 61a8 1dbd 3760 f2bc d81c f8bc
00000250: 006e ecba 84ce e7bc f4d8 213d c0d1 903b
00000260: a4de cb3c fd00 36bd 75c3 053d b2c3 c43c
00000270: fae8 7a3d 3618 a33c 82bf 153d 4cb6 37bd
00000280: 4ece 29bd e0f8 75bb 9176 6d3d f249 b13b
00000290: 3f44 58bc e04a ba3c 0814 3ebd 27ab 6a3d
000002a0: 52ef 0abc 96de 1fbd e428 4a3d 2c23 68bd
000002b0: 0ba5 00bd ec2b 62bd f2fa 133d f8b8 383d
000002c0: c0f1 aa3c f700 153d 1eb1 fd3c 4e5b 57bd
000002d0: 2292 ed3c 38ea f43c 7c1c 67bd 82ac 5d3d
000002e0: 89a6 2e3d 76e4 6bbd 8ab1 7abd a836 553d
000002f0: f676 61bd ce50 46bd a701 8e3c 9f31 16bd
00000300: 44fe 463c 404f 033d 7476 55bd 8b15 39bd
00000310: 2fd2 ecba 0dd8 813c ddd5 063c 08d0 30bd
00000320: cebf 073d cad6 0cbd d888 663d 5173 223d
00000330: a838 89bc f809 473c 4e00 62bd c837 4fbc
00000340: 4a21 263d c416 573d be4a 6a3d ce00 533d
00000350: a44a 63bd d46a e1bc 2066 573d 8b75 7abd
00000360: 1ffb 1a3d 50d9 1c3d 058a 4f39 364e 5c3d
00000370: f1bb 7bbd 7a68 c5bc a4df 58bd 07ec 77bd
00000380: c190 423c bf5c 563b 9af8 e03c e305 0d3d
00000390: 7f9c dbbb 14ee 1abd 14e3 3fbc 00c3 fc39
000003a0: 1472 6bbd 8f03 5cbc e85f 423b 60a0 67bd
000003b0: 68f1 603c 3c4b 91bc a084 5c3c 78bd d23c
000003c0: b8d5 05bc 26ba 5ebd 028d 73bd aee1 573d
000003d0: e89b 22bd 5c55 1f3d 8413 0d3d c0df f73a
000003e0: b068 8abb 92fa 803d 2be7 2a3d 1def 4fbc
000003f0: 1c7a 28bd 7042 e33c 62ef 6cbd 6a7e 08bd
0.036609955 0.0040081963 -0.012270606 -0.017714866 0.04545434 0.03516111 0.0074643283 -0.060671493
-0.025408214 0.048295844 0.025439281 0.016467914 0.013636381 -0.016552197 0.051805876 -0.04250951
0.056239508 0.0036048153 -0.056552723 -0.04858365 -0.059790254 -0.02866567 -0.052587938 -0.005651792
0.04092804 0.011493546 -0.025726274 0.0042657824 0.01012677 0.038263336 0.0070402417 -0.025380477
-0.05001062 0.013800648 -0.038542878 -0.030397996 0.01542019 -0.018597053 0.0010091675 -0.039983347
0.015091717 0.011543091 0.044298798 -0.01731705 -0.013510465 -0.044245116 -0.0006122185 0.048426513
0.040379338 0.037001535 0.06971742 -0.034398586 0.013992578 0.016329996 0.032548174 0.061662417
0.009888771 -0.04077109 0.001054205 0.03471629 -0.023735369 -0.021871628 -0.021164967 0.062313434
0.03601532 -0.060366437 -0.011966541 0.033968303 0.030650087 -0.04194199 -0.023036147 -0.05002217
0.013697952 -0.0467291 -0.007659775 -0.05032192 -0.018496417 0.03487735 0.05472553 0.04902736
0.012933797 0.061323978 0.04262337 -0.018421222 0.0068189404 -0.057185534 -0.010098822 0.008725114
-0.024227217 0.038462743 0.02041656 -0.061426073 7.275579e-05 0.052529085 -0.019851573 0.020400569
0.04519885 0.035109725 0.030428633 -0.025821151 -0.022331394 -0.049367227 -0.021440446 0.05687817
0.05302283 -0.012865177 -0.001165281 0.056650124 0.023250766 -0.0074770153 -0.028470889 -0.02795162
-0.031554617 0.054589003 0.028695256 -0.0015403682 0.03780877 0.024989007 -0.010617202 -0.015972935
0.007529026 -0.021270297 0.037314404 0.03217284 -0.007013835 0.035582505 0.03582745 0.031779442
-0.03526141 -0.048730906 -0.044242047 -0.03972692 0.06195362 0.057498403 0.04617872 -0.05438099
0.059560962 0.058992513 0.004767478 0.01981058 -0.04564935 0.048292734 -0.053606365 0.001531606
-0.03309813 -0.038490657 -0.029586894 -0.030287191 -0.0018038154 -0.028296717 0.039513543 0.0044195354
0.024886437 -0.044434536 0.032657105 0.024019096 0.06125734 0.019909006 0.03655959 -0.044851586
-0.041456513 -0.0037532374 0.0579744 0.0054104263 -0.013199865 0.022740781 -0.046405822 0.05729213
-0.00847991 -0.039030634 0.049355403 -0.056674168 -0.031407397 -0.05521767 0.036127992 0.045098275
0.020867229 0.036377873 0.030968245 -0.05257731 0.029000346 0.02989684 -0.05642365 0.054119594
0.04263929 -0.057590924 -0.06120447 0.052054077 -0.05504509 -0.048416905 0.017334772 -0.036668416
0.012145583 0.032058 -0.05211492 -0.04518656 -0.0018068011 0.015850091 0.0082297 -0.043167144
0.033141904 -0.034384526 0.056282848 0.039660756 -0.016750649 0.012148373 -0.05517607 -0.012647577
0.04055909 0.052511945 0.057200186 0.05151444 -0.055491105 -0.02751676 0.05258763 -0.061147254
0.037837144 0.038293183 0.00019792475 0.053785525 -0.06145853 -0.02409767 -0.052947655 -0.060527828
0.011875332 0.003270909 0.027462292 0.034429442 -0.0067020054 -0.037824705 -0.0117118545 0.00048210472
-0.05748184 -0.013428583 0.0029659215 -0.05654943 0.013729431 -0.01773607 0.013459355 0.025725111
-0.00816863 -0.054376744 -0.059460647 0.05270546 -0.039699465 0.038899764 0.03444244 0.0018911287
-0.0042239055 0.062977925 0.041724365 -0.012691286 -0.041132078 0.02774164 -0.05784548 -0.033323683

linear4.bias f4 [256]
00000000: 436b d5bc e561 c5bc 9860 883d a297 163d
00000010: 3a68 fc3c 4691 35bd 362b f3bc aa89 5f3c
00000020: 0e71 853c 3945 563d 6f60 573c 3045 183d
00000030: 62bc f33c 39e8 2dbd e0ab afbc 6edd 173d
00000040: ecd8 463d a0db 0e3a 08f7 2e3d 27b6 f53c
00000050: b0fe f6bc b27e 283d eecd 673d 4240 12bd
00000060: 8a0e 50bd 08ee 5c3c 42a9 4d3d a338 72bc
00000070: c5a3 51bd 8ce0 5bbc e051 2dbc c0bf 063d
00000080: d066 253d 25fc 18bd ca5c babc f019 193d
00000090: b2f5 503d 9948 61bd 0c8c a2bb 5d32 f9bc
000000a0: 5bcd 9abc 00a9 f73a e888 33bc 09c8 673d
000000b0: b84c 463c 712e c1bb e886 473c d9af 513d
000000c0: ccc3 7d3d a621 4f3d f001 d8bb 040e 00bd
000000d0: 8a29 53bd 6020 2a3c 7758 dabc 580c 0c3d
000000e0: eef6 0ebd 0805 a03c fec4 a23c 570c 6abc
000000f0: 1dad 663d 4552 10bc 2836 7abc 10a8 533c
00000100: c799 d03c 2885 13bd d70d 743c cbbb af3c
00000110: a8e8 e13c 734b 38bd 4d82 b83c 309f d53b
00000120: c52b 3b3d be81 923c a0ac 283d 06a8 48bc
00000130: 3eaf 36bd a88a 50bc 9119 f83c 3d52 323d
00000140: af10 4a3d 4ffd 9a3c 41c9 473d 70e1 ea3c
00000150: 5267 72bd 5551 bc3c c4c6 0bbd 8576 783d
00000160: 74c6 36bd 60d1 60bc f571 503c 5542 d23c
00000170: 301a 593d fca6 5f3d 30f8 fa3b 564d 1b3d
00000180: 6886 5cbd fece 22bd d72f ffbc f72d d43c
00000190: 3559 3bbd bae3 fe3b 8dc8 2fbd 7b84 24bd
000001a0: 8833 1cbb 29c0 58bc 05d6 c0bc 8068 4abc
000001b0: 5440 cabc 9c11 5b3d 7aba 253d 1887 df3c
000001c0: 1ded 7fbd bed2 6e3d 7622 223d f201 523d
000001d0: 8e4a 5d3d ac7f f3bc a080 af3c b077 d5bc
000001e0: d89e 71bd e8f5 ecbc 7146 c4bc c421 783d
000001f0: bb13 ce3a 2d7e 443d afd1 81bb 8787 393d
00000200: bc4c e4bc ccb5 ebbc 665c 863d b169 813b
00000210: e6dc 0fbd 5c36 093d 488e 4d3d 1de2 a8bc
00000220: 98ac 4a3c f0ec 223d 9fdf 2f3d 1392 72bd
00000230: f0d5 633d 24f4 033d 6c01 033d f9bb 3d3d
00000240: 83a9 15bc 9c68 c2bc ff40 d43c 15b2 903c
00000250: e529 3bbc 3120 2f3d a67b 24bd 6969 10bd
00000260: 42ed d13c ac64 d6bc 7927 1fbc 91b9 26bd
00000270: 1e1a 023d 2883 2d3c e591 6bbc 4043 a1ba
00000280: f3e8 283c b495 60bd b694 1c3c 4a1e 1a3d
00000290: bb39 153d df12 51bd 551a f8bc a6f2 71bd
000002a0: 6a25 6d3c 99f1 1d3d c8a7 463c dd0f 7bbb
000002b0: 5430 c8bc 4545 5cbd 18be 50bd 49e9 473d
000002c0: 16f3 523d 6350 503d 7e94 2b3d 908d 353d
000002d0: 009f 093c b6ab 2f3d 07fe 13bd c276 69bd
000002e0: 5a33 01bd a162 5c3d 7069 3d3c 1c54 d53c
000002f0: a171 30bb 2bdd 33bc d8eb 1bbd c5e8 67bd
00000300: 4caa f13c 02be 23bd 363b ea3c ed24 74bd
00000310: 4c57 c4bc c5e4 373d 44d5 4a3d 831e 243d
00000320: 06d8 2bbd 0bad 233d 9391 2abd d61f 693d
00000330: 4956 783b 1dfb ca3b f2bf 54bd 69cd 68bd
00000340: 50a0 29bd e869 1e3d 4622 423c f088 1bbc
00000350: 5481 dbbc 862a f63a 8a47 6dbb fe4d e9bb
00000360: d759 5cbd a91d a83c 882d 1a3c be69 24bd
00000370: 5886 783c 084f d2bc b30a 3e3c a48d c83c
00000380: 3a2c 733d 8d15 46bd ac67 dcbc 14e4 65bc
00000390: 2cab 31bc 00b5 c03a b895 b6bc c8a8 393d
000003a0: 09a3 ccbc 5910 223d d483 18bc 4e90 a4bc
000003b0: 5864 f7bc b25b 21bd 7b67 37bb 2223 69bd
000003c0: d46f f93c 55a2 813c dee0 473d 4bda b1bc
000003d0: 1e22 f5bc ee2c 87bd 3235 2f3d 5eed f63c
000003e0: b922 07bd 90dc 3e3d bc8a 683d 80a7 19ba
000003f0: b220 d6bc 284b 20bd 0fed 353d a007 9e3c
-0.026052123 -0.024094531 0.06659049 0.036765702 0.030811418 -0.044327997 -0.02968369 0.0136436615
0.01628926 0.05231211 0.01314555 0.037175357 0.029752914 -0.042457793 -0.021444261 0.037076406
0.048546717 0.0005449597 0.042716056 0.029994084 -0.030150741 0.04113645 0.056592874 -0.035705812
-0.050795116 0.013484485 0.050210245 -0.014784011 -0.051181573 -0.013420235 -0.010578603 0.03289771
0.040381253 -0.03734984 -0.022749323 0.03737825 0.051015563 -0.055000875 -0.0049605425 -0.030419523
-0.01889675 0.001889497 -0.010957934 0.056587253 0.012103252 -0.005895429 0.01217816 0.051193092
0.061954305 0.0505692 -0.006592028 -0.031263366 -0.051553287 0.010383695 -0.026653511 0.03419146
-0.03490346 0.01953365 0.019869324 -0.014285169 0.056317437 -0.008808677 -0.015271701 0.012918487
0.025463952 -0.03601566 0.014895878 0.021451851 0.02757676 -0.04499383 0.02252307 0.006519221
0.04569604 0.017884132 0.041180253 -0.012247091 -0.044600718 -0.012728371 0.030285629 0.04353546
0.049332317 0.018919615 0.048775915 0.02867195 -0.059180565 0.022988 -0.034125105 0.060659904
-0.044622853 -0.013721794 0.012722482 0.025666395 0.05300349 0.054602608 0.007658981 0.03791555
-0.053839117 -0.039748184 -0.031150742 0.025900824 -0.04573937 0.007778612 -0.04291587 -0.040165406
-0.0023834426 -0.013229408 -0.023539552 -0.012354016 -0.024688877 0.05348359 0.04046104 0.027286097
-0.06248199 0.05830645 0.039583646 0.051271386 0.05402618 -0.029723965 0.021423638 -0.026058048
-0.058989376 -0.028925851 -0.02395937 0.060579076 0.0015722433 0.047971893 -0.003961764 0.045295265
-0.027868621 -0.028773211 0.06560592 0.003949367 -0.035122775 0.033499107 0.050184518 -0.020615632
0.012370251 0.039776742 0.04293787 -0.05922134 0.05562395 0.032215253 0.031983778 0.046321843
-0.009134653 -0.023731522 0.025909899 0.017663041 -0.011423563 0.04275531 -0.040156983 -0.035256777
0.025625829 -0.026171051 -0.009714001 -0.040704314 0.03176319 0.010590352 -0.014378046 -0.0012303367
0.010309446 -0.054830268 0.00955694 0.037626542 0.03643201 -0.051043388 -0.030285994 -0.0590693
0.014474252 0.038560484 0.012124963 -0.0038309016 -0.024437107 -0.053776998 -0.050962538 0.048806462
0.051501356 0.050857913 0.04188966 0.044324458 0.008399725 0.042888366 -0.03613093 -0.056998022
-0.031543113 0.053804997 0.011560783 0.026041083 -0.0026923197 -0.0109780235 -0.038066715 -0.05661847
0.02950015 -0.039976127 0.028592687 -0.059605528 -0.023967408 0.044895906 0.049519792 0.04006816
-0.041954063 0.03995995 -0.041642737 0.056915127 0.0037893227 0.006194486 -0.051940866 -0.05683652
-0.04141265 0.03867522 0.011848992 -0.009493098 -0.026795067 0.0018780984 -0.003620597 -0.007119893
-0.053796615 0.020521956 0.00941027 -0.040139906 0.015168749 -0.02567245 0.011599231 0.024481602
0.05936835 -0.048360396 -0.026904903 -0.014031429 -0.010844033 0.001470238 -0.022288188 0.045326978
-0.024980085 0.03956637 -0.009308774 -0.020088341 -0.030199215 -0.039394088 -0.0027985263 -0.05691827
0.030448832 0.015824476 0.048798434 -0.021710536 -0.029923495 -0.066003665 0.04277534 0.030142482
-0.0329921 0.046597064 0.056772932 -0.0005861446 -0.026138637 -0.039134175 0.04441553 0.019290745

linear3.weight f4 [1, 256]
00000000: 3992 be3b d129 bfb9 e07d d23b 803a 1438
00000010: c702 e63b 2f1d f23b 650a ff3b 3219 9a39
00000020: 2b65 303c cc0b 0639 009f ca3b a7a4 443b
00000030: 6763 f43c 1bec 283c e44b aa3c f05f 943b
00000040: 7659 bcba 108c c23b 16a9 073b b392 cb3c
00000050: 76f5 f0ba 879f 333c f82a ea39 6cce 94ba
00000060: 5dc7 da3b fca1 ec3a 404b 8db8 f464 ca3b
00000070: 4058 8b3c 5686 a43c 00db 1d3b 9129 cc3b
00000080: ac5a 353b 0d95 013c 5f8d a5b9 9f2e aeba
00000090: 64c2 4aba a641 c23a 96dd 373b aa7e aa3b
000000a0: 8694 b63b 80c1 4938 000c 7cb8 d458 6939
000000b0: e601 b4ba 2103 b83b 52af 43bb 3747 d93b
000000c0: ab1a 3b3c 5576 b23b b83b b039 5c6c e73a
000000d0: 69e8 78ba 85d2 27bb ac92 ac3a bcea 033b
000000e0: e4f2 c73a 205f 89b8 63cc 413a c7cc c7b9
000000f0: 417b c539 8cd7 7f3c d801 f73a ea73 b6ba
00000100: f1d0 053a baae c13b 3760 7e3a a303 9f3c
00000110: 78ab d8b8 6a37 db3a 5a37 43b9 6e2c 1eb9
00000120: c38a dcb9 1e9b 003b 5047 8a3c 87b1 853b
00000130: b06b f5b9 6203 c73c b0d2 e13b 5028 f23a
00000140: 30b6 d03a 49aa f439 5391 29ba 1430 953a
00000150: a11d cd3b 5573 c03b 0064 e439 ef18 fb3b
00000160: bc11 47b9 2e27 8c3b aae0 3c3a 5410 583a
00000170: 0043 87ba 28c2 633a d9b8 d23b 7828 b0ba
00000180: 41d6 0b3b ca9a f03b 3cf6 c939 e23d 5a3a
00000190: 6dd5 d93c c449 d53a 1a12 b23a 7139 fd3b
000001a0: 680b 6f3b 9f72 ab3b 972a 9d3b f443 ef3a
000001b0: 16ac 333b 3b3f 5e3c 040a 9f3b 35ac ec3b
000001c0: 51f8 28bb c75b abb8 4c27 173b f748 b43c
000001d0: 96f5 da3b 5aef 3d3b de7f 3c3a 86c8 4c3a
000001e0: 00c5 413b 2453 283a e493 ef3b e153 813b
000001f0: cc9e ac3b f476 8a3c 0665 1b3d 83dd f3ba
00000200: f8d2 02ba 72df c23b 499c 0f3c f752 d239
00000210: 3930 ad3b 805f ddb8 08ea b839 ee1f 923b
00000220: 9e45 5c39 1de0 3c3c 1f00 5d39 0817 023a
00000230: 64f7 433b 6cf1 813a e155 083c 28fd de3b
00000240: ee22 953b ac6b 33ba e12d d03b 7b25 2d3d
00000250: 0f97 1b3c be92 0a3b 5868 3f3b cd3a 3438
00000260: 21ed b038 cbb4 4bba ec77 a43c 8f49 8d3a
00000270: 3ed9 e83c 1890 c339 0f63 36b8 3115 3abb
00000280: 9b6f a13b 1529 b0ba 18a3 92ba 0556 ff3c
00000290: d6b2 a93a ac93 863c 414a d23b 95f7 b83b
000002a0: bf3a 023d 35dd 8b3b a62a d5ba fddc bd3b
000002b0: 6f8a 89b9 5d7f c53c 26d5 b7b8 557b ae3a
000002c0: f0d1 7f3a 50a9 103d 6fc5 2cbb 22a9 a3ba
000002d0: 821d 2f3b a692 403b 10ce b339 c6d3 373b
000002e0: 0121 373b 8783 203b a022 d53a 647a 7c3a
000002f0: 9966 0ebb c9d8 9d3a 27dd 083a 9fb2 a53b
00000300: 5a59 2d3b d89c 723a ad85 7b3c 3b22 af3b
00000310: d033 feb9 66ae 023c 4ec7 04bb e228 8f39
00000320: 5ab6 43bb 2e75 1a3d 9e5a ae38 89b2 1eba
00000330: 1779 94b9 b739 923b 5e32 1a3b 88c3 f83b
00000340: d586 99ba 6a89 043d 0974 ce3a dcc7 083b
00000350: 91c1 3cb9 fb2e da3a a2fe b13b 7bcd 0f3b
00000360: 3b8a e539 ab79 d1ba 502b 873a 607b 993a
00000370: 02e8 153b b7fa cb3b a4bb f43a e5ba 543b
00000380: 108c 873a e8c7 7e3a dccd 9d3a ecc4 df3b
00000390: 41da 1b39 4c7d 1e3a 664c a63c 7feb 7f3a
000003a0: db59 8e39 60c3 0d3a 79c4 fc3b c36e a13a
000003b0: bc66 c83b e8f2 393b 167f e23a a5ba c23b
000003c0: a99b 41bb b4cc d73b d45d cc3b a7fa 1a3c
000003d0: 37cf 963b fcaa 4a3a 25fd 9eba 62fb 21ba
000003e0: 295a 173b ceb9 433a 7305 3ebb 087b 683a
000003f0: f8ec 823a d1a1 cc3b 7c82 8b3b 56b6 033b
0.005815771 -0.00036461515 0.006423697 3.5340432e-05 0.007019374 0.007388733 0.0077832215 0.0002939194
0.010766308 0.0001278363 0.006183505 0.0030005367 0.029832555 0.010310198 0.02078814 0.004528038
-0.0014369923 0.005937107 0.0020700148 0.024850225 -0.00183837 0.010963327 0.00044663972 -0.0011353022
0.006676598 0.0018053646 -6.73742e-05 0.0061765853 0.017009854 0.020083588 0.0024086833 0.006230541
0.0027672453 0.007909072 -0.00031576582 -0.0013289041 -0.0007734655 0.001482059 0.002805566 0.005203088
0.0055719046 4.8102345e-05 -6.0092658e-05 0.00022253703 -0.0013733476 0.0056156074 -0.0029859138 0.006630804
0.011419932 0.005446235 0.0003361383 0.0017656195 -0.0009495081 -0.0025607657 0.001316627 0.0020128926
0.0015254882 -6.5503875e-05 0.0007392822 -0.0003810881 0.000376666 0.015615355 0.0018845154 -0.0013920043
0.0005104682 0.0059107216 0.0009703668 0.019410914 -0.00010331621 0.0016724889 -0.00018617269 -0.00015084606
-0.00042065055 0.0019623707 0.016879708 0.004080001 -0.00046810275 0.024293605 0.006891571 0.0018475149
0.0015923437 0.0004666618 -0.00064684934 0.0011382126 0.0062596356 0.0058731236 0.00043562055 0.0076628844
-0.00018984725 0.0042771315 0.00072051084 0.0008242179 -0.001031965 0.00086882943 0.006430727 -0.0013439795
0.0021337422 0.007342671 0.00038521166 0.00083252613 0.026591027 0.0016272594 0.0013585717 0.007727795
0.0036475305 0.0052321698 0.004796337 0.0018254505 0.0027415804 0.01356488 0.004853489 0.007222677
-0.0025782774 -8.17101e-05 0.0023064194 0.022007449 0.006682108 0.0028981776 0.00071906846 0.0007811863
0.0029566884 0.00064210803 0.007311331 0.0039467667 0.0052679535 0.016902424 0.03793814 -0.0018605444
-0.0004990543 0.005947047 0.008765289 0.00040116135 0.0052852896 -0.000105558895 0.00035269582 0.0044593727
0.0002100677 0.011528042 0.00021076248 0.00049625384 0.0029902095 0.0009913868 0.008321256 0.006805081
0.004551283 -0.00068443525 0.0063531254 0.042272072 0.009496464 0.0021144594 0.002920648 4.2970107e-05
8.436503e-05 -0.00077707757 0.020076714 0.0010779368 0.028423902 0.00037300657 -4.3484437e-05 -0.0028393979
0.0049266345 -0.0013439978 -0.0011187522 0.031168947 0.0012946974 0.016427837 0.006417543 0.0056447485
0.031794306 0.0042683133 -0.001626332 0.005794166 -0.00026233817 0.024108583 -8.765822e-05 0.0013311902
0.0009758761 0.03531772 -0.0026362797 -0.0012486319 0.002672047 0.0029384284 0.0003429507 0.002804981
0.0027943256 0.002449246 0.0016260929 0.0009631275 -0.0021728633 0.0012042756 0.00052209425 0.0050566937
0.0026450963 0.0009254939 0.015351695 0.0053446568 -0.0004848526 0.00797615 -0.0020260396 0.00027305546
-0.0029863329 0.037709408 8.313845e-05 -0.00060538255 -0.0002831898 0.0044624466 0.0023528556 0.0075916685
-0.0011713157 0.03235761 0.0015751134 0.0020871079 -0.00018001186 0.0016646081 0.005431966 0.0021942544
0.00043781273 -0.0015981694 0.0010312591 0.0011709742 0.0022873883 0.006224956 0.0018671644 0.003246003
0.0010341424 0.00097191194 0.00120395 0.006828895 0.00014863258 0.00060458924 0.020300101 0.00097625697
0.00027151298 0.0005407836 0.007713851 0.0012316335 0.0061157625 0.0028373543 0.0017280306 0.00594266
-0.0029542244 0.006585682 0.006236771 0.009459174 0.0046023387 0.0007731167 -0.0012129886 -0.00061791216
0.002309451 0.0007466347 -0.0028994947 0.0008868431 0.0009988835 0.006244876 0.0042574983 0.0020097694
