outputs/Optimal_Control/20220507-214841/models/checkpoint.pt (torch, 533487 bytes, 7 tensors)

linear1.weight f4 [256, 2]
-0.008296616 0.45294157 -0.41940674 -0.6939094 -0.21455705 -0.57224184 -0.19814068 0.019879162
-0.6801705 0.21635115 0.08202521 -0.44606286 0.2978909 -0.4657237 -0.2236337 -0.33046147
-0.24027774 -0.36419985 0.0073056514 0.42940667 0.1958958 -0.13558228 -0.25328165 0.025893927
-0.36352015 0.6355599 0.2367786 0.20283934 -0.35268003 0.84190506 0.46372786 0.2620839
0.07293201 -0.0967274 -0.6156572 0.5568026 -0.676423 -0.37234926 0.3272098 -0.24231364
0.057344425 -0.003248539 0.62024164 -0.6290826 -0.33340636 -0.0053097606 0.34336522 -0.55339795
-0.615533 -0.6470864 -0.32511917 -0.2000851 -0.24189682 0.62985754 0.07472328 -0.900134
-0.53095156 -0.6781892 0.04218786 0.13298063 0.3179695 0.15332729 -0.6940512 -0.28513733
-0.5005758 0.24702513 0.2419576 0.023746813 0.37743786 -0.53045243 0.44426978 -0.31536213
0.47105452 -0.057338018 0.42221412 0.24664302 0.16624199 0.31987265 -0.2559094 -0.34555104
0.16939224 0.51746416 -0.35078257 0.30514425 -0.34767693 -0.021803498 0.6172719 0.55961204
0.30328906 -0.07358662 0.556862 -0.5655427 -0.11149995 0.36333802 0.3158579 -0.7918178
-0.4344327 0.2937792 -0.17394851 0.7129953 0.0039061778 0.19526614 -0.11796696 0.42282754
0.12371522 -0.31432924 -0.060520828 -0.36310259 -0.24498546 -0.42669982 -0.5043416 0.29041708
0.31032455 -0.050944045 0.41568568 0.08469779 -0.546406 -0.45244238 0.2003438 -0.17679276
0.29563695 0.22030538 0.30476776 0.150946 -0.14042181 -0.63428855 -0.31609714 0.63244593
-2.2295268e-05 -0.01060823 -0.23453759 0.44807944 -0.16047263 -0.24947968 0.34148026 0.33463258
0.3399361 0.5314389 -0.29698902 -0.6877016 -0.542213 -0.22345027 -0.36452034 0.29853648
-0.10455084 -0.3759019 0.17120963 -0.6928038 0.25616893 0.51794213 0.15024996 0.52432275
0.16195475 0.42206135 0.041302316 -0.044590805 0.48969415 0.302421 0.008853421 0.1906997
0.07884957 0.40577522 0.0049093803 0.206407 0.2684749 -0.17122105 0.5550386 -0.108090036
-0.124911785 -0.18953472 0.5229821 -0.843653 0.07308984 -1.1437405 -0.33814004 0.32930934
-0.07669929 0.70069313 0.3938133 0.058005515 -0.024707966 0.03737653 0.05216522 0.14719838
0.2515719 0.3805067 0.34221444 0.18740432 -0.2962632 -0.10488784 -0.066185325 0.6261797
-0.70387495 -0.13471079 -0.44225538 0.4241699 -0.17500368 0.5027801 0.4040401 -0.47675902
-0.45632568 -0.5182181 0.28836647 -0.13911088 0.38327506 -0.4730941 0.33912557 -0.11795487
0.08301162 -0.22573544 -0.6192523 0.4439569 0.5069467 -0.55885595 0.6065073 0.60910887
-0.17479688 -0.13894081 0.3725718 -0.15618552 0.1976232 -0.14375143 -0.36138114 0.28300494
-0.3206733 -0.6550938 0.09613733 -0.24219382 -0.27642894 -0.22647652 -0.05121541 -0.20432448
0.54787505 0.30111396 -0.5369498 -0.4719416 -0.69687957 -0.018064737 -0.52021426 0.1390475
0.48425037 0.14779358 -0.65394384 -0.34675458 -0.0029473405 0.20292835 0.010259237 0.27436918
0.47832027 -0.4347602 0.6026313 -0.6841854 -0.23864153 -0.64487153 0.22776286 -0.18050486
00000000: 88ee 07bc f5e7 e73e 7bbc d6be 0ca4 31bf
00000010: d8b4 5bbe 717e 12bf 64e5 4abe a0d9 a23c
00000020: a71f 2ebf 288b 5d3e d5fc a73d 5a62 e4be
00000030: 2885 983e 5673 eebe 3c00 65be 3f32 a9be
00000040: 5e0b 76be 6778 babe 3f64 ef3b 31db db3e
00000050: e998 483e 15d6 0abe 22ae 81be 801f d43c
00000060: 501f babe 0eb4 223f 1776 723e 1eb5 4f3e
00000070: 7a92 b4be 1787 573f bd6d ed3e dc2f 863e
00000080: 615d 953d 0419 c6bd b69b 1dbf 9d8a 0e3f
00000090: 0f2a 2dbf 90a4 bebe 0b88 a73e 1121 78be
000000a0: fde1 6a3d 71e5 54bb 28c8 1e3f 8f0b 21bf
000000b0: 3db4 aabe 80fd adbb 91cd af3e 7dab 0dbf
000000c0: 9293 1dbf 74a7 25bf 0576 a6be 1ce3 4cbe
000000d0: cdb3 77be 583e 213f 8508 993d 2f6f 66bf
000000e0: 71ec 07bf cf9d 2dbf 2dcd 2c3d 132c 083e
000000f0: e6cc a23e d401 1d3e 57ad 31bf 85fd 91be
00000100: bc25 00bf 28f4 7c3e bcc3 773e ad88 c23c
00000110: 893f c13e bbcb 07bf 5477 e33e 2577 a1be
00000120: 0f2e f13e 45db 6abd 732c d83e fd8f 7c3e
00000130: 573b 2a3e 59c6 a33e 8f06 83be 11ec b0be
00000140: 2975 2d3e 8878 043f c699 b3be de3b 9c3e
00000150: b602 b2be 409d b2bc 8805 1e3f bc42 0f3f
00000160: b448 9b3e 95b4 96bd 828e 0e3f 68c7 10bf
00000170: 165a e4bd 7107 ba3e 20b8 a13e 92b4 4abf
00000180: f66d debe 3a6a 963e 8f1f 32be dc86 363f
00000190: cafe 7f3b d9f3 473e a998 f1bd da7c d83e
000001a0: 685e fd3d c3ef a0be b0e4 77bd 95e8 b9be
000001b0: 78dd 7abe 6678 dabe 881c 01bf 8cb1 943e
000001c0: dce2 9e3e b4aa 50bd c1d4 d43e 0976 ad3d
000001d0: 43e1 0bbf 87a6 e7be ed26 4d3e 2909 35be
000001e0: ba5d 973e bc97 613e 850a 9c3e 9791 1a3e
000001f0: bcca 0fbe bc60 22bf 7cd7 a1be fae7 213f
00000200: b906 bbb7 24ce 2dbc 9f2a 70be ab6a e53e
00000210: f052 24be 9a77 7fbe 80d6 ae3e f654 ab3e
00000220: 1b0c ae3e 610c 083f f20e 98be 360d 30bf
00000230: 79ce 0abf 26d0 64be 69a2 babe c6d9 983e
00000240: c01e d6bd 3776 c0be 9451 2f3e 975b 31bf
00000250: 9328 833e db97 043f 20db 193e 043a 063f
00000260: 77d7 253e 6d18 d83e 9e2c 293d d9a4 36bd
00000270: 31b9 fa3e edd6 9a3e f00d 113c c846 433e
00000280: e27b a13d c5c1 cf3e dede a03b 5b5c 533e
00000290: 8b75 893e 9254 2fbe 0217 0e3f 4f5e ddbd
000002a0: c0d1 ffbd 6415 42be 28e2 053f a5f9 57bf
000002b0: 20b0 953d 1766 92bf b120 adbe 3c9b a83e
000002c0: 8414 9dbd a060 333f e6a1 c93e 3197 6d3d
000002d0: 5c68 cabc 2218 193d 33ab 553d 2cbb 163e
000002e0: 08ce 803e c6d1 c23e bb36 af3e ebe6 3f3e
000002f0: cfaf 97be 70cf d6bd 2c8c 87bd 504d 203f
00000300: 2631 34bf a0f1 09be 4c6f e2be cc2c d93e
00000310: 2a34 33be 32b6 003f 58de ce3e c219 f4be
00000320: 85a3 e9be f1a9 04bf c5a4 933e 1573 0ebe
00000330: a13c c43e 6439 f2be dea1 ad3e 5392 f1bd
00000340: ff01 aa3d 3127 67be 5287 1ebf 524e e33e
00000350: 42c7 013f 2f11 0fbf 1044 1b3f 8fee 1b3f
00000360: f4fd 32be 8046 0ebe bbc1 be3e 19ef 1fbe
00000370: bc5d 4a3e 9333 13be f306 b9be 06e6 903e
00000380: 4a2f a4be 3ab4 27bf a6e3 c43d a801 78be
00000390: 1888 8dbe 76e9 67be 40c7 51bd 703a 51be
000003a0: 8a41 0c3f 9c2b 9a3e 8b75 09bf 54a2 f1be
000003b0: b366 32bf 80fc 93bc c32c 05bf 7862 0e3e
000003c0: aaef f73e 3357 173e dd68 27bf d189 b1be
000003d0: 2b28 41bb 73cc 4f3e 5c16 283c 1e7a 8c3e
000003e0: 65e6 f43e e498 debe 0b46 1a3f c626 2fbf
000003f0: 725e 74be 4d16 25bf ab3a 693e 44d6 38be

linear1.bias f4 [256]
-0.9932198 -0.24132618 0.14867723 -0.39644885 0.61842287 0.65247005 1.3352621 -0.05966091
0.5647762 -1.2900358 -1.1435001 0.7741294 0.73942363 -1.2166747 0.12664193 -1.7570264
-0.8062521 -0.19104517 0.724204 -0.60705686 1.547138 1.4932917 0.20973304 -1.236346
0.23410217 -0.29181036 -0.77125657 0.81413716 -0.3793154 -1.3408482 0.1753219 -0.34904855
-0.36963442 1.2645339 -0.989363 1.4304712 -1.3038378 0.20233563 -1.1396084 0.5679674
1.3806028 0.78553337 0.76769716 -1.6026158 1.3521445 1.4264352 0.46919224 -0.79994607
0.6655927 0.8907546 1.3357203 -0.3778895 1.1659127 0.5343646 -0.031252205 -0.6619187
-1.3922474 -1.5322036 0.6142665 -1.214948 -1.7123775 -1.5918758 -0.42098877 1.1104044
1.104821 0.92871505 -0.29016268 1.3856472 -1.2462958 0.3391546 0.10102987 -0.6675389
0.6818615 -0.15082209 -1.537577 -0.91033673 -1.7598735 -0.84278244 -1.4700471 -0.9720243
1.2517973 -0.8489036 1.5534351 1.5906353 0.65359855 -1.5243877 -1.4247426 0.088016026
1.1521723 1.5854707 -0.70107126 1.3891284 1.3114014 1.3593136 0.54458135 0.9665491
-0.64034927 0.28367776 -0.6464185 1.2388943 -0.6093102 -1.0920227 0.5963321 -0.6411097
1.116128 0.66771907 0.997013 -1.697003 0.17561881 -1.530786 0.76800543 0.2733905
-0.021657765 1.7483249 0.43756732 -0.33747774 -1.1361184 -0.11750388 -0.62638 0.74089646
-0.10529916 0.2849149 1.2076666 -1.4423249 1.1743547 1.4226521 0.1053739 -1.312708
-0.65630263 -0.36762765 0.6819283 -1.0067052 -0.52325666 1.6143223 0.3065257 -0.103901334
-1.1399602 0.71467876 0.46459675 -1.3215978 0.2002459 -0.9763052 0.318033 -1.6369519
-0.56887776 1.4420503 1.1325655 1.641842 1.5814147 -0.5831956 0.46230596 0.27537122
0.21832061 0.37923494 -0.5403289 -0.47724545 0.16957541 0.27997598 0.71735483 -0.68854153
-0.092468694 1.0332509 1.2597522 1.2367251 -0.45283306 -1.2652589 0.08998868 -0.49736255
-1.1824579 -1.7948161 -0.3878046 -0.107483506 0.7342631 -0.16108441 0.29965064 -1.5563669
0.7372368 0.7881601 -0.43467292 -1.1191022 0.3149377 -0.26113883 0.6831889 -1.3504931
0.3951119 -0.14333564 -1.1417247 -1.1677492 -1.7349629 1.2343498 0.1768844 -0.22523081
0.4620454 0.6297686 0.226657 1.6044276 -0.6913011 1.2318127 -1.0505221 -0.16627996
1.4797316 0.6469719 -0.23127483 1.2276999 -0.066022515 1.4960296 0.34580442 -0.43273163
-0.86049026 0.1614247 0.44774488 -0.06580919 1.640085 -0.23205301 -1.1664832 0.23402679
0.36397296 0.98573816 -1.4662002 -0.78477407 -1.4107578 -1.4129097 1.0154153 -1.0601501
-1.7166822 -0.88498837 -0.6159329 -1.1104038 -1.3251405 -0.5036489 -1.7609063 0.45563793
-1.692868 -0.92896503 0.62834746 -0.03243488 -1.714027 1.1256466 -0.8364899 -1.7475485
0.6454497 -1.0252824 1.6304517 -0.6913375 -0.10565174 -1.5681869 0.6545451 -0.86006415
0.42318913 -1.4586809 1.6293494 -1.36526 -0.82454306 1.3569493 1.440725 -0.91583747
00000000: a743 7ebf 361e 77be d83e 183e 58fb cabe
00000010: f650 1e3f 4708 273f dee9 aa3f 005f 74bd
00000020: 2c95 103f e51f a5bf 365e 92bf 582d 463f
00000030: de4a 3d3f ffbb 9bbf 6cae 013e 3ee6 e0bf
00000040: 8a66 4ebf 58a1 43be 6f65 393f 1468 1bbf
00000050: 9e08 c63f 2f24 bf3f 42c4 563e 9640 9ebf
00000060: 7bb8 6f3e 2b68 95be 1271 45bf 4b6b 503f
00000070: a135 c2be eaa0 abbf 9687 333e 7eb6 b2be
00000080: b940 bdbe 3fdc a13f e546 7dbf ae19 b73f
00000090: 28e4 a6bf 1231 4f3e b0de 91bf 5066 113f
000000a0: 98b7 b03f b718 493f cd87 443f 8422 cdbf
000000b0: 1213 ad3f 6e95 b63f f739 f03e 44c9 4cbf
000000c0: 4864 2a3f 7e08 643f e2f8 aa3f bc7a c1be
000000d0: a13c 953f 1ecc 083f 5002 00bd 8173 29bf
000000e0: 2a35 b2bf 3f1f c4bf 9240 1d3f 6b83 9bbf
000000f0: 302f dbbf 96c2 cbbf d78b d7be bb21 8e3f
00000100: c66a 8d3f 45c0 6d3f 3490 94be e35c b13f
00000110: 9f86 9fbf aca5 ad3e c0e8 ce3d d4e3 2abf
00000120: 7a8e 2e3f 1b71 1abe 53cf c4bf d40b 69bf
00000130: 8943 e1bf 97c0 57bf 812a bcbf 96d6 78bf
00000140: e53a a03f bf51 59bf f6d6 c63f f099 cb3f
00000150: 3c52 273f 231f c3bf f75d b6bf bf41 b43d
00000160: 627a 933f b4f0 ca3f 6879 33bf f6ce b13f
00000170: 00dc a73f fdfd ad3f af69 0b3f c36f 773f
00000180: eeed 23bf 363e 913e af7b 25bf 1794 9e3f
00000190: c1fb 1bbf 66c7 8bbf 38a9 183f c41f 24bf
000001a0: 48dd 8e3f a3ef 2a3f 3e3c 7f3f 6537 d9bf
000001b0: 6bd5 333e ccf0 c3bf 019c 443f d7f9 8b3e
000001c0: a06b b1bc 1cc9 df3f d308 e03e e2c9 acbe
000001d0: 546c 91bf e0a5 f0bd 715a 20bf 64ab 3d3f
000001e0: 16a7 d7bd 5ee0 913e d294 9a3f 1a9e b8bf
000001f0: 4151 963f 7719 b63f 45ce d73d d106 a8bf
00000200: 7303 28bf b139 bcbe da92 2e3f b7db 80bf
00000210: 26f4 05bf 1da2 ce3f f0f0 9c3e 39ca d4bd
00000220: 37ea 91bf 30f5 363f a0df ed3e 1e2a a9bf
00000230: 430d 4d3e 23ef 79bf 39d5 a23e a487 d1bf
00000240: f9a1 11bf 1b95 b83f e8f7 903f e127 d23f
00000250: cc6b ca3f 4f4c 15bf 5eb3 ec3e 75fd 8c3e
00000260: 708f 5f3e 152b c23e ff52 0abf 8459 f4be
00000270: 2da5 2d3e 0359 8f3e 91a4 373f 4244 30bf
00000280: 3a60 bdbd 9141 843f 8f3f a13f 024d 9e3f
00000290: bcd9 e7be 01f4 a1bf fc4b b83d 4ea6 febe
000002a0: c85a 97bf 89bc e5bf 538e c6be 5020 dcbd
000002b0: abf8 3b3f 50f3 24be cf6b 993e 0837 c7bf
000002c0: 8dbb 3c3f dcc4 493f 738d debe be3e 8fbf
000002d0: 843f a13e fdb3 85be 78e5 2e3f f5dc acbf
000002e0: 1b4c ca3e 94c6 12be 0924 92bf ce78 95bf
000002f0: 4413 debf 2dff 9d3f 2f21 353e e8a2 66be
00000300: 3791 ec3e 8438 213f c618 683e e25d cd3f
00000310: 1cf9 30bf 0aac 9d3f 8277 86bf 4b45 2abe
00000320: d867 bd3f f39f 253f 4fd3 6cbe 4525 9d3f
00000330: d036 87bd e67d bf3f 470d b13e 008f ddbe
00000340: 1749 5cbf 844c 253e d13e e53e f8c6 86bd
00000350: 4eee d13f 4e9f 6dbe 524f 95bf b8a4 6f3e
00000360: aa5a ba3e 5659 7c3f 73ac bbbf f4e6 48bf
00000370: b693 b4bf 3ada b4bf 21f9 813f 00b3 87bf
00000380: 3ebc dbbf 998e 62bf c7ad 1dbf b621 8ebf
00000390: 349e a9bf 22ef 00bf 6165 e1bf 6049 e93e
000003a0: e6af d8bf a7d0 6dbf 61db 203f 70da 04bd
000003b0: 3d65 dbbf 3015 903f 3424 56bf abaf dfbf
000003c0: 313c 253f 743c 83bf a4b2 d03f 7ffb 30bf
000003d0: f15f d8bd 59ba c8bf 4590 273f 2a2d 5cbf
000003e0: 3fac d83e 0eb6 babf 858e d03f d7c0 aebf
000003f0: 4115 53bf 84b0 ad3f ad69 b83f 5374 6abf

linear2.weight f4 [256, 256]
-0.1097577 -0.053866126 0.10421424 0.018612638 0.07938552 -0.040310428 0.046624467 -0.041741468
0.097544365 -0.058697283 0.01360398 -0.0037178604 0.072571516 0.05351434 0.016147152 -0.012393542
-0.05517512 0.014160961 0.076321766 -0.0240687 0.0019660397 -0.037926428 0.013283651 -0.009377503
0.008883791 -0.01875145 0.014945602 0.16850786 0.050787292 -0.032413073 -0.059436247 0.057387717
-0.025090642 0.0054414193 0.028910736 0.059194576 -0.012041574 -0.012148154 -0.06884077 -0.0011804143
0.033105414 0.016882498 0.034331024 -0.029969212 -0.05370018 0.054628413 0.023732092 -0.04505818
0.088449 -0.0034422423 0.084356144 -0.012605301 -0.0452005 0.0655261 0.02296359 0.044438183
0.0036997977 -0.03352016 0.061849292 0.01364713 -0.014453781 -0.011809147 0.030788705 -0.04088407
0.19948164 0.005411338 -0.05420126 -0.0100370925 0.0062465495 -0.016299428 0.02690305 -0.022076137
-0.0044500274 -0.009652368 0.017724596 0.041880146 -0.062068615 0.031622645 0.040724255 -0.07731014
0.05043818 -0.056419306 0.022005405 -0.062082805 0.09278517 0.058954418 0.0012217691 0.025630139
0.0524548 -0.006237324 -0.00018601128 0.06997223 0.046753373 -0.02863768 0.05734034 0.0926439
0.041679718 -0.019147616 -0.06270465 0.03691434 0.0038979053 0.04196368 0.03247211 0.026208872
0.048262995 0.08812193 0.04633139 -0.002396971 0.094995245 -0.04447041 0.015390523 0.0821677
-0.026576906 0.092086494 0.039818887 -0.04848112 -0.004926917 -0.007651292 0.017261803 0.016193744
-0.029280199 0.0048678606 0.045740817 -0.10847769 -0.02769122 -0.046507098 0.052799672 -0.04110057
-0.020790905 -0.060834855 -0.019724049 -0.054291777 -0.031921893 0.021783216 0.059063446 -0.048564505
0.030720456 -0.021591846 0.079179324 0.004629124 -0.0014029025 -0.033976916 -0.012496017 -0.018192427
-0.025375642 0.051114284 0.074535325 0.020613281 0.007976731 -0.06905771 0.01910807 -0.0029661222
0.059042715 0.03200032 0.04051187 -0.04554335 0.03759269 0.05419362 0.087152995 -0.02057676
0.040057685 -0.038164806 0.054629758 0.034877293 0.046774857 -0.018342804 0.0624749 0.05413644
-0.028469335 0.031826183 -0.05432202 0.06149006 0.023702541 -0.0065425187 0.1411718 0.013273905
-0.02189559 0.036839437 0.016433485 -0.016786654 -0.026644494 -0.046960473 0.049883954 0.018064314
0.08939359 0.054174483 0.10981268 0.038680173 0.0122409575 0.059995927 0.055400178 0.061692342
0.08316475 -0.0059135975 0.053255618 0.052356597 0.050184764 0.09154985 -0.00663101 -0.03670535
0.003570913 -0.03459117 -0.09806941 0.08260258 0.022339337 -0.046700772 0.021687534 -0.022672854
0.0005414695 0.07463041 -0.06535694 0.038853057 0.20812018 0.005363117 0.03509725 0.10052381
0.011876302 0.02058822 -0.043570295 -0.09398347 -0.014610739 -0.098667786 -0.040909227 -0.07193825
0.040960576 -0.056505207 -0.01745477 -0.0025624544 -0.006600584 0.016969651 -0.009967231 0.056305103
-0.040993273 -0.07411993 -0.01648778 0.044193096 -0.00022443436 -0.030445218 0.060843352 -0.007236023
0.040577307 0.042539906 -0.063944004 -0.052527025 -0.025929224 0.009117728 0.04412386 0.019834373
0.025556533 -0.04543306 -0.036647018 -0.053219147 -0.056391597 -0.018950054 0.25983703 -0.018837478
00000000: a5c8 e0bd baa2 5cbd 476e d53d 8879 983c
00000010: e094 a23d 8c1c 25bd 4cf9 3e3d 1af9 2abd
00000020: 57c5 c73d 906c 70bd 3ae3 5e3c 59a7 73bb
00000030: 60a0 943d da31 5b3d 0847 843c 480e 4bbc
00000040: 4eff 61bd 6003 683c 964e 9c3d b92b c5bc
00000050: acd8 003b be58 1bbd aca3 593c 19a4 19bc
00000060: 528d 113c a49c 99bc 66de 743c 538d 2c3e
00000070: 5606 503d 92c3 04bd 6c73 73bd 620f 6b3d
00000080: e48a cdbc ef4d b23b 35d6 ec3c 0376 723d
00000090: 064a 45bc 0d09 47bc 64fc 8cbd 22b8 9aba
000000a0: 8b99 073d 2a4d 8a3c b09e 0c3d fe81 f5bc
000000b0: b8f4 5bbd 0bc2 5f3d ce69 c23c ed8e 38bd
000000c0: c024 b53d 3e97 61bb eac2 ac3d 7786 4ebc
000000d0: 2924 39bd 8c32 863d 241e bc3c d004 363d
000000e0: 4e78 723b 6f4c 09bd af55 7d3d 3698 5f3c
000000f0: 8dcf 6cbc 277b 41bc 9838 fc3c 0e76 27bd
00000100: ea44 4c3e 9851 b13b 2402 5ebd 9e72 24bc
00000110: dbaf cc3b 6186 85bc c963 dc3c 04d9 b4bc
00000120: 89d1 91bb f724 1ebc 2c33 913c 848a 2b3d
00000130: a93b 7ebd bf86 013d 7ace 263d c754 9ebd
00000140: 4498 4e3d ee17 67bd ae44 b43c 8a4a 7ebd
00000150: 2706 be3d 307a 713d c523 a03a 4cf6 d13c
00000160: d8da 563d 7762 ccbb 060c 43b9 9a4d 8f3d
00000170: 7780 3f3d 9199 eabc b4dd 6a3d 16bc bd3d
00000180: 5ab8 2a3d 76db 9cbc 4c6b 80bd 7e33 173d
00000190: 0074 7f3b 1ce2 2b3d 7a01 053d fdb3 d63c
000001a0: 6baf 453d 4579 b43d fcc5 3d3d 8016 1dbb
000001b0: de8c c23d 9b26 36bd 8828 7c3c 8a47 a83d
000001c0: d0b7 d9bc d897 bc3d 2119 233d 2494 46bd
000001d0: fa71 a1bb b0b7 fabb a068 8d3c bea8 843c
000001e0: 07dd efbc 9382 9f3b b95a 3b3d 8d29 debd
000001f0: b3d8 e2bc 3a7e 3ebd 7844 583d 1259 28bd
00000200: b051 aabc f82d 79bd 5494 a1bc 0e61 5ebd
00000210: 88c0 02bd b772 b23c 83ec 713d 93eb 46bd
00000220: 77a9 fb3c 62e1 b0bc c528 a23d e8af 973b
00000230: 99e1 b7ba 612b 0bbd 18bc 4cbc 4908 95bc
00000240: 94e0 cfbc 365d 513d faa5 983d 2fdd a83c
00000250: d6b0 023c 216e 8dbd 8788 9c3c 4663 42bb
00000260: c6d6 713d c412 033d c6ef 253d aa8b 3abd
00000270: cbfa 193d 21fa 5d3d 457d b23d 9890 a8bc
00000280: 8713 243d b352 1cbd 74c3 5f3d 7edb 0e3d
00000290: fe96 3f3d a643 96bc aee5 7f3d 2cbe 5d3d
000002a0: 8638 e9bc 2c5c 023d c480 5ebd 00dd 7b3d
000002b0: d52b c23c a062 d6bb 578f 103e cb7a 593c
000002c0: 615e b3bc f3e4 163d 849f 863c 2a84 89bc
000002d0: 8e45 dabc a059 40bd 1e53 4c3d 9dfb 933c
000002e0: fd13 b73d 10e6 5d3d 78e5 e03d 1a6f 1e3d
000002f0: 4c8e 483c 4abe 753d 4ceb 623d 1cb1 7c3d
00000300: 4852 aa3d dac6 c1bb 9022 5a3d df73 563d
00000310: 8a8e 4d3d 7d7e bb3d f248 d9bb 5958 16bd
00000320: fb05 6a3b 78af 0dbd 9dd8 c8bd 8b2b a93d
00000330: fc00 b73c 4f49 3fbd 0eaa b13c 6cbc b9bc
00000340: 67f1 0d3a d4d7 983d dcd9 85bd 6224 1f3d
00000350: 751d 553e 16bd af3b 22c2 0f3d 6ddf cd3d
00000360: d294 423c a0a8 a83c c476 32bd 687a c0bd
00000370: e261 6fbc 5612 cabd 6f90 27bd 5c54 93bd
00000380: 47c6 273d 0172 67bd 4efd 8ebc daee 27bb
00000390: b649 d8bb f003 8b3c 994d 23bc 2ea0 663d
000003a0: 90e8 27bd 31cc 97bd 6111 87bc d203 353d
000003b0: 2456 6bb9 4068 f9bc e136 793d 291c edbb
000003c0: 6434 263d 533e 2e3d 13f5 82bd 9426 57bd
000003d0: 8669 d4bc 8662 153c 38bb 343d b27b a23c
000003e0: ef5b d13c 0418 3abd 2f1b 16bd 52fc 59bd
000003f0: e0fa 66bd 253d 9bbc 5c09 853e 0e51 9abc

linear2.bias f4 [256]
0.40617034 0.043196533 -0.45824325 -0.018784568 -0.049993187 0.25876883 -0.05341073 -0.048897825
-0.5833899 -0.65206254 0.4946748 -0.1905627 -0.13396208 -0.028680928 0.028588824 0.05671249
-0.16304678 0.040181052 -0.83439183 0.14395688 -0.6102739 0.058015388 -0.0154263005 -0.75438696
-0.030487493 0.37034318 1.0838441 -0.039344802 -0.11840533 0.066154964 0.26524958 -0.24761134
-0.03790995 -0.033551887 -0.9024359 -0.039016653 -0.01580549 -0.07073439 -0.055744022 0.0036330463
-0.70650256 -0.036203668 -0.054715287 0.31433022 0.034783915 -0.039323427 -0.37959823 0.02546799
0.30373958 0.023077652 -0.019404322 0.03180756 -0.011934698 -0.54630655 -0.090640195 0.48902148
-0.059959844 0.6217502 0.06119492 0.022380417 0.27675885 0.016609812 -0.061463565 0.08634568
0.21310082 -0.013448276 0.0079716295 -0.45859626 -0.032241136 0.31199926 0.13404639 -0.025691412
-0.23320703 0.025390198 0.33350354 0.36339933 0.105033405 -0.021433625 -0.5032296 0.098658994
0.27163792 -0.04396493 0.13593663 -0.41689998 0.0024505418 0.0032352947 0.04872261 0.053404443
0.023523463 -0.062295504 0.0013350174 0.008377065 0.38488543 -0.31397927 0.26195836 -0.056092348
-0.011735098 0.24278863 0.22659759 -0.4182281 -0.024861611 -0.894457 0.04915764 -0.5263867
-0.4573582 0.09255002 0.041609496 0.0064485073 0.060142845 -0.6234018 -0.047464095 0.11061108
-0.023790404 -0.06827101 0.9736072 -0.6294211 0.011113495 -0.014531314 -0.049151257 -0.32495576
-0.05764773 0.0018457025 0.060678072 0.04651546 -0.054970685 -0.020758217 -0.046042368 0.023841353
0.67702687 0.006116383 -0.05557476 0.1057429 0.34419006 0.56301594 0.058311824 0.17305356
0.031162212 0.36125734 0.30461457 0.021557134 -0.030913033 -0.4589707 -0.007725777 -0.011061467
-0.029264469 -0.011647753 0.6369072 -0.14332186 0.6273099 0.047510378 0.037030153 -0.58590305
-0.59922194 -0.2813233 -0.050940923 0.028431267 -0.7614365 -0.1410547 -0.69956636 0.04638359
0.8411089 -0.7271723 -0.009597771 -0.058890663 -0.049381353 0.3279624 -0.0008610606 -0.044858377
-0.054590926 0.04694187 -0.046524752 -0.27221265 0.023999996 -0.5766056 0.9876024 0.041390724
0.36471325 -0.5777656 -0.007729605 -0.038644787 -0.041493356 0.35014307 -0.1185045 -0.78412175
-0.056409422 0.02439212 -0.023170017 0.0036742315 -0.04978752 0.07367829 -0.5723113 -0.07195984
-0.7544761 0.03550046 0.39651555 -0.03651548 0.023131823 -0.00538446 -0.14902565 0.040006403
0.046764456 0.44142035 0.08203426 0.025996491 0.38765365 -0.48060986 0.24252625 -0.05230943
-0.0063170493 -0.054976217 -0.043155193 0.35903475 0.48852065 0.3019706 0.074049644 0.36417174
0.01416152 -0.0665636 0.012585164 -0.05800775 -0.004334719 -0.42771032 -0.04036912 -1.0258025
-0.83227193 -0.29964304 0.35167876 0.38333398 0.3483116 0.6759884 -0.10288253 0.048596766
-0.05394222 -0.10612903 -0.039812952 0.058122918 -0.52428 0.617776 -1.0446118 0.011677062
-0.60330236 0.039360017 0.896533 -0.23864461 -0.061859585 0.4056352 -0.63091654 -0.91793895
-0.03947723 -0.32748365 0.34323373 -0.042104233 -0.022997284 -0.09167994 0.55494964 -0.061192907
00000000: 8ff5 cf3e d9ee 303d dc9e eabe 18e2 99bc
00000010: a8c5 4cbd 597d 843e 36c5 5abd 1649 48bd
00000020: 0a59 15bf 92ed 26bf 0446 fd3e de22 43be
00000030: 5b2d 09be 44f4 eabc 1c33 ea3c 5b4b 683d
00000040: bcf5 26be e394 243d b49a 55bf 6f69 133e
00000050: e93a 1cbf 8ba1 6d3d 98be 7cbc 811f 41bf
00000060: e8c0 f9bc 9f9d bd3e 67bb 8a3f 0428 21bd
00000070: 7e7e f2bd 417c 873d cbce 873e d48d 7dbe
00000080: 7747 1bbd b46d 09bd 0a06 67bf edcf 1fbd
00000090: 847a 81bc 31dd 90bd d853 64bd 6718 6e3b
000000a0: 5add 34bf 4c4a 14bd 231d 60bd e4ef a03e
000000b0: 9479 0e3d 9a11 21bd b35a c2be 3fa2 d03c
000000c0: c183 9b3e 580d bd3c d0f5 9ebc a548 023d
000000d0: c089 43bc bfda 0bbf 91a1 b9bd 0661 fa3e
000000e0: 7498 75bd 052b 1f3f 86a7 7a3d 2357 b73c
000000f0: 56b3 8d3e 4d11 883c 38c1 7bbd 01d6 b03d
00000100: 1a37 5a3e 2856 5cbc 709b 023c 21cd eabe
00000110: 480f 04bd 5ebe 9f3e 7543 093e cc76 d2bc
00000120: d3cd 6ebe 1bff cf3c fac0 aa3e 7a0f ba3e
00000130: c11b d73d 9295 afbc a8d3 00bf ba0d ca3d
00000140: 2014 8b3e 9214 34bd f932 0b3e ea73 d5be
00000150: 4599 203b 3d07 543b 5c91 473d 9ebe 5a3d
00000160: 47b4 c03c 9229 7fbd c0fb ae3a f53f 093c
00000170: b40f c53e e4c1 a0be 681f 863e 17c1 65bd
00000180: 9244 40bc 959d 783e 3309 683e fe21 d6be
00000190: 94aa cbbc 22fb 64bf 8659 493d 47c1 06bf
000001a0: db2a eabe dd8a bd3d b86e 2a3d 004e d33b
000001b0: 5858 763d 4397 1fbf b669 42bd 1088 e23d
000001c0: 18e4 c2bc acd1 8bbd 523e 793f be21 21bf
000001d0: 6015 363c c014 6ebc d452 49bd 9a60 a6be
000001e0: 0720 6cbd 80eb f13a 9289 783d ff86 3e3d
000001f0: f128 61bd 230d aabc ec96 3cbd f14e c33c
00000200: a251 2d3f f06b c83b 5ca2 63bd bc8f d83d
00000210: ae39 b03e d021 103f 61d8 6e3d f434 313e
00000220: e547 ff3c b9f6 b83e 71f6 9b3e 9698 b03c
00000230: 543d fdbc 35fe eabe 8428 fdbb 283b 35bc
00000240: 0abc efbc 38d6 3ebc 5a0c 233f f7c2 12be
00000250: 6297 203f 3e9a 423d eeac 173d befd 15bf
00000260: 9c66 19bf 9c09 90be 6ea7 50bd b0e8 e83c
00000270: 81ed 42bf a570 10be c816 33bf b8fc 3d3d
00000280: ea52 573f f727 3abf f83f 1dbc 5637 71bd
00000290: 1a44 4abd b0ea a73e ccb8 61ba 6bbd 37bd
000002a0: bc9a 5fbd 1e46 403d bd90 3ebd 755f 8bbe
000002b0: a49b c43c 6d9c 13bf 83d3 7c3f 5289 293d
000002c0: b2bb ba3e 72e8 13bf a048 fdbb ff49 1ebd
000002d0: f0f4 29bd f445 b33e 7db2 f2bd 34bc 48bf
000002e0: 910d 67bd fcd1 c73c 0ccf bdbc 60cb 703b
000002f0: 00ee 4bbd a5e4 963d fe82 12bf ae5f 93bd
00000300: 5825 41bf ee68 113d 1604 cb3e 4291 15bd
00000310: f37e bd3c 2070 b0bb 2e9a 18be c1dd 233d
00000320: 168c 3f3d d901 e23e 9401 a83d 98f6 d43c
00000330: 8a7a c63e 7f12 f6be cd58 783e 6a42 56bd
00000340: 40ff cebb be2e 61bd 80c3 30bd 67d3 b73e
00000350: 611f fa3e e49b 9a3e 57a7 973d b874 ba3e
00000360: b805 683c 7f52 88bd 0132 4e3c 8999 6dbd
00000370: 420a 8ebb d9fc dabe 175a 25bd 7f4d 83bf
00000380: c60f 55bf d06a 99be 3d0f b43e 5a44 c43e
00000390: e655 b23e 930d 2d3f 13b4 d2bd 670d 473d
000003a0: 84f2 5cbd 2d5a d9bd e812 23bd 4c12 6e3d
000003b0: 3737 06bf 9126 1e3f d7b5 85bf 2651 3f3c
000003c0: 0672 1abf f837 213d 3083 653f 415f 74be
000003d0: 7a60 7dbd 6baf cf3e bf83 21bf 0cfe 6abf
000003e0: e0b2 21bd f0ab a7be 55bc af3e 7d75 2cbd
000003f0: cd64 bcbc b1c2 bbbd 2e11 0e3f 6aa5 7abd

linear4.weight f4 [256, 256]
0.0038955738 0.039613433 0.024730414 -0.022347271 -0.027737351 -0.049035035 0.020371856 0.0037964135
-0.0135430265 -0.07131535 -0.01857705 0.022718607 0.018180966 0.0333009 -0.025442041 -0.008475953
0.03991582 0.027035136 -0.1318318 -0.055633314 -0.06611043 -0.025032204 -0.014598049 0.026688827
0.027961522 -0.0045376564 -0.16584171 -0.06221745 0.058814272 0.0032385853 -0.0494259 -0.0014809738
-0.011673042 0.019351855 0.030007634 0.009464725 0.06038201 0.034247912 -0.044796035 0.04481372
0.041653033 0.016501777 -0.01905174 0.034551054 -0.023486257 0.021513395 -0.063392736 -0.04995113
0.048622098 -0.035753757 -0.0521586 -0.014816106 -0.039059952 -0.00024341172 0.048348397 -0.05262681
-0.0017168 0.042078353 -0.04064879 0.012322382 -0.042006794 0.017124485 -0.0017501884 -0.026949197
-0.007411343 -0.053843103 0.051495485 -0.04940253 -0.025728136 0.008805374 -0.042915132 -0.030702278
-0.017226808 -0.029330472 0.0070384694 0.036191583 -0.0021216923 -0.02005114 0.029391622 -0.047698464
-0.007829335 -0.008459762 -0.061047267 -0.05343728 0.0617368 -0.044162825 -0.05115959 0.0057941005
-0.00434193 -0.013521239 0.005424179 -0.034957327 0.051659606 0.010613991 0.029702578 -0.04907004
-0.06428354 -0.013323932 0.011426458 -0.032056645 -0.03673704 -0.0994246 -0.009054616 0.030561093
0.022572502 -0.005754335 -0.052322745 0.013221212 0.04124102 0.029805647 -0.017156623 -0.0033938654
-0.0031367019 -0.015093637 -0.07545551 -0.07830804 0.034699686 -0.041107453 0.046313323 0.031749196
0.0061251447 -0.02932313 0.015927428 0.02540459 0.0245204 -0.010457896 0.0512212 -0.021769399
-0.038854603 -0.051576026 -0.0359193 -0.04895262 -0.042022604 0.043423966 -0.01578321 0.0027930448
0.002163944 0.0055744294 0.013726344 0.045756213 -0.014150031 -0.06540861 -0.033222135 -0.036904857
-0.0064205113 -0.009099647 -0.037047192 0.013064513 0.008326445 -0.00031085356 0.05368466 0.052944843
-0.05958406 -0.020615738 -0.004996717 -0.030376926 -0.010227623 -0.016442256 -0.01585743 -0.0299175
-0.18822853 -0.07215456 0.017216787 -0.05952549 0.027430192 -0.021050246 -0.038995583 0.00096120685
-0.06064207 -0.027373992 0.037381195 0.02256619 -0.030983709 -0.024560865 -0.13068256 -0.020757332
-0.034353975 -0.03773781 -0.023190409 0.014672383 -0.025043614 0.039229933 0.03590263 0.038558803
0.013954811 0.03486778 0.038857944 0.057395443 0.045598604 0.011323499 -0.012319837 -0.027783534
0.0145855 -0.031828053 -0.013633624 -0.031381264 0.009821124 -0.018438205 0.053487536 -0.0033490905
-0.044502206 -0.02042945 0.015764495 0.041331455 0.018131882 0.02241064 -0.009146943 0.002236709
-0.058705196 -0.026472762 0.009592198 0.048084002 0.026820485 -0.053745758 0.039830618 0.035575982
-0.050809048 -0.0012447623 0.02666959 -0.0011768448 0.02412358 -0.027458617 -0.019386372 0.053568892
-0.0029522784 -0.04791038 -0.012087381 0.04338125 -0.014369089 0.022114603 -0.01807446 -0.070280224
0.0011747086 0.016260743 0.020348763 -0.026980437 0.0542306 -0.018113399 0.09687721 -0.052755952
0.0046431054 0.04214225 -0.09497091 -0.04011683 0.004119158 -0.040831484 0.037595194 -0.059835598
0.059467666 0.050408322 0.003885728 0.006482189 -0.009049281 -0.014829777 -0.049179714 0.030497052
00000000: e24c 7f3b b241 223d 7097 ca3c a011 b7bc
00000010: 7139 e3bc f6d8 48bd e1e2 a63c 40cd 783b
00000020: 92e3 5dbc c80d 92bd e62e 98bc 5f1c ba3c
00000030: 40f0 943c 8666 083d d46b d0bc b9de 0abc
00000040: c57e 233d ca78 dd3c eafe 06be c2df 63bd
00000050: e864 87bd 5610 cdbc a82c 6fbc 87a2 da3c
00000060: 900f e53c 9fb0 94bb 69d2 29be bad7 7ebd
00000070: 3ce7 703d 723e 543b d072 4abd 3c1d c2ba
00000080: 4940 3fbc c887 9e3c 92d2 f53c ef11 1b3c
00000090: 2053 773d 8a47 0c3d 0c7c 37bd 978e 373d
000000a0: 5f9c 2a3d bc2e 873c 6512 9cbc 6885 0d3d
000000b0: 4066 c0bc dc3c b03c 0dd4 81bd 8e99 4cbd
000000c0: f727 473d 8872 12bd 42a4 55bd 41bf 72bc
000000d0: 54fd 1fbd 563c 7fb9 f808 463d 368f 57bd
000000e0: 4006 e1ba 5a5a 2c3d 587f 26bd d1e3 493c
000000f0: 510f 2cbd a648 8c3c 9466 e5ba 90c4 dcbc
00000100: dada f2bb 968a 5cbd eeec 523d 4f5a 4abd
00000110: d0c3 d2bc 6a44 103c c7c7 2fbd 5883 fbbc
00000120: 3c1f 8dbc 7546 f0bc f6a2 e63b a03d 143d
00000130: 170c 0bbb 4a42 a4bc b3c6 f03c 775f 43bd
00000140: 9c46 00bc d09a 0abc b30c 7abd 0de1 5abd
00000150: badf 7c3d 14e4 34bd b88c 51bd 70dc bd3b
00000160: c046 8ebb 3088 5dbc 50bd b13b 6a2f 0fbd
00000170: 0699 533d 4ee6 2d3c d252 f33c abfd 48bd
00000180: 17a7 83bd 9f4c 5abc 0a36 3b3c d44d 03bd
00000190: 9479 16bd 209f cbbd d059 14bc 425b fa3c
000001a0: f8e9 b83c dc8e bcbb 6050 56bd c89d 583c
000001b0: 58ec 283d f92a f43c 0c8c 8cbc 9d6b 5ebb
000001c0: 2091 4dbb 4d4b 77bc 6b88 9abd f75f a0bd
000001d0: 4221 0e3d 4a60 28bd 0ab3 3d3d 720b 023d
000001e0: 70b5 c83b 1037 f0bc 3d7a 823c 491d d03c
000001f0: 02df c83c 9857 2bbc 52cd 513d bd55 b2bc
00000200: 0126 1fbd 6241 53bd 1e20 13bd 8b82 48bd
00000210: e51f 2cbd 54dd 313d ca4b 81bc 840b 373b
00000220: f5d0 0d3b b4a9 b63b 76e4 603c de6a 3b3d
00000230: 88d5 67bc f3f4 85bd ef13 08bd 8c29 17bd
00000240: 2763 d2bb b016 15bc ccbe 17bd 8a0c 563c
00000250: a46b 083c 0ffa a2b9 72e4 5b3d b1dc 583d
00000260: 6a0e 74bd 56e2 a8bc 80bb a3bb 08d9 f8bc
00000270: c391 27bc e9b1 86bc 71e7 81bc 8c15 f5bc
00000280: fbbe 40be c5c5 93bd 380a 8d3c 00d1 73bd
00000290: 48b5 e03c 9171 acbc d5b9 1fbd 80f9 7b3a
000002a0: d263 78bd 6c3f e0bc 061d 193d bbdc b83c
000002b0: 8cd1 fdbc de33 c9bc a6d1 05be 480b aabc
000002c0: c1b6 0cbd f692 1abd d0f9 bdbc 6f64 703c
000002d0: 4428 cdbc 91af 203d a30e 133d d6ef 1d3d
000002e0: b8a2 643c 84d1 0e3d 8229 1f3d 7c17 6b3d
000002f0: 9ac5 3a3d 3286 393c 24d9 49bc 4b9a e3bc
00000300: 05f8 6e3c 225e 02bd 905f 5fbc a489 00bd
00000310: c8e8 203c b80b 97bc bf15 5b3d 6a7c 5bbb
00000320: f247 36bd a95b a7bc 8b24 813c 2c4b 293d
00000330: 5089 943c 8596 b73c 0fdd 15bc c095 123b
00000340: dc74 70bd 68dd d8bc 9828 1d3c bbf3 443d
00000350: a2b6 db3c 8324 5cbd 6e25 233d 1fb8 113d
00000360: 261d 50bd 4b27 a3ba 2f7a da3c 5c40 9aba
00000370: d09e c53c e5f0 e0bc 2bd0 9ebc 0e6b 5b3d
00000380: 037b 41bb ad3d 44bd 270a 46bc 8ab0 313d
00000390: 546c 6bbc af29 b53c e410 94bc 14ef 8fbd
000003a0: aef8 993a 4035 853c 73b2 a63c 1406 ddbc
000003b0: e820 5e3d 8d62 94bc 8f67 c63d a016 58bd
000003c0: 3125 983b 5a9d 2c3d 1c80 c2bd 8c51 24bd
000003d0: 00fa 863b ea3e 27bd 6bfd 193d 2c16 75bd
000003e0: 5e94 733d f578 4e3d b3a7 7e3b 8b68 d43b
000003f0: 6f43 14bc 98f8 72bc ab70 49bd f4d4 f93c

linear4.bias f4 [256]
-0.039526287 0.17271136 0.16681173 -0.15808348 0.57201445 0.4315663 0.25816807 0.4999251
0.7157323 0.58118653 0.28906843 -0.056814708 0.27180976 -0.47072497 0.35635668 -0.1592258
-0.086487606 0.5272358 0.62971395 0.7139679 0.13332416 0.480593 -0.05036326 -0.2760969
-0.007989894 0.64920384 0.31388432 0.2590595 -0.4199487 0.26981106 -0.08157526 0.32414484
-0.573389 0.7252852 0.38955542 0.23950674 -0.036057185 0.35058257 0.20062193 0.41077244
0.53853947 0.29726785 0.5493315 0.025132466 -0.44648477 -0.043188013 0.06424191 0.34990418
-0.7698431 0.22352481 0.35447654 -0.06351912 -0.09872024 0.19465189 0.35017806 0.7272676
0.1752224 0.51674896 -0.022678742 -0.5110915 -0.12392821 0.2149074 -0.7094571 -0.4227273
0.008953621 -0.5849521 -0.027030678 -0.57778233 0.35783154 -0.22557333 0.055360425 0.012245505
0.020315532 -0.7687081 0.17767504 0.6505533 -0.07545427 0.036661237 -0.49763316 -0.29731464
-0.66758 -0.063404754 0.57954675 0.44212452 0.42956012 0.45410576 -0.08586261 0.813583
-0.07100282 0.32401514 0.011549342 -0.052316144 0.29770997 -0.58156943 -0.25021225 0.53110135
0.60355943 -0.054841723 -0.08044267 0.584218 -0.502966 0.706694 0.5328855 0.03573325
0.13543093 0.55130434 -0.03738942 0.4296466 0.15646562 0.05799665 -0.7032472 -0.06523595
0.010236022 0.5474547 -0.24199043 -0.62747324 0.40398943 0.30878186 -0.7054325 -0.18435855
-0.03659075 0.3886455 -0.2369617 -0.47480085 0.51594996 0.2603507 0.5144136 -0.07391859
0.5643799 -0.095118865 -0.506198 0.15948182 -0.12247654 0.40001222 -0.013039503 -0.7063012
-0.59282744 -0.15168418 -0.41211298 -0.5646473 0.4362124 -0.4937103 -0.65926176 -0.48926035
0.004696632 -0.030476192 0.6315529 -0.054866936 -0.13349558 -0.4382249 -0.5281267 -0.19314864
-0.073636 -0.34416032 0.08080362 -0.12212085 0.35723126 0.31923124 0.6139248 -0.3831043
0.3091947 0.51237625 0.17922759 0.42102718 0.33063304 0.0852678 0.41227373 -0.0018648434
0.11223751 -0.029830517 0.13863337 0.48270595 -0.5788145 0.73086196 -0.7752521 0.28877425
0.39912814 0.36332265 -0.032727648 -0.09951876 0.004617009 0.20115414 -0.06034176 0.14769296
0.0047505656 -0.31960025 0.21886529 0.42310542 0.73479515 -0.051253255 -0.061679974 0.29458925
0.0580267 0.3138593 -0.07234927 0.054456946 0.44596913 -0.26569274 0.20166948 -0.68076766
0.28548113 0.53526616 -0.47437736 -0.03492846 -0.3235405 -0.4293867 0.25136116 0.18049882
-0.04971473 -0.5327821 -0.6477821 -0.0019136778 -0.06732909 -0.35335997 -0.057427462 0.34295973
-0.34461626 -0.08267786 0.40317613 -0.35907724 0.5318642 -0.2582817 0.0011714713 0.29749453
0.32648033 -0.047610797 -0.83440715 0.65889 0.13124599 -0.5732255 0.613812 -0.6702421
0.31670707 -0.013827573 -0.6628894 -0.44593775 0.010339949 -0.60639435 0.2923844 0.22531334
0.6410962 0.40228766 0.36650783 0.33675075 0.22671042 0.23927246 0.08955723 -0.25371104
-0.018424576 0.47722408 -0.061125327 -0.096527144 0.3045584 0.010225478 0.009472742 0.1488144
00000000: 51e6 21bd 3fdb 303e b2d0 2a3e a3e0 21be
00000010: 8a6f 123f 42f6 dc3e 9b2e 843e 2ff6 ff3e
00000020: 3b3a 373f a4c8 143f c700 943e 8ab6 68bd
00000030: a62a 8b3e dd02 f1be 6274 b63e 170c 23be
00000040: 6a20 b1bd edf8 063f ef34 213f 9ac6 363f
00000050: 2186 083e 4910 f63e b549 4ebd 935c 8dbe
00000060: 0be8 02bc 3932 263f 72b5 a03e 72a3 843e
00000070: 8403 d7be ad24 8a3e ee10 a7bd 50f6 a53e
00000080: 9fc9 12bf 4aac 393f cf73 c73e 4141 753e
00000090: b3b0 13bd 8f7f b33e d66f 4d3e c450 d23e
000000a0: b9dd 093f 7e33 983e fda0 0c3f 9ae2 cd3c
000000b0: a799 e4be eae5 30bd 4391 833d a426 b33e
000000c0: 7014 45bf b0e3 643e f37d b53e 5016 82bd
000000d0: d62d cabd d352 473e 8a4a b33e 362e 3a3f
000000e0: 806d 333e a949 043f c5c8 b9bc e4d6 02bf
000000f0: 13ce fdbd af10 5c3e fb9e 35bf b66f d8be
00000100: 35b2 123c 6cbf 15bf 716f ddbc 8be9 13bf
00000110: b235 b73e b2fc 66be 9dc1 623d 5fa1 483c
00000120: c26c a63c 0eca 44bf 72f0 353e a98a 263f
00000130: c587 9abd 182a 163d c6c9 febe a039 98be
00000140: 86e6 2abf 5ada 81bd 2d5d 143f 255e e23e
00000150: 4eef db3e 8d80 e83e bcd8 afbd fa46 503f
00000160: ed69 91bd 50e5 a53e 7439 3d3c 7449 56bd
00000170: 716d 983e bce1 14bf d21b 80be 42f6 073f
00000180: df82 1a3f b7a1 60bd 20bf a4bd 508f 153f
00000190: 61c2 00bf e6e9 343f 2f6b 083f 075d 123d
000001a0: 68ae 0a3e 4822 0d3f a625 19bd a4fa db3e
000001b0: 8638 203e e58d 6d3d 0208 34bf 6d9a 85bd
000001c0: fdb4 273c fe25 0c3f 57cc 77be 16a2 20bf
000001d0: b4d7 ce3e a818 9e3e 3997 34bf 7dc8 3cbe
000001e0: 2fe0 15bd 8bfc c63e 16a6 72be 1919 f3be
000001f0: 4c15 043f b04c 853e 9cb0 033f a162 97bd
00000200: 337b 103f aecd c2bd 3196 01bf 344f 233e
00000210: fbd4 fabd 67ce cc3e a4a3 55bc 28d0 34bf
00000220: 8ac3 17bf 1953 1bbe 7900 d3be ba8c 10bf
00000230: 3b57 df3e 99c7 fcbe 61c5 28bf 5580 fabe
00000240: 34e6 993b 35a9 f9bc 73ad 213f 27bc 60bd
00000250: 11b3 08be 045f e0be 5033 07bf c2c8 45be
00000260: 79ce 96bd c835 b0be 5e7c a53d 7f1a fabd
00000270: 04e7 b63e 4772 a33e 2d2a 1d3f 3f26 c4be
00000280: c54e 9e3e 172b 033f 7087 373e e090 d73e
00000290: bc48 a93e e2a0 ae3d 8b15 d33e c36d f4ba
000002a0: c8dc e53d 215f f4bc e8f5 0d3e 3c25 f73e
000002b0: 302d 14bf c519 3b3f ec76 46bf 38da 933e
000002c0: 865a cc3e 6d05 ba3e 6d0d 06bd 7ed0 cbbd
000002d0: 474a 973b 5afb 4d3e ec28 77bd d33c 173e
000002e0: a2aa 9b3b a5a2 a3be 391e 603e 46a1 d83e
000002f0: 891b 3c3f efee 51bd 24a4 7cbd 67d4 963e
00000300: 68ad 6d3d 2bb2 a03e db2b 94bd 3f0e 5f3d
00000310: 1156 e43e e108 88be 7282 4e3e ca46 2ebf
00000320: 952a 923e 3407 093f 97e1 f2be 2511 0fbd
00000330: 1aa7 a5be 93d8 dbbe 69b2 803e afd4 383e
00000340: aca1 4bbd 6864 08bf 0cd5 25bf 5fd4 faba
00000350: d5e3 89bd 99eb b4be 0f39 6bbd 6b98 af3e
00000360: 8b71 b0be 0353 a9bd 1a6d ce3e f9d8 b7be
00000370: 4128 083f 803d 84be 0e8c 993a 3451 983e
00000380: 6e28 a73e 8a03 43bd b59b 55bf 04ad 283f
00000390: 5965 063e e8be 12bf c922 1d3f fc94 2bbf
000003a0: 6e27 a23e 0b8d 62bc 1fb3 29bf f451 e4be
000003b0: e468 293c a93c 1bbf 68b3 953e 8ab8 663e
000003c0: e11e 243f a6f8 cd3e eaa6 bb3e 986a ac3e
000003d0: c726 683e d703 753e c869 b73d 6ae6 81be
000003e0: 23ef 96bc b756 f43e 8d5e 7abd 06b0 c5bd
000003f0: 14ef 9b3e c388 273c 8f33 1b3c cd62 183e

linear3.weight f4 [1, 256]
-0.075840235 0.09812247 0.5374516 0.1213001 0.33630255 0.94465935 -0.1357754 -0.07650749
0.33376878 0.48215768 -0.23285674 0.00063881854 -0.03318259 -0.058965478 0.6383305 -0.2410003
-0.06885618 0.5947773 0.034530003 0.15692843 -0.065970466 -0.17843534 -0.0015590166 -0.27529728
0.07889376 0.26378116 0.38395146 0.11904468 -0.012898384 0.12052467 0.044647414 -0.33258128
-1.8796357 0.24356528 -0.13643411 -0.15679528 0.00066280307 -0.20614009 -0.04811818 0.14689435
0.22771534 -0.28582546 1.6358405 -0.06037157 -0.3160488 0.009906082 0.1855872 -0.07169854
-0.07127888 -0.42154884 -0.09328014 0.0016744199 -0.014413129 -0.32925647 0.12590887 0.60120183
-0.1509175 1.3516176 -0.004571078 -0.7010828 -0.00512308 0.06872319 -0.35264972 0.0033486984
-0.10506737 -0.2370329 -0.0035185283 -0.4517896 -0.100839555 0.049780343 -0.10092637 0.51352555
0.007778527 -2.969515 -0.190286 0.08948105 0.16131844 0.0008176077 -0.49201995 -0.23420297
-0.08461654 -0.01656147 0.2785894 -0.27052277 1.2774998 1.275985 -0.011295798 0.50861883
-8.160535e-05 -0.4225379 -0.040683266 -0.0019298134 1.4292719 0.033048403 0.15053973 -0.07568875
0.15992367 -0.26194713 -0.0005685401 0.22502568 -0.25123605 0.15450002 0.44608825 -0.13134485
-0.31029618 0.10722035 0.0020837262 -0.12664685 0.43947718 0.16558324 0.08172349 -0.09634743
-0.30677655 0.73905915 -0.037095167 -0.26523322 -0.10448496 -0.59959906 0.2619139 0.09574513
-0.107848145 -0.06681576 0.23814765 0.037864257 0.8592502 -0.247985 -0.14051934 -0.019605827
0.6922891 -0.004019404 -0.019367805 -0.32390252 -0.026026798 -0.16939197 0.001382116 -3.4315798
-0.7949487 -0.44602865 0.008580717 -0.29323173 1.6368431 -0.7391805 -0.049896814 -0.18428631
-0.14251003 -0.09487494 0.16475451 -0.0021857452 0.0926535 -0.11941545 -0.23426889 -0.13798767
-0.0022644084 0.012525526 -0.043798026 -0.47744635 0.3687219 0.07482274 0.98948765 0.027034637
-0.21964537 2.0127294 -0.36836714 -0.0030913702 0.117187575 0.034308173 -0.111152165 -0.00093841966
-0.10982628 -0.0018119134 0.016708743 0.17589657 -0.12691711 0.13804865 0.2564269 0.09845642
-0.024246108 1.5509576 0.111772664 -0.032354057 -0.0013284424 0.11106366 -0.0010902608 0.10268981
0.070340864 0.001838569 0.08049915 0.088757165 0.42027074 -7.480378e-05 -0.09833918 0.046562947
1.2103927 0.19407819 0.0013760095 0.121866636 0.59558326 -0.44613245 -0.05687638 -0.03511431
1.9422579 0.5097744 -0.02735395 0.002804775 -2.649139 -0.0032761605 -0.47918248 0.13878183
-0.0035641168 -0.07074134 -2.0847294 0.0040583955 -0.0028339983 -0.0076310365 -0.024867449 0.6939521
0.2134561 0.045515463 0.44850254 -0.49343768 0.30846146 -0.0042292164 -0.0040064338 0.01640698
0.08026657 -0.49735895 0.164557 0.5761991 -0.05058981 -0.13854979 0.1983374 0.17168567
0.86040276 -0.45653844 0.18612374 -0.49793097 -0.48189318 -0.2463856 -0.10975469 -0.05388918
0.24875633 0.9305625 -0.15806201 -0.057552073 -0.06735235 0.828704 0.44511524 0.14374541
-0.08836957 -0.014390465 0.0017290921 -0.027019467 -0.07090458 -0.08637368 -0.07920257 -0.12028247
00000000: 2052 9bbd 6ff4 c83d 6e96 093f 306c f83d
00000010: d92f ac3e 32d5 713f b508 0bbe f5af 9cbd
00000020: bee3 aa3e 5fdd f63e ff71 6ebe 6376 273a
00000030: 78ea 07bd c985 71bd a169 233f c8c8 76be
00000040: 7804 8dbd 5343 183f 556f 0d3d d9b1 203e
00000050: 861b 87bd c1b7 36be eb57 ccba c4f3 8cbe
00000060: 0d93 a13d 530e 873e 4995 c43e b2cd f33d
00000070: be53 53bc a3d5 f63d 35e0 363d 1848 aabe
00000080: e797 f0bf 2d69 793e 62b5 0bbe f18e 20be
00000090: f6bf 2d3a 6316 53be 9217 45bd 796b 163e
000000a0: 362e 693e b757 92be 3963 d13f 2e48 77bd
000000b0: 26d1 a1be 1f4d 223c 920a 3e3e afd6 92bd
000000c0: a9fa 91bd 40d5 d7be a809 bfbd 3578 db3a
000000d0: 0b25 6cbc 4e94 a8be 41ee 003e 5de8 193f
000000e0: 1e8a 1abe ce01 ad3f fbc8 95bb 2a7a 33bf
000000f0: 83df a7bb bebe 8c3d 818e b4be d675 5b3b
00000100: 902d d7bd c1b8 72be 1c97 66bb f750 e7be
00000110: f884 cebd 79e6 4b3d 7cb2 cebd 6976 033f
00000120: 04e3 fe3b 890c 3ec0 55da 42be d741 b73d
00000130: a930 253e b954 563a 0aea fbbe e7d2 6fbe
00000140: 704b adbd ecab 87bc 45a3 8e3e f681 8abe
00000150: 1d85 a33f 7a53 a33f 0312 39bc d834 023f
00000160: 8a23 abb8 e356 d8be 7fa3 26bd cbf1 fcba
00000170: 62f2 b63f c35d 073d 1627 1a3e b402 9bbd
00000180: 08c3 233e ef1d 86be 150a 15ba 226d 663e
00000190: 03a2 80be 4135 1e3e ae65 e43e 447f 06be
000001a0: 24df 9ebe 5896 db3d 208f 083b b6af 01be
000001b0: 2703 e13e a78e 293e a55e a73d cd51 c5bd
000001c0: d111 9dbe fb32 3d3f 1af1 17bd a6cc 87be
000001d0: 36fc d5bd 537f 19bf 9419 863e 0616 c43d
000001e0: 7ddf dcbd b4d6 88bd fadc 733e 8d17 1b3d
000001f0: d2f7 5b3f c8ef 7dbe 4de4 0fbe 669c a0bc
00000200: dc39 313f 34b5 83bb 3ba9 9ebc 8dd6 a5be
00000210: 2736 d5bc 1775 2dbe 1e28 b53a 019f 5bc0
00000220: c281 4bbf de5d e4be 2396 0c3c 7822 96be
00000230: 1384 d13f ef3a 3dbf 9a60 4cbd 8db5 3cbe
00000240: 26ee 11be cb4d c2bd 68b5 283e b83e 0fbb
00000250: 1ec1 bd3d 1690 f4bd 2fe4 6fbe a44c 0dbe
00000260: 7866 14bb dd37 4d3c 8f65 33bd d973 f4be
00000270: 1ec9 bc3e aa3c 993d 104f 7d3f be77 dd3c
00000280: b7ea 60be 8fd0 0040 9e9a bcbe 9698 4abb
00000290: 0a00 f03d ba86 0c3d bfa3 e3bd 4700 76ba
000002a0: 9aec e0bd ba7d edba c6e0 883c 3b1e 343e
000002b0: 8ff6 01be a05c 0d3e 634a 833e 85a3 c93d
000002c0: c69f c6bc c785 c63f 11e9 e43d b085 04bd
000002d0: 211f aeba 5875 e33d 15e7 8eba 094f d23d
000002e0: df0e 903d 23fc f03a bddc a43d 51c6 b53d
000002f0: ba2d d73e f9df 9cb8 0d66 c9bd cab8 3e3d
00000300: 26ee 9a3f 6fbc 463e 385b b43a 3795 f93d
00000310: 2578 183f 796b e4be 35f7 68bd 06d4 0fbd
00000320: e89b f83f 9380 023f 6415 e0bc 51d0 373b
00000330: 7e8b 29c0 dab4 56bb 6857 f5be d31c 0e3e
00000340: f593 69bb d6e0 90bd 356c 05c0 4afc 843b
00000350: 9aba 39bb c60d fabb d2b6 cbbc d8a6 313f
00000360: 3c94 5a3e 6c6e 3a3d 20a2 e53e dda3 fcbe
00000370: a9ee 9d3e 3d95 8abb 6748 83bb ee67 863c
00000380: cd62 a43d d5a5 febe a181 283e c981 133f
00000390: 4337 4fbd ffdf 0dbe f618 4b3e 5ece 2f3e
000003a0: 5b43 5c3f 68bf e9be 3997 3e3e cff0 febe
000003b0: b4ba f6be 824c 7cbe 11c7 e0bd e7ba 5cbd
000003c0: fbb9 7e3e 5839 6e3f 02db 21be b9bb 6bbd
000003d0: 07f0 89bd f225 543f 25e6 e33e ff31 133e
000003e0: 1bfb b4bd fcc5 6bbc b4a2 e23a ee57 ddbc
000003f0: 6c36 91bd afe4 b0bd f534 a2bd a856 f6bd
