outputs/Optimal_Control/20220325-150419/models/checkpoint.pt (torch, 533487 bytes, 7 tensors)

linear1.weight f4 [256, 2]
00000000: c6d7 873e d0f6 2ebf e87d 1abf 924b d63e
00000010: 990f aa3c a862 adbe aae9 0e3e 3e64 1fbf
00000020: e0d7 72bd 4063 96bc c9e8 e5be 26c9 7dbe
00000030: 924f 623b 02be 1b3f bc31 cdbe 482d 163e
00000040: 0e80 073f 6782 3fbe d5be 803e 5629 ad3e
00000050: c307 9fbe 80af 0cbd aad6 e53e 3199 02bf
00000060: 401a aa3e 1c0e 01bf fcb7 4cbe 588f ab3d
00000070: 1a24 01bf 404a ffbd 91e5 013f a5a2 ddbe
00000080: e6d1 09bf c089 7abc b93e b3be 40b4 053e
00000090: a9b7 993c ef8a 413f 7089 f43d edca ffbe
000000a0: f00f 09bf fba8 1cbf 8d5c 5c3d 1e7c d5be
000000b0: 4089 2fbf 1816 a63d 56fb 483e b8a0 d03e
000000c0: 5d93 253f e32b 1c3f 6e75 d5be c186 343f
000000d0: cdcf 033f 50de b2be a5ba 0f3e 969a 29bf
000000e0: 4b12 8e3e 100c 1b3f a437 42be 3491 f3be
000000f0: 2ad4 003d 6377 233f 50cd 103f 8ddb d8be
00000100: 1058 3abd 820e d4be e43f 11bf e89a 89bd
00000110: b52b 813c 4ebd ff3d e7d7 a23e abbc 5abe
00000120: c8c5 223f eeef b23d 8d8f 12be 96e4 f23e
00000130: f8e8 7dbe 401c d5be ad5a 1abc 2bf4 313f
00000140: 601e 10bd 1ce2 00be 2d8f 9b3e a817 c73e
00000150: 9cbf f73d 6f7f 31bf e112 dc3d 28ff 0abf
00000160: 25df 043f d951 4cbf 3bc3 4f3d 8687 42bf
00000170: c89d e9bd eb18 2e3f dbd2 f5be fed4 1ebf
00000180: d563 b53d 8a34 0a3f 6a9a 33bf dcc9 463e
00000190: ff70 953d 0254 4f3d cbe8 7f3e cd67 3a3f
000001a0: 35b7 33be a70f d93d a163 5f3e 9aea 58bd
000001b0: aa2d b0be 93b8 443f d1ec 27bf 6c97 03be
000001c0: a0f3 e8bd bab5 aabe abaf e73e 06b5 083f
000001d0: 7a97 003d e92a 03bf 71de 193f 43ff 4fbf
000001e0: c891 abbe 8ea5 33bf abca 113f 1b5f b1bd
000001f0: 00f8 6bba d779 bcbe f086 fabe 68a7 1cbe
00000200: a672 21bf 72ae c73e 1d4d da3e 2f30 193f
00000210: 60b2 38bd 60fa b4bc 3fe1 403d e223 c5be
00000220: c88a 18be 4026 4d3c 40d2 dabd 61ce c9be
00000230: ff94 4b3e 1329 d9be bf59 8d3e 4453 46bf
00000240: 6070 c6bd 01b6 99be 8205 0cbf 505d f5bd
00000250: 67aa 623e e377 293f b54a 01bf c025 613d
00000260: 8733 fb3e 8512 0dbe c8e3 06bf 40a9 11bc
00000270: efd9 0fbf 6075 cf3c 3783 523b d1d1 df3e
00000280: 9c87 1c3f 4cf3 273f 43a1 42be 5bbf 193f
00000290: a774 a63e f2c3 8cbd 8162 983e 2b93 62be
000002a0: 953b 08bf 802a d53b 9c7a 0a3f c077 c63e
000002b0: 3b51 11bf 3eb7 03bf 3199 583e 2f8f 2a3f
000002c0: 10d7 4bbe a8e2 99bd b866 9a3e 8ef6 283e
000002d0: 8d68 393d 3458 073f fada 123e 0572 26bf
000002e0: f246 0e3c 8e62 75bd b699 19be c91b e13e
000002f0: 7e9c 053e 9c35 90bd d424 16be 27a0 9fbe
00000300: f6f5 d33e 149b aebe 1e94 b7be a69d bebe
00000310: 90e4 97be a888 853e 693e 173f 5a52 1f3f
00000320: 22c3 a93c 2938 1ebc 058d f83c 43d6 893e
00000330: 3336 0fbf 543b 25be 0efb ad3e 210e 09bf
00000340: 3e4d e33d 2bdc 8c3e 9f46 6f3b 6e64 c73d
00000350: a883 143f d84d 783c 9367 ad3e a1ab 333f
00000360: d571 d9be 00d8 60ba c6a7 0bbf e6b6 953e
00000370: af91 a23e 8dc3 0dbf 57f7 b9bd 1214 1b3f
00000380: d94d 923e 3017 23bf b11c 833e 933c 0f3f
00000390: 7a68 86be 6430 25be e22b 21bf 9060 29bd
000003a0: ca91 38b9 5a74 643c 306f 60be 48e0 fb3d
000003b0: 3b10 033f 3cf9 0abe 295e fe3e 361f 25bf
000003c0: 94c0 243f 2a2d 29bf 2171 f43d 8a23 0dbf
000003d0: 0a05 123e 948d ea3e 2083 3b3d fc5b acbe
000003e0: cf7a 773e 05c2 dfbd a4af 02bf d01b 3abe
000003f0: c8a8 16bf 238c 17bf 48dd 283d e102 9c3e
0.2653181 -0.68345356 -0.6034837 0.4185453 0.02075939 -0.3386433 0.13956323 -0.6226233
-0.059287906 -0.018357873 -0.44904163 -0.24783763 0.003453229 0.60836804 -0.40077007 0.14665711
0.5292977 -0.18702088 0.25145593 0.338206 -0.3106061 -0.034347057 0.44890338 -0.51015
0.33223152 -0.50412154 -0.1999206 0.0837695 -0.5044571 -0.12465334 0.50740916 -0.4328815
-0.53835905 -0.015291631 -0.3500879 0.13057041 0.018764334 0.7560262 0.119402766 -0.49959508
-0.53539944 -0.61195344 0.0537992 -0.41696256 -0.685688 0.08109683 0.19627127 0.4074762
0.64677984 0.61004466 -0.41691154 0.7051812 0.51488954 -0.34935236 0.14036043 -0.66251504
0.2774833 0.6056528 -0.18966538 -0.4757172 0.031452335 0.63854045 0.5656328 -0.42355004
-0.04549414 -0.4141732 -0.56738114 -0.06718999 0.015767911 0.12487279 0.31805345 -0.21361034
0.6358304 0.08737169 -0.14312573 0.47440022 -0.24795902 -0.41623116 -0.009421033 0.69513196
-0.035185218 -0.12586254 0.30382672 0.38885236 0.120970935 -0.69335073 0.10745788 -0.5429559
0.5190299 -0.7981239 0.050723296 -0.7598804 -0.114070475 0.6800677 -0.48012432 -0.6204375
0.08856932 0.5398642 -0.7015749 0.1941294 0.07296943 0.050617225 0.24991147 0.7281464
-0.17550357 0.105986886 0.21815349 -0.05295811 -0.3440984 0.7684414 -0.6559573 -0.12850732
-0.11374593 -0.3334177 0.45251212 0.5340122 0.03139446 -0.5123735 0.60105044 -0.81248873
-0.3350966 -0.7017449 0.5694987 -0.08660718 -0.00090014935 -0.36811706 -0.48931074 -0.15298235
-0.63065565 0.3900028 0.42636958 0.5983915 -0.045091987 -0.022092044 0.04708981 -0.3850394
-0.14896691 0.012521327 -0.10684633 -0.39415267 0.19881056 -0.4241415 0.27607533 -0.77470803
-0.096894026 -0.3002167 -0.54695904 -0.119806886 0.22135316 0.6619856 -0.5050462 0.05496764
0.4906275 -0.13776596 -0.52691317 -0.00889045 -0.56191915 0.025324523 0.0032121667 0.43714765
0.61144423 0.65605617 -0.19006829 0.6005761 0.32510874 -0.06873311 0.29762653 -0.22126453
-0.53215915 0.0065053105 0.5409334 0.38763237 -0.5676457 -0.5145148 0.21152188 0.6662473
-0.19906259 -0.075139344 0.30156493 0.16500303 0.045265723 0.5286896 0.14341345 -0.6501773
0.008683907 -0.059908442 -0.15000042 0.4396651 0.13047978 -0.07041475 -0.14662486 -0.31176874
0.4139859 -0.3410269 -0.35855192 -0.3722965 -0.29666567 0.26080823 0.59079605 0.62235034
0.02072293 -0.009656944 0.03034068 0.2692128 -0.55942076 -0.16135913 0.33980602 -0.53537184
0.11098717 0.27511725 0.00365106 0.09735952 0.5801339 0.015155278 0.33868083 0.7018376
-0.4246966 -0.00085771084 -0.54552877 0.29241103 0.31751773 -0.5537651 -0.090803795 0.605775
0.28575018 -0.63707256 0.25607827 0.55951804 -0.26251584 -0.16131741 -0.62957585 -0.041351855
-0.00017601918 0.013943756 -0.21917415 0.12298638 0.5119664 -0.13571638 0.49681213 -0.6450075
0.6435635 -0.6608454 0.1193564 -0.55132353 0.14259735 0.4581114 0.045779347 -0.33663929
0.24167942 -0.10925678 -0.51049256 -0.18174672 -0.5885129 -0.59198207 0.041226655 0.30470946

linear1.bias f4 [256]
00000000: c4a3 14bf 0dfd 26bf 5d2c debe 866b 523f
00000010: f401 613e 000d f7bc a897 2f3f 390d a83e
00000020: 37b7 29bf 9028 223f 2e3c 8f3e d694 833d
00000030: 79ba 02bf d5ba e5be 281e c9bd b7e0 283e
00000040: 7027 b6be 3423 45be 9829 68bd c634 5abf
00000050: 5029 fabe 3626 05bf 5375 283e 9b59 6abf
00000060: 2ecf d8bd 40f2 c13e 3d6f 1e3f 86d6 163e
00000070: 63bb 2d3f 4b8c abbe b09c 783e 79cc 163f
00000080: c308 a6be 1d0c 093f 970b 1a3f b2ed 583f
00000090: 79b9 2d3f dade 4dbe 63ab 24bf e73f 8b3d
000000a0: 68c8 283e 0552 6d3e 6b95 a83e 8745 8f3d
000000b0: 1529 5abf 8fdd 1cbf b5d4 143f 3d58 0e3f
000000c0: ebf7 a5be 28bd ecbd 0ab3 713f 470a 3bbf
000000d0: 4408 243f 9238 7cbf e730 01bf 8455 20be
000000e0: c47f 31be 7a26 b4be 73b6 aabe 7273 3ebf
000000f0: 50d9 a83e 208c 213f 7f9a c5be cde9 033d
00000100: 2e19 0abf f37e acbe 2d29 d73e 4fcd 4dbf
00000110: 3cc1 a43e af7a 253f fa63 04bf 0daf 1d3f
00000120: e742 8a3e f8ef 013e 8f02 54bd 111a db3e
00000130: 76c6 523e 9603 203f 0d69 243f a268 123f
00000140: 3a21 76be c808 e1be bf3f 37bf f1de 163f
00000150: 90ec e3bd ad9b 2d3f 1283 323f b0db 12bf
00000160: 004d 90bc 9b63 85be 1a5d 7cbf 77a5 c43c
00000170: 7873 7e3f efa2 be3e e0e9 443f 2a44 7ebe
00000180: dba0 42bf 3003 c63e e950 073e 8031 bcbe
00000190: 034b a03e 911d 72bf 1981 883e 86d3 aa3e
000001a0: 5a64 4e3f ffed 583f efd7 63bf 07f5 e2be
000001b0: 704e 97bd 1e50 edbe 8c0d 673e f4d2 533f
000001c0: 37db 6d3e 26e3 4d3f 5003 4ebe 05f0 34bf
000001d0: a936 0e3f c397 adbe 20d0 3abf 8bf5 203f
000001e0: 9d33 27be 9c81 3fbe 54ba 6cbf c432 49bd
000001f0: 109a 683f d2b6 ca3e a86c 42be 76bb 61bf
00000200: eaaa 423f 0c60 083f 67fb d9bd e25e d83e
00000210: c6e0 f7be 3323 ac3e c6fe 843e d2f3 37bf
00000220: 8e08 95be 5a50 3ebf 11d6 ff3e eeb8 063f
00000230: f27e f23e 9de6 ea3e aa2b fcbe bf13 0d3f
00000240: aa6c 243f 2c65 b3be f2f2 0cbe a5f4 26bf
00000250: 601d 543f dd57 49bf ab01 30bf 3d33 e0be
00000260: b327 1d3f f330 623f 3ea4 f33e de64 14bf
00000270: c4c5 20bf 7106 a7be fbaf 4c3f 17cf 54bf
00000280: 474f f0bd 9b91 03bf 0e51 c5be bf54 44be
00000290: 3816 67bf 1258 0f3f 196c e8be a3c1 103d
000002a0: 3493 80bf 20d2 4ebd c200 96be 80f6 43be
000002b0: c6bd 7f3e e1bb 6fbf be62 b2be b745 fb3d
000002c0: c7e1 da3e 3f5b fb3e abb0 d0be d206 d8be
000002d0: 7f76 d53e cec1 abbd 5a65 a8be 0d92 d7bd
000002e0: 3089 01bf 92fb 1a3f cf00 6d3f 6dcd 103f
000002f0: 80d1 08bf a724 d63e d678 71bd 1542 c53e
00000300: b803 6ebe 11f6 473e 5454 1f3f 1fe0 8b3e
00000310: de44 45bf 1ade 2d3f 73e6 183f 229b 933e
00000320: 61da 21bf e110 74bf 1716 1a3f 7ee1 00bf
00000330: 152b 763e 386f 04be 0e5e 593f f265 c93d
00000340: 3330 c53e 78ed 0c3d b9aa 82be e858 f9be
00000350: ec30 5fbf e382 133f 7068 213e b6a1 d83e
00000360: 6976 19bf 57c3 fbbe 5a46 22bf 9fe4 113e
00000370: 3dba ed3e 676c 3fbf 9592 2f3e 70a3 863e
00000380: 7a3f 023f f868 47be 558b 363f dc4a 11bf
00000390: 7341 7dbe 146f 32bf 342f 5b3f cce8 05bf
000003a0: ec6d e3be a6d9 f7be bc45 44bf 208f 23bf
000003b0: 4039 fc3e 665a 1cbf c827 38bf c84c 33bf
000003c0: 00ea b8bd 0105 a0be 568e 8d3e f94e e23e
000003d0: 9844 ad3e ec42 a43e b052 6abd b2c5 5b3f
000003e0: befb 54be fa1f c1be 7b42 b9be 6f77 593f
000003f0: 5572 213e c9d6 283f 81ac 24bf 5326 553f
-0.58062387 -0.65229875 -0.43393221 0.8219532 0.21973401 -0.030157566 0.68590784 0.32822588
-0.6629519 0.63343143 0.279756 0.064248726 -0.51065785 -0.44869104 -0.09820205 0.16491972
-0.35576963 -0.1925171 -0.056680292 -0.85236776 -0.48859644 -0.5201143 0.16451006 -0.9154298
-0.105863914 0.37880135 0.61888486 0.14730272 0.67864054 -0.33505473 0.24278522 0.5890575
-0.3242856 0.5353411 0.60173935 0.84737694 0.67861134 -0.20104542 -0.64324015 0.06799298
0.16482699 0.23175819 0.32926497 0.06995683 -0.85218936 -0.6127557 0.58137065 0.5560339
-0.3241571 -0.11559516 0.94413817 -0.73062557 0.6407511 -0.9852382 -0.50465244 -0.15657622
-0.17333895 -0.35185605 -0.33342323 -0.74394906 0.32978296 0.6310444 -0.38594434 0.03220539
-0.5394467 -0.33690605 0.42023602 -0.803914 0.32178676 0.64640325 -0.5171505 0.6159523
0.27004167 0.12689197 -0.051760253 0.42793325 0.2058352 0.6250547 0.64222795 0.57190907
-0.24036112 -0.43952012 -0.71581644 0.5893393 -0.11129105 0.6781567 0.6973125 -0.57366467
-0.017614841 -0.26052555 -0.9857956 0.024004681 0.9939494 0.37233683 0.76919365 -0.2483069
-0.76026696 0.38674307 0.13214459 -0.36756516 0.3130723 -0.94576365 0.26660994 0.33364505
0.80621874 0.84738153 -0.89001364 -0.44327566 -0.07388008 -0.46350187 0.22563761 0.82743764
0.23228155 0.80424726 -0.20118451 -0.7067874 0.55552155 -0.33904848 -0.72973824 0.6287467
-0.16328283 -0.18701786 -0.92471814 -0.04912068 0.9086008 0.39592606 -0.18986762 -0.8817667
0.76042044 0.53271556 -0.10643654 0.4225989 -0.48413676 0.33620605 0.25975627 -0.71856415
-0.2910809 -0.74341357 0.49968007 0.5262593 0.47362477 0.4587907 -0.49252063 0.55108255
0.6422831 -0.35038126 -0.13764551 -0.6521705 0.8285732 -0.78649694 -0.68752545 -0.43789092
0.613887 0.8835594 0.47586244 -0.5796641 -0.62801766 -0.32622102 0.79956025 -0.83128494
-0.11733871 -0.5139405 -0.38538402 -0.19172953 -0.9026828 0.5599376 -0.45394972 0.035340916
-1.0044923 -0.05049336 -0.29297453 -0.19137001 0.24974737 -0.93646055 -0.3484096 0.122691564
0.4275038 0.49093053 -0.40759787 -0.42192703 0.41691968 -0.08386575 -0.32889825 -0.10525904
-0.50599957 0.60540116 0.9257936 0.56563455 -0.5344467 0.4182484 -0.05895313 0.3852698
-0.23243606 0.1952746 0.6223805 0.27319428 -0.7705821 0.67917025 0.5972664 0.28829294
-0.63223845 -0.95338255 0.60189956 -0.50344074 0.24039872 -0.12933052 0.8490914 0.09833898
0.38513336 0.034406155 -0.25520876 -0.48700643 -0.87184024 0.5762159 0.15762496 0.42310876
-0.59946305 -0.4917247 -0.633886 0.14247368 0.4643115 -0.74774784 0.1714576 0.26296568
0.5087811 -0.19473636 0.71306354 -0.5675485 -0.24731998 -0.6970074 0.856189 -0.52308345
-0.444198 -0.4840824 -0.76668906 -0.63890266 0.49262428 -0.6107544 -0.719357 -0.70039034
-0.09029007 -0.31253818 0.27647656 0.44200876 0.33841395 0.32082307 -0.057207763 0.85848534
-0.20799157 -0.3771971 -0.36183533 0.84947866 0.1576627 0.65952736 -0.6432572 0.83261603

linear2.weight f4 [256, 256]
00000000: e082 293c bcfe 73bd f451 c7bc 0022 813c
00000010: dca9 8b3c 2807 17bc 9c52 dbbc f0a9 de3b
00000020: e030 373d fa80 10bd d61d 033d 8a32 08bd
00000030: 3685 27bd a890 78bd a47a 623d 0c98 0f3d
00000040: 3224 123d 4cd7 7d3d 20a2 6cbc a4b2 ea3c
00000050: e484 66bd b450 30bd 066b 49bd a89a 5c3c
00000060: 1489 72bd b039 c63c a008 d7bc d02a f5bc
00000070: 6e82 493d a2ca 693d 3696 523d 80bf d6ba
00000080: e43b 94bc 7ed4 48bd d065 ed3b 8805 6f3d
00000090: 38fb ee3c 1443 d43c 7ae9 56bd 22ab 18bd
000000a0: 4ae8 68bd 0087 563c f025 b23c 88de 613c
000000b0: ccc4 cb3c aef9 40bd 00e1 03bd 8ec9 0f3d
000000c0: f276 2fbd 8869 2fbd 3017 a63c 7849 56bc
000000d0: 100b 303d ac90 e9bc 343a 6fbd 4086 9ebb
000000e0: ee45 163d 2ea8 5e3d a800 b53c e0a8 41bd
000000f0: a057 c6bb 189a 35bd aa82 093d 763d 50bd
00000100: 2a00 0e3d 7ce6 833c d0a8 5f3d e856 85bc
00000110: 0025 0d3b 021b 3fbd a08a fc3c 109a b2bc
00000120: 903f 133d 5418 37bd a0f0 3f3c 50aa 613c
00000130: 5ac8 033d f040 04bc 40f3 c93b d887 abbc
00000140: 7c64 15bd 84e5 acbc 605b 51bb d830 2e3c
00000150: 184a 613c b0db 8fbb 0c54 28bd 1227 213d
00000160: 28a8 563d 1cf2 04bd 6687 0a3d 142e f6bc
00000170: 9cec a8bc 507d 3f3c a0b3 27bc 2800 4ebc
00000180: 4cda 2dbd a045 143d 88bd 6b3c 58d4 e73c
00000190: 3e33 0abd d6b3 58bd fad5 233d 6812 6e3c
000001a0: 5aeb 21bd 7887 573c a614 3ebd c639 553d
000001b0: 0c17 bd3c 1821 4ebd d0d7 4dbd 9a80 10bd
000001c0: 1cd9 503d f4cd b4bc 302e d8bc 50ac c43c
000001d0: b6bc 04bd 8006 e33b 94b0 4e3d f854 8cbc
000001e0: 6021 043c a840 c1bc d4b5 f0bc 3c6f 4bbd
000001f0: 7827 43bd 76e4 133d 384b 3b3d 805e a63a
00000200: 88fb 7bbd 40ad 48bd ae7c 34bd 9019 a43c
00000210: 721e 13bd da0e 453d 788a cfbc a64e 763d
00000220: cc1d 7bbd 3a53 3bbd 0a64 4c3d 54dc 14bd
00000230: d834 813c 8469 c6bc b8af 16bd 20a1 b03c
00000240: e89e 1c3c 28b6 2fbd 3c8f 11bd 38b5 e6bc
00000250: 4056 d3bb 10c1 8ebb 74fe eebc a022 5ebd
00000260: c67e 2ebd a098 d13b 8050 b23b b88c d53c
00000270: d433 713d 300c 1bbc 8050 ea3a 085c e6bc
00000280: b07e 003c 365d 17bd 2053 a73b b432 40bd
00000290: 2460 653d f6e5 38bd 8adf 053d 0ef0 62bd
000002a0: 06d3 673d 5ca1 f3bc 00be 1839 7c19 92bc
000002b0: 2262 11bd fee4 653d d46a 723d e818 593c
000002c0: 0082 c3bc 9a66 11bd f60e 0dbd b84e b13c
000002d0: 2408 5c3d f481 1abd d8e5 0f3c a065 00bb
000002e0: 9650 35bd e08f 2e3c 2471 3f3d 84ca af3c
000002f0: dc42 0f3d e0cb a63c 70de 053c 4019 2bbc
00000300: 9cff aabc 4e2a 713d ccb1 52bd e28a 073d
00000310: 42a3 03bd 3c93 3ebd 3636 053d d4c8 e13c
00000320: 7871 7b3c 1c64 ca3c b610 643d 18b1 a23c
00000330: 48f8 8c3c 6a0b 613d 8218 01bd e0ab 003d
00000340: b4ad f5bc b260 1b3d 9ab7 16bd b044 683d
00000350: 50ba 4e3c 80b6 92bc 4099 32bb 9c97 1b3d
00000360: 405c 273c d8a9 b73c 885a 31bd d092 3bbd
00000370: b8c1 853c 386a 2c3c 3499 2bbd 8aa4 3dbd
00000380: 300a da3b f017 a9bb e0a7 4bbb 30b6 cb3b
00000390: 1694 20bd 1022 06bc 224b 373d 20be 4e3d
000003a0: 80b6 72bc 8269 61bd 66b6 40bd 04c8 2cbd
000003b0: 028a 6a3d b074 723c c4a3 eabc 1864 84bc
000003c0: b42d 46bd 960c 64bd 54ba 53bd ee1c 10bd
000003d0: 3054 523d 60dc 1abd 10ff 213c c08f f93a
000003e0: 2272 0f3d c086 193c 38dd 413c 063d 62bd
000003f0: bc17 22bd fc41 513d b02a e6bc b47b 41bd
0.010346144 -0.059569106 -0.02433107 0.015763283 0.017048769 -0.009218015 -0.02677279 0.0067951605
0.044724345 -0.03527925 0.032010876 -0.033251323 -0.040898524 -0.06068483 0.05529274 0.035057113
0.03567905 0.0619729 -0.0144429505 0.028649636 -0.056279078 -0.043045714 -0.04917433 0.013464607
-0.05921276 0.02419743 -0.02624923 -0.029927641 0.049196653 0.05707801 0.051412784 -0.0016383976
-0.018094964 -0.049030773 0.007244803 0.058354884 0.029172525 0.025910892 -0.052468754 -0.03727258
-0.056862153 0.01309371 0.021746606 0.013785966 0.024874114 -0.047113113 -0.032197 0.035104327
-0.042838044 -0.04282525 0.020274729 -0.01307904 0.0429793 -0.028511368 -0.058405116 -0.004837781
0.036687784 0.054359607 0.02209504 -0.047280192 -0.006052926 -0.04433641 0.033571877 -0.050839864
0.034668125 0.016101114 0.05460435 -0.016276792 0.0021536946 -0.046656616 0.03082782 -0.021801978
0.03594929 -0.044700935 0.011715084 0.013773516 0.032173492 -0.008072123 0.006163031 -0.020938799
-0.036472782 -0.021105535 -0.0031945333 0.010631762 0.0137505755 -0.0043902025 -0.04109578 0.0393439
0.05240646 -0.032457456 0.033820532 -0.030051269 -0.020620637 0.011687592 -0.010235697 -0.012573279
-0.042444512 0.036199212 0.0143884495 0.028299496 -0.033740275 -0.05290588 0.039998986 0.014530756
-0.03953109 0.013154857 -0.04640641 0.05205705 0.023082279 -0.05032453 -0.050254643 -0.035278894
0.0509883 -0.022070862 -0.026389211 0.024007946 -0.03240653 0.006928265 0.050461367 -0.01713036
0.008064598 -0.0235904 -0.029383577 -0.04966663 -0.047645062 0.03610655 0.04572603 0.0012692958
-0.061519176 -0.04899335 -0.044064216 0.02003172 -0.035917707 0.048109867 -0.025334582 0.0601336
-0.061307713 -0.045733668 0.049900092 -0.036342934 0.015772268 -0.024220236 -0.036788672 0.021561205
0.009559371 -0.042898327 -0.03553699 -0.028162584 -0.006449491 -0.004356511 -0.029174067 -0.05423224
-0.04260137 0.006396368 0.0054417253 0.026068076 0.058887318 -0.009463355 0.0017876774 -0.028120056
0.007842705 -0.036954127 0.005106345 -0.046923354 0.05599989 -0.045141183 0.032683887 -0.055404715
0.056597732 -0.029740028 0.0001456663 -0.017834418 -0.035493977 0.056126587 0.05918391 0.013250567
-0.0238657 -0.03549824 -0.034438096 0.021643981 0.0537187 -0.03772159 0.008782826 -0.0019591823
-0.044266306 0.01065442 0.04673876 0.021458872 0.03497587 0.020360887 0.008170709 -0.010443032
-0.020873837 0.058878236 -0.05143909 0.033091433 -0.032138117 -0.046527132 0.032522403 0.027561583
0.015346877 0.024705939 0.05568 0.019859836 0.017208233 0.054942526 -0.031517513 0.031413913
-0.029990055 0.037934013 -0.03679619 0.05670613 0.012617663 -0.017909288 -0.0027251989 0.037986383
0.010214865 0.022419855 -0.043299228 -0.04579431 0.016327724 0.010523371 -0.041894153 -0.046299495
0.0066540465 -0.0051603243 -0.0031075403 0.006216787 -0.039203726 -0.008186832 0.044749387 0.050474286
-0.014814019 -0.05503226 -0.04704895 -0.042182937 0.05726052 0.014798328 -0.028642543 -0.01616101
-0.04838343 -0.055676065 -0.05169137 -0.03518384 0.05134982 -0.037807822 0.009887472 0.0019040033
0.035020955 0.009370506 0.011832528 -0.055233978 -0.039573416 0.05108832 -0.028096527 -0.047237113

linear2.bias f4 [256]
00000000: 6cc6 a23c d0b2 963c 09a2 1d3d faf7 033c
00000010: f7cc e8bd 68f9 7e3d b4c0 a1bd 8e81 d43c
00000020: 8359 65be f8a1 2f3d 567b 61bd 29be d03d
00000030: bc7c 103d 6080 91bc 2c66 cdbe b8b9 dabc
00000040: 625b 24ba 718a 153d 82a8 5a3d 0e62 843e
00000050: df78 803b 16ac fcbc 1445 fd3c 9237 513d
00000060: 6b4d f8bd c093 5fbc a15c 4abc f027 63bc
00000070: 3261 303d 6264 22bd 1704 2f3d 5eca 393e
00000080: 9ff3 803b 7e58 5abd d412 29be 7f54 16bd
00000090: 64a2 e73c 9d8d af3c 04ab a4bc 6e91 e73c
000000a0: 4a23 5abd bd34 aebe 607c 49bd 6e40 003d
000000b0: 9409 53be d886 a33c 5078 56bd f14b babb
000000c0: 003e d43c 3975 60bd a8d0 4f3c 7819 703d
000000d0: e49e 423d 7d6d 00bd f09c 1e3e d9f3 9b3d
000000e0: 6538 0db9 51ec 3cbd f55d 4fbd 0294 b1bb
000000f0: e85a 2fbd 66ed 49bd f856 f43c 782d c73c
00000100: 98cb 35bc 3481 dfbb adbc 9d3c ab85 6f3d
00000110: f596 103d 26da 443d e1f3 8abe 0383 413d
00000120: beb5 b23c 6c45 9b3e fa3e 1ebd 6a9f d4bd
00000130: e0a1 04bd 8878 15bd 1cbc 7e3d e55b b5b8
00000140: 77cd 163d 9b8b 9bbd 24e7 17bd a921 22bc
00000150: 9307 cd3c 4d6c a43e ea32 79bd 24dc 55bd
00000160: 245a a23c b0a9 c13b e06a 0ebd 94dc eb3c
00000170: 18e0 643d 0209 04bc 2dc1 67bd 94a8 adbe
00000180: 1380 a6bd be17 9cbe c69b 223c 0516 24bd
00000190: a8fb 513c 713a 49be 6d55 d63d 64db 68bd
000001a0: 4044 71bd f6c1 543d b8e8 3fbe 5063 893c
000001b0: c699 443c 33c1 dcbc 672f 173d 3e3d 48bd
000001c0: 18cc 583d e74e cabc 3d52 ff3d 5cc4 463d
000001d0: 65b9 9fbc 3e18 733d 6fdd 97bd 990b 3abe
000001e0: a0fe e23c c26b d8bc a402 57bd 0805 1b3c
000001f0: 8057 363d 8d82 543d 10c0 e93c 06aa 98bd
00000200: 5319 533d 1679 4b3c 8a07 89be 00c2 65bd
00000210: 586d 58bd 0d8d b6bb d407 b53c a359 54bc
00000220: f607 0a3d d4e0 fa3c 4731 883c 3837 bd3c
00000230: d449 cebc e49f 8ebc 080f 5ebd 4465 e839
00000240: 3e2c d1bc 5e97 143e 9414 94be 6cd6 9f3c
00000250: c990 c3bb 6116 99be f09b 2abc a6cd f1bc
00000260: 8aa2 003d 6af1 5dbc f919 5c3e 8716 28bc
00000270: c0b8 cd3a 708b 07bd 44cc e43d bf7c 7fbd
00000280: db86 c03e 7c5a 8abc 354b 59bc 2901 563e
00000290: a87f e5bb 896c 54bd 3714 2cbd 2bcb 46bc
000002a0: c3df 723d c4b9 263d 5c30 cdbc 9fa0 10bd
000002b0: c008 ed3c 1800 a1bd 7681 583d 86e5 10bd
000002c0: b562 a83d c4ed ed3d 28bd 473c 0233 4dbd
000002d0: f22c 4fbc 4927 663d 4c0a 813e 4b52 ab3c
000002e0: d91d 78bd 4480 52bd 6390 88be c090 51bc
000002f0: 9036 ad3c b03e 5dbd 72d6 47be a82f afbd
00000300: 8e47 4d3d 9d29 643c d108 8f3c a019 0cbb
00000310: 7ed0 32bd a572 f5bd ce4c 1d3d 4b9e 3dbd
00000320: cd15 a1bd cc32 0c3d a67c 84bd cdc3 b6bc
00000330: cce5 55be 2cd5 2cbd 18f3 f33c 6264 f23d
00000340: 2ac6 843b 0b3e 31bd a91d 853e a4eb 87bc
00000350: 4362 c2bc d529 e8bb 71d6 c63e f063 5b3d
00000360: 1590 6dbc a011 75bb 6c2c 35bd e171 833e
00000370: 8a42 8fbe 7c9e 8c3d 8600 7fbd bc15 d03c
00000380: 920c 86bc 3cd9 5f3e efee 813d 630e f5bd
00000390: bd2b 8dbc c0b4 9b3e adb7 423d ecb5 cd3c
000003a0: c6a0 4cbd f0fa 543d d45d 793c 5467 24bd
000003b0: 8427 66bd 2912 163e f85d 2dbd e026 cebc
000003c0: 749a 2e3d 426a 3c3d efac 403d bd16 b63c
000003d0: cf64 16bd f83e 23bd 68b7 30bd a734 b23d
000003e0: 00e7 14bd 8c88 ffbc 0dcf 303d 12d8 06bd
000003f0: bace 56bd e842 c0bc fa51 273d 14c4 393c
0.019870006 0.018395811 0.038484607 0.008054728 -0.11367219 0.06224957 -0.07898083 0.025940683
-0.22397427 0.042879075 -0.055049263 0.1019252 0.035275206 -0.01776141 -0.40117013 -0.026699886
-0.00062697206 0.03650898 0.053383358 0.2585606 0.003920659 -0.030843776 0.030916728 0.051078387
-0.12124141 -0.013646066 -0.012351186 -0.013864502 0.043061443 -0.039646514 0.04272851 0.18143603
0.003935292 -0.05330705 -0.16511089 -0.036701676 0.028275676 0.021429831 -0.020101078 0.028267588
-0.05325631 -0.3402461 -0.04919088 0.031311445 -0.20609123 0.01996176 -0.052360833 -0.0056853225
0.02590847 -0.054799292 0.012684025 0.05861804 0.04751481 -0.031354416 0.15489554 0.076148696
-0.00013467816 -0.046123806 -0.050626714 -0.0054192552 -0.042811304 -0.049298666 0.029826626 0.024313673
-0.011095904 -0.006820822 0.019255007 0.058477085 0.035300214 0.048059605 -0.2713919 0.047244083
0.021815177 0.30326402 -0.038634278 -0.10381968 -0.03238094 -0.0364919 0.062191114 -8.647869e-05
0.03681704 -0.07594987 -0.037085667 -0.0098957205 0.025028026 0.32113877 -0.06083957 -0.052211896
0.019818373 0.005910121 -0.034769893 0.028791703 0.055877775 -0.008058788 -0.05658071 -0.33917677
-0.08129897 -0.30486864 0.009924835 -0.040060062 0.012816347 -0.196512 0.104655124 -0.056849852
-0.05890298 0.051942788 -0.18741119 0.016770989 0.011999553 -0.026947593 0.03691044 -0.04888653
0.052929014 -0.024695827 0.124668576 0.048527107 -0.019497583 0.05934929 -0.07415282 -0.18168487
0.027709305 -0.02641857 -0.052492753 0.009461649 0.04451704 0.051882315 0.028533965 -0.074543044
0.051537823 0.012419006 -0.26763564 -0.056093216 -0.052838653 -0.005571014 0.02209846 -0.012960824
0.033699 0.030624785 0.01662506 0.02309762 -0.025181688 -0.017410226 -0.054213554 0.00044325937
-0.025533792 0.14510867 -0.2892195 0.019511424 -0.0059681875 -0.29899886 -0.010413155 -0.029517006
0.03140501 -0.013546327 0.21494283 -0.010259277 0.0015695319 -0.033091962 0.11171773 -0.062374827
0.37602887 -0.01688885 -0.01326256 0.2089888 -0.007003743 -0.05186132 -0.042011466 -0.0121334
0.059295427 0.040704504 -0.025047474 -0.03530943 0.028934836 -0.07861346 0.05285784 -0.03537514
0.08221952 0.11617616 0.012191094 -0.050097473 -0.012644993 0.05618981 0.25203168 0.020913264
-0.06057534 -0.051391855 -0.26672658 -0.012790859 0.021144181 -0.05401486 -0.19515398 -0.085540116
0.050117068 0.013925937 0.017460259 -0.0021377578 -0.043655865 -0.11984757 0.038403325 -0.046293538
-0.07865486 0.03422813 -0.06469087 -0.022310162 -0.20888442 -0.042195484 0.029779002 0.11835553
0.0040519433 -0.04327206 0.2599919 -0.016591854 -0.023728495 -0.007085065 0.3883548 0.053562105
-0.014499684 -0.0037394539 -0.044231817 0.2567282 -0.27980453 0.06866166 -0.06225636 0.025400989
-0.016363416 0.21860212 0.06344401 -0.11965635 -0.01723277 0.3041134 0.047538448 0.025111161
-0.049958013 0.051997125 0.015220124 -0.040137604 -0.05619003 0.14655365 -0.042325944 -0.025165021
0.042627767 0.045999773 0.047039922 0.02222764 -0.036717232 -0.039854974 -0.04314366 0.08701449
-0.03635311 -0.03119304 0.04316621 -0.032920904 -0.052443244 -0.023469403 0.040849663 0.011338253

linear4.weight f4 [256, 256]
00000000: 4caf 6e3d fc1f 21bd 1a5f 3e3d f470 c8bc
00000010: eca3 7ebd c4f1 a33c 837e 2f3d 7ac8 50bd
00000020: 9ec0 8dbc 4293 3f3d 9a60 233d e8f2 64bd
00000030: a281 12bd fc0e 943c 9a4c 58bd 8adb 75bd
00000040: c8aa 643d 4447 32bd 864a 7d3d 4e1e 383e
00000050: 353b f43c f05b e1bc 60a2 d0bb 6a0d 263d
00000060: 1db4 033d 7862 3b3c a034 8b3b 7c81 4f3d
00000070: 9ce8 663d e0e7 623d 7c64 313d c3f1 203e
00000080: d660 333d 08e1 b9bc 9c1d 4bbc 0067 2b3d
00000090: 1af1 10bd a07d 54bc 0000 cb39 968d 0bbd
000000a0: 181e 7dbc b9f7 7fbd 50eb 2a3c d8fe 0cbd
000000b0: 361b 4ebd b89b 393c c89a 50bc 96e2 343d
000000c0: 8882 0abd e0ce 4dbc 9018 033c 5063 183c
000000d0: bc8f 253d 3ac7 19bd 3e35 163d ced5 4c3d
000000e0: 4475 6abd c289 383d 5498 653d 54b4 743e
000000f0: 901a e13b c898 00bc 0050 4eb8 42f8 013d
00000100: 62cf 3f3d e034 cebc b0e8 18bd e81c 67bd
00000110: 980c 40bc 10ce 4bbc 5e35 473d 680a dabc
00000120: c09a 923b c66e 403e 9abf 013d f0e1 3a3e
00000130: 504e 113d c2ad 5cbd 25de 763c 30e0 d7bc
00000140: f462 47bd 4009 2c3b 106a 60bc 8c01 77bd
00000150: d220 05bd 53f5 073e 0049 f3b9 aa67 24bd
00000160: 3809 3e3c 7465 2ebd a863 bfbc cc81 243d
00000170: b08f d1bb 8ae7 40bd c059 1cbd 003b 47bd
00000180: 35da b93c 4c10 2bbd 7add 4a3d 1cd0 1b3d
00000190: b862 16bc 4019 7f3d cc87 833c 209d 533d
000001a0: f470 a8bc 8890 623d e65e 613c 467b 59bd
000001b0: 7e83 6f3e 40c3 97bb d84b 4cbd 0010 2239
000001c0: 6ef6 473d 84c3 8bbc b85f 6cbd 1852 cf3c
000001d0: 805b 713c 266a 093d 505b 953c 2de1 8b3c
000001e0: 0080 29b8 e44f 39bd f475 a5bc e334 1a3d
000001f0: dc94 2abd 50dc d43c 6665 4b3d 48cd 5d3c
00000200: b614 1d3d 1446 3abd 3014 cfbc 70a1 963c
00000210: 0254 313d 6074 bfbc e4a1 0b3d b9c3 ccbc
00000220: b2c7 433d deb3 68bd 0026 48ba 10a6 97bc
00000230: 286b 353d 54f1 9b3c 88a3 433d 6a84 75bd
00000240: 08e2 14bc 1f21 223e 57ca 053d b0ac 8e3b
00000250: fb20 58bc 4c74 4e3d d43d dcbc 3098 6d3c
00000260: 5034 97bc 2aad 103d b0f7 193e 7c08 8a3c
00000270: 5cd3 923c 7617 30bd 888e 453c 2354 89bc
00000280: d2a4 2a3e e62d 2abd f868 103d fcbb 5b3e
00000290: c2c8 6dbd dae7 5d3e 329e 58bd b2fd 4d3d
000002a0: 201d 2a3d cc57 033d 4ab6 31bd 1240 463d
000002b0: 909e 9b3b 3639 6dbd 3e4e 293d f4a2 9b3c
000002c0: be99 5dbd 745c cd3c ec11 ac3c d832 433c
000002d0: 4158 33bd 8b9f 4b3e 51c0 f03d a4f6 a03c
000002e0: 8ca4 d9bc 2614 7dbd dd21 00bd 4c70 c3bc
000002f0: e0b0 753c fafc 61bd 5323 c83b 6813 483d
00000300: c45c 033d be81 32bd 404c 483c 404a 503d
00000310: dc66 74bd bf02 d1bc 040f 4bbd 2067 63bd
00000320: 048b 66bd fec7 21bd b84f 07bc 4c86 023d
00000330: 87be 68bd 4e8f 0d3d f0a2 2dbd a440 81bc
00000340: 0403 cebc 3cad 94bc c6f6 593e 265b 4c3d
00000350: 507d bc3c 80d9 6ebc 28c2 4d3e 78f1 58bd
00000360: 2b75 203e 2885 a23c 307c b8bc e47c f13d
00000370: 6be4 44bd 3661 5bbd 58bc 3fbc 688b 0abc
00000380: 1cea fe3c 9fc0 733e a460 f33c 3aec 0f3e
00000390: a248 0ebd 5d14 073e c44d adbc 4cbb 173d
000003a0: 3ac6 43bd 1eb4 07bd 3a41 8ebc 30d5 d2bb
000003b0: ac8b 3f3d ed4d 36bd 5032 03bc 3895 833c
000003c0: 17ae 613e 2ad1 723d 701e fe3c c0fa 41bd
000003d0: 2496 733d 30f6 4d3c f4a6 2ebd 0485 443e
000003e0: 4ebb 403d 6270 77bd 1029 04bc 5085 43bd
000003f0: fc63 ecbb 144e 4dbd acae f8bc 483d 7e3d
0.058272645 -0.039337143 0.046477415 -0.024467923 -0.062168047 0.020012744 0.04284526 -0.05097244
-0.017303761 0.046771295 0.03988705 -0.055895716 -0.03576816 0.018073551 -0.052807428 -0.060023822
0.055826932 -0.043524995 0.06183865 0.1798031 0.029813388 -0.02750966 -0.006367013 0.040540136
0.03215419 0.011437051 0.0042482167 0.050660595 0.056374177 0.055396914 0.04330872 0.15717225
0.04379352 -0.022690311 -0.012397196 0.041846275 -0.035386182 -0.012969404 0.00038719177 -0.034070574
-0.015449069 -0.062492106 0.010432079 -0.034422725 -0.05031892 0.01132863 -0.012732215 0.0441614
-0.03381589 -0.01256153 0.008001462 0.009301022 0.04042028 -0.037543513 0.03667187 0.050008588
-0.05724074 0.04505325 0.056053475 0.23896915 0.0068696216 -0.007848926 -4.9188733e-05 0.031730898
0.046828635 -0.025171697 -0.037331283 -0.05642405 -0.011721753 -0.012439266 0.04863488 -0.02661629
0.004474014 0.18792257 0.031676866 0.18250251 0.035475075 -0.053876646 0.015067612 -0.026352018
-0.048678353 0.002625063 -0.013697162 -0.06030421 -0.032502003 0.13277178 -0.0004640296 -0.040137924
0.011598878 -0.042577222 -0.02336295 0.040162846 -0.0063953027 -0.047095813 -0.03817153 -0.04864025
0.022687057 -0.04176359 0.049527623 0.038040265 -0.00917881 0.06227994 0.016055964 0.051663518
-0.020561673 0.055313617 0.013755536 -0.05309608 0.23390004 -0.00463143 -0.049877018 0.00015455484
0.048818998 -0.017061003 -0.057708472 0.0253077 0.014731288 0.033548497 0.018232018 0.017075146
-4.041195e-05 -0.045242205 -0.020197846 0.037648093 -0.04164587 0.02598396 0.049657248 0.013537712
0.03834983 -0.045476988 -0.02527818 0.018387526 0.043293007 -0.023370922 0.034089938 -0.024995672
0.047797866 -0.05681216 -0.0007635057 -0.018511802 0.044291645 0.019035973 0.047763377 -0.059940733
-0.009087093 0.15832947 0.03266367 0.004354082 -0.013191457 0.050403878 -0.02688495 0.014501616
-0.018457562 0.035321392 0.15035892 0.016849749 0.01792305 -0.042991124 0.012057908 -0.016763752
0.16664436 -0.04154768 0.035256356 0.21458429 -0.058052786 0.21670476 -0.05288524 0.05029077
0.041531682 0.03206615 -0.043386735 0.048400946 0.0047491267 -0.05791589 0.041334383 0.0189986
-0.054101698 0.0250685 0.02100464 0.011913978 -0.043785337 0.1988508 0.117554314 0.019648857
-0.02656772 -0.061786793 -0.031282295 -0.023857258 0.014995784 -0.055172898 0.0061077266 0.048846632
0.03207089 -0.043580763 0.012225211 0.05085206 -0.059668407 -0.025514005 -0.049574867 -0.05551827
-0.05628492 -0.039497368 -0.0082587525 0.031866357 -0.056822326 0.034560494 -0.042391717 -0.015777893
-0.025147922 -0.01814901 0.21285543 0.049891613 0.023008972 -0.014578223 0.20093596 -0.052964658
0.15669696 0.019838884 -0.022520155 0.11791399 -0.0480694 -0.053559504 -0.0117026195 -0.008456089
0.031117491 0.23803948 0.029709168 0.14054957 -0.034737237 0.13191362 -0.021155246 0.037043855
-0.047796465 -0.033130758 -0.017365087 -0.0064341053 0.04676406 -0.04450791 -0.008007601 0.016062364
0.22039066 0.059281506 0.031020373 -0.047358274 0.059469357 0.012570903 -0.042639688 0.19191366
0.047053628 -0.06040991 -0.008066431 -0.04773456 -0.0072140675 -0.05012329 -0.030356728 0.06207016

linear4.bias f4 [256]
00000000: f6de 143e 8525 01be d4ae 973d a853 bdbe
00000010: e6e6 033c c7f9 24bd 5578 05be c793 6a3d
00000020: abf3 083d 732a 3a3b b65a 16bd d54d 9fbe
00000030: d0ca a8be 3f5e 80bd 766a d9bc b4c3 d63d
00000040: 082d 27be 019d 853e ea58 953e 3fa7 e3b9
00000050: 04f6 3ebe a427 fbbc 56cc 043e 4122 93bd
00000060: 536d 8a3c 00f2 773d 1ec6 25bd 6542 a23b
00000070: adf3 5cbd 0e0d 2e3c e6ab 56be a4e2 a73d
00000080: b259 a03d e7d0 a73e 3ed5 f1bc 2d31 693e
00000090: d7a4 7b3d e1da cfbe 320d 343e 4ac7 1c3d
000000a0: 5847 ebbc 97b4 d83d 7c53 92bd 253c d73d
000000b0: 6a2e 983e eb54 c73c 4ef2 103e 43d8 26be
000000c0: 1e17 85bc b5f5 c8bd e295 8d3c c82c cabc
000000d0: 2b9d 85bc d569 bfbe 476e b13e fff2 4abe
000000e0: 4de6 02be 9546 4abe 976b 0fbd e2fd 8ebe
000000f0: ff2c 55bd 97b1 20be cf2a e0bd b9f1 8ebe
00000100: 2ecd b1bd 9e41 473d 8806 0c3d 6513 213e
00000110: c451 64bd d02e bf3d 4b27 23be ce00 853c
00000120: 696b 00be a119 ac3e f0ec fa3c 4cff 1f3e
00000130: 7412 37be d87a 913d 2937 2c3e 55ee 873e
00000140: bb26 a6ba b935 943c cef9 163e 7125 f6ba
00000150: 2767 b8bc 9c42 e93d deda ddbc 48ce afbe
00000160: 65de a4bc 44c3 0f3e af05 d03c 1eaf 193e
00000170: 4f65 f43b a776 61be 0948 4fbe faa1 b13e
00000180: 0659 713e 6fc5 01be 755b 80be 9a4c db3d
00000190: 7809 b2be eadb e6b9 8c2d 993b 590a 07be
000001a0: a3bd 89bc c435 493e 6aca 8cbe 3e60 a0bc
000001b0: d23b 16be 6892 a0ba debd 06be 69e8 e4be
000001c0: 932f 8c3e c700 eb3d bb3b 72be 6fe6 b0bd
000001d0: af1a 023e 89e4 cc3c 8fb4 96bd 2f83 a53e
000001e0: 1940 623d 9cfe 6abd c98a d73b 9f3c 083e
000001f0: 7bc1 8d3e edd4 1abe 5cf4 eb3d d997 8d3e
00000200: 8e3c f4bc e6e4 813c 0c13 84be 20d3 493d
00000210: c1bd ac3d ac29 26ba 7aad 333d 49b6 6d3d
00000220: 70dc 2e3e 8495 99be 7772 aabc 1372 96bc
00000230: 2751 71bd 0cef 133b daab 183d 0c1d 903c
00000240: c44b 0fbe 9de2 86be 309c 88be 6992 103d
00000250: a622 09be 99cd f93c cb71 1dbe 9d43 94bc
00000260: 661b 88bc a407 02be c2a0 8c3d 8826 963d
00000270: ad9d 72bb 6a2b 923d 3d4e 853c 690a d3bb
00000280: f6d4 fa3b 7253 b6be c898 aebe c8e6 173c
00000290: 591d 2a3d 67d1 3fbd adb6 67be f3cd f5bd
000002a0: 3a70 b2bc bcb8 c93d 19ef a53d 1c8c 19be
000002b0: 6073 9fbe e2a8 6bbd 807d b0be 4cbf 23bd
000002c0: 602d 883e 3d35 fdbd b206 82be 05b4 eebd
000002d0: 8271 1d3e 7bdd b23c a61b e0bd a997 1d3e
000002e0: c961 8b3b b31e 653e b823 b7bc e30c 99be
000002f0: 20b7 d03d ce94 91bc c0b4 93be ab8e debd
00000300: 8dba 3fbe c7b5 27be b320 e43d df40 513e
00000310: 9427 bbbe c3ca 83bd bd43 383e cd2c 833d
00000320: d0be afbe 7ed9 5c3b 0697 a1be 11d9 ddbc
00000330: b9eb 463d f3ec 013c 2e15 ff3b dd73 893e
00000340: e19e 5f3d 8531 87bd fa3b e2be 1ace f6bc
00000350: 9b8e 5ebe 6cb2 0ebe 3e5f f9bc 9cd5 23be
00000360: f6a0 16bc 1240 debd ab3a 57bc 9838 f5bd
00000370: 5258 76bd c98f aebd fcd3 babe 2011 5c3c
00000380: 3b76 033e 9303 5bbc 6468 603e 624b 853c
00000390: e2d7 2c3b 94be 263e 26bc bc3d eeb5 47bd
000003a0: ac8e 37bb ba5c c9be c7f7 ebbc faf4 96be
000003b0: 47ae 8fbe a3de 88be 1775 6bbd 6ace 21bd
000003c0: cc20 88bd 5fb0 933d c915 4a3e 9bb3 283d
000003d0: 1bd5 93bd 0e2a 07be 28bf 51bb 4251 3d3c
000003e0: 5bcc 743e f19c 09be 02e0 16be afbc 1bbd
000003f0: fa6d ebbd 1998 07ba 0c83 54bd bc73 a5be
0.14538178 -0.12611969 0.07406393 -0.36977887 0.008050656 -0.04027727 -0.13034184 0.057269838
0.033435505 0.002840665 -0.036707602 -0.3111407 -0.32967234 -0.06267976 -0.026540022 0.10486546
-0.16325772 0.26096347 0.291694 -0.00043421422 -0.18648535 -0.03065855 0.12968573 -0.07184268
0.016897833 0.060533524 -0.040472142 0.0049517625 -0.053943325 0.01062323 -0.20964012 0.08197525
0.07829608 0.32776567 -0.029520627 0.22772665 0.0614365 -0.4059668 0.17583159 0.038275994
-0.028720543 0.1058132 -0.0714483 0.105095185 0.2972291 0.024332484 0.14154932 -0.16293435
-0.016246375 -0.0981249 0.017283384 -0.024679556 -0.016310295 -0.3738543 0.34654447 -0.19819258
-0.12783165 -0.19753487 -0.035014715 -0.27928072 -0.052044865 -0.15692745 -0.10945665 -0.27918795
-0.08681713 0.04864656 0.034185916 0.15730055 -0.05574204 0.09335101 -0.15932958 0.016235735
-0.12540974 0.33613303 0.030630559 0.15624732 -0.17878133 0.07103509 0.16817917 0.2654902
-0.0012676338 0.018092023 0.1474373 -0.0018779469 -0.022510124 0.11389658 -0.027081903 -0.34337068
-0.020125577 0.14039332 0.025393335 0.15008208 0.007458366 -0.22017919 -0.20242323 0.3469389
0.23569116 -0.12672971 -0.25069776 0.1070797 -0.3477285 -0.00044032867 0.004674619 -0.13187541
-0.016814059 0.19649416 -0.2749818 -0.019577142 -0.14671257 -0.0012250664 -0.13158366 -0.44708565
0.27380046 0.11474758 -0.23655598 -0.08637702 0.12705491 0.025011318 -0.073586576 0.32326648
0.05523691 -0.05737172 0.006577824 0.13304375 0.27686676 -0.15120287 0.11521217 0.27654913
-0.029814031 0.015856218 -0.25795782 0.04927361 0.0843463 -0.0006338607 0.043866612 0.05803517
0.17076278 -0.29996884 -0.020806534 -0.018364942 -0.058915284 0.0022572903 0.037273265 0.017591976
-0.13993746 -0.26344767 -0.26681662 0.035295878 -0.13392124 0.030493544 -0.1537544 -0.018098647
-0.016614627 -0.12698227 0.068665996 0.07331568 -0.0037020252 0.07137187 0.016272658 -0.00644045
0.0076547815 -0.3561054 -0.34100938 0.009271331 0.041531894 -0.04683056 -0.22628279 -0.12002172
-0.02178203 0.098496884 0.08102245 -0.14994854 -0.31142712 -0.057534106 -0.3447075 -0.039977357
0.26597118 -0.1236367 -0.25395733 -0.1165543 0.15375331 0.021834126 -0.109427735 0.15389885
0.0042536003 0.22374992 -0.0223559 -0.29892644 0.10191178 -0.01777115 -0.2884884 -0.108670555
-0.18723507 -0.16377936 0.111390494 0.20434903 -0.36553633 -0.06435158 0.1799459 0.064050294
-0.34325266 0.0033698971 -0.31560534 -0.027081044 0.048564646 0.007930028 0.0077845072 0.2684621
0.054594878 -0.06601242 -0.44186383 -0.030127574 -0.21734087 -0.1393525 -0.030440923 -0.15999454
-0.0091936495 -0.10852064 -0.013136546 -0.11973685 -0.060142823 -0.085235186 -0.36489856 0.013431817
0.1283807 -0.013367551 0.21914822 0.016271297 0.0026373793 0.16283637 0.09215574 -0.048757486
-0.0028008623 -0.39328557 -0.028804673 -0.29483777 -0.2806265 -0.26732358 -0.057484712 -0.039503492
-0.066468805 0.072113745 0.19734873 0.04118691 -0.07218381 -0.13199636 -0.0032004807 0.011555018
0.2390608 -0.13438775 -0.1473389 -0.03802174 -0.11495586 -0.00051725056 -0.05188279 -0.3231486

linear3.weight f4 [1, 256]
00000000: 4dde 43be 7710 dd3d 83b9 793d 91c9 6bbc
00000010: 9811 9dbd 5d4c 383d 711f 06be 789e 35bd
00000020: 6683 2c3d 1ab3 99bd 7d4f 5e3d 6d5a 33bd
00000030: c6f1 9bbe 7085 213e 8931 92bd 9a34 26bd
00000040: b9e6 3fbc 3aad 96bc 30c7 313d bb19 b4bd
00000050: 6656 99bc 7fa1 ccba 88ae 2c3d 68ea af3b
00000060: d5ca 3b3e 7844 77bd 22cf 823d 8b98 053d
00000070: 9da6 2b3b 942a 083e bf34 86bd 8369 973d
00000080: c238 59bd de5c 0d3d 82f4 693b 2943 89bc
00000090: fac9 03be 40c8 65bd 373d 2f3e a826 51bd
000000a0: 8330 bf39 6840 a23c db75 4f3d 9435 463e
000000b0: 6c21 453c 1cd4 6e3e 02d2 203d e3cf 86bd
000000c0: 1b19 07bd 15d8 9abc 1feb 35ba e234 2dbc
000000d0: 55f5 8bba baa1 debd e134 06bd 3663 483d
000000e0: e022 3a3c 31dd 87bd 12ae e33d a646 5ebe
000000f0: dfc0 5fbd 2453 9fbd 5d53 b1b8 7f76 1dbe
00000100: 2973 143e 62ea 273e 57d5 ecb9 e2a7 b33d
00000110: 550b c83d cc4a 54bb a864 5abd da98 34bd
00000120: f6f1 6e3d dc64 f13b dcad 253d 1359 a63d
00000130: 47de 91be ecfe 15be 70d1 8b3d 4071 33bd
00000140: 8030 863d 7500 78ba 4123 913d 7799 66bd
00000150: 95a2 3eb9 c10c 303e 70c3 183b bbd4 02bd
00000160: e61d c2bb 82a1 0abd f90f 333a f145 053c
00000170: 01a0 e1bd b0cd 4fbd 97b1 afbb e1fc eebc
00000180: e7c4 ee3d 7b08 71ba c1b2 95bd b57d 80be
00000190: 18b1 a4bd 1aee c4bc 3a25 593a 35c4 093e
000001a0: 62b4 83bc 5e10 6a3c c151 6639 9fcc 863a
000001b0: bf63 8abc 9894 803a 32bc 3ebe 63aa 6cbe
000001c0: c803 213c 1259 d2bd 7408 8fbd dd84 13bd
000001d0: a4b3 933d 26b8 f7bb 4dff 113d 57de 973c
000001e0: 85d6 613a 4580 0f3c 2bc8 9abd a6ce 903b
000001f0: af45 a4bb f441 48bd 85ad 5c3e 4dc9 493c
00000200: 9b72 3fbd 050a 0bbd f412 fabc 6447 e2ba
00000210: baee 8cbc d135 073d 92d4 ffbc 243a bebd
00000220: ce3c 263d 6e51 70be 438a 4e3c 701f e7bd
00000230: 9029 59bd 4059 063d 9118 893c 3a83 8fbd
00000240: d07d 5fbd 39a1 24bd eb02 85bd 203d 5d3e
00000250: 3f45 43bd 03be 04bd 75b0 a5bd 7a9e 34bd
00000260: 6c68 40bd 6902 20bd 9ffd e93d 91fd bf3d
00000270: 936e acba 810e 5b3e 0b3b b93d b054 89bc
00000280: fffa 06bc 28b3 6bbd b714 0dbd 94ff 36bb
00000290: 6867 803c 5a5f 903d 8662 c0bd e5de c2ba
000002a0: 80f4 97ba 46a0 113e fb5e 183d 4758 80bc
000002b0: 27d7 a9bc 2112 63b9 c4c5 23bc f441 8c3c
000002c0: 040b ca3c 8abc 323e ad50 84bd 16de 833e
000002d0: 7cfb dfbc 4f70 1f3e 46f6 103d 4ea6 333e
000002e0: 0ae5 553b cee5 2d3d 08d4 2ebb 8d66 20bb
000002f0: 190c c43c 54ef 3cbb f62e c4be 4467 07be
00000300: ffba 3e3c aa2a 4e3d 7079 233d 8f50 4d3c
00000310: adcc 3cbc ba1a 183d 819d 1abd 7614 40bd
00000320: 8f7e bbbd 6045 8e3d 89c6 10bb 2827 babb
00000330: 6f06 693c cc00 533d f3cb 003d b096 063c
00000340: e960 b7bc 276f 0fbd 32bb bdbe aee0 aabe
00000350: 97b0 99bc 0efd c9bd fe71 903d 32cf 53bd
00000360: c0b2 d5bb 0287 a53d 0141 b43d b571 42bd
00000370: 80f4 30bc b8df 24be df90 06be 0640 84ba
00000380: 04bd 89bd d5aa a0bd 7a42 7f3c 40bb 2fbc
00000390: 0365 b23a 4c8a 6b3d 4bdf 62bc 6752 193e
000003a0: 9e8a adba 3017 e2bd 464d 38bd c094 16bd
000003b0: c081 d3bb 1641 f93c 1def cc3d f3b4 1a3a
000003c0: b000 2c3c 4593 a13c 0230 723e 0809 daba
000003d0: 682d 4e3c 160b ecbc c9fd 8f3c 17b5 79bd
000003e0: 24bf 123c a850 6fbd d78b 4d39 50f7 be3c
000003f0: 7a60 63bd 1543 fd3a a442 a2bb f767 38bd
-0.1912777 0.10794156 0.060967933 -0.014391319 -0.07669371 0.0449947 -0.13097931 -0.04434058
0.0421175 -0.07504864 0.054275025 -0.04378741 -0.30457896 0.15773559 -0.07138354 -0.04057751
-0.011712723 -0.018393148 0.04340285 -0.0879397 -0.018717956 -0.0015612094 0.042158633 0.0053685196
0.18339093 -0.06036803 0.06387164 0.03261618 0.0026191839 0.13297492 -0.06553029 0.07393172
-0.053032644 0.034512393 0.0035698717 -0.016755657 -0.12870017 -0.056099176 0.17113195 -0.051062256
0.00036466503 0.019806102 0.050649505 0.19356376 0.012031894 0.23323101 0.03926278 -0.0658262
-0.032982927 -0.018901864 -0.0006939638 -0.01057169 -0.0010677973 -0.10870691 -0.032765273 0.04892274
0.011360854 -0.06633986 0.11117186 -0.21706638 -0.054627296 -0.0777953 -8.455545e-05 -0.15377234
0.14497055 0.16398004 -0.00045172378 0.087722555 0.097677864 -0.0032393215 -0.05331865 -0.044091083
0.05833622 0.0073667597 0.04044901 0.08122458 -0.28489897 -0.14648026 0.068270564 -0.043809175
0.065522194 -0.00094605173 0.07086802 -0.0562987 -0.00018180379 0.17192365 0.002330985 -0.031941157
-0.0059239743 -0.033845432 0.0006830688 0.008134351 -0.110168464 -0.05073327 -0.0053617465 -0.029173316
0.1165865 -0.0009194684 -0.07309485 -0.25095907 -0.080415905 -0.024039317 0.000828344 0.13453753
-0.016077224 0.014286129 0.00021964965 0.001028437 -0.016893266 0.0009809909 -0.18626478 -0.23111872
0.009827562 -0.10270895 -0.06984034 -0.03601538 0.07211998 -0.007559794 0.035643864 0.018538637
0.0008615035 0.008758609 -0.0755771 0.0044191657 -0.0050131897 -0.048891023 0.21550567 0.01231606
-0.046740156 -0.033945102 -0.030526616 -0.0017263708 -0.017203677 0.033010308 -0.031229291 -0.09288433
0.04058533 -0.23468563 0.012606206 -0.11285293 -0.053018153 0.03279996 0.016735347 -0.07007451
-0.054563344 -0.040192816 -0.06494697 0.21605349 -0.04767346 -0.03240777 -0.08090297 -0.044096448
-0.046974584 -0.0390648 0.114253275 0.09374536 -0.0013155512 0.21392252 0.09044465 -0.016764015
-0.008238553 -0.057543904 -0.034443583 -0.0027923333 0.015674308 0.07049437 -0.09393792 -0.0014867453
-0.0011593252 0.14221296 0.037199955 -0.015667094 -0.020732475 -0.0002165516 -0.0099958815 0.017121293
0.024663456 0.17454734 -0.064607 0.25755376 -0.027341597 0.15570186 0.035391115 0.17543909
0.0032637739 0.042455487 -0.0026676673 -0.0024475188 0.02393155 -0.0028829174 -0.38317078 -0.13222986
0.011641263 0.050333656 0.039910734 0.012531414 -0.011523408 0.037134863 -0.037747864 -0.046894513
-0.091549985 0.06946826 -0.0022090992 -0.0056809373 0.014222725 0.05151443 0.0314445 0.008214638
-0.022385078 -0.035018113 -0.3705688 -0.33374542 -0.018760962 -0.098627195 0.07052992 -0.05171127
-0.006521553 0.08082391 0.08801461 -0.04747172 -0.010800481 -0.16100967 -0.13141201 -0.0010089881
-0.06725505 -0.078450836 0.015579814 -0.010725796 0.0013610426 0.057504937 -0.0138471825 0.1497284
-0.0013240164 -0.11039579 -0.04499557 -0.036762953 -0.0064546764 0.030426543 0.10006545 0.00059015973
0.010498211 0.019723544 0.23651126 -0.0016634772 0.012584068 -0.02881388 0.017577069 -0.060963716
0.008956704 -0.05842653 0.00019602418 0.023311287 -0.05551193 0.001932236 -0.004951792 -0.045021024
