outputs/Optimal_Control/20220401-161746/models/checkpoint.pt (torch, 533487 bytes, 7 tensors)

linear1.weight f4 [256, 2]
0.5223657 -0.65497327 -0.15436351 -0.4294378 0.32948634 0.21766636 0.039645962 0.114830814
-0.30660012 -0.6261372 0.4135658 0.2797416 -0.12030345 -0.37921196 -0.6936206 0.08635062
0.24423434 -0.58492345 0.45115635 0.62949383 -0.30015847 -0.030482352 0.16249281 -0.006854907
0.118385166 -0.52910125 0.26337823 0.17388861 0.118359394 -1.3543537 -0.3680449 0.6345687
-0.58778083 0.27051955 0.30450058 0.39817426 -0.23423743 -0.48269606 -0.5371787 -0.37704983
0.49999133 -0.5249776 0.23525375 -0.6971094 -0.13684118 -0.059919655 0.3996558 0.44035217
0.5426664 -0.5160301 -0.15817636 -0.38478604 0.54863244 -0.2631848 -0.07468825 0.1407955
0.04048629 -0.0015830193 0.15288562 -1.1206734 -0.21046965 0.6246952 -0.43009079 -0.35246423
-0.07691424 0.4224193 -0.63893586 -0.65344524 -0.57089573 0.3797105 0.43480566 -0.00013376558
0.2567175 -0.71976954 -0.16555645 0.6682384 -0.325234 -0.46109638 -0.3520495 0.6978217
0.4543223 -0.6028829 0.13207363 -0.6281733 0.37549427 -0.05464064 -0.56918645 -0.38693446
0.08151717 0.21223494 0.18668498 0.08905298 0.18010007 0.47067857 0.24271227 -0.61782074
-0.14931045 0.27350444 0.37468854 0.015118567 0.15098669 -0.7009392 0.00025749207 -0.5796117
-0.31107366 0.29604238 0.02560573 0.13895553 0.47466207 0.4244371 -0.118869424 -0.5497816
0.45017675 0.050646495 -0.44449845 0.067655325 -0.59655803 -0.45928127 0.05395809 -0.11336102
0.45849785 -0.7861247 0.3949862 -0.4264659 -0.6207208 0.19958723 0.012851463 0.12650722
0.49729285 0.35125044 0.0250963 0.20148326 -0.32033435 0.06337249 -0.56579715 -0.18969119
0.19619817 -0.46099338 0.38944572 -0.68809485 -0.41252938 -0.6423589 -0.14225733 -0.017792523
0.0041646855 0.4064224 0.3567569 -0.59231186 0.45238528 -0.43302566 -0.32997897 0.08403593
-0.5288581 0.2575332 -0.3412481 0.11510247 0.3315672 -0.5487934 0.21720597 -0.34435895
0.12365413 -0.57080835 0.5871946 -0.15530244 0.30462512 0.02323023 -0.58056694 -0.6433621
-0.33306167 -0.0473969 0.47754052 -0.8928681 0.16117084 -0.87109125 0.15260762 0.18448786
-0.60340446 -0.37851822 0.09764122 -0.8337815 0.4204146 0.5993946 -0.64136416 -0.43654305
0.29103062 -0.8726014 -0.07187343 -0.2882987 -0.29413283 0.11297083 -0.3532844 -0.6807992
0.3194661 -0.14802247 0.21886873 -0.020878337 -0.6703706 -0.15698206 -0.10318577 -0.68756133
-0.5205226 0.0018436909 -0.35318637 -0.47262597 -0.41617846 -0.43085214 0.29629245 0.26375592
-0.53009236 -0.6969984 -0.34545588 0.19320393 0.43642312 -0.05056719 0.4243723 -0.35399497
-0.030106606 0.2575533 -0.5193704 -0.29851744 -0.28643608 0.2973592 -0.64795184 -0.42076048
0.39634743 0.40417248 -0.14363748 0.5622329 -0.10036867 0.800771 -0.14187157 0.55786026
-0.20698161 0.24513645 -0.029578233 0.5804493 -0.036368918 0.55573404 -0.007440865 -0.10305011
0.53215396 0.32506946 0.37587205 0.3903194 0.111587256 -0.13710967 -0.2670775 0.7743726
-0.53792 0.24226129 -0.673749 -0.17283082 -0.51192135 0.02916038 0.16529644 0.26794946
00000000: c2b9 053f 54ac 27bf 7811 1ebe 45df dbbe
00000010: 6fb2 a83e eee3 5e3e ce63 223d 6b2c eb3d
00000020: b1fa 9cbe 874a 20bf e6be d33e 4a3a 8f3e
00000030: a861 f6bd 1228 c2be 1f91 31bf 98d8 b03d
00000040: 9118 7a3e 8bbd 15bf f7fd e63e 8226 213f
00000050: 5fae 99be 20b6 f9bc 8464 263e 219f e0bb
00000060: ec73 f23d 2e73 07bf 83d9 863e db0f 323e
00000070: 6966 f23d 765b adbf 6270 bcbe 1873 223f
00000080: ce78 16bf 8a81 8a3e 80e7 9b3e 7fdd cb3e
00000090: f0db 6fbe f023 f7be 8b84 09bf ad0c c1be
000000a0: ddfe ff3e ef64 06bf 5ce6 703e c375 32bf
000000b0: 1820 0cbe 506e 75bd af9f cc3e d775 e13e
000000c0: 2fec 0a3f 8c1a 04bf fcf8 21be ad02 c5be
000000d0: 2d73 0c3f 28c0 86be 27f6 98bd b22c 103e
000000e0: f4d4 253d 507d cfba 0c8e 1c3e 3a72 8fbf
000000f0: 5b85 57be 06ec 1f3f dc34 dcbe 3176 b4be
00000100: 3785 9dbd 5847 d83e 4d91 23bf 3048 27bf
00000110: 3926 12bf 6a69 c23e d99e de3e 6d43 0cb9
00000120: 7a70 833e d142 38bf a187 29be ac11 2b3f
00000130: 1285 a6be d314 ecbe d53f b4be 71a4 323f
00000140: ef9c e83e 8956 1abf 4f3e 073e f7cf 20bf
00000150: c940 c03e ddce 5fbd 34b6 11bf 461c c6be
00000160: 79f2 a63d 1e54 593e 592a 3f3e 6961 b63d
00000170: 276c 383e c8fc f03e 9189 783e 8029 1ebf
00000180: d7e4 18be c608 8c3e 2dd7 bf3e deb3 773c
00000190: 419c 1a3e c070 33bf 0000 8739 6f61 14bf
000001a0: 0c45 9fbe de92 973e 1cc3 d13c 5c4a 0e3e
000001b0: e806 f33e d24f d93e d071 f3bd 7dbe 0cbf
000001c0: 917d e63e b372 4f3d 4d95 e3be e08e 8a3d
000001d0: 07b8 18bf ea26 ebbe 2803 5d3d d329 e8bd
000001e0: 3bc0 ea3e 783f 49bf a23b ca3e bd59 dabe
000001f0: 8fe7 1ebf 9860 4c3e f18e 523c 1c8b 013e
00000200: 2b9d fe3e 19d7 b33e c196 cd3c a151 4e3e
00000210: dd02 a4be 70c9 813d 15d8 10bf 683e 42be
00000220: 2ce8 483e 5307 ecbe 6e65 c73e fc26 30bf
00000230: 0d37 d3be a271 24bf e8ab 11be a0c1 91bc
00000240: ea77 883b 9916 d03e d7a8 b63e c0a1 17bf
00000250: 0b9f e73e 8ab5 ddbe 01f3 a8be 081b ac3d
00000260: 3f63 07bf 64db 833e 12b8 aebe d8ba eb3d
00000270: 2dc3 a93e b97d 0cbf 3e6b 5e3e d14f b0be
00000280: 603e fd3d 7f20 12bf 6352 163f 9a07 1fbe
00000290: d3f7 9b3e 534d be3c 09a0 14bf 61b3 24bf
000002a0: 0f87 aabe 4023 42bd 3180 f43e 0193 64bf
000002b0: f809 253e d6ff 5ebf 2c45 1c3e 63ea 3c3e
000002c0: b778 1abf 24cd c1be 1ff8 c73d b472 55bf
000002d0: 9540 d73e ed71 193f 7130 24bf 9282 dfbe
000002e0: f701 953e ce62 5fbf 6032 93bd e39b 93be
000002f0: 9498 96be 405d e73d b1e1 b4be db48 2ebf
00000300: 1091 a33e 3493 17be 201f 603e 0c09 abbc
00000310: 689d 2bbf e8bf 20be 1053 d3bd 0504 30bf
00000320: f840 05bf 00a8 f13a d8d4 b4be 08fc f1be
00000330: 5815 d5be a798 dcbe a5b3 973e 040b 873e
00000340: 22b4 07bf 7d6e 32bf 98df b0be 40d7 453e
00000350: da72 df3e 8b1f 4fbd 5347 d93e d43e b5be
00000360: 21a2 f6bc 07de 833e 75f5 04bf 47d7 98be
00000370: c0a7 92be 773f 983e 2ce0 25bf eb6d d7be
00000380: 0dee ca3e b2ef ce3e b415 13be 7fee 0f3f
00000390: 178e cdbd 54ff 4c3f c846 11be eecf 0e3f
000003a0: fdf2 53be 0d05 7b3e 0d4e f2bc 5398 143f
000003b0: 93f7 14bd 9644 0e3f 80d2 f3bb f00b d3bd
000003c0: 3e3b 083f 816f a63e 4d72 c03e f2d7 c73e
000003d0: dc87 e43d 7a66 0cbe 62be 88be 483d 463f
000003e0: 20b5 09bf 5813 783e d17a 2cbf 90fa 30be
000003f0: 470d 03bf c0e1 ee3c 7843 293e ac30 893e

linear1.bias f4 [256]
1.327766 0.13105176 -1.3378599 -1.1447215 0.04367995 1.3729669 -0.093367755 0.5952768
1.0210795 -0.763617 -0.005230069 -0.34741184 -0.025716862 -1.5182828 -0.30770466 0.030915985
-0.097268164 -1.1156514 -0.33867022 0.53086185 -0.14152707 -0.34357518 -0.30704063 -0.6771589
-1.0680279 0.22899215 1.1232886 -0.69759774 -1.4613459 0.22564729 -0.47293314 0.17709443
0.4383115 0.1039923 0.625697 0.53589267 -0.6366969 1.408511 0.47012746 -0.6927177
1.5808783 -0.1994905 -0.601217 0.2435971 -0.3225501 -1.735213 -1.2016557 1.0836186
1.2181143 -0.17464955 0.7511922 -0.25320637 -0.077097654 0.7236281 -0.14904708 0.61582166
0.2461155 -0.6037834 -0.4710183 1.2360308 -1.1975898 1.419982 0.34211564 -1.2733554
0.21154675 -1.3206813 -0.4774851 0.3963001 -0.433152 -0.10141889 -0.60875887 -0.27202156
-1.432573 -1.3040292 0.8651248 0.27029076 0.55913943 0.24718276 -1.5876911 1.6701483
0.21887435 -2.0000658 -0.7818453 -0.38081944 0.14747716 0.45925516 0.018773701 -1.7433933
0.08451939 -1.1523541 0.5033343 -0.0009372316 -0.60611105 0.43771952 0.53161037 -0.27361447
-0.5275814 -1.5385193 0.58055234 -0.4274314 0.07169912 -0.55469644 -0.0014636796 -1.0901792
0.18075168 0.37213865 -0.9484906 1.5095522 -1.1334513 -0.41749716 -0.4479737 0.65999484
-1.4187431 -1.0072024 1.7188245 0.9662039 -1.0255055 -1.481211 -0.1369602 -0.5376556
-1.3979675 -0.8211007 -1.191821 -1.1016488 -0.34852627 0.2798434 -0.29953772 -0.6798738
-0.9388804 0.5471043 0.5969856 1.737621 -1.0972661 -1.3828782 -0.41815758 0.76695496
-0.16810587 -1.5821577 -0.89965916 -0.94201285 -0.67239124 -0.26944387 -0.44931474 -2.0740385
-0.657346 -1.6580791 0.5584265 0.46592665 -0.14844513 1.1687262 -0.3767571 -0.4632687
-0.10352091 0.90003455 -1.2966539 -0.50520164 1.0244149 1.2958583 1.4833496 -0.5078412
0.042828366 -0.6209885 -0.55986685 -1.4998461 -0.8523169 -1.4144142 -0.031342447 0.16164124
0.28083643 -0.8029189 -0.164909 -0.6152915 -1.4445921 -0.4300053 0.22919571 0.644064
1.0466049 -1.3672388 -0.5351486 1.3106987 -1.5416353 1.3092593 -0.048684597 -1.105085
-1.4939516 0.10786256 0.6241588 -1.5140648 0.16500868 -1.4920326 0.012875233 0.69222426
1.6283605 0.21577524 0.39677247 1.4846864 -0.1373747 1.1856027 0.5740465 0.7860706
-1.5514277 0.8563076 0.14639843 0.46272185 -0.15742761 -1.6625801 -0.46981436 0.06825472
-0.5733987 -1.3347083 -0.3800405 -1.4069813 -1.3081784 -1.0907255 0.89136016 1.5615476
0.46458474 0.6618571 -1.2872956 -0.06274319 -0.33655402 0.4894897 0.14204055 0.46119377
0.7446097 1.3187166 -0.8761057 -0.519669 -0.3466931 1.4801171 0.20348413 0.7971561
-1.6216699 -0.05979657 1.446719 0.8653468 -1.5202742 -1.6859887 -0.035436213 -0.23961258
-0.43186143 -0.3345081 -1.480984 -1.4492828 1.1568304 -0.54991174 -0.37438387 -0.15643324
-1.07944 -1.7158947 -0.3028847 -0.19392689 -0.43075344 0.12834974 0.20586418 -0.81472427
00000000: 3cf4 a93f 6f32 063e fe3e abbf 3c86 92bf
00000010: bfe9 323d 61bd af3f 9837 bfbd 0f64 183f
00000020: bcb2 823f 677c 43bf 0061 abbb f7df b1be
00000030: 2bac d2bc 1757 c2bf 778b 9dbe 8543 fd3c
00000040: 8834 c7bd aacd 8ebf 2f66 adbe 90e6 073f
00000050: 79ec 10be 16e9 afbe 6e34 9dbe 495a 2dbf
00000060: 23b5 88bf eb7c 6a3e ecc7 8f3f c495 32bf
00000070: 620d bbbf 1510 673e 4b24 f2be 3e58 353e
00000080: 5d6a e03e eaf9 d43d ae2d 203f 4330 093f
00000090: 91fe 22bf 174a b43f 8cb4 f03e f255 31bf
000000a0: 385a ca3f 3d47 4cbe 5be9 19bf 8571 793e
000000b0: 4925 a5be 761b debf dbcf 99bf 04b4 8a3f
000000c0: 2beb 9b3f 55d7 32be 224e 403f 44a4 81be
000000d0: 60e5 9dbd b13f 393f cc9f 18be 7da6 1d3f
000000e0: b405 7c3e 8d91 1abf 5029 f1be 4236 9e3f
000000f0: 9f4a 99bf f8c1 b53f c829 af3e 4ffd a2bf
00000100: b69f 583e 160c a9bf ed78 f4be d9e7 ca3e
00000110: 19c6 ddbe b5b4 cfbd 9fd7 1bbf 6946 8bbe
00000120: 8d5e b7bf 6eea a6bf d278 5d3f 8d63 8a3e
00000130: c323 0f3f 7a1d 7d3e 7639 cbbf 6bc7 d53f
00000140: 9920 603e 1401 00c0 0327 48bf c4fa c2be
00000150: 4104 173e 7e23 eb3e 4ecb 993c 8327 dfbf
00000160: 8018 ad3d 5780 93bf 84da 003f 8cb0 75ba
00000170: 182a 1bbf c61c e03e 9e17 083f 3217 8cbe
00000180: 930f 07bf 33ee c4bf 149f 143f 4ad8 dabe
00000190: fdd6 923d 9600 0ebf f0d8 bfba fe8a 8bbf
000001a0: f816 393e f588 be3e 48d0 72bf 0239 c13f
000001b0: ef14 91bf 30c2 d5be cf5c e5be 6cf5 283f
000001c0: 6099 b5bf 02ec 80bf 7102 dc3f 2459 773f
000001d0: c443 83bf 5298 bdbf 4b3f 0cbe cca3 09bf
000001e0: 99f0 b2bf a833 52bf 978d 98bf d402 8dbf
000001f0: 0972 b2be a247 8f3e 025d 99be 360c 2ebf
00000200: 775a 70bf 070f 0c3f 0cd4 183f 5d6a de3f
00000210: 3773 8cbf 2702 b1bf c018 d6be 2957 443f
00000220: f223 2cbe 2584 cabf 1050 66bf c127 71bf
00000230: d521 2cbf 8cf4 89be 950c e6be 0cbd 04c0
00000240: d447 28bf f03b d4bf 0af5 0e3f f08d ee3e
00000250: 0002 18be d298 953f 4ee6 c0be 8e31 edbe
00000260: c502 d4bd aa68 663f c1f8 a5bf e554 01bf
00000270: 0720 833f afde a53f 66de bd3f e201 02bf
00000280: cc6c 2f3d 1af9 1ebf 6f53 0fbf f5fa bfbf
00000290: 7131 5abf 860b b5bf f060 00bd 4885 253e
000002a0: cbc9 8f3e 188c 4dbf e8dd 28be be83 1dbf
000002b0: 65e8 b8bf a829 dcbe 48b2 6a3e 61e1 243f
000002c0: 26f7 853f ae01 afbf 80ff 08bf fac4 a73f
000002d0: 4e54 c5bf cf95 a73f 8069 47bd 6d73 8dbf
000002e0: ce39 bfbf 0ce7 dc3d dfc8 1f3f e0cc c1bf
000002f0: 09f8 283e edfa bebf a4f2 523c 9c35 313f
00000300: 1e6e d03f 2ff4 5c3e c325 cb3e 340a be3f
00000310: f4ab 0cbe d4c1 973f b6f4 123f ec3b 493f
00000320: 2f95 c6bf fa36 5b3f 78e9 153e e1e9 ec3e
00000330: b434 21be 6dcf d4bf 828b f0be 21c9 8b3d
00000340: 42ca 12bf b9d7 aabf ab94 c2be f717 b4bf
00000350: 6472 a7bf e59c 8bbf 2e30 643f cbe0 c73f
00000360: 0dde ed3e 786f 293f 1ac6 a4bf 807f 80bd
00000370: cf50 acbe 659e fa3e 1473 113e 9721 ec3e
00000380: be9e 3e3f b5cb a83f 7748 60bf 0709 05bf
00000390: c281 b1be 7a74 bd3f 255e 503e 6c12 4c3f
000003a0: e192 cfbf 40ed 74bd 172e b93f 5e87 5d3f
000003b0: 5898 c2bf 7ace d7bf 9025 11bd 005d 75be
000003c0: f11c ddbe a544 abbe e290 bdbf 1982 b9bf
000003d0: 0513 943f 04c7 0cbf 3eaf bfbe 0930 20be
000003e0: 172b 8abf 70a2 dbbf b413 9bbe c594 46be
000003f0: b78b dcbe 1d6e 033e 0fce 523e c591 50bf

linear2.weight f4 [256, 256]
0.05998269 -0.04915794 -0.020280669 0.005532734 -0.004933794 -0.065619424 -0.017280087 0.037435908
-9.276903e-05 -0.039995845 -0.031031042 0.042691253 -0.015928267 0.012000486 0.09278676 0.007870496
0.009549253 0.002172504 -0.044232614 -0.03811713 0.01918023 -0.03814976 -0.036573395 -0.00638325
-0.0252686 0.022937164 0.053252805 0.019410348 0.010259921 0.14063479 -0.050538465 -0.054527245
0.044361092 -0.049409583 0.0045552617 0.0076951077 -0.03751561 0.01708342 -0.03806541 -0.0038352192
0.033114858 0.03903399 -0.029107034 0.019731684 0.030511485 -0.03716394 -0.030194398 0.018667318
-0.018957134 -0.040940523 -0.029988386 0.057505824 -0.048510037 -0.044612084 -0.055296484 0.0027523781
-0.029525062 -0.009729691 0.04611992 0.008560179 -0.019661205 -0.026861915 0.022471087 0.018107502
-0.066097744 0.008004562 0.01588741 -0.036263783 0.034587916 0.024335539 0.013663933 -0.0016024411
-0.03223064 0.042231254 -0.033558264 0.03588582 0.028072154 -0.048707884 0.0104366215 -0.05133889
0.043963794 0.0569311 0.052275915 0.022199482 0.0033998461 -0.04888565 0.02000082 0.022400293
-0.023177028 0.064973176 -0.0012326499 0.043415282 -0.014027564 0.043056577 -0.047551796 -0.056938216
0.041177034 -0.048072737 -0.04744252 0.050442673 -0.046291444 0.057802692 -0.019492902 0.003978058
-0.021168392 0.03205553 0.035772935 0.010297715 -0.05607861 -0.034723207 -0.011070132 -0.04544281
-0.05977316 0.0068254923 0.0567358 0.029098593 -0.07074477 -0.10615813 -0.08099411 -0.05021999
0.016522193 -0.00043730703 0.026543524 0.041827474 -0.009416468 0.024804894 -0.02088727 0.039682705
0.014010442 -0.008398772 -0.017219419 0.04776353 0.04554126 -0.13131711 0.023720518 0.025292218
0.0475431 -0.03058994 -0.030812673 -0.046001896 -0.04087499 -0.058594503 -0.018619 0.046705075
-0.013856269 -0.061686777 0.010145394 -0.024117153 0.00065117236 -0.0014182215 -0.06180364 -0.05450382
-0.029531823 -0.009105276 0.014215571 -0.010909981 -0.04014082 0.031548332 0.0039470037 -0.05621878
0.007105641 -0.028891306 -0.017917044 -0.03161765 -0.016682114 -0.045310367 -0.054198116 0.04948279
0.00022781632 -0.05212442 -0.058586434 0.018600937 -0.03365366 -0.054902047 0.040930767 0.056026906
-0.04086516 -0.071067505 0.052153483 0.065501876 -0.056326266 -0.049845472 0.050832033 0.017416885
0.009333683 0.0009847087 0.04656741 0.0008570556 -0.03425112 -0.008695972 0.0024495258 -0.033704963
0.050842125 0.009982243 -0.021659097 0.036518533 -0.018011056 -0.032401256 -0.068691395 -0.014261775
-0.036615606 -0.08700948 0.03189225 -0.008672537 0.020079665 0.045307256 0.038025253 -0.015584365
-0.044725887 -0.023902446 0.031269066 -0.014795296 0.013489508 -0.04084546 0.034434877 0.05243046
-0.04279467 0.03724904 -0.03730543 -0.028348155 0.0017413911 0.047909983 -0.04688149 0.029034186
0.02269049 0.0056765024 -0.017226826 0.05172353 -0.06464562 0.06478419 0.03457551 -0.024500385
-0.041148003 0.02507551 -0.021094432 -0.0011439492 -0.059591055 -0.0153728565 0.041210428 -0.0071008354
-0.018740024 -0.0041646464 -0.03425106 -0.07351647 0.03606661 0.05767589 -0.0018177181 0.033245508
0.0013369613 -0.010095949 0.043228097 -0.0006198769 -0.02055695 0.011746928 -0.076200716 0.054116886
00000000: 69b0 753d d659 49bd a523 a6bc f04b b53b
00000010: aaab a1bb 7a63 86bd f88e 8dbc 6556 193d
00000020: fe8c c2b8 afd2 23bd d034 febc 06dd 2e3d
00000030: ff7b 82bc b09d 443c fc06 be3d 41f3 003c
00000040: 7874 1c3c 9260 0e3b 422d 35bd b520 1cbd
00000050: dc1f 9d3c ec42 1cbd fccd 15bd 952a d1bb
00000060: 1800 cfbc b8e6 bb3c 9d1f 5a3d 7302 9f3c
00000070: 3a19 283c 9102 103e 6c01 4fbd f657 5fbd
00000080: fab3 353d b461 4abd 4e44 953b 3e27 fc3b
00000090: f8a9 19bd 87f2 8b3c 7aea 1bbd 4d58 7bbb
000000a0: 72a3 073d 1be2 1f3d e071 eebc 57a4 a13c
000000b0: 39f3 f93c 3739 18bd 3e5a f7bc 34ec 983c
000000c0: fe4b 9bbc 40b1 27bd 34aa f5bc 3a8b 6b3d
000000d0: 76b2 46bd 29bb 36bd 917e 62bd 3e61 343b
000000e0: 8bde f1bc 4869 1fbc 3ee8 3c3d fe3f 0c3c
000000f0: 8910 a1bc 850d dcbc 4915 b83c 2f56 943c
00000100: 415e 87bd 9125 033c 5026 823c 5589 14bd
00000110: 0fac 0d3d 535b c73c b0de 5f3c 0009 d2ba
00000120: 4704 04bd aefa 2c3d 6474 09bd 02fd 123d
00000130: 93f7 e53c eb81 47bd 5dfe 2a3c ba48 52bd
00000140: 6113 343d 9630 693d 451f 563d b0db b53c
00000150: f4cf 5e3b 523c 48bd c2d8 a33c d280 b73c
00000160: c0dd bdbc a810 853d de90 a1ba 39d4 313d
00000170: ded3 65bc 185c 303d acc5 42bd 0c38 69bd
00000180: 40a9 283d ebe7 44bd 1653 42bd fa9c 4e3d
00000190: 199c 3dbd 84c2 6c3d 94af 9fbc 5f5a 823b
000001a0: 5669 adbc a94c 033d a486 123d bfb7 283c
000001b0: afb2 65bd ec39 0ebd 805f 35bc 3d22 3abd
000001c0: b3d4 74bd 61a8 df3b cc63 683d 2c60 ee3c
000001d0: a2e2 90bd 6f69 d9bd 3de0 a5bd 7ab3 4dbd
000001e0: 8d59 873c 5b46 e5b9 ce71 d93c 4953 2b3d
000001f0: 8847 1abc a233 cb3c c81b abbc 558a 223d
00000200: 0e8c 653c 019b 09bc bd0f 8dbc b1a3 433d
00000210: 7989 3a3d fe77 06be 8851 c23c a031 cf3c
00000220: 8ebc 423d c197 fabc dc6a fcbc 7c6c 3cbd
00000230: 896c 27bd ca00 70bd e086 98bc d24d 3f3d
00000240: 6805 63bc 46ab 7cbd de38 263c 5691 c5bc
00000250: 70b3 2a3a 9ee3 b9ba d025 7dbd 663f 5fbd
00000260: b9ec f1bc 4c2e 15bc 6de8 683c c7bf 32bc
00000270: b36a 24bd d338 013d de55 813b aa45 66bd
00000280: 70d6 e83b 76ad ecbc c4c6 92bc 8281 01bd
00000290: eea8 88bc 5d97 39bd d8fe 5dbd 77ae 4a3d
000002a0: fae1 6e39 6a80 55bd 54f8 6fbd fe60 983c
000002b0: 6cd8 09bd f8e0 60bd 05a7 273d 787c 653d
000002c0: 3a62 27bd d78b 91bd e49e 553d d925 863d
000002d0: 5fb6 66bd c42a 4cbd 4035 503d dbad 8e3c
000002e0: 4eec 183c 5711 813a 78bd 3e3d 07ac 603a
000002f0: e74a 0cbd 8d79 0ebc 3988 203b 370e 0abd
00000300: d53f 503d 908c 233c 6b6e b1bc 7594 153d
00000310: ec8b 93bc 2eb7 04bd 13ae 8cbd 38aa 69bc
00000320: 3ffa 15bd 0732 b2bd 73a1 023d 4217 0ebc
00000330: 1c7e a43c 1a94 393d 5ec0 1b3d 9155 7fbc
00000340: 7e32 37bd 10cf c3bc fe13 003d f867 72bc
00000350: 1903 5d3c 924d 27bd 960b 0d3d 52c1 563d
00000360: 7749 2fbd 7392 183d 94cd 18bd 643a e8bc
00000370: 643f e43a 423d 443d ce06 40bd 1ad9 ed3c
00000380: 68e1 b93c f401 ba3b 461f 8dbc 0ddc 533d
00000390: ec64 84bd 93ad 843d 0d9f 0d3d 08b5 c8bc
000003a0: cf8a 28bd 286b cd3c 3bce acbc 91f0 95ba
000003b0: c015 74bd 6fde 7bbc 44cc 283d 20ae e8bb
000003c0: ae84 99bc 9677 88bb d74a 0cbd ce8f 96bd
000003d0: 95ba 133d 8e3d 6c3d 8040 eeba 712c 083d
000003e0: fa3c af3a 7b69 25bc f20f 313d 3c7f 22ba
000003f0: 0c67 a8bc 3076 403c 1f0f 9cbd aba9 5d3d

linear2.bias f4 [256]
0.09663193 -0.009672394 0.004321575 0.005472179 -0.00021266192 -0.039334595 0.026686557 -0.10359333
0.002143295 0.02385321 -0.298421 0.019093547 -0.18977977 0.074945204 0.11625416 -0.046634275
0.04605231 0.013626293 -0.003661526 -0.030803876 0.23455471 0.031301636 -0.02217119 -0.03458823
0.026258554 -0.39748037 -0.0058589936 -0.028598566 -0.050345227 -0.01852557 -0.012924015 0.0259234
-0.04202383 -0.053212635 -0.4887844 -0.052054748 -0.035040863 0.049377624 0.019038662 -0.032241244
-0.03611536 0.082568824 0.17839715 0.028045861 -0.024238398 -0.019145794 -0.1927607 0.011447785
-0.009679483 0.050373927 0.023661684 -0.019855304 -0.038528487 -0.18751918 -0.021615054 -0.050585598
0.043301392 -0.02123297 -0.016574241 0.036766414 -0.15810938 -0.72846806 -0.031177418 -0.008145206
-0.017356733 -0.07437341 0.07407398 0.0031173883 -0.020736016 0.004541717 0.0024702388 0.05789955
0.021601943 -0.053425856 0.03919939 0.02529209 0.10290983 -0.02341869 0.025265936 -0.019058
0.04381876 -0.06634418 -0.002319418 0.05900553 0.012540744 0.029909568 -0.39797926 -0.0618056
-0.37422103 0.02329057 -0.01001257 0.067481995 0.025888614 -0.15389438 0.04582696 -0.026356293
0.05167483 -0.053076085 0.024647646 0.011319235 0.035158616 -0.14445886 -0.0035142435 0.021813883
-0.043345656 -0.28194612 -0.057506688 -0.042686876 -0.038071126 -0.023308696 -0.038874805 0.0024738577
-0.8396411 0.0038150984 0.01557191 0.023290657 0.06243684 -0.018963246 -0.069307126 0.018258447
0.03883391 -0.015106095 -0.05367732 0.02959977 -0.049140513 0.03712372 -0.0013485837 -0.23494671
-0.03600558 0.013954685 0.012560724 -0.0028385066 -0.047682587 0.0026482344 0.07435927 0.000734854
-0.043722883 -0.19100551 -0.026443288 0.024324961 -0.012614857 -0.022275705 0.06546348 0.059910946
-0.0051621194 -0.012242792 -0.052172054 -0.047284555 0.04224893 0.056792382 0.006028609 -0.034632646
-0.0138373235 0.006731018 0.010555498 -0.042790003 -0.029970275 -0.062142044 -0.008486004 0.046007954
0.0011861183 -0.544369 -0.025498636 -0.05488614 0.049428817 0.020851325 -0.006907186 -0.048155114
-0.1130444 0.015348094 0.022955596 -0.0068736 -0.044830687 0.031271324 -0.03187453 0.014553674
0.018694378 0.050729673 -0.05011801 -0.009940851 -0.3314028 -0.043680143 -0.009007692 -0.017624058
-0.023454506 0.10521202 -0.18798208 0.0076950705 0.0018830338 -0.19814515 -0.041926354 0.090709515
0.060334675 0.027928453 0.015192061 0.010988109 -0.18753222 -0.65062124 -0.07418511 0.026709668
0.024524754 -0.032831952 0.016329104 0.050218955 0.03121543 0.98290443 -0.02971087 0.029749522
-0.020224946 -0.13878953 0.9364074 0.086845346 0.010501169 -0.049741015 0.054060638 -0.0382342
-0.03246639 0.025491193 -0.019971438 0.038969208 0.048254833 0.0035677627 -0.011889807 -0.03906493
0.03968256 -0.18348767 -0.016660752 -0.0145123955 -0.06007899 -0.035460114 0.021287732 -0.038515963
0.20009626 -0.5334707 -0.020953856 -0.0122001665 -0.026985254 0.3027856 0.06879407 0.01161471
-0.23206797 -0.054625936 0.05155352 0.01945216 0.038094185 -0.002095871 0.018409662 0.02847016
0.040268656 0.0004728809 -0.04103822 0.01965343 0.049779955 -0.015352442 0.23530194 0.018019384
00000000: f6e6 c53d f678 1ebc 009c 8d3b f74f b33b
00000010: 00fe 5eb9 501d 21bd c49d da3c bd28 d4bd
00000020: 8676 0c3b cf67 c33c a3ca 98be 126a 9c3c
00000030: a155 42be df7c 993d a916 ee3d 9503 3fbd
00000040: 59a1 3c3d d140 5f3c 36f6 6fbb 6958 fcbc
00000050: 1c2f 703e 2536 003d 5ba0 b5bc 63ac 0dbd
00000060: 2e1c d73c 8c82 cbbe cdfc bfbb 8a47 eabc
00000070: cc36 4ebd f0c2 97bc 3fbf 53bc 4f5d d43c
00000080: 2e21 2cbd 7ef5 59bd f341 fabe 5c37 55bd
00000090: 0287 0fbd 3140 4a3d f8f6 9b3c 650f 04bd
000000a0: b3ed 13bd d819 a93d bead 363e 6fc0 e53c
000000b0: 9b8f c6bc a4d7 9cbc 1063 45be 7e8f 3b3c
000000c0: b296 1ebc e454 4e3d 26d6 c13c 97a7 a2bc
000000d0: 0cd0 1dbd 0705 40be 0e12 b1bc d832 4fbd
000000e0: cd5c 313d c4f0 adbc b4c6 87bc 6198 163d
000000f0: 6de7 21be e27c 3abf c967 ffbc 7873 05bc
00000100: b52f 8ebc 1651 98bd 19b4 973d 194d 4c3b
00000110: 94de a9bc afd2 943b bbe3 213b 1428 6d3d
00000120: 8ff6 b03c 12d5 5abd 8a8f 203d 5b31 cf3c
00000130: 64c2 d23d 8dd8 bfbc 82fa ce3c 861f 9cbc
00000140: 4d7b 333d 75df 87bd 6001 18bb c8af 713d
00000150: b177 4d3c e904 f53c f0c3 cbbe de27 7dbd
00000160: e699 bfbe decb be3c c30b 24bc 0034 8a3d
00000170: 5c14 d43c 7d96 1dbe 0db5 3b3d 27e9 d7bc
00000180: fda8 533d 4f66 59bd dce9 c93c 5074 393c
00000190: 7b02 103d 06ed 13be 394f 66bb 07b3 b23c
000001a0: 378b 31bd 3e5b 90be 228c 6bbd 6fd8 2ebd
000001b0: 78f0 1bbd e1f1 bebc 303b 1fbd 7220 223b
000001c0: b8f2 56bf bb06 7a3b 5321 7f3c 0ccc be3c
000001d0: c6bd 7f3d cf58 9bbc e5f0 8dbd bd92 953c
000001e0: 4e10 1f3d 8e7f 77bc c0dc 5bbd 387b f23c
000001f0: 9047 49bd 0b0f 183d f6c2 b0ba df95 70be
00000200: 967a 13bd 31a2 643c 7fcb 4d3c 3d06 3abb
00000210: d14e 43bd 008e 2d3b ac49 983d 38a3 403a
00000220: c416 33bd f396 43be 989f d8bc 2445 c73c
00000230: 8cae 4ebc 8a7b b6bc b811 863d 2e65 753d
00000240: ff26 a9bb fe95 48bc 5db2 55bd 73ad 41bd
00000250: 370d 2d3d 219f 683d a38b c53b f6da 0dbd
00000260: f1b5 62bc df8f dc3b f8f0 2c3c 9244 2fbd
00000270: 3984 f5bc a888 7ebd e108 0bbc d672 3c3d
00000280: 8777 9b3a c45b 0bbf 84e2 d0bc 4ad0 60bd
00000290: df75 4a3d 66d0 aa3c ad55 e2bb 4c3e 45bd
000002a0: d383 e7bd 9276 7b3c 600d bc3c f03b e1bb
000002b0: 62a0 37bd 5c16 003d de8e 02bd 8872 6e3c
000002c0: f424 993c ebc9 4f3d 8b48 4dbd f3de 22bc
000002d0: a1ad a9be f3e9 32bd 0095 13bc 5460 90bc
000002e0: aa23 c0bc 6679 d73d 607e 40be ee26 fc3b
000002f0: 21d0 f63a 90e6 4abe f8ba 2bbd e9c5 b93d
00000300: 7e21 773d 36ca e43c 1fe8 783c 7807 343c
00000310: 7208 40be 1d8f 26bf 5dee 97bd 3cce da3c
00000320: 23e8 c83c cc7a 06bd 9dc4 853c 64b2 4d3d
00000330: 80b7 ff3c a09f 7b3f 3664 f3bc 45b5 f33c
00000340: c9ae a5bc d81e 0ebe 65b8 6f3f f9db b13d
00000350: 180d 2c3c 3cbd 4bbd b06e 5d3d 779b 1cbd
00000360: 7afb 04bd e8d2 d03c 249b a3bc 2d9e 1f3d
00000370: dca6 453d 20d1 693b 77cd 42bc 8c02 20bd
00000380: 2e8a 223d 31e4 3bbe 217c 88bc 66c5 6dbc
00000390: 6315 76bd a03e 11bd 9c63 ae3c eac2 1dbd
000003a0: 09e6 4c3e 8991 08bf 6ca7 abbc 35e3 47bc
000003b0: 2e10 ddbc b706 9b3e e8e3 8c3d a04b 3e3c
000003c0: 3aa3 6dbe 72bf 5fbd c929 533d 235a 9f3c
000003d0: a608 1c3d e15a 09bb dccf 963c 413a e93c
000003e0: bff0 243d 00ed f739 b117 28bd 3b00 a13c
000003f0: 11e6 4b3d cf88 7bbc fef2 703e 639d 933c

linear4.weight f4 [256, 256]
0.044722375 0.019723253 0.05216465 -0.041995194 0.03708701 -0.025603808 0.0454817 0.1724312
-0.056305125 0.05095924 0.07973205 0.013369357 0.01963094 -0.052419648 -0.036206305 0.14317471
0.041626703 -0.021410134 0.016488198 -0.04401361 -0.023635283 0.030868419 -0.008785606 0.02055798
-0.044968285 0.04777301 0.03866768 -0.042211387 -0.016833663 -0.05966021 -0.025502592 0.05005133
0.055508457 0.0043793246 0.07587884 -0.05002413 0.013887897 -0.049263734 0.018439729 -0.014616877
-0.021570332 -0.016037868 -0.015546625 0.056283567 0.01211656 0.008084271 0.016197372 0.007393229
0.00075734314 0.029080048 -0.038936634 0.059067387 0.027222633 0.13829826 0.042118147 0.0025874644
-0.040380273 -0.026185013 -0.014399491 0.029886574 0.102723874 0.035953574 -0.0041638147 0.024045967
-0.0128027955 0.08704735 -0.030921692 -0.008538357 0.03453348 0.055038854 -0.018472929 -0.022753365
-0.0131965745 -0.035695992 0.04053843 0.014980061 -0.06555524 0.031581983 -0.054019675 -0.044794954
-0.05113357 0.02104532 -0.0297665 -0.027790338 -0.022295937 -0.009832913 0.031547617 0.018610572
0.0693813 0.026533706 -0.052282833 0.037868645 0.0003622669 0.07301824 0.039507337 -0.005224064
0.054543912 0.01934573 0.019982617 0.013049595 0.01144384 0.17487642 0.04937426 -0.043774866
-0.06255951 0.017741587 0.049050976 0.046272606 0.027015992 -0.010931136 0.02635291 -0.03294536
0.024388378 0.0502318 -0.008486002 0.0037286058 -0.008654758 -0.056864645 0.017400008 0.026211094
-0.022332981 0.020326398 -0.028772458 -0.047958754 0.024676844 -0.05378727 -0.06105188 0.049153976
0.027249204 -0.0821602 0.056269374 -0.022978583 0.0037662291 0.019142158 -0.008003185 -0.0552545
0.052140273 0.022401337 0.10039333 0.0024055731 -0.011017621 0.006775266 0.056770734 -0.056826603
0.046305645 -0.014524358 0.051002905 0.044466957 0.021103553 -0.0060524107 -0.053006675 0.04810088
0.018025318 0.009535847 0.056766637 0.022532688 0.0033859976 -0.030459829 -0.04942674 -0.04203489
0.03118401 0.2326888 -0.03147322 -0.004838854 0.042769097 0.018583363 -0.06348854 -0.044425376
0.02153729 0.032188393 0.04610328 -0.0027473946 0.025433965 -0.06444312 -0.051622286 0.0015264492
0.018873265 0.014020552 0.06074723 0.05271952 0.037684143 -0.059855882 -0.06040039 -0.027145222
0.04808229 -0.03933773 0.0077466234 -0.017086724 0.007514897 0.03578847 -0.014971805 -0.08253717
0.03200017 0.02849716 -0.029042494 0.058744945 -0.036673162 0.019105399 0.13212076 -0.005818589
0.02444201 0.048913613 0.060731404 -0.039832342 0.053415917 -0.14485376 -0.01785747 0.056292377
0.051350188 0.10930291 0.12783998 -0.04062643 -0.040440537 -0.029332792 0.024209358 -0.06286934
0.0017598725 -0.02412372 0.04746067 0.028350616 -0.04538993 0.02605734 0.019092053 0.02441379
-0.008651306 0.2009383 0.039773863 -0.017889347 -0.025818348 0.0109630525 0.09916778 -0.00052948296
-0.04559211 0.20789303 -0.04249537 -0.022441419 -0.020821141 0.037371982 -0.05364246 -0.0622638
0.15273844 -0.06469336 0.030764716 0.009144284 -0.02985778 0.03697877 -0.07917622 -0.058819383
0.12788738 0.010856174 -0.029768009 -0.0076342607 0.007356515 -0.0393805 -0.014466618 -0.029735098
00000000: cf2e 373d a992 a13c 9aaa 553d 2703 2cbd
00000010: 8ce8 173d 14bf d1bc 054b 3a3d ce91 303e
00000020: 34a0 66bd a3ba 503d 8f4a a33d 260b 5b3c
00000030: 11d1 a03c fcb5 56bd 104d 14bd 649c 123e
00000040: c380 2a3d 4e64 afbc 4212 873c 9d47 34bd
00000050: c89e c1bc c4df fc3c 81f1 0fbc 3569 a83c
00000060: aa30 38bd a2ad 433d 0062 1e3d d9e5 2cbd
00000070: c0e6 89bc 445e 74bd d0ea d0bc a002 4d3d
00000080: d65c 633d 7080 8f3b 5e66 9b3d 1ae6 4cbd
00000090: 108a 633c c5c8 49bd ea0e 973c a07b 6fbc
000000a0: 44b4 b0bc d961 83bc 45b7 7ebc 9989 663d
000000b0: 8984 463c e473 043c 5ab0 843c e642 f23b
000000c0: 7088 463a 4839 ee3c 057c 1fbd a5f0 713d
000000d0: 0002 df3c 0f9e 0d3e 1484 2c3d 7392 293b
000000e0: c965 25bd f481 d6bc d8eb 6bbc b0d4 f43c
000000f0: e560 d23d 0e44 133d 9c70 88bb 0cfc c43c
00000100: d1c2 51bc e245 b23d 7d4f fdbc 77e4 0bbc
00000110: fa72 0d3d 6c70 613d 8a54 97bc 4465 babc
00000120: 7236 58bc f635 12bd a00b 263d ee6e 753c
00000130: d341 86bd 1c5c 013d bc43 5dbd ea7a 37bd
00000140: 6f71 51bd 3c67 ac3c e0d8 f3bc 90a8 e3bc
00000150: f8a5 b6bc 3a1a 21bc 1338 013d 3375 983c
00000160: c817 8e3d 375d d93c 8626 56bd 271c 1b3d
00000170: a4ee bd39 968a 953d 72d2 213d a02e abbb
00000180: 7069 5f3d f07a 9e3c 96b2 a33c f8cd 553c
00000190: f27e 3b3c ce12 333e aa3c 4a3d 464d 33bd
000001a0: 331f 80bd ce56 913c ade9 483d 5888 3d3d
000001b0: a450 dd3c 8218 33bc 0fe2 d73c b7f1 06bd
000001c0: 23ca c73c dcbf 4d3d df08 0bbc a05b 743b
000001d0: b0cc 0dbc e7ea 68bd 768a 8e3c a6b8 d63c
000001e0: a8f3 b6bc 8c83 a63c 38b4 ebbc 6670 44bd
000001f0: 1827 ca3c 0a50 5cbd 8911 7abd ae55 493d
00000200: b939 df3c 9b43 a8bd b77a 663d 953d bcbc
00000210: d7d2 763b 04d0 9c3c ca1f 03bc 8b52 62bd
00000220: 0a91 553d 0283 b73c 059b cd3d d2a6 1d3b
00000230: 4083 34bc 0d03 de3b 6e88 683d 03c3 68bd
00000240: fdaa 3d3d 93f7 6dbc 6ce8 503d fc22 363d
00000250: 5ce1 ac3c 4d53 c6bb 871d 59bd 6e05 453d
00000260: d5a9 933c 3e3c 1c3c 2284 683d 7996 b83c
00000270: 9de7 5d3b e486 f9bc b173 4abd c72c 2cbd
00000280: 9c75 ff3c f945 6e3e 10ea 00bd 408f 9ebb
00000290: a62e 2f3d 233c 983c 4806 82bd 62f7 35bd
000002a0: f96e b03c fad7 033d cbd6 3c3d a20d 34bb
000002b0: e45a d03c c1fa 83bd e471 53bd 2313 c83a
000002c0: 1b9c 9a3c 75b6 653c 16d2 783d 6cf0 573d
000002d0: b05a 1a3d 712b 75bd 6666 77bd a85f debc
000002e0: eff1 443d 9920 21bd 63d7 fd3b 75f9 8bbc
000002f0: 863f f63b ee96 123d 4d4c 75bc 3f09 a9bd
00000300: 9c12 033d e072 e93c 86ea edbc 8a9e 703d
00000310: 9936 16bd ed82 9c3c aa4a 073e dda9 bebb
00000320: 9c3a c83c a459 483d 7ec1 783d 3d27 23bd
00000330: a6ca 5a3d 8b54 14be d449 92bc d692 663d
00000340: 9354 523d 34da df3d 7ce8 023e e667 26bd
00000350: faa4 25bd 534b f0bc b452 c63c a4c1 80bd
00000360: 86ab e63a 1c9f c5bc 1f66 423d 8d3f e83c
00000370: cbea 39bd 3476 d53c f066 9c3c 6eff c73c
00000380: 35be 0dbc c5c2 4d3e ebe9 223d ae8c 92bc
00000390: 0081 d3bc 609e 333c 7a18 cb3d 00cd 0aba
000003a0: cbbe 3abd e9e1 543e a00f 2ebd 11d7 b7bc
000003b0: 1991 aabc 5d13 193d 32b8 5bbd 5408 7fbd
000003c0: 7767 1c3e f47d 84bd 4906 fc3c e8d1 153c
000003d0: 4e98 f4bc 0d77 173d 2427 a2bd 98ec 70bd
000003e0: e9f4 023e 18de 313c 0adc f3bc d228 fabb
000003f0: ec0e f13b 724d 21bd 6505 6dbc 0597 f3bc

linear4.bias f4 [256]
-0.5616641 0.20294273 -0.3093101 0.13928029 -0.59959984 -0.48989502 -0.048981383 -0.62178516
0.44651914 -0.09978772 -0.689027 0.15219489 0.43684128 -0.02865655 -0.60204107 -0.41700643
-0.039402753 -0.5181623 -0.56144446 -0.31768844 -0.62587047 0.16411883 -0.008071145 -0.04972374
-0.66808355 -0.061843112 -0.348226 -0.7353231 0.3222157 -0.16281681 0.59804606 -0.62492484
0.8243011 0.5418249 0.23342273 -0.71275485 -0.09073602 0.20374458 0.6596219 0.46065745
0.36089763 -0.5654603 0.7177518 -0.52341115 -0.8707397 -0.28855592 0.7717094 -0.3813521
0.6274622 0.5867502 -0.44117832 -0.1927184 -0.68515694 0.18748823 0.5910157 -0.40657896
-0.14745413 0.31605205 0.5292547 -0.6227397 0.4630434 0.31595865 -0.060649037 0.7139826
-0.9153861 -0.66333145 0.017905887 0.08753744 0.8228657 -0.49549896 -0.6400938 -0.18463735
0.15363161 0.36115363 -0.605893 0.2145332 0.4306026 -0.7325438 -0.31965598 -0.044968978
-0.09079017 0.87070143 0.4754528 0.6721725 -0.4626938 -0.044592038 0.7867675 0.59361494
-0.6467263 0.58934915 0.47719255 -0.66366875 0.050754108 -0.5951405 -0.5319489 -0.49935257
-0.009464212 0.58232754 -0.57315665 -0.3027342 0.085861914 0.23269707 0.04638727 0.05989922
0.5602906 -0.7012876 0.007273847 -0.445585 -0.37230667 0.5306987 -0.90044385 -0.29966652
0.45828578 -0.46491018 -0.66796273 0.052663993 -1.1033404 -0.4566735 -0.59276134 -0.69917685
0.55977 0.24339214 -0.27380654 -0.71586514 -0.09389276 -0.79088396 -0.6243031 0.89116734
-0.0076270485 -0.4811689 0.18480578 -0.5438351 0.63257825 0.7055298 -0.271584 0.15397885
0.5111923 -0.011589798 0.29555634 0.65631896 0.7699409 -0.3624176 -0.46155342 -0.6365295
0.29660717 0.6591493 0.4611485 0.025593884 0.6308088 -0.8547487 0.37134385 0.5718437
-0.56192344 0.4599147 0.6386156 0.58608705 0.04086818 0.89667827 0.58347034 -0.30916238
-0.6300185 -0.3837366 -1.0053989 0.5449428 -0.56713194 -0.8994018 0.010107096 0.5031011
-0.7452308 0.80910707 0.017866854 0.6380417 0.44835696 0.24260029 -0.49929917 0.15890127
-0.70126367 -0.64824355 0.71437806 -0.6433757 -0.19921921 -0.45746556 -0.07326237 -0.7178345
-0.55238354 -0.08299947 -0.48352128 0.6981639 0.75388336 -0.5679342 0.65170014 0.5970884
0.23255707 -0.5816886 0.36861727 -0.5951224 -0.1341615 0.02163167 -0.06519175 0.58897376
-0.50014883 0.56753534 0.2912267 0.02346453 0.7766175 -0.17492752 -0.47617814 0.6936216
-0.0049894247 -0.8541483 0.4731206 -0.088756636 0.74236125 0.4995306 -0.7344122 0.84595263
-0.4420274 -0.042302154 -0.8542187 -0.028745983 0.4501469 -1.0997801 0.5520598 0.31009436
0.25223437 0.6539629 -0.40099466 -0.44941327 -0.624734 -0.083290935 0.7366021 0.06229988
0.113006584 0.7001125 -0.5748989 -0.64278746 -0.6885905 0.7087837 0.45003492 -0.32627425
-0.7425907 -0.013145133 -0.40164673 0.97210103 -0.8184385 -0.020459844 0.27153772 0.5096428
-0.743199 -0.40372273 -0.6865059 0.007984459 -0.48964763 0.62445736 -0.46370396 0.49226466
00000000: 38c9 0fbf 38d0 4f3e e55d 9ebe 7e9f 0e3e
00000010: 607f 19bf 85d3 fabe b4a0 48bd 502d 1fbf
00000020: 289e e43e 815d ccbd 1364 30bf fad8 1b3e
00000030: a9a9 df3e 24c1 eabc 5d1f 1abf de81 d5be
00000040: c864 21bd 49a6 04bf d3ba 0fbf 0fa8 a2be
00000050: 0c39 20bf c40e 283e d63c 04bc 1fab 4bbd
00000060: 8607 2bbf 344f 7dbd ae4a b2be 223e 3cbf
00000070: 75f9 a43e 73b9 26be 8c19 193f 13fb 1fbf
00000080: 6605 533f 09b5 0a3f 5e06 6f3e 1a77 36bf
00000090: ced3 b9bd 6ba2 503e fbdc 283f 4bdb eb3e
000000a0: 93c7 b83e 02c2 10bf 95be 373f 46fe 05bf
000000b0: cce8 5ebf 9abd 93be bf8e 453f 9540 c3be
000000c0: 5da1 203f 4335 163f 20e2 e1be f957 45be
000000d0: 7266 2fbf eafc 3f3e ce4c 173f 1e2b d0be
000000e0: 37fe 16be 93d1 a13e 3c7d 073f de6b 1fbf
000000f0: 0614 ed3e 55c5 a13e 206b 78bd 90c7 363f
00000100: be56 6abf 17d0 29bf 5eaf 923c d446 b33d
00000110: 54a7 523f 0ab2 fdbe 30dd 23bf 9311 3dbe
00000120: 9b51 1d3e 21e9 b83e ce1b 1bbf 97ae 5b3e
00000130: f277 dc3e fe87 3bbf f3a9 a3be 6431 38bd
00000140: 32f0 b9bd 4ae6 5e3f 8d6e f33e 7f13 2c3f
00000150: 34e6 ecbe 24a6 36bd 9869 493f 26f7 173f
00000160: db8f 25bf 96df 163f 9552 f43e 32e6 29bf
00000170: 8ae3 4f3d 215b 18bf ce2d 08bf 24ab ffbe
00000180: c80f 1bbc 6b13 153f 65ba 12bf faff 9abe
00000190: 5fd8 af3d 2448 6e3e 9400 3e3d e258 753d
000001a0: 346f 0f3f 9687 33bf 7359 ee3b b823 e4be
000001b0: fb9e bebe dfdb 073f 7d83 66bf e46d 99be
000001c0: 6fa4 ea3e b508 eebe 9bff 2abf 33b6 573d
000001d0: 423a 8dbf 1cd1 e9be 35bf 17bf 41fd 32bf
000001e0: 164d 0f3f ca3b 793e 5f30 8cbe f042 37bf
000001f0: d94a c0bd 5f77 4abf 54d2 1fbf 8b23 643f
00000200: 52ec f9bb c55b f6be ba3d 3d3e c738 0bbf
00000210: a6f0 213f 9a9d 343f 0f0d 8bbe a2ac 1d3e
00000220: 80dd 023f 23e3 3dbc 2953 973e 8504 283f
00000230: d91a 453f cd8e b9be bb50 ecbe 99f3 22bf
00000240: e5dc 973e 02be 283f a81b ec3e 44aa d13c
00000250: af7c 213f d0d0 5abf c820 be3e 5964 123f
00000260: 37da 0fbf f179 eb3e 507c 233f cd09 163f
00000270: 6565 273d b58c 653f 505e 153f 884a 9ebe
00000280: e448 21bf 2079 c4be e9b0 80bf 5f81 0b3f
00000290: 8f2f 11bf 323f 66bf 3c98 253c 3ccb 003f
000002a0: 72c7 3ebf a421 4f3f 825d 923c b356 233f
000002b0: 0b8f e53e 366c 783e 24a4 ffbe 04b7 223e
000002c0: 0486 33bf 4af3 25bf 7be1 363f 45b4 24bf
000002d0: 1f00 4cbe ed38 eabe 950a 96bd 00c4 37bf
000002e0: 0269 0dbf a0fb a9bd 1a90 f7be dfba 323f
000002f0: 80fe 403f 2364 11bf d2d5 263f c9da 183f
00000300: 7123 6e3e 8be9 14bf 67bb bc3e f159 18bf
00000310: a261 09be e634 b13c 4183 85bd fcc6 163f
00000320: c109 00bf ff49 113f ab1b 953e b038 c03c
00000330: 68d0 463f 3320 33be 9fcd f3be 2f91 313f
00000340: 547e a3bb 77a9 5abf dd3c f23e 0ac6 b5bd
00000350: 630b 3e3f 7ac2 ff3e 7002 3cbf 5a90 583f
00000360: 6a51 e2be 0645 2dbd 14ae 5abf b27c ebbc
00000370: a879 e63e 98c5 8cbf cb53 0d3f b0c4 9e3e
00000380: dd24 813e 1d6a 273f 2c4f cdbe 7f19 e6be
00000390: 91ee 1fbf 7094 aabd f591 3c3f 292e 7f3d
000003a0: ff6f e73d 933a 333f 932c 13bf b88d 24bf
000003b0: 7847 30bf d972 353f fa6a e63e 6b0d a7be
000003c0: 6d1a 3ebf af5e 57bc a4a4 cdbe 9ddb 783f
000003d0: 2f85 51bf 679b a7bc fe06 8b3e f377 023f
000003e0: 4a42 3ebf bfb4 cebe dabe 2fbf 40d1 023c
000003f0: 18b3 fabe 70dc 1f3f 9b6a edbe 1d0a fc3e

linear3.weight f4 [1, 256]
-0.21534629 -0.24331436 -0.47224793 0.12050203 -0.37619415 -0.025560288 0.02331896 -0.16527294
0.24800229 0.008747004 -0.0894254 0.10039979 -0.14503495 -0.0047572874 -0.2991254 -0.055674214
0.00068139425 -0.013912434 -0.3141693 -0.39662147 -0.39225343 0.3581008 -0.017828997 0.21118902
0.15221758 -0.3641521 -0.36775893 -0.1903479 0.08688251 0.6961335 0.33791804 -0.5961894
0.45589933 -0.15053838 0.1345317 -0.12009934 0.12420648 0.3098405 0.22791694 -0.13117054
-0.097186066 -0.5475354 0.35863638 0.08453543 -1.2896321 -0.2566817 0.38195342 -0.00047836304
0.74244386 0.14246278 -0.06657994 -0.14134166 0.024218675 0.29947856 0.10121709 -0.0606728
-0.013211541 -0.07232791 -0.20427483 -0.0938119 -0.7142624 0.099769235 0.0049209334 0.7237198
0.45592377 -0.10972665 0.096140206 0.0015031324 0.70750135 -0.048537098 -0.21389079 0.00039150892
1.2681763 0.076298825 0.10790092 1.1174989 -0.07921768 0.28537944 -0.1742492 0.002227833
0.008377341 0.7958271 0.097116865 0.3707628 0.0715613 0.006130874 0.59150445 0.29637104
-0.78174394 0.30855298 0.1213261 0.12742618 0.013485243 0.34632808 0.023137927 -0.103415266
-0.0012068251 0.15341686 -0.10743917 -0.09470529 0.29088533 -0.10882105 -0.0050263265 -0.14764453
-0.13313124 0.20233525 0.16898657 -0.006233917 0.010125507 0.06688939 -0.8749355 -0.4210713
-0.09824282 0.044612855 0.24759926 -0.02959693 0.45247805 0.29014668 -0.19892578 -0.18483737
0.26861593 0.9039927 -0.018548533 0.36504942 -0.46740004 -0.7085701 -0.22034003 0.8245734
0.1079106 0.0059475545 1.3033512 -0.16528021 0.07783477 0.45400962 -0.09314124 0.19439127
0.24440712 -0.0418628 0.1162136 0.26185352 0.5866069 -0.04130603 0.0036784005 0.0012111238
0.38391805 0.48011407 -0.05875492 0.008798108 0.24479754 -0.5978249 0.22586285 0.71714574
0.02444294 0.62325704 0.2599944 0.45546508 0.19533709 0.9809386 0.16881503 -0.007631805
-0.36552614 -0.41832832 0.4345726 0.11601699 -0.08077698 0.15229163 0.3875945 0.1492433
-0.044479255 0.6466145 0.11617718 0.47523797 -0.043798435 0.5559822 -0.06363453 1.1111146
-0.24352123 -0.80328315 0.3788566 0.37457636 -0.0038324974 -0.0760318 0.23138441 0.24783887
-0.1904407 0.0017367529 -0.33974302 0.6258664 0.55364144 0.13204303 0.26921767 0.2786727
0.37887427 -0.4179956 0.6925343 0.11273002 0.006987694 -0.004964236 -0.083482146 0.0769724
-0.59683126 -0.34522647 0.5805061 0.070601664 0.74407464 0.025690276 -0.3769465 0.76981133
-0.3525403 -0.5079028 0.17289884 -0.01329569 0.48262924 -0.7191216 -0.23540875 0.5467123
0.004293396 0.029601337 -0.99294364 0.005075521 -0.038350645 0.7826287 0.20346574 -0.059932638
0.47966987 0.8612284 -0.06455148 -0.111205794 0.28969175 -0.0027724793 0.30387154 -0.47239828
0.6961001 0.61594963 0.18255168 -0.052820627 -0.09889298 0.75273126 -0.058493085 -0.20942032
0.099853985 -0.04265241 -0.09130772 0.6226167 -0.7061506 0.06233222 0.2527757 0.20210601
-1.0704086 0.06073839 -0.44635352 0.20321867 0.04142632 0.4077135 0.103335254 -0.103887126
00000000: bd83 5cbe 6627 79be 7bca f1be c5c9 f63d
00000010: 859c c0be cf63 d1bc 6707 bf3c 4f3d 29be
00000020: 50f4 7d3e 984f 0f3c aa24 b7bd 689e cd3d
00000030: 0b84 14be 05e3 9bbb f726 99be a50a 64bd
00000040: 989f 323a faf0 63bc ccda a0be f811 cbbe
00000050: 71d5 c8be fd58 b73e 1e0e 92bc ef41 583e
00000060: edde 1b3e 2572 babe e64a bcbe 8fea 42be
00000070: 75ef b13d ce35 323f 9803 ad3e de9f 18bf
00000080: a36b e93e bc26 1abe aec2 093e a5f6 f5bd
00000090: f85f fe3d 6aa3 9e3e 0f63 693e 9251 06be
000000a0: 7d09 c7bd 482b 0cbf 309f b73e e920 ad3d
000000b0: aa12 a5bf c96b 83be 668f c33e cdcc fab9
000000c0: cd10 3e3f c3e1 113e 105b 88bd debb 10be
000000d0: 3e66 c63c 4155 993e e84a cf3d 0b84 78bd
000000e0: 3875 58bc a820 94bd 6c2d 51be 7420 c0bd
000000f0: e7d9 36bf d053 cc3d c83f a13b b345 393f
00000100: d76e e93e 5eb8 e0bd 28e5 c43d c104 c53a
00000110: cf1e 353f d6ce 46bd 3006 5bbe 7043 cd39
00000120: 9a53 a23f 8f42 9c3d 28fb dc3d 340a 8f3f
00000130: e13c a2bd 411d 923e 626e 32be d600 123b
00000140: 1d41 093c 53bb 4b3f 35e5 c63d 9fd4 bd3e
00000150: bb8e 923d 80e5 c83b d66c 173f f2bd 973e
00000160: 5f20 48bf a8fa 9d3e d179 f83d 027c 023e
00000170: 35f1 5c3c ea51 b13e c08b bd3c 62cb d3bd
00000180: 552e 9eba 4f19 1d3e 1109 dcbd d9f4 c1bd
00000190: ecee 943e 92dd debd e2b3 a4bb 2130 17be
000001a0: 8e53 08be f930 4f3e d10a 2d3e e345 ccbb
000001b0: 74e5 253c 4efd 883d c6fb 5fbf a896 d7be
000001c0: 8833 c9bd f8bb 363d a98a 7d3e 4375 f2bc
000001d0: 34ab e73e 1b8e 943e 33b3 4bbe 0246 3dbe
000001e0: 0788 893e 116c 673f 18f3 97bc c2e7 ba3e
000001f0: 0f4f efbe da64 35bf d1a0 61be 3e17 533f
00000200: 3c00 dd3d b4e3 c23b 36d4 a63f 373f 29be
00000210: d667 9f3d f373 e83e d6c0 bebd 810e 473e
00000220: dc45 7a3e 5478 2bbd 6501 ee3d aa11 863e
00000230: df2b 163f 8330 29bd 5211 713b 92be 9e3a
00000240: e890 c43e 83d1 f53e 00a9 70bd f125 103c
00000250: 35ac 7a3e 0d0b 19bf 9748 673e dd96 373f
00000260: 8f3c c83c c68d 1f3f fc1d 853e b832 e93e
00000270: 7206 483e cb1e 7b3f d9dd 2c3e 3814 fabb
00000280: 3e26 bbbe 212f d6be 4d80 de3e 519a ed3d
00000290: 676e a5bd 56f2 1b3e c972 c63e 3cd3 183e
000002a0: e12f 36bd 8788 253f 4dee ed3d 6452 f33e
000002b0: fd65 33bd d954 0e3f d252 82bd 0139 8e3f
000002c0: a15d 79be f7a3 4dbf 7ef9 c13e 79c8 bf3e
000002d0: a32a 7bbb 8fb6 9bbd 09f0 6c3e 79c9 7d3e
000002e0: e302 43be c2a3 e33a ccf2 adbe c838 203f
000002f0: 72bb 0d3f 4a36 073e e6d6 893e 30ae 8e3e
00000300: cffb c13e 8503 d6be ee49 313f ffde e63d
00000310: 07f9 e43b 08ab a2bb b0f8 aabd b5a3 9d3d
00000320: efc9 18bf 86c1 b0be 0c9c 143f 9b97 903d
00000330: ad7b 3e3f 6a74 d23c 22ff c0be 5b12 453f
00000340: 2a80 b4be eb05 02bf 650c 313e 2ad6 59bc
00000350: 2e1b f73e 5a18 38bf fe0e 71be 56f5 0b3f
00000360: 9eaf 8c3b 817e f23c 8e31 7ebf 8e50 a63b
00000370: 9115 1dbd 5b5a 483f 5359 503e ed7b 75bd
00000380: 4a97 f53e 7779 5c3f 9133 84bd ddbf e3bd
00000390: 7a52 943e 7cb2 35bb 0d95 9b3e 30de f1be
000003a0: 9e33 323f e0ae 1d3f d4ee 3a3e 715a 58bd
000003b0: 6788 cabd ffb2 403f 7296 6fbd 4872 56be
000003c0: 3f80 cc3d 4bb4 2ebd 8bff babd cf63 1f3f
000003d0: 49c6 34bf 1250 7f3d d16b 813e e1f4 4e3e
000003e0: 2603 89bf d1c8 783d 7388 e4be 8e18 503e
000003f0: a5ae 293d d3bf d03e 6fa1 d33d c6c2 d4bd
